runs/Mar02_16-20-28_cssd901383-Run(lr=0.001, batch_size=256, patience=1)-valid/checkpoint.pt (torch_old, 972387 bytes, 8 tensors)

fc1.weight f4 [256, 784]
00000000: 1278 77bf 485d b4be 6566 d93d 0dcf 0cbf
00000010: f772 48be 6868 e83e 7082 ae3f d93d c13e
00000020: 7516 d4be 6fac 3f3e 9e1d 983e 73e5 db3e
00000030: a8e5 203d 603d e23e e568 743e 2eae 0b3d
00000040: d575 593f 105c 913f 2e26 f9bc 1da8 48bf
00000050: ddd2 a5be 8cd2 2a3f 44f0 f03c 0a37 1bbf
00000060: f649 bdbf 0442 e7be 0595 a0be 77ed b3be
00000070: 71a0 3cbe 5f7c 223f 21ed 5dbc 2af7 05bf
00000080: cec5 97be 0d51 c1be 83cb 55bf 0b8d 91bf
00000090: e9cb 4abe 91ae ae3f 5b62 973f 5e48 303f
000000a0: 23fb 0ebe b02f 743e 6d6e ee3e 6368 d8bc
000000b0: 035b b43e 8933 bd3f d8b1 c93f 4703 d63e
000000c0: 3ef6 68bf 886e 44bf 64b0 d4be 5ed0 68be
000000d0: 9ea8 79bf c3f8 81be 9cbc 8bbe 3425 9fbe
000000e0: 8bbe 36bd 89bf ea3e 265d 4cbe bcce 4f3d
000000f0: 8ea8 963e a322 6abf 6e98 67bf d7e9 2fbf
00000100: 2bb9 29bf 7f40 ca3d 3253 71be 87bd 05be
00000110: 946d 86be a919 d6bd 5b60 d1bd 5426 96be
00000120: 1801 3cbe f361 4bbe 9e9d 963d 2d90 34be
00000130: 3114 cbbe 1914 22bf 0474 38bf 13ff 71bd
00000140: c1f2 8cbe bede c4be 806c bfbe bacc dbbe
00000150: ed4a d23e 9a58 ee3e d123 5a3e c622 de3c
00000160: 6969 1c3e c8f1 063e f441 4fbf f712 8fbf
00000170: 6962 6cbf 1135 58be 79e9 173e 743a 123e
00000180: 3c79 d13d 92a0 f23c d314 a5bd 85c7 34bd
00000190: 6d46 e93d 9739 103e 7ab8 19be beef 50bf
000001a0: 9ca7 7abf 5d0d 46bf 54e4 ccbe e80e ddbb
000001b0: 9dfe c7be d5f5 34bf 2d91 d4be 5b89 1eba
000001c0: 9a22 083f f7c6 dd3d 5517 a5bd da80 7c3e
000001d0: 117f 053f 63b2 2f3d 2422 62bf 2c83 3abf
000001e0: b99a 9cbe 2fb7 4abc ac77 c33e 725d 853e
000001f0: 17d5 e7bd 07aa 9ebd 5507 15be 6ab2 5cbe
00000200: d61b ac3d a6c6 713e dafb 93bd c259 b0be
00000210: e153 1dbf 3693 76bf 27c0 fcbe c27d 9e3e
00000220: 231a ad3e b093 3abd ecaa 2a3e e4aa ef3e
00000230: 7724 fd3e dc08 2b3e 0fa8 a2bd bac3 a03e
00000240: 5c9b c33e c400 dfbc 7bc5 e2be b35e 9dbe
00000250: e2ed 44bd 2b90 433e 1bb4 7d3e 9e60 2c3e
00000260: 738c e63d ec1b c43d 8fd5 cd3d 9d0c 853d
00000270: 48e0 4d3d 8ada 3d3e c1d9 95bb 8549 28be
00000280: 33bc 6fbe c48a 0bbf 596d bdbe 9dcb e0be
00000290: 22ff ea3d e388 cf3c 9148 ed3e db9f 0a3f
000002a0: 2065 673e cb81 ad3e e2a8 243e 779e 8c3e
000002b0: 09b7 983e e499 96bd 4658 f2bd 9245 23bd
000002c0: 5e56 0ebe 9b8c b33e de37 623e 6f76 f33d
000002d0: dd9c 0a3e 00d5 5a3d c2cc 08bd affe 813d
000002e0: ad90 143e afa1 d23c 3298 8c3d fe6d 53bc
000002f0: 4d05 00be 61f7 77be 3f44 a4bd f29c dcbe
00000300: 7d29 78be 1c1f 093d 0b47 b83e 6d7a 523f
00000310: 1113 06be 6926 27be c8c8 0fbe 0a71 be3d
00000320: 0b43 cd3d cf9b 9fbd f806 013e 7caa 95be
00000330: 09d3 60be 9059 df3e 9bd0 cd3d 3179 713e
00000340: d207 653e 989d d53c 4439 86bd 9bdf 0f3d
00000350: d65e debc b004 97be 64ba e7bd 3b25 b73c
00000360: 8585 48be ba8f 3dbd c767 313e f73b c1be
00000370: 8af4 83be 5bef 213e 921f d4be eb4e 263f
00000380: ac60 98be 6729 08bf b0d0 b7bd abc2 c5be
00000390: 4565 983e 187b c43d 9fbb 963e 7e1d 56be
000003a0: 77f4 85be ad3b 7c3e 3df9 a13d 36bc 003d
000003b0: 4928 ca3d 6727 e7bd 7501 babd 9fae debc
000003c0: b4ca 05be a0f8 a3be 73b5 66be 5f51 11be
000003d0: 97d1 bfbe d8a8 24be 9578 213e 4e09 1abd
000003e0: 55f2 c8be 7f1b b9be 74dc bfbe c745 2ebe
000003f0: 2de9 76be 5805 b9be f264 bfbd 5e42 8dbd
-0.9666759 -0.35227418 0.10615233 -0.55003434 -0.19575106 0.45392156 1.3633556 0.377425
-0.41423383 0.18718122 0.29710096 0.42948493 0.039281517 0.4418745 0.23868139 0.034101658
0.8494542 1.135622 -0.030413713 -0.7838152 -0.32387438 0.6672752 0.029411443 -0.6063086
-1.4788196 -0.45167553 -0.31363693 -0.3514211 -0.18420579 0.63471025 -0.0135453055 -0.5233027
-0.296431 -0.3775715 -0.8351366 -1.1371168 -0.19804348 1.3647023 1.1826891 0.68860424
-0.13962989 0.23846316 0.46568623 -0.026416963 0.35225686 1.4781352 1.5757399 0.41799375
-0.91000736 -0.7673116 -0.41540825 -0.22735736 -0.97522914 -0.25385103 -0.27292335 -0.3108307
-0.04461531 0.45849255 -0.19957408 0.050734267 0.29425472 -0.914591 -0.90466964 -0.68716186
-0.6629817 0.09875583 -0.23566893 -0.1306058 -0.26255476 -0.10454113 -0.102234565 -0.29326117
-0.18359792 -0.19861583 0.07354282 -0.17633124 -0.39663842 -0.63311917 -0.72052026 -0.05908115
-0.27528957 -0.3845119 -0.37387466 -0.4292963 0.4107279 0.46551973 0.21302725 0.02711619
0.15274586 0.1317817 -0.8096001 -1.1177663 -0.9233766 -0.21113993 0.14835157 0.1428011
0.10228202 0.029617582 -0.080606125 -0.04413559 0.11390386 0.14084469 -0.15011778 -0.8161582
-0.97912 -0.7736414 -0.4001795 -0.0067461617 -0.39061442 -0.7068761 -0.4151701 -0.0006047689
0.531778 0.10828965 -0.08061091 0.24658528 0.5214701 0.042894732 -0.88333344 -0.728564
-0.30586794 -0.012372776 0.3817724 0.26047856 -0.113199405 -0.07747274 -0.14553578 -0.21552435
0.08403747 0.23610935 -0.07225771 -0.3444348 -0.61456114 -0.96318376 -0.4936535 0.3095532
0.33809003 -0.045551002 0.16666764 0.46810067 0.49441883 0.16702598 -0.07942211 0.31399328
0.38204467 -0.027222045 -0.4429129 -0.30736312 -0.048078425 0.19097964 0.24775736 0.16833732
0.11257257 0.09575638 0.10050499 0.064965464 0.05026272 0.18540397 -0.0045730774 -0.16434295
-0.23411636 -0.54508615 -0.36997488 -0.43905345 0.11474444 0.025333827 0.46344426 0.5415017
0.2259717 0.33888087 0.16080049 0.2746465 0.29827145 -0.07353571 -0.11833243 -0.03986127
-0.13900134 0.3506821 0.22091624 0.11887824 0.13536401 0.05342579 -0.033398397 0.06347405
0.14508314 0.025711862 0.068649665 -0.012904642 -0.12502022 -0.24215461 -0.080208294 -0.4308849
-0.24234577 0.033476934 0.359917 0.82218057 -0.13093211 -0.16323246 -0.14041436 0.09298904
0.10022553 -0.0779339 0.12600315 -0.29231632 -0.21955504 0.43623018 0.10049554 0.23581387
0.22366264 0.026076123 -0.06553891 0.035125356 -0.02714483 -0.29495764 -0.11314848 0.02235662
-0.19582184 -0.046279646 0.17324744 -0.37741062 -0.25772506 0.15813963 -0.41430336 0.6496417
-0.29761255 -0.53188175 -0.08975351 -0.38625082 0.29764763 0.09593791 0.2944002 -0.20909688
-0.26163074 0.2463214 0.079088666 0.031429492 0.09870965 -0.11286812 -0.09082309 -0.027182875
-0.13065606 -0.32025623 -0.22530155 -0.14191197 -0.37464592 -0.16080034 0.15768655 -0.03760653
-0.39247385 -0.3615379 -0.3747288 -0.17018805 -0.24112387 -0.3613689 -0.09345426 -0.06897424

fc1.bias f4 [256]
00000000: c5c2 6e3c 2eeb 7fbd 00b7 f93e a12b ebbc
00000010: 842c 80bd 243e 87bd 534e 61bd c9ee 58bd
00000020: bd57 ca3e 3ed0 92bd 12e6 76bd c788 e63d
00000030: e648 b63d 4a5a 853d 8762 433d f9f8 48bd
00000040: 33f0 353d 4c43 7fbd 7975 6bbd 71c4 0f3e
00000050: a19c b23d 539a 98bd cb0e 7a3d 0694 b7bd
00000060: 6a55 8fbf 3727 27be 3ca8 a53e 8240 bcbc
00000070: 36e9 53bd b813 2fbd 4c7b 243f 124e 0cbd
00000080: 2ce3 b5bd 9465 e1be 4a24 7a3d c872 4dbc
00000090: d6d5 3abe 6e85 08bd 3861 ad3d 58af f73e
000000a0: 15df 5f3e 8bf3 923c c330 9fbd 950e a6bd
000000b0: 640b b9bd e4f3 9fbc fc4c 83bf 4c53 0b3f
000000c0: 6c8c ed3e 11a1 e3bd 1933 193d 2372 d23e
000000d0: 587a 323e 8a80 4cbd 6932 86bd 039c 843e
000000e0: ed35 39be 696c 64bd 0f62 1bbe aab5 e3bd
000000f0: 399a 8b3f 7b38 6dbd 4eaf a03e 373e 9cbd
00000100: 7e62 423e 09a3 a2bd d69e 16bf ea9c 43bd
00000110: d3a1 dcbc a87b a2bd 9c8f 10bf 9887 8bbd
00000120: 47e9 ae3e bd9d 38bd 6d40 cabd 026c 9abd
00000130: dcae dfbe ab4d 463f a83a 30bd 9450 623d
00000140: 3f2f d3bb d247 52bd a8d1 52bd e563 47bd
00000150: d987 29be a8d7 34bd 2371 cfbd 85c0 eebd
00000160: 7d77 db3e 509c 9ebf a6af 1b3e 149c 95be
00000170: 82d4 c4bc c009 5ebc d6e1 5fbf 055f 69bd
00000180: f1ae 8c3e 6d44 d53e 259b b3bd 7185 b93c
00000190: 3573 bc3e 311b 0f3e 95fb 41bd 3015 a93e
000001a0: ec21 7dbf 212d 1fbd 8e66 b6bd 72b7 bebd
000001b0: b62b 02bf 9521 24bd 2a46 47bd bb18 0cbf
000001c0: ef62 c23d e32f abbd d8df 97bd 688d e03d
000001d0: 69b8 aebd b372 a2bd 8dca 0cbf c785 403e
000001e0: 6272 c73e b66a 07bd 0249 1dbd a14e c3bd
000001f0: d8f3 363d 12c6 263e acee 99bd d8c7 993e
00000200: c931 64be 8615 91bd db20 ae3e a086 14bd
00000210: 4ffd 1ebe 3421 cb3b 9767 4d3f 1743 5ab9
00000220: a608 4bbd 215b 443f c043 54bd 3c3f 963e
00000230: 8677 bdbd 9afe 3ebd b5c0 bfbe 3129 3abd
00000240: 9e9c 91bd 4873 52bf 8ae6 023f 42d7 08be
00000250: 5a1a 8cbd f96b 94be 13c3 43be d8c0 f8bd
00000260: 65f5 5b3e 560c 4bbd ff26 133e 2806 cfbd
00000270: 012a b8be 3cc4 843e 794e 56bd cedd 4abd
00000280: cfb7 ea3e 8fb6 b7bd 2974 673e bed4 27bd
00000290: 241d 9b3e c11f c1bd 267f d7bd b1e5 99bd
000002a0: 1bfc 35bd 9a77 f7bc 9961 343f 8832 fe3d
000002b0: 8478 48bd 10d1 59bd 9a4d ed3b d862 083e
000002c0: 22cb 3abd dc27 723f ca58 9bbd b306 66bd
000002d0: 60f7 23bd 8092 87bd ed6b fd3c 231f 3e3e
000002e0: dd6d 893e ec86 b13d 8b03 35bd 1bb4 89bd
000002f0: d897 b8bd 75d7 973e c528 8dbd baf8 9abe
00000300: dff2 5c3e 8069 3a3e b62b 9ebd d3be 983f
00000310: b524 3ebf 37bd 213f c551 1abe 9200 cebd
00000320: 91c4 9bbd 4499 273e bddb 633d 8332 31bd
00000330: ae8a 313f bfc5 67bc 8e37 cbbb c7e7 7cbd
00000340: 17de f33e 0909 f9bd 393c 513f 7f12 79bf
00000350: dc4d 88bd e8ef 76bd 2890 5fbd da41 45bd
00000360: 780d ee3e a978 0a3e 88a7 ac3e e638 83be
00000370: 8d2a 7b3e ebd2 9dbd 7f1d d5bd 0c2b 1abf
00000380: b77b aabd 4f46 48bd fc63 523e adc0 9bbe
00000390: 20a2 ccbe 387d e33e 001c 4cbd 240b c03d
000003a0: 6a3a 71bd 3228 2ebd 4c63 913f 8ee7 363e
000003b0: 9549 0f3f db78 28bd d6e2 d83d 64ad 223e
000003c0: 88e0 f3bd 7954 1f3f 058a e13e 8a62 273e
000003d0: 0285 6e3d 8bb3 63bd 1c99 71bd 8eb9 13bf
000003e0: fbd0 4abd 853f 11bd 9c43 1d3f 7e7f 283e
000003f0: a902 df3d a250 e83e 0259 2e3d 112b fa3d
0.014572804 -0.062480144 0.4877243 -0.028707327 -0.06258491 -0.06603649 -0.055006336 -0.0529621
0.39520064 -0.07168625 -0.060278006 0.11256557 0.08900623 0.06511362 0.047701385 -0.049065564
0.044418525 -0.06232004 -0.057485078 0.1403978 0.08721281 -0.0745131 0.061049264 -0.0896378
-1.1197941 -0.16323553 0.32354915 -0.022979978 -0.05173608 -0.042743415 0.64250636 -0.03425414
-0.0888122 -0.4402281 0.061069764 -0.012539573 -0.18245634 -0.033330373 0.08465809 0.48375964
0.21862443 0.017938396 -0.077729724 -0.0810825 -0.09035376 -0.019525476 -1.0257869 0.54423976
0.46396196 -0.11114705 0.037402246 0.41102704 0.17429483 -0.049927272 -0.06552584 0.25900277
-0.18086977 -0.05576745 -0.15174125 -0.11118634 1.090644 -0.057915192 0.31383747 -0.07629054
0.18982884 -0.07941253 -0.58836114 -0.047757067 -0.026932633 -0.07933742 -0.5646913 -0.06812972
0.3416235 -0.045072306 -0.098755695 -0.07540132 -0.43688095 0.7746226 -0.04302469 0.055252627
-0.006444841 -0.051338024 -0.051469475 -0.04867925 -0.16555728 -0.04415098 -0.10129001 -0.11657814
0.428646 -1.2391453 0.15203723 -0.2922064 -0.024027113 -0.013552129 -0.87453973 -0.056975383
0.2747722 0.41653767 -0.08769826 0.022646638 0.36806646 0.13975216 -0.047359068 0.33023977
-0.98879886 -0.038861398 -0.089062795 -0.09312333 -0.5084795 -0.04007109 -0.048650898 -0.54725236
0.09491526 -0.08358743 -0.07415742 0.10964471 -0.08531267 -0.079320334 -0.5499657 0.18801032
0.38954455 -0.03306075 -0.038399704 -0.09536482 0.04466614 0.16286495 -0.07516226 0.3003528
-0.22284617 -0.070841834 0.34009442 -0.0362612 -0.15526317 0.0061990265 0.8023619 -0.00020815093
-0.049568795 0.7670155 -0.051822424 0.2934512 -0.09251313 -0.046629526 -0.3745171 -0.04544944
-0.071099505 -0.82207155 0.51133025 -0.13363364 -0.06840964 -0.28988627 -0.19117384 -0.12146157
0.2148033 -0.04957231 0.14370345 -0.10108596 -0.35969546 0.25930965 -0.05232093 -0.049527936
0.4584336 -0.08970367 0.22602905 -0.04097437 0.3029567 -0.09429885 -0.105222985 -0.07514513
-0.04442988 -0.030208398 0.7046142 0.12411982 -0.048943058 -0.053177893 0.007241917 0.13318956
-0.04560388 0.9459207 -0.075852945 -0.056158733 -0.040030837 -0.066197395 0.030935252 0.18566565
0.26841632 0.086683124 -0.044192832 -0.067238055 -0.09013337 0.29656568 -0.06892542 -0.30267888
0.21577023 0.18204308 -0.07723181 1.1933235 -0.7427476 0.63179344 -0.15070255 -0.100587025
-0.076058514 0.1636706 0.05562948 -0.043261062 0.69352233 -0.014146267 -0.006201691 -0.061744478
0.4763038 -0.121599264 0.8173252 -0.9729385 -0.066554755 -0.060287386 -0.054580837 -0.048158504
0.4649465 0.1352259 0.33721566 -0.25629348 0.2452795 -0.07706245 -0.104060166 -0.60221934
-0.08324378 -0.048895177 0.20545954 -0.30420437 -0.39967442 0.44431472 -0.04983139 0.09377125
-0.0588936 -0.042518802 1.1358428 0.17861769 0.5597165 -0.04113088 0.105901405 0.15886456
-0.1190806 0.6223827 0.44050613 0.16346183 0.058232315 -0.055591147 -0.058983907 -0.5770501
-0.049515706 -0.035460968 0.6143129 0.16454884 0.10889179 0.45374018 0.042565353 0.122152455

fc2.weight f4 [128, 256]
00000000: 238e 57bd 5b4d 4ebd d7bc db3e 9313 6bbd
00000010: 420b fdbc 938d 2abd 08db ae3d 6d3c bbbc
00000020: 10ee 293e 9a71 cf3c a876 55bd e60a ab3d
00000030: 4d0f 293d 1f5e 9abc a45e 403d 1ccb 48bd
00000040: eed5 83be f1f2 c5bd 1cf5 35ba 2ab4 ebbe
00000050: 4446 08be c3b3 403d 73d8 fe3e 3f8b 90bb
00000060: 3c2e 35be 7f8a 50bd 2c2f 123e 0038 c9bd
00000070: 67d3 81bd 1437 abbd b588 0a3e 70e7 71bd
00000080: b30c b8bd fbe8 5c3e 4207 793c 87b4 463b
00000090: 030c 46bc e5db abbd 6969 dfbc 0af0 323e
000000a0: 1d40 e93a c671 833e 244a 06bd b42d f1bd
000000b0: 070e 81bd 00eb 12bd 4f6e 5dbe 8def fdbb
000000c0: 6566 4bbe 4762 3fbd 416e f2bc ef0b af3d
000000d0: 9684 f7bd 6d48 9ebd 650f d2ba 4eb7 b0bd
000000e0: 4921 b2bd 8dbd 8c3c bf95 83bd 5809 86bc
000000f0: 5bef ccbe 100d 16bd e623 b3bc 6ef3 88bd
00000100: 50ad 963e 35f4 723d ab6b a6be 50f2 acbd
00000110: f2ec 2c3e ff54 28bd defc 6fbd 8348 31be
00000120: c011 b2be 7729 95bd 9eed e1bd e444 b3bd
00000130: 9c97 e2bd 45bd 95be a128 273e 24ea bc3b
00000140: ac38 22bd 000c acbd 6082 f5bb 3bb4 903d
00000150: f569 973b 5498 c23d d0a5 803d 2670 093d
00000160: ad0e 473d 2539 b93d ae89 163f 8263 f4bd
00000170: 659b 8ebd bdea bdbc 401c a1be 9f65 a139
00000180: 88e2 f53e a849 b9bd 044f 603d 67f0 96bd
00000190: 0666 493e 1946 08bd 7b4f 46bd 382d 84be
000001a0: 5eb1 dcbd 7e7d 7bbd a815 97bd b2fd 8fbd
000001b0: c919 17be c657 cfbd 1f99 7fbc c440 a6be
000001c0: dd89 513e be87 e13d 3058 123e f5b4 123e
000001d0: bcc1 6abd 6cbe 6abd f170 c7bd 2bfe 163c
000001e0: 42c2 d23d e948 64bd a0ba 07be c077 133d
000001f0: 7075 9ebe a24d 9fbd d0be a8bc b01a 1f3d
00000200: e0f0 ecbd f99a 57bd 81c1 893d 6bc9 f9bd
00000210: c789 1c3d 5909 8e3d 6df1 d03d fdf0 8f3c
00000220: b564 a73c c04b 50be c99f cdb9 9f60 18be
00000230: 1412 d8bc af75 4ebd 01e0 e7bd 7ac9 853d
00000240: b45e 2c3d 8464 07be 755d 82bd 17b9 c3bd
00000250: 8f77 8cbd 2f2b 543e 877e cfbd 84a2 9abd
00000260: 8aea bd3e 4932 b0bd 205e 2c3e 782a 033d
00000270: 8a3b d4bd 995a c23d 91e0 ecbd 825d 12bd
00000280: bc63 03be 2577 28bd f07a 1e3c b639 e8bd
00000290: e1c1 debc cb2e f2bd 9df6 02bd 0f64 d7bd
000002a0: 0eff 5abd 1adc 02bd 0024 a23c d804 95bc
000002b0: 269a 1cbd 28b4 0e3d bc62 5739 ed24 fa3d
000002c0: 6c41 1dbd 30eb 8e3c eb7d e0bb a851 b63d
000002d0: 8c74 9fbc f254 b93d a212 373c cc38 6a3c
000002e0: 394a c73e f27f 763c efae 99bd fdad b0bd
000002f0: f252 363d e51b 75bd 685e bebd ea83 073e
00000300: e7f6 5b3d bbc9 3cbb c321 a7bd 22d5 84bd
00000310: 7803 05bb c340 a2bc d34e eabd 6abd 6d3b
00000320: ee3d aabb b4c3 153d 2c16 1cbd 9189 a53c
00000330: 3c33 7e3d c8ee 62bd 9863 f8bd 8e20 bcbc
00000340: cd59 9a3c a125 38bd 9377 91bd f178 9c3d
00000350: 68b2 7abd f75c bf3c 2c29 c6bd 6126 46bd
00000360: 8abe 223d d2de bd3d 3ed2 d1be 8190 acb9
00000370: fa07 293d 6e6d dcbc d892 babd ad5a 163e
00000380: 5ed4 a1ba 436f 81bd e731 b63d f582 ebba
00000390: b978 06be 26c2 f33d 2981 cabd 21b9 7b3d
000003a0: 5a13 afbb b53e 7abd 36eb 1b3d a2d3 133c
000003b0: 32f5 ce3d 1f60 ec3c c427 5a3e 19fa 133e
000003c0: ad01 943c 6b90 2abc 1559 27bd 4f37 8cbc
000003d0: c779 b93d 3a38 14bd 9dd2 a1bd 5314 9e3e
000003e0: 2364 6d3d b77a bfbd 0fa7 46be feae ba3d
000003f0: 9413 dfbb a61e c0bd 908c e1bd 3e4e c9bc
-0.052625787 -0.05036674 0.4291751 -0.057391714 -0.030889157 -0.041638922 0.08537871 -0.022855962
0.1659472 0.025322724 -0.052115113 0.08351688 0.041274358 -0.018843709 0.046965256 -0.049021825
-0.25749153 -0.09665478 -0.0006941126 -0.46035892 -0.13308054 0.047046434 0.49774513 -0.0044111307
-0.17693418 -0.05091333 0.14275807 -0.09825134 -0.0633915 -0.08360115 0.13528712 -0.059058607
-0.08986797 0.2157325 0.015199484 0.0030320005 -0.012087825 -0.08391551 -0.027271943 0.1747438
0.0017795597 0.2567274 -0.03278555 -0.11776295 -0.06301504 -0.035868645 -0.2162411 -0.007749504
-0.19863279 -0.046724584 -0.029593589 0.08547198 -0.12085836 -0.07728658 -0.0016026316 -0.086287126
-0.08697755 0.017180229 -0.06425046 -0.016361877 -0.40026364 -0.03663355 -0.021867704 -0.066870555
0.29429102 0.059314925 -0.3250402 -0.08444655 0.16887262 -0.041096684 -0.058590762 -0.17312817
-0.34779167 -0.072832994 -0.1103165 -0.08753374 -0.110640734 -0.29245964 0.16324092 0.0057652164
-0.039604828 -0.08400726 -0.0074923486 0.07065626 0.0046207854 0.095017105 0.06281626 0.03355422
0.04859798 0.090441026 0.5880383 -0.11933042 -0.06963233 -0.023183221 -0.31466866 0.00030784027
0.48024392 -0.09047252 0.054762855 -0.07370072 0.19667825 -0.033269975 -0.048415642 -0.2581575
-0.107760176 -0.061398976 -0.073771775 -0.070308104 -0.1475593 -0.10124163 -0.015600472 -0.32471287
0.20462747 0.11012219 0.14291453 0.14326842 -0.057313666 -0.057310507 -0.09738339 0.009215872
0.10290958 -0.055733595 -0.13254786 0.036002874 -0.30948973 -0.07778479 -0.020598799 0.03884381
-0.11569381 -0.052638028 0.06726361 -0.121966206 0.038217332 0.06935377 0.10202298 0.017570967
0.020433763 -0.20341396 -0.00039219696 -0.14880608 -0.026375808 -0.0504052 -0.11322022 0.06532569
0.042082503 -0.13221937 -0.06365482 -0.095567875 -0.068587415 0.20719598 -0.10131555 -0.07550529
0.37093002 -0.08603341 0.16832781 0.032022923 -0.10362919 0.094899364 -0.1156627 -0.035733707
-0.12831014 -0.04112925 0.009672865 -0.113391325 -0.027192058 -0.11825331 -0.03197347 -0.105171315
-0.053465895 -0.031948186 0.019792557 -0.018190786 -0.038232945 0.03483978 0.00020540779 0.12214074
-0.03839247 0.01744613 -0.006850948 0.089022934 -0.019464754 0.09049405 0.011173876 0.014295768
0.38923815 0.015045153 -0.07504069 -0.08626936 0.044512697 -0.059841055 -0.0929535 0.13233915
0.05370226 -0.0028806764 -0.081607364 -0.06485964 -0.0020296257 -0.019806271 -0.11440816 0.003627623
-0.005195371 0.03656359 -0.038107082 0.020207198 0.06206058 -0.0554035 -0.12128371 -0.022964742
0.018841648 -0.04495776 -0.07102885 0.07640255 -0.061205298 0.023359759 -0.09675822 -0.048376445
0.039732493 0.09271015 -0.40980715 -0.0003291406 0.041267373 -0.026907649 -0.091100395 0.14683028
-0.0012346616 -0.063200496 0.08896237 -0.0017968105 -0.1313199 0.11902265 -0.098879166 0.06145585
-0.005342883 -0.06109496 0.03806611 0.009022625 0.10105361 0.028854428 0.21304232 0.14450873
0.018067205 -0.0104104085 -0.04085644 -0.017116217 0.0905643 -0.036186434 -0.079014994 0.3087488
0.057956826 -0.09349578 -0.19399665 0.09115408 -0.006807754 -0.09380846 -0.11013138 -0.024573442

fc2.bias f4 [128]
00000000: e201 da3c 55cd 873f 39f0 e8be b380 49be
00000010: 732c 7b3f 5c9c 7d3f ba01 173f 5628 10bf
00000020: a874 38be 7546 833f fc3e 0abf 81d9 3cbd
00000030: 1112 4fbd 3ed3 f8be aa51 a73f ee54 eebe
00000040: 5446 b13e b650 30bf 0c91 abbb 2ff8 9fbe
00000050: f274 a1be ef78 b7bd 8680 d4be c5ae 96bd
00000060: cbd9 663d 4c2d eebe 4b29 07bf 5bcd 96bd
00000070: 00f1 e7be 634c 3a3f aa54 a63e 3386 b63e
00000080: 228e 0cbd 27a4 46bf ba6e 633e 44b2 07bd
00000090: e239 f6be 4bfc 21bf 3c85 56be 3350 febe
000000a0: ded2 363c 332a 3bbd 05f5 9b3e 8b59 f8bd
000000b0: d773 81be 6c18 6c3e eb0a 62be 4847 403e
000000c0: 13b4 20be 34f3 6a3f 279b 23bf 538a 4d3c
000000d0: dd05 3e3e 5f22 83be 06a9 f2bd 7927 723e
000000e0: 8d4c 87be 32a2 093d add0 3abf ff76 6ebc
000000f0: 324e 6a3f e010 e3bd 1a0c aabe 368e 93bc
00000100: 97af 84be 214e 0a3f 9d73 80bd cf10 c33e
00000110: b977 eebd 787a 22bc 0225 2abf 9bf6 ae3e
00000120: 6621 babe 9b9c dc3e adda a8be 9f8b 7abd
00000130: ced2 81bd 3c1c af3e 8479 2c3e a071 f9bd
00000140: 23f7 743c fdf7 8d3e 905d 34be 7aec a9be
00000150: 9ed9 a83e fe1e 62bc 6ba0 27bd 5ea3 253f
00000160: 5914 f5bd e471 d03e 58f5 113f b09d 40be
00000170: 4d4a 2dbf 8f9a d6bd 7de3 6fbe 38c8 debd
00000180: c145 0ebd ed52 9fbd e72b b2be dd15 a9be
00000190: b903 8e3e e5b3 80be 6b02 2a3f 89a9 6abe
000001a0: b407 58be d68f df3e 9059 33bd b4cc 9fbd
000001b0: 8ab3 8b3e 39e1 853e d196 953f 46c4 e0be
000001c0: 5257 553e fb83 b5be 65e7 9dbe 540f adbe
000001d0: ea33 83be f3c9 05be 3bf7 f43e 56bd b5be
000001e0: 95d1 26be c281 b3bd 9d9a b6be a845 303f
000001f0: 2d13 17bf 94af 713b 2bfb 22bf 8b76 dabe
0.026612226 1.0609537 -0.45495775 -0.19678001 0.981147 0.9906671 0.5898701 -0.5631155
-0.18013251 1.0255877 -0.54002357 -0.046105865 -0.05055434 -0.48598665 1.3071797 -0.4654917
0.3462397 -0.68873155 -0.005235797 -0.31244037 -0.31534535 -0.08958613 -0.41504306 -0.073575534
0.056360047 -0.46518934 -0.52797383 -0.07363387 -0.45301056 0.72772807 0.3248647 0.3564926
-0.034315236 -0.77594227 0.22210208 -0.03312899 -0.48091036 -0.63275594 -0.20949262 -0.49670562
0.011158673 -0.04569454 0.30460373 -0.12126454 -0.2528369 0.23056191 -0.22074477 0.18777192
-0.15693693 0.9177735 -0.6390862 0.012545186 0.18556924 -0.2561216 -0.11848645 0.2364787
-0.2642559 0.033601947 -0.72974664 -0.014554738 0.91525567 -0.11087203 -0.33212358 -0.018012147
-0.25915214 0.54025465 -0.062720515 0.3809876 -0.11643929 -0.009916894 -0.6646272 0.3417252
-0.36353606 0.4308823 -0.32979336 -0.06116831 -0.06339036 0.3420123 0.1684323 -0.121798754
0.0149515 0.27728263 -0.17613816 -0.3318823 0.3297853 -0.013801334 -0.04092447 0.64702404
-0.11966772 0.40711892 0.5701499 -0.18810153 -0.676915 -0.104786985 -0.23426624 -0.108780324
-0.03473449 -0.07779489 -0.3479912 -0.33024493 0.27737215 -0.2513725 0.6640994 -0.22916235
-0.21096689 0.43664426 -0.043786585 -0.07802716 0.27285415 0.26148394 1.168665 -0.43899745
0.20834091 -0.35452256 -0.30840603 -0.33800757 -0.25625545 -0.13065319 0.47844872 -0.35496014
-0.16290887 -0.08764984 -0.35664836 0.68856287 -0.59013635 0.0036878334 -0.636645 -0.42668566

fc3.weight f4 [64, 128]
00000000: 860d 233e 9051 76bd 1293 7a3d 987a 6d3d
00000010: 82a9 48be abbd 1abe 4d09 6e3d b4d5 833e
00000020: 2ef8 01be 2fc5 e3bd b99a 67be 1b31 03be
00000030: 9dc2 01be b5d0 0d3e 6880 f7bd ca5f 9c3d
00000040: 2c73 fd3d 9526 fa3c a2c2 1fbd 1430 c53c
00000050: 279f 1dbe a826 183d 8d76 b8bd 3c64 5fbd
00000060: 1fbd 2a3e 2a8e 4a3d 18d0 88be ffa7 cc3d
00000070: 53a1 95bb 915d 32be 2aa2 5cbe e8a3 9abd
00000080: ad37 dcbd d0e4 0cbe 5456 e13e 36a1 b53c
00000090: 2293 84be 8372 11be 8214 543e 71e8 083e
000000a0: 648f b53d c067 04be caed 8bbc cdea 09bd
000000b0: eb9b d33b 5e9e 633d 0546 f73d 6ff2 13be
000000c0: 5e5f 85be 4640 59be 7d34 253e f61a 21bc
000000d0: 38d8 593d 45f5 aabd 6d7b 953d f746 d4bd
000000e0: bed7 303d 4869 673d d1b9 cd3e b9e7 df3c
000000f0: 2cf8 a7be a4ff ba3d de2c 203d d262 cbbd
00000100: 942a ed3c 1ba0 bdbe 01c2 7ebe 03b3 acbd
00000110: 0d07 d2ba 794a 853c 7314 bcbe 8943 87be
00000120: 2319 9d3d 49a6 68bd 1a48 983d 1f62 a6bd
00000130: 983e 01bd 5449 87be 2e40 32be 54d9 febd
00000140: beb6 6c3c f4b5 8bbd 6935 b4bd 1b23 b13d
00000150: 9d26 1ebd 2464 1c3d ad36 06be 599a 9dbe
00000160: 741a ba3c 6404 e33d 41b7 f2bd f923 003e
00000170: 987f 0dbd 0ce3 0cbe 6000 3c3d 6956 123d
00000180: e2b9 59bd e768 6a3d a2ab 513e fe69 1abe
00000190: 85a8 d3bd 1ef4 19bb acd3 96be e79f f0bd
000001a0: e3fe f93c 7607 413e 5d28 9b3c 2594 d1bd
000001b0: 67bf 22be 1353 46be 72b3 95be 2f3b 8fbc
000001c0: 874e 71bd b737 283e efcd 26be 09bf 6d3d
000001d0: 2326 74be ad4e c33d dac9 81be 7243 a4be
000001e0: e6fe 573c 04e1 30bd e0dc d33e 9c94 f1bd
000001f0: fa79 863e 1d08 e9bd ae6d e9be df99 fbbd
00000200: c560 82bd 713b e4bd 297e af3e 2742 12be
00000210: acf1 41be 452c 4cbd 9690 75bd 1e61 a43d
00000220: 1728 f43d 5023 a2bd 678d b83d 15b9 43bc
00000230: f8c1 bbb9 35d9 4abd 8223 38be 1663 173e
00000240: 8171 12be 7338 d73e 4796 ab3e 177d d33e
00000250: ac8d 063e b44c acbd 4403 2f3c 580a 77bd
00000260: 3029 fdbd 7dd7 94be ce47 3f3e 9dee 0dbc
00000270: cc2c 0fbe 4b30 6bbe b6d4 56be 7347 e03a
00000280: bc1e 00be 4d97 a53e deb5 6bbc b3f1 87bc
00000290: 329e 36b9 6061 2a3e 0a78 923c 66d4 c5bd
000002a0: 339e 08bd 7202 263d d647 a1bd fb98 eebd
000002b0: 115b b13e c3a4 0fbe fe97 3b3e dad1 19bd
000002c0: 93a0 71be cd22 b7bd 9b5e e3bc 69df 50be
000002d0: bd33 18be ab94 e3bb 14ae da3d e6c6 17be
000002e0: bceb fcbe 5f32 a13c c738 babd f79b a93d
000002f0: ed69 93be a401 7b3b 806c 04be 534e dcbd
00000300: 0245 2ebd 501f 4abd 2e8a 383e 2871 70be
00000310: 106c d2bd 5dd7 efbd b697 25bd 6f90 a7bd
00000320: a419 23be 5b69 c73d 19ac 863e 9c47 de3d
00000330: 7c3c 0dbd 86ae 26be f4c2 4b3e 2f1b 3bbe
00000340: 2477 13be 94b6 8f3e 6b31 43bd 89c6 3a3d
00000350: a82c 75bd 111b 85bd f572 523c 341c d0bd
00000360: 980d a3bc 9311 bebc 9f0b 62be 3105 cb3e
00000370: 31b4 4ebe 5d80 14bb 5ab8 803d 20ea 2ebd
00000380: 5ff6 833b ce49 32be 6bf7 163d 4438 cfbe
00000390: 36e2 74be 11fb a5bc 4015 3dbe 6aa3 0ebe
000003a0: 7865 a1bb 8ad3 29bd 76c8 4dbc a5e2 83bd
000003b0: 3863 5abe 5416 11bd 1393 92bd dbe4 81bd
000003c0: bf10 64bd 4da9 1ebe 5c3e dbbd 0568 56bd
000003d0: 8417 93bd 5cee ebbd 5869 183e 0325 bc3d
000003e0: cd4f 673c 4ab2 adbd add9 833d 5d43 06be
000003f0: 0344 51bd 3ef5 b3bd 0f98 743e 4170 8c3c
0.15923128 -0.060136378 0.061175413 0.057978243 -0.19595912 -0.15111415 0.05811434 0.2574898
-0.1269233 -0.11121594 -0.22617616 -0.12811701 -0.12671895 0.13849147 -0.120850384 0.07635458
0.12375483 0.030535975 -0.039003976 0.024070777 -0.15392743 0.03714624 -0.09006987 -0.05453895
0.16673706 0.049451984 -0.26721263 0.0999298 -0.0045663505 -0.17418505 -0.21546236 -0.07550794
-0.10752807 -0.1375916 0.44011176 0.022171598 -0.25893503 -0.14203839 0.20710948 0.1336992
0.0886524 -0.12930202 -0.01708116 -0.03367119 0.006457796 0.055570953 0.12073902 -0.1444795
-0.26049322 -0.21215925 0.16133304 -0.009833088 0.053184718 -0.08347563 0.07298932 -0.10365098
0.043174498 0.05649689 0.4018083 0.027332174 -0.32806528 0.09130791 0.03910529 -0.09930958
0.028950967 -0.37036213 -0.24878694 -0.08432581 -0.001602383 0.016270863 -0.36734352 -0.26418713
0.0767081 -0.056799207 0.07435627 -0.08124184 -0.031553835 -0.26423132 -0.17407295 -0.12443796
0.014447866 -0.06821814 -0.0879925 0.08649274 -0.038611043 0.03818144 -0.13106795 -0.3078182
0.022717692 0.11084822 -0.11851359 0.12513722 -0.03454551 -0.13758487 0.045898795 0.03572694
-0.053155787 0.05722895 0.20475629 -0.15079495 -0.10334877 -0.0023491452 -0.29458368 -0.11749249
0.030517047 0.18850502 0.018940145 -0.102333345 -0.15893327 -0.19367628 -0.29238468 -0.017484276
-0.05891278 0.16427504 -0.16289495 0.058043513 -0.23842673 0.095364906 -0.25349313 -0.32082707
0.013183331 -0.04318334 0.41379452 -0.11795923 0.26264936 -0.113785006 -0.4559149 -0.12285208
-0.063661136 -0.1114415 0.3427594 -0.14283048 -0.18939847 -0.049846906 -0.05995234 0.08026336
0.11921709 -0.079168916 0.09011345 -0.011945982 -0.00035811937 -0.04952355 -0.17982295 0.14783892
-0.14301111 0.42035255 0.3351309 0.41306373 0.13139981 -0.084130675 0.010681931 -0.0603126
-0.123613715 -0.29070655 0.18679735 -0.008662847 -0.13981932 -0.22967641 -0.2097958 0.0017111137
-0.12511724 0.32341996 -0.014386622 -0.016594743 -0.00017415805 0.16638708 0.017879505 -0.096596524
-0.033353996 0.040529676 -0.0787503 -0.116502725 0.3463979 -0.14027695 0.18319699 -0.037553646
-0.2359641 -0.089421846 -0.027755072 -0.20397724 -0.14863487 -0.006945213 0.10677734 -0.14821967
-0.493986 0.01967734 -0.09092861 0.08281701 -0.28791752 0.0038300538 -0.12932014 -0.10757127
-0.04254628 -0.04934627 0.18021461 -0.23480666 -0.102745175 -0.11710999 -0.040427886 -0.081818454
-0.1592775 0.09736892 0.26303175 0.10853502 -0.03448151 -0.16277513 0.19898587 -0.18272088
-0.14400917 0.28068984 -0.04765455 0.045599494 -0.05985704 -0.06499303 0.012844791 -0.10161629
-0.019903943 -0.02320174 -0.22074746 0.39652398 -0.20185925 -0.0022659518 0.06285162 -0.042703748
0.0040271725 -0.17410967 0.03685705 -0.40472615 -0.23914418 -0.02026132 -0.18465137 -0.13929525
-0.004925426 -0.041461505 -0.012560001 -0.064397134 -0.21326911 -0.035421684 -0.071569584 -0.06342479
-0.055680033 -0.1549427 -0.107052535 -0.052345295 -0.071822196 -0.11520073 0.14883935 0.09186747
0.014118147 -0.084812716 0.06438003 -0.13111635 -0.05109025 -0.087870106 0.23886131 0.01714337

fc3.bias f4 [64]
00000000: 232c 4ebf 1075 7dbe 3226 d3bb fa85 cdbd
00000010: 01d6 08be ce65 0dbf 0e06 433e 6b20 883f
00000020: da1c c53e 9bd5 393f b7a5 2cbf e08a 3dbe
00000030: c048 fc3b 1dcd 78be 29a7 003f f043 3dbe
00000040: c658 1abe 837e 8fbe 72c5 a4be 1a04 15be
00000050: 1deb b13d ad34 b5be 3234 603f 0500 10be
00000060: 76e3 8d3e 22b0 92be e9b6 5a3f 71d6 2e3f
00000070: dd12 883f b760 37be 2e66 603d 9956 2fbf
00000080: fcb6 a93f f09e c3be 7b3a 813f 92a9 1c3f
00000090: fa1f 5a3e 25bd 393f 0457 943f 725c 783e
000000a0: 1527 65bd b8ab 1f3f da4b 4fbe 3589 fbbd
000000b0: c4b2 39bf cb7f 46be 2572 6a3f af1d 8bba
000000c0: 956e 88be e973 213f 5779 babe e578 88bc
000000d0: 94a1 47be 79f2 74bf 7c4e 563f b0d4 1dbc
000000e0: 3b74 3e3f c1d1 b8bd ae49 a8be ba76 b9be
000000f0: 2bd8 a13f 0d6a 43be 1c59 8dbe e6d0 7abe
-0.805361 -0.24751687 -0.006443762 -0.100353196 -0.13362886 -0.55233467 0.19045278 1.0634893
0.38498574 0.7259156 -0.6744036 -0.18510008 0.007699102 -0.24296995 0.50255066 -0.18482947
-0.15072927 -0.28026208 -0.3218189 -0.14552346 0.086874224 -0.3539175 0.87579644 -0.14062507
0.277126 -0.28650004 0.8543535 0.6829596 1.0630757 -0.17907988 0.054784946 -0.6849151
1.3258967 -0.38207197 1.0095972 0.61196244 0.2130126 0.72554237 1.1589055 0.24254015
-0.055945475 0.62371397 -0.20243779 -0.122820295 -0.725384 -0.19384687 0.9158042 -0.0010613705
-0.26646867 0.6306749 -0.364207 -0.01665921 -0.19495231 -0.95682484 0.8371351 -0.009633228
0.74396104 -0.090243824 -0.32868713 -0.36223394 1.2644094 -0.19083424 -0.27607048 -0.24493751

fc4.weight f4 [10, 64]
00000000: 88fc a3bf 16f0 02be f87f d73d e8e8 073e
00000010: 7f3f 0ebc 1dcb 37bf 8ce2 4ebe 8711 4b3d
00000020: ba0f 3abe b7ed 843e 4813 58be e38d 61be
00000030: 0954 79bc fc73 3f3e 2074 63bd a70e 5c3d
00000040: 17f7 4bbe e3dc 72bc cb4e 08bf a8bf 1fbd
00000050: bc99 59be 3c91 d2bd 640b 2f3d 8fe7 133d
00000060: 5da3 80be 6be1 dbbd 35c6 6e3d 3d25 07be
00000070: 4ceb acbe 9960 78bf 1b79 d23d da03 81be
00000080: 0b1c afbe 898b 4f3d 1f35 8dbf 10a8 813d
00000090: 39b0 19bf 502f d0be eb96 6a3e 22e4 66bf
000000a0: d66d 84be 68a3 b33c 7f92 2fbe 6d0c 1d3d
000000b0: 06d7 cebd e099 78bd 82e9 0e3e 09a2 e03d
000000c0: 10a0 88be a9f3 a0bd 1109 3f3e bfb1 b0bd
000000d0: 9d94 673a 1d41 50bf e7d1 3bbd 4e72 033d
000000e0: eae1 d83c 45af 25bf 1d8b 18bf a66e 04bf
000000f0: 347d 2bbf 085e 503e d6bb f8bd d15c 0dbd
00000100: 7c00 8abf 86eb 34bd 65e8 c7be 500a cf3b
00000110: f9c5 f63d ab65 30bf 3537 0b3d d66f 513d
00000120: bd33 c6be c2a6 3abe b1a1 adbe 1c37 14be
00000130: 4b0b c7bd 38a4 bcbc a8ce 9ebf 55d7 6ebd
00000140: ead3 96be 0cc2 75bf 153d 63be c12f 213c
00000150: 4764 d73c a111 2a3c 4510 583e b0c2 2bbf
00000160: 0074 63be 2406 053d 7e0d 263e 66b0 073d
00000170: a36d e5be 5d8a 1fbf 2035 f4be 70c3 3dbf
00000180: 50c7 b1be 3757 0abf ee8c f0be 5100 69be
00000190: 0481 2ebf fcbb 12c0 8d50 00bf 41d0 afbe
000001a0: 4e72 22bd 4240 27bd 4df7 f83d f6d4 7a3d
000001b0: c00b 8ebf 6f61 00be 0567 38bd e274 ebbc
000001c0: ec45 b9be 34d0 cabf 98cf 21bd 57dc 9fbe
000001d0: e499 813e 761f b3bf 3783 0dbf 97ed 7f3d
000001e0: 18a1 07bf 5d4e 02bf af19 a1be dd3a 4cbf
000001f0: 39b9 8fbf a843 f03c 387e 7cbe 0141 13bd
00000200: 8e39 a8bf 50b9 2f3d 8529 c8be e64b 37be
00000210: 0f46 f8bc 52d3 57bf c70b 5dbe 1380 8c3d
00000220: a247 073e 590b 52be 6781 f9be ebd4 f53d
00000230: b533 1c3d b2c8 563d 4a81 b0bd 11b7 c4bb
00000240: 5c6f 39be 248c 17be 318c efbe 5e06 a9bd
00000250: 91a8 e83d 1ad9 94bc 1f5e ca3c ed85 eabe
00000260: 2090 87be a1ce 953d a6e0 4dbe 3aef 15be
00000270: bfb0 5f3c c291 d3be df47 52be 8490 85be
00000280: 17cc fcbe f9d8 00bf 4cbe 29bf 7769 053e
00000290: 0ae3 69bf 3680 4fbf 2124 da3d 69c8 21bf
000002a0: 5387 90bd 437a 6b3e 2024 ffbd 0123 6abb
000002b0: 0b07 59bd 4ac5 1fbd d1dd 503c 8c25 28be
000002c0: 220f 56bf a67f 103e caf5 2e3e 0e17 d5be
000002d0: 6cc8 2ebe e2bf 36bf 97d5 44be ecba eebd
000002e0: a4ca e2bd e0f4 1ebf 9b67 9cbf 6dfc debe
000002f0: c520 03c0 4d11 e3bd e3aa 543d 93c3 08bf
00000300: 7938 dbbf 9206 923d 5db4 fbbe 475f 9d3c
00000310: fc33 48bd 86da f3be 9265 3b3e 32ca eebe
00000320: 48d5 3c3d bc1f 083d 3e09 06bf 687f 94be
00000330: 226b b8bd 919d 03be 0b6a f5be 84e3 b2bd
00000340: 8332 42be e5f0 54bf aa9d 3dbf 688f bdbd
00000350: fb5c 46be b712 b53b 9ee1 1fbe 6b27 4fbe
00000360: cddb 5fbe c82f afbd 58c6 413e 0925 3a3e
00000370: 0bfa a4be 06b0 11bf 2649 14bf 9403 bbbf
00000380: 90bc 54be 9bd5 84be 9545 f7be c23e 463e
00000390: 59fc 0bbf b4d7 49bf 8ba0 f6bd 1e1c 02bf
000003a0: 8c2a 183e 7194 cabc 37a1 08be f0ba 06bd
000003b0: fc6c 3ebf 48a8 5f3c b571 183e 4d1e b83c
000003c0: c38a b93d d4e4 7abe 2288 023e ce39 abbe
000003d0: 2585 433d ee7f a9bf a531 66be efde a13c
000003e0: a7c7 ddbd 8a65 e0be ae4b f5be 27f3 96bf
000003f0: 104b 61bf f24c 61bd 46b2 9fbd 385a c1be
-1.2811441 -0.12786898 0.10522455 0.1327244 -0.008682131 -0.717943 -0.20203608 0.049577262
-0.18170062 0.25962612 -0.21101105 -0.22026782 -0.015217789 0.18696588 -0.055530667 0.05372491
-0.19918476 -0.014823171 -0.5324523 -0.039001137 -0.21250051 -0.102816075 0.042735472 0.036109503
-0.25124636 -0.107363544 0.058294494 -0.13197799 -0.33773267 -0.97022396 0.10277005 -0.2519825
-0.34201083 0.05067018 -1.1031836 0.063308835 -0.6003452 -0.40661097 0.22909133 -0.90191853
-0.25865048 0.021928504 -0.17145728 0.03834193 -0.10099606 -0.06069362 0.13956264 0.10968406
-0.26684618 -0.078589745 0.18655802 -0.086276524 0.0008834096 -0.81349355 -0.045854475 0.03209143
0.026474912 -0.64720565 -0.5958727 -0.51731336 -0.6698792 0.2034837 -0.12145202 -0.034512345
-1.0781398 -0.044169925 -0.3904449 0.006318368 0.12049479 -0.68905133 0.033988196 0.051132046
-0.38711348 -0.18227676 -0.33912423 -0.14474148 -0.09718951 -0.023027524 -1.2406816 -0.058310825
-0.29458553 -0.9599922 -0.2219127 0.009838046 0.026292933 0.01038018 0.21099956 -0.67093945
-0.22212219 0.03247656 0.16216084 0.03312721 -0.4481021 -0.623205 -0.4769678 -0.7412634
-0.34722376 -0.5403933 -0.4698252 -0.22754027 -0.6816561 -2.2927237 -0.5012291 -0.34338573
-0.03965979 -0.040832765 0.12156544 0.06123825 -1.1097336 -0.12537168 -0.045020122 -0.028742258
-0.3618616 -1.5844789 -0.039504617 -0.31222793 0.25312722 -1.3993976 -0.5527834 0.062482443
-0.52980185 -0.5090082 -0.31464908 -0.7977732 -1.12284 0.029329136 -0.24657524 -0.035950664
-1.3142564 0.042901337 -0.39094177 -0.17900047 -0.030306844 -0.84306824 -0.21586524 0.06860366
0.1321092 -0.20512141 -0.4873154 0.120035015 0.03813525 0.05243749 -0.0861841 -0.0060032685
-0.18108886 -0.14799553 -0.46786645 -0.082531676 0.113602765 -0.018169928 0.024703084 -0.45805302
-0.26477146 0.07314802 -0.20105228 -0.14642039 0.013652979 -0.41322142 -0.20535229 -0.2608682
-0.49374458 -0.50331074 -0.66305995 0.13028513 -0.9136206 -0.8105501 0.10651422 -0.63196427
-0.07057061 0.22995858 -0.12458062 -0.003572643 -0.052985232 -0.03900651 0.012748198 -0.16420573
-0.8361684 0.14111194 0.17085949 -0.41619152 -0.17068642 -0.7138654 -0.19222103 -0.11656746
-0.11073807 -0.620924 -1.2219118 -0.4355196 -2.048875 -0.11087284 0.051920783 -0.5342342
-1.7126609 0.071301594 -0.49161044 0.01921047 -0.0488777 -0.47627658 0.18300465 -0.46638638
0.04610184 0.03323339 -0.5235785 -0.29003453 -0.09004809 -0.12853076 -0.47932467 -0.087348014
-0.18964581 -0.83180076 -0.740687 -0.09255868 -0.19371407 0.0055259126 -0.1561341 -0.2022988
-0.21861191 -0.085540354 0.18923318 0.1817819 -0.32222018 -0.56909215 -0.57924116 -1.4610467
-0.20775056 -0.25944218 -0.48295274 0.19359878 -0.54681927 -0.7884476 -0.1204234 -0.50824153
0.1485998 -0.024728986 -0.13342749 -0.03289312 -0.74385047 0.013650961 0.14887126 0.022475386
0.0905967 -0.24501354 0.12747243 -0.3344254 0.0477344 -1.3242166 -0.22479875 0.019759623
-0.10829096 -0.43827468 -0.47909302 -1.1792954 -0.8800516 -0.05500502 -0.07797675 -0.37764144

fc4.bias f4 [10]
00000000: a863 ebbd d6a6 22bf 2421 7f3e d7d3 b83e
00000010: eb66 dabe 45d8 383f 307c 073f 5cba 2d3e
00000020: 82d2 af3d 9db2 48bf
-0.11493617 -0.6353582 0.24914986 0.3609912 -0.42656645 0.72205 0.5292387 0.16965622
0.08585073 -0.7839754
