runs/Mar02_17-13-07_cssd901383-Run(lr=0.01, batch_size=256, patience=1)-valid/checkpoint.pt (torch_old, 972387 bytes, 8 tensors)

fc1.weight f4 [256, 784]
00000000: 385d 66bc f0e7 89bc 89e5 8abd bd6a babd
00000010: 2554 6b3d 0950 723c dbff 7d3d fdf6 c03d
00000020: 9069 c43d 387f b63d c1bb f43d 2678 cf3d
00000030: 4c51 1c3d be06 a5bc 2e22 603c 12f8 63bb
00000040: 099e a63d f87e ba3d 3f54 193e 624c 003e
00000050: 2368 dd3d 6378 823d d3b5 48bc a370 153d
00000060: 16b9 b3bd 9522 8fbd 1ee4 d53c 0aa3 07bc
00000070: fe9f a3bd ecc9 eabc 4520 97bd 4f4c b4bd
00000080: ff55 f13c aabb c3bd a635 42bd bb1d 02bd
00000090: e4ea 85bd 179a 0dbc 738d ff3d 78a0 383d
000000a0: 5269 733a 2cdc ec3b 89f0 e7bc 971a 6e3b
000000b0: 4bc1 023d 154a 883d 8cdf a73d 9d93 29bd
000000c0: a2da c6bd 4fea b0bd cb81 63bd 6a30 35bd
000000d0: 61f1 adbd 9207 a4bd 2d5c c5bc 612a 03bd
000000e0: 623d 863c 8c52 f3bc dfb6 49bd 5565 82bd
000000f0: f237 0abd 7dc7 babd 40d0 f5bd b732 c3bd
00000100: 135d d8bd 02a9 3c3c c7eb 86bc bff5 c6bc
00000110: 9d16 08bd 74df 25bd 502a 33bd d12c 37bd
00000120: 57e0 39bd 5172 a2ba 1e3c 2ebb 65fb 0dbc
00000130: e0ec f8bd 2e57 2cbe 1d00 ecbd 2026 b9bd
00000140: 81c1 01be 445d dbbd 6315 ffbc a010 a1bc
00000150: 40dc 8b3c 4480 d6bd 1f22 b4bd e547 07be
00000160: 95c7 e6bd e7d1 edbd d24f e1bd 7127 f2bd
00000170: 1d82 abbd bfe1 bdbc bf2d d4bc 5092 c0bc
00000180: 4a0b bbbc 3d4e dabc b9b1 3ebb 6234 4abd
00000190: 7fa1 cebc 7c3e f0ba ffd8 41bb 1c95 55bd
000001a0: c669 b8bd 281a 09be 73c2 1fbe f3ce 0ebe
000001b0: 674c c9bd 8f3e a7bd 0ddc 10bd b947 52bd
000001c0: 7b78 3ebd 0659 aabd ee86 ddbd 986b e4bd
000001d0: 75a9 cabd 324f 00be 3535 01be 7d2b 2cbd
000001e0: 9576 c9bd 6140 213a 44d0 b4bc 4146 0abd
000001f0: f168 4d3d 5f5c d03c 3344 f43c af9f 8bbc
00000200: 8231 3a3c fb3f 1ebc 20d4 10bd d0da 6ebd
00000210: 590b 06be 1f1c c6bd ca60 09be 4697 dcbd
00000220: 7297 14be 8c6b 7dbd 0968 9ebd 83a9 56bd
00000230: 5356 8abd afbc a1bd 0aaa cabd 6338 e9bd
00000240: e652 b8bd e883 28be 527f 9cbd 8945 a7bd
00000250: cf52 64bd a4b9 c0bc 3b03 13bd 040b ee3c
00000260: a4c8 5e3d 3e82 4e3c 5c72 e8bb 21fe bd3c
00000270: 1522 293b a4b3 0ebc d283 0cbd 66f0 b4bd
00000280: 1882 8fbd 1728 0fbe 5e15 13be aeaf 15be
00000290: e75e dbbd 4977 a2bd 55c2 2cbd d514 aebd
000002a0: 5b89 273c fa67 ebbd 3ae5 5cbd b951 b4bd
000002b0: be2c a4bd 796e 0bbe 9c16 f5bd 1d36 a4bd
000002c0: 3998 9cbd a7c0 8bbb 2f2c 56ba 440e b03c
000002d0: 6bb2 6f3d c4ac 863c 3f28 373d 7aec 43bc
000002e0: 7bc2 77bb 18ab 65bb 7b5f b6bc 1d43 5ebd
000002f0: 9ef2 f0bd 5f71 d6bd ad7e d5bd c240 e4bd
00000300: 0c0f a8bd c309 aebd 62ab cabd 92a2 93bd
00000310: e254 b5bd fa9c 03be 7041 44bd 654f d9bd
00000320: b2dc a7bd 9c2c 1dbe cac5 69bd a6c0 55bd
00000330: 601b b3bd df3e 803b 6601 48bc 3617 b6bb
00000340: 636d 343d 3ce9 163d 40d6 61bc 48e1 353c
00000350: e221 a4bc e93a 5ebb 9c2f 16bd 6d1d c6bd
00000360: ecc6 f2bd 4aa3 e0bd 9fcf 20be 4ec4 21be
00000370: f6f4 03be 825f 94bd b8cf cbbd 490d bcbd
00000380: 900e 84bd d6b2 0bbe 7083 acbd 4056 b7bd
00000390: 2706 dcbd 6686 c8bd a098 5abd 3a68 b3bd
000003a0: dce6 c8bd e204 ca3a 8dd8 babc 2ae4 3e3c
000003b0: 91c7 0b3d a54b bd3c a4bb 99bd 4be7 fbbc
000003c0: 429b a8bc 888d 72bd 7e86 c5bc 517f 03be
000003d0: 801e b6bd b90c e4bd d78f 0fbe 96cd c3bd
000003e0: 82c1 f6bd e7c1 84bd f1a8 c2bd c5ab 9bbd
000003f0: 4591 59bd 184e dabd c7c1 07be dd96 a9bd
-0.014060311 -0.01683423 -0.067820616 -0.0910239 0.057453293 0.01478959 0.06201158 0.09422109
0.09590447 0.08910984 0.11949874 0.10130338 0.03816347 -0.020144816 0.013680024 -0.0034785313
0.081356116 0.091062486 0.14973544 0.12529138 0.10810878 0.06370618 -0.0122503815 0.036484372
-0.08775537 -0.06989018 0.026109751 -0.008278618 -0.079895005 -0.028660737 -0.07379202 -0.08803617
0.029459951 -0.095572785 -0.047414444 -0.031766634 -0.065389425 -0.008642695 0.12478151 0.04507491
0.00092854083 0.007228395 -0.028312938 0.0036331767 0.03192262 0.06654755 0.08196935 -0.04140054
-0.0970967 -0.08638441 -0.055543702 -0.044235624 -0.08493305 -0.080092564 -0.024091804 -0.032022838
0.016386691 -0.029702447 -0.049246665 -0.06366984 -0.03374476 -0.091200806 -0.12002611 -0.095311575
-0.105646275 0.011514904 -0.01646985 -0.024287103 -0.03322469 -0.040496305 -0.043741524 -0.044720475
-0.045379963 -0.0012393688 -0.0026586126 -0.008665894 -0.12154555 -0.16830131 -0.11523459 -0.09040475
-0.12671472 -0.107111484 -0.031138128 -0.019661248 0.017072797 -0.104736835 -0.087955706 -0.1321102
-0.11268536 -0.11612301 -0.11001553 -0.11823929 -0.083744265 -0.023178933 -0.02590072 -0.023507267
-0.022832531 -0.026648635 -0.002909763 -0.049366362 -0.025223492 -0.0018329169 -0.0029578803 -0.052144155
-0.0900455 -0.13388884 -0.1560152 -0.13946132 -0.09829026 -0.08166229 -0.035366107 -0.05133793
-0.046501618 -0.08317761 -0.108167514 -0.111533344 -0.098956026 -0.1253021 -0.12617953 -0.04203366
-0.09837071 0.0006151256 -0.022071965 -0.033758406 0.050148908 0.025434671 0.029817676 -0.017043917
0.011364343 -0.009658809 -0.03535855 -0.058314145 -0.13090266 -0.096733324 -0.13415828 -0.107710406
-0.14510897 -0.061870143 -0.07734687 -0.052407753 -0.06754746 -0.07897317 -0.098957136 -0.11387708
-0.090001866 -0.16456568 -0.07641472 -0.0816756 -0.055743035 -0.02352602 -0.035891753 0.029057987
0.054390565 0.012604294 -0.007093711 0.023192467 0.0025807668 -0.008709822 -0.0343054 -0.08834915
-0.07007235 -0.13980137 -0.1436362 -0.14617798 -0.107114606 -0.07932908 -0.042177517 -0.08500067
0.010225619 -0.11494441 -0.053929545 -0.0880465 -0.080163464 -0.1361636 -0.11967203 -0.08018134
-0.07646222 -0.0042649093 -0.0008170036 0.021491177 0.058519762 0.016439803 0.044716116 -0.011958236
-0.0037805128 -0.0035044607 -0.022262326 -0.054263223 -0.117650256 -0.104708426 -0.10424552 -0.11145164
-0.08205995 -0.08497956 -0.0989597 -0.07208742 -0.08854081 -0.1285285 -0.04791397 -0.106108464
-0.08196391 -0.15349048 -0.057073392 -0.052185677 -0.08745456 0.003913745 -0.012207365 -0.005556966
0.04404963 0.036843523 -0.013783991 0.0111010745 -0.020035688 -0.0033909625 -0.036666498 -0.09673581
-0.118543476 -0.10968645 -0.15704201 -0.1579754 -0.12886414 -0.07244779 -0.099517286 -0.091822214
-0.0644809 -0.13642439 -0.08423507 -0.08951998 -0.10743361 -0.097912595 -0.05336821 -0.08760114
-0.09809658 0.0015412832 -0.022808338 0.011651078 0.03412587 0.02310736 -0.07506493 -0.030749938
-0.020581845 -0.059217006 -0.024111982 -0.12841536 -0.08892536 -0.11135239 -0.14019714 -0.09560697
-0.120486274 -0.064822964 -0.09504879 -0.07601122 -0.053117055 -0.106594265 -0.13257514 -0.08280728

fc1.bias f4 [256]
00000000: b372 12bc 3482 3b3f 2e08 47bd 11a4 90bd
00000010: c116 bb3e 15bb 95bb 85d1 a9bd d8a2 993e
00000020: cec3 07bd d8c1 05bd d677 bebe 22e8 9fbd
00000030: c66f 0ebe 2d2e a7bd ec89 71bd b5a4 c4bd
00000040: 469a 68be c190 f2bd efb0 a2bd f5b2 9cbe
00000050: 355f dfbc b527 273e 4335 2e3f 2145 dd3e
00000060: a2cb 47bd aab2 dbbd b0c5 02bd 169b dcbc
00000070: 7e7d 9bbd d8d7 acbd 6bb8 8b3b ad3d 69bf
00000080: 9d1b 953f 7548 a1bc 70b7 09bd a62d bfbd
00000090: 3dc0 6fbd 5593 74bd 6aad 4dbd 12a8 0bbe
000000a0: 5961 163d a797 a7bd 6277 17be e9fc 86bd
000000b0: d20f e13e 73e7 db3c 671a b7bd 3dbd e63e
000000c0: 995f cdbd d72f 7d3e bf87 1dbd 0c02 283f
000000d0: e761 01bc c06d 8bbd 76f5 3abd 9edc 82bf
000000e0: 6ef6 983f b31c 563f f627 00bf a386 a2be
000000f0: 05e1 4dbd e738 8dbd 5b1d dcbd 2c32 453f
00000100: 01b0 173e 3895 61bd 208a 20bf 11e3 a7bd
00000110: a9a4 3bbd 87a8 51be 9325 87bd 6297 acbd
00000120: 9fb1 383d e2c0 97bd 1d7c 1dbd b7ca 28bd
00000130: bd98 16bd f920 01be 43b9 d3bc 3357 743e
00000140: 3fa9 d4bd e63d 4ebd 3f12 85bd c4cb aabd
00000150: 8d4f 80bd 596e aa3e 3999 eabe d479 203f
00000160: e6fb 9dbd 63b5 a8bd 23bf 79bd b308 2dbd
00000170: b7cf 0cbf c8e8 05bf fec6 0b3f d0e4 32be
00000180: 5c59 c33e 2d65 5dbd 0259 52bd 7b3a 25be
00000190: 7d97 26bd 2322 81bd e1d7 4e3f fbef bebd
000001a0: b4be 35bd 4326 2dbd 1bbe 5abd 6e09 b4bd
000001b0: 9e80 a1bd dd92 36bd 9f3d 093e b008 ddbe
000001c0: c00e c9bd cde2 4fbb bb1f babb 3105 54bd
000001d0: 2f93 96bd 1f51 15be 8650 7e3e 4b1b 65bd
000001e0: 865d 3a3e 170b 23be 1cac 8fbd fad2 9cbd
000001f0: 0d56 14bd 3dcd 96be 633d 9d3d 0991 05be
00000200: cd61 50bd f6c0 77be cc5c 24be bff4 18bf
00000210: 62fa 8c3e f331 ecbd 2e43 9cbd a0e4 29bc
00000220: 991d fabd 8c46 55bc 29e7 af3e 5c8a 2abd
00000230: eb59 96bf 0c6b 4dbd ad1d 02bd 6853 18bf
00000240: 48ac 86be 68bc 0c3e a485 1cbf 9ff8 9ebd
00000250: 4699 b8bd 026e c3bd de30 13be 0a67 bcbd
00000260: d219 7bbd c5e2 72bd 24fe debd 5a88 c3bd
00000270: 960d 313e 34d9 92bd 513e a43f c9c8 08bd
00000280: 8e5f 813f 6ba1 8ebe db70 9bbd 43be 89bd
00000290: a821 47bd 38d2 083c a74d b2bd 8182 533e
000002a0: eb5b 25be 1819 7dbd 8693 9b3e d4d7 9dbd
000002b0: f607 23bf 24e6 66bd e130 b4bd 7ac1 3bbd
000002c0: f399 25be 90eb 22bf 0cba f6bc 5788 65bc
000002d0: 6c0e aabd 5e45 7ebd 388c ee3e 6249 5dbd
000002e0: 1710 09bd f019 3b3e c96b 3dbd 7a1e 9abd
000002f0: b82f 8abd 9fda 9b3f 5dd0 ed3d c181 26bd
00000300: ecf6 663f 163d 473f 281a 90bd a905 33bd
00000310: daa2 86bd 174c a1bd 036a 12be fb25 2ebe
00000320: de98 03bd 44c9 833e 689a 2f3f 0c6f bcbd
00000330: 4b15 1dbe f910 18bd 42a1 cebd 1809 99bd
00000340: 76a1 b33b 69eb 6d3b 90af b43e 847d 33bd
00000350: 3a61 1c3f bcca 0a3f 9ace 093f af13 633f
00000360: 2bcc dfbc 289b e6bd c691 93bd 0fdb a5bd
00000370: c2c6 3abd db90 81bd e52b a0bd 7520 1a3f
00000380: 2fae 16bd 220e f43c 082a c5bd 2755 59bd
00000390: 16ff cbbd 528d 0fbd d8d5 71bd bbaa 923f
000003a0: a446 6cbd 70d5 8cbd c433 9cbd b287 673f
000003b0: 462a f03e 7e14 023e 99d3 b2bd 1469 0e3f
000003c0: da44 abbd 5f6b ea3b b95d ae3f 1f2f 9bbe
000003d0: 4cc4 82bd baa9 3bbd 4446 68bc b3ac 57bd
000003e0: 28bd 51be 530d cc3d 4b5c 6fbe 15e9 85bd
000003f0: ae6b dfbc 0534 98bc 59e0 a03e bb06 63be
-0.008938479 0.7324555 -0.048591785 -0.07062543 0.36540797 -0.004569421 -0.08291916 0.30007052
-0.03314572 -0.032655567 -0.37200803 -0.07807948 -0.13909826 -0.08163104 -0.058969423 -0.09601728
-0.227151 -0.11844016 -0.07943904 -0.30605283 -0.027267078 0.16323741 0.6805002 0.43216804
-0.048778184 -0.10727437 -0.03192681 -0.02692942 -0.07592295 -0.084396064 0.0042639277 -0.91109735
1.1649052 -0.01968787 -0.033622205 -0.093348786 -0.058532942 -0.05971082 -0.05021421 -0.13638332
0.03671393 -0.08183222 -0.14791635 -0.065912075 0.43957382 0.026843762 -0.08940583 0.45066252
-0.100279994 0.2472528 -0.038459536 0.65628123 -0.007896877 -0.068080425 -0.045644246 -1.0223577
1.1950204 0.8363754 -0.50060976 -0.31743345 -0.050263423 -0.06895619 -0.107477866 0.7702968
0.14813234 -0.055073947 -0.6271076 -0.08197606 -0.04581133 -0.20474444 -0.065989636 -0.084273115
0.045091268 -0.07409836 -0.03844844 -0.04120895 -0.036766756 -0.12610234 -0.025845176 0.23861389
-0.10383844 -0.050352 -0.06497621 -0.083396465 -0.06265173 0.33287314 -0.45820025 0.62685895
-0.077140614 -0.08237722 -0.060973298 -0.042244624 -0.5500445 -0.5230832 0.54600513 -0.17470098
0.38154113 -0.054051567 -0.051354416 -0.1613559 -0.040671814 -0.06305339 0.80798155 -0.093231164
-0.04437132 -0.042272817 -0.053403955 -0.08790861 -0.0788586 -0.044573653 0.13402413 -0.4317069
-0.098172665 -0.0031720877 -0.005680052 -0.051762763 -0.07352292 -0.14581726 0.24835405 -0.05593423
0.18199739 -0.15922199 -0.07015249 -0.07657428 -0.036214877 -0.2945346 0.07677724 -0.13043608
-0.05087452 -0.24194703 -0.16051024 -0.5974845 0.27534777 -0.115329646 -0.07630001 -0.01036945
-0.122126766 -0.013017308 0.3435605 -0.041635856 -1.1746191 -0.050150916 -0.031766582 -0.5950227
-0.26303315 0.13743746 -0.6114142 -0.077622645 -0.090136096 -0.09542467 -0.1437411 -0.09199341
-0.06130392 -0.059298296 -0.10888317 -0.09547491 0.17290339 -0.071703345 1.2831517 -0.03339461
1.0107286 -0.27857527 -0.07589885 -0.06725743 -0.04861608 0.008350901 -0.08706217 0.20655252
-0.16148345 -0.06179151 0.3038599 -0.077071816 -0.6368402 -0.056371823 -0.087983854 -0.04583881
-0.16172008 -0.6364069 -0.030118011 -0.014009557 -0.08303532 -0.062077872 0.46591353 -0.05402506
-0.03346261 0.18271613 -0.04624537 -0.07525344 -0.06747383 1.2176093 0.11612008 -0.040651087
0.9022052 0.77827585 -0.07036239 -0.04370657 -0.0657403 -0.07875841 -0.14298253 -0.17006676
-0.032128207 0.2573949 0.6859498 -0.09200868 -0.15340154 -0.03712556 -0.10089351 -0.074724376
0.005481894 0.0036303645 0.35290194 -0.043820873 0.61085856 0.542156 0.53830874 0.8870191
-0.027319035 -0.112600625 -0.072055385 -0.08098423 -0.045599706 -0.06326457 -0.07820872 0.60205775
-0.03678721 0.029791895 -0.096271574 -0.053059723 -0.09960763 -0.035046883 -0.059041828 1.1458353
-0.057684556 -0.068766475 -0.07627061 0.9044143 0.46907252 0.1270313 -0.08731765 0.55629086
-0.08362742 0.007153913 1.3622352 -0.30309388 -0.06385097 -0.04581616 -0.014176909 -0.052654933
-0.20482314 0.09963479 -0.2337505 -0.065385975 -0.027273025 -0.018579492 0.31421164 -0.22170536

fc2.weight f4 [128, 256]
00000000: e163 e9bd ff96 ebbc 88cf 6abd 1fac 0d3d
00000010: a103 40bd b806 393d cab8 bebd b5b0 afbd
00000020: 1bc1 2d3c 3ce7 713d 594c e33d f1cc f13d
00000030: 2d77 0bbd a335 fc3c 4911 2c3c e328 4dbd
00000040: 8060 103d 4f4f ecbc 04c0 883c 42f7 fdbd
00000050: 9561 05bd 4fa3 b23b 0c14 a2bd a9ee 07be
00000060: ea3e 863d df33 393c 7ce6 f2ba f0ea 9e3d
00000070: 9635 e2bc ceef 75bd 2402 30bd ffda 42be
00000080: 477f ebbb aff9 923b fe8d e43d 71ec a2bc
00000090: 19be 6fbd 1bb5 97bd 91d1 fbbc 0bc8 883c
000000a0: 8a53 b9bd eb83 bebd 33b9 cdbd d323 babd
000000b0: 6528 5b3c ea47 d2bd 3764 78bd 9181 89bd
000000c0: 9e47 253c 310f 0cbe 7e11 893d f995 62bc
000000d0: 0c59 e43d 5bfc f2bd e2a5 42bd f569 55bc
000000e0: 35b0 c1bd 3315 b93d ed29 8dbc 86af 95bd
000000f0: 2afc 9c3d 67ed ba3d 4608 e7bd 9449 12bd
00000100: 78aa 573c 31a1 e23c e469 64bd ef28 44bd
00000110: 609d 8dbd 3d06 56bd 4c7d 8e3d 3c95 a13c
00000120: 54c2 b33c a898 a0bb 3dc3 82bd 66ca ebbc
00000130: 00c8 033c d7fc bf3c 024d 0a3d 790d c3bb
00000140: 3612 03bc 8dca e33d d428 aebd 04cf 3fbd
00000150: 0e53 243d 3554 333c 1008 45bd 4335 dbbb
00000160: 818d 183c 9559 843d 9bf2 ecbc dfba ab3d
00000170: 7e72 15be dbd4 00be ae6d ddbd 3950 0dbe
00000180: 9245 66bd 3d8a 18bd 927a abbd 4961 183c
00000190: afa1 623b 15a6 cc3d bfcd 37bd f1a9 0cbe
000001a0: 2717 6b3d 050d f43d 41e1 e63d c29e 2a3c
000001b0: d393 90bd b51d fbbb 43c6 00be d3ad d1bc
000001c0: a78e 283d 1f32 fcbc d912 dabd c042 c6bd
000001d0: 3d4d bc3d 579e bcbd c93f 7dbd 7ed3 253c
000001e0: 78bc c1bd 47dd 1fbd fcf3 093c 04bd 9dbd
000001f0: ff2b 42bd a736 99bd 3812 25bd bd8c 2d3a
00000200: f6a5 55bd 64c2 8fbd 15f8 0bbc 0c2c c4bb
00000210: 584d b6bc 3870 a9bc b72d 923d d7da 37bd
00000220: 1667 3abd c47e 113d 2ef5 a3bc 49f4 bdbd
00000230: 5e00 c9bd 1851 a0bb 00d7 acbd 0e12 febd
00000240: 43ad 9fbc c721 e0bd e490 21bd f8e8 77bd
00000250: dc09 cf3d 7799 863d 202a fa3d 30a0 a0bc
00000260: 833d f93b 9d96 d2bd 84b7 283c b72e 1fbd
00000270: 3a58 00be 5e91 ec3d 7003 83bd 5ed8 a5bd
00000280: 3750 07bd bade c5bd 1d70 3fbd f3e7 c93d
00000290: ac31 a6bd 70d7 07bd dacf 32bc 7ad9 2b3d
000002a0: d4f1 5b3b 7fc4 f33d b8ca 26bc f665 ffba
000002b0: cdf6 833c 06ab b83d 1f7d 3fbd c78a 843d
000002c0: 06e5 54be c068 8cbd 2ee3 9e3c a434 0f3c
000002d0: 7060 0b3c f607 b5bc 4e69 2fbd 37f3 803c
000002e0: 1640 0fbd 5114 9ebd 074e dabc 2c2b 4dbd
000002f0: 0fb8 52bd a205 a0bc 29a3 ea3d 0e6a e7bc
00000300: 2108 1fbe a545 57bd 3310 77bd 43aa c6bd
00000310: cba9 61bd 8e41 95bd fda9 80bd 9382 89bd
00000320: 454b bfbd b68e 94be f120 90bc 4e00 763d
00000330: cc5c dabc ae2b cb3d 151a 16bd 8ff2 36bc
00000340: ab64 98bd 3a65 debd 3879 96bd 69c6 07bd
00000350: d1a8 e6bd b898 b0bc b630 60bd 2b76 2ebd
00000360: 96e6 93bd 9ff3 86bd a3e6 a6bd d51d c93d
00000370: dd4d b43a 4f8b 6e3d cfc0 943d 85d8 fbbd
00000380: 3978 c03d 2847 d63a 1d92 adbc d4e6 2a3b
00000390: d5f4 e7bc 5375 10bd f8d3 e03c fab1 96bd
000003a0: f655 c83d 0ae5 143d 14fb debd 5bc2 77bd
000003b0: 2499 2cbd c4c3 bdbd f1a2 923b 8154 4abd
000003c0: 1d71 9bbd 86b6 fbbd 501d 5a3c e5f6 cf3d
000003d0: 6365 e2bd fa0a b73d 27de 18bd 2399 74bd
000003e0: 4213 e4bc 6da6 b0bd 9371 993c 4ef4 afba
000003f0: af9c b5bd 4a62 00bd f4f3 a5bd dc24 0dbd
-0.113960035 -0.028758524 -0.057326823 0.034587976 -0.04687846 0.045172423 -0.093125895 -0.08578626
0.010605122 0.059058413 0.110985465 0.118066676 -0.0340492 0.030787295 0.010502168 -0.05008782
0.03524828 -0.028846411 0.016693123 -0.12400676 -0.032563765 0.005451597 -0.0791398 -0.13274635
0.06554969 0.011303871 -0.0018531824 0.077596545 -0.027613442 -0.06004315 -0.04297079 -0.19028853
-0.0071868035 0.004485331 0.11159895 -0.019888135 -0.0585309 -0.0740759 -0.030739577 0.01669695
-0.09049137 -0.09302505 -0.100450896 -0.09088864 0.01337633 -0.10267623 -0.060642447 -0.06714166
0.010087876 -0.1367767 0.066927895 -0.013829702 0.11149797 -0.11864539 -0.04752148 -0.01302575
-0.09457437 0.090372466 -0.017231906 -0.07308869 0.07665284 0.09127312 -0.11280875 -0.0357147
0.0131632015 0.027664753 -0.055765048 -0.0478906 -0.069147825 -0.052252043 0.06957492 0.01972448
0.021943249 -0.0049010105 -0.06384895 -0.028783035 0.008043289 0.023435993 0.033764847 -0.005952534
-0.007999947 0.11122618 -0.08503881 -0.046828285 0.04011827 0.0109453695 -0.048103392 -0.006689699
0.009311081 0.06462399 -0.028924277 0.08385252 -0.14594457 -0.12581198 -0.10811935 -0.13800134
-0.05621869 -0.03724121 -0.08372988 0.009300538 0.0034581234 0.09992615 -0.04487395 -0.13736703
0.057395127 0.11916546 0.112734325 0.010413827 -0.07059445 -0.0076634535 -0.12575631 -0.025595581
0.04115167 -0.030785618 -0.10648126 -0.096807 0.091944195 -0.092098884 -0.06182841 0.010121224
-0.09459776 -0.039029386 0.008419987 -0.077020675 -0.04740524 -0.07481127 -0.040300578 0.0006620398
-0.052160226 -0.07019499 -0.008543034 -0.005986696 -0.022253677 -0.020683393 0.07137626 -0.044886436
-0.045508467 0.035521284 -0.020014372 -0.09275109 -0.09814523 -0.0048924796 -0.084394455 -0.124057874
-0.019491797 -0.109439425 -0.03944482 -0.06052491 0.101093024 0.0657224 0.12215066 -0.019607633
0.0076062097 -0.102826335 0.01029766 -0.03886291 -0.12533656 0.11551164 -0.0639714 -0.080979094
-0.033035483 -0.09661622 -0.04673778 0.09858694 -0.08114943 -0.03316444 -0.0109138135 0.04195545
0.003356089 0.11902713 -0.010180168 -0.0019485343 0.016108895 0.09016995 -0.046750184 0.06471782
-0.2079049 -0.06855917 0.019395437 0.008740578 0.008506879 -0.022098523 -0.042825036 0.015740974
-0.034973226 -0.07718719 -0.026648534 -0.05009 -0.051445063 -0.019533936 0.114569016 -0.028248813
-0.15530445 -0.052556653 -0.060318183 -0.097004436 -0.055093568 -0.07287894 -0.06282423 -0.06714358
-0.093405284 -0.2901513 -0.017593833 0.060058884 -0.026655577 0.099204406 -0.036645968 -0.011166229
-0.07441076 -0.10859151 -0.073473394 -0.033148203 -0.11262668 -0.021557197 -0.054733954 -0.042593163
-0.07221715 -0.06589436 -0.08149459 0.09820143 0.0013756115 0.058238324 0.07263338 -0.12297157
0.09397931 0.001634811 -0.021187836 0.0026077526 -0.028314987 -0.03526814 0.027444825 -0.07358165
0.09782021 0.03635124 -0.10887733 -0.060488086 -0.042138234 -0.09265855 0.0044749905 -0.049396995
-0.07589934 -0.12290673 0.013312653 0.10154513 -0.11054494 0.089376405 -0.037321236 -0.059716355
-0.027841214 -0.08625493 0.018730914 -0.0013424249 -0.08867776 -0.031343736 -0.08103171 -0.03445898

fc2.bias f4 [128]
00000000: 4b0b cbbd e7c3 ef3e 007e 80bd b9b8 dabe
00000010: 7d4b c0be 80eb bb3e 5daf 7a3e 1cea 10bf
00000020: c2f6 c63e f77b 48bf d0fc e0be cefe 0e3f
00000030: 6140 233f 07a4 c3bd 88eb 10bf cf31 17bf
00000040: bff0 0abe 8790 ea3e dcc5 16be d609 ffbe
00000050: a30a 22bd 10b3 99bd 6282 d6be ecf3 0f3e
00000060: 8dd8 15bd 15ce 623e 25a1 503f d92c cb3e
00000070: 3b51 a83f f811 ac3a f8b7 06bf 30fd 90bd
00000080: 2c41 e7bd 5790 cdbe a22b 923e 72cf cdbe
00000090: 3d7e 483d efbe 173f 09d9 b7bd 4e40 1fbf
000000a0: e89b 30bf 8824 303f 1247 203f 6898 563d
000000b0: 695c 343f cb36 61bd 7225 76bf 0e9e 6dbe
000000c0: 6ccf 63bc e70a a0be d96e a33e 0016 dabd
000000d0: 2a85 6abe 62bf ff3e 7787 b5bc 4fc0 c2be
000000e0: 9b5f 9d3e 62e3 c53e 93da b83d cf22 3b3f
000000f0: 1402 5c3f 20ab 6abe 4a8a 95be 4b19 8cbe
00000100: 73dc 103f b430 f5bd 7d19 a6bd 99e0 dabe
00000110: 14c8 9dba 10bd 69be 9e8a d83e 985d 2b3d
00000120: 08f3 d5bd 9117 f2be a24a 5c3e 7315 e23c
00000130: d0e5 50bf 7d4f 5e3e 9400 523f 3c7b f9bb
00000140: fa46 d7bd 767d 7dbe 2718 b3bd 7e66 9ebe
00000150: c4d6 28bd cc97 e8bc 8e5d b13c 2427 ebbc
00000160: a549 65bc 9eaf 2fbe 3fed 9f3e a09d ccbe
00000170: 2d17 2bbe 3179 003e 58f5 3abf 3cc8 45bf
00000180: 458b 5b3f 4a15 e3bd 577d 92be 5cc3 a8be
00000190: 2c10 c1be 49de 9dbd 8dc3 09bf 649e fb3e
000001a0: f01f dcbd 47d1 57be edd7 f8bd 3f5a eebd
000001b0: bd07 21be 38e2 9bbd 9170 c1be c29e a0bd
000001c0: 7370 343f 80b8 523e 8b57 ba3d 0ccd 13bf
000001d0: 04c7 8c3f aea7 fbbd c569 7fbe 1e53 f1be
000001e0: 7540 f4bd ca87 05bf 14f1 e1be 5a42 0ebe
000001f0: 9c19 b0bd 6436 9a3f eadf 043f 203d 29be
-0.09914263 0.4682915 -0.062740326 -0.42719057 -0.37557593 0.3670311 0.24480958 -0.5660722
0.38860136 -0.78314155 -0.4394288 0.5585755 0.6377011 -0.0955277 -0.5660939 -0.59060377
-0.135684 0.4581339 -0.14723915 -0.49812192 -0.039560925 -0.075048566 -0.4189635 0.14057893
-0.036583472 0.22148927 0.8149589 0.39682654 1.314979 0.0013127914 -0.52624464 -0.07079542
-0.112917274 -0.40149185 0.28548914 -0.4019733 0.048948515 0.59275717 -0.08976943 -0.62207496
-0.68987894 0.6880574 0.62608445 0.05239144 0.70453507 -0.054983895 -0.96150887 -0.23204824
-0.013904434 -0.31258318 0.31920508 -0.106487274 -0.2290236 0.499507 -0.022159321 -0.38037345
0.30737004 0.38650042 0.09026065 0.7309999 0.8594067 -0.22916842 -0.2920707 -0.27363047
0.5658638 -0.1197218 -0.0811033 -0.4274948 -0.0012037777 -0.22826028 0.42293257 0.041837305
-0.10446745 -0.47283605 0.21512845 0.027598118 -0.81600666 0.2171001 0.8203213 -0.0076135676
-0.105115846 -0.24754891 -0.08744841 -0.3093757 -0.04122044 -0.028392695 0.021651056 -0.028705187
-0.013994609 -0.17156836 0.31235692 -0.39964008 -0.1670806 0.12546231 -0.73030615 -0.7725866
0.85759383 -0.11088045 -0.28611252 -0.32961547 -0.3770765 -0.07708413 -0.5381401 0.4914428
-0.10748279 -0.21075927 -0.121505596 -0.11638307 -0.15725608 -0.07611507 -0.37781194 -0.07842781
0.70484084 0.20578194 0.09098729 -0.5773475 1.0998235 -0.12287842 -0.24942692 -0.47133726
-0.11926357 -0.5216032 -0.4412924 -0.13892499 -0.085986346 1.2047849 0.51904166 -0.16527224

fc3.weight f4 [64, 128]
00000000: abb8 abbd 9af5 49be d811 583d 98c7 a23e
00000010: c756 9abe 829f 91bd c0a7 bfbe 2961 103e
00000020: 9410 93be 2989 08be fd44 e53e da3f 49be
00000030: de00 83be fca0 e13d 1362 6a3e 94b4 8ebd
00000040: b84b f93d 2b4d 45bd 000e c53d 04d7 083e
00000050: 8e54 78bd 9072 b3bd 1170 2ebf 64a8 443d
00000060: 4014 77bb a433 56be 49cf 5b3e d0ca 83be
00000070: 6c06 e7bd 6c22 cebd 4540 913e 7409 3b3d
00000080: f80d fe3e 32e8 cfbc 6ef2 41be 8bf1 003f
00000090: 39b9 033e 0385 e3bc 3e11 fd3c 156c 933e
000000a0: 595e c93d 45cb 05be 27ed 5dbe d7ba fdbc
000000b0: c298 2dbe 0999 93bc c164 0d3e 1559 2dbe
000000c0: d55e 393e cfb8 9dbe 939a 123c 82f7 aa3e
000000d0: 9e4f 0dbd d02f 06bd 99cb 133e 7b41 fcbd
000000e0: 6714 37be 7ac3 95be 9c1c 6bbe 79f9 51be
000000f0: fac8 48be f815 1e3c 5d20 a33e 02b4 713d
00000100: 091a 993c 1036 a53d 1655 9fbd 8ed8 21be
00000110: cab2 9dbe dc16 f93d 3556 b8bd e7d1 d63c
00000120: 712a c73d 6e97 aa3e 6c9f 5dbc 70f3 a1bd
00000130: bef8 cabd c241 72bd 968d a3bd b6be b9bd
00000140: 3c1c 1a3e c219 edbd 83d8 5b3d f257 613e
00000150: 751b 183d f3d9 b33c b0d2 213d 9945 32be
00000160: 4abe 91be c7d5 a33d 35a8 ab3d afa4 aebd
00000170: 227b 5e3e 54a4 3ebc fdbd fa3e 9b94 fc3d
00000180: a1ea 9ebd def6 8c3d 1e54 f73d 707f 95be
00000190: a48f 65be 4617 69bd a5cd eebd 2822 37be
000001a0: eb24 613d 4641 e1bc ad7a 4dbd 1ec6 54bb
000001b0: e8b2 b23d c020 64bd 50eb 213c f755 723d
000001c0: 9630 2cbe 7af9 303e 3d82 bfbd 82ab 993c
000001d0: 5428 963c e695 bbbe d29e 633d 4971 30be
000001e0: 6d54 af3b ed43 22be ca38 523e b03f 9dbd
000001f0: e65e 8e3c 3e7d 0bbe bf85 14bf 2098 a1bc
00000200: b87c 6a3c 5ef6 93be 350c a9bd c175 983d
00000210: c405 04be 0443 72bd 8207 173d 8146 52bd
00000220: 3f7b 48be 1665 203d d0eb 8dbc f918 d2bd
00000230: 6638 28be d2ad b5bc b0dc 8cbd 87e8 0ebd
00000240: 564e 543d 05e4 d0bd cc0d 4e3e 4db6 93be
00000250: dba2 98bd 9324 e7bd 0dd2 9c3d acca 9cbd
00000260: bdac 9ebd 3611 2fbd 57ea 1dbe bbb3 44be
00000270: 9934 63be ebbc 2bbe 1827 b53c b981 b2bd
00000280: ba82 5fbd 56bb 613e b19d 1dbd 0090 60b8
00000290: cb05 2abd 9f83 53bd d29c e0bd 2aa8 7b3d
000002a0: 67b5 843d 2c72 91be 4c6d 59be 049b 74bd
000002b0: 8b33 fc3c 542e 28bd 39ca 8f3d 3b26 7cbd
000002c0: 21f8 babd 3e9a 6fbd 0a5f 1cbe 74f9 24bd
000002d0: 60b8 063b aaed 0dbd bab8 8abd de5a 1e3d
000002e0: 9be5 f53b 484d b7bd 9af7 5dbe b65e 47bd
000002f0: 3bd9 78bd f3a0 94bd 142e 77bc 9737 43bd
00000300: 1a10 1cbe 6505 febd 1326 f9bc 4ed3 a2bd
00000310: e763 09be b029 f0bb ce2d bfbe b4ef 0fbe
00000320: 1660 493c 0b8b 68bc 49a5 353e 4520 61bd
00000330: dfce 77bd 3d03 24be 5683 133d 4e0d 05be
00000340: 5715 8bbd fcd4 c0bc 318b f1bd 0060 213a
00000350: e97c 8ebe 35ae 853c ba10 6d3d f82d c73c
00000360: cb6b e6bd 081d 27bd 38be 80bd fee2 53bd
00000370: b434 96bd da45 88bc 80f7 a0bb a2fe 17be
00000380: 8862 95bd 0c8a 66bd 8096 77bc 1c0b f4bd
00000390: d8ba 6ebc f452 5bbd b27c 6fbd 39dc 9cbe
000003a0: e90f 90bd e7d1 613c 60c8 ccbb 1b6d c4bc
000003b0: 429d 6fbd 8027 c8bd f0ce 023c aedb 08be
000003c0: a8e1 aabe e627 8fbe 0a93 98be 1999 bd3c
000003d0: f843 37bd 1e73 ffbd b5cc 17be 3d1a 883d
000003e0: 734c c83b 5e11 043d 65d2 91be fec3 9fbd
000003f0: 2d0f 23bd 05b4 d1bc e63e 85be 2a9e 96be
-0.08384832 -0.19722596 0.052751392 0.31792903 -0.3014433 -0.07110502 -0.3743267 0.14099564
-0.28723586 -0.13333572 0.44779196 -0.19653264 -0.255866 0.110170335 0.22888975 -0.06968036
0.12172645 -0.048169296 0.09621811 0.13363272 -0.060627513 -0.087620854 -0.6813975 0.048012152
-0.003770128 -0.20918137 0.21465792 -0.2574067 -0.11280522 -0.10065159 0.28369346 0.045663312
0.49620032 -0.025379274 -0.18940136 0.50368565 0.12863626 -0.027773386 0.03089201 0.28793398
0.098324485 -0.13065822 -0.21672498 -0.030972881 -0.16952804 -0.018017309 0.13807966 -0.16928513
0.18102582 -0.3080506 0.008947986 0.33391958 -0.034499757 -0.03276044 0.14433135 -0.12317177
-0.17878877 -0.292507 -0.22960132 -0.20505323 -0.19607916 0.009648792 0.3186063 0.05900956
0.018689172 0.08066952 -0.07779901 -0.15805265 -0.30800468 0.12162563 -0.09000818 0.026223136
0.09724892 0.33318657 -0.013526779 -0.0790776 -0.09910725 -0.059144743 -0.0798599 -0.09069578
0.15049833 -0.115771785 0.05367328 0.22006205 0.03713556 0.021954512 0.039507568 -0.17409362
-0.28465492 0.07999759 0.08381692 -0.08527505 0.21726659 -0.011635859 0.48973075 0.12333032
-0.07759596 0.06883024 0.12076591 -0.2919879 -0.22418076 -0.05690696 -0.11660317 -0.17884123
0.05496685 -0.027496945 -0.05016582 -0.003246672 0.0872553 -0.055695295 0.009882763 0.059164014
-0.16815409 0.17282668 -0.09351013 0.01875854 0.018329777 -0.366378 0.055571385 -0.17230715
0.0053506405 -0.15846224 0.20529476 -0.07678163 0.017379235 -0.13621995 -0.5801658 -0.01972586
0.014311962 -0.288989 -0.082542814 0.07444335 -0.12892824 -0.059145942 0.036872394 -0.05133677
-0.19578265 0.039158903 -0.017324358 -0.102586694 -0.16427764 -0.02217761 -0.0687803 -0.034889724
0.05183252 -0.10199741 0.2012245 -0.28850022 -0.07452937 -0.11286273 0.076572515 -0.07655844
-0.07747791 -0.042741023 -0.15421425 -0.19209187 -0.22188033 -0.16771285 0.022113368 -0.08716149
-0.05456803 0.22044119 -0.038480464 -5.3539872e-05 -0.04150943 -0.051639196 -0.10967411 0.06143967
0.06479912 -0.2840742 -0.212331 -0.059718147 0.030786296 -0.041059807 0.07020993 -0.061559897
-0.09129358 -0.058496706 -0.1527063 -0.04027696 0.0020556673 -0.034650482 -0.06773515 0.038660876
0.0075041777 -0.08950287 -0.21676484 -0.048674308 -0.060754042 -0.07257261 -0.0150866695 -0.047660436
-0.15240517 -0.12403373 -0.030413663 -0.079504594 -0.13417016 -0.0073291883 -0.37339634 -0.14056283
0.012290975 -0.014193307 0.17738833 -0.054962415 -0.060500022 -0.1601686 0.036013924 -0.12993357
-0.067911796 -0.023539059 -0.11794127 0.0006155968 -0.27829674 0.01631842 0.05787728 0.024313912
-0.112510286 -0.04079917 -0.06286281 -0.05173015 -0.07334271 -0.01663487 -0.004912317 -0.14843228
-0.07294184 -0.056283996 -0.015111566 -0.119161814 -0.014570914 -0.053545907 -0.058468528 -0.30636767
-0.070342846 0.013782955 -0.0062494725 -0.023977807 -0.058499582 -0.09773159 0.007983908 -0.13365051
-0.33375287 -0.27960128 -0.29799682 0.023144292 -0.044742554 -0.12473129 -0.14824183 0.066456296
0.006112629 0.032243125 -0.2848083 -0.078010544 -0.039809395 -0.025598535 -0.2602455 -0.29417545

fc3.bias f4 [64]
00000000: 82b8 8f3e ba83 36be 5cef 5bbe ea96 893f
00000010: 6003 b13f 9c0e 0dbe d25d 143f 9406 1abe
00000020: 3c0d 8e3e 93b1 27be 0351 b23e 4be7 e5be
00000030: 398b af3e 0223 11bc c417 c3bd 77f5 ffbd
00000040: c596 23be 391b 79bc d09f 8fbe 6a89 323f
00000050: ba29 46be fbce 8fbc edce 04be b5c7 3a3f
00000060: 4d49 19be cc1e 913e b147 9cbe f975 2d3f
00000070: cc84 1dbe ccdf 22be 9729 9ebe 127e 0abe
00000080: 337e 533f 973e eabe bf13 8abe 8d2a a9be
00000090: 4180 ea3e ad54 08be 5b27 7b3c 23b5 923f
000000a0: 579a 613f bc63 6e3e 3d5f 67bd 2d2b c5be
000000b0: 9cfc 323f df12 153d 375a f6bc c253 383f
000000c0: a3c1 e5bc 5d51 a3be a692 4dbe 0fa7 363f
000000d0: ca14 73be fd1f 4abe 3ac5 043f 3501 403f
000000e0: 5615 e6bd 4647 88be 07c6 cbbd 64f3 d0bc
000000f0: ff60 e6bd db78 873f b7f4 80bc 9de4 db3c
0.28070456 -0.17823687 -0.21478027 1.074918 1.3829155 -0.13775104 0.5795566 -0.15041572
0.27744472 -0.16376333 0.34827432 -0.44903025 0.34285906 -0.008858444 -0.09526017 -0.124979906
-0.15975483 -0.015204244 -0.28051615 0.6974093 -0.19351855 -0.01755475 -0.12969561 0.7296098
-0.14969368 0.2834381 -0.30523446 0.67758137 -0.15382689 -0.15905684 -0.30891106 -0.13524655
0.8261444 -0.45750877 -0.2696819 -0.33040276 0.45800975 -0.13313551 0.015329207 1.1461529
0.8812613 0.23280233 -0.05648731 -0.38509503 0.699167 0.03639495 -0.030072315 0.72002804
-0.028046435 -0.31898013 -0.20075473 0.7134866 -0.23738399 -0.19738765 0.51863444 0.7500184
-0.11234538 -0.26616877 -0.0994988 -0.025506683 -0.11248969 1.0583757 -0.01574169 0.02684241

fc4.weight f4 [10, 64]
00000000: c3c2 e43b fc16 3a3d da7d 143e 3fef d03d
00000010: 4b9b 66bf 1d9f 4bbe ddb1 eabe 8d90 edbd
00000020: 74c3 26be 8228 37be 74e4 c73c 76b8 febe
00000030: 4a56 bfbd 0a9f 0f3d ae6b aabc 7cd8 85bd
00000040: 1b35 b63d 16b5 253b 346e 2cbf 34d9 a43d
00000050: 8786 84bd 5d59 fdbd cc99 23bd 1332 a5be
00000060: bd12 a83d 2c23 a5bd 236a 4ebe 8e75 83bd
00000070: e9c5 17bf b8fd e8bd efa4 c73d ff83 49bf
00000080: 9531 60be f731 d5be 9ad7 19be 9b49 763e
00000090: b31d 79be f200 43bb 02d3 7b3d 48b2 483e
000000a0: de14 3ebe 52af 59be b019 2fbe 561c 213e
000000b0: 2fcc 6ebe c77f 053d 228a 373d 5acb c43d
000000c0: 2547 f13d 4fda 4cbe 6df2 b93e cb2e d83d
000000d0: ff00 edbe 0c43 d33c 16bf 0f3e 5b7a 193e
000000e0: 932b 0cbe 1b79 4cbe 175d be3c feb2 853c
000000f0: 06d1 5f3d ae11 4b3e a1c4 fe3c 48ef 7d3c
00000100: a268 e3be 5111 1cbe b4d3 a3bd b2a1 bf3d
00000110: 17a0 dbbf 6f82 5abe 4fb9 f0be a120 28be
00000120: afcd e1bd 6a8c 183e 82e3 1fbe ffb1 50be
00000130: 3018 7abe 265f 713d 40fd d63c 538b 843c
00000140: 5dfa 19be 75a2 5d3c f807 c6be fcd1 533e
00000150: 09a0 5f3e dee5 95be bc3f a6bc 709d d5be
00000160: 0d81 e53d 7496 6bbe faa4 0dbf 1ac0 aebd
00000170: bb22 1cbf 5418 78bd cd79 543c d11c bcbe
00000180: aa64 8ebe d1b6 2dbf a551 21be ef63 edbd
00000190: 1e41 1d3e 4a6a eb3b e85b 92bd 9f15 b3bd
000001a0: bfeb 48bf 343c 13be a462 12be 84de f9bd
000001b0: 2b38 a63c 12f2 8cbd 7ba5 123e b9da 533e
000001c0: 0c73 a1bc 0d65 92bd b040 973e c93a 04bf
000001d0: ef4f 9abe d5cd ad3d 0aa8 34be cfbd aabe
000001e0: d5f8 e0be 43e9 70be 7038 f93c bbe5 123e
000001f0: 65c0 a0bd c756 f3be b0b1 953d b4d5 70be
00000200: a1c6 bc3d 99ed e2be 4726 10bd 3f13 8ebd
00000210: 7e60 6fbf a091 a5be cfc8 d5be 67cf 28be
00000220: 0668 e23d 7309 24be feab 563d f930 dabe
00000230: 7f86 8c3c a4b9 0bbd 130a 08bd 2efe 63bd
00000240: 4918 ac3b 46da 6c3c 6cf3 78bf de18 78bc
00000250: 7e14 79be 64fc 46bc e949 0d3e e30b 603e
00000260: 7ad7 e2bc c494 20be 5fcc 65be d205 a1bd
00000270: 3eed 8ebe 6338 01be a9d8 45bd 7530 1cbf
00000280: f2fe dfbe 7fa8 fabd d379 4fbd 9796 bcbc
00000290: cc69 c6bd 1aff e0bb 9c48 d2bd b611 013e
000002a0: c49d 373e c32f d0be 35e2 39bd d216 d23c
000002b0: 8085 f5be 8455 45bd 8ae2 8e3c cd3f 3bbd
000002c0: 672d 8a3b f408 9cbe 9d7c eebc bb5d e73d
000002d0: 1b33 2abe 0f71 4bbd 2afc 743d cc3a b53d
000002e0: 3fb3 46be ca9e eabd 3c99 9a3d 9ad8 c7bd
000002f0: 1ee9 f4bd ef1a bcbe 5f64 b5bd 56cb 953c
00000300: ff01 cfbe 49b0 cebe fdfb 1abd b1f9 583e
00000310: 0a0b dcbf 0aa9 13be 5a13 9fbe 845e b6bd
00000320: 3191 67be 703b a9bd 0095 ab3d 0ccc 02be
00000330: 8eeb fe3b d301 b83d e5dc 013d af62 76bd
00000340: bf3a e8bb 61bf e23d d29f ecbe 3533 513e
00000350: 02b3 cbbd b585 d6bd 2696 66be 4032 8cbe
00000360: 42a3 843d 081c 903d b6ce fdbd 8284 8a3e
00000370: d2dc 42bf 6515 353d 24d8 08be fc38 52bf
00000380: afc2 28be ffdd dabe 389e bebe b5d1 e0bb
00000390: 2888 893d 995f 643c 01ca 093e 4e34 debd
000003a0: 4d6c f93d c2cb 2bbe 88ac bebd 6d1b 8bbe
000003b0: 9c35 47be cbe5 0fbe fd3f 243c 276c 063e
000003c0: 386d b8bc 9190 36be 96d7 8dbe 48b4 8ebe
000003d0: 69fc 7abd ece2 42bd 3bca 913d 6d37 9bbe
000003e0: 27fc 95be 7ae3 28be 78b1 0c3d 19d8 0a3e
000003f0: 9bf0 f13c 039b 21bd 7a9e 03be dc42 74bd
0.006981225 0.045432076 0.14501134 0.102018826 -0.9008071 -0.19884916 -0.45838824 -0.115998365
-0.16285497 -0.17886546 0.024400927 -0.49750108 -0.0934263 0.03506378 -0.020803299 -0.06535432
0.08896848 0.0025284938 -0.67355657 0.08049241 -0.064709716 -0.1237056 -0.039941594 -0.32264766
0.08206699 -0.08063349 -0.20157675 -0.06418906 -0.5928636 -0.11376518 0.097482555 -0.78717035
-0.21893914 -0.41639683 -0.15023652 0.24051516 -0.24327736 -0.0029755202 0.06148053 0.19599259
-0.18562648 -0.21258286 -0.17099643 0.15733466 -0.23320077 0.03259256 0.044809468 0.09609099
0.11781148 -0.20005153 0.3631777 0.105558 -0.46289822 0.025788806 0.14037737 0.14988081
-0.13688497 -0.19968073 0.023237748 0.016320702 0.0546427 0.19830963 0.03109962 0.015498944
-0.44415766 -0.1524098 -0.079993635 0.09357013 -1.715823 -0.21338819 -0.4701638 -0.16418697
-0.11025559 0.14897314 -0.15614131 -0.203804 -0.2442329 0.05892863 0.026243806 0.016179716
-0.15036912 0.013527502 -0.38677955 0.20685571 0.21838392 -0.29276937 -0.020294063 -0.41721678
0.11206255 -0.23006612 -0.5532986 -0.08532734 -0.60990494 -0.060570076 0.012968493 -0.36740735
-0.27811176 -0.6785708 -0.15753801 -0.115913264 0.15356871 0.0071843015 -0.07146436 -0.08744358
-0.7848472 -0.14378434 -0.14295441 -0.122006446 0.020290455 -0.06882109 0.14320938 0.20688905
-0.019708179 -0.0714818 0.2954154 -0.516522 -0.3013911 0.08486525 -0.17642227 -0.33347937
-0.43939844 -0.23526482 0.03042242 0.14345448 -0.07849196 -0.47527143 0.07309282 -0.23519021
0.09217573 -0.44321898 -0.035192754 -0.06937265 -0.9350661 -0.32337666 -0.41754767 -0.16485368
0.11054997 -0.1601923 0.05241012 -0.42615488 0.017153976 -0.034112588 -0.033212733 -0.055662327
0.0052519185 0.014456337 -0.9724643 -0.015142648 -0.24324223 -0.012145136 0.13797726 0.21879534
-0.027690638 -0.1568175 -0.22441243 -0.07862438 -0.27915376 -0.12619166 -0.048302326 -0.6101144
-0.43749195 -0.12239169 -0.05065329 -0.023021026 -0.09688148 -0.006866348 -0.102677554 0.12604412
0.17931277 -0.4066144 -0.045381743 0.025645647 -0.47953415 -0.048177257 0.017442007 -0.045715142
0.004216838 -0.3047558 -0.029112155 0.112971745 -0.16621058 -0.049668368 0.059810795 0.08849105
-0.19404314 -0.11456068 0.075487584 -0.0975811 -0.11958526 -0.367393 -0.08857035 0.018285435
-0.4043121 -0.4036887 -0.03783797 0.21189 -1.7190869 -0.14419952 -0.31069452 -0.08904746
-0.2261398 -0.0826329 0.08378029 -0.1277315 0.007779545 0.08984723 0.031704802 -0.060152706
-0.007087081 0.11071659 -0.46215683 0.2042969 -0.099462524 -0.10474721 -0.22518215 -0.27382088
0.064764515 0.070365965 -0.123929426 0.2705422 -0.76118195 0.044209857 -0.13363701 -0.821182
-0.16480516 -0.42747495 -0.37230086 -0.0068609365 0.06715423 0.013938808 0.13455965 -0.1084982
0.1217886 -0.16776946 -0.093102515 -0.27169362 -0.19454044 -0.14052503 0.010025022 0.13127194
-0.022513017 -0.17828585 -0.27703542 -0.2787192 -0.061275873 -0.04757969 0.071186505 -0.30315724
-0.2929394 -0.16493025 0.034348935 0.13558997 0.029533675 -0.03945447 -0.12853423 -0.059634075

fc4.bias f4 [10]
00000000: df74 c4bc 0807 d4be 204a 8e3e 1c6e bf3e
00000010: 5ab1 fabe 0fa5 233f 634f 773e eb62 343e
00000020: 8e7c 07be 4adf 3cbf
-0.02398151 -0.41411614 0.27790928 0.37388694 -0.48963434 0.63923734 0.24151377 0.17615859
-0.13231108 -0.7377821
