runs/Mar02_17-45-28_cssd901383-Run(lr=0.001, batch_size=256, patience=1)-valid/checkpoint.pt (torch_old, 972387 bytes, 8 tensors)

fc1.weight f4 [256, 784]
0.009107217 -0.013709558 -0.0041722953 -0.013631655 -0.034311913 -0.017274657 0.018306118 -0.025888883
-0.0023040436 -0.036533903 -0.007615894 0.018333767 -0.09104674 -0.095095135 -0.09411277 -0.07137653
-0.030482206 -0.026072575 -0.01193317 -0.021244997 -0.02732567 -0.015563566 -0.025282428 -0.011063794
0.025110964 0.029108454 -0.009040492 -0.017806029 0.027135406 -0.018134803 -0.025094207 -0.019597625
-0.004855659 0.0058280528 -0.0041082874 0.014412019 0.03058714 -0.012538688 -0.046602514 -0.08053135
-0.050413623 -0.039998226 -0.03574973 -0.02611388 -0.052256938 -0.07660367 0.008275047 0.021068659
0.009044334 0.020457793 0.032561686 0.030129705 0.013623413 0.025338102 0.0153257325 0.030645821
-0.021861043 -0.020871937 0.014140692 -0.011729624 -0.00043885037 0.03301346 0.028678548 -0.017235737
-0.08697608 -0.08410029 -0.08029787 -0.060840722 -0.09177638 -0.028189262 -0.03869744 -0.03739546
-0.09443384 -0.08941386 -0.065241106 -0.08099161 -0.031189274 -0.015758524 -0.0035587884 -0.008935878
-0.010664178 -0.016977277 0.0038192086 -0.025832526 0.0056482665 -0.012754688 -0.010232495 0.029566947
-0.011947071 -0.03367927 -0.06587796 -0.05582086 -0.052332964 -0.0748141 -0.094108246 -0.091559455
-0.057761095 -0.06297531 -0.045242753 -0.057379764 -0.029064432 -0.053029265 -0.038867395 -0.08683236
-0.07420699 -0.06511107 -0.037579983 -0.003021542 -0.031066814 0.023007475 0.0030118711 0.009013772
0.016856842 -0.025415346 -0.007030368 0.02596474 0.013565954 -0.02656801 -0.026975818 -0.036359876
-0.05024985 -0.041315835 -0.09172321 -0.07591791 -0.07697466 -0.05621195 -0.054624554 -0.033281807
-0.08928245 -0.04505407 -0.078825235 -0.043946072 -0.058002822 -0.067961104 -0.078567505 -0.009836918
0.032612916 -0.01873371 -0.015523363 0.012516439 0.004889343 0.013373632 0.019539062 0.003252197
0.0028922744 -0.06589088 -0.08475727 -0.036074035 -0.060608223 -0.062957086 -0.04668061 -0.028035555
-0.084091224 -0.09082197 -0.06459284 -0.058725573 -0.05549663 -0.08986113 -0.080410965 -0.03259138
-0.057256903 -0.09465416 -0.03221608 -0.0632768 0.022519015 -0.032759026 -0.016930407 -0.03012917
-0.031141125 0.003784839 0.013542838 -0.0093047675 -0.02305533 -0.056256432 -0.049063835 -0.075089104
-0.07625917 -0.04337624 -0.05235039 -0.07610221 -0.06276569 -0.03555508 -0.074355006 -0.06843046
-0.07223016 -0.042662922 -0.051526044 -0.029931245 -0.045809668 -0.06527628 -0.052988384 -0.080443345
-0.026626715 -0.026553312 0.023340002 -0.030384218 0.010833353 0.032801848 -0.015528854 -0.017597757
-0.004595332 -0.03234832 -0.08892822 -0.081091024 -0.049805906 -0.09445796 -0.09311654 -0.055940535
-0.05238251 -0.04858469 -0.092179395 -0.025927566 -0.09221135 -0.06686232 -0.087583594 -0.0672223
-0.041574147 -0.04248381 -0.07139147 -0.032727823 0.026306774 0.032539148 0.022556204 0.02299948
0.034738842 -0.029157827 -0.0048376415 -0.009773897 -0.07126293 -0.03681574 -0.06497221 -0.060460668
-0.06264749 -0.047347914 -0.06776429 -0.08271408 -0.041157924 -0.09417816 -0.09306375 -0.07779769
-0.0380505 -0.026700016 -0.092500135 -0.08652704 -0.077034526 -0.033986837 -0.07564786 -0.06217398
-0.028288698 0.022601705 -0.010392742 0.012784835 0.01101131 0.034135606 0.016896538 -0.025392465
00000000: 7036 153c 0e9e 60bc c0b7 88bb 4e57 5fbc
00000010: a68a 0cbd 9583 8dbc b6f6 953c ec14 d4bc
00000020: 70ff 16bb 93a4 15bd c08e f9bb b230 963c
00000030: b776 babd 3dc1 c2bd 32be c0bd dc2d 92bd
00000040: d2b5 f9bc 2796 d5bc 5883 43bc fd09 aebc
00000050: 15da dfbc 54fe 7ebc 181d cfbc ea44 35bc
00000060: 82b5 cd3c da74 ee3c 921e 14bc f3dd 91bc
00000070: 124b de3c 708f 94bc 5e92 cdbc 338b a0bc
00000080: 381c 9fbb 40f9 be3b d09e 86bb 6420 6c3c
00000090: e291 fa3c 126f 4dbc 47e2 3ebd 9fed a4bd
000000a0: 847e 4ebd 2ed5 23bd 4f6e 12bd c7ec d5bc
000000b0: 5f0b 56bd 63e2 9cbd 1094 073c 2e98 ac3c
000000c0: b02e 143c 1a97 a73c 675f 053d 92d2 f63c
000000d0: bc34 5f3c da91 cf3c c818 7b3c f20c fb3c
000000e0: ee15 b3bc a0fb aabc 5cae 673c 9c2d 40bc
000000f0: 8015 e6b9 1f39 073d 46ef ea3c f631 8dbc
00000100: 8420 b2bd c63c acbd 3673 a4bd 1f34 79bd
00000110: 41f5 bbbd 2bed e6bc 3581 1ebd fb2b 19bd
00000120: 8766 c1bd 9d1e b7bd 219d 85bd eede a5bd
00000130: a680 ffbc 0518 81bc 903a 69bb ca67 12bc
00000140: ceb8 2ebc ee13 8bbc b04b 7a3b bc9e d3bc
00000150: 1815 b93b 0af9 50bc 32a6 27bc 6236 f23c
00000160: a6bd 43bc 46f3 09bd 06eb 86bd 6aa4 64bd
00000170: 175b 56bd 2338 99bd d3bb c0bd 8683 bbbd
00000180: e696 6cbd 33f9 80bd 7750 39bd 0b07 6bbd
00000190: 8818 eebc 3735 59bd 6b33 1fbd 2ad5 b1bd
000001a0: d6f9 97bd f458 85bd 78ed 19bd 1005 46bb
000001b0: d57f febc 2c7a bc3c d062 453b 80ae 133c
000001c0: 5c17 8a3c d833 d0bc 005f e6bb 02b4 d43c
000001d0: bc43 5e3c 28a5 d9bc 64fc dcbc 18ee 14bd
000001e0: c9d2 4dbd cb3a 29bd 61d9 bbbd d97a 9bbd
000001f0: e4a4 9dbd 803e 66bd ffbd 5fbd 8152 08bd
00000200: b8d9 b6bd 9e8a 38bd 206f a1bd cc00 34bd
00000210: 5e94 6dbd 312f 8bbd 00e8 a0bd 062b 21bc
00000220: 1f95 053d 7077 99bc b455 7ebc c011 4d3c
00000230: c836 a03b 141d 5b3c 6210 a03c d022 553b
00000240: 508c 3d3b ccf1 86bd 3895 adbd 5ec2 13bd
00000250: 5440 78bd a5ef 80bd 2b34 3fbd d2aa e5bc
00000260: 0538 acbd de00 babd 4049 84bd 3a8a 70bd
00000270: 6f50 63bd 1d09 b8bd 81ae a4bd 8a7e 05bd
00000280: 3786 6abd 0ada c1bd 02f5 03bd 4497 81bd
00000290: cc79 b83c 542e 06bd a3b1 8abc 73d1 f6bc
000002a0: ac1b ffbc 100b 783b c8e2 5d3c 0673 18bc
000002b0: 88de bcbc 256d 66bd 29f7 48bd 51c8 99bd
000002c0: c52d 9cbd 49ab 31bd 5d6d 56bd 7adb 9bbd
000002d0: 4c8b 80bd 34a2 11bd 7047 98bd 4525 8cbd
000002e0: 68ed 93bd 51bf 2ebd f90c 53bd 5f32 f5bc
000002f0: eba2 3bbd 92af 85bd 590a 59bd 7bbf a4bd
00000300: 4520 dabc 5586 d9bc 8833 bf3c 53e8 f8bc
00000310: 607e 313c 3b5b 063d bc6c 7ebc 2c29 90bc
00000320: 7094 96bb ac7f 04bd 0020 b6bd 0d13 a6bd
00000330: 4701 4cbd 2d73 c1bd e2b3 bebd e721 65bd
00000340: 0b8f 56bd bd00 47bd 8dc8 bcbd 0c66 d4bc
00000350: 4ed9 bcbd 1def 88bd 075f b3bd d8ab 89bd
00000360: a749 2abd 8103 2ebd b135 92bd 9c0d 06bd
00000370: 4e81 d73c c547 053d cac7 b83c 6869 bc3c
00000380: 514a 0e3d 65dc eebc 1485 9ebb b222 20bc
00000390: 4df2 91bd 1acc 16bd 2610 85bd 9ba5 77bd
000003a0: 544d 80bd e3ef 41bd 01c8 8abd 0066 a9bd
000003b0: 3695 28bd 7be0 c0bd 3598 bebd 6554 9fbd
000003c0: d7da 1bbd feb9 dabc b670 bdbd 1735 b1bd
000003d0: 47c4 9dbd c835 0bbd 44ed 9abd 25aa 7ebd
000003e0: b3bd e7bc 3627 b93c 5246 2abc 7c77 513c
000003f0: c868 343c c7d1 0b3d 9c6a 8a3c dc03 d0bc

fc1.bias f4 [256]
-0.08689107 -0.1304714 -0.09069699 -0.053544626 -0.0785186 0.17842577 0.61255324 -0.072899744
0.39010528 0.0536267 -0.049944684 -0.02534172 -0.71230865 -0.08667962 -0.03903768 -0.05796924
-0.024785845 0.04312326 0.53325695 -0.0347719 0.09800462 -0.04369808 -0.10231795 -0.045866475
0.14273082 -0.07558387 -0.10516516 -0.061301067 -0.1203056 -0.20575707 -0.06953798 -0.084917
-0.008483885 -0.014488947 -0.037717376 0.4383824 -0.055323116 -0.04955542 -0.33110765 0.13707392
-0.11332564 0.07303919 0.6896047 0.073250875 -0.13385949 -0.3733188 -0.082074225 -0.13207154
-0.054768186 -0.11470692 -0.001560427 -0.058722213 0.037433427 -0.065818004 -0.014942743 -0.07286725
0.69107133 -0.02638308 -0.121032655 -0.09245956 -0.0262417 -0.08682607 -0.06484523 -0.026997272
-0.06141678 0.2142296 -0.04478153 -0.07109311 0.1861002 0.024126 -0.08068685 -0.04830977
-0.06747745 0.19315338 -0.14309925 0.022683617 1.0812341 0.22200875 -0.12162091 0.8794024
-0.29864204 -0.09556121 -0.041278217 0.5816917 0.59428906 -0.08446553 0.05203952 -0.06283098
0.043215767 -0.06974878 0.18034813 -0.08727332 -0.5243992 0.16271974 -0.024384003 -0.14528401
-0.085301675 -0.012024098 -0.22039248 -0.075967506 -0.06483063 0.4309087 0.44450614 -0.09598932
-0.020990346 -0.042902082 0.62565655 -0.087432615 -0.099939935 1.3001416 -0.559553 -0.04468182
-0.07216842 -0.078287944 -0.15523168 0.93511665 -0.024196662 -0.050445188 -0.06810962 -0.054379795
-0.10152794 -0.09043357 -0.3831043 0.25910965 0.004115127 -0.027411794 -0.20619954 -0.079611555
0.40937826 -0.0064748544 -0.20591241 -0.030580036 -0.04960214 -0.098814785 0.40965584 0.248041
-0.112364344 -0.07985216 -0.063556485 -0.28407246 0.032175466 -0.06682221 0.027630944 -0.038926397
-0.033439234 -0.5727998 0.12257085 -0.29017136 -0.045611102 -0.046912003 -0.07216816 0.51673716
-0.06766332 0.024102172 0.2869576 -0.064432606 0.19583784 0.34173536 -0.04067068 -0.5419478
0.013264335 -0.0029771558 -0.0020802345 -0.034279924 0.45875406 -0.13432945 -0.6338111 0.20426875
0.672828 -0.033811845 0.29737365 0.3582839 -0.054018456 -0.49970174 -0.028042385 -0.015113389
-0.041428212 -0.123924024 0.060586214 0.0009610291 0.77256215 -0.92435074 -0.11938539 -0.072516985
0.3914821 0.28465444 -0.029836565 -0.20080045 0.016556224 -0.068650514 -0.07028171 -0.0891417
-0.085385434 -0.08455464 -0.2296651 0.037121814 -0.00060058804 0.42422357 -0.05856429 -0.04575293
-0.15914157 -0.07428189 0.6692613 0.005175758 -0.0441495 -0.014144431 0.29715374 -0.11568487
-0.027416201 -0.11577242 -0.030096136 -0.07436215 -0.09324335 -0.025329368 -0.07917618 0.25872687
-0.07981237 -0.05704709 -0.11368033 0.27578312 -0.028876454 0.01281162 -0.045538496 -0.03723357
0.48675942 -0.36153418 -0.034575697 -0.071368895 -0.055170096 -0.068208985 0.47742775 -0.050624445
0.2343367 0.23301129 0.12787794 0.41347227 -0.054551367 -0.21566133 -0.094918944 -0.14503518
-0.28717914 -0.12295776 -0.062602095 -0.060285494 -0.04406542 -0.079759836 -0.080780245 0.05872995
-0.091287285 0.34910658 -0.063875586 0.854187 0.071494184 -0.060547475 0.085204266 -0.035674963
00000000: f2f3 b1bd 4b9a 05be 58bf b9bd 9c51 5bbd
00000010: 5cce a0bd 3fb5 363e 4ad0 1c3f 764c 95bd
00000020: e1bb c73e aca7 5b3d cc92 4cbd 7099 cfbc
00000030: dc59 36bf 1685 b1bd f9e5 1fbd 2771 6dbd
00000040: af0b cbbc 04a2 303d 8783 083f fb6c 0ebd
00000050: a5b6 c83d c2fc 32bd 138c d1bd 7cde 3bbd
00000060: 0728 123e b7cb 9abd d560 d7bd d416 7bbd
00000070: c862 f6bd fbb1 52be ee69 8ebd f7e8 adbd
00000080: feff 0abc 0c63 6dbc 897d 1abd a873 e03e
00000090: 7e9a 62bd a0fa 4abd f186 a9be 1b5d 0c3e
000000a0: 4617 e8bd 9295 953d ef89 303f 8e04 963d
000000b0: 7612 09be a423 bfbe 8816 a8bd c33d 07be
000000c0: 9b54 60bd 76eb eabd 3e87 ccba b486 70bd
000000d0: cb53 193d 97cb 86bd 68d2 74bc 6d3b 95bd
000000e0: 0dea 303f 5421 d8bc f8df f7bd 705b bdbd
000000f0: d5f8 d6bc ded1 b1bd 93cd 84bd 6229 ddbc
00000100: 2990 7bbd 015f 5b3e d66c 37bd 4499 91bd
00000110: 0d91 3e3e e4a3 c53c 263f a5bd 77e0 45bd
00000120: 9e31 8abd 00ca 453e 9c88 12be fed2 b93c
00000130: e165 8a3f 4356 633e 6214 f9bd 8420 613f
00000140: 9ce7 98be 98b5 c3bd 5913 29bd bfe9 143f
00000150: 5423 183f 44fc acbd 6427 553d 87ad 80bd
00000160: 0403 313d 73d8 8ebd 2ead 383e 5bbc b2bd
00000170: 073f 06bf 01a0 263e f6c0 c7bc 55c5 14be
00000180: a5b2 aebd b900 45bc 91ae 61be da94 9bbd
00000190: ecc5 84bd 11a0 dc3e 4f96 e33e 0c96 c4bd
000001a0: f2f3 abbc 18ba 2fbd 072b 203f df0f b3bd
000001b0: 4fad ccbd 0a6b a63f de3e 0fbf 4904 37bd
000001c0: 09cd 93bd 6e55 a0bd 0ef5 1ebe ce63 6f3f
000001d0: 1438 c6bc 9d9f 4ebd 0e7d 8bbd 59bd 5ebd
000001e0: e1ed cfbd 3c35 b9bd 3f26 c4be 05aa 843e
000001f0: 30d8 863b b38e e0bc f925 53be 620b a3bd
00000200: 079a d13e 042b d4bb b4da 52be fc82 fabc
00000210: 9d2b 4bbd 685f cabd 69be d13e 76fe 7d3e
00000220: 471f e6bd 8789 a3bd e729 82bd f271 91be
00000230: 6cca 033d 15da 88bd 4a5a e23c 4971 1fbd
00000240: 94f7 08bd 02a3 12bf 6d06 fb3d 5791 94be
00000250: b5d2 3abd cd26 40bd e6cc 93bd e348 043f
00000260: 1193 8abd eb71 c53c 1bec 923e 3ef5 83bd
00000270: b789 483e f0f7 ae3e 4d96 26bd 17bd 0abf
00000280: a752 593c 631c 43bb 8b54 08bb 1b69 0cbd
00000290: d0e1 ea3e a98d 09be 7241 22bf d42b 513e
000002a0: 753e 2c3f 4a7e 0abd 5c41 983e fd70 b73e
000002b0: 7542 5dbd e8d8 ffbe 25b9 e5bc 269e 77bc
000002c0: a1b0 29bd e1cb fdbd 4029 783d 92ed 7b3a
000002d0: a2c6 453f 40a2 6cbf 5480 f4bd c983 94bd
000002e0: 5870 c83e 3abe 913e d06b f4bc a29e 4dbe
000002f0: eba0 873c a498 8cbd dbef 8fbd ec8f b6bd
00000300: 8fde aebd fc2a adbd 542d 6bbe 0b0d 183d
00000310: c870 1dba d533 d93e 1ce1 6fbd 6d67 3bbd
00000320: 02f6 22be 1b21 98bd b554 2b3f 6899 a93b
00000330: 1bd6 34bd 0bbe 67bc 8924 983e 30ec ecbd
00000340: f197 e0bc 171a edbd 2c8c f6bc 2f4b 98bd
00000350: 5ff6 bebd 897f cfbc 1f27 a2bd d977 843e
00000360: ab74 a3bd 36aa 69bd 3cd1 e8bd 7233 8d3e
00000370: 508e ecbc d4e7 513c 9386 3abd 3a82 18bd
00000380: 8838 f93e 021b b9be 3f9f 0dbd db29 92bd
00000390: 0afa 61bd 27b1 8bbd 6971 f43e 945b 4fbd
000003a0: f6f5 6f3e 839a 6e3e 6ff2 023e a3b2 d33e
000003b0: 4171 5fbd 53d6 5cbe dd64 c2bd 1a84 14be
000003c0: 2509 93be 47d1 fbbd 8735 80bd eced 76bd
000003d0: f17d 34bd 2059 a3bd 1d70 a5bd d18e 703d
000003e0: d4f4 babd 19be b23e 34d1 82bd 00ac 5a3f
000003f0: 8b6b 923d a100 78bd 937f ae3d e91f 12bd

fc2.weight f4 [128, 256]
0.06247907 0.06987892 -0.031050721 -0.09264916 -0.10009422 -0.097843595 -0.20981164 0.00028195977
0.12237849 -0.5009355 0.16221794 -0.10735454 -0.055268895 0.0498223 -0.07802057 0.099304326
-0.06690782 -0.06593142 -0.052673314 0.01823761 -0.04698694 -0.11263845 -0.027275981 -0.022984615
0.031497773 -0.07609232 -0.10898047 0.11246562 -0.006964554 0.0009805283 0.056217838 0.012538233
0.12653342 -0.034128174 -0.066052794 -0.66762805 0.082798146 -0.07434424 -0.016493509 -0.061935544
-0.22019538 -0.26988417 -0.5597876 -0.03687223 -0.027341163 -0.107104115 -0.052341253 0.05931513
-0.10282982 0.02392802 -0.057283036 -0.073885866 -0.05604345 -0.034344323 0.09899902 -0.08311009
-0.024548074 0.027242947 -0.018472144 -0.026434885 0.039685678 0.08690325 0.0057956725 0.07170961
-0.07492985 0.18882853 0.013310266 -0.0691483 -0.027805643 0.06895713 -0.033495806 -0.06648073
0.10377582 0.44959524 -0.09625446 -0.089570366 -0.07441525 -0.049896616 -0.041470144 -0.32811752
-0.12552787 -0.048793953 0.039856233 -0.013251842 -0.27457744 0.03402625 -0.13174029 -0.059813194
0.035446398 0.05304715 0.26966953 0.02995145 0.03820395 -0.070146106 0.028126147 0.01380301
0.09387556 0.027864287 0.10666787 -0.06812019 0.1076039 0.04839644 -0.12852244 0.03630967
-0.04584625 0.08758663 -0.11443454 0.09831931 -0.053918354 -0.04932581 0.11431741 -0.045632076
0.04711566 0.0012618558 -0.0720766 0.045820426 -0.04593536 0.03588853 0.08925595 -0.015627207
-0.05458097 -0.085593134 -0.12227218 0.110695526 -0.020525059 -0.08400902 0.031898722 0.0036117204
-0.009838744 -0.0785554 0.3442045 0.12021437 -0.02713154 -0.08622807 -0.085378684 0.16458485
0.10272213 -0.044077095 -0.028594675 -0.08002431 0.029363655 -0.01068614 -0.18667905 0.10611645
-0.06475033 -0.17608091 -0.17773668 -0.12922908 0.093323044 0.100275576 0.014640349 -0.027913112
0.036558785 0.034211963 -0.31401256 0.046054136 0.19082142 -0.053573802 0.046084713 -0.16216812
-0.055896938 -0.12119351 0.004768522 -0.08035458 0.18005207 -0.058871858 0.023878055 -0.27656686
-0.2004467 0.035493966 0.210662 -0.06858164 -0.0026095754 -0.103415266 0.021585766 -0.16510643
0.05091891 0.15722848 -0.25401637 0.08583166 -0.026400845 -0.18533796 0.04198091 0.09131163
-0.15121675 -0.12510033 -0.027442181 -0.07031363 -0.07173214 0.0672537 -0.00036551282 0.043143917
0.10027738 0.08862545 0.2907739 -0.28202134 -0.016873535 -0.16627006 0.03804233 -0.056783307
-0.022430794 -0.07786889 0.15811568 -0.028959954 0.049861122 -0.063955896 0.02199801 0.07640893
-0.10250082 0.10857484 -0.008232837 -0.088615716 0.022545382 0.05476215 -0.09791767 0.055928983
-0.08788422 0.03746523 0.07537083 0.13826098 0.27442828 0.57018214 -0.013676243 0.0127293365
-0.15521169 0.0065376344 -0.104671374 -0.118312955 -0.010190794 -0.017533317 -0.055482157 -0.043596428
-0.12345636 0.055686627 -0.030284414 -0.08779537 0.053937096 0.33208236 -0.03880382 -0.078334615
0.0026989602 0.38813138 -0.08062803 0.016922563 0.001805424 0.038711406 0.025100535 -0.32196286
0.05174137 -0.04606487 -0.06100264 -0.023489691 -0.19697875 -0.09357972 0.0553583 -0.034397125
00000000: 0eea 7f3d ae1c 8f3d 155e febc d8be bdbd
00000010: 33fe ccbd 3962 c8bd ddd8 56be 00d4 9339
00000020: 93a1 fa3d 4f3d 00bf 761c 263e b2dc dbbd
00000030: a361 62bd 7812 4c3d 40c9 9fbd 1160 cb3d
00000040: f806 89bd 0d07 87bd f9bf 57bd 0a67 953c
00000050: 6175 40bd fdae e6bd e171 dfbc 3b4a bcbc
00000060: cf03 013d 4ad6 9bbd 2731 dfbd 6054 e63d
00000070: ea36 e4bb 1285 803a ad44 663d 296d 4d3c
00000080: fa91 013e fcc9 0bbd b046 87bd ace9 2abf
00000090: 1392 a93d cb41 98bd 651d 87bc 20b0 7dbd
000000a0: e67a 61be 422e 8abe 3d4e 0fbf 5607 17bd
000000b0: 93fa dfbc 6759 dbbd c863 56bd 6cf4 723d
000000c0: 7198 d2bd b204 c43c 9ea1 6abd 7951 97bd
000000d0: d18d 65bd a2ac 0cbd 00c0 ca3d 9f35 aabd
000000e0: 0b19 c9bc 9a2c df3c e552 97bc f98d d8bc
000000f0: 738d 223d 55fa b13d a0e9 bd3b 7ddc 923d
00000100: d274 99bd 445c 413e 4d13 5a3c a09d 8dbd
00000110: a9c8 e3bc 6539 8d3d e632 09bd 0d27 88bd
00000120: 6b88 d43d 5931 e63e 0f21 c5bd ab70 b7bd
00000130: 0667 98bd 6560 4cbd 99dc 29bd 05ff a7be
00000140: 618a 00be 2bdc 47bd 4a40 233d 411e 59bc
00000150: 6a95 8cbe 1c5f 0b3d ede6 06be aefe 74bd
00000160: 3e30 113d f847 593d 2012 8a3e be5c f53c
00000170: bf7b 1c3d c3a8 8fbd ce68 e63c 0526 623c
00000180: d441 c03d a543 e43c af74 da3d 9982 8bbd
00000190: 6f5f dc3d 583b 463d 639b 03be 73b9 143d
000001a0: 47c9 3bbd 9e60 b33d a85c eabd a25b c93d
000001b0: 7ed9 5cbd dc09 4abd 3f1f ea3d b3e8 3abd
000001c0: 5afc 403d db64 a53a e59c 93bd 33ae 3b3d
000001d0: b726 3cbd daff 123d d3cb b63d a104 80bc
000001e0: 4c90 5fbd 744b afbd d669 fabd 56b4 e23d
000001f0: 2b24 a8bc ec0c acbd 3ca8 023d 9db2 6c3b
00000200: af32 21bc a7e1 a0bd 923b b03e f432 f63d
00000210: f742 debc 5898 b0bd 05db aebd ee88 283e
00000220: fb5f d23d 2f8a 34bd 613f eabc c9e3 a3bd
00000230: 0c8c f03c eb14 2fbc cb28 3fbe 9553 d93d
00000240: d29b 84bd 8e4e 34be 9b00 36be a154 04be
00000250: 2720 bf3d 485d cd3d 13de 6f3c 0aaa e4bc
00000260: aabe 153d d821 0c3d 41c6 a0be 43a3 3c3d
00000270: b166 433e 3470 5bbd 53c3 3c3d 660f 26be
00000280: 30f4 64bd 4e34 f8bd 4341 9c3b f190 a4bd
00000290: 925f 383e 9e23 71bd e99b c33c 2c9a 8dbe
000002a0: e641 4dbe 1f62 113d c8b7 573e 8874 8cbd
000002b0: 6905 2bbb 62cb d3bd a2d4 b03c a911 29be
000002c0: 5990 503d 8100 213e 6f0e 82be 82c8 af3d
000002d0: 9646 d8bc 3cc9 3dbe 2df4 2b3d 9801 bb3d
000002e0: 90d8 1abe 4d1a 00be 6dce e0bc 9800 90bd
000002f0: 4de8 92bd 4fbc 893d 4da2 bfb9 adb7 303d
00000300: 3a5e cd3d 4381 b53d 51e0 943e 1a65 90be
00000310: 5e3a 8abc b342 2abe 46d2 1b3d 9d95 68bd
00000320: c9c0 b7bc b979 9fbd 14e9 213e 6d3d edbc
00000330: 2d3b 4c3d 4ffb 82bd 2c35 b43c 497c 9c3d
00000340: f3eb d1bd 7c5c de3d 05e3 06bc 287c b5bd
00000350: 18b1 b83c 474e 603d 0f89 c8bd ca15 653d
00000360: a4fc b3bd 2475 193d 065c 9a3d 4994 0d3e
00000370: dd81 8c3e 75f7 113f 5212 60bc b58e 503c
00000380: d0ef 1ebe a739 d63b f25d d6bd 104e f2bd
00000390: 4af7 26bc 08a2 8fbc 4241 63bd 2b92 32bd
000003a0: b0d6 fcbd a917 643d 0517 f8bc 0fce b3bd
000003b0: 25ed 5c3d b306 aa3e c1f0 1ebd e66d a0bd
000003c0: 0ae1 303b 28b9 c63e 4f20 a5bd 30a1 8a3c
000003d0: faa3 ec3a da8f 1e3d a39f cd3c 51d8 a4be
000003e0: c2ee 533d 84ae 3cbd e7dd 79bd 746d c0bc
000003f0: ccb4 49be b9a6 bfbd 63bf 623d 00e4 0cbd

fc2.bias f4 [128]
-0.3103767 0.4516339 -0.0039670113 -0.06945407 -0.27629003 0.05051745 -0.38566428 -0.10954075
-0.014526599 -0.041732457 -0.08216511 0.3083754 0.9820088 -0.28003398 0.018360294 -0.29173
-0.012015313 -0.022044696 -0.15048568 0.7207154 0.15242653 -0.10851157 -0.4353128 0.5618616
-0.14442396 0.56743675 -0.19336443 -0.20872149 -0.03547383 0.68041706 0.29255873 -0.2240171
-0.26302868 0.0763237 -0.34156454 -0.06995244 -0.045841005 -0.34458873 -0.38829964 -0.3953217
-0.12408624 -0.24685058 0.08876202 0.21402918 -0.13752063 -0.06424552 -0.33409664 -0.49768612
-0.076326974 -0.17243475 -0.41434988 -0.3599739 -0.24823005 0.80524397 0.3229599 0.24513762
-0.11459055 -0.17845759 0.3917656 -0.09064552 -0.14787112 0.31501126 -0.16151586 0.68994164
0.6472613 -0.04057603 -0.18822439 0.41916242 -0.03190996 1.2809988 0.7516371 0.4362448
-0.11205951 -0.01088089 0.0784914 -0.23477766 -0.56030464 0.07358417 -0.049139448 -0.87566197
-0.18615966 0.03940699 -0.09501061 0.08865371 -0.41788277 0.63414335 -0.13661803 0.8368766
-0.47141 -0.26069304 -0.31234953 0.7557143 -0.67589617 0.1551592 -0.6050992 -0.19322833
0.08477102 -0.22758593 0.17973861 0.35847837 -0.16832794 -0.2808749 -0.172977 0.66919386
0.25905338 -0.006835193 -0.35769054 0.0016113489 -0.08776861 -0.37233272 -0.38148874 -0.108917445
0.3864525 0.39070058 -0.16964863 0.74766713 0.00090385595 -0.121613964 0.5814917 -0.21301346
-0.0815497 0.15072626 -0.12831062 -0.114990756 0.010013231 -0.2518655 -0.3813976 0.31547305
00000000: b2e9 9ebe 8f3c e73e b4fd 81bb ef3d 8ebd
00000010: e375 8dbe 63eb 4e3d ca75 c5be e756 e0bd
00000020: f900 6ebc a7ef 2abd 2e46 a8bd 61e3 9d3e
00000030: ee64 7b3f 9d60 8fbe 5468 963c a25d 95be
00000040: e0db 44bc 1497 b4bc eb18 1abe ce80 383f
00000050: b315 1c3e 503b debd 52e1 debe 29d6 0f3f
00000060: e0e3 13be 8943 113f 5301 46be 16bb 55be
00000070: 024d 11bd d02f 2e3f 42ca 953e bd64 65be
00000080: b2ab 86be 9a4f 9c3d 8ce1 aebe 3a43 8fbd
00000090: c7c3 3bbd ef6d b0be 36cf c6be 9b67 cabe
000000a0: ed20 febd 66c6 7cbe ddc8 b53d 772a 5b3e
000000b0: 35d2 0cbe 2893 83bd b70e abbe b7d0 febe
000000c0: 5151 9cbd bc92 30be ab25 d4be 804e b8be
000000d0: 0530 7ebe 7824 4e3f 005b a53e 5b05 7b3e
000000e0: 73ae eabd 96bd 36be 8095 c83e 5ca4 b9bd
000000f0: 876b 17be 2849 a13e 6a64 25be 04a0 303f
00000100: ebb2 253f 0d33 26bd e5bd 40be 759c d63e
00000110: 05b4 02bd c5f7 a33f 4a6b 403f 7a5b df3e
00000120: 757f e5bd c345 32bc 19c0 a03d 8e69 70be
00000130: 2070 0fbf 4cb3 963d 7246 49bd 622b 60bf
00000140: a3a0 3ebe 3969 213d ec94 c2bd 1490 b53d
00000150: bbf4 d5be 3857 223f 99e5 0bbe 8b3d 563f
00000160: a75c f1be 8f79 85be 47ec 9fbe 7e76 413f
00000170: 8807 2dbf 0ee2 1e3e c8e7 1abf a6dd 45be
00000180: 6e9c ad3d 490c 69be 660d 383e 7a8a b73e
00000190: 295e 2cbe d6ce 8fbe e220 31be 4a50 2b3f
000001a0: a5a2 843e c1f9 dfbb 3723 b7be e633 d33a
000001b0: 07c0 b3bd 65a2 bebe 7e52 c3be 1c10 dfbd
000001c0: 1add c53e e809 c83e 5fb8 2dbe 1d67 3f3f
000001d0: bff0 6c3a be10 f9bd a4dc 143f 3320 5abe
000001e0: 8703 a7bd fc57 1a3e dc63 03be 4680 ebbd
000001f0: 890e 243c 84f4 80be 8c46 c3be af85 a13e

fc3.weight f4 [64, 128]
0.06808422 -0.02928342 -0.07109649 0.0023949235 0.049505003 0.0039595813 0.059251852 -0.044084307
-0.05992832 0.017461263 -0.15047882 -0.0691766 0.006964475 -0.10922623 -0.027406968 0.028550632
-0.04553477 0.044160046 -0.009953454 -0.0208324 -0.09074032 -0.07658812 -0.060994554 -0.030094683
-0.06918367 -0.036971193 0.04558643 -0.05073316 -0.06620794 -0.00088879466 0.070569746 0.0104550645
0.03318353 -0.1349833 -0.035429515 0.04916572 -0.042887527 0.06687922 0.08480809 -0.012494832
-0.022132814 -0.059230536 -0.29961124 -0.052899815 -0.07096251 -0.07887128 -0.011461876 -0.008339062
-0.08378253 -0.0060729384 -0.075810656 -0.037742775 0.0030577853 -0.101135746 0.0034951088 -0.0629693
-0.02720249 0.0057052895 -0.09917517 -0.04035233 0.0480384 -0.084663674 -0.03488168 -0.0986023
-0.08724408 -0.041794226 0.07272787 -0.12692983 -0.022217311 -0.0009201914 -0.051448487 -0.0009829402
-0.037999198 -0.1533843 -0.005619443 -0.0814089 -0.15473326 -0.07557417 0.03503985 -0.13261908
-0.06390499 -0.19842894 -0.078148305 -0.16032448 -0.12786946 -0.018371888 0.06831323 -0.13019246
0.07789404 -0.071799465 0.022714019 -0.01941853 0.03441923 -0.13799417 -0.03372023 0.06716166
-0.012046419 -0.08003556 -0.07513381 0.008480355 -0.01495187 -0.025414763 -0.02168879 -0.022895724
-0.18133101 -0.040626958 0.020015307 -0.139695 -0.030371483 -0.04455005 0.02196145 -0.030224085
0.08160899 0.0011031404 0.0023460854 -0.12050043 -0.08673775 -0.0058090463 0.0652575 0.035564497
-0.07040191 0.049080916 0.03530571 -0.07064571 -0.075008474 0.038562022 -0.022916516 -0.20100248
-0.060819067 -0.07387011 -0.0035824957 -0.23852293 -0.053141505 -0.15265775 -0.035027992 0.021784522
-0.13580982 0.026013898 -0.095382124 -0.1567172 -0.09995799 -0.23564531 -0.06913912 -0.036792345
0.004183993 0.025458867 0.033634 -0.10562426 -0.13830346 -0.085314184 -0.06823653 -0.1799684
-0.06134133 -0.23938678 0.00016147185 -0.056553304 -0.11800813 -0.17256744 -0.020805214 -0.22235325
-0.014976695 -0.17611401 -0.04141716 -0.12411394 -0.28123954 -0.06234601 -0.0014425889 0.015016685
0.024296433 -0.13045102 -0.10976192 -0.056746293 -0.026803272 -0.057463534 -0.020453878 0.02538947
-0.13483483 0.03847485 -0.14725806 0.024464263 -0.10167234 -0.0991925 -0.11975789 -0.10436111
-0.13220376 -0.091887005 -0.10168849 -0.138388 -0.13210908 -0.02400986 -0.033111017 -0.121958904
-0.0875335 0.024917252 0.14086723 -0.089617506 0.0019554272 -0.12520143 -0.050448366 -0.055874147
0.042483114 0.0025371013 -0.15138543 -0.061672658 -0.09183395 -0.20740369 -0.122329585 0.013336555
-0.16518813 -0.1773871 -0.13002732 -0.22229694 -0.07230739 -0.104762934 0.043002687 -0.095511965
-0.02715601 -0.004907094 -0.08265152 0.02142684 -0.058116168 -0.26895013 0.0243171 0.07213769
0.07522704 -0.13063821 -0.030676879 -0.03781118 -0.09177267 0.022845108 -0.04335582 -0.0032325697
-0.18972778 -0.07777043 -0.14141724 -0.04150712 -0.10699521 -0.1365635 -0.13775359 -0.04870765
-0.19096395 -0.053439084 -0.08570851 -0.022760369 -0.20852499 0.02677159 -0.026488664 0.0093621835
-0.03168468 -0.091218665 -0.21742879 -0.08261883 -0.13135365 0.019782392 -0.148336 -0.1216748
00000000: bd6f 8b3d c8e3 efbc 099b 91bd 26f4 1c3b
00000010: c2c5 4a3d 60bf 813b 12b2 723d bf91 34bd
00000020: 6677 75bd ec0a 8f3c 1f17 1abe 76ac 8dbd
00000030: 4036 e43b 00b2 dfbd 9484 e0bc 04e3 e93c
00000040: ab82 3abd 2ae1 343d d013 23bc b6a8 aabc
00000050: 10d6 b9bd 3bda 9cbd 6dd5 79bd 2089 f6bc
00000060: 2bb0 8dbd 1b6f 17bd d6b8 3a3d 93cd 4fbd
00000070: 0798 87bd 00fe 68ba df86 903d b84b 2b3c
00000080: 74eb 073d 1039 0abe 8a1e 11bd fe61 493d
00000090: d5aa 2fbd f9f7 883d ddaf ad3d 20b7 4cbc
000000a0: e04f b5bc b89b 72bd a566 99be 7aad 58bd
000000b0: cb54 91bd 4487 a1bd 98ca 3bbc 90a0 08bc
000000c0: 2d96 abbd 80ff c6bb 9e42 9bbd 2b98 1abd
000000d0: 2065 483b 4220 cfbd 320e 653b 0cf6 80bd
000000e0: c2d7 debc 70f3 ba3b 5a1c cbbd 7c48 25bd
000000f0: eac3 443d 2664 adbd 18e0 0ebd 01f0 c9bd
00000100: 06ad b2bd 6c30 2bbd 59f2 943d e5f9 01be
00000110: 1401 b6bc 0039 71ba a6bb 52bd 00d6 80ba
00000120: 0ca5 1bbd c610 1dbe 4e23 b8bb b6b9 a6bd
00000130: 6572 1ebe a1c6 9abd f285 0f3d 4ccd 07be
00000140: 9fe0 82bd f530 4bbe 380c a0bd 1a2c 24be
00000150: 36f0 02be a480 96bc cfe7 8b3d 2c51 05be
00000160: e986 9f3d 990b 93bd c012 ba3c 9c13 9fbc
00000170: 2efb 0c3d 584e 0dbe 391e 0abd 0d8c 893d
00000180: 585e 45bc afe9 a3bd c1df 99bd 30f1 0a3c
00000190: b0f8 74bc 9f32 d0bc b0ac b1bc d08f bbbc
000001a0: d6ae 39be 7468 26bd 24f7 a33c 350c 0fbe
000001b0: 9ecd f8bc 1d7a 36bd 80e8 b33c 8098 f7bc
000001c0: 9d22 a73d 4097 903a c8c0 193b eec8 f6bd
000001d0: 90a3 b1bd d059 bebb b9a5 853d 14ac 113d
000001e0: e02e 90bd 1209 493d b89c 103d b3ae 90bd
000001f0: 0b9e 99bd 36f3 1d3d 6bbb bbbc 98d3 4dbe
00000200: 6a1d 79bd 3649 97bd 4ec8 6abb 5b3f 74be
00000210: e8aa 59bd 5052 1cbe 8379 0fbd 7475 b23c
00000220: bb11 0bbe 191b d53c b457 c3bd 797a 20be
00000230: c6b6 ccbd 014d 71be d098 8dbd 92b3 16bd
00000240: e119 893b 1d8f d03c cec3 093d 8851 d8bd
00000250: 6c9f 0dbe 34b9 aebd 98bf 8bbd a349 38be
00000260: 0c41 7bbd cf21 75be c550 2939 70a4 67bd
00000270: 3fae f1bd 85b5 30be b26f aabc 92b0 63be
00000280: d060 75bc 3b57 34be 0aa5 29bd 732f febd
00000290: a1fe 8fbe 885e 7fbd 4015 bdba 8b08 763c
000002a0: 5009 c73c f494 05be dcca e0bd cd6e 68bd
000002b0: 8992 dbbc e25e 6bbd e48e a7bc 94fd cf3c
000002c0: 2412 0abe ce97 1d3d d1ca 16be 4769 c83c
000002d0: 9639 d0bd 7025 cbbd a043 f5bd 47bb d5bd
000002e0: 6c60 07be 412f bcbd 0e42 d0bd 95b5 0dbe
000002f0: 9a47 07be 53b0 c4bc 6b9f 07bd 97c5 f9bd
00000300: c344 b3bd 441f cc3c 803f 103e 6289 b7bd
00000310: a026 003b ce34 00be f2a2 4ebd 4adc 64bd
00000320: c602 2e3d 7f45 263b c804 1bbe 789c 7cbd
00000330: 7013 bcbd a261 54be ef87 fabd 9181 5a3c
00000340: 1427 29be f7a4 35be e225 05be cfa1 63be
00000350: e615 94bd f38d d6bd 9623 303d c79b c3bd
00000360: 4876 debc b0cb a0bb 3345 a9bd 5787 af3c
00000370: 380b 6ebd d5b3 89be a834 c73c edbc 933d
00000380: a210 9a3d 06c6 05be 144e fbbc e5df 1abd
00000390: 4ff3 bbbd aa25 bb3c df95 31bd 85d9 53bb
000003a0: 0048 42be 1a46 9fbd aecf 10be 5f03 2abd
000003b0: 4e20 dbbd 4dd7 0bbe 470f 0dbe ac81 47bd
000003c0: 0e8c 43be f1e2 5abd f187 afbd f473 babc
000003d0: 9387 55be 1850 db3c c1fe d8bc d863 193c
000003e0: ccc7 01bd dad0 babd a7a5 5ebe 1034 a9bd
000003f0: 9281 06be af0e a23c 64e5 17be a330 f9bd

fc3.bias f4 [64]
-0.31567058 -0.14235951 -0.29039347 0.27037805 0.6858171 0.6188391 0.54369986 -0.06270541
-0.28634918 -0.8122102 -0.26376766 -0.2761452 -0.14821494 0.9126508 -0.1234415 0.03099226
-0.15617658 0.35908583 -0.08266168 -0.2663631 -0.21042572 -0.035057347 -0.12561111 0.94121313
0.28825632 0.25856677 -0.0697804 -0.3166566 0.35520783 0.4384821 0.4233589 -0.37765396
0.06464682 0.4920067 0.28180033 -0.25366646 0.19715156 -0.17591994 0.4569405 -0.27730095
0.8497434 0.81346655 -0.108818024 0.5793372 -0.16262652 0.57215786 0.4370139 0.4304467
0.58802915 -0.27918062 0.434205 -0.45813552 -0.3737616 -0.2719782 0.00094313413 -0.021371765
0.13583556 -0.29613823 -0.061100878 -0.26265755 0.16176316 0.6261849 0.8033969 -0.03278146
00000000: 939f a1be b1c6 11be 74ae 94be fe6e 8a3e
00000010: b691 2f3f 3d6c 1e3f ea2f 0b3f b26b 80bd
00000020: 5c9c 92be 02ed 4fbf 8e0c 87be e762 8dbe
00000030: a8c5 17be 7ca3 693f e6ce fcbd 7be3 fd3c
00000040: c1ec 1fbe 19da b73e 874a a9bd bf60 88be
00000050: d779 57be 4b98 0fbd 33a0 00be 58f3 703f
00000060: 5596 933e dd62 843e 07e9 8ebd d020 a2be
00000070: cddd b53e ba80 e03e 7fc2 d83e dc5b c1be
00000080: 8d65 843d 4de8 fb3e 2248 903e 92e0 81be
00000090: 19e2 493e 5b24 34be 1bf4 e93e 64fa 8dbe
000000a0: c988 593f 583f 503f fcdb debd 714f 143f
000000b0: 9187 26be f078 123f 49c0 df3e 8363 dc3e
000000c0: 1489 163f c3f0 8ebe 1e50 de3e bd90 eabe
000000d0: ae5d bfbe ba40 8bbe a93c 773a d713 afbc
000000e0: 7a18 0b3e 6e9f 97be ea44 7abd 0d7b 86be
000000f0: 3ea5 253e a74d 203f 6bab 4d3f da45 06bd

fc4.weight f4 [10, 64]
-0.28260148 -0.07889219 -0.130568 -0.000655253 0.037542228 0.08637685 -0.01895461 -0.058589637
-0.36918533 -0.4246993 -0.0102557 0.08274409 -0.13477685 -0.4988912 0.090197645 -0.3683642
0.03411878 -0.21647601 -0.25220388 -0.2708464 -0.28973094 -0.008479495 0.086205274 -0.21867853
0.068111226 -0.06796555 0.03784641 -0.098453365 -0.07461199 -0.27404997 0.019294562 -1.145536
-0.19792578 0.13077115 -0.24910915 -0.19660681 -0.27551225 -0.051629182 -0.11406766 -0.58813465
-0.4577676 0.21846367 -0.0183351 0.017468419 -0.1909993 0.10430187 -0.112561226 -0.28813714
0.21479982 -0.101103716 -0.0056441883 -0.14344908 -0.15829839 0.026790267 0.10278657 0.004926719
0.06719794 -0.40179545 -0.048648037 -0.15034965 0.062068183 0.012520732 -0.5570952 0.11390838
-0.12592933 0.028280104 0.050441384 0.2925587 -0.21215168 0.08137978 -0.26828 -0.36003384
0.10968707 -0.9693113 -0.016249154 -0.33228058 -0.6995421 -0.30119494 0.012235744 -0.8124729
0.029128913 -0.6044988 -0.6151355 0.18619592 -0.22359471 -0.0045994297 0.0025640947 -0.8401873
-0.3580216 0.0778122 -0.11701093 -0.062214512 0.12902085 -0.024409842 -1.109225 -0.9344579
-0.8612103 -0.8622079 -0.36543489 -0.01932926 -0.10625939 -0.12349101 0.015461262 -0.03176274
-0.95666814 -0.34718725 -0.20917375 0.10434199 -0.29803437 -0.011321826 -0.17049594 -0.077322036
-0.29429165 -0.3219344 -0.13098492 0.07058446 -0.49309778 0.074502565 -0.42398378 -0.27091876
0.010949572 -0.15583748 0.028276239 -0.037473068 -0.46849182 -0.7279883 -0.6292112 0.19525304
-0.29650584 -0.12067791 -0.20440987 -0.34651437 0.040743195 -0.30667296 -0.5080073 -0.22104876
-0.022657776 -0.77944994 -0.08656011 -0.20900255 -0.1382121 -0.64673316 0.049845506 -0.438622
0.08548355 0.21347515 -0.3502584 -0.26581046 -0.24434592 0.06323196 -0.0048154513 -1.1007681
-0.04525306 0.054446142 -0.03935134 0.03138013 -0.30382207 -0.25416327 -0.056935664 -1.4858292
0.09555398 0.16360319 0.05529814 -0.16249157 -0.027774977 0.079045735 0.15388486 -0.4072966
-0.7301642 0.14647987 -0.15781489 -0.26587063 -0.10999734 -0.003535134 0.067284696 0.061591983
-0.3071837 -0.19719443 -0.08508519 -0.29689693 0.09136025 -0.05725265 0.099655956 -0.08740694
0.108175226 -0.06448191 -0.092806 -0.10742813 -0.10609352 0.18913145 -0.273267 -0.045541935
-0.19420965 0.021073123 -0.52072054 0.07486003 -0.5521876 -0.26307422 -0.16617775 -0.32980654
-0.41923857 -0.37842005 0.12100209 -0.19935292 -0.36303145 -0.44475526 -0.12961549 -0.48455906
-0.018907411 -0.57545435 0.039511297 -0.24994908 -0.0072286 -0.19620776 -0.05056039 -0.51682043
0.07780518 0.11191556 0.052987102 -0.041480932 0.090573885 0.07979374 -0.0768407 -1.1555269
-0.88133746 -0.29099685 -0.023765845 -0.09628017 0.016882807 0.015471826 -0.26678026 -0.30128464
-0.4227788 0.116611265 -0.030902911 0.009428543 -0.13546297 0.27110648 -0.5376521 0.009123842
-0.24285237 -0.15556267 0.18014282 -0.3659673 0.06094327 0.04252967 -0.30249554 -0.3572323
-0.26868558 -0.26657122 0.0895257 -0.19704196 -0.1713732 -0.054916322 -0.59553206 -0.05909846
00000000: 24b1 90be 3a92 a1bd 9eb3 05be 49c5 2bba
00000010: e1c5 193d 59e6 b03d b346 9bbc b0fb 6fbd
00000020: dc05 bdbe 3072 d9be 8607 28bc bc75 a93d
00000030: f102 0abe ab6e ffbe 8bb9 b83d 3c9a bcbe
00000040: 22c0 0b3d e3ab 5dbe de20 81be 61ac 8abe
00000050: 9d57 94be 94ed 0abc 648c b03d 44ed 5fbe
00000060: e67d 8b3d 8631 8bbd d604 1b3d eba1 c9bd
00000070: 2cce 98bd 4750 8cbe a10f 9e3c eca0 92bf
00000080: 0ead 4abe dfe8 053e 7816 7fbe 4c53 49be
00000090: f10f 8dbe 1f79 53bd 4e9c e9bd fe8f 16bf
000000a0: 8460 eabe f1b4 5f3e 7e33 96bc ee19 8f3c
000000b0: 5295 43be 389c d53d 8086 e6bd b686 93be
000000c0: 7cf4 5b3e 770f cfbd e2f2 b8bb 51e4 12be
000000d0: f918 22be 4377 db3c c481 d23d 5070 a13b
000000e0: 139f 893d 22b8 cdbe 2a43 47bd 42f5 19be
000000f0: 353b 7e3d c223 4d3c cb9d 0ebf cc48 e93d
00000100: 9ef3 00be adab e73c a09b 4e3d 41ca 953e
00000110: 4a3e 59be 71aa a63d ff5b 89be 5b56 b8be
00000120: 9da3 e03d c924 78bf f21c 85bc ae20 aabe
00000130: 3115 33bf 3936 9abe 6e78 483c 39fe 4fbf
00000140: c29f ee3c 6fc0 1abf 8579 1dbf 25aa 3e3e
00000150: 03f6 64be d0b6 96bb 5f0a 283b 8416 57bf
00000160: 9b4e b7be 015c 9f3d 6da3 efbd a5d4 7ebd
00000170: 0b1e 043e 26f7 c7bc 16fb 8dbf a238 6fbf
00000180: 4778 5cbf a8b9 5cbf 481a bbbe 6558 9ebc
00000190: 869e d9bd dbe8 fcbd 3c51 7d3c a619 02bd
000001a0: 34e8 74bf 87c2 b1be a531 56be 41b1 d53d
000001b0: f697 98be 2e7f 39bc 7d96 2ebe 045b 9ebd
000001c0: 65ad 96be 96d4 a4be e920 06be 968e 903d
000001d0: 5077 fcbe cd94 983d 6714 d9be ddb5 8abe
000001e0: d565 333c dc93 1fbe 92a3 e73c 5c7d 19bd
000001f0: 29de efbe 715d 3abf fc13 21bf 6af0 473e
00000200: 9dcf 97be fb25 f7bd d250 51be 556a b1be
00000210: 56e2 263d 3d04 9dbe c40c 02bf 9b5a 62be
00000220: cd9c b9bc 088a 47bf 6d46 b1bd c404 56be
00000230: 7987 0dbe 4e90 25bf cd2a 4c3d 1093 e0be
00000240: 0012 af3d 3b99 5a3e 1255 b3be 4f18 88be
00000250: d135 7abe c27f 813d efca 9dbb f8e5 8cbf
00000260: 465b 39bd eb02 5f3d df2e 21bd 7488 003d
00000270: 918e 9bbe b021 82be 5f35 69bd a72f bebf
00000280: ceb1 c33d 9887 273e 4d80 623d 3164 26be
00000290: 5988 e3bc bbe2 a13d fe93 1d3e 2e89 d0be
000002a0: 0aec 3abf d2fe 153e 3a9a 21be 3220 88be
000002b0: 4946 e1bd b5ad 67bb 8fcc 893d e047 7c3d
000002c0: 2f47 9dbe 56ed 49be 2541 aebd e002 98be
000002d0: 151b bb3d c181 6abd 6c18 cc3d 6902 b3bd
000002e0: f98a dd3d 170f 84bd 1211 bebd 4803 dcbd
000002f0: 8f47 d9bd adab 413e a7e9 8bbe 2e8a 3abd
00000300: e5de 46be 8ba1 ac3c f14d 05bf 3750 993d
00000310: 2b5c 0dbf aab1 86be 802a 2abe 67dc a8be
00000320: 70a6 d6be 46c0 c1be f2cf f73d 2c23 4cbe
00000330: 42df b9be f6b6 e3be ecb9 04be 2018 f8be
00000340: b7e3 9abc fa50 13bf 99d6 213d a7f2 7fbe
00000350: e4dd ecbb b0ea 48be 6918 4fbd 584e 04bf
00000360: 5258 9f3d fc33 e53d 0109 593d e9e7 29bd
00000370: cd7e b93d e66a a33d a85e 9dbd 4ee8 93bf
00000380: 559f 61bf 8afd 94be 97b0 c2bc 8a2e c5bd
00000390: d04d 8a3c 8b7d 7d3c 6c97 88be fb41 9abe
000003a0: 7676 d8be e3d1 ee3d 1a28 fdbc 2d7a 1a3c
000003b0: ceb6 0abe 78ce 8a3e 91a3 09bf 2b7c 153c
000003c0: 4bae 78be d24b 1fbe 5c77 383e 1160 bbbe
000003d0: a69f 793d 9733 2e3d b2e0 9abe 27e7 b6be
000003e0: 2891 89be 067c 88be 4059 b73d 5ec5 49be
000003f0: 757c 2fbe f0ef 60bd ca74 18bf 3a11 72bd

fc4.bias f4 [10]
-0.07747038 -0.68072575 0.36507142 0.47055775 -0.30197328 0.5665071 0.2103315 0.23032528
0.014534828 -0.9108218
00000000: caa8 9ebd 0b44 2ebf a4ea ba3e f2ec f03e
00000010: 3e9c 9abe 9c06 113f 2461 573e 64da 6b3e
00000020: 7d23 6e3c 9e2b 69bf
