runs/Mar02_17-07-59_cssd901383-Run(lr=0.01, batch_size=256, patience=1)-valid/checkpoint.pt (torch_old, 972387 bytes, 8 tensors)

fc1.weight f4 [256, 784]
0	0x3cae57de	0.021282133
1	0xbb8429f6	-0.0040333224
2	0xbe0e36e2	-0.13888124
3	0xbd5d3149	-0.05400208
4	0xbcf63c41	-0.030058028
5	0xbc0bae80	-0.008525491
6	0x3d1220ad	0.035675693
7	0xbe71f81e	-0.23629805
8	0xbdf51f70	-0.11968887
9	0xbe00671e	-0.12539336
10	0xbd354619	-0.044256303
11	0xbd9780b7	-0.07397597
12	0xbdd1a7c1	-0.10237075
13	0xbcf68534	-0.030092813
14	0xbd7fec7a	-0.06248138
15	0xbd0899a2	-0.03334964
16	0xbe17df8e	-0.14831373
17	0xbdf9a8f5	-0.12190429
18	0xbe0a344b	-0.1349651
19	0xbe61dd7c	-0.22057146
20	0xbe189ec4	-0.14904314
21	0x3dd8f078	0.10592741
22	0x3e9a5a9f	0.30147263
23	0x3eddab51	0.43294767
24	0x3edeb8f0	0.4350047
25	0x3dd2f458	0.10300511
26	0x3e6e5d70	0.23277831
27	0xbcec7c36	-0.028867822
28	0x3ce060d6	0.027389925
29	0xbc69b527	-0.0142643815
30	0x3bdf9113	0.006822714
31	0xbdf810f4	-0.121126086
32	0xbda64e40	-0.08120394
33	0xbd4a4f20	-0.049391866
34	0xbe52b594	-0.20577079
35	0xbdeeb3e2	-0.11655404
36	0xbe04fd0f	-0.12987159
37	0xbdff65b4	-0.1247057
38	0xbe1c5c16	-0.15269503
39	0xbe001d54	-0.12511188
40	0xbe05635f	-0.13026188
41	0xbd84177a	-0.0644979
42	0xbd4b7af7	-0.049677815
43	0xbd5953b5	-0.053058345
44	0xbdfd9762	-0.123823896
45	0xbdb8f272	-0.09030618
46	0xbd06b61f	-0.032888528
47	0xbe03d540	-0.12874317
48	0xbdadaa38	-0.08479732
49	0x3e26903a	0.16265956
50	0x3ec3f8cb	0.3827575
51	0x3e7a86f5	0.24465545
52	0x3e8ae4bd	0.27127638
53	0x3d34aa88	0.044107944
54	0x3e17e948	0.14835083
55	0xbcfa1596	-0.030527871
56	0x3a82916a	0.000996155
57	0xbc44634e	-0.011986567
58	0x3b998a23	0.0046856566
59	0xbe00ec25	-0.12590082
60	0xbd6bf618	-0.05760774
61	0xbe6f4573	-0.23366337
62	0xbe31740f	-0.17329429
63	0xbde3da6c	-0.11125645
64	0xbe468096	-0.19384989
65	0xbe4dd17b	-0.20099442
66	0xbe416940	-0.18887806
67	0xbe04f516	-0.12984118
68	0xbe0f1c65	-0.13975675
69	0xbcd5274c	-0.026019715
70	0xbd1461c3	-0.036226045
71	0xbe3c46ad	-0.18386336
72	0xbe24ad96	-0.16081843
73	0xbdcd21b1	-0.10016192
74	0xbe15be65	-0.14623411
75	0xbe1fa4e7	-0.15590249
76	0xbca9d174	-0.020729758
77	0x3d5f24a9	0.05447832
78	0x3e029efd	0.12755962
79	0x3d35d9a0	0.044396996
80	0xbd7c24ac	-0.06155841
81	0xbe11826a	-0.14209905
82	0x3e4c0f06	0.19927606
83	0x3ccb6641	0.024829032
84	0x3c9137a8	0.017726734
85	0xbd085f67	-0.033294108
86	0x3cc8a6cc	0.024493597
87	0xbce3f0a4	-0.027824707
88	0xbe6d48b3	-0.23172264
89	0xbe3df883	-0.18551831
90	0xbdd43deb	-0.103633724
91	0xbe2934a4	-0.16523987
92	0xbe83f5a3	-0.25773343
93	0xbd8fe482	-0.07026006
94	0xbdab18cf	-0.08354341
95	0xbd06b0a5	-0.032883305
96	0xbdbc2ed6	-0.09188621
97	0xbe0401b6	-0.12891278
98	0xbe23a2bf	-0.15980051
99	0xbdf42c06	-0.11922459
100	0xbe08abf0	-0.13346839
101	0xbd840aee	-0.06447397
102	0xbd949eb1	-0.072568305
103	0xbd54a8cc	-0.05191879
104	0x3b5b8464	0.003349566
105	0x3dc97080	0.09835911
106	0x3e531e27	0.20616971
107	0x3eb99ec2	0.36253935
108	0x3dd7ed9e	0.10543369
109	0xbe2848fc	-0.16434091
110	0x3db943fd	0.09046171
111	0x3ea8594e	0.32880634
112	0x3c6bc13e	0.014389334
113	0x3d9574a7	0.0729764
114	0x3cd4fc52	0.025999222
115	0xbde85b3b	-0.11345526
116	0xbe1fe6cd	-0.15615387
117	0xbe765888	-0.2405721
118	0xbe0a6ea7	-0.13518773
119	0xbe48b58a	-0.19600502
120	0xbe65f177	-0.22455393
121	0xbe310c9c	-0.17289966
122	0xbdb2ac41	-0.08724261
123	0xbdf3164e	-0.11869489
124	0xbe094a92	-0.13407353
125	0xbdc69ab1	-0.09697474
126	0xbe177128	-0.1478926
127	0xbdf36b1b	-0.11885663
128	0xbdc83219	-0.0977518
129	0xbd032d31	-0.03202552
130	0xbc0c8de9	-0.008578756
131	0xbd2dfc88	-0.04247716
132	0x3b2e441d	0.0026590892
133	0x3dcabd7a	0.09899421
134	0x3def9429	0.11698181
135	0x3e8a288c	0.2698406
136	0x3e40e979	0.18839063
137	0x3d50165f	0.050802585
138	0x3e30c6d8	0.17263353
139	0x3e1cd39c	0.15315098
140	0xbd79cf8a	-0.06098894
141	0xbd4f81da	-0.050660945
142	0xbd4567ba	-0.048194624
143	0xbe208001	-0.1567383
144	0xbe358b7c	-0.1772899
145	0xbe79c784	-0.24392515
146	0xbe539986	-0.20664033
147	0xbe1b4b24	-0.15165383
148	0xbe57a9a6	-0.2106081
149	0xbe4b683f	-0.19863985
150	0xbdc9c959	-0.09852857
151	0xbdaa5f54	-0.08318964
152	0xbde04a6f	-0.10951697
153	0xbd4190cd	-0.047257233
154	0xbdc65c4e	-0.096855745
155	0xbb133abb	-0.0022465426
156	0xbdd861c3	-0.105655216
157	0xbdc3c64a	-0.09559305
158	0xbd527093	-0.05137689
159	0xbd9999f5	-0.07500068
160	0xbd4df539	-0.05028269
161	0x3d2f6fb2	0.04283113
162	0x3d2dfe16	0.042478643
163	0x3dba34d9	0.09092111
164	0x3e2d5c08	0.16929638
165	0x3d84270e	0.064527616
166	0x3c8e3ebe	0.017363902
167	0x3e3efc83	0.18651013
168	0x3d155bac	0.03646438
169	0x3c12c3fa	0.008957857
170	0xbda2fe53	-0.07958665
171	0xbe1aade8	-0.15105402
172	0xbdf6b10f	-0.1204549
173	0xbe27e7f4	-0.16397077
174	0xbe4527cd	-0.19253464
175	0xbe5a6003	-0.21325688
176	0xbe5de3d3	-0.2166894
177	0xbdd94690	-0.10609162
178	0xbe343c86	-0.17601213
179	0xbe28b43a	-0.16475001
180	0xbe026a59	-0.12735881
181	0xbd85d00e	-0.06533824
182	0xbd9d28cd	-0.07673798
183	0xbde7c8a6	-0.113175675
184	0xbe38e5dc	-0.18056434
185	0xbe1065d1	-0.1410134
186	0xbc5eab3f	-0.013590633
187	0x3ae1f8d9	0.00172403
188	0xbd3258da	-0.043541767
189	0xbd8cd3ce	-0.06876336
190	0x3bc359ad	0.005961618
191	0x3d94797d	0.072497346
192	0x3d91b5a8	0.07114726
193	0xbd1ffc07	-0.03905871
194	0x3d89d7e3	0.0673063
195	0x3e17b1c4	0.14813906
196	0x3d480872	0.04883618
197	0x3b9514f8	0.004549619
198	0xbdc307b6	-0.09522955
199	0xbdd682e1	-0.10474182
200	0xbe12081b	-0.14260904
201	0xbe49fdbb	-0.19725697
202	0xbe55216f	-0.20813535
203	0xbe70dd52	-0.23521927
204	0xbe905187	-0.281872
205	0xbe170dfe	-0.14751431
206	0xbe7e6b29	-0.24845566
207	0xbb80049d	-0.0039068
208	0xbdae41ca	-0.08508642
209	0xbd9bbb50	-0.076040864
210	0xbda74fb1	-0.08169497
211	0xbe3f677b	-0.18691818
212	0xbe8f684a	-0.28009254
213	0xbde50a52	-0.11183609
214	0x3b933a7f	0.0044930573
215	0x3c8ccbe2	0.017187063
216	0xbd228735	-0.039679725
217	0xbd4c5c69	-0.049892817
218	0xbd141d6c	-0.03616087
219	0x3d4fe657	0.05075678
220	0x3c9e3096	0.019310277
221	0xbdb37e57	-0.08764332
222	0xbd8ab192	-0.0677215
223	0x3e7f8e42	0.24956611
224	0xbb402df0	-0.0029324256
225	0xbd1ec92c	-0.03876607
226	0xbdf27251	-0.118382104
227	0xbe0d952e	-0.13826439
228	0xbe60d662	-0.2195678
229	0xbe59abcb	-0.2125694
230	0xbe320940	-0.17386341
231	0xbe41803c	-0.18896574
232	0xbe320004	-0.17382818
233	0xbe320569	-0.17384876
234	0xbe36f558	-0.17867029
235	0xbdc00d63	-0.09377553
236	0xbdb98e6a	-0.090603665
237	0xbdd3dc7a	-0.10344787
238	0xbdc18feb	-0.09451278
239	0xbe2ae481	-0.1668873
240	0xbe83d913	-0.25751552
241	0xbb9b4bdd	-0.004739268
242	0x3d292136	0.041291438
243	0x3d992480	0.07477665
244	0xbcc18589	-0.023623245
245	0xb9d81573	-0.0004121471
246	0x3cf3a4cd	0.02974167
247	0xbd2ee7ec	-0.042701647
248	0xbd8e9ffb	-0.069641076
249	0x3cbb0c38	0.022832975
250	0x3d763f98	0.06011924
251	0x3e8ef81e	0.27923673
252	0xbd731fab	-0.059356373
253	0xbda85485	-0.08219246
254	0xbe183528	-0.14864028
255	0xbe702df7	-0.23455034

fc1.bias f4 [256]
0	0x3e4bf16e	0.19916317
1	0xbc9058a8	-0.0176204
2	0xbe108c1a	-0.14115945
3	0xbe0c1e4b	-0.13683431
4	0xbda087ce	-0.07838403
5	0xbe21fd73	-0.1581934
6	0x3e84f139	0.25965288
7	0xbd00f8c8	-0.031487256
8	0xbcba3df3	-0.022734618
9	0xbdd08719	-0.10182018
10	0xbd84e0af	-0.064881675
11	0xbd87add0	-0.06624949
12	0x3d1cd845	0.03829219
13	0xbe16a511	-0.14711405
14	0xbd1bcbe0	-0.038036227
15	0xbd87c2ec	-0.06628975
16	0xbda05d2b	-0.078302704
17	0xbd0070ac	-0.031357452
18	0xbdc3bb45	-0.09557203
19	0xbdeb5a33	-0.114918135
20	0xbd658954	-0.05603917
21	0xbd745335	-0.059649665
22	0xbf33f682	-0.70298016
23	0xbda7bf27	-0.08190756
24	0xbd3019cd	-0.042993356
25	0x3ea8b7b2	0.32952648
26	0xbd6dd5d7	-0.05806526
27	0xbd752ab7	-0.05985519
28	0xbf14b772	-0.58092415
29	0xbee71ff0	-0.45141554
30	0xbd302935	-0.043008048
31	0xbdedf091	-0.1161815
32	0xbdc7644f	-0.09735929
33	0x3eeb1d90	0.45920992
34	0xbdc044b7	-0.09388106
35	0xbd8b4e23	-0.06802013
36	0xbdab0a01	-0.083515175
37	0x3d504163	0.050843608
38	0xbde835ad	-0.11338363
39	0xbe0baa36	-0.13639149
40	0x3f093fb2	0.53612816
41	0xbe522e2d	-0.20525427
42	0xbd7b9f69	-0.061431322
43	0xbe276f2f	-0.16351007
44	0xbe51ad7e	-0.20476338
45	0x3f7474e2	0.9549085
46	0xbcba5a0a	-0.022748012
47	0xbd0e77ef	-0.034782346
48	0x3d6fae1f	0.058515664
49	0xbf75cff4	-0.96020436
50	0x3e06abe9	0.13151516
51	0x3c3be397	0.011467836
52	0xbd7cfbd7	-0.06176361
53	0xbf09e40b	-0.5386359
54	0xbd03ebbc	-0.032207236
55	0xbd7a8c81	-0.06116915
56	0xbe2daf12	-0.16961315
57	0x3e8e009a	0.27734834
58	0xbd28e8d4	-0.041237667
59	0xbd598b89	-0.053111587
60	0xbe2f1931	-0.17099454
61	0x3f08fb12	0.535081
62	0x3e9aa6e7	0.3020546
63	0xbdb7a1c5	-0.08966402
64	0xbd21e932	-0.039529033
65	0xbdc2af59	-0.09506101
66	0xbda1fc0b	-0.079094015
67	0xbd45fc06	-0.04833605
68	0xbdf4cced	-0.11953149
69	0x3ee42862	0.4456206
70	0xbcb37670	-0.021907061
71	0xbe840d6d	-0.25791493
72	0x3d89ca60	0.06728053
73	0x3e4de48b	0.20106713
74	0xbdc91b92	-0.09819712
75	0xbd9eb24d	-0.07748852
76	0xbdb4108b	-0.08792218
77	0xbd19e88b	-0.037575286
78	0x3f177ead	0.59177667
79	0xbdaabd13	-0.08336844
80	0x3eaa5f40	0.33275795
81	0xbdbbdfee	-0.091735706
82	0xbd8f8d12	-0.07009329
83	0xbd457484	-0.04820682
84	0xbe8d7ed3	-0.27635822
85	0x3c87c649	0.016574042
86	0xbd16c0f8	-0.036805123
87	0xbde21a67	-0.11040192
88	0xbf92890b	-1.1448072
89	0xbd3e2f07	-0.046431568
90	0x3e1644e7	0.14674722
91	0x3f36def5	0.71433955
92	0xbd8671fa	-0.06564708
93	0xbfc713de	-1.5552938
94	0xbd8a812b	-0.06762918
95	0x3f619e4a	0.88132155
96	0x3f23e382	0.64019024
97	0xbdb5fe6e	-0.08886419
98	0xbd7ffdc3	-0.062497865
99	0xbc9a3850	-0.01882568
100	0xbd380f34	-0.044936374
101	0xbc8a311f	-0.016869126
102	0xbd638463	-0.055546176
103	0x3e71f777	0.23629557
104	0x3e046826	0.12930354
105	0x3f4bb461	0.7957211
106	0x3c17e404	0.009270672
107	0xbd5cd456	-0.053913437
108	0xbd9ff359	-0.07810087
109	0x3cab8b75	0.020940522
110	0x3ef4b758	0.4779613
111	0xbdaf869d	-0.08570597
112	0xbdda7ee7	-0.10668736
113	0xbe8e87a9	-0.27837875
114	0xbdf8edd8	-0.1215474
115	0xbd8d3fb2	-0.068969145
116	0xbe38b3dc	-0.18037361
117	0xbec92e4f	-0.39293143
118	0xbd6b6b84	-0.05747558
119	0xbdf44dc8	-0.11928898
120	0xbd57e009	-0.05270389
121	0x3d1913fe	0.03737258
122	0xbf7eabde	-0.99481
123	0x3f8a7e38	1.0819769
124	0xbe5d303b	-0.2160043
125	0xbd952171	-0.07281769
126	0xbddad83b	-0.10685774
127	0x3eaf1cfc	0.342018
128	0xbdbf40e8	-0.09338552
129	0xbd8fa2d0	-0.07013476
130	0xbefb3459	-0.49063376
131	0x3f0217fa	0.50817835
132	0xbce61062	-0.028083984
133	0xbeb9cfc0	-0.36291313
134	0xbdcc12f9	-0.09964556
135	0xbd8ab533	-0.06772842
136	0xbdc6f259	-0.09714193
137	0xbcdc5698	-0.02689676
138	0xbf8c528b	-1.096269
139	0xbf5d520d	-0.86453325
140	0x3dac50c4	0.08413842
141	0xbe3f06a6	-0.1865488
142	0xbdb37bdb	-0.08763858
143	0x3f32841d	0.6973284
144	0x3e3e3ada	0.18577138
145	0xbe1b6be6	-0.15177879
146	0xbd4a920a	-0.04945568
147	0xbd9db9f5	-0.07701484
148	0xbd9c448f	-0.07630264
149	0xbda7ce86	-0.08193688
150	0xbdb65295	-0.0890247
151	0xbd030fdd	-0.03199755
152	0xbd8dca31	-0.069233306
153	0xbf24476a	-0.6417147
154	0x3e70a835	0.23501666
155	0xbe138b0a	-0.14408508
156	0x3ee30ed2	0.44347245
157	0xbd16a5c7	-0.03677919
158	0xbec8cb7b	-0.39217743
159	0x3e8dffa9	0.27734116
160	0xbe51fbf8	-0.20506275
161	0xbda28a60	-0.07936549
162	0x3f2adec6	0.66746175
163	0xbda79d88	-0.081843436
164	0x3de29e40	0.1106534
165	0xbd1a87f6	-0.03772732
166	0xbd91e6ce	-0.071241006
167	0x3eeb6bcb	0.45980677
168	0xbdbadbf2	-0.091239825
169	0x3dbf04ed	0.093271114
170	0xbf3d889a	-0.7403656
171	0x3fa553e7	1.291623
172	0xbee60de9	-0.44932488
173	0xbd9f89a7	-0.07789927
174	0x3f25dcc3	0.6478998
175	0xbdabd05f	-0.08389353
176	0xbd0a45da	-0.033758022
177	0x3f0575c5	0.5213283
178	0xbf2c2828	-0.67248774
179	0xbdd15591	-0.102213986
180	0x3c5c9482	0.013463141
181	0x3e85cc80	0.26132584
182	0x3ea05213	0.31312618
183	0x3f073662	0.52817357
184	0xbe1e94dc	-0.15486473
185	0x3f080c2f	0.5314359
186	0xbd79f987	-0.061028983
187	0xbf918890	-1.13698
188	0x3eecc252	0.46242005
189	0xbe744327	-0.23853742
190	0x3e8126a6	0.252248
191	0xbe1e5021	-0.15460254
192	0xbdc4935a	-0.095984176
193	0x3ebb1313	0.3653799
194	0xbd7c4037	-0.061584678
195	0x3f5ca0fc	0.8618314
196	0xbdb504ad	-0.088387825
197	0xbe2e98f9	-0.17050542
198	0xbdc66ca9	-0.09688694
199	0x3e7126b9	0.23549928
200	0xbdde3c81	-0.10851384
201	0xbd9f4e1c	-0.0777857
202	0x3e829350	0.25503016
203	0xbc932615	-0.017962495
204	0xbdac2916	-0.08406274
205	0xbea6acc2	-0.3255368
206	0xbdc08041	-0.093994625
207	0xbdcde077	-0.10052579
208	0xbe2ee8ea	-0.17081037
209	0xbc920262	-0.017823402
210	0x3ed20a31	0.410234
211	0xbdb3b407	-0.08774572
212	0x3f15a7a9	0.58458954
213	0x3cbf7455	0.023370901
214	0x3f523e6a	0.82126486
215	0xbdba3153	-0.09091439
216	0x3d11cc39	0.035595153
217	0xbd98da0d	-0.07463465
218	0x3d5e3173	0.054246377
219	0x3f172915	0.5904706
220	0xbd2c9e32	-0.042143054
221	0xbcd95534	-0.026529886
222	0xbd7e96d6	-0.062155567
223	0xbe86012e	-0.26172775
224	0xbd9e2e61	-0.0772369
225	0xbdc04795	-0.09388653
226	0xbd7d2491	-0.06180245
227	0x3e4451ab	0.19171779
228	0xbdbd5078	-0.09243864
229	0xbc19996d	-0.009374958
230	0xbdffda21	-0.12492777
231	0xbd31d9e2	-0.04342068
232	0xbc36e7e7	-0.011163688
233	0x3e85074a	0.25982124
234	0xbf46d215	-0.7766431
235	0x3ec0b1e7	0.3763573
236	0xbd67d39c	-0.05659829
237	0xbd267bd1	-0.040645424
238	0xbd030e2c	-0.031995937
239	0xbd080096	-0.033203684
240	0xbdb9eb7e	-0.0907812
241	0x3f18cae1	0.5968457
242	0x3f577f89	0.8417898
243	0x3d279ec5	0.0409229
244	0xbdb846fb	-0.089979135
245	0x3e986898	0.297673
246	0x3f197d7f	0.59957117
247	0x3e6bcb20	0.23026705
248	0x3e3b55bd	0.18294425
249	0x3fc3c38f	1.5294055
250	0xbd64de95	-0.055876333
251	0xbd68bb01	-0.056818966
252	0x3f6ee464	0.93317246
253	0xbd686d22	-0.056744702
254	0xbf7f1a1b	-0.9964921
255	0xbd81f504	-0.06345561

fc2.weight f4 [128, 256]
0	0xbdbcf127	-0.09225684
1	0x3d44e84c	0.048073098
2	0x3d256cfb	0.040387135
3	0x3e1f8630	0.15578532
4	0x3d2e52c6	0.042559408
5	0x3dbb71c9	0.09152562
6	0xbb5f211e	-0.003404684
7	0xbd2e8da5	-0.04261555
8	0xbcc512e2	-0.024056856
9	0xbc127400	-0.008938789
10	0xbddaef22	-0.10690142
11	0xbd07131f	-0.03297722
12	0xbcb1387b	-0.021633377
13	0x3d031170	0.03199905
14	0xbca92e5a	-0.020651985
15	0xbafb875f	-0.0019190124
16	0x3db12cb8	0.086511075
17	0x3cd375c3	0.02581299
18	0x3b046dad	0.0020206973
19	0xbeac63d9	-0.33669928
20	0xbdc800fe	-0.09765814
21	0xbced30b6	-0.028953891
22	0xbb24258b	-0.0025046791
23	0x3cf0f47c	0.029413454
24	0x3c35a4f1	0.011086688
25	0xbcd5cd8f	-0.026098995
26	0x3cbd7d67	0.023131086
27	0x3cfc23d2	0.0307788
28	0xbdd3c0c5	-0.10339502
29	0x3d36e0dd	0.04464804
30	0x3b88e34d	0.004177487
31	0xbe34b215	-0.17646058
32	0x3d8f3c16	0.06993882
33	0xbcd1522a	-0.025551874
34	0x3d064248	0.032778054
35	0xbd0b8ab6	-0.034067832
36	0xbd850e33	-0.06496849
37	0x3dabb311	0.083837636
38	0x3d71d174	0.05903764
39	0x3cb0bdb0	0.021574825
40	0xbe12a232	-0.14319685
41	0x3b74ee3a	0.003737344
42	0x3deb640d	0.114936925
43	0x3d0ce143	0.034394514
44	0xbd3703dc	-0.044681415
45	0x3ddb93dc	0.10721561
46	0xbd3d06f6	-0.046149217
47	0x3deb100a	0.114776686
48	0x3d453086	0.04814198
49	0xbcd74dcf	-0.02628222
50	0xbd2d1ea1	-0.042265538
51	0xbd51dd34	-0.051236346
52	0xbcb8e446	-0.022569787
53	0xbd8b65b9	-0.068065114
54	0x3c4f60c0	0.012657344
55	0x3e0acfa6	0.13555774
56	0xbd0d9819	-0.03456888
57	0xbe269ae8	-0.1627003
58	0x3cab156f	0.020884244
59	0xbc9791bc	-0.018502109
60	0xbd6d1411	-0.057880465
61	0xbe5ad658	-0.21370828
62	0x3e28a073	0.16467457
63	0x3d4363a3	0.047702443
64	0x3dae6cbd	0.08516834
65	0x3d4b1602	0.049581535
66	0xbce2d4b0	-0.027689308
67	0xbbb3bacb	-0.005484914
68	0x3ddff07b	0.1093454
69	0xbdc10990	-0.09425652
70	0xbd1f8af9	-0.038950894
71	0x3d3a6eb2	0.045515724
72	0x3d494485	0.04913761
73	0xbeba7757	-0.36419174
74	0xbd25ee0e	-0.04051023
75	0x3da4dcc1	0.08049918
76	0xbd359d58	-0.044339508
77	0xbd47126e	-0.04860156
78	0xbe1bdce1	-0.15220977
79	0xbc03e29d	-0.008049634
80	0xbdf657b5	-0.120284475
81	0x3dae7336	0.085180685
82	0xbe0886bd	-0.13332649
83	0x3d9279cc	0.07152137
84	0x3d567536	0.052357875
85	0x3da727e8	0.081619084
86	0x3d18123d	0.03712677
87	0xbd63ea9c	-0.055643663
88	0xbef357db	-0.47527966
89	0x3d5926e9	0.053015623
90	0x3aa9c0f1	0.0012951178
91	0x3e928fdf	0.2862539
92	0x3d323685	0.043509025
93	0xbe4438ac	-0.19162244
94	0xbcac1348	-0.021005288
95	0xbe2c2bec	-0.1681363
96	0x3ee3d45d	0.44497958
97	0x3d2b7678	0.041861027
98	0xbe080d33	-0.13286285
99	0x3c568368	0.013092853
100	0x3d19b541	0.037526373
101	0x3dcb9eea	0.0994242
102	0xbdf14e9a	-0.1178257
103	0x3d421080	0.047379017
104	0x3c7963a5	0.015221511
105	0xbecfed73	-0.40610847
106	0x3c626bcb	0.013819645
107	0x3dd10023	0.10205104
108	0xbc63c5d8	-0.01390215
109	0xbd8a5b83	-0.06755736
110	0xbd885fb8	-0.06658882
111	0x3dd4f658	0.10398549
112	0x3d7bc06a	0.061462797
113	0xbc82a261	-0.015946569
114	0x3cdfe423	0.027330464
115	0xbda58c0b	-0.08083352
116	0xbd7668bf	-0.060158487
117	0x3dfbec01	0.123008735
118	0x3cd90362	0.02649087
119	0x3c93775d	0.018001253
120	0xbdc3fe88	-0.09570032
121	0x3e3598ab	0.1773402
122	0xbe962096	-0.29321736
123	0xbea47488	-0.32120156
124	0x3d9d8c2a	0.0769275
125	0xbceaca5f	-0.028660951
126	0x3dc19060	0.094513655
127	0xbe425eb0	-0.18981433
128	0x3dac7e46	0.08422522
129	0xbcc8f080	-0.024528742
130	0xbdfb6316	-0.122747585
131	0x3cf5d6be	0.030009624
132	0x3d33b6a0	0.043875337
133	0xbdbea5e6	-0.09308986
134	0xbb2d3bbd	-0.0026433312
135	0x3bbf78a7	0.0058432403
136	0xbddd3b3a	-0.10802312
137	0x3cc19795	0.02363185
138	0xbd91365e	-0.07090448
139	0xbdeb68ea	-0.1149462
140	0xbb10f358	-0.00221177
141	0xbd32cd74	-0.043652967
142	0x3ba117ad	0.0049161525
143	0xbd47d76e	-0.048789434
144	0xbcf45c55	-0.029829184
145	0xbc6d7bda	-0.014494861
146	0xbe98a926	-0.2981655
147	0xbc9e5044	-0.019325383
148	0xbefacc8f	-0.4898419
149	0x3d00c1cf	0.03143483
150	0x3d8b09aa	0.06788953
151	0x3d953ed5	0.07287375
152	0xbd7e5217	-0.062090006
153	0xbc262529	-0.010140696
154	0xbe41dcec	-0.18931931
155	0xbcbf0066	-0.02331562
156	0xbe47e6f4	-0.19521695
157	0xbd9e50f4	-0.07730284
158	0xbda50926	-0.080583856
159	0xbea76fb6	-0.32702416
160	0x3df2f6a7	0.118634515
161	0x3cd7a806	0.026325237
162	0xbe553ca6	-0.20823917
163	0x3d7e7f60	0.062133193
164	0xbc439a90	-0.011938706
165	0x3b8036c8	0.0039127804
166	0x3e8b01df	0.27149865
167	0xbcd13693	-0.025538718
168	0xbd8a12cf	-0.06741869
169	0xbd652dee	-0.055952005
170	0xbd03de5d	-0.032194484
171	0x3d7a8f2a	0.06117169
172	0xbd62a1e1	-0.05533016
173	0x3d942eb3	0.0723547
174	0x3e508828	0.2036444
175	0xbd0ecd1e	-0.034863584
176	0x3cccc656	0.024996918
177	0xbd5b7d47	-0.05358627
178	0xbdca7bff	-0.09886932
179	0x3db9f7ed	0.09080491
180	0xbdda924b	-0.106724344
181	0x3e486bbb	0.19572346
182	0x3d82fbd3	0.06395688
183	0xbe0c03e8	-0.13673365
184	0xbd4d215b	-0.05008064
185	0xbded09cc	-0.11574134
186	0xbbd1602c	-0.0063896384
187	0xbe887ced	-0.2665781
188	0x3cb41332	0.02198181
189	0x3cd87c9b	0.026426604
190	0x3df713d8	0.12064332
191	0xbd995e58	-0.07488698
192	0x3c927dde	0.017882284
193	0x3cd4b7d7	0.025966568
194	0xbda685a7	-0.08130961
195	0xbee57d45	-0.44822136
196	0x3d549717	0.051901903
197	0xbd8962c7	-0.067082934
198	0x3d51adea	0.051191248
199	0xbda37937	-0.07982104
200	0x3d8b3696	0.06797521
201	0xbdbd92fc	-0.09256551
202	0xbe6645c4	-0.22487551
203	0xbd5e1d40	-0.054227114
204	0x3d0f916f	0.035050806
205	0x3d1fec79	0.039043877
206	0x3d5a74c2	0.053334005
207	0xbb51cca2	-0.003201284
208	0xbd01034c	-0.031497285
209	0x3e5475d4	0.20748073
210	0xbda83d0a	-0.08214767
211	0x3d961e66	0.07330017
212	0x3f0994d4	0.5374272
213	0xbe204719	-0.15652122
214	0xbed8d85e	-0.42352575
215	0x3c99d836	0.018779855
216	0x3cb9437d	0.022615189
217	0x3c588afb	0.013216729
218	0xbc5021dc	-0.012703385
219	0xbdfd8abb	-0.12379976
220	0xbd8c90d5	-0.06863562
221	0x3d6419a1	0.055688504
222	0x3ca52e8e	0.0201638
223	0xbdd0722c	-0.101780266
224	0xbe06aa71	-0.13150956
225	0x3b829d62	0.0039860466
226	0x3da53e40	0.08068514
227	0x3d269eee	0.04067891
228	0x3d693b29	0.056941185
229	0x3c90ed4d	0.017691279
230	0x3d454ffc	0.048171982
231	0x3cf16194	0.029465474
232	0xbc90c8b3	-0.017673826
233	0xbb998fe4	-0.0046863426
234	0xbe6d50e3	-0.23175387
235	0xbd8ff386	-0.0702887
236	0xbd0ceb00	-0.0344038
237	0xbd335500	-0.043782234
238	0x3b41cadb	0.0029570374
239	0xbd82621d	-0.0636637
240	0x3cb1e79c	0.021716885
241	0x3d9a7a4e	0.07542859
242	0x3c720988	0.01477278
243	0xbe46b1c3	-0.19403748
244	0x3ce89b06	0.028394233
245	0xbd90e9f0	-0.0707587
246	0x3d626023	0.055267464
247	0x3e2e9ab4	0.17051202
248	0x3d76715c	0.0601667
249	0xbe05e5d2	-0.1307595
250	0x3d1b7254	0.03795083
251	0x3d02cd31	0.031933967
252	0xbe6723cc	-0.22572249
253	0xbcaea795	-0.021320144
254	0xbe221cdc	-0.15831321
255	0x3d0a7cb1	0.03381032

fc2.bias f4 [128]
0	0x3db00fa6	0.08596735
1	0xbec6aa60	-0.3880186
2	0x3e80383d	0.25042906
3	0xbe6bc9ea	-0.23026243
4	0x3f47b52d	0.7801083
5	0xbdf91878	-0.1216287
6	0xbe4b50df	-0.19855069
7	0xbdc79392	-0.09744944
8	0xbd29739b	-0.041370016
9	0xbd83d0bb	-0.064362966
10	0xbe460e7a	-0.1934146
11	0xbea5cf8f	-0.32384917
12	0x3f6d967d	0.9280775
13	0x3f57b6f2	0.8426353
14	0xbe4aa47e	-0.19789311
15	0x3f85e379	1.0460044
16	0x3f8d00db	1.1015886
17	0xbe8970c6	-0.26843852
18	0x3f45b15c	0.77223754
19	0xbf172aae	-0.590495
20	0xbe6191c1	-0.22028257
21	0x3ec09d5c	0.37620056
22	0x3d27ef15	0.04099949
23	0x3f660492	0.89850724
24	0x3f5184ab	0.8184306
25	0x3e7f3b51	0.24924971
26	0xbea02a51	-0.31282285
27	0xbe3c59c0	-0.18393612
28	0xbf20655f	-0.6265468
29	0x3c9bb4ca	0.019007105
30	0xbe66375d	-0.22482057
31	0xbca474ba	-0.02007519
32	0xbe7929d5	-0.24332364
33	0x3faae222	1.335026
34	0x3cd86b31	0.0264183
35	0x3f6ac7c5	0.91711074
36	0x3f3240de	0.6963023
37	0x3c8d892f	0.017277328
38	0x3f028b7f	0.50994104
39	0x3d3ad7b7	0.045615878
40	0x3e9aeac7	0.30257246
41	0xbf2fc13a	-0.68654215
42	0x3e168c18	0.14701879
43	0x3f536d1e	0.82588375
44	0x3e2a8d04	0.16655356
45	0xbe3a4696	-0.18190989
46	0xbf28c82e	-0.6593045
47	0xbe8432b5	-0.25819936
48	0xbf0b12f0	-0.5432577
49	0xbe465bf5	-0.19371016
50	0xbed51e64	-0.4162475
51	0xbe1b3c30	-0.15159678
52	0xbd3d942d	-0.04628389
53	0xbf48cfbc	-0.7844198
54	0xbecce9f1	-0.40022233
55	0xbdf993c4	-0.12186387
56	0xba1bee2a	-0.000594827
57	0xbef6f342	-0.48232466
58	0xbf422448	-0.7583661
59	0xbec8d95e	-0.39228338
60	0x3f1a19bb	0.6019551
61	0x3ef1d4d9	0.47232702
62	0x3f4eab2e	0.8072995
63	0x3ef2bfbe	0.47411913
64	0xbeb86504	-0.3601457
65	0x3f1e40fd	0.61817914
66	0xbe4c7c11	-0.19969203
67	0xbe8485b5	-0.2588326
68	0xbd9b7bbe	-0.07591961
69	0x3ee05866	0.43817443
70	0x3e922119	0.28540877
71	0xbeb89cf9	-0.3605726
72	0xbeed743f	-0.4637775
73	0x3f45449b	0.7705781
74	0x3f64958f	0.8929071
75	0x3d114ee8	0.03547564
76	0x3f36d3b3	0.7141678
77	0xbf58942b	-0.84601086
78	0xbe07c9e6	-0.13260612
79	0x3fa95942	1.3230364
80	0x3dc8f45c	0.09812233
81	0x3f306869	0.6890932
82	0x3e2b946c	0.16755837
83	0xbe3870b2	-0.1801174
84	0x3fbe0ab9	1.4847022
85	0xbeb6e88d	-0.35724297
86	0xbece0826	-0.40240592
87	0xbeaa2d47	-0.3323767
88	0xbe8d9049	-0.27649143
89	0xbed14701	-0.40874484
90	0xbea169ed	-0.31526127
91	0xbef047aa	-0.46929675
92	0xbf2b8451	-0.66998774
93	0x3e5019da	0.20322362
94	0x3d4f87f1	0.050666753
95	0xbe05aa0c	-0.13053149
96	0xbe9196e7	-0.28435442
97	0xbc420a43	-0.011843267
98	0xbf223c1b	-0.63372964
99	0x3eda4c71	0.42636445
100	0xbe892a67	-0.26790163
101	0xbe48c8a2	-0.19607785
102	0xbdbc3345	-0.091894664
103	0xbdc10427	-0.0942462
104	0xbe621cef	-0.2208135
105	0xbf0dc82c	-0.55383563
106	0x3dbec033	0.09314003
107	0xbf31d443	-0.6946451
108	0xbe87b275	-0.2650334
109	0xbdd3ae4f	-0.10335981
110	0xbeef6159	-0.46753958
111	0xbe840a61	-0.25789168
112	0x3f06d6f5	0.5267175
113	0x3e118487	0.14210711
114	0x3f1d336e	0.614066
115	0x3d465960	0.04842508
116	0xbf134824	-0.5753195
117	0xbea15683	-0.31511316
118	0x3dcbd1ac	0.09952101
119	0xbf327b09	-0.69718987
120	0xbf63537e	-0.88799274
121	0xbf0f7d89	-0.56050926
122	0xbf4d112a	-0.80104315
123	0xbe5293ef	-0.20564245
124	0x3e395874	0.18100148
125	0x3e828060	0.25488567
126	0xbf4659e9	-0.7748094
127	0xbdccc870	-0.09999168

fc3.weight f4 [64, 128]
0	0x3e79ac89	0.24382223
1	0x3d9125ff	0.07087325
2	0xbe503b72	-0.20335177
3	0x3eaade73	0.3337284
4	0xbe11fdcb	-0.1425697
5	0xbe80102f	-0.25012347
6	0xbe08d2af	-0.1336162
7	0x3c00eae1	0.0078684995
8	0x3f0fefd4	0.56225324
9	0x3d26c82e	0.04071825
10	0x3e2c8443	0.16847329
11	0xbee29362	-0.4425307
12	0x3e78e9e7	0.24307977
13	0xbeba3610	-0.3636937
14	0x3df4d987	0.119555525
15	0xbdfa2cc4	-0.122155696
16	0xbd4e6d33	-0.05039711
17	0x3d366bd4	0.044536427
18	0xbc84f63a	-0.016230691
19	0x3d9afa16	0.07567231
20	0x3d27c95f	0.040963527
21	0x3d03c0da	0.03216634
22	0xbdc78905	-0.09742931
23	0xbd819a02	-0.06328203
24	0xbe8cfd36	-0.27536935
25	0xbd309bc2	-0.043117292
26	0xbbabf9e7	-0.0052482965
27	0xbdb35b15	-0.08757607
28	0x3defb380	0.11704159
29	0x3e310ce7	0.17290078
30	0x3cfd3469	0.03090878
31	0x3ddbc738	0.10731357
32	0x3dd1b542	0.1023965
33	0xbeac91cd	-0.33704987
34	0x3c4d7498	0.012540005
35	0x3df26348	0.11835343
36	0xbd14d4cb	-0.036335748
37	0xbe950cf8	-0.29111457
38	0xbdbe08bd	-0.092790104
39	0xbe26f361	-0.16303779
40	0xbe0e9815	-0.13925202
41	0xbde7a5ff	-0.11310958
42	0xbeb68312	-0.35646874
43	0xbe1d331f	-0.15351532
44	0xbe895bcf	-0.26827857
45	0xbcda8d95	-0.02667884
46	0xbcf2ba04	-0.029629715
47	0x3c8aa0c0	0.016922355
48	0x3d33e8fe	0.04392337
49	0xbeb20b25	-0.34774128
50	0xbcf94cff	-0.030432222
51	0xbd45c0ec	-0.048279688
52	0x3c66694e	0.0140631925
53	0x3e39b4fa	0.18135443
54	0xbe23c26a	-0.15992132
55	0x3ddaa4f6	0.10675995
56	0x3dccf40f	0.10007488
57	0xbdcd2fb9	-0.10018868
58	0x3f256022	0.6459981
59	0xbdc21d00	-0.094781876
60	0xbe27acc4	-0.16374499
61	0xbdf8b41a	-0.12143727
62	0x3d59a241	0.053133253
63	0x3e83deab	0.2575582
64	0x3b7e1ee0	0.0038775727
65	0xbe7ef10d	-0.24896641
66	0xbe08409e	-0.133059
67	0xbd906f34	-0.0705246
68	0xbdeacd50	-0.114649415
69	0xbe1c08ae	-0.15237686
70	0x3e621aa0	0.22080469
71	0xbe0cd769	-0.13754047
72	0x3ec5a463	0.3860198
73	0xbca47a3f	-0.020077823
74	0xbbe6fea6	-0.0070493994
75	0x3d46661f	0.048437234
76	0xbd86ba87	-0.06578546
77	0x3eef4190	0.46729708
78	0x3c1dfff4	0.0096435435
79	0xbda2afae	-0.079436645
80	0xbe7cfc9a	-0.24705735
81	0xbde1cec9	-0.11025769
82	0x3d85354d	0.06504307
83	0xbccdbf2e	-0.025115576
84	0x3df1c8c8	0.11805874
85	0xbc29dbb1	-0.01036732
86	0x3d4a17b9	0.04933903
87	0x3e60ddca	0.21959606
88	0x3debac30	0.115074515
89	0x3c3ccd77	0.011523596
90	0x3d674a38	0.056467265
91	0xbe24a227	-0.16077481
92	0xbe2aafed	-0.16668673
93	0xbe06f1a1	-0.13178112
94	0x3e7a6b1b	0.2445492
95	0xbd8af47f	-0.06784915
96	0xbe4509e9	-0.19242062
97	0x3dd842f3	0.105596446
98	0x3d8c9f2a	0.06866296
99	0xbe5e4115	-0.21704514
100	0xbf1b7808	-0.6073003
101	0xbe966d07	-0.29380056
102	0xbbb46e5d	-0.0055063204
103	0xbe23dfe6	-0.16003379
104	0xbde362ca	-0.11102827
105	0x3e7a8c4f	0.24467586
106	0xbee31071	-0.4434848
107	0xbe1e2582	-0.15443996
108	0x3e0dc9f6	0.13846573
109	0xbd30913c	-0.043107256
110	0x3e95dbf3	0.2926937
111	0xbe6d4fd6	-0.23174986
112	0xbdaf1269	-0.08548433
113	0xbe31518b	-0.17316262
114	0x3c33355c	0.010938015
115	0x3cb44a49	0.022008078
116	0xbd7b6256	-0.061373077
117	0x3d38b340	0.04509282
118	0x3e01b901	0.1266823
119	0x3dff928c	0.124791235
120	0xbdd582ad	-0.10425315
121	0x3ecaf7df	0.39642236
122	0x3e9e45d3	0.30912647
123	0xbe5ecc5e	-0.21757647
124	0xbee8fad0	-0.45503855
125	0xbe3139b0	-0.17307162
126	0x3f166b02	0.5875703
127	0x3d1e51e8	0.03865233
128	0xbd2ebe3b	-0.042661887
129	0xbdcce32d	-0.10004268
130	0xbc53b1af	-0.012920781
131	0xbda49878	-0.080368936
132	0xbcf5a9ac	-0.029988132
133	0xbe7b1cae	-0.24522659
134	0x3d7e8c87	0.062145736
135	0x3d1707b6	0.036872588
136	0x3d6e83dd	0.058231223
137	0x3e2e601b	0.17028849
138	0x3d21d65a	0.039511062
139	0x3e9ea774	0.30987132
140	0xbe199595	-0.14998467
141	0xbe75ba49	-0.23996843
142	0xbcd6cb3d	-0.026219958
143	0xbe8eabd5	-0.27865472
144	0xbe68bbf2	-0.22727945
145	0x3d30c671	0.043158
146	0xbe4703a0	-0.19434977
147	0x3d7270b7	0.059189525
148	0x3abfec80	0.0014642626
149	0x3c647ec0	0.013946235
150	0xbd5d746f	-0.054066118
151	0xbd9916e5	-0.0747507
152	0xbdfa438d	-0.122199155
153	0xbe12cfc2	-0.14337066
154	0x3d8b3d1e	0.067987666
155	0xbd124b5b	-0.035716396
156	0x3c075a2a	0.008261243
157	0x3cd3f891	0.025875362
158	0xbe083284	-0.1330052
159	0xbe0b55e0	-0.13606977
160	0x3cd5da66	0.026105117
161	0xbd677e47	-0.05651691
162	0xbbe3320b	-0.006933456
163	0xbe0d9d2b	-0.13829486
164	0xbe22a0af	-0.15881608
165	0x3c010bf4	0.007876385
166	0xbd59a88b	-0.05313925
167	0xbdba1e4f	-0.09087812
168	0xbe1fe84d	-0.1561596
169	0xbdefde3e	-0.11712311
170	0xbeb2593a	-0.348337
171	0x3d8a9ca9	0.06768162
172	0xbdc7ebd5	-0.09761778
173	0x3aa9a800	0.0012943745
174	0x3d8492b3	0.06473293
175	0xbda04191	-0.07825006
176	0xbe236800	-0.15957642
177	0xbcc16508	-0.023607746
178	0x3dad7693	0.08469882
179	0xbcac01f3	-0.020997023
180	0x3dd35059	0.103180595
181	0x3eb76950	0.35822535
182	0xbe099c2a	-0.13438478
183	0xbd53f059	-0.051742885
184	0x3db8a355	0.09015528
185	0xbe3c00fd	-0.18359752
186	0x3e26dc55	0.16294987
187	0x3e44ec76	0.19230828
188	0xbea3576b	-0.31902632
189	0xbec9f2dd	-0.39443102
190	0x3d84a7aa	0.06477292
191	0xbe845e1b	-0.25853047
192	0x3d09c8ee	0.033638887
193	0x3e303a02	0.17209628
194	0x3ca290b4	0.01984439
195	0x3da93d4f	0.08263647
196	0x3cefc404	0.029268272
197	0xbd4a3789	-0.04936937
198	0xbddca62a	-0.10773881
199	0xbd8b205e	-0.06793283
200	0x3e43eadb	0.19132559
201	0xbe06c768	-0.13162005
202	0xbe6a45a9	-0.22878136
203	0xbe1fa147	-0.15588866
204	0xbe97f145	-0.29676262
205	0x3e7ae54f	0.24501537
206	0xbb2d5e02	-0.0026453738
207	0xbe5ad837	-0.21371542
208	0xbeecadc1	-0.46226314
209	0xbe938ce6	-0.28818434
210	0xbe3d5ba2	-0.18491986
211	0x3d3e81dc	0.046510562
212	0xbde90d69	-0.11379511
213	0xbe56faf0	-0.20994163
214	0xbe03e028	-0.12878478
215	0xbc39094b	-0.0112937195
216	0x3cf02b8a	0.029317636
217	0x3c2fbe32	0.010726498
218	0xbc23eeea	-0.010005692
219	0xbdb5fac4	-0.0888572
220	0x3d083bcd	0.033260155
221	0xbe3785c2	-0.17922118
222	0xbd0a3537	-0.033742156
223	0x3c237add	0.009978023
224	0x3e891ce2	0.26779848
225	0xbda9500b	-0.0826722
226	0x3d8193d9	0.06327028
227	0xbd0100f9	-0.03149507
228	0xbe49a447	-0.19691573
229	0xbe2e201c	-0.17004436
230	0x3df905be	0.12159298
231	0xbdef856b	-0.11695369
232	0x3cce5031	0.025184723
233	0xbdb11c9e	-0.086480364
234	0xbd16156f	-0.036641534
235	0xbec4579e	-0.38348097
236	0x3e359aa1	0.17734767
237	0x3e0e125e	0.13874194
238	0xbec0ec72	-0.37680393
239	0xbd565ec1	-0.052336458
240	0xbe0095d9	-0.12557162
241	0xbe4749f5	-0.19461806
242	0xbe554265	-0.20826109
243	0xbd6144cd	-0.054997254
244	0xbe53055d	-0.20607515
245	0x3dfe104b	0.124054514
246	0x3d9b1858	0.075730026
247	0x3e00042c	0.12501591
248	0xbd5948ed	-0.053048063
249	0xbd04315f	-0.032273646
250	0xbd3c131c	-0.04591666
251	0x3e18c717	0.14919697
252	0xbd90c85b	-0.07069465
253	0x3a2b11d1	0.0006525787
254	0x3e83e4d6	0.25760525
255	0xbdb1a2bd	-0.08673618

fc3.bias f4 [64]
0	0x3eeeac73	0.46615943
1	0xbeaeaaf4	-0.34114802
2	0x3f8faa54	1.1223855
3	0xbdb9d8b7	-0.09074538
4	0xbe3d6f98	-0.18499601
5	0xbf052394	-0.5200741
6	0x3ea5110c	0.32239568
7	0xbf024c68	-0.50897837
8	0xbf009780	-0.5023117
9	0x3f30d06e	0.6906804
10	0xbd3740ba	-0.044739462
11	0xbdf393e3	-0.118934415
12	0xbf13f36a	-0.57793295
13	0x3f0a2002	0.5395509
14	0x3ebd6b77	0.36996052
15	0x3f56199e	0.8363284
16	0xbf75c8a4	-0.9600928
17	0x3d532031	0.051544372
18	0x3eb70425	0.3574535
19	0xbebfac22	-0.37436014
20	0x3e0abf19	0.1354946
21	0x3e5ce47b	0.21571533
22	0x3f920b33	1.1409668
23	0x3f442a9f	0.76627535
24	0x3f8a3135	1.0796267
25	0xbe63ef2b	-0.22259204
26	0x3f10b0e1	0.56519896
27	0xbe1c4457	-0.15260445
28	0xbec11a8e	-0.37715572
29	0xbf0fe7bf	-0.5621299
30	0xbe6313aa	-0.2217547
31	0x3f1e90c1	0.61939627
32	0x3f1258e9	0.57166916
33	0x3ef83dcb	0.48484644
34	0x3f886743	1.0656513
35	0x3f0d9de7	0.55319065
36	0xbe53077f	-0.20608328
37	0x3e8edb21	0.27901557
38	0x3f550fa7	0.8322701
39	0xbec8b2d2	-0.3919893
40	0x3f56492d	0.8370541
41	0x3f9af591	1.2106191
42	0xbf12578d	-0.5716484
43	0x3e19062d	0.14943762
44	0xbe521ce6	-0.20518836
45	0xbf23deb0	-0.6401167
46	0xbe495f70	-0.19665313
47	0x3f8ad423	1.0845989
48	0x3ec11aae	0.37715667
49	0xbe627b71	-0.22117402
50	0xbed15d16	-0.4089133
51	0x3e58c98f	0.21170639
52	0xbd83458d	-0.0640975
53	0x3f875a06	1.0574348
54	0xbf043fac	-0.51659656
55	0xbe803459	-0.25039938
56	0xbebdfd52	-0.3710733
57	0xbe20a25c	-0.15686935
58	0xbeb775b1	-0.3583198
59	0x3f3480ac	0.7050884
60	0xbeb32396	-0.34988087
61	0xbe51f4c5	-0.20503528
62	0xbd4df069	-0.0502781
63	0x3ed57bf1	0.41696122

fc4.weight f4 [10, 64]
0	0xbe8c299a	-0.2737549
1	0xbd96e2f4	-0.073675066
2	0x3e4aab1f	0.1979184
3	0xbf1ac5e0	-0.60458183
4	0x3d349f29	0.0440971
5	0xbe2942f6	-0.1652945
6	0xbf69a3d9	-0.91265637
7	0xbf2bc9fa	-0.67105067
8	0x3b988126	0.0046540676
9	0xbdf6b7b2	-0.12046756
10	0x3b3baf56	0.0028638444
11	0xbebaca88	-0.36482644
12	0xbf0c52f9	-0.54814106
13	0xbdbe5e32	-0.0929531
14	0xbcd80f24	-0.026374407
15	0x3d215ad9	0.03939328
16	0x3e589da1	0.2115388
17	0x3a9206f2	0.0011140986
18	0xbf5e6ab7	-0.86881584
19	0xbe21792a	-0.15768877
20	0x3e43ca3b	0.19120114
21	0xbeee2dc7	-0.465193
22	0xbf3a23f6	-0.7271112
23	0xbe8f3288	-0.2796824
24	0x3d2b4d58	0.041821808
25	0xbea3a472	-0.319614
26	0xbe6071db	-0.21918432
27	0xbe9898de	-0.29804128
28	0x3d6e92ec	0.058245584
29	0xbedb6a19	-0.42854384
30	0xbdc47432	-0.09592475
31	0x3da2c912	0.07948507
32	0x3e45f4af	0.1933162
33	0xbeb15100	-0.3463211
34	0x3e36a49a	0.17836228
35	0x3e14620b	0.14490525
36	0x3ca93fb2	0.020660255
37	0xbf1c22a4	-0.6099036
38	0xbe824a01	-0.25447085
39	0xbe16c9b7	-0.14725386
40	0x3db2e7d9	0.08735628
41	0x3db40528	0.08790046
42	0x3e7cf903	0.24704365
43	0xbcaea896	-0.021320622
44	0xbe87b4f5	-0.26505247
45	0xbf04fa45	-0.5194438
46	0xbde8d659	-0.113690086
47	0x3ca59ca3	0.020216292
48	0x3da0535a	0.07828398
49	0xbe31245e	-0.17299029
50	0xbd45e951	-0.04831821
51	0xbeceee2d	-0.4041609
52	0xbe35975b	-0.17733519
53	0xbec759d7	-0.3893573
54	0x3d77b773	0.060477685
55	0x3d8f44f2	0.06995572
56	0x3eeb015a	0.4589947
57	0x3e02cb91	0.12772967
58	0x3bf32dab	0.0074212155
59	0xbdd33ac6	-0.103139445
60	0xbe37cdc2	-0.17949584
61	0xbeb79877	-0.3585851
62	0xbed7a2e9	-0.42116478
63	0xbe9c5d3a	-0.30539876
64	0xbe926eac	-0.2860006
65	0xbf23cf21	-0.6398793
66	0xbe46eb4e	-0.19425699
67	0xbc5e3f76	-0.013564935
68	0xbdc60909	-0.09669692
69	0xbe1966c4	-0.14980608
70	0xbea81c82	-0.3283425
71	0xbfb51a46	-1.4148643
72	0xbead6690	-0.3386731
73	0xbf0d7ccb	-0.55268544
74	0x3cdca58f	0.026934413
75	0xbe075a56	-0.13218054
76	0xbf89b1e1	-1.0757409
77	0xbea00985	-0.31257263
78	0xbe85ac1e	-0.26107877
79	0x3d77747b	0.06041382
80	0xbec37799	-0.38177183
81	0xbdc847e6	-0.097793385
82	0xbf46b1fb	-0.77615327
83	0xbd9dac05	-0.07698826
84	0xbe9453c2	-0.28970152
85	0xbf3b11cb	-0.73074025
86	0xbf36522d	-0.7121914
87	0xbee70a63	-0.45125112
88	0x3dcc51a4	0.09976509
89	0xbed03d99	-0.40671995
90	0xbe9515ff	-0.29118344
91	0xbe83d94f	-0.2575173
92	0xbfc3009d	-1.5234562
93	0x3e809fd1	0.2512193
94	0x3e17794c	0.14792365
95	0x3d18434c	0.037173554
96	0xbe9d8f08	-0.30773187
97	0x3e4b6b3a	0.19865122
98	0xbe1113b6	-0.14167675
99	0x3d57a55c	0.052647933
100	0xbe1f6af0	-0.15568137
101	0xbf152805	-0.5826419
102	0xbec9946f	-0.39371058
103	0x3da063e3	0.07831552
104	0xbeb69858	-0.35663104
105	0x3e14ea37	0.14542471
106	0xbe2fcdaa	-0.17168298
107	0xbcfdffb6	-0.031005722
108	0xbd3b4341	-0.045718435
109	0xbf27ac4d	-0.65497285
110	0xbe277a36	-0.16355214
111	0x3e047b8b	0.12937753
112	0xbe21e2e1	-0.15809204
113	0xbe534d7a	-0.20635024
114	0x3c15a9ad	0.009134692
115	0xbf1b1929	-0.60585266
116	0xbe130faf	-0.14361452
117	0xbe70b337	-0.23505865
118	0xbe903a7f	-0.2816963
119	0xbe0d49f5	-0.13797744
120	0xbd03c729	-0.032172356
121	0xbe1e0cf2	-0.15434626
122	0xbe9ba58b	-0.30399737
123	0x3db91ed9	0.09039087
124	0xbeae8f27	-0.34093592
125	0xbf2b066e	-0.66806686
126	0x3e26748f	0.16255401
127	0xbece4014	-0.40283263
128	0xbe1f9221	-0.15583088
129	0x3da104d3	0.07862248
130	0x3db26b5e	0.08711885
131	0xbec93f7e	-0.39306253
132	0xbdc0d017	-0.0941469
133	0x3d864566	0.065562055
134	0xbedd9109	-0.43274716
135	0xbcac5343	-0.021035796
136	0x3da3bc70	0.07994926
137	0x3dbabdda	0.091182426
138	0xbe06de09	-0.13170637
139	0x3e2116d8	0.1573137
140	0xbf9c7b93	-1.2225212
141	0xbf01672f	-0.5054807
142	0xbe8d810d	-0.2763752
143	0x3d835395	0.064124264
144	0xbdb50189	-0.088381834
145	0xbc02c1b3	-0.007980752
146	0xbf3e93b0	-0.74444103
147	0xbcf7dbec	-0.030256234
148	0x3e137545	0.14400204
149	0xbe1696c8	-0.14705956
150	0xbf1389ca	-0.57632124
151	0xbdfa21e2	-0.12213494
152	0xbe23259c	-0.15932316
153	0xbe3b94a6	-0.18318424
154	0x3e2ce721	0.16885044
155	0x3e7598c9	0.23984064
156	0xbdaab317	-0.0833494
157	0x3e43c768	0.19119036
158	0xbe33ffdf	-0.17578076
159	0x3df83a8e	0.121205434
160	0xbdfd6579	-0.1237287
161	0xbc333374	-0.01093756
162	0x3e6c73e8	0.2309109
163	0xbdbaae96	-0.09115331
164	0xbe668e8c	-0.22515315
165	0xbeda24e2	-0.42606264
166	0x3da05643	0.07828953
167	0xbd051b46	-0.032496713
168	0xbe1fa659	-0.155908
169	0xbeebae58	-0.4603145
170	0xbe011ce2	-0.12608674
171	0xbce53c36	-0.027982812
172	0x3de46f0c	0.11153993
173	0xbecd0cd6	-0.40048856
174	0xbdbfff31	-0.09374846
175	0x3e46da4c	0.19419211
176	0xbd6a0af5	-0.057139356
177	0xbd51d46d	-0.051227976
178	0xbd97cdbd	-0.07412288
179	0xbf0940ee	-0.536147
180	0xbe243c50	-0.16038632
181	0xbf24c13c	-0.6435735
182	0x3cce0bcf	0.025152115
183	0xbcce3d94	-0.025175847
184	0xbf09af3b	-0.53783005
185	0xbe9374a8	-0.2879994
186	0xbeaad1d1	-0.33363202
187	0x3cb8dd5e	0.022566494
188	0xbf044cb6	-0.5167955
189	0xbf0dcd9a	-0.5539185
190	0xbe33dd9f	-0.1756501
191	0x3e1cf6a7	0.15328465
192	0xbda22bf9	-0.07918543
193	0xbf26a040	-0.6508827
194	0x3e46a523	0.19398932
195	0xbd02a0e2	-0.03189171
196	0x3e0d26ee	0.13784382
197	0xbef4a10c	-0.4777912
198	0xbf137b9f	-0.57610506
199	0xbeacad14	-0.33725798
200	0xbe7cee58	-0.24700296
201	0xbcf425ab	-0.029803118
202	0xbd62ba16	-0.055353247
203	0xbecf1588	-0.40446115
204	0xbddc2b2c	-0.10750422
205	0xbe2b07f0	-0.16702247
206	0xbd934f88	-0.07192904
207	0x3e34552b	0.17610614
208	0xbe8d87f8	-0.27642798
209	0x3da2d225	0.07950238
210	0xbf87bcac	-1.0604453
211	0xbc0d9d92	-0.008643525
212	0xbe3f0831	-0.18655469
213	0xbf40dba6	-0.75335157
214	0xbf33c130	-0.70216656
215	0xbe6bf485	-0.23042496
216	0x3e4eccd0	0.20195317
217	0xbf27d40d	-0.6555794
218	0xbeabdcff	-0.33567044
219	0xbf1f0f46	-0.6213268
220	0xbd4b76d1	-0.04967386
221	0xbc5103f8	-0.012757294
222	0x3dd760c0	0.105165005
223	0xbec26da8	-0.37974286
224	0x3e0b758a	0.13619056
225	0xbde9b769	-0.11411936
226	0xbe7bb868	-0.24582064
227	0xbe313fa5	-0.17309435
228	0x3e205052	0.1565564
229	0xbede2dbe	-0.43394274
230	0xbe641d46	-0.22276792
231	0xbc1ef957	-0.009703002
232	0xbd85428a	-0.06506832
233	0x3db753ef	0.08951556
234	0xbe6fb671	-0.2340944
235	0xbd83a1dd	-0.06427357
236	0xbe989f39	-0.29808977
237	0xbf07bc74	-0.5302193
238	0xbe1fa171	-0.15588929
239	0x3dcd3a31	0.10020865
240	0x3d58a33d	0.05289005
241	0x3e1c9cb1	0.15294148
242	0xbe43214b	-0.19055669
243	0xbf71d198	-0.9446044
244	0x3c4bbe0b	0.0124354465
245	0xbe971ef6	-0.2951581
246	0xbe1580f9	-0.1459998
247	0xbd698d79	-0.057019684
248	0xbdaed2d4	-0.08536306
249	0x3e1e6f9d	0.15472265
250	0xbea7f565	-0.3280441
251	0x3e37b270	0.17939162
252	0xbeb1a359	-0.34694937
253	0xbeebbe8c	-0.46043813
254	0x3cd81da3	0.02638132
255	0x3e29a98c	0.16568583

fc4.bias f4 [10]
0	0x3c360f25	0.011112009
1	0xbf33d31c	-0.70244
2	0x3e2842bb	0.16431706
3	0x3ef8ad73	0.4856983
4	0xbe85f958	-0.26166797
5	0x3f1e3830	0.61804485
6	0x3e9112ae	0.28334564
7	0x3e9c38f2	0.30512196
8	0xbdfdae04	-0.123867065
9	0xbf278eaf	-0.6545209
