runs/Mar02_17-35-36_cssd901383-Run(lr=0.01, batch_size=256, patience=1)-valid/checkpoint.pt (torch_old, 972387 bytes, 8 tensors)

fc1.weight f4 [256, 784]
00000000: 53ee 10bd b4ed ac3d f434 d33d b72b 813c
00000010: b285 d63a bb40 493c 06a4 2e3d d8d9 813d
00000020: 9469 663d 8dc5 08bc c8a8 8cbd de80 bc3c
00000030: 9988 15bd bab5 bbbd 2e0b 16be 239c fabd
00000040: 5864 90bd 59be 70be 9a3d a1bd 3a1c 00be
00000050: 51a1 49bd 6886 99ba 0d11 88bd 2717 dbbc
00000060: a478 253d a887 e13d dd00 1d3d d41e 533d
00000070: b085 c8bc b450 bb3d d8ec 0b3d c686 833d
00000080: a7f4 2c3d e5a7 8a3d 2336 a73c 323c e3bb
00000090: b43a 53bd 045b 013d 4acf b03d 1de2 213d
000000a0: 04f8 a1bd f6d4 0dbe c6ef 43be d728 ffbd
000000b0: fa72 49be 5916 d7bd 1962 1abe 68da a2bd
000000c0: 7614 85bd 0cef 8dbd 9ccf 98bd 4531 803c
000000d0: 89b8 1f3e cda8 e13d 88ca d83d 8949 ad3d
000000e0: 407b ec3a 0cf3 5b3d 4114 6f3d a0e2 9d3c
000000f0: df0d 15bc fe9b 9ebd ca82 08be a22e 37bd
00000100: ab30 b4bc 71d4 e7bc 9e28 8d3d c2c0 eebd
00000110: 5921 39be dca3 edbd 4cca 21be d356 4cbe
00000120: 69aa b9be 4eb6 8bbe 4d27 88be a969 94be
00000130: b01c 9cbe a14a 64be 9eee bcbd b406 dabc
00000140: 9b6c f23d ed05 593e 1ad1 013e 5a30 553d
00000150: 376a b1bd 88a3 f5bc c808 d8bc 0770 cbba
00000160: 7a87 e6bd 6ba2 afbd b956 4ebd af81 11be
00000170: 5dc8 f9bc 47f7 afbc 854b 36bc 3ec7 0ebe
00000180: 9a8e 02be 050f e4bd 71a6 15be 5b57 aabe
00000190: f96b 81be b330 61be b1fc 87bd 6093 e8bd
000001a0: bfa5 24be 5732 6abe 72e0 a6be a9b5 fbbe
000001b0: ccac b8be 40b9 7cbe 2cef 5c3e 010d 3d3e
000001c0: f0b3 303d 7002 963d 5fec b23d 6eff 89b9
000001d0: 121d 20bc 3417 98bb 68e8 5b3d 570c 093d
000001e0: 1011 f33b b7be 9fbc a4d0 cabd aa89 b5bd
000001f0: cbe8 91bd 34d5 a0bd 56e7 edbd 3eb9 483e
00000200: 82c0 29be ce73 0ebf 83e9 cb3d 8159 64be
00000210: 1cfd 44be 4e7b 93be 4856 f1be aea1 46bf
00000220: 950c 12bf 8252 acbe a5d9 e5bb 947c 7b3e
00000230: a36c 273e 29f8 423e 2412 103e 5d59 943d
00000240: b117 1d3d 98ce 893c df89 da3c 83d7 24bc
00000250: 7627 0c3e acaa 3fbd 500b a9bd 8893 173d
00000260: 56aa 193d 5254 16be 8e9f fcbc 7f83 843e
00000270: d698 84be 349b 7cbc 6ab5 833d 183c 53bd
00000280: dc22 ccbd 971a dcbd 311d 2dbf 6e5e 2abf
00000290: 03aa 37bf 5a6a 4cbf e7d4 1ebd bb26 9abd
000002a0: fb44 793d accc aa3d e1d1 bc3d 6a8a 103d
000002b0: 16b6 8cbd 363e e93b 56ed ec3b 4a0f d8bd
000002c0: 83ab e9bc d2ff 09be 9aac 153e ecb3 f63d
000002d0: 0a05 5abd 97ba 7bbe e672 febe e055 eabe
000002e0: a72b 81be f384 963e 51b4 063f 9243 5b3e
000002f0: 7cee b4be f016 19bf 2fb0 41bf d221 86bf
00000300: 4d5a 51bf ad66 58bf 8ba1 5ebe 3abf 4ebe
00000310: 9eee 843d 3449 803d 055a 8f3d dce5 5d3d
00000320: bfa2 bf3b addc d63b 987a ddbc 38ab 83bd
00000330: f0d1 9d3d b123 04be fbbe 00be 3b5b ffbd
00000340: fff9 18be 86aa 3bbf a248 4fbf d94c 2dbf
00000350: dc44 7abe 0217 44bd bb11 333f a7b3 203f
00000360: 8e17 60ba a881 33bf 69c0 65bf 3423 61bf
00000370: 119b 81bf 36e2 41bf eb81 d0be 778b 44be
00000380: 0302 27be 7075 ffbd 884f 9dbd 3e7f ad3d
00000390: c3a3 23be 1d46 0d3e c7a8 cebd ea40 b4bd
000003a0: e467 4e3e 5b6f 39be ab28 abbe 695e f6be
000003b0: 7350 c3be e424 3cbf 09b2 88bf cbaa 4ebf
000003c0: 45c8 943d 9463 313d 96e3 083e f1c8 01be
000003d0: 29d0 efbd 8c47 f4be 0214 16bf e065 18bf
000003e0: ee33 40bf 5070 00bf 229e 07bf 3374 713d
000003f0: 3921 143e 5505 8abd acd2 d2bd ca6a b1bd
-0.035383534 0.08443776 0.103128344 0.015767915 0.0016366749 0.012283499 0.042636894 0.063403785
0.05625303 -0.008347881 -0.0686813 0.023010667 -0.036507223 -0.09165521 -0.14652702 -0.12236812
-0.07050389 -0.23510112 -0.07873078 -0.12510768 -0.04922611 -0.001171303 -0.06643877 -0.026744438
0.040398255 0.110122025 0.0383309 0.051543072 -0.02447781 0.09146252 0.03416142 0.0642219
0.042225506 0.067703046 0.020411557 -0.006934666 -0.051569656 0.03158094 0.08633287 0.03952228
-0.07908633 -0.1385077 -0.19134435 -0.124589615 -0.19672766 -0.10502309 -0.15076484 -0.07951814
-0.06498043 -0.0693036 -0.07461473 0.015648494 0.15597738 0.11018524 0.10585505 0.08461291
0.0018042102 0.053698584 0.058368925 0.019273102 -0.009097545 -0.07744597 -0.13331142 -0.044722207
-0.021995863 -0.028299542 0.06892513 -0.116578594 -0.18079127 -0.11603519 -0.15799826 -0.19954996
-0.36262825 -0.27287525 -0.26592484 -0.28986862 -0.30490637 -0.22294094 -0.092252 -0.026614524
0.11837121 0.21193667 0.12677422 0.052048065 -0.08662837 -0.029985204 -0.026371375 -0.0015521058
-0.11256309 -0.08575901 -0.050375674 -0.14209627 -0.030491048 -0.021480216 -0.011126404 -0.13943192
-0.1274971 -0.11135677 -0.14614274 -0.33269772 -0.2527769 -0.21991234 -0.06639994 -0.113562346
-0.16078852 -0.22870766 -0.32593113 -0.49162033 -0.36069334 -0.24680042 0.21575612 0.18461992
0.04314035 0.07324684 0.087364905 -0.00026320986 -0.009772556 -0.004641438 0.053688437 0.033459034
0.0074178055 -0.01950012 -0.09903076 -0.08864148 -0.0712448 -0.07853165 -0.116163895 0.19601914
-0.16577342 -0.55645454 0.09956648 -0.22299768 -0.19237179 -0.28805012 -0.4713614 -0.77590454
-0.5705045 -0.33656698 -0.0070144706 0.24559242 0.16350035 0.19039978 0.1406942 0.07243607
0.038352672 0.016822144 0.02667707 -0.010061148 0.13686928 -0.046793625 -0.08254111 0.03700593
0.03751596 -0.14680603 -0.0308378 0.25881574 -0.25897855 -0.015417863 0.06431086 -0.05157098
-0.099675864 -0.10747259 -0.6762267 -0.6655034 -0.7174379 -0.7984978 -0.03877726 -0.075269185
0.0608568 0.08339819 0.09219719 0.035288252 -0.06870668 0.007118012 0.007230441 -0.10549791
-0.028524166 -0.13476494 0.14616624 0.12046036 -0.053227462 -0.24582897 -0.49697036 -0.45768642
-0.25228617 0.29398307 0.5261889 0.21412495 -0.353382 -0.59800625 -0.7565946 -1.0479071
-0.81778413 -0.8453167 -0.21741311 -0.20190135 0.06490825 0.062639624 0.06999592 0.05417429
0.0058482583 0.0065570683 -0.027035996 -0.06429142 0.07706058 -0.1290424 -0.12572853 -0.12468573
-0.14939116 -0.73307073 -0.80970204 -0.67695385 -0.2444033 -0.047873504 0.6994893 0.6277413
-0.0008548432 -0.70119715 -0.8974672 -0.8794434 -1.0125448 -0.75735795 -0.4072412 -0.19193827
-0.16309361 -0.12473571 -0.07681185 0.08471535 -0.15980439 0.13796277 -0.100907855 -0.08801444
0.20156819 -0.18108885 -0.33429465 -0.48118904 -0.38147315 -0.7349379 -1.0679332 -0.8072936
0.07264761 0.043307856 0.13368067 -0.1267431 -0.11709625 -0.47710836 -0.5862428 -0.5953045
-0.7507924 -0.50171375 -0.52975667 0.058948707 0.14465798 -0.06739298 -0.10294089 -0.086629465

fc1.bias f4 [256]
00000000: 7de2 863e 8ba9 b33e c9b9 073e 9322 80bd
00000010: ea03 38be f20b a1be f09e 47be dc04 053f
00000020: 134c 7cbd 23cd 66bd 627c 1e3e 0d2d 43bd
00000030: ed6b aa3f eb81 1abd fde7 a73d 8bfa 5abd
00000040: 3fa7 33bd 5c60 84be d805 4dbd 6990 48bd
00000050: 5606 32bd 5a7f babe 76b2 19bd 64c5 a93e
00000060: ddde 15be bf64 aabe 7984 09be 919e 87bd
00000070: 2525 9abd 5e82 b2bd 7fb6 a7bd d6b1 25bc
00000080: 79e4 bebd 438b e3bd cd18 c03e 3ccd 95bd
00000090: d1c2 72bd 34ed 0ebe 4028 9ebd ddd3 5e3e
000000a0: 5555 98bd 0173 08be 7824 83bd fe6c 95bc
000000b0: 376e b9bd c459 a5be ea8a 663f 9b49 b3bd
000000c0: 55b9 88bd 8250 41bd 4f4e 8d3f c86c 6abd
000000d0: a17b 023e 551f 2abd b842 b5bd 731d 01bb
000000e0: 54b7 9e3e 0343 e8bd 1a2a 953d 9d26 cdbc
000000f0: 6bd0 fcbe cc74 9ebe b9cc 9abd 29f5 7dbd
00000100: 7ddc e7bd 7616 a5bd b78f eb3d 122f 8ebd
00000110: 8f76 e4be 3e5a b4bd c355 8fbd a698 74bd
00000120: e21a 60be 2927 2cbd 1874 5b3d 2d4a e73e
00000130: ea44 9bbd 13fb 0b3d 99ab 94be 60ce 13be
00000140: 4742 38bd b3dd 2ebe 8d79 bfbd e5a2 343e
00000150: eb89 adbd 229b a3bd 0a9d 9b3c 2b6c d3be
00000160: a1ce 96bd 9885 50bd 9f30 e0bd 1f5b 35bd
00000170: 8bad bcbd 7d1d eabe 741a 92be ccbb cb3e
00000180: 0fda 87be c143 40bd ab88 a1bd 1caa 5cbd
00000190: 1eed 0a3f 9160 12bf 0b87 393d ad71 173f
000001a0: fc23 953e d2e4 afbd 462b fa3c 3670 e1bd
000001b0: b688 f83c bbac efbe a686 b3bd 8785 6bbd
000001c0: 7f8b 363f 5c86 9abd d579 09bd fba1 933e
000001d0: 1cb7 603d 4f21 a1bd 50b9 f8bc db1c f4bc
000001e0: bd0c 29be a171 263f 1857 6b3d 7c4d 2d3e
000001f0: 194c 133d 489f 25bd 246f 74bd ceb3 9b3e
00000200: 1810 48bd 2c0b 01be a75f 1a3d cc34 c0bd
00000210: 0f82 8dbd 526a b7bd 4f9e 3bbe b2eb 2abd
00000220: 5f45 a0bd fd6e 02bd e326 f2bd 4df8 11bd
00000230: 96b6 0ebf 19ed 5bbf e154 413f 5751 d1bd
00000240: 9614 af3e 956a a2bd 3c1c 2bbe 5363 3b3f
00000250: af7c 023f 1f17 06bd 7663 91bd da48 a2bd
00000260: 4805 cdbe 017f f23e 2679 97bf 1214 80bd
00000270: cc73 e13e 08ce 97bd 224e 80bd 08fa 6ebc
00000280: f3ed c0bd 14c6 9d3e a92b 323d 490d 9f3e
00000290: 540f 83bd 4fba 3fbd e6e8 66be 5c29 143d
000002a0: e54d bcbe 4d4f 61bd c01c e3bc 047b acbd
000002b0: da0d 6ebd 4f5c d03d 5b74 903e cd69 34bf
000002c0: 35c9 2ebe b504 c03e 8b84 b23c bc15 2e3f
000002d0: 5ca2 9dbd 89a8 0e3f 2d6b 3ebd 2234 43be
000002e0: b250 58bd 7395 b9bc 8f51 2bbd c4ce 65bd
000002f0: bbbf babd a1a5 ec3e 11e3 8ebd 6ea9 d93e
00000300: 1fe4 d5bd f827 1a3f edbb b43c 6e37 acbd
00000310: d107 93bd e1f1 74be 58a2 2abe 055d cbbd
00000320: 681a 13be 93cd 7b3e 619c c5bd dcbf 4abf
00000330: 5c96 8d3e 5568 90bd d39c 17be 64c2 8ebd
00000340: bb11 11bf 7617 23bd f7ff 093f 14fd 5dbd
00000350: bc4f 7abd 6e58 783f f530 303f dead 733e
00000360: 5ac8 5fbf 39d8 fcbc 7e93 91bd 62f7 aabd
00000370: 89fb 4d3f 7d69 26be 2042 593f 3c6e 813e
00000380: bb5d 1fbc fef6 ca3e dc90 74bd a193 96bd
00000390: c9d0 d7be 620d 13bd ed08 f83e 5a9e 3cbd
000003a0: 28d8 ed3d 79b1 b6bd 1323 7bbd c3d3 54bd
000003b0: ff84 e3bc 8cec 803e 459f 8abe 6722 28be
000003c0: 4eff 03be 9b51 f93e 456c af3e 603f 7ebf
000003d0: c82e 2d3b dbe2 a7bd d8ea 97be 88e0 40bd
000003e0: ef33 9dbd 031c b5bd 2908 c0bd 5973 cebd
000003f0: 02d5 4f3f 9a6c adbc 4665 1a3e 1355 a6be
0.26344672 0.3509029 0.13254465 -0.062565945 -0.17970243 -0.31454426 -0.19494224 0.5196054
-0.061595988 -0.056347977 0.15477136 -0.047650386 1.3314186 -0.037721556 0.08198545 -0.053461593
-0.04386067 -0.25854766 -0.0500544 -0.048965845 -0.043463074 -0.36425287 -0.03752371 0.3315841
-0.14635797 -0.33279988 -0.1342944 -0.06622041 -0.07526616 -0.08716272 -0.08189105 -0.0101132
-0.093209215 -0.111105464 0.37518921 -0.07314536 -0.059267823 -0.13957673 -0.07722521 0.21760507
-0.07438151 -0.1332512 -0.0640344 -0.018240448 -0.09054225 -0.32295048 0.90055716 -0.087542735
-0.06675974 -0.04719592 1.1039523 -0.057232648 0.12742473 -0.041533787 -0.08850616 -0.001970139
0.30999243 -0.113409065 0.07283421 -0.025042826 -0.4937776 -0.30948484 -0.07558579 -0.06200138
-0.11321352 -0.08060925 0.11502021 -0.06942572 -0.44621703 -0.08806275 -0.069987796 -0.05971589
-0.21885255 -0.042029534 0.053577513 0.4517378 -0.07581504 0.03417499 -0.2903717 -0.14434195
-0.044985082 -0.17076759 -0.09349356 0.17640264 -0.084735714 -0.079885736 0.01899578 -0.41293463
-0.0736363 -0.050908655 -0.10946774 -0.044276353 -0.09212788 -0.45725623 -0.28535807 0.39791715
-0.26533553 -0.046939615 -0.078873955 -0.053873166 0.5426806 -0.571786 0.045294803 0.5915783
0.29129016 -0.08588566 0.030538213 -0.11007731 0.030338626 -0.4681147 -0.087659165 -0.05750039
0.71306604 -0.07545158 -0.033563454 0.2883452 0.054862127 -0.07867681 -0.030361801 -0.029798916
-0.16508766 0.65017134 0.057456106 0.16924089 0.035961244 -0.040435106 -0.059676304 0.30410618
-0.048843473 -0.12601918 0.037688877 -0.0938507 -0.06909572 -0.08955826 -0.18322109 -0.041728683
-0.078257315 -0.031844128 -0.11823823 -0.03563719 -0.55747354 -0.8590866 0.7552014 -0.102205925
0.34195393 -0.07930485 -0.1670999 0.7319843 0.509715 -0.032736894 -0.07099049 -0.079240516
-0.40043092 0.4736252 -1.1833847 -0.06253828 0.44033659 -0.07412344 -0.06264903 -0.014585979
-0.09420385 0.30815184 0.04349867 0.31064823 -0.06399408 -0.046808537 -0.22549781 0.036172256
-0.3677818 -0.055007268 -0.02772367 -0.08421901 -0.05811868 0.101738565 0.28213772 -0.7047394
-0.17068942 0.3750359 0.021791717 0.68001914 -0.07696983 0.55725914 -0.04648893 -0.19062856
-0.052811332 -0.02265427 -0.041825827 -0.05610539 -0.09118601 0.46220115 -0.06976903 0.42512077
-0.10443901 0.6021724 0.022062266 -0.0840901 -0.07179225 -0.23920394 -0.16663492 -0.099298514
-0.14365542 0.24590139 -0.096489675 -0.79199004 0.27653778 -0.0705115 -0.14805917 -0.06970671
-0.5666768 -0.039817296 0.53906196 -0.054196432 -0.061111197 0.97009933 0.688247 0.23796794
-0.8741509 -0.030864822 -0.0710821 -0.08347966 0.8046194 -0.16251178 0.84866524 0.25279415
-0.009726937 0.39641565 -0.05970846 -0.07352377 -0.42151478 -0.035901435 0.4844431 -0.046049453
0.11613494 -0.08920569 -0.061312746 -0.051959764 -0.027773378 0.2518047 -0.27074638 -0.16419373
-0.1289036 0.48695073 0.3426229 -0.9931545 0.002642559 -0.08197566 -0.2967136 -0.04708913
-0.07675921 -0.088432334 -0.093765564 -0.100805946 0.811844 -0.02116995 0.15077695 -0.3248678

fc2.weight f4 [128, 256]
00000000: 605f aebe 8f14 b13d eb7d b43e 3889 9cbc
00000010: 4a04 e9be 633c 973c 71fc c63d 846c a4bd
00000020: 8dd3 373c d0b2 42bd 3ff9 e0be 35ba 9dbd
00000030: 7a38 e73e 8c50 d4bd 4193 fabd 07aa 84bc
00000040: 00b3 9e3c feca a43d e204 e83c 94cd 6f3d
00000050: 2579 9dbb 34fb a3bd 884a 143d 9758 2c3d
00000060: a26d 0c3e dbb1 b3be 25fe 133d 7dbc 333d
00000070: 3eea 813b 77bc b63d 96dc fb3d d2fb 443c
00000080: 3c9b 8a3c 8b38 d23d 936f 7c3d d854 403d
00000090: 0aa0 52bb 3248 783d 7bd4 993c 7726 bbbd
000000a0: 472e 36bb a093 eebb 7f1f 013e b0e6 473c
000000b0: 7eaa 483d adc0 a9be f6cf b0bc d5fa 583d
000000c0: ab58 893d 609c 12bd c43a 473e f25d 73bb
000000d0: b3dd 353e 3620 c13d 0852 763d 159b 25be
000000e0: 5fa4 c13e 81f6 5bb7 bea9 81bc eee2 c53d
000000f0: 8b50 50bc e5bd a8bd f08f 713b 0fa6 d2bd
00000100: eaea b13c 636f 373d 8ff7 c53d 9c7b b5bc
00000110: b6fa f6bd f045 26bd 1328 133a 2b7e 9bba
00000120: 1112 513e dd6f d2bc bccc b6bd c1ce a23d
00000130: 5a6d 0e3d 7f98 193e 4c30 42be 9a8d f73d
00000140: 6551 b1be 067d 2e3c 27af d43d 526d 8bbe
00000150: 4790 d73c d965 e6bd 1e41 5c3e b4ce 0c3c
00000160: 32d4 3f3d b655 233c 6ae5 ea3d c627 35bd
00000170: 6519 c93c 3b43 eabe d06b 9dbd 8ba3 c53d
00000180: 0a43 db3c 7265 d13d ca46 d9bb 6d4c 303d
00000190: fcea 8abe 4abb 803d 15cb c9bd 899c 403f
000001a0: 13c0 b93d d773 58be b298 7dbd 9b9c ffbc
000001b0: d040 723d d8a6 01be d20a 893d d80f 823c
000001c0: c054 a33d 7b82 87bd 1964 52bd f078 f23e
000001d0: 3f36 c9bb cea7 803d a2cf bc3c 18d1 a23d
000001e0: e6f7 9e3d 01d2 35be 9e63 bbbd 46fe a33d
000001f0: 10b6 013e 4dd4 513c 7aff dfbd da18 b0bc
00000200: 2836 313b 0958 e9bc 38b3 a63d 7018 f5bb
00000210: 7139 94bd 52fa 023c eaf3 69be 68cc 0f3e
00000220: ce8a 573c 7440 cc3d 0a2d 9a3b 2aab 693d
00000230: 2feb b1be a354 6b3d 3805 793e 118b b13c
00000240: 4f08 32be d38f 8e3d 86e5 56bd fafa 03bf
00000250: 1a66 75be 9eea d9bd 4be4 8e3d 282f c1bd
00000260: 7571 713d eb6f cbbd 8f86 46be 10dc a23d
00000270: e06b bfbe 4dc2 3b3d 2053 1bbb 83a1 1b3c
00000280: 8180 4abc c041 dabc 5e9c dfbc 56e2 083e
00000290: 797f bbbc 1152 2c3c 1fd5 43be ce4c ba3d
000002a0: 642a 953d f0da 8f3d a600 31bd a7b6 183d
000002b0: cd1b 83bd 06aa a4bd 85d4 35bd 04dd c03c
000002c0: 77ce 92bc 0e9f 8dbe b141 96bd e1c0 023f
000002d0: 0731 e6b9 a4a2 533f 6a60 d93c e82b 6bbd
000002e0: dbb4 debd 552d 223c 072f e23d 3269 5b3c
000002f0: 8c01 e43d 8318 52bd 4a22 ef3d ce9f 323c
00000300: 754a fabb a07c f03d f3ff 3fbe 50b0 533d
00000310: 94f7 0b3d 9255 f13b 12aa 813d 02c6 133d
00000320: 5ff2 bbbd 3bb1 eebc 7d7c 913a 54cd a3bc
00000330: 37a1 9e3d 9c90 103c 7dc7 783d 11a1 ad3d
00000340: 4314 3dbd 10dc 74bd 9414 15bd 04cb f73c
00000350: e1e3 073d fc19 9abd 785e 92bd bc6e 04be
00000360: 10d7 893e c13c 48bd 6479 d93d 266d e73d
00000370: ec00 c83a 907f 243c cbe7 863e e9df 923e
00000380: a9a7 3ebd b2f9 803d 70de d63c f166 8b3d
00000390: 8b72 70bd 9a16 1d3d 416b ce3b 348c 7e3c
000003a0: 648c a93e cff7 a43d cc91 0d3a c03a 453d
000003b0: b170 d23c 707f 16bd a9f1 813c 4aa3 52bb
000003c0: b8bb f1bd 2172 173f f372 a8be 9e4f 9abd
000003d0: 851c 76bd f54b ea3d 29da 22be 19ff 8c3d
000003e0: 871a 5d3f 2781 033c b539 f9bd 1e07 acbd
000003f0: 66aa fcbd 7276 ce3b b809 c6be b64c 3cbd
-0.3405714 0.08646499 0.35252318 -0.0191084 -0.45511085 0.018461412 0.09716118 -0.0802851
0.011219871 -0.04753381 -0.4394016 -0.07701532 0.45160276 -0.103669256 -0.12235118 -0.016194357
0.019372463 0.0804653 0.02832264 0.058545664 -0.0048057013 -0.080068976 0.03620389 0.042076673
0.13713697 -0.3509663 0.036131043 0.04388093 0.0039646914 0.089226656 0.12297933 0.012022929
0.016919725 0.10264691 0.061629843 0.046955913 -0.0032138848 0.060615726 0.018778076 -0.09138196
-0.002779858 -0.007280782 0.12609671 0.012200996 0.04899072 -0.33154812 -0.021583539 0.052973587
0.06706365 -0.035793662 0.19456011 -0.0037134853 0.17760353 0.09429972 0.060136825 -0.1617244
0.37820718 -1.3110811e-05 -0.01582801 0.09662424 -0.012714515 -0.082393445 0.0036859475 -0.102855794
0.021718461 0.04478396 0.09666359 -0.022153668 -0.12059538 -0.04059404 0.00056135765 -0.0011863163
0.20417048 -0.025688106 -0.08925769 0.079495914 0.034772255 0.14999579 -0.18963736 0.12087555
-0.34632412 0.010649925 0.1038497 -0.27231842 0.026313914 -0.11249895 0.21509215 0.008594204
0.046833225 0.009969166 0.114695385 -0.044227384 0.024548242 -0.45754418 -0.07686579 0.09650334
0.026765365 0.10224427 -0.006630753 0.043041635 -0.27132404 0.062857226 -0.09853188 0.75238854
0.090698384 -0.2113794 -0.0619132 -0.031202605 0.05914384 -0.12661302 0.06691517 0.015876696
0.07975149 -0.06616684 -0.05136499 0.47357893 -0.0061405 0.06282006 0.023048226 0.07950038
0.077621266 -0.17755891 -0.0914986 0.08007483 0.12667108 0.012806964 -0.109374 -0.021496225
0.0027040336 -0.028484361 0.08139652 -0.00747972 -0.072375186 0.007994251 -0.22846952 0.14042819
0.013155652 0.09973231 0.004705076 0.057048 -0.34749743 0.057453763 0.24318397 0.021672757
-0.17385982 0.06961026 -0.052464984 -0.51554835 -0.2396473 -0.10640453 0.06977137 -0.094328225
0.05894609 -0.09933456 -0.19387268 0.0795213 -0.3738699 0.045839597 -0.002370067 0.009498957
-0.012359739 -0.02664268 -0.027296241 0.1336759 -0.022887932 0.010517613 -0.19124268 0.090966806
0.07283476 0.07024181 -0.04321351 0.037283566 -0.06401787 -0.08040242 -0.044392128 0.023542888
-0.017920716 -0.27660412 -0.073367484 0.5107556 -0.00043905547 0.82670045 0.026535232 -0.05741492
-0.10874339 0.009898503 0.11044126 0.01339178 0.111331075 -0.051292907 0.11676462 0.010902358
-0.0076382705 0.1174252 -0.1874998 0.051681817 0.034171656 0.007364937 0.063312665 0.036077507
-0.09177088 -0.029137244 0.0011099722 -0.019995369 0.07745593 0.00882354 0.06073712 0.084779866
-0.0461619 -0.05978018 -0.036396578 0.030248173 0.033176307 -0.075244874 -0.07146925 -0.12932867
0.26921892 -0.048886064 0.106188565 0.11300115 0.0015259064 0.010040179 0.2634872 0.28686455
-0.046546612 0.062976256 0.026229113 0.06806744 -0.058702987 0.038351633 0.0062994068 0.015536357
0.33114922 0.08055078 0.00054004486 0.04815173 0.025688501 -0.036742628 0.015862303 -0.0032140785
-0.11803383 0.5915852 -0.329002 -0.07534717 -0.060085792 0.11440269 -0.15903534 0.068845935
0.863686 0.008026398 -0.1216921 -0.08399795 -0.123371884 0.006300741 -0.3867929 -0.045971595

fc2.bias f4 [128]
00000000: 03d6 0bbf 7b72 05be e91f 38be 9fe8 fbbe
00000010: 6516 083f 6e2d f8be 18c9 8abe 0ddb f93d
00000020: e0f5 c93d acf9 8d3f 9138 323f bdda 72be
00000030: ea06 373f 7f01 96bc cae5 0c3e e97e 1b3f
00000040: 5676 833e f93e 1fbf 6fe7 47be 3dd1 62be
00000050: 5575 afbe a93d bbbe 147f 573e 1377 853f
00000060: 6d75 c7be 37b1 eabe 53ec d1bd 9197 30be
00000070: 40b8 b7bc 501a cabe 33f3 76be cd20 f2be
00000080: 1a1c 0bbe a28c 81bd effd d33e 8829 8c3f
00000090: 4c5a c0bd b92f aa3e 72f0 15bc 9c43 f03e
000000a0: 8604 fabe 7972 873f e1fe 433e 6818 7fbd
000000b0: cd89 5cbe c187 683e d752 cbbe 146b d2be
000000c0: 666e 5dbe 2205 86be 0d5c 67be c153 3b3f
000000d0: 9255 5a3d 9b11 04bf 26a6 dcbe 2925 513e
000000e0: 24f3 59bf e0c6 903f ca71 bdbd cd3b 0ebf
000000f0: 2799 04be 8d53 373f 44da d7bd db04 31bf
00000100: 0829 cd3d e90a 92bd 9235 b3bd 6c3d 4f3f
00000110: 9459 06be db18 313f be81 9c3e baed 29bf
00000120: 3e76 b3bd 8fe7 cabe af56 d53d 595c a9be
00000130: 9a73 1ebe 9c68 b4be 3528 aabd 2e66 ccbd
00000140: 6c9f f3be 3caf db3e c36b 30bf 9d6d 1ebf
00000150: cc99 d03e c9c1 523f 8f8c e3be bb7c 1cbe
00000160: 7f2b f0bd 4b42 67be a1bf b5be 079c 94bd
00000170: 245c 47be 0073 18be ffdc 94be 9697 c73e
00000180: cc6d af3e 292b 113f e5a0 8bbe 5fc9 f7be
00000190: 8067 3c3e 9965 19be 757c 123f 1e5c 293e
000001a0: 58a5 be3c 118a dbbe f5cb f5be 5cbe 4fbe
000001b0: 04f3 aebe b7f3 593f 8bd7 3bbe 9ffe a9be
000001c0: f6e4 cbbc a9da d0bd 0111 03bd 1beb 4abe
000001d0: 292e b13d 76c4 d2ba c982 4cbe 70a1 0ebe
000001e0: ae59 ef3e 46ad 0a3f c14e 1b3f e582 d4be
000001f0: 4653 313e 97f3 643f 8099 febb 8c6d 89be
-0.5462343 -0.13031952 -0.17980923 -0.49200913 0.5315917 -0.4847216 -0.27106547 0.12199984
0.0986135 1.1091819 0.69617563 -0.23716255 0.71494925 -0.01831126 0.13759533 0.60740525
0.2567622 -0.62205464 -0.19521879 -0.2215013 -0.34269205 -0.3657048 0.2104457 1.0426964
-0.38956776 -0.4583833 -0.102501534 -0.17245318 -0.022426724 -0.394732 -0.2411621 -0.4729065
-0.13584939 -0.06325652 0.41404673 1.0950174 -0.09392223 0.33239534 -0.009151565 0.46926582
-0.48831576 1.0581809 0.19140197 -0.062279135 -0.21536942 0.22708036 -0.3971164 -0.4109732
-0.21624145 -0.2617579 -0.22593708 0.73174673 0.053304262 -0.51589364 -0.4309551 0.20424332
-0.8513663 1.1310692 -0.09250219 -0.5556 -0.12949048 0.71611863 -0.10539678 -0.69148034
0.10017592 -0.07130987 -0.08750452 0.809531 -0.13120109 0.6917855 0.30567735 -0.66378367
-0.08762787 -0.3962979 0.10416924 -0.33078268 -0.15473786 -0.3523606 -0.0830845 -0.09980427
-0.47582567 0.4290713 -0.6891443 -0.61886007 0.40742338 0.8232694 -0.44443175 -0.15281956
-0.11727046 -0.22583883 -0.35497764 -0.07256322 -0.19468743 -0.14887619 -0.29074857 0.38982838
0.34263456 0.5670648 -0.2727119 -0.4839582 0.18398857 -0.14980163 0.57221156 0.16539046
0.023272201 -0.42878774 -0.4800717 -0.2028746 -0.3416978 0.85137504 -0.18343942 -0.33202073
-0.02488945 -0.10197956 -0.031998638 -0.19816248 0.086513825 -0.0016080278 -0.19971766 -0.13928771
0.46748108 0.54170644 0.60667044 -0.41506115 0.17316923 0.8943419 -0.0077697635 -0.2684139

fc3.weight f4 [64, 128]
00000000: 8927 cebd 72da 99be 42d2 cbbb 96d3 563e
00000010: f263 853d 65d7 ce3d 72da 0a3e 31b1 be3e
00000020: 3b50 eebd 9425 c4bd 5812 273e dca6 15bc
00000030: 8848 33bc 0ef3 ae3c 7405 78bd 5f49 2d3d
00000040: 1228 32be 4aff 1f3e 8d43 8b3e cec6 e93e
00000050: 14a5 4ebd 07f6 c53e d203 a5bd 7145 30be
00000060: 61e8 fe3d 0253 48bd 5402 823c 7f28 373f
00000070: 5c32 953d 21f3 fdbd 4d04 a43d a6a3 64bd
00000080: 085f 293c 8556 12be b5ad 2ebe f451 69bd
00000090: 0a5b 933d 18f4 5bbe 0b8c 45be 551f 1cbe
000000a0: 5319 233e 35c9 2bbe edaa 9ebd 7a4f a53d
000000b0: 659d 45bc b1e1 4e3e bfa1 d0bd b9ce 313e
000000c0: 38a7 b7bc 7485 b03d 4283 f63d b10d c7bd
000000d0: af99 0fbe 6e50 cfbd b669 8fbd c974 02be
000000e0: 1371 6dbc 13b0 aa3b 6aee df3c 7ebf 03be
000000f0: b308 873e 7bd7 f43d 3bc0 babc 41d6 073d
00000100: 7789 e1bd b2ca 5e3d b15f 95bb 593e 25be
00000110: 32f1 883e bb8d 67be 3aa1 e23d 9bf4 1e3c
00000120: a71b ba3d 7953 22be cf84 fd3d f536 8c3e
00000130: a92e 03be 6d57 233e 650e 233d 1eac af3d
00000140: d838 47be 1ecc a6bd 70a9 4bbd 8700 efbc
00000150: ab1a 93be 11ce 5ebc 5e0d abbd b898 e73d
00000160: 4705 873a 162a 813d 58c1 cebe 506f 8a3c
00000170: 8c97 8c3e 70e8 6c3d b519 143e d04b 42be
00000180: 922d 693c cc2b cfbd 455e 93be e38b 513c
00000190: 3be5 353e af29 2fbe fa7d 57be 9dc6 d03d
000001a0: eb83 1b3e f1ca 3f3e b60f 8bbd 7cf7 f4bd
000001b0: a859 e2bc 0cdd 373e fd3f 2b3e d589 de3e
000001c0: 7ca8 efbd 8e57 983b 8125 093e 3c25 1f3e
000001d0: 35e5 3cbe 5816 29be 29c1 5abd b65a ccbe
000001e0: bfee 0f3e 21c7 80be 41e3 9bbd d653 3c3d
000001f0: 72c3 383e f3c9 79bd ae50 15be 8fff babc
00000200: a942 4b3d 751d efbe 1965 6c3b 93ab 033e
00000210: 2df5 02be b603 5abe a62d 6cbd 7643 71be
00000220: 3c90 01be 4d90 4ebd fc02 14bb e844 1bbe
00000230: 40c2 223e bd6c 9ebd e007 97bd 3e3b a6bd
00000240: f64b 563e 51e0 0fbe 614f c93d afeb 95be
00000250: 0432 533e 297a 1c3c 0624 abbd b52d e2bd
00000260: cfc1 eebe 3d27 a4be 3c48 d73d b557 28bf
00000270: e2d4 193e 286e 8c3d 241e 383e 6e53 453e
00000280: 1d4c 483e 5647 ab3d 9e02 6c3e b700 66bd
00000290: caa1 9cbd b50b 8ebe 4ccb ac3d e06c 50be
000002a0: ea3f 7aba e3eb 073e e0e7 473e 911b f93c
000002b0: 6a7e 89bd cfd7 efbd 80c0 643d ea42 88be
000002c0: f972 06be 1f3f f33d 0e70 aebe a388 473e
000002d0: f965 d7bd 1d09 a23e 80a5 f2be db09 bd3c
000002e0: a0b8 253e 8634 713c 34f8 deb9 1209 94be
000002f0: 9054 343e 1608 dfbe 1794 9bbc 82da a7bd
00000300: 7ebf cf3c ad84 ed3d 6346 a2bd 676a 013c
00000310: 259a 2c3c 95e3 be3d bfee 2d3d 1fd8 8ebe
00000320: 22aa 043e d963 5e3e 6f4c 3bbe a64c 5fb9
00000330: 95aa 48bd f87b 72bb 1d11 b53d c539 b6bd
00000340: 3d81 dcbe 474e 07be 2dcc bbbc cb44 d8bd
00000350: 1077 ac3d 0f1b 8c3e 962a fabd 8f9d aabd
00000360: 955b 85be d9a0 2d3c d49f 7dbc 3654 eebd
00000370: c91b 51bd 1c19 f63d 9541 a8bd 5dc9 3f3b
00000380: 58c1 7fbe db19 863c 03e5 913e cb68 0ebd
00000390: bb01 21be c7c7 23be 3931 803e 5d18 c8bd
000003a0: a626 a0be 3d1b cebd 64d3 993a 1f41 9ebd
000003b0: 8d75 56be f4a0 3fbe 6334 cfbb 6e9d 25be
000003c0: 1a15 b13d cdab 6fbd 6fdf 38bd fd3a 893d
000003d0: fb9a 563e d46d a83c 3994 813e 6602 4dbc
000003e0: 4a77 62be fb71 833e f414 59bd 2479 90be
000003f0: b678 f23b b082 823d 6480 75be b1cd 63be
-0.100661345 -0.30049473 -0.006220133 0.20979151 0.06513204 0.10099677 0.13559893 0.3724456
-0.116363965 -0.0957748 0.16315591 -0.009134021 -0.010942586 0.021356132 -0.060552076 0.0423063
-0.17398098 0.15624729 0.27199975 0.45659488 -0.0504504 0.38664266 -0.08057369 -0.1721399
0.124466665 -0.048907287 0.01587025 0.7154617 0.07284996 -0.12399889 0.08008633 -0.05582013
0.010337599 -0.14290817 -0.17058451 -0.056962922 0.07195099 -0.21479833 -0.19291703 -0.15246327
0.15927629 -0.16775973 -0.07747445 0.080717996 -0.012061452 0.20203282 -0.101871006 0.17364015
-0.022418603 0.08619204 0.12036754 -0.09719408 -0.1402347 -0.101227626 -0.07002585 -0.12739863
-0.014492291 0.005208978 0.027335364 -0.12866017 0.26373824 0.11955162 -0.02279674 0.033163313
-0.110125475 0.054392524 -0.0045585264 -0.16137065 0.26746517 -0.2261266 0.11065908 0.009701873
0.090873055 -0.15852155 0.12378847 0.2738568 -0.12810768 0.15951319 0.03980865 0.085777506
-0.19455278 -0.08144401 -0.049722135 -0.029175056 -0.28731284 -0.013598935 -0.08352159 0.11308426
0.0010301255 0.063068554 -0.40381885 0.016898781 0.2745937 0.057838857 0.14462931 -0.18974233
0.014232056 -0.101157755 -0.2878286 0.012789699 0.17763226 -0.17105745 -0.2104415 0.101941325
0.15187041 0.1872976 -0.06790106 -0.119612664 -0.027630642 0.17955416 0.16723628 0.43464532
-0.11702058 0.004649109 0.13393213 0.15541548 -0.1844681 -0.1651243 -0.053406868 -0.39912957
0.14055918 -0.25151923 -0.076117046 0.04597839 0.18043306 -0.06098361 -0.14581558 -0.022826938
0.04962412 -0.4670216 0.0036071 0.12858419 -0.1278884 -0.21290478 -0.05766072 -0.2356089
-0.12652677 -0.050430585 -0.0022584787 -0.15163004 0.15894413 -0.07735584 -0.07374549 -0.08116768
0.20927414 -0.14050414 0.098295934 -0.29281375 0.20624548 0.00955061 -0.0835648 -0.11043874
-0.4663224 -0.32061186 0.105118245 -0.6575883 0.15022615 0.06856948 0.17980248 0.19270107
0.19560285 0.083632156 0.23047873 -0.056153025 -0.07648046 -0.27743307 0.08437213 -0.20354033
-0.0009546267 0.13273577 0.19522047 0.030408652 -0.06713565 -0.11711084 0.055847645 -0.2661355
-0.13129796 0.11877274 -0.34069866 0.19485717 -0.105174966 0.31647578 -0.4739189 0.023075989
0.1618371 0.014721995 -0.00042528065 -0.2891317 0.17610383 -0.43560857 -0.018991513 -0.08195974
0.025359865 0.115975715 -0.079235815 0.007898903 0.010534798 0.093207516 0.042464014 -0.27899262
0.12955526 0.21717776 -0.18290876 -0.00021295491 -0.048990805 -0.003700016 0.08841155 -0.088977374
-0.4306735 -0.13213454 -0.022924507 -0.10559996 0.08421147 0.27364394 -0.12215154 -0.08330833
-0.26046434 0.010597431 -0.0154800005 -0.11637156 -0.05105189 0.12016508 -0.08215634 0.002926431
-0.24976099 0.01636975 0.28495035 -0.034767907 -0.15723316 -0.15994178 0.25037554 -0.09770272
-0.31279486 -0.10063789 0.0011735973 -0.077272646 -0.2094328 -0.18713742 -0.0063233837 -0.16173336
0.08646603 -0.05851345 -0.045134958 0.06700704 0.20957558 0.020560183 0.25308397 -0.012512779
-0.22115818 0.25672898 -0.052998498 -0.28217423 0.007399644 0.06372583 -0.23974758 -0.22246434

fc3.bias f4 [64]
00000000: 01c5 083f 198f 323f 1a29 1dbe 98e0 2b3f
00000010: 73e1 bcbe b72d d1be f6ee 19bf 5380 9fbe
00000020: 6970 a9be 9f40 9ebd 4de1 813f f75f 503f
00000030: b036 e1bd bfa9 2a3f b39a 64be 8527 42be
00000040: 7a3e cd3e 8748 133d 1536 eabc 9f1f 19be
00000050: 2b84 28be c90c 3e3e f37a 2d3f f98b 27be
00000060: 1124 b2bd 737c a1be 01f1 d8be 7bd2 eebd
00000070: 59ad 803e ee64 2cbe 0ee9 5ebe e139 56bc
00000080: 20bc babd 7920 01bf b026 debd 9b5b 45be
00000090: dee0 6fbe 2f01 223f a347 053f 1f5a 97bd
000000a0: d31f bf3e 6da6 97be 0902 14bf b156 bb3e
000000b0: 316f a4be 3604 0ebe efd9 383f 922f 4bbe
000000c0: 5844 06be 5615 283f c8ef 8ebe 027d f13e
000000d0: 863d 8ebd 7614 9c3f df1e 103f c67b 12be
000000e0: 9cd0 523e e4f5 293e 8662 5fbf 17c7 0bbf
000000f0: 0d6f e6bd fc4e 05bf 3882 c23e 7c0b c4bd
0.53425604 0.697496 -0.1534771 0.6713958 -0.36890754 -0.4085519 -0.6013025 -0.3115259
-0.33093575 -0.07727169 1.0146881 0.8139643 -0.10996759 0.6666526 -0.22324638 -0.18960388
0.40086728 0.03595784 -0.028590241 -0.14953469 -0.16456668 0.18559565 0.6776573 -0.16361989
-0.08698285 -0.3154026 -0.4237137 -0.1166124 0.25132254 -0.16835377 -0.21768591 -0.013075323
-0.09117913 -0.50440174 -0.10847223 -0.19273226 -0.23425624 0.63283056 0.52062434 -0.07390236
0.37328967 -0.2961916 -0.57815605 0.36589578 -0.32116082 -0.13868794 0.7220754 -0.19842365
-0.13112009 0.65657556 -0.27917314 0.47165686 -0.069453284 1.2193744 0.56297106 -0.14305028
0.2058739 0.16597706 -0.8725971 -0.5460066 -0.1125165 -0.52073646 0.37989974 -0.09572503

fc4.weight f4 [10, 64]
00000000: 46c4 b7be 98fd 813e dce7 fabd 7776 1abd
00000010: bb59 d0be ab71 073e d3ba 02bf 98a1 4bbe
00000020: 287c 923c 19b4 493a 7698 1e3d becf 05bd
00000030: 2286 283d 7e49 a03c c330 ea3c 713d 2fbf
00000040: a1e1 ad3d e03a abbd e845 1e3c fbe7 e7bd
00000050: ed68 3fbe aac2 2bbe b014 d03c 1b99 ddbd
00000060: 6f25 14be 03df b7be 2692 6c3c 1423 4a3e
00000070: f4e2 01be 1585 9d3d 4951 01be 1571 e53d
00000080: 367d c13d bf14 eabe 9db7 1b3e f31c 1dbe
00000090: 4331 aa3c 0b18 02bd a13a 6abd 0081 3abd
000000a0: 141a 5e3d eda4 84be f58a 303c a808 3bbf
000000b0: 1a6c 44bf dff6 97be 41ff 3d3d 6bc8 80bd
000000c0: d126 09be dd8f 17be 61c4 cf3c 320c a5bd
000000d0: 8d39 483e 3a54 29bf c0f1 443e aa33 92b8
000000e0: 21b6 983d f249 adbe 1d71 62bd 44fa 9b3d
000000f0: fb93 a5bd e844 cebe 4b52 bbbe a1bc dc3c
00000100: c52f 593c da13 d6be bdc8 42be a8f2 babd
00000110: 507e cdbe 5fd5 4fbe 8bf2 a7be edbf 8e3d
00000120: 15c4 05ba ff59 e23d 7f2d 143e bafb 4e3e
00000130: 3341 013d f01a fbbc 2038 52be ef6b 43bf
00000140: 68ce 4a3e 4cf8 9abd 880b 2c3d b2e9 14be
00000150: 58be eaba da2b 3dbe e086 73be 6a52 efbe
00000160: e652 f73c 6f81 e1bc dd5f ec3d 2080 edbc
00000170: 5973 1f3e 3fb7 16be 842c 94be 01e2 033e
00000180: b1dc 5a3c dc38 91bf 4728 51bf 0941 5abe
00000190: 5bca 663d a71d fcbe 1476 acbe a03e c9bd
000001a0: 7a54 a9be 95dd 89be 1726 b6be a778 32bf
000001b0: e145 30be 3a4b 153e 1736 72be 56d4 b7bd
000001c0: f544 2a3d d9bc aabe 3eff 74be b7de d23d
000001d0: 03ee f5bd 5b9b 87bf e435 89be 2e45 1fbd
000001e0: 80a6 e03d b7e7 46bf 644d 92bb ff55 a0bd
000001f0: 3a02 133b 807c debe 1be7 c1be 3bb4 1abe
00000200: d541 f23d f817 8bbd def2 5ebe 5dc7 50bc
00000210: 3039 b2be 3ec6 1abe bfaf aebf a8ee 1ebe
00000220: 31f9 11bf c25f 463d 173e 933d 5890 adbe
00000230: 74e8 0ebd 5385 2e3e 7175 0fbd 22d7 11bb
00000240: 3c0a abbe d26a e1bd d1b0 c3be 258e febd
00000250: 1fd0 213d 3f34 abbd ba94 d73d fbf2 4fbe
00000260: d19e d93d b0a8 51be 4eb8 873e 77a0 84be
00000270: 0b6e a0bd fe93 4cbe 5491 f1bd 4efe 0cbd
00000280: 1ce0 00bd aa0e 19bf 24ef 103d 1814 05bf
00000290: b28b 9d3c e2e8 103e 2062 323e f379 b53d
000002a0: d17a b9be c9fe 6ebe a3d7 45bf 922e 22bf
000002b0: 204c 9ebe ac8c c23c 30e7 463d 8d2c 52be
000002c0: f639 013d c5ac e7be e64c 153d 7ba9 98be
000002d0: 2ed3 fbbe 3cc1 90bf 5e20 4fbe 3ea4 6dbd
000002e0: 54d3 cd3d 4d18 27bf 0f1a e6be 084b 69ba
000002f0: 0800 dfbd 0a28 dfbe 7e97 2bbd 9c29 bebd
00000300: bb84 70be 9183 53bc e0d6 e53b 5381 563e
00000310: ea5f b5be 172b ce3d 197e 7bbe 885d 3f3b
00000320: 1bac 85bd 0a97 e7bd 3874 653d d890 523e
00000330: ddff 573c cee6 b7be 551d f3bd 78a8 8c3d
00000340: 11cc 8f3c 3d2e abbd b40d 1d3c 496d 1dbe
00000350: fb93 133e 411c 933d 0ef7 bf3d 2804 80bc
00000360: 2d4e 18be d388 d6be fe30 04bf 20b5 58be
00000370: 4505 f1bb 5ad5 65be 75b9 22bd e1e7 83bd
00000380: 058b 7abd 9fef 40bf 70b9 07bd 194f c4be
00000390: a6e5 afbd 7824 98bd 0f1a 81be f997 653d
000003a0: 72ce 16be 59db 91be e8d5 babb 667f 6cbf
000003b0: 23d9 c9be 5583 5b3d 612f 9bbe e51c 2cbe
000003c0: 01d7 1cbd 27b2 bebd 5757 89bd f558 bbbc
000003d0: 447f 05be f187 56bf 2776 0dbc a277 0e3d
000003e0: d065 1a3e 810d 36bf ddd8 66bc 6428 b9bb
000003f0: b697 2bbd c26d edbe 2ca7 18be 1e9f 643d
-0.35891932 0.2538879 -0.12251255 -0.037710633 -0.4069346 0.13226955 -0.5106632 -0.19885862
0.017881468 0.0007694378 0.038719617 -0.03266882 0.041143544 0.019566294 0.028587705 -0.6845313
0.08490301 -0.08360839 0.009660222 -0.11323544 -0.1869237 -0.16773477 0.02540049 -0.10820218
-0.14467405 -0.35912332 0.014439141 0.19739944 -0.12684232 0.07691399 -0.12628664 0.11203209
0.0944771 -0.45718953 0.15206762 -0.15343075 0.020775443 -0.03176121 -0.05718482 -0.04553318
0.05422409 -0.25907078 0.010775317 -0.73060083 -0.7672745 -0.29680535 0.046386007 -0.06288227
-0.13393714 -0.14800973 0.025362195 -0.08058967 0.19553204 -0.66144145 0.19232845 -6.971446e-05
0.07456613 -0.33845478 -0.055283654 0.07616094 -0.08084866 -0.40286946 -0.36586222 0.026945414
0.013256018 -0.4181202 -0.19021888 -0.09128314 -0.4013543 -0.20296238 -0.32802233 0.06970201
-0.0005102766 0.11052322 0.1447048 0.20213214 0.03155632 -0.030652493 -0.20529222 -0.7633657
0.198053 -0.0756689 0.042003185 -0.14542273 -0.001790951 -0.1847376 -0.2378192 -0.46742564
0.030190896 -0.027527539 0.11541722 -0.028991759 0.15571345 -0.1471834 -0.28940213 0.12879182
0.013358281 -1.1345477 -0.81702083 -0.21313871 0.056345325 -0.49241373 -0.33683836 -0.09826398
-0.33072263 -0.26926866 -0.35575935 -0.6971535 -0.17214157 0.14579478 -0.23653446 -0.08976047
0.04156967 -0.33347204 -0.23925492 0.10296386 -0.12008288 -1.0594286 -0.26798928 -0.038884334
0.10969257 -0.7769732 -0.004464792 -0.078289025 0.0022431747 -0.4345436 -0.37871632 -0.15107815
0.11828963 -0.06791681 -0.21772334 -0.012742844 -0.34809256 -0.15114686 -1.3647383 -0.15520728
-0.5702086 0.048431166 0.07189577 -0.33899188 -0.034889653 0.17043047 -0.03502411 -0.0022253473
-0.33406246 -0.110067025 -0.38220838 -0.12429456 0.03950512 -0.083595745 0.10526414 -0.20307533
0.10625995 -0.20474505 0.265078 -0.25903675 -0.07833489 -0.1997833 -0.11795297 -0.03442221
-0.031463727 -0.59788 0.035384312 -0.51983786 0.019231651 0.14151338 0.17420244 0.088611506
-0.36226514 -0.2333938 -0.7728216 -0.6335231 -0.30917454 0.023748718 0.04856032 -0.20524807
0.031549416 -0.45249 0.03645029 -0.29816803 -0.49184555 -1.130897 -0.20227191 -0.05801796
0.10050073 -0.65271455 -0.44941756 -0.0008899425 -0.10888678 -0.43585235 -0.04189252 -0.0928528
-0.23488133 -0.012909786 0.0070141405 0.20947771 -0.3542474 0.100668125 -0.24559821 0.0029200036
-0.06526967 -0.11308105 0.056019038 0.20563066 0.013183561 -0.35918278 -0.11870829 0.0686807
0.017553361 -0.083584286 0.009585787 -0.1537372 0.14411919 0.071831234 0.09373294 -0.015626982
-0.14873572 -0.41901264 -0.51637256 -0.21162844 -0.0073553645 -0.22444668 -0.039727647 -0.06440712
-0.061167736 -0.7536563 -0.03313583 -0.38341597 -0.08588724 -0.07428831 -0.25215194 0.056053136
-0.1472719 -0.2848766 -0.005701769 -0.92381895 -0.39423475 0.053592045 -0.30309585 -0.16807897
-0.03829098 -0.093113236 -0.06706112 -0.022869566 -0.13036829 -0.8380118 -0.008634127 0.03478206
0.15077901 -0.71114355 -0.01408979 -0.005650567 -0.04189273 -0.463728 -0.14907521 0.05581581

fc4.bias f4 [10]
00000000: e868 e5bd 5f47 97be b56c 793e a722 bc3e
00000010: e1b8 aabe 691a f03e bcf7 3c3e cb0f fd3d
00000020: c4e7 8a3d da25 4cbf
-0.1120165 -0.2954664 0.24357875 0.36745188 -0.33344176 0.4689515 0.18453878 0.12356528
0.06782487 -0.79745257
