runs/Mar02_17-32-43_cssd901383-Run(lr=0.01, batch_size=128, patience=1)-valid/checkpoint.pt (torch_old, 972387 bytes, 8 tensors)

fc1.weight f4 [256, 784]
00000000: fcf8 37bc 634f d3bc 28df 30bd d021 f33c
00000010: 0357 9bbd b4f7 a0bd 8b89 91bd f794 cdbd
00000020: 91c3 3bbd 0139 43bd 63be c0bd 013f 47bd
00000030: ded3 cdbc 42eb adbc e35e 6ebc 27fd 8cbc
00000040: 3bce 18bd 2b7f 7cbd 2089 4dbd 081c b8bd
00000050: 7450 d9bd a144 013d 8575 8c3d bf17 153d
00000060: f992 11bd 1964 7ebd 4c83 af3c c64d d23c
00000070: 3a0c bfbc 3cd6 763c de95 aebc 2108 7abd
00000080: 3fd4 4ebd 5a47 c8bd 942a abbd f96f 22bd
00000090: 0bba 65bd 671a b0bd 1b39 4bbd b4ee c6bc
000000a0: eb20 8fbd d531 9abd 4751 3cbc 32d9 0abd
000000b0: cebb a0bd 6d01 45bd ad68 3abd def2 c0bd
000000c0: 6ff5 bdbd a007 b8bd 6755 68bd 3984 95bc
000000d0: 5e56 8ebd 6339 1cbd 4d0a 373d e0f4 b93c
000000e0: 9a78 d7bc 1055 3a3c 5596 bfbd d71c 91bd
000000f0: 4c9a 09bd 0ba8 b0bd ee09 abbd 6d5c 88bd
00000100: 28b7 bebc c098 18bd fe2b 9ebd f418 19bd
00000110: f59b 2bbd c2f7 80bd 7ed1 82bd d248 82bd
00000120: a3c4 2fbd 2580 52bd f63c 90bd 2fa0 3fbc
00000130: ca36 10bd dc39 acbd cc34 cdbd 1ca4 bdbd
00000140: 8c76 81bc 9ddb 67bd 6e84 69bd d089 ca3d
00000150: 3248 e63d 424c 48bd e3eb 0b3b 021a 843c
00000160: b69a 37bd 5210 a5bd b237 51bd ec9e 91bd
00000170: 2128 2dbd e4dd 97bd 7114 25bd 6ddf 79bd
00000180: 2a3b 93bd 785f 5dbd 0043 cabc 8fb3 69bd
00000190: 8a90 4dbd e186 05bd 2f0f 0dbd c6bd c5bc
000001a0: 3aa2 08bd b7f7 25bd 6f90 a6bd 8d2d 3dbd
000001b0: df55 16bd 0534 e7bc 5eb4 613d 140d 35bd
000001c0: f7f8 2c3e 48c1 fa3d 8fdb 843d 7612 6c3d
000001d0: 6a21 47bc 26de 1bbd b6c9 31bd 6ce9 98bd
000001e0: 8a2a 33bd ac10 12bd 0d3f 8fbd 2cd8 79bd
000001f0: 67dc 11bd 90ea 94bd fde3 6dbd 8623 13bd
00000200: 2977 e0bc cb99 61bd 85b1 3fbd 0914 f6bc
00000210: 3490 3dbd 7f27 1cbc 8839 43bd 5863 47bd
00000220: 6ce8 8b3d 56c8 b83d 4075 8d3d b8e2 1cbe
00000230: 015d 5d3d 79bb 1e3e 51d9 ee3d 091e 583d
00000240: 54de 8ebb 84b2 d7bc a9a9 c7bb 2469 54bc
00000250: e74b 81bc 8706 8abd f7be 45bb 52db 1bbb
00000260: 9b97 66bd bfab ebbc d248 8cbd 4e3d a7bc
00000270: 6238 bdbc e3eb 9fbd dc71 19bd e42e 54bd
00000280: 8667 52bd 1230 5abd d8dc 05bd 2398 8dbc
00000290: 17a3 0c3c 5ae7 923d c226 963d b72c 0cbe
000002a0: b8c2 6a3d adc9 363e 75e3 a93d 5763 333e
000002b0: 7afb a33d e7bf 473c 1888 25bd b676 283c
000002c0: 8821 2ebc 1c63 7cbd 7249 273c acb5 063c
000002d0: f0b6 12bc 0e81 b5bb 52ea 16bd 3b75 76bd
000002e0: 774f 35bd 8581 c0bb 935b 2abc a487 b6bd
000002f0: 09f6 34bd 5ade 03bd 4c28 4ebd 6222 9cbd
00000300: 7dc3 7abc f002 1e3d 97ff 84bc a8c8 063d
00000310: e6b0 0e3e 33ee b93d 2654 183e 6236 f03d
00000320: e4d5 853d cfe7 f8bc aa95 b0bc 46c9 0ebc
00000330: a1c2 0dbd 5da3 8abc 902c 2abd 6cea 45bd
00000340: e096 b3bc af65 26bd b54a 23bd cdf2 9bbd
00000350: 7d0b bdbd fd1e 56bd 1240 fb3b a2bf cd3b
00000360: a60b 32bd a400 42bd 50a6 82bd 1fce 28bd
00000370: 29cf 37bc 217e 72bd 185d 02bd 59c4 5a3d
00000380: b041 4a3e 4593 153e 62f8 b83d 08a6 0a3e
00000390: df2c 093c 8279 3cbc 8a86 d23b 0bd0 803c
000003a0: 6df7 693c f1ce 27bd 784e 76bd fe5c d5bc
000003b0: dc57 9abb d5f4 d4bc b4e5 87bd 5200 6abd
000003c0: 3b31 b8bd 9a54 89bd 5cd9 c73b c6ee 81bc
000003d0: c23a 1bbd 8ab7 aabc c7a5 67bd fabf e7bd
000003e0: f371 5fbd 8eae 85bc 1af9 d9bb 899d 813d
000003f0: db2e 363e 4831 1f3e 0d99 883d 7108 cb3d
-0.011228796 -0.02579469 -0.04318157 0.029679209 -0.075849555 -0.078597456 -0.07106312 -0.100381784
-0.045840804 -0.047661785 -0.094113134 -0.04864407 -0.02512544 -0.021230344 -0.01454899 -0.017210556
-0.03730605 -0.061644714 -0.0501796 -0.089897215 -0.10611048 0.03155959 0.068583526 0.0363996
-0.035540555 -0.06210718 0.021424912 0.02567185 -0.02332126 0.015065726 -0.021311697 -0.06104291
-0.050495382 -0.09779234 -0.083577305 -0.039657567 -0.056085628 -0.08598786 -0.049615007 -0.024283744
-0.069887005 -0.07529036 -0.011493987 -0.03389854 -0.07848321 -0.048097063 -0.045509983 -0.09421323
-0.09275328 -0.08985829 -0.05672207 -0.018251525 -0.06950067 -0.038140666 0.044687558 0.022699773
-0.026302624 0.01137282 -0.093548454 -0.07085579 -0.033594415 -0.08625802 -0.08351503 -0.06658254
-0.023280695 -0.03725505 -0.077232346 -0.037377313 -0.04189678 -0.06297256 -0.06387614 -0.063615456
-0.042912137 -0.05139174 -0.070428774 -0.011695906 -0.0352085 -0.08409473 -0.10019836 -0.09259817
-0.015803598 -0.056605924 -0.05701106 0.09889567 0.11244239 -0.04890085 0.0021350316 0.016125683
-0.04482528 -0.080597535 -0.051078506 -0.0711039 -0.042274598 -0.07415369 -0.040302698 -0.06100409
-0.07189019 -0.054046124 -0.024690151 -0.057056006 -0.05018667 -0.032599334 -0.03443831 -0.024138343
-0.033357836 -0.040519442 -0.08133017 -0.04618602 -0.036702987 -0.028223047 0.055103652 -0.044201925
0.16891848 0.12243897 0.0648719 0.057634793 -0.012153963 -0.038053654 -0.043405257 -0.07466397
-0.04374174 -0.03566043 -0.06994448 -0.060997173 -0.035610583 -0.07271302 -0.058078755 -0.03592255
-0.02740057 -0.05507831 -0.046800155 -0.03003885 -0.0462801 -0.009530901 -0.047662288 -0.048678726
0.0683144 0.09022586 0.06907129 -0.15320861 0.054043774 0.15501203 0.116625436 0.05276302
-0.0043599997 -0.02633024 -0.006093223 -0.012964521 -0.015783263 -0.06739526 -0.0030173638 -0.0023781848
-0.056296926 -0.028768418 -0.06849827 -0.020414975 -0.023098174 -0.07808664 -0.0374621 -0.05180253
-0.05136826 -0.0532685 -0.032681316 -0.017284459 0.0085838055 0.07173033 0.07331611 -0.13688932
0.057314605 0.1785037 0.08295337 0.17518364 0.0800695 0.012191749 -0.040412992 0.010282209
-0.010628112 -0.061617956 0.010210382 0.008222025 -0.0089547485 -0.005539066 -0.03684456 -0.060170393
-0.044265237 -0.005874815 -0.01039781 -0.0891259 -0.04417995 -0.032194473 -0.0503314 -0.076237455
-0.015305397 0.03857702 -0.016235156 0.032906204 0.13934669 0.09078636 0.1487585 0.11729123
0.06534937 -0.030383972 -0.02155574 -0.0087149795 -0.03460944 -0.0169236 -0.041546404 -0.048319265
-0.021922529 -0.040624317 -0.039866168 -0.0761467 -0.09230707 -0.052275646 0.00766755 0.006278948
-0.04346814 -0.047363892 -0.06379378 -0.041212197 -0.011218824 -0.059202317 -0.031827062 0.053409908
0.1975162 0.1460696 0.0903175 0.13539898 0.0083725145 -0.011503579 0.0064247297 0.015724203
0.014280182 -0.04096884 -0.060133427 -0.026045319 -0.0047101807 -0.025995651 -0.06635609 -0.05712921
-0.08993765 -0.067055896 0.0060989093 -0.015860926 -0.037897833 -0.020839471 -0.056554582 -0.113159135
-0.05455203 -0.016318586 -0.0066520097 0.063288756 0.17791311 0.15546143 0.06669817 0.099137194

fc1.bias f4 [256]
00000000: 9376 f5bd dbb1 5dbe bcc3 e9bc 7619 3bbe
00000010: df64 3a3c 692c 95bd f289 c3bd ce7c d13d
00000020: 5d7b d3bc 4f4d 4ebe 2683 02bd 4366 bcbc
00000030: 7f48 9ebd 69ed a2bd f2e9 4abd 66f4 9ebd
00000040: 145b 84bd 8240 173e 6096 dbbd 80bc 65bd
00000050: c524 033f a2aa 51bd df66 21bd 1a09 eb3e
00000060: b3e9 973e 9271 97bd 15c1 843e 4a66 1cbd
00000070: 4f7d 93bd a445 89bd 5b95 00bd 28e6 893e
00000080: 77cb 0ebd a07e 7fbe 4767 c2bd 3af9 b0bd
00000090: 7b91 86bc 84c7 053e 6d98 aebd 121d f5bd
000000a0: 7396 c6bd 9d93 a4be 3682 9ebd ef99 4cbd
000000b0: 54dd 43bd c8a9 123d 0ae8 afbd 3e15 5ebd
000000c0: 0014 013f f68c 9fbe 72cd 6fbd a9e1 b23d
000000d0: 03c2 6cbd e0ec c1bd 0b1b 54bd bd89 9f3e
000000e0: 7316 893e c4c2 153d fbe7 a0be e0e3 f5bc
000000f0: e725 8b3e b7fd 263e a841 81bc 09e7 bf3d
00000100: 4aae 6c3e 3cc0 ff3c 9403 c7bc a9b8 283f
00000110: 638f a4bd a028 56bd 0f58 e73e f945 bbbd
00000120: 013f d9be 83d5 dabc 84c2 d9bd 04f3 39bf
00000130: 55c6 87bc e426 82bd 421c e1bc 987b 833d
00000140: da95 a23c 29cd cfbd 908e cabc b31d 80bd
00000150: 8259 7f3c 1c0e a33e e91d b8bd 4eb7 243d
00000160: 3295 6abe 12e2 57bd bb3b 49bd 7944 7cbd
00000170: e00f 29bd 89a4 93bd b3e3 a6bd 98bd 5c3d
00000180: 2b25 ac3d 5826 b53c edcf 64bd 39fb 9a3e
00000190: b426 65bd ae1e 493e 5d33 c63e ff98 0c3e
000001a0: 1b2e cebc 5563 5dbd 75ca d8bd 4d5b 80bd
000001b0: 31e7 a3bd 501a e1bd 0ca0 f63d 8b50 6d3d
000001c0: 7dda c5bd bb5a 8ebd 7db0 45bd c24d aabd
000001d0: fd55 debc 2d60 2bbd e795 adbd cb85 92bd
000001e0: 171d 4f3d 1d73 153e 6d6f bfbd 25dc 963e
000001f0: c644 9bbd 4bd0 b4bd 772a d8bc 26e4 efbd
00000200: bc84 293d ddf6 6f3e 33d1 aebd 847e cebc
00000210: 7d41 50bd 8b73 903d f277 6abd 2420 523d
00000220: e1ae 35bd 7e68 9dbd c2ef 64bd b446 49be
00000230: 1a1b a9bd 7ac2 da3e 70cd 3abd d650 8ebd
00000240: 04fe 80bd 3f94 ed3d 97ce 133e b1c1 ccbd
00000250: 2f6b e63d 6317 bbbd 9b31 80be 008a 23bd
00000260: d386 33be 649b a1be 0a1a 7d3e 6eda 48bd
00000270: 08b1 36be 5a4e b0bd bb6f e7bd 0966 35bd
00000280: df02 173f 256c d53d 95a5 56bd f2ea 03bc
00000290: 63b8 18be 283a 81bc 225f b4bc 5861 1dbe
000002a0: fb06 90be a88e 4c3f 82ad bfbd 5c34 6c3e
000002b0: fceb 923d 6f1e cbbd 1ba8 9dbd 38fc 8fbe
000002c0: 48a3 edbc 8177 a8bd e62e 9cbd 2402 85bd
000002d0: f8eb 033f b2d6 87bc 1db6 6abe ef2e 07bd
000002e0: 5b5d 97bd 0365 b1bd 9c02 cd3e 3491 cb3d
000002f0: 1b9e 8fbd f632 adbb 49e5 17bd 5e26 40bd
00000300: 592b 43bc 2628 853d 4288 d9bd 7087 89bd
00000310: c1a9 a1be 1cf3 79bd 679f a1bd 7a49 c63a
00000320: 30ab b83c 89ce 343e 0c0d b9bd 8874 85bd
00000330: fa12 c83e aa2e 883e dfe9 953e 5eff 303e
00000340: 0673 5ebd bb50 b3bc 49a6 2b3c cd4c 30be
00000350: d5d3 883e 37b6 cfbb 4af7 253f 5aa1 edbd
00000360: 7289 bdbd 8374 ebbc a2c2 8a3d fb0c 46bd
00000370: 96ab 863d aee3 a9bd 6f06 efbc 4dcc cbbe
00000380: 61d9 7bbd 9eac 0d3f 315a a5bd 3a90 94bd
00000390: 45a2 c93d 35b3 dbbd 77a0 b93e 4b4d 25bd
000003a0: 6d31 7cbd 8e45 7fbd e6eb 8dbe dabf ee3e
000003b0: ee96 e43e 9f70 5cbd b898 89bd 4724 bdbd
000003c0: 6061 063f 3a21 f5be fc0d afbd b9be 5abd
000003d0: e68c 24bd cceb 64bd 0661 153e 1cdf 8ebd
000003e0: b31e b1bd 325c 71bd 2bd9 a4bd b86a cf3d
000003f0: b096 00bd 9832 a73e 6180 61bd 5a08 883e
-0.11985507 -0.21649878 -0.028535716 -0.18271431 0.011376589 -0.07283861 -0.09547795 0.10228883
-0.02581566 -0.20146678 -0.031863354 -0.022997981 -0.07728671 -0.07955439 -0.049539514 -0.07761459
-0.06462684 0.14770702 -0.10722041 -0.05608797 0.5122798 -0.05118812 -0.039404746 0.4590538
0.29670486 -0.07394709 0.2592856 -0.038183488 -0.07201635 -0.06702736 -0.031392436 0.26933408
-0.034862008 -0.24950647 -0.09492355 -0.08641286 -0.016426792 0.1306439 -0.08525167 -0.11968435
-0.09696665 -0.3214387 -0.077396795 -0.04995149 -0.047818497 0.035806447 -0.0858918 -0.054219477
0.5042114 -0.31162232 -0.058545537 0.087344475 -0.05780221 -0.094690084 -0.051783603 0.31159773
0.2677494 0.036562696 -0.31426987 -0.030015886 0.27177355 0.16307722 -0.015778378 0.09370238
0.23113361 0.031219594 -0.024293698 0.6590677 -0.08035161 -0.052284837 0.4518437 -0.091442056
-0.4243088 -0.026713138 -0.10632804 -0.7263644 -0.016574064 -0.06355074 -0.027479295 0.06420058
0.019846845 -0.10146553 -0.024726182 -0.06255665 0.015585305 0.31846702 -0.0899008 0.040213875
-0.22908476 -0.05270583 -0.04912923 -0.061588738 -0.041274905 -0.07209117 -0.08148899 0.05389175
0.08405527 0.02211301 -0.055862356 0.30269793 -0.055945113 0.1964061 0.38711062 0.13730238
-0.02516847 -0.05404981 -0.105854906 -0.06267414 -0.08003081 -0.10991347 0.12042245 0.05793814
-0.09660814 -0.06950899 -0.048264015 -0.083156124 -0.027140612 -0.041839767 -0.08475857 -0.07154425
0.05056485 0.14594693 -0.09347425 0.29464832 -0.07581477 -0.08828791 -0.026387436 -0.11713438
0.04138635 0.23434015 -0.08535995 -0.025206812 -0.050843704 0.07053288 -0.057243295 0.051300183
-0.04435623 -0.07685946 -0.055892713 -0.19655877 -0.08257122 0.427265 -0.045606077 -0.06949012
-0.0629845 0.11600541 0.14434277 -0.09997881 0.112509124 -0.0913532 -0.25037846 -0.03992653
-0.175319 -0.31563866 0.24716964 -0.049036436 -0.1784097 -0.086086944 -0.11300608 -0.04428676
0.58988756 0.104210176 -0.052404005 -0.008051621 -0.14914088 -0.015774801 -0.02201802 -0.15369165
-0.28130326 0.79905176 -0.09359266 0.23066849 0.07173917 -0.09917914 -0.07698079 -0.28122115
-0.029008523 -0.082259186 -0.07626133 -0.06494549 0.51531935 -0.016581867 -0.22921033 -0.033003744
-0.07390853 -0.086618446 0.40041053 0.09939805 -0.07012578 -0.005285616 -0.037083898 -0.04691159
-0.01191219 0.06501798 -0.10621692 -0.06715286 -0.31574824 -0.061022863 -0.07891732 0.0015128099
0.022542566 0.17656912 -0.090356916 -0.06516367 0.39076978 0.26598102 0.29279992 0.17284915
-0.054308914 -0.021889081 0.010476657 -0.17216797 0.26724115 -0.0063388604 0.6483046 -0.11603041
-0.09254731 -0.02874208 0.067754045 -0.048352223 0.06575696 -0.082953796 -0.029177872 -0.39804307
-0.061486606 0.5534152 -0.08073843 -0.072540715 0.098454036 -0.107275404 0.36255237 -0.040356915
-0.061570574 -0.062322192 -0.2771904 0.46630746 0.446464 -0.05381834 -0.06718582 -0.09235435
0.5249233 -0.47876912 -0.08547589 -0.053404544 -0.040173434 -0.055888936 0.14587793 -0.069761485
-0.086484335 -0.058925815 -0.08049234 0.10127777 -0.031393707 0.32655787 -0.055054072 0.26568872

fc2.weight f4 [128, 256]
00000000: 8050 0cbe e96c 58bd 3bbc c53d d0ba 9f3d
00000010: 9657 fbbd 8cb0 e4bc 5bb9 dd3c 24ec 60bd
00000020: a40f e43b 4587 05bb 2ac8 643d 7f87 fbbd
00000030: 0a66 c33c 2cc4 9abd b842 c5bd 7092 ae3b
00000040: 7898 e0bd 7198 843c d5b3 873d 9e29 c8bd
00000050: c648 c83d e60e 203c 1faf c3bc 5cf3 283b
00000060: ff3c 873d e592 c83c cd01 81bd c11c 37bd
00000070: 395e 5abe f047 9ebd 393f a83d aaf2 10be
00000080: 1ad0 c7bd c603 883d a1cb 84bd ddae a8bd
00000090: f519 6d3d 6d17 c03c 0800 a9bc ec89 cbbc
000000a0: bcbc ebbd 10d8 5abe 50ec bebd fab7 643c
000000b0: fae2 b7bc 98ce 39be 30f9 f33b 059f f7bd
000000c0: 0df8 3ebd 301b d6bd 629c b53c 2abe 42bd
000000d0: 233d 3c3d 75f4 113c 8076 313c df4c 39bd
000000e0: 61ed c93d 0840 d13b a6ce 25be 048a d83d
000000f0: 8616 cf3d bfa7 3cbe 5dda 8e3d 5c42 33be
00000100: b58f 0d3d d569 d7bc 4cba 4eba ef08 11bd
00000110: a2e3 2abd 379f abbc 546d 11be 2389 c03c
00000120: d4c6 fabc 1e61 bc3d 8aca 02bf 224c ccbd
00000130: 1a50 66bd 6b18 35be 9fa4 2e3e e1c8 98bd
00000140: 963f a6bd a88c 04bd 37e0 11be 8873 c0bc
00000150: dd79 5dbd 2959 1fbd 10aa 9c3d d465 f2bd
00000160: 6515 22bd 39bd 7f3d cc1c 313d c9da eabd
00000170: b083 bebc ce74 65bd 4acf f4bd 5ca8 b6bc
00000180: 0c1d a33d 1447 133c 9f9a 903d 2174 6abd
00000190: 9edd 27bd 2a8f 243d 87d7 36be 8b14 b1bd
000001a0: 577d febc 7a69 76bd 9642 4e3d 47cc ca3d
000001b0: bc01 7dbc 4973 13bd 770d 80bd ee95 37bc
000001c0: d92a 04be cfa3 bfba 8def 97bc b7e2 e8bb
000001d0: ef2f 44bc de0c 59bd 0393 79bd 500c f5bc
000001e0: 0efd 20bc eb3a c63b fb99 06bd d087 833c
000001f0: fdc6 a23b 4b8c 9cbd 3f46 303b 6599 42bd
00000200: ecff 15be e945 debd 2129 6bbd 11ad 34bc
00000210: a45d 11bd 71a1 1bbd a83f a2bc b9ca 993d
00000220: dc6b edbc a297 e1bc 1474 90bd c845 e43d
00000230: f176 65be 8440 403d 04d6 483d b283 e1bd
00000240: d436 023d be16 ae3a 33de 323e 2df9 c63d
00000250: d44a cd3c fc97 eebc d169 dcbd 157c dd3d
00000260: 8899 a5bd c082 4cbe f2ab 0abe a542 a3bd
00000270: dca0 42bc 3112 f8ba f573 3ebe 1acf f7bd
00000280: 6a03 29be 2329 3abe c597 a1bd fe3c b03d
00000290: 40be 17bd ea75 6d3b bf8d 88bd b846 c73c
000002a0: 9051 4b3d c591 693c 43e6 2cbd 2994 013d
000002b0: 4f94 a6bd 3d8b 79bd 7545 503d 7980 0fbd
000002c0: 6499 333d 9184 b63d 2147 eebc 1578 cd3d
000002d0: a861 603d 76f7 b53d 5cb6 06be 2b42 16bd
000002e0: 8428 dfbd 3d62 25bc ce24 22bd 95ee d1bd
000002f0: 0262 f83d 6f6e 763d 83df 713d b5b2 e33d
00000300: b106 c53c aecb 143e c858 dc3c 1e08 80bc
00000310: 82d6 37be eacc 4f3d e20b 16bd 4863 6f3c
00000320: 187b f2bd bfc0 fdbd 791d c3bd 7d3b e1bd
00000330: 830a a33d b88e 923b a071 733d a373 113b
00000340: 8901 eabd ee22 27be 2d75 89bd b6b5 81bd
00000350: 5122 81bd d770 f5bd a98f 903d 16b6 bdbd
00000360: 220a fdbc 41db 023a 0464 89bd d6cb df3d
00000370: 9826 3e3d c1a5 2dbd a77e 0ebd 05ad 40bd
00000380: 4113 35bd 6d70 b5bc 25d3 cd3d 2938 b33c
00000390: 9a89 ea3d f015 60be aeb7 613a 056d 213d
000003a0: e9e7 6cbd 5e99 febd ec50 24bd 20df fb3d
000003b0: a181 c63d d7e6 31be 650f cabd 2d5b 053d
000003c0: fcfa 2a3d 100c 833d f4e9 2abd 6f5e 44bd
000003d0: 109d 7fbd 3bf5 433d b3ee 31bd 961e fcbc
000003e0: ad94 b0bd 33fa 14be 8aea 5ebd 23a2 373e
000003f0: 5f0f f23d 8869 8cbd 9210 643c 5a73 6e3d
-0.13702583 -0.05283824 0.09655043 0.077993035 -0.12272565 -0.027916215 0.027065923 -0.0549127
0.0069598723 -0.0020374816 0.055854954 -0.12281703 0.023852367 -0.07556948 -0.09631866 0.0053275153
-0.10966581 0.016185971 0.06626097 -0.09773563 0.097795054 0.009769177 -0.023887215 0.002577982
0.06603431 0.024484107 -0.062991716 -0.044705156 -0.21325006 -0.07728565 0.08215184 -0.14155069
-0.09756489 0.06641345 -0.06484152 -0.082364775 0.057886083 0.02344867 -0.020629898 -0.02484604
-0.115106076 -0.21371484 -0.09322417 0.013959879 -0.022447098 -0.18145216 0.007445477 -0.120908774
-0.04662328 -0.10454404 0.022169296 -0.047544636 0.045956742 0.008908381 0.010831475 -0.045239326
0.098597296 0.006385807 -0.16192111 0.105731994 0.10111718 -0.18423365 0.06975243 -0.17505783
0.034560878 -0.026295582 -0.0007886037 -0.03540891 -0.041720994 -0.020949943 -0.14201862 0.023502892
-0.030612387 0.09198211 -0.510903 -0.09975459 -0.056228735 -0.17685096 0.17054985 -0.074601896
-0.08117597 -0.032360703 -0.14245687 -0.02349259 -0.054071296 -0.03890339 0.07649624 -0.118358284
-0.039571185 0.062436316 0.043240353 -0.11467511 -0.023256153 -0.056019597 -0.119536 -0.022297077
0.079645246 0.008989114 0.07060742 -0.057239655 -0.040982835 0.040175594 -0.17855655 -0.086464964
-0.031065626 -0.060159184 0.05035647 0.09902244 -0.015442308 -0.035998616 -0.06252568 -0.01120518
-0.1290697 -0.0014620962 -0.018546844 -0.0071071046 -0.011974319 -0.052990787 -0.060931217 -0.029913098
-0.009825958 0.006049504 -0.03286169 0.016055971 0.004967569 -0.07643946 0.0026897339 -0.04750957
-0.14648408 -0.10853178 -0.05741227 -0.01102759 -0.035489693 -0.03799576 -0.019805744 0.075093694
-0.028982095 -0.027538124 -0.0705339 0.11146122 -0.22408654 0.046936527 0.049032226 -0.11011447
0.03179057 0.0013281924 0.17467575 0.09715495 0.025060095 -0.029125206 -0.107623704 0.108146824
-0.080859244 -0.19971752 -0.13542154 -0.07971696 -0.011879172 -0.001892632 -0.18598922 -0.12100048
-0.16505209 -0.18179755 -0.07890276 0.08605383 -0.03704667 0.0036233612 -0.06667661 0.024325714
0.04963833 0.014255946 -0.042211782 0.031635437 -0.08133756 -0.060923804 0.05084749 -0.03503463
0.043847457 0.08912004 -0.029086651 0.100326695 0.054780632 0.0888509 -0.13155502 -0.036684196
-0.108963996 -0.010094223 -0.03958588 -0.10250584 0.121280685 0.06016391 0.059051048 0.1111807
0.024051042 0.14530823 0.026897803 -0.01562887 -0.17952922 0.05073253 -0.036632426 0.014611073
-0.118398845 -0.12390279 -0.09527106 -0.109976746 0.07960989 0.00447258 0.059434533 0.002219417
-0.11426074 -0.16321918 -0.06711803 -0.06333487 -0.063053735 -0.11984413 0.07058651 -0.09263246
-0.03088862 0.0004991778 -0.067085296 0.109275505 0.046423525 -0.042394403 -0.034788754 -0.047040004
-0.044207815 -0.022148335 0.10050038 0.021877365 0.11452027 -0.21883368 0.0008610439 0.03941061
-0.057838354 -0.12431596 -0.040116236 0.12298417 0.096926935 -0.17373215 -0.098662175 0.032557655
0.041743264 0.06398785 -0.04172702 -0.04794162 -0.062405646 0.047841292 -0.043440532 -0.030776303
-0.08622108 -0.14548568 -0.054422893 0.17932944 0.11819338 -0.06856066 0.013919966 0.058215477

fc2.bias f4 [128]
00000000: 9264 383e 54de febb 4452 723e ea98 dfbd
00000010: 71d3 7e3e ac0a 04bc a3ae b5bd 8a79 e7bd
00000020: 1b5b 123e a175 613e d7a2 edbd 2647 bcbd
00000030: 289f 35bc 8d47 183e 21cd 9abc 0e5e bfba
00000040: 43dc 79bd 1f74 b5be 89d1 d0bd d823 f4bd
00000050: 00f9 ef3c eb33 31be d658 f53e eb70 b73e
00000060: 3b96 8c3e ff30 babb e459 dcbd adee 67be
00000070: ec31 9e3c 6b90 bbbd 0021 243e 0dbd e63c
00000080: ce25 bdbd 0a76 8cbd 3118 b0bd 5a12 70bc
00000090: 8b2e af3d 326a 4abc 2c60 10be 53bf cfbc
000000a0: 2732 983d 5ece eabd b0a3 183f 3d4f 7a3e
000000b0: a834 3dbe 97c9 fdbc 420f bc3e 9a9b f73e
000000c0: fa0f 86bd b8b8 943e d78b e13d 4c6f b6bc
000000d0: ed21 5dbe 2c9e 8d3e 17a1 783d d0b8 f9bc
000000e0: 0504 70bd 93dd 4abe 08d7 d4bd dedf c4bd
000000f0: 7be1 e0bc 381e a13e 7a7b 403d f28a 023f
00000100: f50e 44bd ab55 13be e20a f23e 1a1d 353e
00000110: d5bd 1f3e d465 2bbe 91a1 debc f9aa 7cbd
00000120: ec91 d83e 4a27 2d3e a223 cc3e bae0 e8bd
00000130: cd88 51be 366d 71be f4a2 42bd dc4a 1d3d
00000140: 062b dabd 8df0 c5bd 3eac 163f 8eda 23be
00000150: e197 88bd 504e 66be 8889 01bf 7a09 973e
00000160: cdf6 54bd e9f2 513e 7744 2b3d d771 cf3e
00000170: 32c1 de3d 3634 f4bd 6229 8bbc 9a9c 5cbd
00000180: bbde 303e 5cff 9d3e f88a 9dbd 89ed d3bd
00000190: 4491 84be 8278 bfbd df4e 36bd 25fb 143e
000001a0: 8353 dabb 2465 6bbe 9b57 b93d ca47 04bd
000001b0: fb32 143e 5956 f5bd 1522 ddbd b7a3 31be
000001c0: 59bd 083e f8d1 e93e e079 bc3e bbe6 02be
000001d0: 1b38 abbd ef18 a9bd 0df2 623c d998 63ba
000001e0: 3725 e13b ff8f 1b3e 5f58 32be 8189 bcbd
000001f0: 2352 61bd cf62 8d3e 87a4 b83e 891c 52be
0.18007115 -0.0077779684 0.23664194 -0.10917838 0.24885346 -0.008059185 -0.088712 -0.113024786
0.14292566 0.22017528 -0.11603325 -0.09193258 -0.011085309 0.14871044 -0.018896641 -0.0014600174
-0.061001074 -0.35440156 -0.10196216 -0.11920899 0.029293537 -0.17304961 0.4791934 0.35828337
0.27458367 -0.0056821103 -0.10759333 -0.22649641 0.019310914 -0.09158405 0.16028214 0.028166318
-0.09235726 -0.06858452 -0.08598364 -0.014652813 0.08553799 -0.0123544205 -0.14099187 -0.025359785
0.07431441 -0.11465143 0.5962477 0.2444429 -0.18477118 -0.030979915 0.3673039 0.48360902
-0.06546016 0.2904718 0.110130005 -0.022269867 -0.21594973 0.27659738 0.060700502 -0.030483633
-0.058597583 -0.19811086 -0.103925765 -0.09613012 -0.027451267 0.31468368 0.046992756 0.50993264
-0.047865827 -0.14388148 0.47273928 0.17686883 0.15599759 -0.16738063 -0.02717665 -0.06168649
0.4229883 0.16909519 0.39870936 -0.11370988 -0.20462342 -0.23576817 -0.047518685 0.03840147
-0.10652737 -0.09665022 0.5885657 -0.16001341 -0.066695936 -0.22490811 -0.5060048 0.29499418
-0.05199318 0.20502819 0.04181334 0.4051654 0.10876693 -0.11924021 -0.016987506 -0.053860284
0.17272465 0.30858886 -0.07692522 -0.103480406 -0.2589208 -0.09349157 -0.04450881 0.14548929
-0.0066627874 -0.22987801 0.090499125 -0.032295026 0.14472573 -0.1197936 -0.10797516 -0.17347609
0.1335348 0.45668006 0.36811733 -0.12783329 -0.08360311 -0.08256709 0.013851655 -0.0008682139
0.0068708914 0.15191649 -0.17416523 -0.09205914 -0.055009972 0.27614447 0.36063024 -0.20518698

fc3.weight f4 [64, 128]
00000000: 4e44 373d 3d0d 44bd 5e0b ccbc f87f 8c3d
00000010: 20de c63d e64e b0bc 576f 68bc 04cc 2b3c
00000020: 9a53 d7bb f4d0 c43d 39d4 4f3c 4ec7 b6bd
00000030: 1add 133e 1abd 25bd fa2d b0bd 17bb f33c
00000040: d055 053d e016 dbbd 8cc4 b5bc ebec 96bb
00000050: 03c2 5d3e d417 58bd 0c6c 53bd e3df 283e
00000060: 8812 d33d 6364 07bd 984e 213c 7db5 2fbd
00000070: 6a51 e53d 1757 8c3b 47ce 143e 974e 803c
00000080: 29e6 843d c791 b6bb 7265 733d b46e 333d
00000090: 4c24 2ebc a2fb 413c d7f8 6abb d458 0f3d
000000a0: c36a f63d e1aa c3bc ef00 4fbc 0f3f e6bd
000000b0: 4ea9 fdba 5bfe 663d 3d69 653d d9f4 e5bc
000000c0: 2a04 6c3c 8ec3 d13d f8f1 c43c 3c2f 743d
000000d0: 6af7 bd3d 100f 44bd 1145 8c3c 79a1 973d
000000e0: c56c 0cbe 2807 03bb ef29 2fbd 8bda 28bd
000000f0: b9bc 5f3e 5fc5 5e3d c217 11bd ffe2 bbbd
00000100: 4161 073d 8d18 d8bd 193e 6a3d 4c23 213d
00000110: 717b 6a3d 20b3 28be 3f87 823d 00dd 943b
00000120: ca34 9c3d 2eab a73c 8b6b 82bc 3086 c5bc
00000130: 34c1 2abe 2d88 b83e 5d77 f83c cdbb 133d
00000140: 631c 9cbc 0b75 cebc 79a8 d13d 7487 8abb
00000150: 7827 25bd 9fbd a1bd d3d9 bdbd e3bc 363e
00000160: d189 c13d 5992 c43d 6a80 af3b 06fd 86bd
00000170: b06e 833d 72e5 b0bd 3749 6fba 496f 4c3d
00000180: 0b7b 7a3d 4c5d 21bd 82cf a4bd 6c4a 063d
00000190: e768 a5bd 4531 493d 50e1 873e e04e 01bd
000001a0: 1647 eabb 2175 a0bd c392 bf3c d55b 013d
000001b0: cc0e d63d ce3e 7fbd c304 f43d 07b6 14be
000001c0: c364 0bbd 6f90 953d b000 633d fae5 993c
000001d0: 489a 12bd f613 4bbe f604 8b3c e901 8cbd
000001e0: 96dc d9bc b9ab 38bd 28b0 4cbd 9b0c e1bd
000001f0: fe3d d2bc 14c9 e5bd f59c c03d ea38 743d
00000200: 44ba c23d 1abd 31bc 6cc2 babd 00b4 8d3a
00000210: 56dd 083c ce2c 953d e2cc 9b3d ae39 aa3d
00000220: eb49 4f3e d4e4 cb3c 5d18 d03d 0b23 5cbd
00000230: 77e4 b63d 258b 2ebd 3619 253d 2a53 28be
00000240: 2038 0d3c 9aef ce3d 5b62 f43d bc3c 0d3e
00000250: c703 033e 8538 61bd 6681 8a3d 4625 ecbb
00000260: cb27 593d 2ef3 a43c 2081 373b 6d5e b43c
00000270: 3558 1f3e 1815 a13d 44b9 f2bd 3645 88bc
00000280: 66fb 5a3d 22c1 a93a 9a90 d8bd 6433 96bd
00000290: 1273 b6bb 536d bf3c 900a 123e 8723 12bd
000002a0: 70f7 a5bd 5c79 873d 1ee2 9f3d 1014 b5bd
000002b0: 909e 6fbd 68db 843d f534 013e f650 a8bd
000002c0: adf2 a93d e835 113d a7e2 cd3b 5c8f 143d
000002d0: be21 c9bd 5873 e0bc e940 e8bc a7da 253e
000002e0: 35df 0abd 179e ec3b 372b d5bd 9d26 b33d
000002f0: f8f5 87bd 9816 f53d 4c0c 82bd c3ab 143e
00000300: db24 3dbb 2cd2 3dbd 0afd b73c 191f 3dbe
00000310: 80a7 b0bc fabe b0bd 5450 afbc 3177 b2bd
00000320: c20b 65bc 5288 ac3d 5cbf e03c d945 85bc
00000330: 7f30 edbd 5ce8 4a3e 8723 553c 1414 f5bd
00000340: d2a7 ccbc bcf3 b0bd c001 cbbc 4809 173e
00000350: ce6a e4bd c56a 333d 6df9 d23d 66f1 023e
00000360: a50a 633d b78f e03d 8a61 2ebe c53c 033e
00000370: bcbf 1c3e 4de0 27bd 414b 213d 0282 1f3d
00000380: a563 8bbd f411 6b3e ba6c 7b3d c56d fcbd
00000390: 6fb9 823d aea7 6abc 8dad 813c dade 8ebd
000003a0: 5c8f cbbc 2379 cf3b 8f59 233d a7bd 153e
000003b0: c4c1 0b3e 6247 1f3d 509b df3d 6494 49bc
000003c0: 7789 b1bd b354 043e 8595 093e c8fc debd
000003d0: fb36 63bd 264a 10bd 22e3 2d3c 087c 18bd
000003e0: 595e bc3c 0da0 aebb 87e6 ddbd 2a37 613d
000003f0: f7a5 a9bd e1c4 bdbd 2092 e53c b240 203e
0.044742875 -0.047864188 -0.024907764 0.068603456 0.09710336 -0.021521997 -0.014186702 0.010485653
-0.0065712454 0.09610167 0.012684875 -0.08924733 0.14439812 -0.040463544 -0.08602519 0.029752297
0.03255254 -0.106977224 -0.022188447 -0.0046058795 0.21656041 -0.0527571 -0.051616713 0.16491656
0.10306269 -0.03305472 0.009845398 -0.04289769 0.11197169 0.004282843 0.14531814 0.015662475
0.06489212 -0.005571577 0.059422918 0.043806747 -0.010628771 0.011839779 -0.0035853887 0.034996822
0.12032082 -0.023885192 -0.0126345 -0.11242496 -0.0019352825 0.056394916 0.056008566 -0.028070854
0.01440529 0.10242377 0.024041161 0.05961536 0.09275706 -0.047865927 0.017122777 0.07403845
-0.13713367 -0.001999328 -0.0427646 -0.041224044 0.21849336 0.054387446 -0.035423048 -0.091741554
0.033051733 -0.10551558 0.057188127 0.039340302 0.05724663 -0.16474581 0.063734524 0.004542947
0.07627256 0.020467367 -0.015920421 -0.024111837 -0.16675264 0.36041394 0.030330354 0.036067773
-0.019056505 -0.025202295 0.10237212 -0.004227573 -0.040320843 -0.078974955 -0.09270062 0.17845492
0.094501145 0.09598226 0.0053558843 -0.06591229 0.06417596 -0.08637513 -0.00091280363 0.049910817
0.0611525 -0.039395615 -0.080473915 0.032785818 -0.08076649 0.049119253 0.26539087 -0.03156936
-0.0071495874 -0.078348406 0.023385411 0.03158172 0.10452041 -0.062315755 0.11914971 -0.14522563
-0.03403164 0.07302939 0.055420578 0.01878642 -0.035791665 -0.19831833 0.016970139 -0.06836302
-0.026594441 -0.045085642 -0.049972683 -0.109887324 -0.025664326 -0.11219993 0.09404937 0.05962459
0.095081836 -0.010848308 -0.09119114 0.001081109 0.008353552 0.072839364 0.07607438 0.08311783
0.20243041 0.024889387 0.10160897 -0.053744357 0.08930295 -0.042613167 0.040307246 -0.16437975
0.008619338 0.10104294 0.11932822 0.137927 0.1279441 -0.05498554 0.06762962 -0.007206592
0.053016465 0.020135488 0.0028000548 0.022017682 0.15560992 0.078653514 -0.11851743 -0.016634565
0.05346241 0.0012951235 -0.105744556 -0.07334021 -0.0055679167 0.02336756 0.14261842 -0.035678413
-0.081038356 0.06614944 0.078068 -0.08841717 -0.058500826 0.06487161 0.12617858 -0.08218567
0.0829824 0.0354518 0.0062831226 0.03626953 -0.09820889 -0.02739875 -0.028351264 0.1619669
-0.033904273 0.007220994 -0.10408633 0.08747599 -0.06638712 0.119672 -0.06350002 0.14518647
-0.002886108 -0.046343014 0.022459526 -0.18468894 -0.021564245 -0.08630176 -0.021400608 -0.0871414
-0.013979854 0.084244385 0.027434997 -0.016268658 -0.115815155 0.198152 0.013008959 -0.1196672
-0.024982367 -0.08640239 -0.024781108 0.14749634 -0.11153184 0.043802995 0.103014804 0.12787399
0.055430073 0.109649114 -0.17029396 0.1281615 0.15307516 -0.040985394 0.03937841 0.038942344
-0.06806115 0.22956067 0.061382987 -0.123256244 0.06383025 -0.0143222045 0.015829826 -0.06976099
-0.024848633 0.0063315793 0.03988033 0.14623128 0.13648134 0.038886435 0.109182954 -0.0123034455
-0.086687975 0.12922935 0.13435943 -0.10888058 -0.055472355 -0.035226963 0.010613235 -0.03722766
0.022994207 -0.005329138 -0.10834985 0.05498425 -0.082836084 -0.09266067 0.02802378 0.1564968

fc3.bias f4 [64]
00000000: 9003 103e 5461 183e c2be aebd 6bd9 3fbd
00000010: 3bdf 82bd cccf 4c3e 8bbe e8bd 4f47 783e
00000020: 2cbb f03e c499 153e 2da1 53bd a68b 273e
00000030: 4798 45bc 784b 363d 7164 46be 2e8b abbd
00000040: b074 c1bd 7d5e 72bc 6fa5 b7bd 7e35 ca3b
00000050: 3bf6 883e 2da6 8c3e 1b9a a43e 93f0 3a3e
00000060: 839a b7be 22c8 bebe ebc3 4e3c 756e a9bb
00000070: c18d c4bd 84bb 213e 6d88 78be c33a a33e
00000080: a101 3bbe 483b aabd 8db2 3e3f 7384 083d
00000090: 9a79 36bc 52e6 613e add1 a63e 06ee 72be
000000a0: 5b55 6bbe adac acbd 99ab 9bbd 4592 2e3e
000000b0: f6e2 cabd 3b3d bb3e b8a9 b4bd 9e91 e3bd
000000c0: 8774 c3be bf4a d6bc 4d4e 9abd 1780 babd
000000d0: 6660 933d 03cf 14be 3fc3 00be 7f49 a23d
000000e0: a299 c1bd 5249 453e 333b e93e 6c93 ea3d
000000f0: 9d70 e2bc 48a9 61bd ed99 4bbd 46b4 c23e
0.14063859 0.14880878 -0.08532478 -0.046838205 -0.06390234 0.20001143 -0.11364468 0.24245952
0.470178 0.14609438 -0.05166738 0.16361865 -0.0120602315 0.044505566 -0.19374253 -0.08376156
-0.094460845 -0.014793036 -0.08967101 0.0061709275 0.2675036 0.27470532 0.32148823 0.18255834
-0.3586007 -0.37262064 0.012619953 -0.005170638 -0.0959735 0.15794188 -0.24270792 0.3188077
-0.1826234 -0.08312088 0.74491197 0.03332944 -0.0111373905 0.22060516 0.32581845 -0.23723611
-0.2298178 -0.08431373 -0.07601089 0.17047985 -0.099065706 0.36570153 -0.08821434 -0.11111759
-0.3817484 -0.026158689 -0.07534466 -0.091064624 0.07196121 -0.14532094 -0.1257448 0.079241745
-0.09453131 0.1926625 0.45552978 0.114539 -0.027641589 -0.05509308 -0.049707342 0.38028163

fc4.weight f4 [10, 64]
00000000: c192 e03d 22b2 3f3d 9403 bdbd f51a aebb
00000010: c187 a2bd e4ce ce3d 550b 5b3d 1e75 27bb
00000020: f025 a2bd e927 b23d 375a 06bd 5d00 7bbe
00000030: 95d4 a73d 619f 0b3c 4d88 413d 897d 33be
00000040: d8bc 373d 012a d63d 5acc cebc 401c 5e3d
00000050: 1a99 5bbe 3a42 32be eb7f 603d 302c 1b3e
00000060: 6cfc 923b b2e2 c0bd 056c 4dbd 5a50 ecbd
00000070: 8397 7ebd 9245 a93d f7fa 2abc 3c87 153c
00000080: 3825 3bbd 77bf 6f3d 3960 d5bd f41a f0bd
00000090: 60c8 773d f266 1ebe 9acd 0f3c 8698 af3d
000000a0: 8d70 a3bd 7994 dcbd d03b 19be 011c 38bd
000000b0: a11e 10bb f7dc 373c bc86 3ebe ed9d 393d
000000c0: 6a95 ec3d 4907 9f3c 86d6 92bd d59f eabd
000000d0: fbe3 32bd 5dd6 b53b 705b 33be 11b4 543d
000000e0: d69a 7bbe 62e6 e6be 8205 d73d 850e bf3d
000000f0: ab1a d3bd c975 aabd 033e 81be 3cfd da3d
00000100: 7c72 2abe 2d61 5cbe 3e71 5cbe 24e5 2d3e
00000110: 67ad c23c 4d04 8e3d 4a5c f33d 8392 a5be
00000120: 45de 4dbe b19a 483d 3ed9 a0bd f076 debe
00000130: e4a8 88bd 6537 a33d 4143 533d 7b50 ddbd
00000140: dc01 213e 3d93 a6bd 8db1 16be 8281 893e
00000150: 1bc5 debe d349 99bd ec88 52bc efe8 e43d
00000160: 1f45 2f3d cfe8 62be c09d 8abd eb77 da3d
00000170: 7507 c2bd b1dd 1abe fc4c 923c 4d22 9abe
00000180: 6573 6bbc de7b bf3d 1f28 32be efe4 bbbd
00000190: 8201 143d 5061 65be 3d3e 4dbe 0bdc 12be
000001a0: 2ed8 0ebe f875 163d 4f0b c3bc e7dd 3fbe
000001b0: 64e7 513d 7794 8fbe 21d6 68be 146a 19bd
000001c0: 977e a3be 28a7 1abe cb05 7bbd 8895 2bbe
000001d0: d318 aa3d f18c fc3c b071 0e3d 1f06 c23d
000001e0: 9087 22be 9fa9 13be 714c 983d c634 143e
000001f0: 3eb9 6cbd d5af 283e a8da 1a3e 914c e7bd
00000200: 470a 503d 11ad 393e bdda 7b3c 9268 f03c
00000210: ddb3 13bb 2d5c 493d 469a b1bd fd53 973c
00000220: f53f 34be f913 6ebe 4b6d 91bd 51fd cc3d
00000230: 09dd d5bd 688f f7bd ffa1 cebc 5e63 4e3c
00000240: 9e4e 0ebd e3b8 993d 4939 d8bd d0c4 293d
00000250: cf65 84bf 9de0 b7bd c2f5 1fbe 03f7 9ebd
00000260: c5e8 d7be 1a14 e2be 7d23 04be 9b31 a1bd
00000270: 8181 ed3c d011 08bd 3044 cd3d 7ef1 0a3d
00000280: 0a7f 22bd 0cac a93d d876 15be 5d61 02be
00000290: b731 1ebc 4334 bebc ad8e 52be ffb6 38bd
000002a0: bd27 a1bc 6145 2f3d c765 35be 9290 d7bd
000002b0: 70d5 793d 9f4f fe3d dcc3 f93c 8463 9c3c
000002c0: 3de1 12be 1dc7 613d 1d9f 02bf ba53 1a3d
000002d0: a91a 9dbb c588 dbbd a838 6fbd 965c 393e
000002e0: 7a54 c8bd 28c5 a7be 9db7 5b3d 9af6 2fbe
000002f0: 2980 0cbe 011e 80bd d6a9 e93d fd84 a53d
00000300: 3002 983d 578a b9bb 0158 42be bbf7 a63d
00000310: ada8 733d 0594 21bd 305a 7abd 0e5a a7bc
00000320: 8a1f 93be 1d24 e53c 94bc 8b3d 4782 8fbd
00000330: dd11 0dbd 76be 8f3d 1977 bd3d 6dc6 e13b
00000340: de86 1fbd 29fe cd3d 2b72 3ebc 9004 93bc
00000350: c345 dcbe 0d24 a33d a7ff 393e 39db 633d
00000360: 7e76 b7ba 710e 4dbe 5450 02be 5fdc 163e
00000370: 2d75 35bc 34d1 203e 2b4b 94bc dad6 bbbd
00000380: a7d6 b1bd 21ec 9cbc e394 27be a2c9 1fbe
00000390: 03db 3abd 34a6 ed3c bcb0 e4bd a2a2 15be
000003a0: 4859 a4be c992 663d c0b1 27be a106 85be
000003b0: baec 05be 6cdc 51be caf9 78be 8528 9f3d
000003c0: 86a2 12be 907c 81bd 67a7 66be a24a 30bd
000003d0: 6ec7 bb3d 8ffb 353d c61c cabd 021d b03c
000003e0: 4de8 20be 4841 76be 17f9 043e 40e1 8d3d
000003f0: 6653 893c ba5e 0ebd 8dfd acbc 2721 5d3c
0.10965491 0.04680074 -0.09229198 -0.005313272 -0.07936049 0.10098055 0.053477604 -0.0025551985
-0.07917392 0.086990185 -0.03280088 -0.24511857 0.08194844 0.008521886 0.047249127 -0.17528357
0.04485783 0.1045723 -0.025243927 0.05422616 -0.21445122 -0.17408076 0.054809492 0.15153575
0.0044856574 -0.09418239 -0.050151844 -0.11538763 -0.06215621 0.082652226 -0.010435811 0.009126481
-0.04568979 0.058532204 -0.10418744 -0.11723891 0.060493827 -0.15468958 0.008777047 0.085740134
-0.07980452 -0.107705064 -0.14964223 -0.04494858 -0.0021990913 0.011222116 -0.18606085 0.045316625
0.11551936 0.019412654 -0.07169823 -0.11456267 -0.04367445 0.0055492357 -0.1751535 0.051929537
-0.24570784 -0.45097643 0.104990974 0.09328941 -0.10307821 -0.08323247 -0.25242624 0.10692832
-0.16645235 -0.21521445 -0.21527573 0.16981941 0.023764325 0.06934414 0.11882837 -0.32338342
-0.2010432 0.04897565 -0.07853936 -0.43450117 -0.06672838 0.0796955 0.05157781 -0.10806366
0.15723366 -0.08133552 -0.14716168 0.2685662 -0.43509755 -0.07484784 -0.0128500275 0.11177241
0.04279053 -0.22159122 -0.0676837 0.10667404 -0.094740786 -0.15123631 0.017858975 -0.30104294
-0.014370774 0.09349798 -0.17398117 -0.09174525 0.03613425 -0.22400403 -0.20043273 -0.14341752
-0.13949654 0.036733598 -0.023809103 -0.18736993 0.051246062 -0.28042957 -0.22737934 -0.03745468
-0.31932518 -0.15102828 -0.06128482 -0.1675626 0.08305516 0.030828925 0.03477639 0.09473824
-0.15872025 -0.14420174 0.07436455 0.14473256 -0.05779385 0.16473325 0.15122473 -0.11293901
0.05079105 0.18132426 0.0153719755 0.029346738 -0.0022537627 0.04916017 -0.086720034 0.018472666
-0.17602523 -0.23249806 -0.07100924 0.10009254 -0.1044255 -0.120878994 -0.02522373 0.012596933
-0.034742944 0.075059675 -0.10557801 0.04144746 -1.034357 -0.089783885 -0.15621093 -0.077619575
-0.42169777 -0.4415596 -0.12904163 -0.078707896 0.028992416 -0.033220112 0.10022771 0.03392171
-0.039671935 0.082847685 -0.14596117 -0.12732454 -0.009655408 -0.02321828 -0.20562239 -0.045096394
-0.019672269 0.042790774 -0.17714606 -0.105256215 0.060994565 0.1241753 0.0304889 0.019090421
-0.14343734 0.05512153 -0.5102404 0.037677504 -0.004794438 -0.10719446 -0.05840364 0.18101725
-0.097817376 -0.32767606 0.053641904 -0.17183915 -0.13720764 -0.06255723 0.11409347 0.08082006
0.07422292 -0.0056622433 -0.18978883 0.081527196 0.059487034 -0.039447803 -0.061121166 -0.020428684
-0.28735 0.027971322 0.06823078 -0.0700727 -0.034440864 0.070187494 0.09251232 0.0068901093
-0.03894698 0.10058243 -0.011623899 -0.017946512 -0.43021974 0.079658605 0.1816393 0.05562899
-0.0013997105 -0.2002504 -0.12725955 0.14732502 -0.0110753 0.15704805 -0.01810225 -0.09171839
-0.0868352 -0.019155564 -0.1636539 -0.1560426 -0.045619022 0.029009916 -0.11166522 -0.1461282
-0.32099366 0.05629233 -0.163764 -0.2598162 -0.13078585 -0.2049424 -0.24314037 0.077714
-0.1431981 -0.063225865 -0.22524796 -0.043039925 0.091688976 0.044429358 -0.09868769 0.021498207
-0.15713616 -0.2404834 0.12985645 0.06927729 0.0167634 -0.034758307 -0.021116996 0.013496674

fc4.bias f4 [10]
00000000: 1fdb c9bd f798 eabd 923a 763e 4529 823e
00000010: 610f 93be ddf1 c83e e33a 953e 23db efbd
00000020: 14e8 60be 3a5c 0cbf
-0.09856247 -0.11454957 0.2404578 0.2542211 -0.2872267 0.39247027 0.2914649 -0.11711719
-0.21963531 -0.54828227
