runs/Mar02_17-41-14_cssd901383-Run(lr=0.01, batch_size=128, patience=1)-valid/checkpoint.pt (torch_old, 972387 bytes, 8 tensors)

fc1.weight f4 [256, 784]
0	0x3cae57de	0.021282133
1	0xbb8429f6	-0.0040333224
2	0xbe0e36e2	-0.13888124
3	0xbd5d3149	-0.05400208
4	0xbcf63c41	-0.030058028
5	0xbc0bae80	-0.008525491
6	0x3d1220a8	0.035675675
7	0xbe71f81e	-0.23629805
8	0xbdf51f70	-0.11968887
9	0xbdcae090	-0.09906113
10	0xbd9e26fe	-0.07722281
11	0xbddfad86	-0.10921769
12	0xbd86a817	-0.06575029
13	0xbd9304f6	-0.071786806
14	0xbd4c6afb	-0.049906712
15	0xbda4692d	-0.08027873
16	0xbdfb6992	-0.12275995
17	0xbdf17fe6	-0.11791973
18	0xbe411bb6	-0.18858227
19	0xbe8132ae	-0.25233978
20	0xbe5488b4	-0.20755273
21	0x3d477f92	0.048705645
22	0x3e7de128	0.24792922
23	0x3eb59c9d	0.3547105
24	0x3eb49e7b	0.3527716
25	0x3cf0b71a	0.029384185
26	0x3e1d1488	0.15339863
27	0xbd00ef6b	-0.031478327
28	0x3ce060d6	0.027389925
29	0xbc69b527	-0.0142643815
30	0x3bdf9113	0.006822714
31	0xbdf810f4	-0.121126086
32	0xbda64e40	-0.08120394
33	0xbd4a4f20	-0.049391866
34	0xbe52b594	-0.20577079
35	0xbdef2b50	-0.11678183
36	0xbe057e10	-0.1303637
37	0xbe0a2f5b	-0.13494627
38	0xbe201a4c	-0.15635031
39	0xbdbf32c0	-0.09335852
40	0xbdd93266	-0.10605316
41	0xbe15a210	-0.14612603
42	0xbe0dfd33	-0.13866119
43	0xbe117fa8	-0.14208853
44	0xbe00d688	-0.12581837
45	0xbe19bb27	-0.15012799
46	0xbe30aee6	-0.17254218
47	0xbe5dabe5	-0.21647604
48	0xbe3acb02	-0.18241504
49	0x3d672a84	0.05643703
50	0x3e8f822a	0.28028995
51	0x3e6b4105	0.22974022
52	0x3e78fd71	0.2431543
53	0x3d2f7c87	0.042843368
54	0x3d9f8e1f	0.07790779
55	0xbda9229e	-0.08258556
56	0x3a82916a	0.000996155
57	0xbc44634e	-0.011986567
58	0x3b998a23	0.0046856566
59	0xbe00ec25	-0.12590082
60	0xbd6bf618	-0.05760774
61	0xbe39429b	-0.18091814
62	0xbdf6e1c1	-0.12054778
63	0xbde4a2e0	-0.111638784
64	0xbe0782e3	-0.13233523
65	0xbe2dba44	-0.16965586
66	0xbe1b4765	-0.15163954
67	0xbda501d0	-0.08056986
68	0xbdca1b12	-0.098684445
69	0xbe20e82b	-0.15713565
70	0xbe31922c	-0.17340916
71	0xbe500297	-0.20313488
72	0xbe0c1cfc	-0.13682932
73	0xbdaef835	-0.085434355
74	0xbdf12fe8	-0.117767155
75	0xbe095e4f	-0.13414882
76	0xbd64af10	-0.055831015
77	0x3c28bcfa	0.010298962
78	0x3d59df09	0.05319122
79	0x3dbaf469	0.09128649
80	0x3cc2f06d	0.023796285
81	0xbd0a624e	-0.033785157
82	0x3daadf19	0.08343334
83	0x3d32f550	0.04369098
84	0x3c9137a8	0.017726734
85	0xbd085f67	-0.033294108
86	0x3cc8a6cc	0.024493597
87	0xbce3f0a4	-0.027824707
88	0xbe6d48b3	-0.23172264
89	0xbe06f292	-0.1317847
90	0xbdd43deb	-0.103633724
91	0xbde2b97c	-0.110705346
92	0xbe463749	-0.19357027
93	0xbe1d6296	-0.15369639
94	0xbe10ed74	-0.14153081
95	0xbdd84397	-0.10559767
96	0xbdb2a127	-0.087221436
97	0xbe2edac3	-0.17075638
98	0xbe2a3431	-0.16621472
99	0xbe117e75	-0.14208396
100	0xbe0ffdd5	-0.14061673
101	0xbda58773	-0.080824755
102	0xbd817538	-0.06321186
103	0xbdcf2205	-0.101139106
104	0xbdc38306	-0.09546475
105	0x3b25292f	0.002520155
106	0x3dc7fb45	0.09764723
107	0x3e75746c	0.23970193
108	0x3cb8adfd	0.022543902
109	0xbe1a1dc5	-0.15050419
110	0x3cb38e54	0.021918453
111	0x3e19e128	0.15027297
112	0x3c6bc13e	0.014389334
113	0x3d9574a7	0.0729764
114	0x3cd4fc52	0.025999222
115	0xbde85b3b	-0.11345526
116	0xbe1fe6cd	-0.15615387
117	0xbe3ef99a	-0.18649903
118	0xbe0a6ed6	-0.13518843
119	0xbe10ada3	-0.14128737
120	0xbe27e5d5	-0.16396268
121	0xbdf03ffe	-0.117309555
122	0xbdef173f	-0.11674356
123	0xbdf69a10	-0.12041104
124	0xbe042686	-0.1290532
125	0xbdda627d	-0.106633164
126	0xbe2197aa	-0.15780511
127	0xbe0cf3a4	-0.13764817
128	0xbde26b15	-0.110555805
129	0xbd309237	-0.04310819
130	0x3c8779de	0.016537603
131	0xbe015209	-0.1262895
132	0xbdb27343	-0.08713391
133	0xbb87f1ba	-0.004148689
134	0xb9c6aff4	-0.00037896598
135	0x3e4b6faa	0.19866815
136	0x3da5f0bb	0.08102556
137	0xbc8a8fe4	-0.016914316
138	0x3dd30740	0.10304117
139	0x3ddf69a1	0.10908819
140	0xbd79cf8a	-0.06098894
141	0xbd4f81da	-0.050660945
142	0xbd4567ba	-0.048194624
143	0xbe208001	-0.1567383
144	0xbe358b7c	-0.1772899
145	0xbe43c455	-0.19117863
146	0xbe1d9675	-0.15389426
147	0xbe1b4b40	-0.15165424
148	0xbe1afedb	-0.15136282
149	0xbe2d67a3	-0.16934066
150	0xbd8d0ea2	-0.068875566
151	0xbda54328	-0.0806945
152	0xbdeba2db	-0.115056716
153	0xbd94f6ab	-0.07273611
154	0xbde40739	-0.1113419
155	0xbd6d841b	-0.057987314
156	0xbe118514	-0.14210922
157	0xbe0d423b	-0.13794796
158	0xbdc6b3d0	-0.09702265
159	0xbe08f83d	-0.13375945
160	0xbde7a08a	-0.11309917
161	0xbcde5d35	-0.027144054
162	0xbb1a3052	-0.0023527336
163	0x3d6281ca	0.055299558
164	0x3da070eb	0.078340374
165	0xbd341595	-0.043965895
166	0xbcf6f64c	-0.03014674
167	0x3e3d8ba2	0.18510297
168	0x3d155bac	0.03646438
169	0x3c12c3fa	0.008957857
170	0xbda2fe53	-0.07958665
171	0xbe1aade8	-0.15105402
172	0xbdf6b10f	-0.1204549
173	0xbe27e802	-0.16397098
174	0xbe452817	-0.19253574
175	0xbe235b03	-0.15952687
176	0xbe1867a0	-0.1488328
177	0xbdc1b625	-0.094585694
178	0xbe00a517	-0.12562977
179	0xbdf8b40c	-0.12143716
180	0xbe1794ab	-0.14802806
181	0xbd370779	-0.04468486
182	0xbd85b267	-0.06528168
183	0xbe0789dd	-0.13236184
184	0xbe3ce302	-0.18445972
185	0xbe25580b	-0.16146867
186	0xbda3eeb0	-0.080045104
187	0xbd949226	-0.07254438
188	0xbdd9d3e8	-0.10636121
189	0xbda9ed6d	-0.082972385
190	0xbc8cf018	-0.01720433
191	0x3c7026fe	0.014657734
192	0xbc428343	-0.011872116
193	0xbd78f0c4	-0.060776487
194	0xbd7e1136	-0.062028132
195	0x3d39d09f	0.045364972
196	0x3d480872	0.04883618
197	0x3b9514f8	0.004549619
198	0xbdc307b6	-0.09522955
199	0xbdd682e1	-0.10474182
200	0xbe120936	-0.14261326
201	0xbe49fdf6	-0.19725785
202	0xbe552c18	-0.20817602
203	0xbe393815	-0.180878
204	0xbe460ba1	-0.19340374
205	0xbe1b3b92	-0.15159443
206	0xbe042ab9	-0.12906922
207	0xbdefd1a0	-0.11709905
208	0xbd8ffdd1	-0.070308335
209	0xbd73f144	-0.05955626
210	0xbd955af3	-0.07292738
211	0xbdf3638b	-0.11884221
212	0xbe44141d	-0.19148298
213	0xbe18ef73	-0.14935093
214	0xbdb17b09	-0.08666045
215	0xbd6da34b	-0.058017056
216	0xbd8b3d9f	-0.06798863
217	0xbd8eb441	-0.069679745
218	0xbdc50118	-0.09619349
219	0xbcb8cbf8	-0.022558197
220	0xbad54bff	-0.0016273259
221	0xbdfa6853	-0.122269295
222	0xbd91d7b0	-0.07121217
223	0x3d80f249	0.06296212
224	0xbb402df0	-0.0029324256
225	0xbd1ec92c	-0.03876607
226	0xbdf27251	-0.118382104
227	0xbe0d952e	-0.13826439
228	0xbe60d730	-0.21957088
229	0xbe59abf1	-0.21256997
230	0xbe3213d8	-0.17390382
231	0xbe418227	-0.18897305
232	0xbe26bf2b	-0.16283862
233	0xbe04ec65	-0.12980802
234	0xbdc12018	-0.094299495
235	0xbdbf2cc0	-0.09334707
236	0xbd894191	-0.06701959
237	0xbd02ac49	-0.031902585
238	0xbc728c0f	-0.0148039
239	0xbd1941ce	-0.037416272
240	0xbde24559	-0.11048383
241	0xbd74db66	-0.059779547
242	0xbd4b5fbb	-0.049651843
243	0xbc684305	-0.014176135
244	0xbda25a5a	-0.079273894
245	0xbd873c67	-0.06603318
246	0xbd45eccf	-0.04832154
247	0xbcec0f0a	-0.028815765
248	0xbccff765	-0.025386522
249	0xbd403924	-0.046929494
250	0x3d4034aa	0.046925224
251	0x3e48050e	0.19533178
252	0xbd731fab	-0.059356373
253	0xbda85485	-0.08219246
254	0xbe183528	-0.14864028
255	0xbe702df7	-0.23455034

fc1.bias f4 [256]
0	0x3e8bf5a4	0.27335846
1	0xbc9299f3	-0.017895674
2	0xbdcdd32c	-0.100500435
3	0xbdc33666	-0.0953186
4	0xbda087ce	-0.07838403
5	0xbe4ce1bc	-0.20007986
6	0x3e7704a8	0.2412287
7	0x3b3bb219	0.002864009
8	0xbcba3df3	-0.022734618
9	0xbdd08719	-0.10182018
10	0xbd84e0af	-0.064881675
11	0xbd87ada2	-0.06624915
12	0x3d1372fe	0.035998337
13	0xbe16a511	-0.14711405
14	0xbd1bcbe0	-0.038036227
15	0xbd87c2ec	-0.06628975
16	0xbda05d2b	-0.078302704
17	0x3de31958	0.11088818
18	0xbdc3bb45	-0.09557203
19	0xbdad0ec6	-0.084500834
20	0xbd64cc5c	-0.055858955
21	0xbd745335	-0.059649665
22	0xbe8e3be8	-0.2778008
23	0xbda7bf27	-0.08190756
24	0xbd3019cd	-0.042993356
25	0x3e35b3e0	0.17744398
26	0xbd6dd5d7	-0.05806526
27	0xbd752ab7	-0.05985519
28	0xbe3f2a2d	-0.18668433
29	0xbe8deae4	-0.2771827
30	0xbd302935	-0.043008048
31	0xbdedf091	-0.1161815
32	0xbdc7644f	-0.09735929
33	0x3e509d76	0.20372567
34	0xbdc044b7	-0.09388106
35	0xbd83144b	-0.06400355
36	0xbdab0a01	-0.083515175
37	0x3d504163	0.050843608
38	0xbd1249dd	-0.035714973
39	0xbe0b9b96	-0.1363357
40	0x3ec4d7e2	0.38445956
41	0xbd8e3f57	-0.06945675
42	0xbd7b9f69	-0.061431322
43	0xbdac3a76	-0.08409588
44	0xbd821937	-0.063524656
45	0x3eccbe9a	0.39989167
46	0xbcba5a0a	-0.022748012
47	0xbd0e77ef	-0.034782346
48	0x3d6fae1f	0.058515664
49	0xbef0cd93	-0.4703184
50	0xbc9ac78c	-0.01889398
51	0x3c3be3eb	0.011467914
52	0xbd7cfbd7	-0.06176361
53	0xbe91ef76	-0.28503007
54	0xbd03ebbc	-0.032207236
55	0xbd0f3056	-0.034958206
56	0xbe2daf12	-0.16961315
57	0xbd59cd8d	-0.053174544
58	0xbd28e8d4	-0.041237667
59	0xbd598b89	-0.053111587
60	0xbcdcd60e	-0.026957538
61	0x3e97752a	0.29581577
62	0x3e8d6da8	0.27622724
63	0xbdb7a1c5	-0.08966402
64	0xbd21e932	-0.039529033
65	0xbdc64d4c	-0.09682712
66	0xbda1fc0b	-0.079094015
67	0xbd33334a	-0.043750085
68	0xbdf35cb2	-0.118829146
69	0x3e85c589	0.2612727
70	0x3b7371bc	0.0037146648
71	0xbe263a82	-0.16233256
72	0x3d82f184	0.06393722
73	0x3e934ad3	0.28768024
74	0x3c502530	0.012704179
75	0xbd9eb24d	-0.07748852
76	0xbdb4108b	-0.08792218
77	0xbd19e88b	-0.037575286
78	0x3e1eadab	0.15495937
79	0xbdaabd13	-0.08336844
80	0x3ea57330	0.32314444
81	0xbdbbdfee	-0.091735706
82	0xbd8f8d12	-0.07009329
83	0xbd457484	-0.04820682
84	0xbde2c8ec	-0.11073479
85	0x3d060386	0.032718204
86	0xbd16c0f8	-0.036805123
87	0xbdf9e03d	-0.12200973
88	0xbe2ecbe3	-0.17069964
89	0xbd3e2f07	-0.046431568
90	0x3dd8bf8c	0.1058341
91	0x3e9f2a68	0.3108704
92	0xbd8671fa	-0.06564708
93	0xbf13d902	-0.57753
94	0xbd4cb112	-0.049973555
95	0x3e9f2624	0.31083786
96	0x3e5ea652	0.21743134
97	0xbdb5fe6e	-0.08886419
98	0x39f2736a	0.00046243827
99	0xbc9a3850	-0.01882568
100	0xbd380f34	-0.044936374
101	0xbc8a311f	-0.016869126
102	0x3c17dcc8	0.009268947
103	0x3e4d1e69	0.20031132
104	0x3ddb4b0a	0.10707672
105	0x3eb39222	0.35072428
106	0xb9affccb	-0.00033566947
107	0xbd5cd456	-0.053913437
108	0xbd9ff359	-0.07810087
109	0x3d4befe4	0.049789324
110	0x3e872900	0.26398468
111	0xbdaf869d	-0.08570597
112	0xbdda7ee7	-0.10668736
113	0xbe5246e7	-0.2053486
114	0xbcc57f41	-0.024108531
115	0xbd8d3fb2	-0.068969145
116	0xbe38b3dc	-0.18037361
117	0xbd98acb1	-0.07454813
118	0xbd6b6b84	-0.05747558
119	0xbdf44dc8	-0.11928898
120	0xbd57e009	-0.05270389
121	0x3e49363b	0.19649594
122	0xbec04772	-0.37554508
123	0x3ed718e7	0.42011186
124	0xbe5d0474	-0.2158373
125	0xbd952171	-0.07281769
126	0xbddad83b	-0.10685774
127	0x3e58b4e5	0.21162756
128	0xbdbf40e8	-0.09338552
129	0xbd8fa2d0	-0.07013476
130	0xbea452b6	-0.32094353
131	0x3e822a07	0.2542269
132	0x3dd9b450	0.10630095
133	0xbda7e7d3	-0.08198514
134	0xbcd43013	-0.02590183
135	0xbd8ab533	-0.06772842
136	0xbce7dc16	-0.028303187
137	0xbcdc5698	-0.02689676
138	0xbf0dc8f7	-0.55384773
139	0xbee4a628	-0.44658017
140	0x3dac50c4	0.08413842
141	0x3c9ce0a8	0.019150093
142	0xbdb37bdb	-0.08763858
143	0x3edc6e2b	0.430528
144	0xbcd3909c	-0.025825791
145	0xbe1b6b7b	-0.1517772
146	0x3dd57bb6	0.104239866
147	0xbd9db9f5	-0.07701484
148	0x3d95e422	0.073189035
149	0xbda7ce86	-0.08193688
150	0xbdb65295	-0.0890247
151	0xbd030fdd	-0.03199755
152	0xbd8dca31	-0.069233306
153	0xbeb1c8ba	-0.34723455
154	0x3ed34767	0.41265413
155	0xbe1386e4	-0.14406925
156	0x3ecff79b	0.40618595
157	0xbd16a5c7	-0.03677919
158	0xbe74b02e	-0.23895332
159	0x3e3feffa	0.18743888
160	0xbcb7772f	-0.022395698
161	0xbda28a60	-0.07936549
162	0x3f10368d	0.5633324
163	0xbda79d88	-0.081843436
164	0xbe599c17	-0.2125095
165	0xbd1a87f6	-0.03772732
166	0xbd968e42	-0.07351352
167	0x3e648b75	0.22318824
168	0xbdbb15e3	-0.09135034
169	0x3bfef6b2	0.007780873
170	0xbee477d2	-0.44622666
171	0x3f1e5f13	0.6186382
172	0xbef158b8	-0.47138
173	0xbd9f89a7	-0.07789927
174	0x3e8bc38a	0.27297622
175	0xbdabd05f	-0.08389353
176	0xbd0a45da	-0.033758022
177	0x3ef2ed69	0.47446755
178	0xbe8a0274	-0.26954997
179	0xbdd15591	-0.102213986
180	0x3cde8a75	0.02716563
181	0x3ecdaf0b	0.4017261
182	0x3e68c7dc	0.2273249
183	0x3e903f66	0.2817337
184	0xbe4c797a	-0.19968215
185	0x3e07ad1b	0.13249628
186	0xbd7accec	-0.061230585
187	0xbedc2fec	-0.4300531
188	0x3e3c0766	0.18362197
189	0xbe1753af	-0.14778017
190	0xbdca1474	-0.098671824
191	0xbe59a795	-0.21255334
192	0xbdc4935a	-0.095984176
193	0x3ebc110d	0.3673176
194	0xbd8d5b14	-0.069021374
195	0x3f0c1be1	0.5473004
196	0xbdb504ad	-0.088387825
197	0xbe28f9be	-0.16501519
198	0xbdc66ca9	-0.09688694
199	0x3dfde546	0.12397246
200	0xbdde3c81	-0.10851384
201	0xbcc30e16	-0.023810428
202	0x3e5b43df	0.2141261
203	0xbc97df51	-0.018539103
204	0xbd332df1	-0.043744985
205	0xbe86af88	-0.26305795
206	0xbdc08041	-0.093994625
207	0xbdcde077	-0.10052579
208	0xbda17a10	-0.0788461
209	0xbd0d195f	-0.034448024
210	0x3ed727e6	0.42022628
211	0xbdb3b407	-0.08774572
212	0x3edaf45e	0.42764562
213	0xbb27bf3f	-0.002559617
214	0x3efb8468	0.49124455
215	0xbdba3153	-0.09091439
216	0x3ddc2712	0.107496396
217	0xbd98da0d	-0.07463465
218	0x3dc1db93	0.094657086
219	0x3edb27fb	0.4280394
220	0x3d918cc6	0.071069285
221	0xbcd95534	-0.026529886
222	0xbd7ebde1	-0.0621928
223	0xbe6fe919	-0.23428763
224	0xbd59257a	-0.053014256
225	0xbdc04795	-0.09388653
226	0xbd7d2491	-0.06180245
227	0x3e841a98	0.2580154
228	0xbdbd5078	-0.09243864
229	0xbcda6539	-0.026659595
230	0xbdffda21	-0.12492777
231	0xbd31d9e2	-0.04342068
232	0xbc36e7e7	-0.011163688
233	0x3e807aaa	0.25093585
234	0xbe4e6a6d	-0.20157786
235	0x3d4026e7	0.0469121
236	0xbd67d39c	-0.05659829
237	0xbd267bd1	-0.040645424
238	0xbd030e2c	-0.031995937
239	0xbcdd7524	-0.027033396
240	0xbc794636	-0.0152144935
241	0x3e3aaf87	0.18231021
242	0x3ecc2ec3	0.39879426
243	0x3cde0a08	0.027104393
244	0x3b4c59f3	0.0031181544
245	0x3deccf50	0.11562979
246	0x3de03479	0.10947508
247	0xbd9578ec	-0.07298455
248	0x3e2b1b07	0.16709529
249	0x3f1fb7e2	0.6238996
250	0xbd64de95	-0.055876333
251	0xbd68bb01	-0.056818966
252	0x3eb939fe	0.36177057
253	0xbd686d22	-0.056744702
254	0xbee93009	-0.4554446
255	0xbd81f504	-0.06345561

fc2.weight f4 [128, 256]
0	0xbdbcf127	-0.09225684
1	0x3d44e84c	0.048073098
2	0x3d256cfb	0.040387135
3	0xbd9e796b	-0.077380024
4	0x3d2e52c6	0.042559408
5	0xbd9f6b2f	-0.077841155
6	0xbb598ebe	-0.0033196653
7	0xbd2e8da5	-0.04261555
8	0xbcc512e2	-0.024056856
9	0xbc127400	-0.008938789
10	0xbddaef22	-0.10690142
11	0xbd07131f	-0.03297722
12	0x3d039a1f	0.032129403
13	0x3d031170	0.03199905
14	0xbca92e5a	-0.020651985
15	0xbafb875f	-0.0019190124
16	0x3db12cb8	0.086511075
17	0x3cd764b0	0.026293129
18	0x3b046dad	0.0020206973
19	0xbdab0e9c	-0.08352396
20	0xbdc800fe	-0.09765814
21	0xbced30b6	-0.028953891
22	0xbd521b8a	-0.051295795
23	0x3cf0f47c	0.029413454
24	0x3c35a4f1	0.011086688
25	0x3d83fe42	0.0644498
26	0x3cbd7d67	0.023131086
27	0x3cfc23d2	0.0307788
28	0xbcbcfb54	-0.023069061
29	0x3cfa4235	0.030549148
30	0x3b88e34d	0.004177487
31	0xbe34b215	-0.17646058
32	0x3d8f3c16	0.06993882
33	0x3d3d495a	0.04621253
34	0x3d064248	0.032778054
35	0xbd0b8ab6	-0.034067832
36	0xbd850e33	-0.06496849
37	0x3dabb311	0.083837636
38	0x3d71d174	0.05903764
39	0x3cb0bdb0	0.021574825
40	0xbe1985a8	-0.14992392
41	0x3b74ee3a	0.003737344
42	0x3deb640d	0.114936925
43	0x3d770fb2	0.060317703
44	0xbd95224a	-0.07281931
45	0x3cc25414	0.023721732
46	0xbd3d06f6	-0.046149217
47	0x3deb100a	0.114776686
48	0x3d453086	0.04814198
49	0xbe3bc655	-0.18337376
50	0xbd59e930	-0.0532009
51	0xbd51dd34	-0.051236346
52	0xbcb8e446	-0.022569787
53	0xbd8b65b9	-0.068065114
54	0x3c4f60c0	0.012657344
55	0x3e0acfa6	0.13555774
56	0xbd0d9819	-0.03456888
57	0x3dcd1afb	0.10014912
58	0x3cab156f	0.020884244
59	0xbc9791bc	-0.018502109
60	0xbdd9be82	-0.106320396
61	0xbdfebd2b	-0.12438425
62	0xbc18a1a3	-0.009315881
63	0x3d4363a3	0.047702443
64	0x3dae6cbd	0.08516834
65	0x3d4b1602	0.049581535
66	0xbce2d4b0	-0.027689308
67	0xbbb3bacb	-0.005484914
68	0x3ddff07b	0.1093454
69	0xbd502d92	-0.05082471
70	0xbd4d7444	-0.050159708
71	0x3cdcd759	0.026958155
72	0xbbf11359	-0.0073570427
73	0xbbc64497	-0.006050657
74	0xbd22f4a1	-0.039784078
75	0x3da4dcc1	0.08049918
76	0xbd359d58	-0.044339508
77	0xbd47126e	-0.04860156
78	0xbbf4a356	-0.00746576
79	0xbc03e29d	-0.008049634
80	0xbcbd6445	-0.023119101
81	0x3dae7336	0.085180685
82	0xbe0886bd	-0.13332649
83	0x3d9279cc	0.07152137
84	0xbd389ba5	-0.04507031
85	0x3da727e8	0.081619084
86	0x3d18123d	0.03712677
87	0xbd13adc5	-0.03605439
88	0xbce7c20a	-0.028290767
89	0x3d5926e9	0.053015623
90	0xbc7e7746	-0.015531367
91	0x3d85230c	0.06500825
92	0x3d323685	0.043509025
93	0xbe0ffc1c	-0.14061016
94	0xbcac1348	-0.021005288
95	0xbe7c965e	-0.24666736
96	0x3e63148e	0.2217581
97	0x3d2b7678	0.041861027
98	0xbe080d33	-0.13286285
99	0x3c568368	0.013092853
100	0x3d19b541	0.037526373
101	0x3dcb9eea	0.0994242
102	0xbdf14e9a	-0.1178257
103	0x3d421080	0.047379017
104	0x3c7963a5	0.015221511
105	0xbe7f6f70	-0.24944854
106	0x3c626bcb	0.013819645
107	0x3dd10023	0.10205104
108	0xbc63c5d8	-0.01390215
109	0xbba8171a	-0.005129707
110	0xbd871b64	-0.06597021
111	0x3dd4f658	0.10398549
112	0x3d7bc06a	0.061462797
113	0xbc82a261	-0.015946569
114	0x3d3ba329	0.0458099
115	0xbda58c0b	-0.08083352
116	0xbd7668bf	-0.060158487
117	0x3d005a93	0.03133638
118	0x3cd90362	0.02649087
119	0x3c93775d	0.018001253
120	0xbdc3fe88	-0.09570032
121	0x3c6cdd61	0.014457078
122	0xbc9a9ba7	-0.018873049
123	0x3d0b2db8	0.033979148
124	0x3d9d8c2a	0.0769275
125	0xbceaca5f	-0.028660951
126	0x3dc19060	0.094513655
127	0xbdd12181	-0.102114685
128	0x3dac7e46	0.08422522
129	0xbcc8f080	-0.024528742
130	0xbd678b53	-0.056529354
131	0x3cf601dd	0.030030185
132	0x3d2cf9b4	0.042230323
133	0x3c9d31d3	0.019188797
134	0xbb31e228	-0.0027142856
135	0x3bbf78a7	0.0058432403
136	0xbdb48e35	-0.08816186
137	0x3cc19795	0.02363185
138	0xbd7bc45a	-0.061466552
139	0x3c28f603	0.01031256
140	0xbb10f358	-0.00221177
141	0xbd32cd74	-0.043652967
142	0x3ba117ad	0.0049161525
143	0xbd575fc5	-0.052581567
144	0xbcf45c55	-0.029829184
145	0xbc6d7bda	-0.014494861
146	0x3cda7fbd	0.026672238
147	0xbc9e5044	-0.019325383
148	0xbd353ffd	-0.044250477
149	0x3d00c1cf	0.03143483
150	0x3d8b09aa	0.06788953
151	0x3d953ed5	0.07287375
152	0xbd7e5217	-0.062090006
153	0xbcc9d811	-0.024639161
154	0xbe521158	-0.20514429
155	0xbcbf0066	-0.02331562
156	0xbde08c27	-0.10964232
157	0xbd9e50f4	-0.07730284
158	0xbda6490f	-0.081194036
159	0xbe0c1f70	-0.13683867
160	0xbbadb0d5	-0.005300621
161	0x3cd7a806	0.026325237
162	0xbdbc91bb	-0.092074834
163	0x3d7e7f60	0.062133193
164	0xbdd087ff	-0.10182189
165	0x3b8036c8	0.0039127804
166	0x3ce890e0	0.028389394
167	0x3d005aa4	0.03133644
168	0xbd8a12cf	-0.06741869
169	0xbde18e9c	-0.11013529
170	0xbdf09aca	-0.11748274
171	0x3da81537	0.082071714
172	0xbd9212de	-0.07132505
173	0x3d942eb3	0.0723547
174	0xbc55b29a	-0.01304307
175	0xbd0ecd1e	-0.034863584
176	0x3cccc656	0.024996918
177	0xbd5c228b	-0.05374388
178	0xbdca997e	-0.098925576
179	0x3db9f7ed	0.09080491
180	0xbdda924b	-0.106724344
181	0x3d72dd8a	0.059293307
182	0x3d443f62	0.04791201
183	0xbdf77c2d	-0.120842315
184	0xbd944ad7	-0.07240837
185	0x3d80de00	0.06292343
186	0xbbd1602c	-0.0063896384
187	0xbe5108f8	-0.20413578
188	0x3c4722f7	0.012154332
189	0x3cd70773	0.02624867
190	0x3cf21630	0.029551595
191	0x3cbdccab	0.023168882
192	0x3c927dde	0.017882284
193	0xbdc2b619	-0.095073886
194	0xbda685a7	-0.08130961
195	0xbac67e48	-0.0015143836
196	0x3d549717	0.051901903
197	0xbd85949d	-0.06522486
198	0x3d51adea	0.051191248
199	0xbd480bc9	-0.048839364
200	0x3d8b3696	0.06797521
201	0xbdbd92fc	-0.09256551
202	0xbe6647c3	-0.22488312
203	0xbd5e1d40	-0.054227114
204	0xbbc75d37	-0.00608411
205	0x3d1fec79	0.039043877
206	0x3d5a74c2	0.053334005
207	0xbb51cca2	-0.003201284
208	0xbd01034c	-0.031497285
209	0x3e54f544	0.20796686
210	0xbda83cbf	-0.082147114
211	0x3d961e66	0.07330017
212	0x3d33fa90	0.043940127
213	0xbc90ee8e	-0.017691877
214	0xbd230d10	-0.03980738
215	0x3c99d836	0.018779855
216	0x3cb9437d	0.022615189
217	0x3c588afb	0.013216729
218	0xbc29f361	-0.010372967
219	0x3ae1f9d7	0.0017240596
220	0xbd8c90d5	-0.06863562
221	0x3d6419a1	0.055688504
222	0x3ca52e8e	0.0201638
223	0xbdd0722c	-0.101780266
224	0xbda383a3	-0.07984092
225	0x3b829d62	0.0039860466
226	0x3da53e40	0.08068514
227	0x3d269eee	0.04067891
228	0x3d693b29	0.056941185
229	0x3c8db936	0.01730023
230	0x3d454ffc	0.048171982
231	0x3cf16194	0.029465474
232	0xbc90c8b3	-0.017673826
233	0xbd777193	-0.060411047
234	0x3ba11eda	0.004917008
235	0xbd008639	-0.031378005
236	0xbd0ceb00	-0.0344038
237	0xbd335500	-0.043782234
238	0x3b41cadb	0.0029570374
239	0xbd82621d	-0.0636637
240	0x3caf79ba	0.021420348
241	0x3d131065	0.035904307
242	0xbccb1600	-0.024790764
243	0xbd99ed6c	-0.07515988
244	0x3ce89b06	0.028394233
245	0x3b4005ae	0.002930026
246	0xbd02a49b	-0.03189526
247	0x3a322d74	0.0006796934
248	0x3d76715c	0.0601667
249	0xbc4d78d3	-0.012541014
250	0x3d1b7254	0.03795083
251	0x3d02cd31	0.031933967
252	0xbe29679f	-0.16543435
253	0xbcaea795	-0.021320144
254	0x3cf725cd	0.030169392
255	0x3d0a7cb1	0.03381032

fc2.bias f4 [128]
0	0x3c8789c4	0.016545184
1	0xbe769bee	-0.2408292
2	0x3e083db9	0.13304795
3	0xbdb2058b	-0.086924635
4	0x3e8497fd	0.25897208
5	0xbc7eef09	-0.01555992
6	0x39e88aea	0.00044353987
7	0xbdc79392	-0.09744944
8	0x3e5f2e7e	0.21795079
9	0xbd369aa4	-0.04458107
10	0xbe1ba1e3	-0.15198474
11	0xbe71b354	-0.23603565
12	0x3f0399fb	0.5140683
13	0x3f27d5b4	0.6556046
14	0xbdbe6d76	-0.09298222
15	0x3e8cde96	0.2751357
16	0x3eae97af	0.341001
17	0x3c2ba415	0.010476132
18	0x3f01ff49	0.5078016
19	0xbbb4c6a7	-0.0055168453
20	0xbdb9663b	-0.09052702
21	0x3e405fe2	0.18786576
22	0x3d676e68	0.056501776
23	0x3f09c2d6	0.5381292
24	0x3ef446cc	0.47710264
25	0x3e510e57	0.20415626
26	0xbe0e7593	-0.13912039
27	0xbe1d6d6c	-0.15373772
28	0xbe8b64e5	-0.27225414
29	0x3d6c53de	0.05769717
30	0xbda8264b	-0.08210429
31	0xbc101c3e	-0.008795796
32	0xbe383ae3	-0.17991214
33	0x3f00dd67	0.50337833
34	0x3e8af24a	0.27137977
35	0x3e8b0c23	0.27157697
36	0x3f27b92d	0.6551693
37	0x3d1760dd	0.03695761
38	0x3e9615ef	0.2931361
39	0x3da16380	0.07880306
40	0x3ec57e4f	0.38572928
41	0xbe93612f	-0.28785083
42	0x3e577f4e	0.21044657
43	0x3da62eb8	0.0811438
44	0x3e8d6fb4	0.27624285
45	0xbe3942f3	-0.18091945
46	0xbeb7f273	-0.35927162
47	0xbe827838	-0.25482345
48	0xbea50ea5	-0.32237735
49	0xbdcb0be7	-0.099143796
50	0xbc4e58c1	-0.012594403
51	0xbdb1650d	-0.08661852
52	0xbd3a210a	-0.045441665
53	0xbe592cdc	-0.21208519
54	0xbe876dde	-0.2645101
55	0xbd7499b2	-0.059716888
56	0xba1bee2a	-0.000594827
57	0xbef0a51a	-0.47000962
58	0xbe23ff7d	-0.1601543
59	0xbe83890e	-0.25690502
60	0x3d4b8a9c	0.049692735
61	0x3e8b4f92	0.27209145
62	0x3ef4b302	0.47792822
63	0x3ea6fa37	0.32612774
64	0xbd8f736c	-0.07004437
65	0x3ec4d54d	0.38443986
66	0xbdbe6f5c	-0.09298584
67	0xbd205547	-0.039143827
68	0xbd534678	-0.051580876
69	0x3d71c0fc	0.059021935
70	0x3d496c30	0.04917544
71	0xbd93a266	-0.072087094
72	0xbd8e569e	-0.06950115
73	0x3e1db312	0.15400341
74	0x3f0fb995	0.5614255
75	0xbe4ffe5c	-0.20311874
76	0x3ed7f0aa	0.421758
77	0xbdd08370	-0.1018132
78	0xbe07c9e6	-0.13260612
79	0x3f124036	0.5712923
80	0x3e8f7992	0.28022438
81	0x3edbb523	0.42911634
82	0xbda0ab5c	-0.07845184
83	0xbd7ae7db	-0.06125627
84	0x3f0710b4	0.5275986
85	0xbe9488f5	-0.2901074
86	0xbe0f5a7a	-0.13999358
87	0xbe7bd10a	-0.24591461
88	0xbe116aac	-0.14200848
89	0xbe3f4ba2	-0.18681195
90	0xbd9ff1d5	-0.07809798
91	0xbe80ea20	-0.25178623
92	0xbe1121c3	-0.14173035
93	0x3ca22424	0.019792624
94	0x3e39076e	0.1806924
95	0xbdf7329e	-0.12070201
96	0xbe65861b	-0.22414438
97	0x3dd3a674	0.10334483
98	0xbe8af688	-0.27141213
99	0x3e72448d	0.23658963
100	0x3c6876e6	0.014188504
101	0xbd838654	-0.064221054
102	0xbca58971	-0.020207139
103	0x3e266d62	0.16252664
104	0xbc8082cc	-0.015687369
105	0xbe593f26	-0.21215495
106	0xbd168732	-0.036750026
107	0xbdd317a3	-0.10307243
108	0xbe5fdd3f	-0.21861742
109	0xbd62f4af	-0.05540913
110	0xbd81868e	-0.063244924
111	0x3e1a7c0e	0.15086386
112	0x3ea7e4b6	0.3279168
113	0xbd8a1465	-0.06742171
114	0x3e14e790	0.14541459
115	0xbd2e7235	-0.042589385
116	0xbdd57b00	-0.10423851
117	0xbd1f6a6a	-0.038919844
118	0xbceadd10	-0.028669864
119	0xbc731347	-0.014836139
120	0xbed2d20a	-0.41175872
121	0xbe08a367	-0.13343583
122	0xbf0c62b2	-0.548381
123	0xbdc2ff6b	-0.09521373
124	0x3db9343d	0.09043167
125	0x3e0968af	0.1341884
126	0xbdb663a6	-0.08905725
127	0xbdccc870	-0.09999168

fc3.weight f4 [64, 128]
0	0x3d7f4c84	0.06232883
1	0x3d84fee3	0.06493928
2	0x3cd56dee	0.026053395
3	0x3d0a8f1a	0.03382788
4	0xbdff7da1	-0.12475134
5	0xbe226518	-0.15858877
6	0x3ddde036	0.108337805
7	0x3c00eae1	0.0078684995
8	0x3e50f268	0.2040497
9	0x3cdd136e	0.026986804
10	0x3dabfc5e	0.083977446
11	0x3dffe705	0.12495235
12	0x3d6b18fa	0.057396866
13	0xbd195c6f	-0.037441667
14	0x3e156d5d	0.145925
15	0xbd9bb2e1	-0.07602478
16	0xbe07937f	-0.13239859
17	0xbcd75cab	-0.026289305
18	0x3e254fe5	0.16143759
19	0x3ce5d812	0.028057132
20	0x3d27c95f	0.040963527
21	0x3ca031d7	0.019555015
22	0xbd87f13d	-0.066378094
23	0xbd252fa9	-0.040328655
24	0x3d2e24ba	0.042515494
25	0xbc92dc26	-0.01792724
26	0xbc70f69d	-0.014707235
27	0xbdb38294	-0.0876514
28	0xbca3c599	-0.019991683
29	0x3e2809c6	0.16409978
30	0x3ca097c2	0.019603614
31	0x3ddbc738	0.10731357
32	0x3db14d16	0.08657281
33	0xbe03d675	-0.12874778
34	0x3dbf9071	0.09353722
35	0x3ddc4c6b	0.10756763
36	0x3e0b635c	0.13612121
37	0xbe084825	-0.13308771
38	0xbd34c883	-0.044136535
39	0xbda37c7f	-0.0798273
40	0xbcc82844	-0.024433263
41	0xbe3ed5d9	-0.18636264
42	0xbe837511	-0.25675252
43	0xbd9f5978	-0.07780737
44	0xbafa2b13	-0.0019086323
45	0xbcda8d95	-0.02667884
46	0xbe668322	-0.2251096
47	0xbb9b45a4	-0.0047385264
48	0x3d9933f0	0.074806094
49	0xbd840ef5	-0.06448165
50	0xbdcca925	-0.09993199
51	0xbd573e3b	-0.052549582
52	0x3c666923	0.0140631525
53	0x3c9fa90c	0.019489788
54	0xbe8ab28e	-0.2708935
55	0x3e0f6f54	0.14007312
56	0x3dccf40f	0.10007488
57	0xbd8c0b23	-0.06838062
58	0x3da4baf7	0.08043473
59	0xbdea151b	-0.11429807
60	0xbd3e7e4e	-0.046507172
61	0xbe12f324	-0.14350563
62	0x3c2cf691	0.010556833
63	0xbb86a58a	-0.0041090893
64	0x3b7e1ee0	0.0038775727
65	0xbda794a4	-0.08182648
66	0xbe0ae90c	-0.13565463
67	0xbd5325dc	-0.051549777
68	0xbdff808f	-0.124756925
69	0xbdc25b00	-0.09490013
70	0x3e30c7a2	0.17263654
71	0xbd9e6adf	-0.07735228
72	0x3dd99d54	0.10625711
73	0xbd83e468	-0.064400494
74	0x3e07feb6	0.13280758
75	0x3ceb1000	0.028694153
76	0x3dde239e	0.10846637
77	0xbc57b530	-0.013165757
78	0x3c1dfff4	0.0096435435
79	0x3d22ab70	0.039714277
80	0xbcdfb8e1	-0.027309837
81	0xbe13761a	-0.14400521
82	0x3e0abf09	0.13549437
83	0xbde45c71	-0.11150444
84	0x3d48fc38	0.04906866
85	0xbbdc0811	-0.006714829
86	0xbd282e13	-0.041059565
87	0x3dd1e330	0.10248411
88	0x3debbf00	0.1151104
89	0x3ca269e4	0.019825883
90	0xbd5ae26d	-0.053438593
91	0xbd0a86c4	-0.03381993
92	0x3e3971ac	0.18109769
93	0xbd4d822c	-0.05017297
94	0x3d6f76e9	0.05846301
95	0xbd7f81cb	-0.06237964
96	0xbe003c11	-0.12522914
97	0x3d0ac89f	0.033882733
98	0x3df18122	0.11792208
99	0xbd92afd2	-0.07162441
100	0xbe20a422	-0.15687612
101	0x3d27f82a	0.041008152
102	0xbbece995	-0.0072299936
103	0x3d5c9c9e	0.0538603
104	0xbe5f5d63	-0.21812968
105	0x3e86b1fc	0.26307666
106	0xbebaa2f6	-0.36452454
107	0xbcac7d27	-0.021055771
108	0x3de54bc7	0.11196094
109	0xbd309508	-0.043110877
110	0xbcaa68ec	-0.020801984
111	0xbdc4ba27	-0.09605818
112	0xbd68f276	-0.056871854
113	0xbdf1be89	-0.1180392
114	0xbd8fc8d3	-0.07020726
115	0x3e349eaf	0.17638658
116	0xbe3df565	-0.18550642
117	0xbad58590	-0.0016290415
118	0x3e01ad79	0.12663831
119	0x3d7098a0	0.058739305
120	0x3d92a6ad	0.07160697
121	0x3cbd12be	0.023080226
122	0x3d152ff6	0.036422692
123	0xbdf031c2	-0.117282405
124	0xbe1efc29	-0.15525879
125	0xbddabe9f	-0.10680889
126	0x3df761e5	0.12079219
127	0x3d1e51e8	0.03865233
128	0xbca0efc6	-0.019645583
129	0xbde4e705	-0.11176876
130	0xbd6224e1	-0.05521095
131	0xbd9b96c2	-0.07597114
132	0xbce3ddb3	-0.027815675
133	0x3c80040d	0.015626932
134	0xbd8b98b2	-0.06816234
135	0x3d1707b6	0.036872588
136	0x3d1ddc37	0.03854009
137	0x3e2e7bca	0.1703941
138	0x3db344d7	0.087533645
139	0xbcdb9a0c	-0.026806854
140	0xbdc75de1	-0.09734703
141	0xbdd916e0	-0.10600066
142	0xbcd6cb3d	-0.026219958
143	0x3dc620fd	0.09674261
144	0xbbae1ea7	-0.0053137126
145	0x3d862247	0.06549507
146	0xbd80d33d	-0.062902905
147	0x3d8e95cf	0.069621675
148	0x3abfec80	0.0014642626
149	0x3da9784a	0.082748964
150	0xbbf19002	-0.0073719034
151	0x3d0e7662	0.034780867
152	0x3cd0661f	0.02543932
153	0xbd9b9436	-0.07596628
154	0x3dcb04dd	0.09913037
155	0xbcb6d356	-0.02231757
156	0x3d965686	0.07340722
157	0x3cdae129	0.026718693
158	0xbe06642d	-0.13124152
159	0xbac942c0	-0.0015354976
160	0x3c172ba1	0.009226711
161	0xbd450e8a	-0.04810957
162	0xbd80651a	-0.062692836
163	0xbd9d23e8	-0.07672864
164	0xbc5f6977	-0.013635985
165	0x3d992ba8	0.0747903
166	0xbcaadbaa	-0.020856697
167	0xbd566553	-0.052342724
168	0xbd99af37	-0.07504123
169	0xbc989582	-0.018625978
170	0xbdcfa64e	-0.10139142
171	0x3e1b19a7	0.15146504
172	0xbdfa62b9	-0.12225861
173	0x3aa9a800	0.0012943745
174	0xbc536e3a	-0.012904698
175	0x3c55c825	0.013048206
176	0x3de97e72	0.11401071
177	0xbcc16508	-0.023607746
178	0x3b918c2a	0.0044417577
179	0x3d42bf92	0.047545977
180	0x3db59948	0.08867127
181	0xbc39781e	-0.011320142
182	0x3cf81c91	0.030287059
183	0xbdb9aceb	-0.090661846
184	0x3db8a355	0.09015528
185	0x3e0285df	0.1274638
186	0x3e6f48d6	0.23367628
187	0x3d25ff7a	0.040526845
188	0x3d449543	0.04799391
189	0xbe84200d	-0.25805703
190	0x3dba978e	0.09110938
191	0xbd415d76	-0.047208272
192	0x3d09c8ee	0.033638887
193	0x3e3a8529	0.18214859
194	0x3da6f383	0.08151915
195	0x3d375b99	0.04476509
196	0x3ce601c3	0.028077012
197	0x3d9ac119	0.07556362
198	0xbd6c5837	-0.057701316
199	0xbd8b205e	-0.06793283
200	0xbdca96d3	-0.09892049
201	0x3cec52eb	0.028848132
202	0xbd8751aa	-0.06607373
203	0x3c0411d0	0.008060887
204	0xbd8bace6	-0.06820087
205	0x3e6c9483	0.23103528
206	0xbb2d5e02	-0.0026453738
207	0xbdfb1ae9	-0.12260992
208	0xbe570371	-0.20997407
209	0xbd287076	-0.041122876
210	0xbd93411b	-0.07190152
211	0x3d3e81dc	0.046510562
212	0xbcea091a	-0.028568793
213	0x3dab6e9c	0.083707064
214	0x3d5a5873	0.053307008
215	0x3d864d2e	0.065576896
216	0x3cef1673	0.02918551
217	0x3da4a9e1	0.08040214
218	0x3d0d02c1	0.034426454
219	0xbd6c4c81	-0.057690147
220	0xbe035505	-0.12825401
221	0xbceedf21	-0.02915913
222	0xbc249fc9	-0.010047861
223	0x3c2053a7	0.009785569
224	0x3e807fe4	0.25097573
225	0xbd2dd4b5	-0.04243918
226	0x3dcd91eb	0.10037597
227	0xbb96f66f	-0.004607014
228	0x3de1aa5b	0.11018821
229	0xbd7fd7b9	-0.06246159
230	0x3daa04a8	0.08301669
231	0x3c2cef54	0.010555107
232	0x3dcd3455	0.10019747
233	0xbdf0f018	-0.11764544
234	0x3e300565	0.17189558
235	0x3de023d8	0.10944337
236	0x3e35940c	0.17732257
237	0x3e0f1581	0.13973047
238	0x3e0c01c5	0.1367255
239	0xbdcc10f5	-0.09964172
240	0xbdc936d7	-0.09824913
241	0xbd5a85cc	-0.053350255
242	0xbcd8f54b	-0.026484152
243	0xbd3e908d	-0.046524573
244	0x3e503044	0.20330912
245	0x3d80c6f3	0.062879466
246	0x3d9b1884	0.07573035
247	0x3c59a500	0.013283968
248	0xbd019dfc	-0.031644806
249	0x3dae79e7	0.08519345
250	0x3e06c55e	0.13161227
251	0x3e2249c5	0.15848453
252	0x3e21defc	0.15807718
253	0xbc9f6c85	-0.019460926
254	0x3d0cafc1	0.0343473
255	0xbdb1a2bd	-0.08673618

fc3.bias f4 [64]
0	0x3e396da3	0.1810823
1	0xbe748f70	-0.23882842
2	0x3ed07f9a	0.40722352
3	0x3e7261f7	0.23670183
4	0xbd8284f7	-0.06373017
5	0xbdf872bb	-0.12131258
6	0x3e828f35	0.25499883
7	0xbe0d2550	-0.13783765
8	0xbe0ff029	-0.14056458
9	0x3eb763ec	0.35818422
10	0x3d023eae	0.031798057
11	0xbdde979b	-0.1086876
12	0xbdf2bff9	-0.11853022
13	0x3f026336	0.50932634
14	0x3e70c468	0.23512423
15	0x3ec9928a	0.39369613
16	0xbe2d95c6	-0.16951665
17	0x3e2dce17	0.16973148
18	0xbc0a147f	-0.008427738
19	0xbdcf2369	-0.10114176
20	0xbc46b644	-0.012128416
21	0x3f161204	0.5862124
22	0x3e69f442	0.22847083
23	0x3eb5158a	0.35367996
24	0x3ec9caae	0.39412445
25	0xbe1b9752	-0.15194443
26	0x3e40b83e	0.18820283
27	0xbb59b222	-0.0033217748
28	0xbe60eeae	-0.21966049
29	0xbe9a0335	-0.30080572
30	0xbe84e31f	-0.2595453
31	0x3dbf391e	0.09337066
32	0x3e7e0883	0.24807934
33	0x3f07c039	0.53027683
34	0x3eab2a4f	0.33430716
35	0x3dae7e8b	0.0852023
36	0xbd7aed8a	-0.06126169
37	0x3e8c71c2	0.2743054
38	0x3f10f633	0.5662567
39	0xbe27c73b	-0.16384594
40	0x3ecbedbb	0.3982981
41	0x3eb8d51e	0.36100096
42	0x3d53e003	0.051727306
43	0x3c1f5ae6	0.009726262
44	0xbe804790	-0.25054598
45	0xbe97d286	-0.29652804
46	0xbe2ce323	-0.16883521
47	0x3f04344f	0.51642317
48	0x3eaf5542	0.34244734
49	0xbd2978b8	-0.041374892
50	0xbe5ba65e	-0.21450183
51	0x3dd310f7	0.1030597
52	0x3cab7e1a	0.020934153
53	0x3eedb0e3	0.46424016
54	0xbe82f9e4	-0.25581276
55	0xbe800d8f	-0.25010344
56	0xbe033871	-0.128145
57	0xbdf38fbf	-0.11892652
58	0xbd91eb2f	-0.07124936
59	0x3e61f473	0.22065906
60	0xbe5338cb	-0.20627134
61	0x3e908d5e	0.28232855
62	0xbd104f6b	-0.03523199
63	0x3dfa6065	0.12225417

fc4.weight f4 [10, 64]
0	0xbe311543	-0.17293267
1	0xbe427fda	-0.18994084
2	0x3e29e677	0.16591822
3	0xbb177a14	-0.0023113536
4	0x3d50c2bd	0.050966967
5	0xbd84bf31	-0.06481779
6	0xbe63020b	-0.22168748
7	0xbc431603	-0.0119071035
8	0x3c68db43	0.014212432
9	0x3d0de2d5	0.034640152
10	0x3b4421ea	0.002992744
11	0xbe33887b	-0.17532532
12	0x3d65d6e3	0.056113135
13	0xbd44fcf4	-0.048092797
14	0xbd4b27df	-0.04959857
15	0x3d9d6bd5	0.07686583
16	0xbe067540	-0.13130665
17	0x3da91f3e	0.08257912
18	0xbe1d5ae9	-0.1536671
19	0xbe3c6454	-0.18397647
20	0x3e25b2cb	0.16181485
21	0xbd1d48ac	-0.038399383
22	0xbe920656	-0.2852046
23	0xbdcdb7e4	-0.1004484
24	0x3da1766a	0.07883914
25	0xbd05e979	-0.03269336
26	0xbebca8a2	-0.36847407
27	0xbd95b5e5	-0.07310084
28	0x3dcb0509	0.0991307
29	0x3c45f2ec	0.012081843
30	0xbdf2b8e1	-0.11851669
31	0x3de28302	0.11060144
32	0x3e2baa32	0.16764143
33	0xbe33300f	-0.17498802
34	0x3e2bb4ad	0.16768141
35	0x3e06bcad	0.13157912
36	0xbd6bddc2	-0.05758453
37	0xbea1443e	-0.31497377
38	0xbdff719f	-0.124728434
39	0x3dc01fad	0.09381042
40	0x3d7b9d56	0.061429344
41	0x3d174adb	0.036936622
42	0xbdb0236a	-0.08600505
43	0x3a8c586e	0.0010707506
44	0xbda5d001	-0.08096314
45	0xbe18d3ef	-0.14924596
46	0xbbf7ddf8	-0.0075643025
47	0x3de10829	0.109878846
48	0x3d12fad1	0.03588373
49	0xbe043ade	-0.12913081
50	0x3ce6d048	0.028175488
51	0xbda8abcd	-0.082358934
52	0xbda8393f	-0.08214044
53	0xbe3883a6	-0.1801897
54	0xbc5c99c2	-0.013464393
55	0x3d8f45a7	0.06995707
56	0xbd98265f	-0.07429194
57	0xbd92e937	-0.071733885
58	0x3dc1dd8e	0.09466086
59	0xbdbf0acd	-0.09328232
60	0xbd910ac3	-0.07082131
61	0xbebaef05	-0.36510482
62	0x3d165ba6	0.036708497
63	0xbe87dcb0	-0.2653556
64	0xbcb30576	-0.02185319
65	0xbdf2ebfb	-0.11861416
66	0xbce5ed07	-0.028067125
67	0xbe3f6f3a	-0.18694773
68	0xbdbb3e75	-0.09142772
69	0x3da0adbe	0.07845639
70	0xbe9f0a77	-0.31062672
71	0x3d0054ea	0.03133098
72	0x3c1b5b98	0.009482287
73	0xbe97d046	-0.29651088
74	0x3cdd58ec	0.02701994
75	0xbd49a527	-0.049229767
76	0xbe11f9f6	-0.14255509
77	0xbe8d6933	-0.27619323
78	0xbd4bd57e	-0.04976415
79	0x3d8d2dd8	0.068935096
80	0xbe25adcf	-0.16179584
81	0x3ca9d53d	0.020731563
82	0xbe2b6e09	-0.16741194
83	0xbd8f465d	-0.069958426
84	0xbddb3ea9	-0.10705311
85	0xbe8652ba	-0.2623499
86	0xbe10eac6	-0.14152059
87	0xbe146ed0	-0.14495397
88	0x3dd38952	0.10328926
89	0xbc0d2ca8	-0.008616604
90	0xbde6d11d	-0.11270354
91	0xbdc9328e	-0.09824096
92	0xbdef6c63	-0.11690595
93	0x3ea6d2fc	0.32582843
94	0x3d3e8eeb	0.046523016
95	0xbd23eed1	-0.040022675
96	0xbe39948c	-0.18123072
97	0x3e6bb57a	0.23018447
98	0xbce96e0a	-0.028494854
99	0x3dda71a0	0.106662035
100	0xbc330c69	-0.010928252
101	0xbe06d9f7	-0.13169084
102	0xbe74ead3	-0.23917703
103	0x3dc29182	0.0950041
104	0xbe8143ca	-0.2524703
105	0x3e15ce58	0.14629495
106	0x3dccb058	0.099945724
107	0x3c4bb353	0.012432891
108	0xbdb0c375	-0.086310305
109	0xbe3637c6	-0.17794713
110	0xbd19cd48	-0.037549287
111	0x3dfa3670	0.122174144
112	0x36b48efd	5.381064e-06
113	0x3af1fd00	0.0018462241
114	0x3d0dc2ed	0.034609724
115	0xbe690268	-0.22754824
116	0x3dea73e1	0.114478834
117	0xbe126f0b	-0.14300172
118	0xbdc436f3	-0.09580793
119	0xbe0d49e0	-0.13797712
120	0x3b2ff5da	0.002684942
121	0xbd862c47	-0.06551414
122	0xbe1536f1	-0.1457174
123	0x3de9fa3c	0.114246815
124	0xbe00422c	-0.12525243
125	0xbe627452	-0.22114685
126	0xbc45adae	-0.012065334
127	0xbe201cbb	-0.1563596
128	0xbe790b1d	-0.24320646
129	0x3d8729c1	0.06599761
130	0x3d8d20fb	0.06891056
131	0xbe8bf216	-0.27333134
132	0xbda3a68b	-0.0799075
133	0xbe14c28a	-0.14527336
134	0xbe4eabaa	-0.20182672
135	0xbbded961	-0.006800816
136	0xbe71565d	-0.23568101
137	0x3d7b0065	0.061279673
138	0xbe05305b	-0.13006727
139	0xbda6eb33	-0.081503294
140	0x3d3a6d75	0.045514543
141	0xbe80e9e9	-0.2517846
142	0xbd3ef66e	-0.046621732
143	0x3dcd1ff6	0.10015862
144	0xbe02f52d	-0.1278884
145	0xbc65874a	-0.014009306
146	0xbe47fc37	-0.19529806
147	0x3dfd2152	0.12359871
148	0x3e20d9e6	0.15708122
149	0xbea96b9a	-0.33089906
150	0xbe954036	-0.29150552
151	0xbd7ce5e9	-0.061742697
152	0xbe883deb	-0.2660974
153	0xbdd860f0	-0.10565364
154	0x3e095d4b	0.13414495
155	0x3d9a7891	0.075425275
156	0xbd8baff4	-0.0682067
157	0x3e1f9384	0.15583616
158	0xbd7eed46	-0.062238
159	0x3dd71b3a	0.1050324
160	0xbd4d5eeb	-0.05013935
161	0xbe3fbf23	-0.18725257
162	0x3e29ddec	0.16588563
163	0xbcf71f36	-0.03016625
164	0xbe5860c2	-0.2113066
165	0xbeba81e4	-0.36427224
166	0x3db30d02	0.087427154
167	0xbcef9cb9	-0.029249536
168	0xbda7866a	-0.08179934
169	0xbe93e3ac	-0.28884637
170	0xbe17dc7b	-0.148302
171	0xbda16541	-0.07880641
172	0x3cdc0879	0.026859509
173	0xbdb030ef	-0.08603083
174	0xbdf28050	-0.1184088
175	0x3e346255	0.17615636
176	0xbde86bff	-0.113487236
177	0x3da4cc5e	0.080467924
178	0xbc3edb42	-0.011648955
179	0xbdc28ff0	-0.0950011
180	0xbdd63e81	-0.104611404
181	0xbe9084a0	-0.28226185
182	0xbd4434ba	-0.047901846
183	0xbcb7ebef	-0.02245137
184	0x3d0d25eb	0.03445999
185	0xbd039635	-0.03212567
186	0xbd6a624f	-0.05722266
187	0x3d5a63c2	0.053317793
188	0xbdeb6ed2	-0.11495747
189	0xbe6d44d2	-0.23170784
190	0xbdbc48af	-0.09193551
191	0x3e10f269	0.14154972
192	0x3db27d59	0.087153144
193	0xbe7202a5	-0.23633821
194	0x3e12816c	0.14307183
195	0x3dc48623	0.09595897
196	0xbd9c4e4a	-0.0763212
197	0xbd52ef64	-0.051497832
198	0xbeb24bc6	-0.34823436
199	0xbce7add9	-0.02828114
200	0xbd126e86	-0.035749935
201	0xbdf322b5	-0.11871854
202	0xbd61ebaf	-0.055156406
203	0xbe363427	-0.17793332
204	0x3d226063	0.039642703
205	0xbdcb08a9	-0.09913761
206	0xbdcf236d	-0.10114179
207	0x3e2780cf	0.1635773
208	0xbe1dc32c	-0.15406483
209	0xbce70c3e	-0.02820408
210	0xbe86b29b	-0.2630814
211	0xbe21adca	-0.15788952
212	0xbda30a73	-0.079609774
213	0xbea165cb	-0.31522974
214	0xbf0162c2	-0.5054132
215	0xbca0b621	-0.019618096
216	0x3e438f0b	0.19097535
217	0xbb586964	-0.0033021802
218	0xbe30c02f	-0.17260812
219	0xbce6c07b	-0.028167954
220	0x3d211b1f	0.039332505
221	0x3e067ceb	0.1313359
222	0x3e040971	0.12894227
223	0xbdeb200d	-0.114807226
224	0x3dcb4614	0.09925476
225	0xbe2c7433	-0.16841201
226	0xbe354768	-0.1770302
227	0xbd899e38	-0.06719631
228	0xbc4059af	-0.011740132
229	0xbe94fec2	-0.29100615
230	0xbe4ab3ee	-0.197952
231	0xbabcf3b0	-0.0014415886
232	0x3cc06796	0.023486894
233	0x3d976f4f	0.07394277
234	0xbe00ecd7	-0.12590347
235	0x3d1ae7b7	0.037818637
236	0xbd8b199e	-0.067919955
237	0xbe364173	-0.17798404
238	0xbdbd9f02	-0.09258844
239	0x3aee85b9	0.0018197811
240	0xbdac6e75	-0.084195055
241	0xbbff21e7	-0.007786024
242	0xbe06f619	-0.13179816
243	0xbe6554c1	-0.22395612
244	0xbd64efeb	-0.055892866
245	0xbe1d9519	-0.15388907
246	0xbc488b52	-0.012240248
247	0xbd698d35	-0.05701943
248	0xbc78c1cd	-0.015182924
249	0xbdcabaac	-0.09898886
250	0x3d0bc689	0.034124885
251	0x3e1b470e	0.15163824
252	0xbd140218	-0.03613481
253	0xbed9c49f	-0.42532822
254	0xbc3f0f26	-0.0116613265
255	0x3e115f45	0.14196499

fc4.bias f4 [10]
0	0xbd310d1e	-0.0432254
1	0xbe916888	-0.28400064
2	0x3e51bad3	0.20481424
3	0x3e371405	0.1787873
4	0xbe59e1ba	-0.21277514
5	0x3ed565f1	0.41679338
6	0x3eb3b030	0.35095358
7	0x3d65dd60	0.056119323
8	0xbe8fae73	-0.28062782
9	0xbe825a34	-0.25459445
