runs/Mar02_17-36-03_cssd901383-Run(lr=0.001, batch_size=128, patience=1)-valid/checkpoint.pt (torch_old, 972387 bytes, 8 tensors)

fc1.weight f4 [256, 784]
000000 53 ee 10 bd b4 ed ac 3d f4 34 d3 3d b7 2b 81 3c
       -0.035383534 0.08443776 0.103128344 0.015767915
000010 45 0f 27 3e 3d 09 06 3b dc d8 05 3d 37 dd 08 be
       0.16314419 0.0020452284 0.032677516 -0.13365637
000020 05 a9 06 be 72 6a 26 be c3 21 08 bf de dd 80 be
       -0.13150413 -0.16251543 -0.53176516 -0.2516927
000030 e4 d7 5b be 02 06 e3 bd 8f 4e 68 be 73 b5 73 be
       -0.21469074 -0.1108513 -0.22686218 -0.23799686
000040 da 96 e4 bd e5 a1 e7 be e4 42 b5 be 14 df be be
       -0.11161585 -0.45240703 -0.35402596 -0.3727957
000050 92 15 6f be 3c e9 33 be 0e d9 59 bd c7 4f 15 bd
       -0.23348072 -0.1756944 -0.053185515 -0.036453035
000060 87 33 31 3d a8 87 e1 3d dd 00 1d 3d d4 1e 53 3d
       0.04326203 0.110122025 0.0383309 0.051543072
000070 b0 85 c8 bc b4 50 bb 3d d8 ec 0b 3d c6 86 83 3d
       -0.02447781 0.09146252 0.03416142 0.0642219
000080 62 9f 50 3e f0 bf 6f 3d 56 e7 d9 3c 61 27 41 be
       0.203733 0.058532655 0.026599567 -0.18862678
000090 02 18 44 be 83 3e a5 bc 38 84 84 b9 76 d0 08 3e
       -0.19149783 -0.02017141 -0.00025275513 0.13360772
0000a0 58 a8 58 3d bb 92 53 3d c5 62 97 be e3 fc 31 be
       0.05289492 0.051653605 -0.29567543 -0.17381625
0000b0 c5 68 2e be eb e3 21 be 0f 65 d8 bd 83 91 8e 3d
       -0.17032154 -0.158096 -0.105661504 0.06961348
0000c0 b8 84 b0 bd 54 2d 71 bd eb b2 5c 3d 8c 4b 53 bd
       -0.08619064 -0.05888112 0.053881567 -0.05158572
0000d0 8f 0a 31 be cd a8 e1 3d 88 ca d8 3d 89 49 ad 3d
       -0.17289184 0.11018524 0.10585505 0.08461291
0000e0 40 7b ec 3a 0c f3 5b 3d 41 14 6f 3d a0 e2 9d 3c
       0.0018042102 0.053698584 0.058368925 0.019273102
0000f0 8e 83 1f 3e 86 2c 90 bd 59 e7 02 be 75 9b 6d be
       0.15577528 -0.07039742 -0.12783565 -0.23203833
000100 12 a8 49 be b2 ca 4f bd be 65 6f bd e1 f9 36 bd
       -0.1969302 -0.050730415 -0.05844664 -0.044671897
000110 2e 9d 8f bd df d2 c7 bd 7b 07 76 be 60 94 36 be
       -0.070124015 -0.09757017 -0.24026291 -0.17830038
000120 97 87 c4 be df 69 75 be 57 78 49 be d9 fb 11 be
       -0.38384697 -0.23966168 -0.19674812 -0.14256229
000130 1f 0a b1 be c2 1f 76 be 8d a3 ff bd b6 2f 37 be
       -0.34578034 -0.24035552 -0.12482367 -0.17889294
000140 33 f9 28 be da 6b 9a 3e 89 dd 89 3d 5a 30 55 3d
       -0.16501312 0.3016041 0.067317076 0.052048065
000150 37 6a b1 bd 88 a3 f5 bc c8 08 d8 bc 07 70 cb ba
       -0.08662837 -0.029985204 -0.026371375 -0.0015521058
000160 38 a9 82 3d 3e 70 ab bd a3 bc 4e bd 73 6e a7 be
       0.06379932 -0.08371018 -0.050472867 -0.32701454
000170 1d 31 b4 bd f0 02 25 be d7 7e 5a be 19 b6 0f be
       -0.0879843 -0.16114402 -0.21337448 -0.14034308
000180 be f8 b5 bd df 8f 52 be fc e1 94 bd f9 28 31 be
       -0.088853344 -0.20562695 -0.072696656 -0.17300786
000190 26 fb 8f be 0b 62 11 be 36 27 24 3d e2 19 e8 bd
       -0.281213 -0.14197557 0.040076457 -0.11333062
0001a0 da 9a d6 be 57 5c ad be 95 fc 1a bf a2 d7 46 bf
       -0.41915017 -0.33859512 -0.6054166 -0.7767278
0001b0 37 e4 d2 be aa ef 7b be ba 39 d6 3e 66 cb a0 3d
       -0.4118974 -0.24603143 0.41840917 0.07851295
0001c0 71 f1 cc 3c ab c9 61 3d c3 ce 8d 3d 63 9e 96 bc
       0.025017472 0.055123966 0.06924202 -0.018386072
0001d0 12 5e b8 3d fa 7b 91 bd 24 cc 2b bc 47 29 d0 bd
       0.090023175 -0.07103725 -0.010485683 -0.10164123
0001e0 1e 8a 11 3d 26 f1 b9 bd a0 3a 5f be 7f 74 03 bd
       0.03553211 -0.090791985 -0.21799707 -0.03209352
0001f0 10 e9 8f bd 15 7b 15 be 4a 50 05 bd 55 f1 fe 3e
       -0.07026875 -0.14597733 -0.032547273 0.49793497
000200 c6 e4 3a bd 3c 35 15 bf 50 46 83 3e dc b3 6f be
       -0.04562833 -0.58284354 0.25639582 -0.23408455
000210 71 90 1f be fd 38 8f be 88 1a 33 bf 8b 8a 87 bf
       -0.15582444 -0.27973166 -0.6996236 -1.0589155
000220 2f 08 0d bf bf b6 d6 be 30 fc af bd 2d 4e d1 3d
       -0.5509061 -0.419363 -0.08593023 0.10219989
000230 ec a6 71 3e 3a 99 86 3e 6d 4c 5a 3e d0 e1 17 3e
       0.23598832 0.26288778 0.21318217 0.14832234
000240 8a 3a 58 3e 83 19 42 3c e3 e5 cf 3c 60 3f 92 bd
       0.21116081 0.011846903 0.025378173 -0.07140994
000250 bf 4b 88 3e 2a 20 0c bd 77 d8 79 be 4b 18 1c 3e
       0.2662029 -0.03421036 -0.24398981 0.15243642
000260 c2 8c f8 3c 54 16 2e be f2 33 58 3d e9 14 00 3f
       0.030340556 -0.17000705 0.052783914 0.50031906
000270 eb 28 b3 be a5 ce ac bd a2 6d db 3d 32 e9 7c 3d
       -0.34992155 -0.08437852 0.1071427 0.06174583
000280 87 59 1d 3a 00 87 02 3d 11 cb 63 bf a0 e9 6d bf
       0.00060024153 0.031867027 -0.8898173 -0.9293461
000290 cf 87 53 bf 5d c1 82 bf 46 5c 6b 3d 26 bc e7 bc
       -0.826291 -1.021526 0.057461046 -0.028287958
0002a0 89 8b 08 3e a1 a0 1f 3e 3c a3 28 3e a7 26 e9 3d
       0.13334478 0.15588619 0.16468519 0.113843255
0002b0 2b 19 d0 3d 0f 67 e9 3b d9 db 1a 3c a6 4c 34 be
       0.101610504 0.0071228812 0.00945183 -0.17607364
0002c0 7b 20 30 3d 59 25 1b be b0 a9 0a 3e 33 be 32 3e
       0.042999726 -0.15150966 0.13541293 0.17455368
0002d0 4a df 83 be f2 4e 40 be 54 1a fb be a9 97 f1 be
       -0.25756294 -0.18780115 -0.49043524 -0.4718602
0002e0 96 1f 5b be a6 cb 02 3e e6 be 0b 3f 05 ab fe 3e
       -0.21398768 0.12772998 0.5458816 0.49739853
0002f0 6f 6e 6d be 65 15 1f bf 8a f5 47 bf 37 ba af bf
       -0.23186658 -0.6214202 -0.7810904 -1.3728703
000300 03 9a 87 bf 12 89 8c bf 8e 21 9b be b5 32 d4 be
       -1.0593876 -1.097933 -0.30299038 -0.41444936
000310 e2 5f 0e 3e 2d 0d 0c 3e 92 95 13 3e 06 55 0b 3e
       0.13903764 0.13676901 0.14412525 0.13606653
000320 ed ed 0f 3e bf 93 6d 3c 48 a1 b7 bc 60 1d 0a be
       0.14055605 0.014500557 -0.022415772 -0.13487768
000330 29 0d 59 3e 3e 0d c2 bd 83 15 d0 bd f7 5f e2 bd
       0.21196426 -0.09475182 -0.10160353 -0.1105346
000340 ea 7c 82 be 07 d1 77 bf a9 b6 8a bf ba 6b 31 bf
       -0.25485927 -0.96803325 -1.0836993 -0.69305
000350 e4 ae 9c be 15 48 b2 be c1 a0 2f 3f 39 c4 3d 3f
       -0.3060218 -0.3482062 0.68604666 0.74127537
000360 c1 5b e6 3c 4b a1 3e bf 6d 29 59 bf fb 32 84 bf
       0.028119924 -0.74464864 -0.84828836 -1.0328058
000370 9e 0d 86 bf d5 31 32 bf b8 5a e6 be 3a cd 74 be
       -1.0472906 -0.6960729 -0.44991088 -0.23906413
000380 ba 5f 6a bd b8 91 06 be 10 3d ef 3c eb b5 88 3e
       -0.0572202 -0.13141525 0.029203922 0.26701292
000390 8e 55 80 bd b1 b0 50 3e 9b 95 5f bc 60 82 c5 bd
       -0.06266318 0.20379902 -0.013646509 -0.09644008
0003a0 27 fd e8 3e b5 3e 8f be 51 64 ed be 66 42 2a bf
       0.4550564 -0.2797753 -0.46365598 -0.66507566
0003b0 5d 58 0d bf b3 72 9b bf 49 99 b1 bf 3e 57 86 bf
       -0.55212957 -1.2144378 -1.3874904 -1.0495374
0003c0 55 d3 22 bd 17 7a 32 be 64 d3 0e 3e 71 71 37 be
       -0.039752323 -0.17429386 0.13947827 -0.17914368
0003d0 8a 79 c4 bd 70 3b 0e bf 6d 3d 3a bf e9 d9 41 bf
       -0.09593494 -0.55559444 -0.7274998 -0.7572313
0003e0 84 09 51 bf 6c f1 a3 be f2 6a dc be ec b9 a3 3e
       -0.81655145 -0.32020128 -0.43050343 0.31977785
0003f0 0d a3 a2 3e e3 b7 ce 3d f9 50 ab 3d d7 34 e6 3d
       0.31765023 0.10093667 0.08365054 0.11240547

fc1.bias f4 [256]
000000 3e 7c dd 3e e5 91 00 3f 7b 3f 27 3e 93 22 80 bd
       0.43258852 0.5022262 0.1633281 -0.062565945
000010 16 19 aa be f2 0b a1 be f0 9e 47 be df ea 07 3f
       -0.33222264 -0.31454426 -0.19494224 0.5309276
000020 13 4c 7c bd 23 cd 66 bd 99 9a 21 3e 0d 2d 43 bd
       -0.061595988 -0.056347977 0.1578163 -0.047650386
000030 f1 9e c3 3f de 45 73 be fd e7 a7 3d 8b fa 5a bd
       1.528288 -0.23757121 0.08198545 -0.053461593
000040 3f a7 33 bd 65 60 84 be d8 05 4d bd 69 90 48 bd
       -0.04386067 -0.25854793 -0.0500544 -0.048965845
000050 56 06 32 bd 37 ff f6 be 76 b2 19 bd ba a6 af 3e
       -0.043463074 -0.48241588 -0.03752371 0.3430689
000060 ea a5 b9 bd 44 da e3 be 07 eb 27 be 91 9e 87 bd
       -0.09064849 -0.4450246 -0.1639825 -0.06622041
000070 25 25 9a bd 5e 82 b2 bd 7f b6 a7 bd d6 b1 25 bc
       -0.07526616 -0.08716272 -0.08189105 -0.0101132
000080 79 e4 be bd 43 8b e3 bd b2 b7 06 3f 3c cd 95 bd
       -0.093209215 -0.111105464 0.52624047 -0.07314536
000090 d1 c2 72 bd de a7 19 be 40 28 9e bd 42 51 2b 3e
       -0.059267823 -0.15005443 -0.07722521 0.16730216
0000a0 55 55 98 bd 01 73 08 be 78 24 83 bd fe 6c 95 bc
       -0.07438151 -0.1332512 -0.0640344 -0.018240448
0000b0 37 6e b9 bd 68 c2 83 be c1 e3 59 3f 9b 49 b3 bd
       -0.09054225 -0.25734258 0.8511315 -0.087542735
0000c0 55 b9 88 bd 82 50 41 bd 16 5d 89 3f c8 6c 6a bd
       -0.06675974 -0.04719592 1.0731533 -0.057232648
0000d0 34 8e 8b 3e 55 1f 2a bd b8 42 b5 bd af 47 45 bd
       0.2725693 -0.041533787 -0.08850616 -0.048164066
0000e0 b3 af 99 3e ac 5f 15 bd 89 90 7e 3d 9d 26 cd bc
       0.3001686 -0.036468193 0.06214956 -0.025042826
0000f0 6f d0 fc be 68 84 9e be 16 a8 1d be 9c f5 7d bd
       -0.49377772 -0.30960393 -0.15396151 -0.06200181
000100 7d dc e7 bd 76 16 a5 bd 52 62 78 3e 12 2f 8e bd
       -0.11321352 -0.08060925 0.24256256 -0.06942572
000110 cd a4 1b bf f6 99 40 be c3 55 8f bd a6 98 74 bd
       -0.6079834 -0.18808731 -0.069987796 -0.05971589
000120 e0 1e 11 be 29 27 2c bd 20 eb 7a 3d 76 f7 00 3f
       -0.14171934 -0.042029534 0.06125939 0.50377595
000130 ea 44 9b bd ca 7e 82 3d e4 78 de be 60 ce 13 be
       -0.07581504 0.06371839 -0.43451607 -0.14434195
000140 d9 4f 0c be cb dd 2e be 8d 79 bf bd 17 dc 08 3e
       -0.13702334 -0.17076795 -0.09349356 0.13365208
000150 eb 89 ad bd 32 fa b0 bd 28 d2 4a 3c a9 62 b4 be
       -0.084735714 -0.08641471 0.012379207 -0.35231522
000160 a1 ce 96 bd 98 85 50 bd dc 6f 07 bd 1f 5b 35 bd
       -0.0736363 -0.050908655 -0.03306566 -0.044276353
000170 8b ad bc bd 81 9e 19 bf 6b 06 b1 be 93 30 91 3e
       -0.09212788 -0.6000748 -0.3457521 0.28357372
000180 52 3f 8f be c1 43 40 bd ab 88 a1 bd 1c aa 5c bd
       -0.27977997 -0.046939615 -0.078873955 -0.053873166
000190 53 b2 2c 3f 8a 8a 22 bf 9d 48 92 3d 28 97 33 3f
       0.674596 -0.63492644 0.07142756 0.7015252
0001a0 1d 01 f3 3e a9 73 1a be 54 51 c4 3d 36 70 e1 bd
       0.47461787 -0.15083183 0.095858246 -0.11007731
0001b0 b6 88 f8 3c 27 35 f3 be a6 86 b3 bd 87 85 6b bd
       0.030338626 -0.4750149 -0.087659165 -0.05750039
0001c0 fc 84 47 3f 5c 86 9a bd d5 79 09 bd 29 3e 90 3e
       0.77937293 -0.07545158 -0.033563454 0.28172424
0001d0 67 e5 90 3d 4f 21 a1 bd 50 b9 f8 bc db 1c f4 bc
       0.07075005 -0.07867681 -0.030361801 -0.029798916
0001e0 bd 0c 29 be 34 73 44 3f e9 1a 22 3c 5f 4d 2d 3e
       -0.16508766 0.76738286 0.009894111 0.16924046
0001f0 6f 5a 43 3d 48 9f 25 bd 24 6f 74 bd 47 18 84 3e
       0.047693666 -0.040435106 -0.059676304 0.25799772
000200 18 10 48 bd 2c 0b 01 be a7 5f 1a 3d cc 34 c0 bd
       -0.048843473 -0.12601918 0.037688877 -0.0938507
000210 0f 82 8d bd 52 6a b7 bd 9d c7 25 be b2 eb 2a bd
       -0.06909572 -0.08955826 -0.16189428 -0.041728683
000220 5f 45 a0 bd fd 6e 02 bd e3 26 f2 bd 4d f8 11 bd
       -0.078257315 -0.031844128 -0.11823823 -0.03563719
000230 66 02 20 bf ae 26 77 bf f9 9e 54 3f c1 76 d1 bd
       -0.6250366 -0.96543396 0.83055073 -0.10227729
000240 a0 1d b5 3e 95 6a a2 bd 3c 1c 2b be 69 e4 3e 3f
       0.35374165 -0.07930485 -0.1670999 0.74567276
000250 66 ae 23 3f 1f 17 06 bd 76 63 91 bd da 48 a2 bd
       0.63937986 -0.032736894 -0.07099049 -0.079240516
000260 f1 f8 0a bf e3 18 28 3f 46 c7 ad bf 12 14 80 bd
       -0.54286104 0.65662974 -1.3576438 -0.06253828
000270 43 8a 02 3f f2 67 4e bd 22 4e 80 bd a3 fa 6e bc
       0.5099222 -0.0503921 -0.06264903 -0.014586124
000280 f3 ed c0 bd 28 6f 25 3e d6 2c ed 3d de 8d a6 3e
       -0.09420385 0.16155684 0.115808174 0.3253011
000290 54 0f 83 bd 4f ba 3f bd 6e 2f 82 be 5c 29 14 3d
       -0.06399408 -0.046808537 -0.2542681 0.036172256
0002a0 4a b4 f8 be 4d 4f 61 bd c0 1c e3 bc 04 7b ac bd
       -0.4857505 -0.055007268 -0.02772367 -0.08421901
0002b0 da 0d 6e bd 3b ea df 3d 6c 99 84 3e a8 f9 4d bf
       -0.05811868 0.10933348 0.25898302 -0.8045907
0002c0 b3 c9 86 be 85 52 bf 3e 2c 18 1f bd bb c5 38 3f
       -0.2632576 0.37367645 -0.03884141 0.7217671
0002d0 5c a2 9d bd 7d 34 13 3f 2d 6b 3e bd 95 24 45 be
       -0.07696983 0.57501966 -0.04648893 -0.19252236
0002e0 b2 50 58 bd 73 95 b9 bc 8f 51 2b bd c4 ce 65 bd
       -0.052811332 -0.02265427 -0.041825827 -0.05610539
0002f0 bb bf ba bd 97 ac 16 3f 11 e3 8e bd d3 43 a0 3e
       -0.09118601 0.588571 -0.06976903 0.31301746
000300 1f e4 d5 bd 35 e6 0b 3f ed bb b4 3c 6e 37 ac bd
       -0.10443901 0.54648143 0.022062266 -0.0840901
000310 d1 07 93 bd e1 f1 74 be 58 a2 2a be 05 5d cb bd
       -0.07179225 -0.23920394 -0.16663492 -0.099298514
000320 68 1a 13 be d2 9d 97 3e 61 9c c5 bd b4 66 61 bf
       -0.14365542 0.29612595 -0.096489675 -0.8804734
000330 c7 3f c9 3e 55 68 90 bd d3 9c 17 be 64 c2 8e bd
       0.3930647 -0.0705115 -0.14805917 -0.06970671
000340 4e b8 2c bf 76 17 23 bd ed d1 4f 3f 14 fd 5d bd
       -0.67468727 -0.039817296 0.81179696 -0.054196432
000350 2b a8 7a bd 12 01 95 3f e8 42 43 3f 81 31 3d 3e
       -0.061195534 1.1640952 0.76273966 0.18475915
000360 10 f7 82 bf 39 d8 fc bc 7e 93 91 bd 62 f7 aa bd
       -1.0231647 -0.030864822 -0.0710821 -0.08347966
000370 2b 54 76 3f 92 69 26 be d8 2b 78 3f 33 47 90 3e
       0.9622218 -0.1625121 0.969419 0.2817932
000380 bb 5d 1f bc c7 cd b0 3e dc 90 74 bd a1 93 96 bd
       -0.009726937 0.34531996 -0.05970846 -0.07352377
000390 14 71 0a bf 62 0d 13 bd 98 92 f2 3e 5a 9e 3c bd
       -0.54078794 -0.035901435 0.47377467 -0.046049453
0003a0 71 2e 19 3e 79 b1 b6 bd 13 23 7b bd c3 d3 54 bd
       0.14959122 -0.08920569 -0.061312746 -0.051959764
0003b0 ff 84 e3 bc a8 8f 8b 3e 47 9f 8a be a1 2e 29 be
       -0.027773378 0.2725804 -0.27074644 -0.16521694
0003c0 c7 e1 bf bd 72 b0 cf 3e ce 19 fb 3e 5c 67 89 bf
       -0.093692355 0.40564305 0.49043125 -1.0734668
0003d0 c8 2e 2d 3b db e2 a7 bd f1 4d b8 be 88 e0 40 bd
       0.002642559 -0.08197566 -0.35996965 -0.04708913
0003e0 61 1d 87 bd 03 1c b5 bd 29 08 c0 bd 98 ff 4f be
       -0.065974005 -0.088432334 -0.093765564 -0.20312345
0003f0 b6 49 79 3f 9a 6c ad bc 62 60 89 3e 5d 60 d6 be
       0.973781 -0.02116995 0.26831347 -0.41870394

fc2.weight f4 [128, 256]
000000 3c 6a 11 bf 3e 3a d9 3e 8d 96 e3 3e 38 89 9c bc
       -0.56802726 0.42427248 0.444508 -0.0191084
000010 c9 25 0c bf 63 3c 97 3c 71 fc c6 3d 84 6c a4 bd
       -0.54745156 0.018461412 0.09716118 -0.0802851
000020 8d d3 37 3c d0 b2 42 bd a8 d5 e8 be 35 ba 9d bd
       0.011219871 -0.04753381 -0.45475507 -0.07701532
000030 6e 12 f8 3e 8c 50 d4 bd 41 93 fa bd 07 aa 84 bc
       0.4845156 -0.103669256 -0.12235118 -0.016194357
000040 00 b3 9e 3c fe ca a4 3d e2 04 e8 3c 94 cd 6f 3d
       0.019372463 0.0804653 0.02832264 0.058545664
000050 25 79 9d bb 31 fb a3 bd 88 4a 14 3d 97 58 2c 3d
       -0.0048057013 -0.08006895 0.03620389 0.042076673
000060 47 5c 7a 3e 63 dc 16 bd 25 fe 13 3d 7d bc 33 3d
       0.24449264 -0.03683127 0.036131043 0.04388093
000070 3e ea 81 3b 77 bc b6 3d 96 dc fb 3d d2 fb 44 3c
       0.0039646914 0.089226656 0.12297933 0.012022929
000080 3c 9b 8a 3c 8b 38 d2 3d 7d 78 24 be d8 54 40 3d
       0.016919725 0.10264691 -0.16061588 0.046955913
000090 0a a0 52 bb 32 48 78 3d 7b d4 99 3c e4 b9 b3 bd
       -0.0032138848 0.060615726 0.018778076 -0.0877569
0000a0 47 2e 36 bb a0 93 ee bb 7f 1f 01 3e b0 e6 47 3c
       -0.002779858 -0.007280782 0.12609671 0.012200996
0000b0 7e aa 48 3d 1a 5b ed be c1 3e 71 bd d5 fa 58 3d
       0.04899072 -0.46358567 -0.058897737 0.052973587
0000c0 ab 58 89 3d 60 9c 12 bd 7a b0 d3 3b f2 5d 73 bb
       0.06706365 -0.035793662 0.0064602466 -0.0037134853
0000d0 71 b4 2a 3e 36 20 c1 3d 08 52 76 3d bf 98 25 be
       0.16670395 0.09429972 0.060136825 -0.1617155
0000e0 a8 bd be 3e 44 14 5a b7 be a9 81 bc ee e2 c5 3d
       0.3725407 -1.2998531e-05 -0.01582801 0.09662424
0000f0 8b 50 50 bc 8d bd a8 bd 9b f7 8f bd 39 a6 d2 bd
       -0.012714515 -0.08239279 -0.07029649 -0.10285611
000100 ea ea b1 3c 63 6f 37 3d fa 28 2b 3e 9c 7b b5 bc
       0.021718461 0.04478396 0.1671485 -0.022153668
000110 4f 50 e0 bc 2b 8d ae bd 13 28 13 3a 2b 7e 9b ba
       -0.027382044 -0.085230194 0.00056135765 -0.0011863163
000120 2d cc 96 3e dd 6f d2 bc 19 1d 9f bd 68 56 db 3e
       0.2945265 -0.025688106 -0.07769222 0.4283936
000130 5a 6d 0e 3d f0 b9 0e bd f0 4e 4f be 9a 8d f7 3d
       0.034772255 -0.034845293 -0.20244956 0.12087555
000140 2e c6 96 be 1d 7d 2e 3c 27 af d4 3d a5 07 ab be
       -0.29448074 0.0106499465 0.1038497 -0.3340427
000150 47 90 d7 3c d9 65 e6 bd d2 ed 1b 3f c6 a4 c0 bd
       0.026313914 -0.11249895 0.6090976 -0.09406428
000160 32 d4 3f 3d b6 55 23 3c 5c e6 ea 3d c6 27 35 bd
       0.046833225 0.009969166 0.11469719 -0.044227384
000170 65 19 c9 3c e9 9e 2d bf 5e 2e 37 3e f0 eb fe 3e
       0.024548242 -0.678206 0.17888781 0.4978938
000180 0a 43 db 3c 72 65 d1 3d ca 46 d9 bb 6d 4c 30 3d
       0.026765365 0.10224427 -0.006630753 0.043041635
000190 72 bf 45 be 78 09 89 3e 15 cb c9 bd 83 6b 14 3f
       -0.19311312 0.26765037 -0.09853188 0.5797655
0001a0 5e 7e 8a bd 53 01 84 be fc 98 7d bd 9b 9c ff bc
       -0.06762384 -0.2578226 -0.061913475 -0.031202605
0001b0 d0 40 72 3d d8 a6 01 be d2 0a 89 3d d8 0f 82 3c
       0.05914384 -0.12661302 0.06691517 0.015876696
0001c0 65 69 3b 3e 7b 82 87 bd 19 64 52 bd 87 0e ef 3e
       0.18301924 -0.06616684 -0.05136499 0.4669077
0001d0 91 35 c9 bb ce a7 80 3d a2 cf bc 3c 18 d1 a2 3d
       -0.006140419 0.06282006 0.023048226 0.07950038
0001e0 e6 f7 9e 3d 31 c6 24 be 63 00 94 bd 3e ff a3 3d
       0.077621266 -0.16091229 -0.07226636 0.08007668
0001f0 5e c8 03 3e 4d d4 51 3c 7a ff df bd 15 38 5d bd
       0.12869403 0.012806964 -0.109374 -0.054008562
000200 28 36 31 3b 09 58 e9 bc 38 b3 a6 3d 70 18 f5 bb
       0.0027040336 -0.028484361 0.08139652 -0.00747972
000210 71 39 94 bd 52 fa 02 3c 70 66 7a be 68 cc 0f 3e
       -0.072375186 0.007994251 -0.2445314 0.14042819
000220 ce 8a 57 3c 74 40 cc 3d 0a 2d 9a 3b 2a ab 69 3d
       0.013155652 0.09973231 0.004705076 0.057048
000230 01 20 08 bf b2 94 24 3e 87 b3 49 3e 11 8b b1 3c
       -0.53173834 0.16072348 0.1969739 0.021672757
000240 f2 61 f4 39 d3 8f 8e 3d 86 e5 56 bd ad 57 ea be
       0.00046612282 0.06961026 -0.052464984 -0.45770016
000250 15 83 25 be 9e ea d9 bd 4b e4 8e 3d 28 2f c1 bd
       -0.16163285 -0.10640453 0.06977137 -0.094328225
000260 c9 48 57 bd a0 c7 70 be 1a 1e d3 be 10 dc a2 3d
       -0.052559648 -0.23513651 -0.41233903 0.0795213
000270 6e b6 c2 be 4d c2 3b 3d 20 53 1b bb ba a1 1b 3c
       -0.38029808 0.045839597 -0.002370067 0.009499008
000280 81 80 4a bc 20 40 da bc 7a 6d c9 3e e8 bb 65 3e
       -0.012359739 -0.026641905 0.39341336 0.22434962
000290 79 7f bb bc 11 52 2c 3c b7 d4 43 be ce 4c ba 3d
       -0.022887932 0.010517613 -0.19124113 0.090966806
0002a0 99 de b6 3d f0 da 8f 3d a6 00 31 bd a7 b6 18 3d
       0.08929176 0.07024181 -0.04321351 0.037283566
0002b0 cd 1b 83 bd 06 aa a4 bd 75 10 95 be 6a fe d8 3d
       -0.06401787 -0.08040242 -0.29114118 0.10595401
0002c0 29 3d aa 3b a6 18 16 3e 2c 10 4a 3e 8d 0c 45 3f
       0.005195279 0.1465784 0.19732732 0.76972276
0002d0 07 31 e6 b9 9d eb 44 3f 6a 60 d9 3c 70 b5 0f 3e
       -0.00043905547 0.7692202 0.026535232 0.14034057
0002e0 db b4 de bd 55 2d 22 3c 07 2f e2 3d 32 69 5b 3c
       -0.10874339 0.009898503 0.11044126 0.01339178
0002f0 8c 01 e4 3d 91 11 48 be 4a 22 ef 3d ce 9f 32 3c
       0.111331075 -0.19537951 0.11676462 0.010902358
000300 75 4a fa bb 19 ef 05 3e f3 ff 3f be 50 b0 53 3d
       -0.0076382705 0.1307949 -0.1874998 0.051681817
000310 94 f7 0b 3d 92 55 f1 3b 12 aa 81 3d 02 c6 13 3d
       0.034171656 0.007364937 0.063312665 0.036077507
000320 5f f2 bb bd 3b b1 ee bc 7d 7c 91 3a 50 a5 8f be
       -0.09177088 -0.029137244 0.0011099722 -0.2805581
000330 37 a1 9e 3d 9c 90 10 3c 7d c7 78 3d 11 a1 ad 3d
       0.07745593 0.00882354 0.06073712 0.084779866
000340 ac 80 a1 3c 10 dc 74 bd 77 da 9e 3e 04 cb f7 3c
       0.019714676 -0.05978018 0.3102605 0.030248173
000350 eb e3 07 3d 19 81 1b be 9d 60 9d bd 52 5d 8f 3e
       0.033176344 -0.15185966 -0.07684443 0.28000885
000360 ea 37 d7 3e c1 3c 48 bd 64 79 d9 3d 26 6d e7 3d
       0.42034847 -0.048886064 0.106188565 0.11300115
000370 7a 38 27 3d b5 7f 24 3c da ed 81 3e 7a 88 96 3e
       0.040825345 0.010040213 0.2537678 0.29400998
000380 a9 a7 3e bd a2 aa 99 bb 70 de d6 3c f1 66 8b 3d
       -0.046546612 -0.0046895305 0.026229113 0.06806744
000390 15 e5 17 3e 9a 16 1d 3d 04 b5 4c 3c 34 8c 7e 3c
       0.14833482 0.038351633 0.012494329 0.015536357
0003a0 87 46 52 3e cf f7 a4 3d cc 91 0d 3a c0 3a 45 3d
       0.20534717 0.08055078 0.00054004486 0.04815173
0003b0 b1 70 d2 3c 6b b8 e3 bc a9 f1 81 3c 4a a3 52 bb
       0.025688501 -0.027797898 0.015862303 -0.0032140785
0003c0 0e cb c5 3e d6 d4 0e 3f 88 ea 42 be 46 da 1e be
       0.3863148 0.5579351 -0.19034779 -0.15512952
0003d0 85 1c 76 bd f5 4b ea 3d 62 b9 f1 bd 19 ff 8c 3d
       -0.060085792 0.11440269 -0.11802937 0.068845935
0003e0 28 b7 90 3f 27 81 03 3c b5 39 f9 bd 1e 07 ac bd
       1.1305895 0.008026398 -0.1216921 -0.08399795
0003f0 61 60 06 be 72 76 ce 3b bd 55 f5 be b6 4c 3c bd
       -0.13122703 0.006300741 -0.47916976 -0.045971595

fc2.bias f4 [128]
000000 0a b6 32 bf 65 ea 1d be 68 a8 6e be 1f 48 c6 be
       -0.6980902 -0.15421446 -0.2330643 -0.387269
000010 4b 75 19 3f 49 2d 1d bf 11 21 d9 be 5d 44 c2 3d
       0.599446 -0.61397225 -0.4240804 0.094856955
000020 5f 35 36 3e 67 9d 7b 3f 02 f2 63 3f 03 18 74 be
       0.17793797 0.9828705 0.8904115 -0.23837285
000030 72 63 41 3f 7f 01 96 bc 4a e0 27 3e f6 19 41 3f
       0.75542367 -0.01831126 0.16394153 0.7543024
000040 18 db 31 3e 5a dd 1e bf 85 02 a9 be 41 9a 24 be
       0.17368734 -0.62056506 -0.33009735 -0.16074468
000050 be 47 c8 be 92 01 05 bf 44 19 89 3e 57 77 8d 3f
       -0.39117235 -0.5195552 0.2677709 1.1052045
000060 6d 75 c7 be 17 ea e5 be 53 ec d1 bd 62 6f 37 be
       -0.38956776 -0.4490516 -0.102501534 -0.17913583
000070 0f 7d ab bd 6d eb d9 be 33 f3 76 be 2d 99 3e bf
       -0.083734624 -0.42562428 -0.2411621 -0.7445248
000080 5c 97 0f be a2 8c 81 bd b1 77 fc 3e 9f c0 88 3f
       -0.14022583 -0.06325652 0.49310067 1.0683783
000090 13 26 09 bf 18 9c a0 3e 49 e7 49 3c 07 c6 d2 3e
       -0.5357372 0.3136909 0.012323209 0.41166708
0000a0 78 92 16 bf c5 fc a0 3f 57 f5 2b 3e ba ac d4 bd
       -0.58817244 1.2577139 0.16792808 -0.103845075
0000b0 ee 50 c2 be ed 6b 3e 3e d7 52 cb be bc cd 19 bf
       -0.3795237 0.18595858 -0.3971164 -0.6007955
0000c0 66 6e 5d be 4a dd c9 be 13 63 76 be 2e 7e 4c 3f
       -0.21624145 -0.39426643 -0.24061231 0.79880035
0000d0 8e 63 35 be a1 11 04 bf ab 42 06 bf 1d db a3 3e
       -0.17713758 -0.515894 -0.5244548 0.32003108
0000e0 b4 69 81 bf 18 28 a7 3f 66 f0 78 bd be 42 0b bf
       -1.0110383 1.3059111 -0.060776137 -0.54398715
0000f0 59 7d 92 be 1b ae 41 3f 11 de 7e be e9 94 25 bf
       -0.28611258 0.7565629 -0.24889399 -0.64680344
000100 f9 e7 2f 3d e9 0a 92 bd 92 35 b3 bd 3a 17 43 3f
       0.042945836 -0.07130987 -0.08750452 0.76207316
000110 94 59 06 be b9 35 4b 3f 91 45 d2 3c c6 68 2a bf
       -0.13120109 0.7937885 0.025667937 -0.6656612
000120 f3 72 5a be f6 c4 c2 be a6 c2 20 3d 59 5c a9 be
       -0.21332912 -0.38040894 0.03924813 -0.33078268
000130 9a 73 1e be 51 8b b4 be 35 28 aa bd 2e 66 cc bd
       -0.15473786 -0.3526254 -0.0830845 -0.09980427
000140 70 4c c8 be 44 aa e3 3e d4 14 40 bf c2 fb 23 bf
       -0.39120817 0.4446584 -0.7503178 -0.64056027
000150 48 5c dd 3e bf 77 83 3f 4c 73 20 bf bb 7c 1c be
       0.43234468 1.0270919 -0.6267593 -0.15281956
000160 40 a4 f2 bd 54 27 b9 be 6a 56 26 bf 2b 9f 95 be
       -0.118477345 -0.36162817 -0.6497561 -0.29222998
000170 bc 36 c3 be 00 73 18 be 48 e0 ff be a3 c1 e0 3e
       -0.38127697 -0.14887619 -0.499758 0.43897733
000180 61 35 e8 3e cf cf 29 3f e5 a0 8b be ec db f8 be
       0.45353225 0.66332716 -0.2727119 -0.48605287
000190 6f 61 16 3d 2c 55 0a be 91 ce 09 3f 28 08 57 3e
       0.036714014 -0.13509053 0.5383082 0.20999205
0001a0 9f 17 38 3d 58 75 0f bf a8 b9 29 bf a3 be 4f be
       0.0449444 -0.5603843 -0.66298914 -0.20287566
0001b0 09 a9 c6 be d2 c9 80 3f 8b d7 3b be 8a 1c dc be
       -0.3880084 1.0061591 -0.18343942 -0.42990524
0001c0 f6 e4 cb bc ec b6 76 be b9 d9 25 be 48 2a 87 be
       -0.02488945 -0.24093217 -0.16196336 -0.26399446
0001d0 37 67 38 3e fd e6 b3 3d 8b d5 8d be 70 a1 0e be
       0.18008123 0.08784292 -0.27701983 -0.13928771
0001e0 96 13 0f 3f fa ed 05 3f 98 18 38 3f 3d eb e3 be
       0.5588926 0.5231625 0.7191253 -0.4451541
0001f0 3a 65 52 3e 8d 2e 67 3f 1b b7 54 bc 90 14 ce be
       0.20546427 0.90305406 -0.012983109 -0.40250063

fc3.weight f4 [64, 128]
000000 ce 99 bf bd 25 47 b6 be 42 d2 cb bb 4d b9 6a 3e
       -0.09355508 -0.35601154 -0.006220133 0.22922249
000010 ae 8d 94 3d 2e aa 8c bb d9 45 0f 3e 06 85 bb 3e
       0.07253586 -0.004292748 0.13991489 0.36624926
000020 65 42 63 bd dc d4 02 bd 13 30 ca 3e dc a6 15 bc
       -0.05548324 -0.03194128 0.39489803 -0.009134021
000030 52 d5 df bc 0e f3 ae 3c ce 7d d6 3c 3e 50 7b bb
       -0.027323399 0.021356132 0.026183035 -0.0038347389
000040 82 81 89 be ad 5e 03 3e 3d 21 0e 3f fa d1 be 3e
       -0.2685662 0.12829085 0.5551947 0.37269574
000050 09 19 51 bd 07 f6 c5 3e 45 3b ed bc ba fa 89 bd
       -0.051049266 0.38664266 -0.028958926 -0.067372754
000060 61 e8 fe 3d 81 c0 92 bc 54 02 82 3c c8 7a 20 3f
       0.124466665 -0.017914059 0.01587025 0.6268735
000070 d9 c5 ce 3b f9 1a 0f be 4d 04 a4 3d 5a ea 3b be
       0.0063102064 -0.13975133 0.08008633 -0.18351117
000080 2f 67 11 3e 85 56 12 be b7 89 fe bd 24 00 8c bc
       0.14199518 -0.14290817 -0.12428611 -0.01708991
000090 ad 46 32 3f ce 32 ad bd 7e 9b ba be 86 fe a7 bd
       0.6963909 -0.08456956 -0.36446756 -0.08202843
0000a0 8c a6 a0 3e 9d dc 87 be 4b bd 35 bd 8b 9b 8c 3d
       0.31377065 -0.26535502 -0.044369977 0.06865605
0000b0 65 9d 45 bc 8e 64 52 3e 8b a1 d0 bd 6c 92 51 3e
       -0.012061452 0.20546171 -0.10187062 0.20466012
0000c0 38 a7 b7 bc 60 85 7e 3e 5b 3f 1f 3e 30 54 0d be
       -0.022418603 0.24855566 0.15551512 -0.13801646
0000d0 c2 f5 f8 be 6e 50 cf bd 9e fa a2 3d 68 11 19 be
       -0.48624998 -0.101227626 0.07957958 -0.14948046
0000e0 98 2b c2 bc 70 4e 06 3b a9 d3 b7 3d cd 53 1f be
       -0.023702428 0.002049353 0.08975918 -0.15559311
0000f0 34 38 a5 3d 09 2b 24 3e 3b c0 ba bc 88 a1 38 3d
       0.080673605 0.16032042 -0.02279674 0.045075923
000100 af 72 2c be b2 ca 5e 3d b1 5f 95 bb 21 78 ad bd
       -0.16840623 0.054392524 -0.0045585264 -0.084701784
000110 32 f1 88 3e 66 dd b7 be 81 0d 36 3d 9b f4 1e 3c
       0.26746517 -0.359111 0.044446472 0.009701873
000120 a7 1b ba 3d 58 6d 0b be 48 44 e9 3d f5 36 8c 3e
       0.090873055 -0.1361593 0.11389977 0.2738568
000130 a9 2e 03 be 6d 57 23 3e 65 0e 23 3d 1e ac af 3d
       -0.12810768 0.15951319 0.03980865 0.085777506
000140 09 3c ac be 5b ae dd bd 5d 48 d8 bd ab 0d ec bd
       -0.33639553 -0.10824271 -0.10560677 -0.115260445
000150 89 7c a8 be bc 6f 63 3d 62 f2 5d 3e b8 98 e7 3d
       -0.32907513 0.05552648 0.21674493 0.11308426
000160 47 05 87 3a 16 2a 81 3d 25 fd d2 be 26 80 ed 3e
       0.0010301255 0.063068554 -0.4120876 0.46386832
000170 a2 8e cb 3e 70 e8 6c 3d 09 03 22 3e 51 95 27 be
       0.39757258 0.057838857 0.1582147 -0.16365553
000180 74 48 7d bd 2e c8 5e bc 45 5e 93 be e3 8b 51 3c
       -0.061836675 -0.013597531 -0.2878286 0.012789699
000190 a9 ac c6 3e e6 0a 03 be 7c 0f 23 be 05 90 ba bb
       0.38803604 -0.12797126 -0.15923876 -0.005693438
0001a0 18 ff 91 3d 51 81 be 3e 52 b5 d6 3d 7c f7 f4 bd
       0.071287334 0.37208036 0.10483803 -0.119612664
0001b0 ea e5 55 be 00 d6 80 3e fd 3f 2b 3e 6f 93 18 3f
       -0.20888487 0.2516327 0.16723628 0.59599966
0001c0 7c a8 ef bd ea f8 d8 3e 2b 74 1e bd 28 35 a3 3e
       -0.11702058 0.42377406 -0.038685005 0.31876493
0001d0 20 d8 6b bd 4d c5 eb bc cc 03 fe bc b6 5a cc be
       -0.05757916 -0.028780604 -0.03100767 -0.39912957
0001e0 a4 dd 47 3e 48 b1 fc bd 7c 10 4e bd ab 10 3d 3e
       0.19518143 -0.12338501 -0.05030869 0.1846339
0001f0 7a ca 05 3e b6 95 25 3d 17 81 94 be ff e0 ad 3d
       0.1306552 0.04042598 -0.29004738 0.0849018
000200 f6 f1 15 be 15 78 1f bf 6e 4c 68 3d 6a 90 8a 3e
       -0.14643082 -0.62292606 0.056713514 0.27063304
000210 00 bb 0f bd 82 11 f4 bd 21 e3 ae bd b2 8d be be
       -0.035090446 -0.11917402 -0.08539415 -0.3721748
000220 39 45 1f 3d 4e 24 da bd e4 1e b8 3c d6 81 1c be
       0.038884375 -0.10651456 0.022475667 -0.15283903
000230 c0 10 2b 3e bd 6c 9e bd 93 b0 c1 bd d7 eb fe bd
       0.16705608 -0.07735584 -0.09457507 -0.12447327
000240 8f a5 22 3e e0 ee 31 be 09 f7 b0 3b 6e 09 96 be
       0.15883468 -0.1737628 0.0054005426 -0.2930407
000250 0d c9 2d 3e 6f 91 1c 3c 28 75 7c be 05 ea 59 be
       0.16971226 0.009556158 -0.24654067 -0.21280678
000260 cf c1 ee be 3f 14 d9 be 3c 48 d7 3d 2d d6 ab be
       -0.4663224 -0.4239826 0.105118245 -0.3356184
000270 0f d9 4b 3e d6 3e 16 3e 24 1e 38 3e b5 e2 42 3e
       0.1990702 0.14672408 0.17980248 0.19031794
000280 a4 17 65 3d 56 47 ab 3d 1e c0 90 3e fe 54 14 bd
       0.05593075 0.083632156 0.28271574 -0.036213867
000290 5c 24 5e be 0a 45 b7 be 30 05 a5 3d 22 3c 76 be
       -0.21693558 -0.3579486 0.0805763 -0.24046376
0002a0 f3 05 fb bc bd eb 83 3c 2e 39 19 3e 60 42 f9 3c
       -0.030642485 0.01610362 0.14963219 0.030427158
0002b0 e5 19 6d be f9 f3 07 bc 80 c0 64 3d e5 20 13 be
       -0.23154409 -0.008297914 0.055847645 -0.14368017
0002c0 f9 72 06 be 7e 40 1e 3e c1 7f e6 be bd 2b 77 3e
       -0.13129796 0.1545429 -0.45019343 0.24137779
0002d0 ec aa 2c be 1d 09 a2 3e fa b1 ec be 9a a7 15 3e
       -0.16862077 0.31647578 -0.46229535 0.14614716
0002e0 27 53 51 3e 78 24 29 3d 9b 71 22 3d 2a a4 9a be
       0.20441876 0.041294545 0.039659124 -0.30203372
0002f0 7a d9 11 3e 21 b9 e1 be 17 94 9b bc d0 28 dd bd
       0.14243117 -0.44086555 -0.018991513 -0.107988
000300 71 8d 46 3d ad 84 ed 3d 63 46 a2 bd 1c 00 90 3d
       0.048474733 0.115975715 -0.079235815 0.07031271
000310 25 9a 2c 3c 38 62 e1 3d 07 fd 95 3e 1f d8 8e be
       0.010534798 0.11005062 0.29294607 -0.27899262
000320 22 aa 04 3e a5 3f c6 3e 65 1e 36 be a6 4c 5f b9
       0.12955526 0.38720432 -0.17785032 -0.00021295491
000330 95 aa 48 bd ba 1b 60 bb 1d 11 b5 3d c5 39 b6 bd
       -0.048990805 -0.0034196214 0.08841155 -0.088977374
000340 69 b2 3f bf 7f f5 12 bd a4 02 2d 3e 49 a4 8e be
       -0.7488161 -0.035878655 0.16895539 -0.27859715
000350 51 3a ed 3d d3 78 a7 3e ca e4 33 3e 8f 9d aa bd
       0.115833886 0.3270937 0.17567745 -0.08330833
000360 85 c0 85 be d9 a0 2d 3c 53 cd cc 3c a3 32 1a bf
       -0.26123443 0.010597431 0.02500025 -0.60233516
000370 9f bd 92 be 1c 19 f6 3d 59 34 71 be 27 6f a2 3d
       -0.28660294 0.12016508 -0.23555125 0.07931357
000380 8c 7c 46 be 31 fe 6c bb 03 e5 91 3e 9f 6b 0e bd
       -0.19383448 -0.0036162252 0.28495035 -0.034770604
000390 7b 2b 3d 3d d7 ef 04 be 5a 21 2a 3e 20 59 a9 bd
       0.046184044 -0.12982117 0.16614285 -0.08268952
0003a0 50 00 b7 be 2a 33 71 3c 19 ce 99 3a 1f 41 9e bd
       -0.35742426 0.014721671 0.0011734396 -0.077272646
0003b0 66 c3 3b be 64 e6 57 be 63 34 cf bb 41 ce 9e bd
       -0.18336257 -0.21083981 -0.0063233837 -0.077541836
0003c0 1a 15 b1 3d 05 61 0d 3e 32 f5 14 bd 74 38 81 bd
       0.08646603 0.13806541 -0.03636665 -0.06309596
0003d0 51 db 34 3e 8c 62 92 be 36 fc 91 3d 66 02 4d bc
       0.17661788 -0.2859081 0.071281835 -0.012512779
0003e0 5c c5 d5 be a9 46 97 3e 7a b0 3d be 93 e3 c5 be
       -0.41752136 0.29546097 -0.18524352 -0.38650188
0003f0 47 17 46 bd b6 6d 18 3e d6 9d 95 be 60 40 b6 be
       -0.048362043 0.14885601 -0.29221982 -0.3559599

fc3.bias f4 [64]
000000 00 ba 39 3f 75 22 4f 3f 48 90 b2 be 03 81 39 3f
       0.7254944 0.8091195 -0.34875703 0.7246248
000010 60 4f fc be 0f a7 16 bf 75 b9 1d bf 8d 80 9f be
       -0.49279308 -0.5884866 -0.6161111 -0.31152764
000020 b1 53 f6 be a7 d4 da be 62 e3 8f 3f b3 59 70 3f
       -0.48110726 -0.42740366 1.1241267 0.9388687
000030 b0 36 e1 bd f3 0b 43 3f fc 6c 9c be 75 f8 9c be
       -0.10996759 0.7619011 -0.30551898 -0.30658308
000040 38 80 24 3f 68 ac d1 ba b4 ee 37 be a4 c6 86 be
       0.64258146 -0.0015996816 -0.17962152 -0.26323426
000050 f4 c8 28 be 88 fa 71 3e f2 f0 20 3f fd 34 2d be
       -0.16482908 0.23630726 0.62867653 -0.16914745
000060 f8 00 95 be f3 6a 11 bf 4c 06 e1 be 7b d2 ee bd
       -0.29102302 -0.56803817 -0.43950117 -0.1166124
000070 7d 6c 5d 3e 02 9b 3d be 91 e1 60 be d2 72 8a bd
       0.21623416 -0.18516162 -0.21961047 -0.067601815
000080 6b bb ba bd 2e 86 3e bf be f3 2a be df 47 1d be
       -0.091177784 -0.7442349 -0.16694543 -0.15359448
000090 11 a1 7b be b7 38 44 3f 68 b3 35 3f e5 a4 66 be
       -0.2457316 0.7664904 0.7097688 -0.2252384
0000a0 b5 44 c0 3e 6d a6 97 be 9e 61 3a bf aa ee 12 3f
       0.3755242 -0.2961916 -0.728052 0.5739542
0000b0 57 46 ae be d8 ea 81 be b1 54 6a 3f 8f 65 77 be
       -0.3403804 -0.25374484 0.9153548 -0.24159835
0000c0 99 17 90 be 44 cc 37 3f e7 bd d0 be 37 81 06 3f
       -0.28143004 0.7179606 -0.40769884 0.52540916
0000d0 86 3d 8e bd 9d 5a c0 3f 37 91 38 3f c6 7b 12 be
       -0.069453284 1.5027653 0.7209658 -0.14305028
0000e0 10 9c ea 3d 31 df 17 3e 87 db 68 bf 17 c7 0b bf
       0.11455548 0.14831235 -0.9095997 -0.5460066
0000f0 98 e9 94 be d2 d8 0f bf bb 80 de 3e 57 64 c7 bd
       -0.29084468 -0.56190217 0.4345759 -0.09735935

fc4.weight f4 [10, 64]
000000 7e dc b8 be b0 97 82 3e b4 ce 39 3d e0 c2 32 3c
       -0.36105722 0.25506353 0.045363143 0.01091072
000010 17 ed 8e be 6b f1 c1 be f6 43 4b bf c1 a1 4b be
       -0.2791526 -0.378795 -0.79400575 -0.19885923
000020 da cf 05 be c2 bc ca be ef 49 20 3d 68 2a a0 bd
       -0.1306757 -0.39597136 0.03913301 -0.07820588
000030 22 86 28 3d e7 ff 3b bc 93 4e 71 3d 59 82 f3 be
       0.041143544 -0.011474586 0.058912825 -0.47560385
000040 e9 b7 bd 3d 00 fe 3d bf c4 0f 82 bd c6 10 ec be
       0.09263594 -0.742157 -0.06350663 -0.46106547
000050 b7 bf 4b be 80 30 3b be 68 1a c7 3b 53 1e da 3d
       -0.19897352 -0.1828022 0.006076146 0.10650315
000060 3c 88 72 3d 3b 10 84 be 0b 96 75 be 14 23 4a 3e
       0.059211954 -0.25793633 -0.23983018 0.19739944
000070 c1 76 ce bd 79 f1 9c 3d 54 2a fa bd be e1 58 be
       -0.10081244 0.07663245 -0.12215105 -0.21179864
000080 36 7d c1 3d eb 97 fa be ef e8 3a 3e 8e ec 37 be
       0.0944771 -0.4894403 0.1825292 -0.17961332
000090 51 58 0d 3d 61 32 ee 3b 0e 67 e4 bd 5e 05 da 3d
       0.034508053 0.007269189 -0.111524686 0.10645555
0000a0 8d 10 c4 3d ed a4 84 be a3 8a 07 be ab a4 69 bf
       0.09573469 -0.25907078 -0.1323648 -0.9126689
0000b0 78 df 64 bf 06 3c 2e be d8 9d b8 3d 2d 4d 17 bf
       -0.89403486 -0.17015085 0.09014481 -0.59102136
0000c0 cb 6a e8 be 8e b5 51 be a4 34 f4 3d f8 86 54 be
       -0.45393977 -0.20479414 0.11924103 -0.20754611
0000d0 8d 39 48 3e 3b 4f 5a bf fc 1a 20 3e aa 33 92 b8
       0.19553204 -0.85277146 0.15635294 -6.971446e-05
0000e0 25 03 6e 3d 25 52 81 be 0a 82 28 be 44 fa 9b 3d
       0.058108468 -0.25257984 -0.16455856 0.07616094
0000f0 8a 0d 88 be 3d 47 d6 be 35 e5 99 be 6a 00 dc 3c
       -0.2657283 -0.41851225 -0.30057684 0.026855666
000100 73 5f d5 3d b5 26 cb be db c9 9d bd f8 76 0d be
       0.10418596 -0.3967797 -0.077045165 -0.13814914
000110 57 da de be 2f 4d 40 bf 2f a4 b6 be a1 bf 8e 3d
       -0.43525955 -0.7511777 -0.35672137 0.06970144
000120 1e 00 8d bd 6b d1 13 bf 6a 00 f5 3d 36 05 71 3e
       -0.06884788 -0.5774142 0.119629696 0.23537144
000130 33 41 01 3d 0a 37 26 bd 27 6f 1f bf 7f ea 82 bf
       0.03155632 -0.040579833 -0.6227898 -1.0227813
000140 cb 2b 2d 3e 44 51 4c bf 95 fa 87 3d d0 9c f4 be
       0.16911237 -0.798115 0.066395916 -0.47775888
000150 a4 84 23 bc b6 48 d4 be 49 bb e9 be 9f d8 15 bf
       -0.009980354 -0.41461724 -0.456507 -0.5853366
000160 9d 0a 2c be a6 3d d8 bd 1c f5 39 3e 20 80 ed bc
       -0.16800924 -0.105586335 0.18159908 -0.028991759
000170 54 7c fe 3d 20 35 6a be e3 c8 95 be ee 63 fe 3d
       0.124260575 -0.22871828 -0.29254827 0.12421404
000180 b1 dc 5a 3c 7d d1 8c bf ab 9b 5c bf e6 a5 8b be
       0.013358281 -1.1001431 -0.8617503 -0.27275008
000190 bf 4b 34 3d 79 90 72 bf 94 c5 06 bf 02 77 da bd
       0.04401755 -0.947517 -0.5264523 -0.1066723
0001a0 a9 c0 c7 be 95 dd 89 be a8 45 c2 be fa 36 72 bf
       -0.39014176 -0.26926866 -0.37943769 -0.9461514
0001b0 f1 fe 8f be 2d 16 31 3e 35 31 20 be 89 c0 45 bf
       -0.28124192 0.17293616 -0.15643771 -0.7724691
0001c0 15 e4 d4 be 33 3e 9a be 62 f6 05 be c8 06 8b 3d
       -0.41580263 -0.3012558 -0.13082269 0.06788403
0001d0 03 ee f5 bd d7 78 a0 bf 62 02 c1 be 2e 45 1f bd
       -0.12008288 -1.2536877 -0.3769713 -0.038884334
0001e0 39 8a ba 3d de b8 4d bf d9 05 d5 be ff 55 a0 bd
       0.09108395 -0.8036021 -0.41606024 -0.078289025
0001f0 3a 82 38 be 7e b3 e3 be c1 05 dc be c6 b4 1a be
       -0.18018427 -0.4447288 -0.4297314 -0.15108022
000200 27 e1 b4 3d a7 3e 8e bd c7 5a 08 bf 7f 2f fe bc
       0.08832007 -0.06945544 -0.53263515 -0.031028507
000210 00 ba c3 be a5 3f 0a bf 17 0a ad bf a8 ee 1e be
       -0.38227844 -0.54003364 -1.3518704 -0.15520728
000220 60 ca 35 bf b3 46 ae be cd e6 af 3d f1 c6 88 be
       -0.71011925 -0.34038314 0.08588944 -0.2671428
000230 74 e8 0e bd e0 22 48 3e e1 1c 4e bd 3c 69 aa 3c
       -0.034889653 0.19544554 -0.05032051 0.020802133
000240 fc 07 b8 be 0a d6 9e be 82 b6 96 be a1 a0 49 be
       -0.35943592 -0.31022674 -0.29436117 -0.19690181
000250 f6 fc de 3c c7 78 37 bd dd be a6 3d b3 13 65 be
       0.02722023 -0.044792917 0.08141873 -0.22370796
000260 02 35 c3 bd f2 16 5d be e5 36 36 3e 77 a0 84 be
       -0.09531595 -0.21590784 0.17794378 -0.25903675
000270 5e 7d 61 bd 11 9e 4c be f2 9d f3 bd bf 3c 67 bd
       -0.0550512 -0.19982173 -0.1189536 -0.056454416
000280 c0 e9 00 bd ed 55 27 bf a5 fc 60 3d b2 06 28 bf
       -0.03147292 -0.6536549 0.05492844 -0.65635216
000290 b5 98 b6 bb 13 46 32 3e 7f 8e 3e 3e 8e c4 50 bd
       -0.0055724033 0.17409544 0.18609045 -0.0509687
0002a0 37 32 a5 be c9 fe 6e be a7 cb 62 bf d8 e8 f4 be
       -0.32264873 -0.2333938 -0.88592 -0.47833896
0002b0 a9 e4 cf be ec 57 52 bd f9 a9 af 3c b5 65 56 be
       -0.4060414 -0.05135338 0.021443354 -0.20937236
0002c0 4d b1 cc bd 56 a2 cd be b3 9e 34 be 56 a8 61 be
       -0.09994755 -0.40162915 -0.17638664 -0.22036871
0002d0 2e d3 fb be 13 fa ad bf d1 ee 1c be 3e a4 6d bd
       -0.49184555 -1.3591942 -0.15325476 -0.05801796
0002e0 5a 75 20 3e 68 b1 18 bf 17 af 0b bf 08 4b 69 ba
       0.15669766 -0.596457 -0.5456404 -0.0008899425
0002f0 0c c5 96 be 6e bc d1 be c5 71 2d bd 72 30 be bd
       -0.2944721 -0.40964073 -0.042344827 -0.09286584
000300 89 0e 76 be 14 16 cc bc a3 be f2 bd b6 5d 6f 3e
       -0.24028982 -0.024912871 -0.11852767 0.23375592
000310 20 4c ca be d3 bc 8a be cd 41 ea be 14 4d 3f 3b
       -0.39511204 -0.27097186 -0.45753327 0.002919023
000320 b8 bc 4f be 83 ae 10 bf f9 79 37 3d b5 15 60 3e
       -0.20286834 -0.56516284 0.044794057 0.2188328
000330 dd ff 57 3c 8b ea b5 be 5f 34 68 be bf f4 16 bd
       0.013183561 -0.35530505 -0.22676228 -0.0368545
000340 2c f7 69 3d 3e 85 25 bf 33 5d 03 be 0b 69 89 3d
       0.057120487 -0.64656436 -0.12828521 0.067094885
000350 ea b0 12 3e ef 96 8f ba d1 0f 0d 3e 75 cc c5 3c
       0.143253 -0.0010955016 0.13775565 0.024145344
000360 0c 69 b4 be 72 8c de be 85 57 19 bf 20 b5 58 be
       -0.35236394 -0.43466526 -0.5989917 -0.21162844
000370 d6 33 17 bd 73 5f 61 be 45 da 2a bd 7b 0c 85 be
       -0.03691467 -0.22009067 -0.041712064 -0.25986084
000380 05 8b 7a bd 53 f7 6a bf be da da bd 82 d5 aa be
       -0.061167736 -0.91783637 -0.10686253 -0.3336602
000390 27 19 df bd fe df 01 3d d0 5e aa be cd bb f1 bc
       -0.10893469 0.031707756 -0.3327546 -0.029508496
0003a0 60 22 53 be 59 db 91 be 4e 12 e6 bd 8b fe 84 bf
       -0.20618582 -0.2848766 -0.1123396 -1.039018
0003b0 11 48 e4 be e4 9e 1c bd 21 b8 ba be 1d 03 56 bf
       -0.44586232 -0.038237467 -0.36468604 -0.835985
0003c0 fd 02 84 be 89 dc 84 bd e3 d2 af bd 1e 06 4e bd
       -0.2578353 -0.06487376 -0.08585145 -0.050298803
0003d0 44 7f 05 be 21 42 8a bf 65 d0 03 bd a2 77 0e 3d
       -0.13036829 -1.0801431 -0.032181162 0.03478206
0003e0 76 4d c6 3d 1c 29 39 bf 90 12 ae be 64 28 b9 bb
       0.09682743 -0.7232835 -0.33998537 -0.005650567
0003f0 39 7b 13 3e e6 2f f5 be 7e 2f 47 be 55 9d 64 3d
       0.14402474 -0.47888106 -0.1945171 0.055814106

fc4.bias f4 [10]
000000 0c ad 0a be a7 51 be be 9b 1b 94 3e 6c 65 d2 3e
       -0.13542575 -0.3717167 0.2892731 0.41093004
000010 28 76 be be 82 6f e2 3e 2a cd 34 3e ad bc 42 3e
       -0.3719952 0.442257 0.17656389 0.19017287
000020 8f a4 d1 3d de 71 56 bf
       0.10236465 -0.837675
