runs/Mar02_17-14-10_cssd901383-Run(lr=0.001, batch_size=256, patience=1)-valid/checkpoint.pt (torch_old, 972387 bytes, 8 tensors)

fc1.weight f4 [256, 784]
-0.014498392 -0.017611226 -0.030891186 -0.0387926 -0.040041715 -0.22361112 0.122619025 0.2591771
0.2811683 0.31822446 0.32634452 0.26079503 0.21053681 0.15971881 0.20533083 0.17242517
0.17099221 0.23853214 0.28511125 0.3071815 0.29536393 0.21271941 -0.11847809 0.00780413
-0.3000177 0.11078226 -0.049178854 -0.017553622 -0.08033308 0.11210268 0.105905056 0.094292
-0.07439447 -0.19036342 -0.004366719 0.17482343 0.20048176 0.09440286 0.26977023 0.14715861
0.0011924525 0.028065782 -0.02559916 -0.032923054 -0.044948086 0.12845188 0.22178543 0.1462921
0.05202453 0.13656531 -0.14513862 -0.307836 -0.3028581 0.19075596 0.072567195 -0.032022905
0.05443515 -0.014429997 -0.030809212 0.024533955 -0.051291823 -0.04237219 0.0009393909 0.051846854
-0.0052710157 0.08954799 0.12465253 -0.0061020185 -0.101333156 -0.049426027 -0.037324816 -0.07737254
-0.10110731 -0.0031476973 0.14164762 0.15523969 0.009854568 0.1419437 0.030564142 -0.06933747
-0.44338143 0.085184984 0.112614825 -0.08021558 0.082401045 -0.27524704 0.04584846 -0.09917693
-0.1337236 -0.10223353 0.0537399 -0.01644538 -0.0935843 -0.011603981 0.02121311 -0.022777366
-0.047158018 -0.0521254 -0.05605397 -0.11945311 -0.074818216 -0.031300724 0.05248895 -0.00982538
0.040537275 0.011491755 -0.04107364 0.0676083 -0.43123788 0.006614672 0.040512174 -0.23363361
-0.0849625 0.03324826 -0.112372525 -0.05835044 -0.08865371 -0.30462337 0.04968258 -0.017926512
-0.1864503 0.0030529439 -0.0229325 -0.035226155 0.009839308 -0.06627401 -0.0053640893 -0.05874775
-0.031031413 -0.019393573 -0.013112932 -0.12277525 -0.18654338 0.03779305 -0.15578134 0.213533
-0.0990544 -0.10281477 -0.17433633 -0.26637238 0.037063126 0.21961966 -0.12052991 0.00088336196
-0.08209348 -0.30944648 0.038552873 -0.17851193 -0.11594273 -0.0074774413 -0.05168741 -0.0025434075
0.02036813 -0.056457143 -0.030906463 0.020645877 -0.07679924 -0.09363599 -0.07184631 -0.045062747
-0.14234206 -0.13204804 -0.15615104 0.16782615 -0.020072624 -0.030801501 -0.14879309 -0.25896102
0.21007422 0.19048226 -0.07601223 0.21839066 -0.14637367 -0.10498806 -0.042901542 -0.19432329
-0.11383451 0.035485756 -0.042585433 -0.04839024 -0.021231465 -0.05601288 -0.027267262 -0.07759921
-0.096046165 -0.089730546 -0.05558593 0.047513284 -0.15561253 -0.12695438 -0.15140706 0.119532555
-0.08665225 0.015888833 -0.25860664 -0.2315674 0.09352063 0.14680423 0.13124219 0.108679004
-0.14565584 -0.071646824 -0.038811244 -0.22908606 -0.13083424 0.01561504 -0.086896785 -0.09506545
-0.08752004 -0.062203646 -0.055051625 -0.08280152 -0.14003137 -0.18961093 -0.1374185 -0.0155430855
-0.16857675 -0.1478083 -0.2696569 -0.13188988 -0.04132691 0.027583867 -0.1219994 -0.235913
-0.2608926 0.16121663 0.104149476 0.02840816 -0.22547238 -0.043057434 -0.037097313 -0.22300448
-0.16505374 -0.02996469 -0.08690727 -0.057744958 -0.061377265 -0.041995563 -0.123403035 -0.11592818
-0.05616751 -0.19578831 -0.19079715 -0.057221096 -0.13603647 -0.10863095 -0.1768377 -0.13218945
-0.11902239 -0.063315995 -0.11507209 -0.29356155 -0.2554287 -0.26933983 0.10629927 0.029314734
00000000: aa8a 6dbc 6b45 90bc 830f fdbc fde4 1ebd
00000010: c802 24bd 50fa 64be af1f fb3d dcb2 843e
00000020: 4bf5 8f3e 51ee a23e a116 a73e ed86 853e
00000030: f696 573e 548d 233e 3f42 523e 3990 303e
00000040: 9518 2f3e c541 743e 1afa 913e e546 9d3e
00000050: f139 973e 1ed3 593e a4a4 f2bd cab9 ff3b
00000060: ec9b 99be cfe1 e23d c46f 49bd 9dcc 8fbc
00000070: ab85 a4bd 1796 e53d c0e4 d83d 2a1c c13d
00000080: 215c 98bd a1ee 42be b216 8fbb ea04 333e
00000090: 174b 4d3e 4956 c13d 531f 8a3e bfb0 163e
000000a0: 114c 9c3a 36ea e53c 54b5 d1bc 53da 06bd
000000b0: 7c1b 38bd e488 033e b81b 633e 99cd 153e
000000c0: ac17 553d c7d7 0b3e 389f 14be ae9c 9dbe
000000d0: 3810 9bbe 8855 433e 1c9e 943d 732a 03bd
000000e0: 64f7 5e3d cb6b 6cbc 9a63 fcbc 6ffb c83c
000000f0: 6017 52bd 768e 2dbd 7541 763a 5e5d 543d
00000100: 7cb8 acbb f064 b73d d349 ff3d 71f3 c7bb
00000110: c287 cfbd f272 4abd e8e1 18bd 7f75 9ebd
00000120: 5911 cfbd 9949 4ebb 130c 113e 27f7 1e3e
00000130: 0e75 213c b059 113e a761 fa3c ce00 8ebd
00000140: e402 e3be 7775 ae3d 9aa2 e63d 1148 a4bd
00000150: e1c1 a83d 2eed 8cbe 98cb 3b3d 461d cbbd
00000160: d7ee 08be d05f d1bd 5f1e 5c3d 76b8 86bc
00000170: 20a9 bfbd a01e 3ebc 1ec7 ad3c 9997 babc
00000180: c428 41bd 7281 55bd d998 65bd d5a3 f4bd
00000190: 4b3a 99bd 3035 00bd a7fe 563d a1fa 20bc
000001a0: 6a0a 263d ea47 3c3c d53c 28bd 3876 8a3d
000001b0: 36cb dcbe e4bf d83b 18f0 253d a63d 6fbe
000001c0: d200 aebd 542f 083d 9123 e6bd df00 6fbd
000001d0: 1490 b5bd 98f7 9bbe f67f 4b3d 9fda 92bc
000001e0: d4ec 3ebe e613 483b f0dc bbbc 4d49 10bd
000001f0: 0d35 213c abba 87bd 3ec5 afbb 7ba1 70bd
00000200: 9735 febc 45df 9ebc a0d7 56bc 9771 fbbd
00000210: 3a05 3fbe e3cc 1a3d 2585 1fbe 65a8 5a3e
00000220: 09dd cabd 8d90 d2bd 3985 32be f661 88be
00000230: 81cf 173d fae3 603e 63d8 f6bd 6b91 673a
00000240: a020 a8bd c56f 9ebe 9ee9 1d3d d5cb 36be
00000250: 6273 edbd 5305 f5bb 2db6 53bd 4caf 26bb
00000260: 11db a63c 9b3f 67bd 8d2f fdbc 8b21 a93c
00000270: ec48 9dbd 3ac4 bfbd 2824 93bd b793 38bd
00000280: 1ec2 11be 9a37 07be 0fe6 1fbe 9eda 2b3e
00000290: 586f a4bc 6e53 fcbc 375d 18be 8a96 84be
000002a0: b21d 573e c80d 433e 4dac 9bbd cda1 5f3e
000002b0: fbe2 15be fb03 d7bd 87b9 2fbd affc 46be
000002c0: 1122 e9bd 8359 113d 106e 2ebd d834 46bd
000002d0: 9ced adbc c36d 65bd 985f dfbc 56ec 9ebd
000002e0: dab3 c4bd a6c4 b7bd 12ae 63bd 4a9d 423d
000002f0: e458 1fbe 5400 02be 740a 1bbe 7ccd f43d
00000300: bc76 b1bd 4c29 823c 1768 84be 0120 6dbe
00000310: be87 bf3d d953 163e 5a64 063e 1993 de3d
00000320: ce26 15be 92bb 92bd 8af8 1ebd 8995 6abe
00000330: 69f9 05be 3ad6 7f3c f1f6 b1bd adb1 c2bd
00000340: b53d b3bd 40c9 7ebd d07d 61bd d893 a9bd
00000350: 6264 0fbe 5e29 42be 6fb7 0cbe 6da8 7ebc
00000360: 629f 2cbe 0f5b 17be 7810 8abe 240e 07be
00000370: 6846 29bd 90f7 e13c d2da f9bd 2d93 71be
00000380: b793 85be f915 253e 524c d53d 3bb8 e83c
00000390: 3be2 66be fe5c 30bd 5af3 17bd 495b 64be
000003a0: d903 29be 8278 f5bc 70fc b1bd fa85 6cbd
000003b0: ba66 7bbd 8a03 2cbd bbba fcbd c16b edbd
000003c0: e70f 66bd bb7c 48be 5460 43be ab60 6abd
000003d0: 254d 0bbe e779 debd f114 35be ac5c 07be
000003e0: 03c2 f3bd d1ab 81bd eaaa ebbd b34d 96be
000003f0: 8dc7 82be e9e6 89be 6fb3 d93d 7425 f03c

fc1.bias f4 [256]
-0.1360724 0.9459896 -0.048591785 -0.01339324 0.43258446 -0.0045696897 -0.08291916 0.45857236
-0.03314572 -0.032655567 -0.35771126 -0.07807948 -0.13909826 -0.08163104 -0.058969423 -0.09601728
-0.38193268 -0.10542476 -0.07943904 -0.41389188 -0.027267078 0.16323741 0.782289 0.56691015
-0.048778184 -0.10727437 -0.03192681 -0.02692942 -0.07592295 -0.08439749 0.027537413 -1.113128
1.2255051 -0.01968787 -0.033622205 -0.093348786 -0.058532942 -0.05971082 -0.05021421 -0.1539925
0.03671393 -0.08183222 -0.1540293 -0.065912075 0.37314716 0.02684808 -0.08940583 0.58065283
-0.24728827 0.24199474 -0.038459536 0.9708211 -0.007896877 0.112697504 -0.045644246 -1.120549
1.2820858 1.1292938 -0.50060976 -0.5660038 -0.0503048 -0.06895619 0.051724702 0.86737525
0.1130302 -0.055073947 -0.8901349 -0.08197606 -0.04581133 -0.20474444 -0.065989636 -0.084273115
0.045091268 -0.07409836 -0.03844844 -0.04120895 -0.036766756 -0.12611441 -0.04742885 0.23993765
-0.10383844 -0.050352 -0.06497621 -0.083396465 -0.06265173 0.38111213 -0.45317063 0.4652318
-0.077140614 -0.08244495 -0.060973298 -0.042244624 -0.58084136 -0.56454957 0.5377561 -0.11735219
0.4641342 -0.054051567 -0.04054849 -0.1613559 -0.040671814 -0.06305339 1.0681936 -0.093231164
-0.04437132 -0.042272817 -0.053403955 -0.08790861 -0.0788586 -0.044573653 0.2699767 -0.4317069
-0.098172665 -0.003164769 -0.005680052 -0.051762763 -0.07352292 -0.14586644 0.32214808 -0.05593423
0.12542003 -0.13501617 -0.07015249 -0.07658123 -0.036214877 -0.38102543 0.0625957 -0.13041301
-0.05087452 -0.24194703 -0.16051024 -0.55414593 0.49949473 -0.041130524 -0.07630001 -0.010370121
-0.122126766 -0.013017308 0.103494756 -0.04153468 -1.0967295 -0.050150916 -0.031766582 -0.88029647
-0.26302144 0.13743746 -0.7958478 -0.077622645 -0.090136096 -0.09542467 -0.1437411 -0.09199341
-0.06130392 -0.059298296 -0.10888317 -0.095480025 0.1948464 -0.071703345 1.169986 -0.03339461
1.0183845 -0.20690462 -0.07589885 -0.06725743 -0.04861608 -0.09377517 -0.08706217 0.20655252
-0.16148345 -0.06179151 0.39864463 -0.077071816 -0.8189649 -0.056371823 -0.087983854 -0.04583881
-0.19472922 -0.5385436 -0.030118011 -0.014009557 -0.08303532 -0.062077872 0.4863028 -0.05402506
-0.03346261 0.46780062 -0.04624537 -0.07525344 -0.067422815 1.1543448 -0.0068994807 -0.040624645
1.18062 0.9250138 -0.07036239 -0.04370657 -0.0657403 -0.07875841 -0.14298253 -0.28105408
-0.032128207 0.35926723 0.6630837 -0.09200868 -0.25663322 -0.03712556 -0.10089351 -0.078298606
0.005481894 0.0036303645 0.23768926 -0.043820873 0.66150194 0.5204618 0.86186785 0.8397259
-0.027319035 -0.112600625 -0.07204208 -0.08098423 -0.045599706 -0.06326457 -0.07820872 0.569771
-0.03783178 0.15153223 -0.096271574 -0.053059723 -0.09960763 -0.035046883 -0.059041828 1.3863682
-0.057684556 -0.068766475 -0.07627061 1.1229485 0.4502842 0.15148261 -0.08731778 0.70426524
-0.08354604 -0.011484266 1.2412959 -0.30310464 -0.06385097 -0.04581616 -0.014176909 -0.052654933
-0.20476273 0.099631794 -0.2337505 -0.065385975 0.13840374 -0.020448606 0.25953713 -0.22170538
00000000: 9056 0bbe 602c 723f 2e08 47bd 526f 5bbc
00000010: b67b dd3e 56bd 95bb 85d1 a9bd ffc9 ea3e
00000020: cec3 07bd d8c1 05bd ee25 b7be 22e8 9fbd
00000030: c66f 0ebe 2d2e a7bd ec89 71bd b5a4 c4bd
00000040: ae8c c3be f0e8 d7bd efb0 a2bd a3e9 d3be
00000050: 355f dfbc b527 273e 1844 483f 0621 113f
00000060: a2cb 47bd aab2 dbbd b0c5 02bd 169b dcbc
00000070: 7e7d 9bbd 97d8 acbd 2496 e13c fa7a 8ebf
00000080: 5add 9c3f 7548 a1bc 70b7 09bd a62d bfbd
00000090: 3dc0 6fbd 5593 74bd 6aad 4dbd 36b0 1dbe
000000a0: 5961 163d a797 a7bd dbb9 1dbe e9fc 86bd
000000b0: 250d bf3e 81f0 db3c 671a b7bd aaa5 143f
000000c0: 2339 7dbe 78cd 773e bf87 1dbd bb87 783f
000000d0: e761 01bc f3cd e63d 76f5 3abd 266e 8fbf
000000e0: 631b a43f b38c 903f f627 00bf a0e5 10bf
000000f0: 680c 4ebd e738 8dbd 48dd 533d 4e0c 5e3f
00000100: 617c e73d 3895 61bd e1df 63bf 11e3 a7bd
00000110: a9a4 3bbd 87a8 51be 9325 87bd 6297 acbd
00000120: 9fb1 383d e2c0 97bd 1d7c 1dbd b7ca 28bd
00000130: bd98 16bd 2324 01be c144 42bd 37b2 753e
00000140: 3fa9 d4bd e63d 4ebd 3f12 85bd c4cb aabd
00000150: 8d4f 80bd 2121 c33e fb05 e8be dd32 ee3e
00000160: e6fb 9dbd e6d8 a8bd 23bf 79bd b308 2dbd
00000170: 05b2 14bf 5286 10bf 62aa 093f 5856 f0bd
00000180: ffa2 ed3e 2d65 5dbd 2c16 26bd 7b3a 25be
00000190: 7d97 26bd 2322 81bd 91ba 883f fbef bebd
000001a0: b4be 35bd 4326 2dbd 1bbe 5abd 6e09 b4bd
000001b0: 9e80 a1bd dd92 36bd 633a 8a3e b008 ddbe
000001c0: c00e c9bd 0368 4fbb bb1f babb 3105 54bd
000001d0: 2f93 96bd 035e 15be 98f0 a43e 4b1b 65bd
000001e0: 1c6e 003e ae41 0abe 1cac 8fbd 9fd6 9cbd
000001f0: 0d56 14bd c415 c3be 2d32 803d fd8a 05be
00000200: cd61 50bd f6c0 77be cc5c 24be 82dc 0dbf
00000210: c6bd ff3e 7b78 28bd 2e43 9cbd 71e7 29bc
00000220: 991d fabd 8c46 55bc 0ff5 d33d 4520 2abd
00000230: a261 8cbf 0c6b 4dbd ad1d 02bd 1c5b 61bf
00000240: bfaa 86be 68bc 0c3e aebc 4bbf 9ff8 9ebd
00000250: 4699 b8bd 026e c3bd de30 13be 0a67 bcbd
00000260: d219 7bbd c5e2 72bd 24fe debd 088b c3bd
00000270: d185 473e 34d9 92bd 1ac2 953f c9c8 08bd
00000280: 6c5a 823f cede 53be db70 9bbd 43be 89bd
00000290: a821 47bd 320d c0bd a74d b2bd 8182 533e
000002a0: eb5b 25be 1819 7dbd 261b cc3e d4d7 9dbd
000002b0: afa7 51bf 24e6 66bd e130 b4bd 7ac1 3bbd
000002c0: 1967 47be fedd 09bf 0cba f6bc 5788 65bc
000002d0: 6c0e aabd 5e45 7ebd aefc f83e 6249 5dbd
000002e0: 1710 09bd 9083 ef3e c96b 3dbd 7a1e 9abd
000002f0: f914 8abd 92c1 933f 0a15 e2bb 0766 26bd
00000300: 8e1e 973f b4cd 6c3f 281a 90bd a905 33bd
00000310: daa2 86bd 174c a1bd 036a 12be 52e6 8fbe
00000320: de98 03bd e0f1 b73e dabf 293f 0c6f bcbd
00000330: 6e65 83be f910 18bd 42a1 cebd 055b a0bd
00000340: 76a1 b33b 69eb 6d3b d064 733e 847d 33bd
00000350: 3158 293f fc3c 053f 5fa3 5c3f 47f8 563f
00000360: 2bcc dfbc 289b e6bd cc8a 93bd 0fdb a5bd
00000370: c2c6 3abd db90 81bd e52b a0bd 83dc 113f
00000380: 7ff5 1abd 442b 1b3e 082a c5bd 2755 59bd
00000390: 16ff cbbd 528d 0fbd d8d5 71bd 8374 b13f
000003a0: a446 6cbd 70d5 8cbd c433 9cbd c7bc 8f3f
000003b0: a78b e63e 421e 1b3e aad3 b2bd ba4a 343f
000003c0: 301a abbd 8128 3cbc c9e2 9e3f 8830 9bbe
000003d0: 4cc4 82bd baa9 3bbd 4446 68bc b3ac 57bd
000003e0: 52ad 51be c10b cc3d 4b5c 6fbe 15e9 85bd
000003f0: b6b9 0d3e d683 a7bc 0de2 843e bc06 63be

fc2.weight f4 [128, 256]
-0.113960035 -0.028758524 -0.057326823 0.034587976 -0.04687846 0.045172423 -0.093125895 -0.08578626
0.010605122 0.059058413 0.110985465 0.118066676 -0.0340492 0.030787295 0.010502168 -0.05008782
0.03524828 -0.028846411 0.016693123 -0.12400676 -0.032563765 0.005451597 -0.0791398 -0.13274635
0.06554969 0.011303871 -0.0018531824 0.077596545 -0.027613442 -0.06004315 -0.04297079 -0.19028853
-0.0071868035 0.004485331 0.11159895 -0.019888135 -0.0585309 -0.0740759 -0.030739577 0.01669695
-0.09049137 -0.09302505 -0.100450896 -0.09088864 0.01337633 -0.10267623 -0.060642447 -0.06714166
0.010087876 -0.1367767 0.066927895 -0.013829702 0.11149797 -0.11864539 -0.04752148 -0.01302575
-0.09457437 0.090372466 -0.017231906 -0.07308869 0.07665284 0.09127312 -0.11280875 -0.0357147
0.0131632015 0.027664753 -0.09548492 -0.0478906 -0.069147825 -0.052252043 0.06957492 0.01972448
0.021943249 -0.0049010105 -0.06384895 -0.028783035 0.008043289 0.023435993 0.033764847 -0.005952534
-0.007999947 0.11122618 -0.08503881 -0.046828285 0.04011827 0.0109453695 -0.048103392 -0.006689699
0.009311081 0.06462399 -0.028924277 0.08385252 -0.14594457 -0.12581198 -0.10811935 -0.13800134
-0.05621869 -0.03724121 -0.08372988 0.009300538 0.0034581234 0.09992615 -0.04487395 -0.13736703
0.057395127 0.11916546 0.112734325 0.010413827 -0.07059445 -0.0076634535 -0.12575631 -0.025595581
0.04115167 -0.030785618 -0.10648126 -0.096807 0.091944195 -0.092098884 -0.06182841 0.010121224
-0.09459776 -0.039029386 0.008419987 -0.077020675 -0.04740524 -0.07481127 -0.040300578 0.0006620398
-0.052160226 -0.07019499 -0.008543034 -0.005986696 -0.022253677 -0.020683393 0.07137626 -0.044886436
-0.045508467 0.035521284 -0.020014372 -0.09275109 -0.09814523 -0.0048924796 -0.084394455 -0.124057874
-0.019491797 -0.109439425 -0.03944482 -0.06052491 0.101093024 0.0657224 0.12215066 -0.019607633
0.0076062097 -0.102826335 0.01029766 -0.03886291 -0.12533656 0.11551164 -0.0639714 -0.080979094
-0.033035483 -0.09661622 -0.04673778 0.09858694 -0.08114943 -0.03316444 -0.0109138135 0.04195545
0.003356089 0.11902713 -0.010180168 -0.0019485343 0.016108895 0.09016995 -0.046750184 0.06471782
-0.2079049 -0.06855917 0.019395437 0.008740578 0.008506879 -0.022098523 -0.042825036 0.015740974
-0.034973226 -0.07718719 -0.026648534 -0.05009 -0.051445063 -0.019533936 0.114569016 -0.028248813
-0.15530445 -0.052556653 -0.060318183 -0.097004436 -0.055093568 -0.07287894 -0.06282423 -0.06714358
-0.093405284 -0.2901513 -0.017593833 0.060058884 -0.026655577 0.099204406 -0.036645968 -0.011166229
-0.07441076 -0.10859151 -0.073473394 -0.033148203 -0.11262668 -0.021557197 -0.054733954 -0.042593163
-0.07221715 -0.06589436 -0.08149459 0.09820143 0.0013756115 0.058238324 0.07263338 -0.12297157
0.09397931 0.001634811 -0.021187836 0.0026077526 -0.028314987 -0.03526814 0.027444825 -0.07358165
0.09782021 0.03635124 -0.10887733 -0.12572096 -0.042138234 -0.09265855 0.0044749905 -0.049396995
-0.07589934 -0.12290673 0.013312653 0.10154513 -0.11054494 0.089376405 -0.037321236 -0.059716355
-0.027841214 -0.08625493 0.018730914 -0.0013424249 -0.15076523 -0.031343736 -0.08103171 -0.03445898
00000000: e163 e9bd ff96 ebbc 88cf 6abd 1fac 0d3d
00000010: a103 40bd b806 393d cab8 bebd b5b0 afbd
00000020: 1bc1 2d3c 3ce7 713d 594c e33d f1cc f13d
00000030: 2d77 0bbd a335 fc3c 4911 2c3c e328 4dbd
00000040: 8060 103d 4f4f ecbc 04c0 883c 42f7 fdbd
00000050: 9561 05bd 4fa3 b23b 0c14 a2bd a9ee 07be
00000060: ea3e 863d df33 393c 7ce6 f2ba f0ea 9e3d
00000070: 9635 e2bc ceef 75bd 2402 30bd ffda 42be
00000080: 477f ebbb aff9 923b fe8d e43d 71ec a2bc
00000090: 19be 6fbd 1bb5 97bd 91d1 fbbc 0bc8 883c
000000a0: 8a53 b9bd eb83 bebd 33b9 cdbd d323 babd
000000b0: 6528 5b3c ea47 d2bd 3764 78bd 9181 89bd
000000c0: 9e47 253c 310f 0cbe 7e11 893d f995 62bc
000000d0: 0c59 e43d 5bfc f2bd e2a5 42bd f569 55bc
000000e0: 35b0 c1bd 3315 b93d ed29 8dbc 86af 95bd
000000f0: 2afc 9c3d 67ed ba3d 4608 e7bd 9449 12bd
00000100: 78aa 573c 31a1 e23c 998d c3bd ef28 44bd
00000110: 609d 8dbd 3d06 56bd 4c7d 8e3d 3c95 a13c
00000120: 54c2 b33c a898 a0bb 3dc3 82bd 66ca ebbc
00000130: 00c8 033c d7fc bf3c 024d 0a3d 790d c3bb
00000140: 3612 03bc 8dca e33d d428 aebd 04cf 3fbd
00000150: 0e53 243d 3554 333c 1008 45bd 4335 dbbb
00000160: 818d 183c 9559 843d 9bf2 ecbc dfba ab3d
00000170: 7e72 15be dbd4 00be ae6d ddbd 3950 0dbe
00000180: 9245 66bd 3d8a 18bd 927a abbd 4961 183c
00000190: afa1 623b 15a6 cc3d bfcd 37bd f1a9 0cbe
000001a0: 2717 6b3d 050d f43d 41e1 e63d c29e 2a3c
000001b0: d393 90bd b51d fbbb 43c6 00be d3ad d1bc
000001c0: a78e 283d 1f32 fcbc d912 dabd c042 c6bd
000001d0: 3d4d bc3d 579e bcbd c93f 7dbd 7ed3 253c
000001e0: 78bc c1bd 47dd 1fbd fcf3 093c 04bd 9dbd
000001f0: ff2b 42bd a736 99bd 3812 25bd bd8c 2d3a
00000200: f6a5 55bd 64c2 8fbd 15f8 0bbc 0c2c c4bb
00000210: 584d b6bc 3870 a9bc b72d 923d d7da 37bd
00000220: 1667 3abd c47e 113d 2ef5 a3bc 49f4 bdbd
00000230: 5e00 c9bd 1851 a0bb 00d7 acbd 0e12 febd
00000240: 43ad 9fbc c721 e0bd e490 21bd f8e8 77bd
00000250: dc09 cf3d 7799 863d 202a fa3d 30a0 a0bc
00000260: 833d f93b 9d96 d2bd 84b7 283c b72e 1fbd
00000270: 3a58 00be 5e91 ec3d 7003 83bd 5ed8 a5bd
00000280: 3750 07bd bade c5bd 1d70 3fbd f3e7 c93d
00000290: ac31 a6bd 70d7 07bd dacf 32bc 7ad9 2b3d
000002a0: d4f1 5b3b 7fc4 f33d b8ca 26bc f665 ffba
000002b0: cdf6 833c 06ab b83d 1f7d 3fbd c78a 843d
000002c0: 06e5 54be c068 8cbd 2ee3 9e3c a434 0f3c
000002d0: 7060 0b3c f607 b5bc 4e69 2fbd 37f3 803c
000002e0: 1640 0fbd 5114 9ebd 074e dabc 2c2b 4dbd
000002f0: 0fb8 52bd a205 a0bc 29a3 ea3d 0e6a e7bc
00000300: 2108 1fbe a545 57bd 3310 77bd 43aa c6bd
00000310: cba9 61bd 8e41 95bd fda9 80bd 9382 89bd
00000320: 454b bfbd b68e 94be f120 90bc 4e00 763d
00000330: cc5c dabc ae2b cb3d 151a 16bd 8ff2 36bc
00000340: ab64 98bd 3a65 debd 3879 96bd 69c6 07bd
00000350: d1a8 e6bd b898 b0bc b630 60bd 2b76 2ebd
00000360: 96e6 93bd 9ff3 86bd a3e6 a6bd d51d c93d
00000370: dd4d b43a 4f8b 6e3d cfc0 943d 85d8 fbbd
00000380: 3978 c03d 2847 d63a 1d92 adbc d4e6 2a3b
00000390: d5f4 e7bc 5375 10bd f8d3 e03c fab1 96bd
000003a0: f655 c83d 0ae5 143d 14fb debd ffbc 00be
000003b0: 2499 2cbd c4c3 bdbd f1a2 923b 8154 4abd
000003c0: 1d71 9bbd 86b6 fbbd 501d 5a3c e5f6 cf3d
000003d0: 6365 e2bd fa0a b73d 27de 18bd 2399 74bd
000003e0: 4213 e4bc 6da6 b0bd 9371 993c 4ef4 afba
000003f0: 3362 1abe 4a62 00bd f4f3 a5bd dc24 0dbd

fc2.bias f4 [128]
-0.1594079 0.6763887 -0.23429829 -0.55749315 -0.35892263 0.43240196 -0.017802753 -0.61223
0.4745903 -0.9451264 -0.59565836 0.583903 0.7877826 -0.0955277 -0.7333452 -0.6941481
-0.15460405 0.6306607 -0.2351164 -0.48091844 -0.039560925 -0.075048566 -0.45203498 0.057442818
-0.036583472 0.1700166 0.9753899 0.52292687 1.8265247 -0.004748933 -0.41147286 -0.07079542
-0.2236905 -0.5323388 0.2823932 -0.4249172 0.0398078 0.8325251 -0.15335767 -0.69736356
-0.69097906 0.8375945 0.56046396 0.1010859 0.6047378 -0.054983895 -1.025244 -0.23204824
0.033917703 -0.41410437 0.39546806 -0.12260753 -0.49156702 0.47235313 -0.28235015 -0.38351667
0.31364495 0.19496797 -0.057679262 1.0564406 1.0599874 -0.22916842 -0.2920707 -0.27363047
0.6040261 -0.12010568 -0.3884434 -0.6384043 -0.094163984 -0.07789023 0.4911886 -0.02443772
-0.27283028 -0.6949869 0.16340934 0.027598118 -0.99373513 0.04297132 1.0354619 -0.009861864
-0.28291422 -0.3595151 -0.08744841 -0.3093757 -0.16459338 -0.028392695 0.021648036 -0.04237695
-0.06528074 -0.23846282 0.21439828 -0.39964008 -0.17488281 0.2274349 -0.8767597 -0.94711286
0.9230842 -0.21837875 -0.33715308 -0.41429782 -0.5723866 -0.07708413 -0.53632134 0.30117655
-0.10748279 -0.38254085 -0.121505596 -0.12361781 -0.15725608 -0.075100474 -0.82382196 -0.45486298
0.8237368 0.26985177 0.066785514 -0.5724359 0.9261903 -0.15337794 -0.7905366 -0.4713429
-0.30382183 -0.6515953 -0.5140578 -0.13972636 -0.085986346 1.5576192 0.6428041 -0.08435557
00000000: d33b 23be cf27 2d3f e4eb 6fbe dfb7 0ebf
00000010: b5c4 b7be ca63 dd3e 14d7 91bc 1bbb 1cbf
00000020: 80fd f23e cef3 71bf 117d 18bf ab7a 153f
00000030: 1fac 493f 07a4 c3bd 83bc 3bbf b1b3 31bf
00000040: 8650 1ebe fb72 213f 5bc2 70be f13a f6be
00000050: a30a 22bd 10b3 99bd 2171 e7be 2949 6b3d
00000060: 8dd8 15bd d518 2e3e 27b3 793f 89de 053f
00000070: 90cb e93f f09c 9bbb 92ac d2be 30fd 90bd
00000080: 1f0f 65be 5b47 08bf d795 903e bf8e d9be
00000090: 810d 233d 5d20 553f cb09 1dbe 6b86 32bf
000000a0: 01e4 30bf 986c 563f 917a 0f3f 2006 cf3d
000000b0: 19d0 1a3f cb36 61bd 323b 83bf 0e9e 6dbe
000000c0: 4aed 0a3d 7d05 d4be ca7a ca3e a819 fbbd
000000d0: acae fbbe 45d8 f13e 3390 90be 4c5c c4be
000000e0: 1296 a03e afa5 473e 1741 6cbd 7239 873f
000000f0: abad 873f 20ab 6abe 4a8a 95be 4b19 8cbe
00000100: 74a1 1a3f f7f9 f5bd 0ee2 c6be 776e 23bf
00000110: 0cd9 c0bd ea84 9fbd 127d fb3e 9d31 c8bc
00000120: 69b0 8bbe a9ea 31bf c754 273e 7315 e23c
00000130: 6d65 7ebf b202 303d 048a 843f a893 21bc
00000140: 22da 90be 5d12 b8be 2718 b3bd 7e66 9ebe
00000150: 2b8b 28be cc97 e8bc 3957 b13c 7493 2dbd
00000160: e9b1 85bd 992f 74be 398b 5b3e a09d ccbe
00000170: 7b14 33be b2e4 683e 5373 60bf fd75 72bf
00000180: 3f4f 6c3f ae9e 5fbe 549f acbe d81e d4be
00000190: ee87 12bf 49de 9dbd 5b4c 09bf d033 9a3e
000001a0: f01f dcbd 65dc c3be edd7 f8bd 562b fdbd
000001b0: bd07 21be 47ce 99bd ffe5 52bf cde3 e8be
000001c0: 6ae0 523f 032a 8a3e d8c6 883d 298b 12bf
000001d0: cf1a 6d3f 1b0f 1dbe 9b60 4abf db53 f1be
000001e0: 898e 9bbe f3ce 26bf 4b99 03bf 6d14 0fbe
000001f0: 9c19 b0bd 1160 c73f cf8e 243f 9dc2 acbd

fc3.weight f4 [64, 128]
-0.08384832 -0.14436752 0.05275122 0.38597566 -0.2852147 -0.16244155 -0.28849602 0.14099564
-0.3601412 -0.13331077 0.508929 0.04050677 -0.061907537 0.110170335 0.3174475 -0.1664708
0.12172645 -0.047572386 0.689408 0.20823947 -0.060627513 -0.087620854 -0.6813893 -0.06008247
-0.003770128 -0.2687398 0.30284032 -0.24191324 -0.08055962 -0.08888172 0.27240825 0.045663312
0.3549385 0.27867982 -0.2352026 0.5303043 0.270811 -0.0064061596 0.03089201 0.25335965
0.0951938 -0.1432032 -0.24401727 -0.10677244 -0.04710044 -0.018017309 0.1974146 -0.16928513
0.5440785 -0.29997805 0.07201712 0.21586506 -0.05650126 0.009839265 0.16318282 -0.12630783
-0.18561208 -0.33391407 -0.23255737 -0.39764822 -0.20558096 0.009648792 0.3186063 0.05900956
-0.057269257 0.08066952 -0.07779901 -0.1397035 -0.33989576 0.20038432 -0.14701056 0.019165197
-0.0529608 0.4692389 0.1319161 -0.0790776 0.014439331 -0.080734305 -0.12154605 -0.09069578
0.133176 0.3215843 0.05367328 0.22006205 0.23314583 0.021954512 0.03950758 -0.21830846
-0.21545714 0.062064026 0.13265753 -0.08527505 0.22498237 -0.0204115 0.41236928 0.06829725
-0.0026852256 1.1450784 0.031653896 -0.28841272 0.010483327 -0.05690696 -0.5436482 -0.37687916
0.05496685 -0.027496945 -0.05016582 -0.003246672 0.0872553 -0.055695295 -0.050199423 0.059164014
-0.23134881 0.15088351 -0.2414806 0.07731321 0.023230102 -0.37425917 -0.07032141 -0.17230715
0.005456905 -0.14860013 0.10504472 -0.07881491 0.017379235 0.01933354 -0.72786415 -0.043582678
0.014311962 -0.288989 -0.082542814 0.07444335 -0.12892824 -0.059145942 0.036872394 -0.05133677
-0.19578265 0.039158903 -0.017324358 -0.102586694 -0.16427764 -0.02217761 -0.0687803 -0.034889724
0.05183252 -0.10199741 0.2012245 -0.28850022 -0.07452937 -0.11286273 0.076572515 -0.07655844
-0.07747791 -0.042741023 -0.15421425 -0.19209187 -0.22188033 -0.16771285 0.022113368 -0.08716149
-0.05456803 0.22044119 -0.038480464 -5.3539872e-05 -0.04150943 -0.051639196 -0.10967411 0.06143967
0.06479912 -0.2840742 -0.212331 -0.059718147 0.030786296 -0.041059807 0.07020993 -0.061559897
-0.09129358 -0.058496706 -0.1527063 -0.04027696 0.0020556673 -0.034650482 -0.06773515 0.038660876
0.0075041777 -0.08950287 -0.21676484 -0.048674308 -0.060754042 -0.07257261 -0.0150866695 -0.047660436
-0.15240517 -0.12403373 -0.030413663 -0.079504594 -0.13417016 -0.0073291883 -0.37339634 -0.14056283
0.012290975 -0.014193307 0.17738833 -0.054962415 -0.060500022 -0.1601686 0.036013924 -0.12993357
-0.067911796 -0.023539059 -0.11794127 0.0006155968 -0.27829674 0.01631842 0.05787728 0.024313912
-0.112510286 -0.04079917 -0.06286281 -0.05173015 -0.07334271 -0.01663487 -0.004912317 -0.14843228
-0.07294184 -0.056283996 -0.015111566 -0.119161814 -0.014570914 -0.053545907 -0.058468528 -0.30636767
-0.070342846 0.013782955 -0.0062494725 -0.023977807 -0.058499582 -0.09773159 0.007983908 -0.13365051
-0.33375287 -0.27960128 -0.29799682 0.023144292 -0.044742554 -0.12473129 -0.14824183 0.066456296
0.006112629 0.032243125 -0.2848083 -0.078010544 -0.039809395 -0.025598535 -0.2602455 -0.29417545
00000000: abb8 abbd 14d5 13be aa11 583d 9a9e c53e
00000010: a907 92be 1457 26be c0b5 93be 2961 103e
00000020: 6d64 b8be 9e82 08be 2c49 023f 6dea 253d
00000030: c292 7dbd fca0 e13d 7b88 a23e 5277 2abe
00000040: b84b f93d 43db 42bd 0b7d 303f ba3c 553e
00000050: 8e54 78bd 9072 b3bd 876f 2ebf 0919 76bd
00000060: 4014 77bb 4398 89be e30d 9b3e 1bb8 77be
00000070: 71fc a4bd 9f07 b6bd 1879 8b3e 7409 3b3d
00000080: 80ba b53e 1faf 8e3e f3d8 70be 06c2 073f
00000090: bda7 8a3e c3ea d1bb 3e11 fd3c 5bb8 813e
000000a0: f8f4 c23d dca3 12be aadf 79be 82ab dabd
000000b0: 64ec 40bd 0999 93bc 0e27 4a3e 1559 2dbe
000000c0: bb48 0b3f b996 99be b67d 933d bb0b 5d3e
000000d0: dd6d 67bd de34 213c 6619 273e d756 01be
000000e0: 1811 3ebe c9f6 aabe 8523 6ebe 8c98 cbbe
000000f0: d183 52be f815 1e3c 5d20 a33e 02b4 713d
00000100: 2b93 6abd 1036 a53d 1655 9fbd 6f0e 0fbe
00000110: d106 aebe 8c31 4d3e f089 16be 5500 9d3c
00000120: 6ced 58bd 1540 f03e 0415 073e 70f3 a1bd
00000130: f292 6c3c 0758 a5bd 23ed f8bd b6be b9bd
00000140: 4a5f 083e b3a6 a43e 83d8 5b3d f257 613e
00000150: c8bd 6e3e f3d9 b33c b3d2 213d 418c 5fbe
00000160: cca0 5cbe d936 7e3d 60d7 073e afa4 aebd
00000170: c761 663e 0536 a7bc 1122 d33e 6edf 8b3d
00000180: 9cfa 2fbb ee91 923f 84a7 013d d5aa 93be
00000190: 43c2 2b3c 4617 69bd 872c 0bbf 4ef6 c0be
000001a0: eb24 613d 4641 e1bc ad7a 4dbd 1ec6 54bb
000001b0: e8b2 b23d c020 64bd e99d 4dbd f755 723d
000001c0: b4e6 6cbe 3581 1a3e b146 77be 6356 9e3d
000001d0: 0e4d be3c e69e bfbe ac04 90bd 4971 30be
000001e0: d6cf b23b a22a 18be b021 d73d b669 a1bd
000001f0: e65e 8e3c 5f61 9e3c 4e55 3abf c083 32bd
00000200: b87c 6a3c 5ef6 93be 350c a9bd c175 983d
00000210: c405 04be 0443 72bd 8207 173d 8146 52bd
00000220: 3f7b 48be 1665 203d d0eb 8dbc f918 d2bd
00000230: 6638 28be d2ad b5bc b0dc 8cbd 87e8 0ebd
00000240: 564e 543d 05e4 d0bd cc0d 4e3e 4db6 93be
00000250: dba2 98bd 9324 e7bd 0dd2 9c3d acca 9cbd
00000260: bdac 9ebd 3611 2fbd 57ea 1dbe bbb3 44be
00000270: 9934 63be ebbc 2bbe 1827 b53c b981 b2bd
00000280: ba82 5fbd 56bb 613e b19d 1dbd 0090 60b8
00000290: cb05 2abd 9f83 53bd d29c e0bd 2aa8 7b3d
000002a0: 67b5 843d 2c72 91be 4c6d 59be 049b 74bd
000002b0: 8b33 fc3c 542e 28bd 39ca 8f3d 3b26 7cbd
000002c0: 21f8 babd 3e9a 6fbd 0a5f 1cbe 74f9 24bd
000002d0: 60b8 063b aaed 0dbd bab8 8abd de5a 1e3d
000002e0: 9be5 f53b 484d b7bd 9af7 5dbe b65e 47bd
000002f0: 3bd9 78bd f3a0 94bd 142e 77bc 9737 43bd
00000300: 1a10 1cbe 6505 febd 1326 f9bc 4ed3 a2bd
00000310: e763 09be b029 f0bb ce2d bfbe b4ef 0fbe
00000320: 1660 493c 0b8b 68bc 49a5 353e 4520 61bd
00000330: dfce 77bd 3d03 24be 5683 133d 4e0d 05be
00000340: 5715 8bbd fcd4 c0bc 318b f1bd 0060 213a
00000350: e97c 8ebe 35ae 853c ba10 6d3d f82d c73c
00000360: cb6b e6bd 081d 27bd 38be 80bd fee2 53bd
00000370: b434 96bd da45 88bc 80f7 a0bb a2fe 17be
00000380: 8862 95bd 0c8a 66bd 8096 77bc 1c0b f4bd
00000390: d8ba 6ebc f452 5bbd b27c 6fbd 39dc 9cbe
000003a0: e90f 90bd e7d1 613c 60c8 ccbb 1b6d c4bc
000003b0: 429d 6fbd 8027 c8bd f0ce 023c aedb 08be
000003c0: a8e1 aabe e627 8fbe 0a93 98be 1999 bd3c
000003d0: f843 37bd 1e73 ffbd b5cc 17be 3d1a 883d
000003e0: 734c c83b 5e11 043d 65d2 91be fec3 9fbd
000003f0: 2d0f 23bd 05b4 d1bc e63e 85be 2a9e 96be

fc3.bias f4 [64]
0.24346271 -0.17823687 -0.19342579 1.1860667 1.6648237 -0.24267158 0.51177585 -0.13793676
0.38050792 -0.23257765 0.34008017 -0.57144773 0.42905265 -0.15949069 -0.16137826 -0.27528033
-0.15975483 -0.17513898 -0.25148153 0.9981859 -0.28685305 -0.010389059 -0.15805857 0.8632262
-0.14969368 0.15316562 -0.30523446 0.9676886 -0.09308603 -0.184548 -0.46108866 -0.27040994
0.87559044 -0.50494057 -0.34723386 -0.28573608 0.5401374 -0.14451358 -0.10329412 1.3389977
0.8271514 0.015765006 -0.05648731 -0.32500613 0.84260666 -0.24825965 -0.030072315 0.88339025
-0.2236401 -0.5080197 -0.20075473 1.0490938 -0.37753052 -0.49039385 0.58655447 1.0588202
-0.08623314 -0.3950097 -0.08594593 -0.11378433 -0.11480407 1.2693813 -0.10830481 -0.02257786
00000000: 4a4e 793e ba83 36be 6911 46be 09d1 973f
00000010: f118 d53f e67e 78be be03 033f 4b3f 0dbe
00000020: efd1 c23e d628 6ebe fd1e ae3e 664a 12bf
00000030: caac db3e 8751 23be 5840 25be 8bf1 8cbe
00000040: c596 23be a257 33be 30c2 80be 1c89 7f3f
00000050: 67de 92be df36 2abc 1bda 21be 64fc 5c3f
00000060: 4d49 19be 73d7 1c3e b147 9cbe 71ba 773f
00000070: e3a3 bebd 27fa 3cbe d013 ecbe 2c73 8abe
00000080: b226 603f c943 01bf a3c8 b1be 004c 92be
00000090: 7246 0a3f 5efb 13be de8b d3bd 4764 ab3f
000000a0: 32c0 533f 9d25 813c 3d5f 67bd 3467 a6be
000000b0: 12b5 573f c737 7ebe 375a f6bc dd25 623f
000000c0: e901 65be 940d 02bf a692 4dbe b548 863f
000000d0: ae4b c1be e714 fbbe 6f28 163f 6c87 873f
000000e0: 009b b0bd b63e cabe 6b04 b0bd c207 e9bd
000000f0: 651e ebbd 167b a23f eace ddbd 34f5 b8bc

fc4.weight f4 [10, 64]
-0.1450098 0.045432076 0.17210329 0.09308612 -1.1908042 -0.47338986 -0.5238183 -0.14454646
-0.15233406 -0.20970389 0.026000792 -0.48104107 -0.100614876 -0.11553455 0.0017945557 -0.19624461
0.08896848 -0.15614823 -0.8952582 0.08232515 -0.13172138 -0.16076899 -0.01749738 -0.3923223
0.08206699 -0.1321428 -0.20157675 -0.13983564 -0.6231804 -0.14566566 0.012655228 -1.3900311
-0.1868239 -0.32612365 -0.16912282 0.28975222 -0.22612263 0.008421919 -0.1369893 0.24347591
-0.20383587 -0.42444396 -0.17099643 0.13386646 -0.19892062 -0.26928306 0.044809468 0.1268826
-0.077784084 -0.029578576 0.3631777 0.1225304 -0.27316114 -0.10046113 0.11800299 0.14287382
-0.21884693 -0.31614253 -0.14168549 0.02859517 0.0540643 0.22156738 -0.025639683 -0.46100128
-0.5279697 -0.1524098 -0.100491665 0.19969669 -1.8163235 -0.6829039 -0.77619296 -0.17270048
-0.26008436 0.20966192 -0.38910773 -0.008888453 -0.33816177 -0.08783949 -0.03735705 0.015982533
-0.15036912 -0.13717699 -0.33429223 0.18867315 0.19438796 -0.30949914 0.02206452 -0.87741953
0.11206255 -0.2272599 -0.5532986 -0.09358035 -0.97477645 -0.097779386 -0.012794003 -0.53164315
-0.26226944 -0.7196064 -0.16194493 -0.16027884 0.19735481 -0.0029620477 -0.11736165 -0.07639615
-1.0384827 -0.12304205 -0.14295441 -0.12806341 -0.18228896 -0.3868585 0.14320938 0.17971192
-0.19715536 -0.0731321 0.2954154 -0.62996083 -0.9398304 -0.1833903 -0.24136347 -0.466591
-0.4787526 -0.60683537 -0.34367236 0.23098765 -0.07750592 -0.579398 0.073092766 -0.5794791
0.12114759 -0.44321898 -0.043119974 0.010423069 -0.98132086 -0.26601797 -0.3606406 -0.19352713
0.10850088 -0.14741254 0.047861975 -0.80398923 -0.014484915 0.116587594 -0.04855048 -0.20489393
0.0052519185 -0.1454366 -1.2339228 0.022191554 -0.37160355 -0.15536933 0.10131798 0.2040725
-0.027690638 -0.21007378 -0.22441243 -0.12740794 -0.23028472 -0.11129468 -0.18983798 -1.0936407
-0.6937441 -0.25636548 -0.07051173 -0.06731597 -0.13198276 -0.01825357 -0.31536284 0.13759552
0.21160527 -0.28501052 -0.045381743 0.0040782625 -0.56922716 -0.37287483 0.017442007 -0.09472239
0.164932 -0.31001487 -0.029112155 0.09354063 -0.06847958 -0.31599382 0.03271273 0.08277293
-0.34790084 -0.60990196 -0.007771679 -0.12300195 -0.119585454 -0.46777993 -0.106678255 -0.33551624
-0.56551474 -0.4036887 -0.08119056 0.18342634 -1.4697417 -0.21868967 -0.4901123 -0.10925276
-0.27254167 -0.22613747 -0.35070795 -0.35343158 -0.00025104775 -0.060379352 0.026573673 -0.09361074
-0.007087081 -0.048761364 -0.5729786 0.19189008 -0.03546326 -0.20682321 -0.23175003 -0.32214692
0.064764515 0.17674819 -0.123929426 0.29261816 -0.86549556 0.029136451 -0.38623878 -1.395333
-0.29829717 -0.45194316 -0.34617546 -0.06925767 0.016744206 0.002652228 0.048643496 -0.14111921
0.12825349 -0.24704883 -0.093102515 -0.2757712 -0.19083071 -0.045037456 0.010025022 0.12910722
-0.21560803 -0.19503018 -0.27703542 -0.4189588 -0.051865652 -0.7012232 0.21887529 -0.4413861
-0.4312232 -0.6397513 0.16485922 0.017393427 0.029204145 -0.0022074087 -0.12881109 -0.4537699
00000000: 737d 14be fc16 3a3d d83b 303e f0a3 be3d
00000010: 466c 98bf 2860 f2be f518 06bf fd03 14be
00000020: 76fd 1bbe 9ebc 56be 9dff d43c 044b f6be
00000030: 2c0f cebd 619d ecbd 4c37 eb3a 59f4 48be
00000040: 1b35 b63d 52e5 1fbe a42f 65bf 179a a83d
00000050: f8e1 06be a0a0 24be aa56 8fbc 78de c8be
00000060: bd12 a83d 7150 07be 236a 4ebe 1331 0fbe
00000070: c088 1fbf 6129 15be e057 4f3c 8aec b1bf
00000080: c44e 3fbe aef9 a6be 882e 2dbe 675a 943e
00000090: b18c 67be 17fc 093c ec46 0cbe c051 793e
000000a0: 5aba 50be b850 d9be b019 2fbe 4a14 093e
000000b0: d9b1 4bbe 78df 89be 228a 373d 83ed 013e
000000c0: 434d 9fbd c54e f2bc 6df2 b93e 38f1 fa3d
000000d0: c7db 8bbe 91be cdbd 8dab f13d 844d 123e
000000e0: 6919 60be 6fdd a1be 0016 11be 6b40 ea3c
000000f0: 8772 5d3d 8fe2 623e 500a d2bc 5c08 ecbe
00000100: 0629 07bf 5111 1cbe 93ce cdbd 4a7d 4c3e
00000110: 4a7d e8bf cad2 2ebf 95b4 46bf 65d8 30be
00000120: c729 85be 9db1 563e 2139 c7be e0a0 11bc
00000130: 8a23 adbe 31e5 b3bd b503 19bd cded 823c
00000140: 5dfa 19be 2078 0cbe 5a28 abbe 8933 413e
00000150: a30d 473e ac76 9ebe a7c0 b43c 919e 60bf
00000160: 0d81 e53d d2b6 68be faa4 0dbf 0ea7 bfbd
00000170: f38a 79bf 8f40 c8bd f09d 51bc c419 08bf
00000180: 2e48 86be 2038 38bf e4d4 25be 2320 24be
00000190: 6117 4a3e ea1e 42bb 4e5b f0bd 9675 9cbd
000001a0: 00ed 84bf 78fd fbbd a462 12be 0e23 03be
000001b0: f5a9 3abe 5112 c6be 7ba5 123e 6706 383e
000001c0: 18e3 49be 48c6 95bd b040 973e 1d45 21bf
000001d0: ba98 70bf abca 3bbe fc27 77be 04e5 eebe
000001e0: 101f f5be 9059 1bbf d3f5 afbe 0788 6c3e
000001f0: 6cbb 9ebd 6d53 14bf a9b1 953d be58 14bf
00000200: 3a1c f83d 99ed e2be 929e 30bd 85c5 2a3c
00000210: d837 7bbf 8233 88be e2a5 b8be fa2b 46be
00000220: b635 de3d 50f3 16be eb0a 443d 3dd2 4dbf
00000230: 2352 6dbc 7ac5 ee3d dedc 46bd b7cf 51be
00000240: 4918 ac3b 55ed 14be 2ff1 9dbf 10cb b53c
00000250: d242 bebe 2319 1fbe cd7f cf3d 62f8 503e
00000260: 7ad7 e2bc 951d 57be 5fcc 65be 3a77 02be
00000270: c2cf 6bbe 77ee e3bd e364 42be 6bfc 8bbf
00000280: 3799 31bf 5642 83be 7468 90bd f5dc 89bd
00000290: 7d26 07be 8388 95bc 3d77 a1be d7e5 0c3e
000002a0: 0daf 583e e6ec 91be 35e2 39bd f2a2 853b
000002b0: dfb8 11bf 73e9 bebe 8ae2 8e3c d0fd c1bd
000002c0: efe3 283e 45ba 9ebe 9d7c eebc 3b92 bf3d
000002d0: 063f 8cbd f1c9 a1be c9fd 053d db84 a93d
000002e0: 0f20 b2be 8922 1cbf 92a9 febb 72e8 fbbd
000002f0: 38e9 f4bd da80 efbe 217a dabd c9c8 abbe
00000300: 93c5 10bf 49b0 cebe 3c47 a6bd 1dd4 3b3e
00000310: 7f20 bcbf 2ff0 5fbe 00f0 fabe e9bf dfbd
00000320: 958a 8bbe 9590 67be fe8f b3be fcf4 b4be
00000330: 0f9f 83b9 5750 77bd 08b1 d93c fdb6 bfbd
00000340: bf3a e8bb ffb9 47bd baae 12bf d57e 443e
00000350: ec41 11bd 77c9 53be e14f 6dbe 71f0 a4be
00000360: 42a3 843d 7afd 343e b6ce fdbd 0cd2 953e
00000370: 1e91 5dbf 91af ee3c 17c1 c5be 469a b2bf
00000380: 68ba 98be 1865 e7be e93d b1be f7d6 8dbd
00000390: 252b 893c 01d1 2d3b 673e 473d 8e81 10be
000003a0: e254 033e 5efa 7cbe 88ac bebd e231 8dbe
000003b0: 2069 43be 3279 38bd fd3f 243c af34 043e
000003c0: 5ac8 5cbe feb5 47be 96d7 8dbe c581 d6be
000003d0: 1471 54bd 5d83 33bf d820 603e 5cfd e1be
000003e0: 4ac9 dcbe bec6 23bf dbd0 283e a97c 8e3c
000003f0: 883d ef3c 2caa 10bb 0ee7 03be 8754 e8be

fc4.bias f4 [10]
-0.11275101 -0.48262396 0.34272423 0.45489198 -0.51327187 0.5302165 0.26403567 0.20267516
-0.16313423 -0.7342962
00000000: 00ea e6bd 7d1a f7be 8d79 af3e 9ae7 e83e
00000010: c965 03bf 45bc 073f af2f 873e 148a 4f3e
00000020: a90c 27be d6fa 3bbf
