runs/Mar02_16-00-42_cssd901383-Run(lr=0.001, batch_size=128, patience=1)-valid/checkpoint.pt (torch_old, 972387 bytes, 8 tensors)

fc1.weight f4 [256, 784]
0	0x3d4e9c4e	0.050442033
1	0xbccf6b5d	-0.02531975
2	0xbc9e26ce	-0.019305613
3	0x3be3a77e	0.006947457
4	0x3c89ea10	0.016835243
5	0xbd47e062	-0.048797973
6	0xbd8e3ec0	-0.06945562
7	0xbd253f4c	-0.040343568
8	0xbd0d63f8	-0.034519166
9	0xbd198b6b	-0.037486475
10	0xbd3f134e	-0.04664927
11	0xbd638a23	-0.05555166
12	0x3d4c2219	0.049837206
13	0x3daafebf	0.0834937
14	0x3dcd3109	0.10019118
15	0x3d17bffd	0.03704833
16	0x3c1246e8	0.008928038
17	0xbd88fa01	-0.066883095
18	0xbd9245fe	-0.07142256
19	0xbddb49d2	-0.107074395
20	0xbdedc7ab	-0.11610349
21	0xbda34a1a	-0.07973118
22	0xbda995ca	-0.08280523
23	0xbc08bf8a	-0.008346448
24	0xbc86398a	-0.016384859
25	0xbc80ceeb	-0.015723666
26	0x3d04325e	0.032274596
27	0xbd10202e	-0.03518694
28	0xbc95e391	-0.018296989
29	0xbbcb4334	-0.0062030796
30	0xbd01be8b	-0.031675857
31	0xbc6ce0ed	-0.014457923
32	0x3c8c6620	0.01713854
33	0x3c9a58de	0.018841203
34	0x3d05fa3f	0.032709356
35	0xbc8a29c2	-0.016865615
36	0x3cbd4401	0.023103716
37	0xbcc3ebd8	-0.02391617
38	0x3d1632d3	0.036669564
39	0x3d29c6c4	0.041449323
40	0x3d334592	0.04376752
41	0x3da9b2c1	0.08286048
42	0x3daecfa5	0.08535699
43	0x3db981ef	0.09057986
44	0x3d954915	0.0728933
45	0x3d1806de	0.037115924
46	0xbb11956b	-0.0022214304
47	0xbb85f060	-0.004087493
48	0xbd1ef2f1	-0.038805906
49	0xbd5d99b9	-0.05410168
50	0xbc46f889	-0.012144216
51	0xbd3fa4d9	-0.04678807
52	0x3ccb9760	0.024852455
53	0x3b2d9750	0.0026487894
54	0x3c0cee15	0.008601685
55	0xbca86607	-0.020556463
56	0xbc1b91b0	-0.009495184
57	0x3c91e849	0.017810958
58	0xba3008e9	-0.0006715195
59	0xbd18adb2	-0.037275024
60	0x3ba1ec1d	0.004941477
61	0x3adbd5d1	0.0016772096
62	0x3c6b8fbf	0.014377533
63	0xbd3615b2	-0.044454284
64	0xbcb35146	-0.02188934
65	0xbb11932b	-0.0022212963
66	0x3cd9a8fc	0.026569836
67	0x3cb77cc6	0.022398364
68	0x3d117c5c	0.03551899
69	0x3d98853f	0.0744729
70	0x3d7d4e9e	0.061842553
71	0x3d0f141a	0.03493128
72	0x3d36c25d	0.044618953
73	0xbb9de6e8	-0.004818786
74	0xbbb4bd07	-0.005515698
75	0xbc33d016	-0.0109749045
76	0xbda637e7	-0.08116131
77	0xbd2353fb	-0.039875012
78	0xbcd9f4d3	-0.026606
79	0xbc865593	-0.016398227
80	0x3c9c517b	0.019081822
81	0x3d22638a	0.03964571
82	0xbc9805a7	-0.018557383
83	0xbcbb3edb	-0.02285712
84	0xba78c7e5	-0.0009490236
85	0xbbc8ccca	-0.0061279284
86	0xbd75cc59	-0.060009334
87	0xbd4dbf11	-0.050231043
88	0xbcdeb5c0	-0.027186275
89	0xbd28d51e	-0.04121887
90	0x3b94be06	0.004539254
91	0xbd011921	-0.031518105
92	0x3ce1c389	0.027559059
93	0x3d69a183	0.057038795
94	0x3c5999cc	0.013281297
95	0x3c1863b4	0.009301115
96	0x3cca6e29	0.024710732
97	0x3d03b94b	0.03215913
98	0x3d5358e9	0.051598463
99	0x3d9d2bcb	0.076743685
100	0x3cc0c49e	0.023531254
101	0x3d203478	0.039112538
102	0xba77d9d9	-0.0009454764
103	0x3b99fabf	0.0046990807
104	0x3ccb07a1	0.024783911
105	0xbd9a0c83	-0.07521918
106	0xbd1d1044	-0.03834559
107	0xbd1e15e1	-0.038595084
108	0xb97c89e4	-0.00024083961
109	0xbcf19ec3	-0.029494649
110	0x3ce0dfe4	0.02745051
111	0x3d092b31	0.033488456
112	0xbc49e7d8	-0.012323342
113	0xbd3ec8f6	-0.04657837
114	0xbc10adcd	-0.0088305
115	0xbbcf3121	-0.0063229953
116	0xbd574ed2	-0.052565403
117	0xbd25791b	-0.0403987
118	0x3beb4d32	0.0071808333
119	0x3d6b4b81	0.057445053
120	0x3cfee514	0.031115092
121	0x3ca3253d	0.019915218
122	0x3d3a41b0	0.0454728
123	0x3d1b2a70	0.03788227
124	0x3baf9e88	0.0053594746
125	0x3c9c3502	0.019068245
126	0x3d89c2c5	0.067266025
127	0x3ca5b815	0.020229379
128	0x3d679fa6	0.056548737
129	0x3cd3f07c	0.025871508
130	0x3d198199	0.03747711
131	0x3c05a120	0.008156091
132	0x3d0a1d02	0.03371907
133	0xbc74997a	-0.01492917
134	0xbd5e774a	-0.05431298
135	0xbc821b37	-0.015882118
136	0xbc510038	-0.0127564
137	0xbbe1bba0	-0.0068888217
138	0xba9ec883	-0.00121142
139	0x3cb1ba26	0.021695208
140	0xbcca2227	-0.024674488
141	0x3ca1284e	0.01967254
142	0xbc21d4f5	-0.009877433
143	0xbce97b7b	-0.028501263
144	0xbd983212	-0.07431425
145	0xbcd1648a	-0.025560636
146	0x3ca51b8a	0.020154733
147	0x3d44df4d	0.04806452
148	0xbb6fa767	-0.0036568285
149	0xbc65d264	-0.014027212
150	0xbc66a9e9	-0.014078596
151	0x3d523d95	0.05132826
152	0x3d222117	0.03958234
153	0x3cd41549	0.025889056
154	0x3d39fe03	0.04540826
155	0x3c5037fe	0.012708662
156	0x3d2c57f6	0.042076074
157	0xbc7f5591	-0.015584365
158	0x3d398313	0.045291018
159	0x3c0bdfc5	0.0085372375
160	0xbc916855	-0.017749945
161	0x3afc650e	0.0019256191
162	0xbd169dc1	-0.03677154
163	0xbd95d1cb	-0.073154055
164	0xbc174649	-0.009233066
165	0xbd68012f	-0.056641754
166	0xbc6d56d1	-0.014486031
167	0x3c42d01f	0.01189044
168	0xbd5ac7c6	-0.053413175
169	0xbd2f83cb	-0.042850297
170	0xbd24090f	-0.0400477
171	0xbd5a1e16	-0.05325135
172	0xbd0c6bc3	-0.034282457
173	0xbd4653c7	-0.04841974
174	0x3cc8af56	0.02449767
175	0x3d20aa76	0.039225064
176	0x3c9570e9	0.018242316
177	0x3c437984	0.011930827
178	0xbb04fe85	-0.0020293307
179	0x3d18c4ab	0.037296932
180	0x3c7ce0e0	0.015434474
181	0xbc2b3e9b	-0.010451938
182	0x3d4aeeef	0.04954427
183	0xbcad9710	-0.021190196
184	0x3d141064	0.036148444
185	0x3d03cb1c	0.032176122
186	0x3bb0c048	0.0053940155
187	0xbbc16fe0	-0.005903229
188	0xbca5b2f7	-0.020226939
189	0xbca57a76	-0.020199995
190	0xbd75d5b4	-0.060018256
191	0xbd0b8f69	-0.034072313
192	0xbd959fd4	-0.073058754
193	0xbd9f786d	-0.07786641
194	0xbbdcca3f	-0.006737977
195	0x3d14c610	0.0363217
196	0xbca9d2e6	-0.020730447
197	0xbd980758	-0.07423276
198	0xbd863cc4	-0.06554559
199	0xbc875363	-0.016519254
200	0xbd97da8a	-0.0741473
201	0xbd4f0f2f	-0.05055159
202	0xbc79ae2f	-0.0152392825
203	0x3ce54f06	0.027991783
204	0x3c12bff1	0.008956895
205	0xbc5c2905	-0.013437514
206	0xbc0ed7cf	-0.008718445
207	0x3bcb4caf	0.0062042098
208	0x3d2dfb1c	0.042475805
209	0x3d364f08	0.044508964
210	0x3caf05ea	0.021365125
211	0xbaf2f611	-0.0018536468
212	0x3d06169e	0.032736413
213	0x3c1abb71	0.009444104
214	0xbc87d741	-0.016582133
215	0xbc7ba553	-0.015359241
216	0x3d0b4177	0.03399798
217	0x3c002d2f	0.007823273
218	0xbd38f06d	-0.045151163
219	0xbbe83615	-0.007086525
220	0xbda60135	-0.08105699
221	0xbd0885b0	-0.03333062
222	0x3b9af175	0.004728491
223	0xbce1c732	-0.027560804
224	0xbd4e8634	-0.050420955
225	0xbd797cfb	-0.060910206
226	0xbd6e7399	-0.05821571
227	0xbcfe0a02	-0.031010631
228	0xbd8d406e	-0.068970546
229	0xbc8ff457	-0.017572565
230	0xbcdacabf	-0.026708005
231	0x3b6df75b	0.0036310765
232	0x3d49607b	0.049164277
233	0x3ccf33df	0.025293289
234	0x3d2fff74	0.04296823
235	0xbb95649f	-0.004559114
236	0x3c917d2f	0.017759888
237	0x3c2f2291	0.010689394
238	0x3d0aee38	0.03391859
239	0x3cbcdb31	0.023053737
240	0x3c0f426b	0.008743863
241	0xbcfc3109	-0.0307851
242	0x3d0975cc	0.033559605
243	0xbaaff6d7	-0.0013425004
244	0x3d1dc0c5	0.038513917
245	0xbcce763c	-0.025202863
246	0xbb88db1b	-0.00417651
247	0xbd38c12d	-0.0451061
248	0xbd9c3d2f	-0.07628857
249	0x3b6acbb7	0.003582699
250	0xbd6afc39	-0.057369445
251	0xbd6d2f88	-0.057906657
252	0xbd4d66af	-0.050146755
253	0x3c645161	0.013935418
254	0xbd9740e7	-0.07385426
255	0xbd038df8	-0.032117814

fc1.bias f4 [256]
0	0xbb3ba349	-0.002863126
1	0x3c59978e	0.013280762
2	0xbd710cd8	-0.05885014
3	0x3d953819	0.072860904
4	0xbcb8508b	-0.022499343
5	0x3d2c41be	0.042054884
6	0xba58f806	-0.00082767045
7	0xbd125a5f	-0.035730716
8	0x3d5dde5b	0.054167133
9	0x3c93c5b2	0.018038604
10	0x3c8502cf	0.01623669
11	0x3cc10f02	0.023566727
12	0xbc2beb0c	-0.010493051
13	0x3cef3293	0.02919892
14	0x3d0f6213	0.03500564
15	0xbdbc6fa8	-0.09200984
16	0x3d310272	0.043215223
17	0x3cd7b304	0.026330478
18	0xbbbc651f	-0.0057493593
19	0x3e073b6f	0.13206266
20	0xbcaf6912	-0.021412406
21	0xbccebdcf	-0.025236992
22	0x3de2e102	0.11078073
23	0x3e119d6f	0.14220212
24	0xbc4ba0e8	-0.0124285
25	0x3dc8013e	0.09765862
26	0x3cd26375	0.02568219
27	0x3de4c522	0.111704126
28	0x3d0826cd	0.03324013
29	0xbba8855f	-0.005142852
30	0xbd24128d	-0.040056754
31	0x3cbfede3	0.023428863
32	0x3ccd7066	0.02507801
33	0x3daf1416	0.08548753
34	0x3d909626	0.070598885
35	0x3ceeaf0a	0.0291362
36	0x3c462f39	0.01209622
37	0xba916f6e	-0.0011095831
38	0xbc9e926d	-0.01935693
39	0x3d151c56	0.036403976
40	0xbbe4727b	-0.006971655
41	0x3ca3a3de	0.019975599
42	0x3dabd47b	0.08390137
43	0x3e0f0690	0.13967347
44	0x3cbe4c47	0.023229731
45	0x3d660640	0.056158304
46	0x3d42b2a5	0.04753365
47	0x3cb5da45	0.022198806
48	0xbc338b4a	-0.010958502
49	0x3ce72d61	0.02821988
50	0x3de83280	0.11337757
51	0x3c825408	0.01590921
52	0xbcb6c429	-0.022310333
53	0x3db2f74c	0.087385744
54	0x3ce5ef71	0.028068276
55	0x3d1713ef	0.036884245
56	0xbcda690b	-0.026661417
57	0xbc055974	-0.008139003
58	0x3e08935c	0.13337463
59	0x3ddbc9bb	0.107318364
60	0xbb174bf4	-0.0023086043
61	0x3bc28b57	0.0059370208
62	0x3d949a21	0.0725596
63	0xbd9eb881	-0.07750035
64	0x3d216a36	0.03940793
65	0x3ccb963e	0.024851914
66	0x3d227c0d	0.039669085
67	0xbccdf455	-0.02514092
68	0x3c590cc9	0.013247677
69	0x3d926356	0.07147853
70	0xbc03b489	-0.008038648
71	0x3cfc650d	0.030809904
72	0x3d71dd71	0.059049074
73	0x3dbc1eff	0.091855995
74	0x3ccefd79	0.02526735
75	0x3d308efc	0.04310511
76	0x3dbb2df7	0.091396265
77	0xbc44e319	-0.012017035
78	0x3d3e29a0	0.046426415
79	0x3dce343d	0.100685574
80	0x3d63a6c9	0.05557898
81	0x3d02fdae	0.03198021
82	0xbb41260f	-0.0029472148
83	0x3d029a3c	0.03188537
84	0xbc8b750c	-0.017023586
85	0x3e00ee9f	0.12591027
86	0x3c97b181	0.018517258
87	0xbbd772ea	-0.006574978
88	0x3dbb87c5	0.09156755
89	0x3e041c87	0.12901507
90	0x3c461308	0.012089498
91	0xbcc349dd	-0.023838932
92	0x3c3553a8	0.0110673085
93	0xbd2665aa	-0.0406243
94	0x3b3aa5b0	0.0028480105
95	0x3e1e070f	0.1543238
96	0xbcb8d089	-0.022560375
97	0xbdbdf518	-0.092752635
98	0x3dbd9316	0.0925657
99	0x3b8e0eea	0.004335274
100	0x3d461582	0.048360355
101	0x3d29bc96	0.041439615
102	0xbb33334b	-0.0027343805
103	0x3cbff832	0.023433778
104	0xbc9427bd	-0.018085355
105	0x3d229c29	0.039699707
106	0x3d5ae573	0.053441476
107	0xbce7a1ca	-0.02827539
108	0xbbd0467e	-0.0063560596
109	0xbcd76c63	-0.0262968
110	0x3d8e386d	0.06944356
111	0xbbe4c68c	-0.0069816764
112	0xbd081096	-0.033218943
113	0x3abaff14	0.0014266693
114	0xbbc4b0c5	-0.006002518
115	0x3dc776e3	0.09739473
116	0x3d7796c7	0.060446527
117	0xbd0d16b5	-0.034445483
118	0x3db44486	0.08802132
119	0x3da26f85	0.07931427
120	0x3d7f77c5	0.06237008
121	0xbc311d01	-0.010810138
122	0x3dc0cea4	0.094144136
123	0x3d27e278	0.04098746
124	0xbe2095fb	-0.15682213
125	0xbc8e3a1f	-0.017361699
126	0xbd96b515	-0.073587574
127	0xbdf47918	-0.11937159
128	0x3dab0fe6	0.08352642
129	0xbcdeb52b	-0.027185997
130	0x3d892e79	0.06698317
131	0xbdbbb845	-0.09166006
132	0x3cba2a26	0.022725176
133	0xbd3f7a11	-0.04674727
134	0xbbe59a7b	-0.007006941
135	0x3ca285fb	0.019839277
136	0x3c952f88	0.018211141
137	0x3bf56843	0.0074892356
138	0xbc386fbb	-0.011257107
139	0xbcd2c9f7	-0.02573107
140	0x3c125529	0.008931437
141	0xbcab5795	-0.020915786
142	0xba8c1a8c	-0.0010689064
143	0xbd1872a0	-0.03721869
144	0x3db5cac1	0.08876563
145	0x3db6edad	0.08932052
146	0x3e2c95f5	0.16854079
147	0xb963450b	-0.00021674127
148	0x3d8f9cf6	0.0701236
149	0xbc59a1f4	-0.013283242
150	0x3e234247	0.15943252
151	0x3e05332b	0.130078
152	0x3d27fa56	0.041010223
153	0x3d120d76	0.03565737
154	0x3d690beb	0.05689613
155	0xbd5f0558	-0.054448456
156	0xbbf430cc	-0.007452106
157	0xbcbb73ff	-0.02288246
158	0x3cd0dc8e	0.025495794
159	0x3cd91bfe	0.026502606
160	0xbd6a4f1c	-0.05720435
161	0x3e0a02b1	0.13477589
162	0xbc41c7d1	-0.011827425
163	0x3e3a0ba9	0.1816851
164	0x3cabd05c	0.020973377
165	0xbd27269d	-0.04080831
166	0x3cac023b	0.020997157
167	0x3c554b9b	0.013018514
168	0xbb51256d	-0.0031913177
169	0xbcaab5a4	-0.020838566
170	0x3cca8ae1	0.024724426
171	0x3cd8e711	0.026477369
172	0x3cf54308	0.02993919
173	0xbd337e55	-0.04382165
174	0x3c8dd136	0.017311674
175	0x3e0dbee7	0.13842355
176	0x3da1acc3	0.0789428
177	0xbdfeeb68	-0.12447244
178	0x3dd39dfd	0.10332868
179	0xbd66c769	-0.056342516
180	0x3c54c5ed	0.012986642
181	0x39a1d0f0	0.00030863984
182	0x3e05b3fe	0.13056943
183	0xbc9285ad	-0.017886007
184	0x3d79a254	0.060945824
185	0x3c6ffcee	0.0146477055
186	0x3c76edb8	0.015071325
187	0x3d5f021d	0.054445375
188	0x3d95ea64	0.07320097
189	0x3ba1fca6	0.004943448
190	0xbdc4a9ad	-0.096026756
191	0x3d86ac0f	0.06575786
192	0x3e0c38ef	0.13693593
193	0xbd3b43be	-0.0457189
194	0x3da07573	0.07834902
195	0x3d7752de	0.060381763
196	0xbd1c14c5	-0.038105745
197	0xbd90b023	-0.070648454
198	0x3d539e4b	0.05166463
199	0x3ce6db77	0.02818082
200	0x3cf9a5f0	0.030474633
201	0x3dc5041e	0.09619926
202	0x3c23fa5d	0.010008422
203	0x3ded3b0d	0.11583529
204	0x3d073edf	0.033018943
205	0x3bfc89a1	0.0077068363
206	0x3dd3187e	0.10307406
207	0xbbdb97a1	-0.006701425
208	0x3d9137ed	0.07090745
209	0x3d08e91b	0.03342543
210	0xbc1c508a	-0.009540686
211	0x3bfde58c	0.0077483114
212	0x3d98a148	0.07452637
213	0x3d2fba30	0.04290217
214	0x3d117ce1	0.035519484
215	0xbd520bce	-0.05128079
216	0x3c372282	0.011177661
217	0x3daac0db	0.083375655
218	0x3d8cc88a	0.06874187
219	0x3ccccaf4	0.02499912
220	0xbd831be7	-0.06401806
221	0xbd083f24	-0.03326334
222	0xbc6a56b3	-0.014302897
223	0x3d3ffd5b	0.046872478
224	0xbccd78b8	-0.025081977
225	0x3d9b357c	0.07578561
226	0xbd0b1fdc	-0.03396593
227	0xbce4dc3b	-0.027937045
228	0xbc4fe25f	-0.012688248
229	0x3dcfb440	0.10141802
230	0x3c27e4c7	0.010247416
231	0xbd0fa468	-0.0350689
232	0x3cf417a5	0.02979643
233	0xba3363e0	-0.00068431906
234	0x3d32d058	0.043655723
235	0xbddf5d63	-0.10906484
236	0x3dc4a9eb	0.09602722
237	0x3e15eeba	0.14641848
238	0x3d94104b	0.0722967
239	0x3d3ebefa	0.04656885
240	0xbb701c60	-0.0036638007
241	0xbcecf0fb	-0.028923502
242	0xbd88eacc	-0.06685409
243	0xbcbb4462	-0.022859756
244	0x3d49e276	0.049288236
245	0x3bc3e11c	0.005977763
246	0x3cb47dc5	0.022032628
247	0xbd28a3f8	-0.041171998
248	0xbbbdcd80	-0.00579232
249	0x3df225b1	0.11823595
250	0x3d4ef587	0.050527122
251	0xbdefa7b6	-0.1170191
252	0x3d81e844	0.06343129
253	0xbca62b8e	-0.02028444
254	0x3e070a48	0.13187516
255	0x3e14f4f0	0.14546561

fc2.weight f4 [128, 256]
0	0xbb156f58	-0.0022801962
1	0x3d9770d9	0.07394571
2	0xbb797d4b	-0.0038069065
3	0x3cf5d36d	0.030008042
4	0xbc398f1e	-0.011325626
5	0x3cca63f4	0.024705864
6	0xbbf3ebc9	-0.0074438793
7	0xbba75fcd	-0.005107856
8	0xbc97b022	-0.018516604
9	0xbcdc07af	-0.026859133
10	0x3d19cda4	0.03754963
11	0x3cc95051	0.02457443
12	0x3cd41d37	0.025892837
13	0x3d779db7	0.060453143
14	0xbbecfd5c	-0.007232351
15	0xbc261585	-0.010136967
16	0x3c914fd4	0.01773826
17	0xbca852f0	-0.02054736
18	0xbc3efee5	-0.011657451
19	0x3d9cdacf	0.07658922
20	0x3c8572b4	0.016290046
21	0x3d6836be	0.05669283
22	0x3d90aa08	0.07063681
23	0x3cad2eb3	0.021140432
24	0x3be96984	0.007123174
25	0x3d3ce1ad	0.04611366
26	0xbc07a311	-0.008278624
27	0xbcd0a7e9	-0.02547069
28	0xbd2ec45f	-0.042667743
29	0xbcb80ad1	-0.022466095
30	0x3d36bff0	0.04461664
31	0xbd65af31	-0.05607528
32	0xbd9f390b	-0.07774552
33	0x3d50bd5d	0.05096184
34	0xbcbb9fc4	-0.02290333
35	0xbd61a72c	-0.05509107
36	0xbd6adb1c	-0.057337865
37	0x3c94df7d	0.018172974
38	0x3c9769d2	0.018483076
39	0x3da1311d	0.07870696
40	0x3d9be7b1	0.07612551
41	0x3c09a332	0.008400725
42	0xbadead59	-0.0016988917
43	0x3da8b2fc	0.082372636
44	0x3b0b5c95	0.00212649
45	0x3d31a5ab	0.043370884
46	0xbc082227	-0.008308924
47	0xbcdd9bfb	-0.027051916
48	0xbc7214b4	-0.014775444
49	0xbad48197	-0.0016212937
50	0xbd00446a	-0.031315245
51	0xbbad1e2a	-0.005283137
52	0x3b6cbf0e	0.003612462
53	0xbc0b7023	-0.008510622
54	0x3d37147c	0.04469727
55	0x3d6bb5ea	0.057546534
56	0xbd4aaa8b	-0.04947905
57	0xbd052b16	-0.032511793
58	0x3daa5421	0.083168276
59	0x3d413e15	0.047178347
60	0x3ac05a10	0.0014675278
61	0x3cb13e60	0.021636188
62	0x3dba4de9	0.090968914
63	0x3d1e0be9	0.038585577
64	0x3c9aad01	0.018881323
65	0xbd7f4855	-0.06232484
66	0xbd8173b5	-0.063208975
67	0x3d821e02	0.0635338
68	0x3be2abbc	0.006917445
69	0x3c835d3f	0.016035674
70	0xbb899869	-0.004199077
71	0x3da7f6a5	0.082013406
72	0x3d36673c	0.044532046
73	0xbd2e8b50	-0.042613328
74	0x3d2d36d0	0.0422886
75	0x3d24541e	0.040119283
76	0x3b0fc9e7	0.0021940412
77	0x3d0f0921	0.034920815
78	0x3d472845	0.04862239
79	0x3daf36ee	0.08555399
80	0xbd56e797	-0.052466955
81	0x3d11357c	0.035451397
82	0xbc9b2ab7	-0.018941266
83	0xbd83c738	-0.06434482
84	0xbc1ccdb0	-0.009570524
85	0x3d763a44	0.06011416
86	0x3cd9db47	0.026593817
87	0x3d6257fc	0.05525969
88	0x3c9e1a6a	0.019299705
89	0x3b8921c9	0.0041849357
90	0x3be3ee66	0.0069559095
91	0xbd8f577f	-0.069991104
92	0xbd984559	-0.07435102
93	0xbd375153	-0.04475529
94	0xbc3a290b	-0.0113623245
95	0x3bbe0845	0.0057993256
96	0xbaadf6fa	-0.0013272457
97	0xbd07c517	-0.033146944
98	0xbce0daf2	-0.027448151
99	0x3d8246e0	0.063611746
100	0x3be7be8e	0.0070722764
101	0x3d06c784	0.032905117
102	0x3cfabada	0.030606676
103	0x3dac0fff	0.084014885
104	0xbcb9036c	-0.02258464
105	0x3cc75ca1	0.024336161
106	0x3d6b8a0c	0.0575047
107	0xbc0799f7	-0.008276454
108	0x3ca81ef6	0.020522576
109	0x3ca95924	0.020672388
110	0xbcb0665e	-0.021533187
111	0x3d933ab3	0.0718893
112	0xbd4cbbdf	-0.049983855
113	0x3d62006a	0.055176176
114	0x3d891d60	0.06695056
115	0x3d78b2fe	0.060717575
116	0x3d8f320f	0.0699197
117	0xbd9b1925	-0.07573155
118	0x3d91c64b	0.071178995
119	0x3dab2eb6	0.08358519
120	0x3d53339b	0.051562887
121	0xbd49fccf	-0.049313363
122	0xbd6072c8	-0.054796964
123	0xbd68a51d	-0.05679809
124	0xbc9ca0c5	-0.01911963
125	0x3d19ea21	0.0375768
126	0x3ccdcfb5	0.025123456
127	0xbc90a34c	-0.017655991
128	0x3d029c8e	0.031887583
129	0x3d852ad2	0.06502308
130	0xbd0690c1	-0.03285289
131	0x3d26f73f	0.040763136
132	0x3d890a97	0.06691473
133	0x3a34e6b1	0.0006900831
134	0xbc52241c	-0.012825992
135	0x3d55efa0	0.052230477
136	0x3ccc5fda	0.02494805
137	0xbcbf3a45	-0.023343215
138	0x3da3a37b	0.07990166
139	0xbd0e4947	-0.03473785
140	0xbd7341e2	-0.059389003
141	0xbd86a1d0	-0.06573832
142	0x3dbacfd4	0.09121671
143	0x3d09ea0f	0.03367048
144	0xbc2f137e	-0.0106858
145	0x3d5b7341	0.05357671
146	0x3d9e1739	0.07719273
147	0x3c8d32d9	0.01723616
148	0x3d1d06c3	0.038336527
149	0xbcd93d85	-0.026518593
150	0x3d604e24	0.05476202
151	0x3dd94103	0.10608103
152	0xbd5569ba	-0.05210278
153	0x3d429d76	0.047513448
154	0xbd6d559b	-0.057942968
155	0x3d6c78df	0.05773246
156	0xbd4288a8	-0.047493607
157	0x3bc33134	0.005956793
158	0x3d09bf72	0.033629842
159	0x3d193472	0.03740353
160	0x3cb010b7	0.021492345
161	0x3d79c636	0.060980044
162	0xbc8e4f9a	-0.017371941
163	0x3db3cb1b	0.08778974
164	0x3d0a38f6	0.03374573
165	0xbd394234	-0.04522915
166	0x3bd753a7	0.0065712514
167	0xbd06787c	-0.032829747
168	0xb945937f	-0.0001884233
169	0x3d5516f5	0.052023847
170	0xbba7b86a	-0.0051184194
171	0xba928b6a	-0.0011180465
172	0x3d4a680f	0.049415644
173	0x3d92c1da	0.071658805
174	0x3d978d64	0.07400015
175	0x3d7b7d94	0.061399058
176	0xbc42558d	-0.011861217
177	0x3c9d0772	0.01916859
178	0x3d3c3f92	0.045959063
179	0xbd901489	-0.07035167
180	0xbc077753	-0.008268195
181	0x3b9bf48d	0.0047593773
182	0x3daf04ad	0.08545814
183	0x3d859925	0.065233506
184	0x3d80c878	0.062882364
185	0xbb29819e	-0.0025864611
186	0x3d331aba	0.04372666
187	0xbc01d0c2	-0.007923307
188	0x3d977c55	0.07396761
189	0x3bc4f287	0.006010357
190	0xbd9c80ee	-0.07641779
191	0xbd336f1b	-0.04380713
192	0x3dae7c24	0.08519772
193	0x3daf3834	0.08555642
194	0x3d88fa1d	0.0668833
195	0xbc8f5bb7	-0.017499788
196	0x3d438f8f	0.04774433
197	0xbcf87516	-0.030329268
198	0xbcd5e0a7	-0.0261081
199	0xbb0b6307	-0.0021268742
200	0xbd3f7d2e	-0.04675024
201	0x3d762bb6	0.06010028
202	0xbd69a001	-0.057037357
203	0x3c508d08	0.012728937
204	0x3d1a8bdd	0.03773104
205	0xbcb4eba5	-0.02208502
206	0x3d997ab0	0.07494104
207	0x3cdffdff	0.027342794
208	0xbbea1ca6	-0.0071445284
209	0xbd9845de	-0.07435201
210	0x3d3980f9	0.045289014
211	0xbd72d1e9	-0.059282217
212	0xbb8259fb	-0.0039780117
213	0x3cd07ed6	0.025451105
214	0x3c9f9e91	0.01948479
215	0x3c6b5ae8	0.014364935
216	0xbce65c4c	-0.028120182
217	0xbb098646	-0.0020984574
218	0x3ccd2ab7	0.025044782
219	0x3d231f02	0.039824493
220	0x3d21587e	0.039391033
221	0x3d643ecc	0.05572395
222	0xba779546	-0.0009444546
223	0xbc18d4d2	-0.009328084
224	0xbcddf35c	-0.027093582
225	0x3d8124a7	0.06305819
226	0xbc570939	-0.013124757
227	0xbd14a279	-0.03628776
228	0x3d0f780b	0.03502659
229	0x3d272a21	0.04081166
230	0x3d11de98	0.035612673
231	0x39bcd73b	0.00036018513
232	0xbd264b5d	-0.040599216
233	0x3d136a66	0.03599014
234	0xbc009028	-0.0078468695
235	0xbcf38b43	-0.029729491
236	0x3ce17948	0.027523652
237	0x3d8bcd14	0.06826225
238	0x3b56a8fb	0.0032754529
239	0x3c851fad	0.016250456
240	0x3c533933	0.012892055
241	0xbd2c7a13	-0.042108607
242	0x3d0b20da	0.033966877
243	0xbd3e1370	-0.046405256
244	0xbb25664f	-0.0025237983
245	0x3baa3e67	0.005195427
246	0x3d1f3c36	0.03887578
247	0xbd0293ea	-0.031879343
248	0x3d1a2c6d	0.037640024
249	0xbc89dfd5	-0.016830364
250	0x3d681e1e	0.056669347
251	0xbc63e232	-0.01390891
252	0x3d9ac26c	0.07556614
253	0x3cff7bdb	0.031186989
254	0xbc1ea000	-0.009681702
255	0xba30ba44	-0.0006741623

fc2.bias f4 [128]
0	0x3c8a20e8	0.016861394
1	0x3c1baabe	0.009501157
2	0xbce66232	-0.028122995
3	0xbc2b009b	-0.010437156
4	0x3c29fad9	0.010374748
5	0x3b2b4c34	0.002613795
6	0xbd917825	-0.07102994
7	0xbc1660af	-0.009178325
8	0x3ca96a26	0.020680498
9	0xbbbbc410	-0.0057301596
10	0xbd3f9567	-0.04677334
11	0x3dcd21ab	0.10016187
12	0xbc87f83b	-0.016597858
13	0x3dc5b06f	0.09652793
14	0x3d4532c5	0.04814412
15	0xbd86fcef	-0.06591212
16	0x3c8a59be	0.016888496
17	0x3d8a27e1	0.067458875
18	0x3de3e527	0.11127692
19	0xbcf58d90	-0.029974729
20	0x3e166796	0.14687952
21	0xbc49c158	-0.012314163
22	0xbd84b6fd	-0.06480215
23	0x3b8f6a96	0.0043767197
24	0x3d696f3a	0.05699084
25	0xbd614048	-0.054992944
26	0xbcea73f8	-0.028619751
27	0xbd95f4da	-0.07322092
28	0x3df50356	0.11963527
29	0x3e4120a8	0.18860114
30	0xbda6ae97	-0.08138769
31	0x3c310a89	0.010805734
32	0x3d9770a1	0.07394529
33	0x3da51350	0.08060324
34	0xbe019a4d	-0.12656517
35	0x3cb6b8b4	0.02230487
36	0x3d012639	0.031530593
37	0x3bb5e412	0.0055508697
38	0x3d0dc6ae	0.034613304
39	0x3dfa76b1	0.1222967
40	0x3dc55e3f	0.09637117
41	0x3dc2bbd1	0.095084794
42	0x3cb513e4	0.022104211
43	0xbc3cff75	-0.011535515
44	0x3d60a600	0.05484581
45	0x3cb8f0be	0.022575732
46	0x3d7e86ec	0.06214039
47	0x3e2bd987	0.16782199
48	0xbddfa0df	-0.109193556
49	0xbd89bb65	-0.06725196
50	0x3e0a1a23	0.13486533
51	0xbc884584	-0.01663471
52	0xbd319a8e	-0.043360285
53	0x3db3b17b	0.08774086
54	0x3e08ef76	0.13372597
55	0xbd7b8af9	-0.06141183
56	0xbcffa708	-0.031207576
57	0xbcbb409d	-0.022857958
58	0xbc8c73f9	-0.017145144
59	0x3d3fd8bc	0.046837553
60	0x3d5d5a26	0.05404105
61	0x3d51577f	0.051108833
62	0x3dc5e389	0.096625395
63	0xbd538f3e	-0.05165028
64	0x3db544b0	0.08850992
65	0x3d92615f	0.07147478
66	0x3dc8163d	0.097698666
67	0xbd0c4639	-0.034246657
68	0xbd4aa5e6	-0.04947462
69	0x3ce10f4b	0.027473113
70	0xbc3c9b8c	-0.011511695
71	0x3d9c5006	0.07632451
72	0xbd3debb7	-0.046367373
73	0xbcbcd8ac	-0.023052536
74	0x3d090e2f	0.033460792
75	0x3d1111ae	0.03541725
76	0xbc74c545	-0.014939611
77	0xbc77124c	-0.015080046
78	0x3d87a037	0.066223554
79	0x3d152327	0.036410477
80	0xba35b0d9	-0.00069309544
81	0xbd2c3736	-0.04204484
82	0x3e180d2b	0.14848773
83	0xbd806bca	-0.06270559
84	0xbc0a8d3e	-0.008456526
85	0x3dc81f81	0.09771634
86	0x3d4d2427	0.050083306
87	0xbca6657f	-0.020312069
88	0x3b8fe0d4	0.0043908153
89	0x3be808b5	0.007081116
90	0xbcf37428	-0.029718474
91	0x3d2b9086	0.041885875
92	0x3dc2c734	0.09510651
93	0x3d6094d1	0.054829422
94	0x3df07f41	0.11743022
95	0x3e4a3692	0.1974738
96	0xbd57fc28	-0.05273071
97	0xbc56fe97	-0.013122222
98	0x3cdbf36c	0.026849471
99	0x3dd6342e	0.10459171
100	0x3e0878da	0.13327351
101	0x3d2d4dce	0.04231053
102	0x3d5e396a	0.054253973
103	0x3db593f8	0.088661134
104	0x3e0c98b6	0.1373013
105	0x3e3a3cee	0.18187305
106	0x3e100816	0.14065585
107	0x3e35f447	0.17768966
108	0x3d6d7712	0.057974882
109	0x3d8992a4	0.067174226
110	0x3d408230	0.046999156
111	0xbccad546	-0.0247599
112	0x3d98021f	0.074222796
113	0x3d19a449	0.03751019
114	0x3d944773	0.0724019
115	0x3db7abd0	0.089683175
116	0x3c95acbb	0.01827084
117	0x3d36b18b	0.044602912
118	0x3df2e356	0.11859767
119	0x3d2f700a	0.04283146
120	0xbc1ca055	-0.0095597105
121	0x3cbf3ebd	0.023345346
122	0x3d8e9636	0.06962244
123	0xbcedfacc	-0.029050253
124	0xbe0d5d34	-0.13805085
125	0x3da0fb93	0.07860484
126	0xbdd1d0fe	-0.1024494
127	0xbceb1dfb	-0.02870082

fc3.weight f4 [64, 128]
0	0x3dbda71b	0.092603885
1	0x3e07c454	0.13258487
2	0x3df0b26a	0.1175278
3	0xbc4ac8c2	-0.012376966
4	0x3c284c74	0.010272134
5	0x3d46dbd2	0.04854948
6	0x3c438f14	0.011935968
7	0xbd8cafce	-0.068694696
8	0x3ddf6945	0.109087504
9	0x3da87730	0.08225858
10	0xbc8d853b	-0.017275443
11	0x3d6d7c62	0.05797995
12	0xbce559bf	-0.027996896
13	0xbd997c55	-0.074944176
14	0xbca3ed72	-0.020010684
15	0xbda1340a	-0.07871254
16	0x3d740b52	0.05958111
17	0x3c084439	0.008317047
18	0xbd64389f	-0.05571806
19	0xbd372c02	-0.044719703
20	0xbd8dd98f	-0.06926262
21	0x3dabfb57	0.08397549
22	0xbd717b59	-0.058955524
23	0xbbcb97e5	-0.0062131756
24	0xbcac10e5	-0.02100415
25	0x3da398af	0.079881065
26	0x3d638e8f	0.055555876
27	0x3c3fdedd	0.01171085
28	0x3bc4afac	0.006002387
29	0x3cf528c4	0.029926665
30	0xbd53d1c5	-0.051713724
31	0x3d9660ce	0.07342683
32	0xbd9608e7	-0.07325917
33	0x3d8d4aef	0.06899058
34	0x3d13dcb2	0.036099143
35	0x3df910a9	0.12161381
36	0x3cf278a3	0.02959854
37	0xbc5e2490	-0.013558522
38	0x3bced4a5	0.0063119703
39	0x3d9724d9	0.07380075
40	0x3d517fa3	0.051147114
41	0xbd766484	-0.060154453
42	0x3c9392e0	0.018014371
43	0x3d95e705	0.07319454
44	0xbc47257a	-0.012154931
45	0xbc6bdc47	-0.01439578
46	0xbd80a99c	-0.062823504
47	0xbb624684	-0.0034526894
48	0xbd123126	-0.035691403
49	0x3d6792ff	0.05653667
50	0x3dd00168	0.10156518
51	0x3d6aba29	0.057306442
52	0x3d9294c3	0.0715728
53	0x3d882234	0.06647149
54	0x3def03c0	0.11670637
55	0xbd527751	-0.05138332
56	0xbd8cea25	-0.06880597
57	0x3d2e69ab	0.04258124
58	0xbc0ab075	-0.008464922
59	0xbd5b2dde	-0.05351054
60	0xbd8078fc	-0.06273076
61	0x3d620b62	0.055186637
62	0x3dd13cd3	0.102166794
63	0x3a76a664	0.00094089494
64	0x3d3cf29e	0.046129815
65	0xbd07782d	-0.033073593
66	0x3de3be6d	0.11120305
67	0xbd7c9f4c	-0.061675355
68	0x3d93400e	0.07189952
69	0xbcdf417e	-0.027252909
70	0xbd175296	-0.036943994
71	0xbcefa4b0	-0.029253334
72	0x3dee118b	0.1162444
73	0xbb67634a	-0.0035306984
74	0x3d0581c7	0.03259447
75	0xbc828d4d	-0.015936518
76	0x3de9106e	0.11380087
77	0x3d8c4196	0.06848447
78	0x3dcaef2d	0.099089004
79	0xbc433368	-0.011914112
80	0x3db58050	0.08862364
81	0x3c1826a7	0.009286559
82	0x3c19c76b	0.009385924
83	0x3c8e8f4a	0.01740231
84	0xbcb58b23	-0.022161072
85	0xbdacb2d5	-0.08432547
86	0xbd58ddd6	-0.052945934
87	0x3c769b91	0.015051738
88	0x3db6650a	0.089059904
89	0x3db4e561	0.08832813
90	0x3d2e6d87	0.042584922
91	0xbd813110	-0.06308186
92	0x3de6a954	0.112627655
93	0xbd7cabf7	-0.061687436
94	0x3d96cc7f	0.07363223
95	0x3d8ce58a	0.068797186
96	0x3dcba202	0.0994301
97	0xbcfadab0	-0.030621856
98	0xbc338095	-0.010955949
99	0xbca04574	-0.019564368
100	0x3c836d83	0.01604343
101	0xbc9b6c12	-0.01897243
102	0x3d5feeb3	0.054671
103	0x3d10ee9a	0.0353838
104	0xbd65f156	-0.05613836
105	0xbc35e5cd	-0.011102152
106	0xbd8f8e13	-0.070095204
107	0x3defd7d7	0.1171109
108	0xbb74e9b4	-0.0037370743
109	0xbcb08100	-0.021545887
110	0x3d82dbc9	0.06389577
111	0x3d61b577	0.0551047
112	0xbd15d609	-0.036581073
113	0x3dc10afe	0.09425925
114	0xbb897709	-0.0041950983
115	0x3ded00da	0.11572428
116	0xbd35c92d	-0.04438131
117	0xbc92b55f	-0.01790875
118	0x3c776b04	0.015101198
119	0xbd992836	-0.07478373
120	0x3d45cf57	0.048293438
121	0xbd34da79	-0.044153664
122	0x3cb3fa1f	0.021969853
123	0xbdc2c5de	-0.095103964
124	0xbcbed3eb	-0.02329441
125	0xbd7bdfb7	-0.061492648
126	0x3d9ab85b	0.07554694
127	0xbc8ebe81	-0.017424824
128	0x3dd48399	0.10376663
129	0xbc8e3cf7	-0.017363055
130	0x3d98c360	0.0745914
131	0x3bc1dbac	0.0059160795
132	0x3ce9714d	0.028496409
133	0xbcf67c28	-0.0300885
134	0xbcb008ce	-0.021488573
135	0xbb676e00	-0.0035313368
136	0x3b0e7925	0.0021739688
137	0x3c310068	0.0108033195
138	0xbcf94c21	-0.030431809
139	0x3dc79566	0.09745292
140	0x3cd971fa	0.026543606
141	0xbd6848c2	-0.056710012
142	0xbd41960a	-0.04726223
143	0x3d1b5aae	0.037928276
144	0xbddf699a	-0.10908814
145	0x3d7da6b5	0.061926562
146	0x3c25cc82	0.010119559
147	0xbd9b2ade	-0.07576536
148	0x3c6ebca8	0.014571346
149	0x3d84f09f	0.06491207
150	0x3d9353f1	0.07193745
151	0x3d9bdf37	0.07610934
152	0x3aa5aa5e	0.0012639274
153	0x3c533b50	0.012892559
154	0xbdcf80ca	-0.101319864
155	0xbd879b7c	-0.06621453
156	0xbd919d7d	-0.07110117
157	0xbe06dd0f	-0.13170265
158	0xbc1fb525	-0.009747778
159	0xbd644721	-0.055731896
160	0xbce3e6ac	-0.027819954
161	0xbd2d99d3	-0.042383026
162	0x3cc2f54d	0.02379861
163	0xbd45af64	-0.04826297
164	0x3a252441	0.0006299653
165	0xbb29e2b3	-0.0025922477
166	0xbb9a22d7	-0.0047038603
167	0x3cc293af	0.023752062
168	0x3c232c96	0.009959361
169	0x3d71a9f6	0.058999978
170	0xbd406188	-0.046968013
171	0xbd726248	-0.05917576
172	0xbcec8cc5	-0.028875718
173	0x3d98044f	0.07422697
174	0xbcf8cb56	-0.030370396
175	0xbdca5a2e	-0.09880482
176	0xbd8aac2e	-0.06771122
177	0x3dcc4e8e	0.099759206
178	0x3d0c8082	0.034302242
179	0x3c8377a6	0.016048264
180	0x3da4d521	0.080484636
181	0xbd6340ec	-0.055481836
182	0xbd0d2958	-0.034463257
183	0xbcdd47eb	-0.027011832
184	0xbc406df8	-0.011744969
185	0x3d1dbd7e	0.038510792
186	0x3d998bf6	0.074973986
187	0x3d36abbc	0.044597372
188	0x3a7bfe00	0.0009612739
189	0x3db57245	0.08859686
190	0x3dcda0db	0.10040446
191	0x3d90c48c	0.07068738
192	0x3d3460b7	0.044037547
193	0x3dbf25dd	0.09333394
194	0xbd0ff81d	-0.03514873
195	0x3c327768	0.0108927265
196	0xbcd9536a	-0.026529033
197	0x3c43e578	0.011956565
198	0xbc7b3aeb	-0.015333871
199	0xbab82456	-0.0014048915
200	0x39cf7043	0.00039565758
201	0xbc48d608	-0.01225806
202	0xbd5ddd65	-0.054166216
203	0x3c644b70	0.013934001
204	0x3cf1cd2f	0.029516784
205	0xbd5470e0	-0.05186546
206	0xbd708569	-0.05872098
207	0xbdbe5a9d	-0.09294627
208	0xbd01c2db	-0.03167997
209	0xbc8493d4	-0.016183771
210	0x3dc8494f	0.097796075
211	0x3d41721d	0.047227968
212	0xbc99d4d0	-0.018778235
213	0x3d47036a	0.04858724
214	0x3d12ca84	0.035837665
215	0x3d61a5bf	0.05508971
216	0x3cd2eab7	0.025746686
217	0x3cc57851	0.024105223
218	0x3da7f459	0.082009025
219	0xbdbdf8b9	-0.09275956
220	0xbd479e3a	-0.04873488
221	0x3a807140	0.0009799376
222	0xbd22b1b1	-0.03972024
223	0x3cd0aaf7	0.025472147
224	0x3daef6f5	0.08543197
225	0xbd1776c1	-0.036978487
226	0xbd555e3c	-0.052091822
227	0xbda30757	-0.07960384
228	0x3c9c681b	0.01909261
229	0x3cbafee7	0.022826625
230	0xbd88f4fd	-0.06687353
231	0x3c35fb58	0.011107288
232	0x3bd893f3	0.006609434
233	0xbcc12f28	-0.023582056
234	0x3db45eeb	0.08807167
235	0xbd2b77d5	-0.041862328
236	0xbdeae099	-0.1146862
237	0x3cc8efbb	0.024528375
238	0xbc86f30c	-0.016473316
239	0x3d573a8a	0.05254606
240	0xbd9ed488	-0.07755381
241	0xbcfe0710	-0.031009227
242	0x3d8d3cfc	0.068963975
243	0x3c2f0503	0.010682347
244	0xbcac93b4	-0.021066524
245	0xbc9612ce	-0.018319514
246	0xbc8f38f2	-0.017483208
247	0x3d66f9ed	0.05639069
248	0xbdd452de	-0.10367368
249	0x3d07b768	0.033133894
250	0x3cd736d6	0.026271265
251	0x3df9d992	0.12199701
252	0x3dfcedd7	0.12350052
253	0xbd33fcdc	-0.043942317
254	0x3c658acd	0.0140101435
255	0xbd781c5a	-0.060573913

fc3.bias f4 [64]
0	0x3d3bb835	0.04582997
1	0xbdb4d41e	-0.08829521
2	0xbd72d5a1	-0.059285764
3	0xbdcd07c9	-0.100112505
4	0x3d64f6cf	0.055899438
5	0x3da23bad	0.079215385
6	0x3df088ba	0.117448285
7	0xba9e76ca	-0.0012089845
8	0xbcc5df30	-0.024154276
9	0xbcec2bf9	-0.028829562
10	0x3d3a1709	0.045432124
11	0xbda9925e	-0.082798705
12	0x3c2b4997	0.010454557
13	0x3d188188	0.037232906
14	0xbb8d11f4	-0.0043051187
15	0xbdbf9dae	-0.09356247
16	0x3e28e43d	0.16493316
17	0x3c182610	0.009286419
18	0x3e49acb6	0.1969479
19	0xbc552d94	-0.013011355
20	0xbd7eacfa	-0.062176682
21	0x3d79ff55	0.06103452
22	0x3e047e03	0.12938695
23	0xbcb31f02	-0.021865372
24	0xbccc337a	-0.02492689
25	0x3d77b75e	0.060477607
26	0x3d83aeac	0.064298004
27	0xbd894978	-0.06703466
28	0xbc4af3a6	-0.012387192
29	0x3d048885	0.032356758
30	0xbd6ebd5f	-0.058286067
31	0x3d7f04ed	0.062260557
32	0x3e139e3e	0.14415833
33	0x3c9286da	0.017886568
34	0x3d87d40f	0.06632244
35	0x3d202d30	0.039105594
36	0x3e25d7d8	0.16195619
37	0xbdbbaca9	-0.09163792
38	0x3d8e06e3	0.06934907
39	0xbd846eaa	-0.0646642
40	0x3d2ec4b9	0.042668078
41	0x3e2f1676	0.17098412
42	0x3d8cbb59	0.06871671
43	0x3e1d0e81	0.15337564
44	0x3b9dbcdb	0.004813773
45	0xbe088a63	-0.1333404
46	0xbd5ce4b9	-0.053929064
47	0x3db2f3b7	0.08737891
48	0xbbe74c2f	-0.0070586423
49	0x3cad087a	0.021122206
50	0x36851c02	3.9669694e-06
51	0x3cb987e4	0.022647806
52	0x3e1fc919	0.15604056
53	0xbdadf0f7	-0.08493226
54	0xbd402e58	-0.046919197
55	0xbd92520c	-0.071445554
56	0xbd8877dd	-0.06663487
57	0xbc86fea1	-0.016478838
58	0xbd371151	-0.04469425
59	0x3dc0b259	0.09409017
60	0x3d615130	0.055009067
61	0x3df529e6	0.11970882
62	0xbcf09356	-0.02936713
63	0x3dea8c8c	0.114525884

fc4.weight f4 [10, 64]
0	0xbd9a6860	-0.07539439
1	0xbe87b62c	-0.26506174
2	0xbc3505cb	-0.011048744
3	0xbd353de0	-0.04424846
4	0x3c46ec42	0.012141289
5	0x3d31c744	0.043402925
6	0x3df86759	0.12129087
7	0x3d48b3c7	0.048999574
8	0xbbdfa66f	-0.0068252604
9	0x3be6e778	0.007046636
10	0xbceeb54c	-0.029139183
11	0x3d036ef0	0.03208822
12	0x3dedff27	0.11620932
13	0x3d155281	0.036455635
14	0x3da74f55	0.08169428
15	0xbe10d4bf	-0.14143656
16	0x3c8e5ca7	0.017378164
17	0xbd2d04c7	-0.042240884
18	0xbd6f95e1	-0.058492545
19	0xbd89699d	-0.06709597
20	0x3d91a0b0	0.07110727
21	0x3e0b24a3	0.13588195
22	0xbd830ec6	-0.06399302
23	0xbd1008eb	-0.035164755
24	0xbdbec172	-0.093142405
25	0x3c6a270d	0.014291537
26	0xbe080878	-0.1328448
27	0x3d6703b4	0.056400016
28	0xbde15ffb	-0.11004635
29	0x3dce8b19	0.100851245
30	0x3d7b3e0b	0.061338466
31	0xbd1965e8	-0.0374507
32	0x3dd7aa8f	0.10530578
33	0xbda34bd9	-0.07973451
34	0x3d8effc7	0.069823794
35	0xbdf145e8	-0.11780912
36	0xbcacaf86	-0.02107979
37	0xbcf80d57	-0.030279798
38	0xbe287d58	-0.16454065
39	0x3d8e8e87	0.06960779
40	0xbce143a4	-0.027498074
41	0x3e0ce528	0.13759291
42	0xbd1a6b0d	-0.037699748
43	0xbe205925	-0.15659006
44	0xbce1c2d8	-0.027558729
45	0xbd5930de	-0.05302512
46	0xbddd96dd	-0.108197905
47	0x3d10547c	0.03523682
48	0xbe461766	-0.19344863
49	0xbd3dfb4b	-0.04638223
50	0xbdde662a	-0.1085933
51	0x3d88c5c9	0.066783495
52	0xbe424007	-0.18969737
53	0xbda55763	-0.08073308
54	0x3e16f3ab	0.1474139
55	0x3cb716dc	0.022349767
56	0x3dbd9d65	0.09258536
57	0xbd98cc25	-0.074608125
58	0x3dbc97d4	0.092086464
59	0x3d885db6	0.06658499
60	0xbd226486	-0.039646648
61	0xbc687354	-0.014187653
62	0xbd42bbfa	-0.04754255
63	0xbdc92092	-0.098206654
64	0x3ce0daf3	0.027448153
65	0x3c6c7a8f	0.014433517
66	0xbe263f97	-0.16235195
67	0x3cd05f5f	0.025436101
68	0x3d002764	0.031287566
69	0x3dca7e24	0.09887341
70	0xbcc3a154	-0.023880638
71	0xbdb9e757	-0.09077328
72	0xbddc7e60	-0.107662916
73	0xbc6a9f1c	-0.014320161
74	0x3d35415f	0.044251796
75	0xbdedadc0	-0.11605406
76	0xbdc31170	-0.0952481
77	0x3dcb7f83	0.0993643
78	0x3e241849	0.16024889
79	0xbd833a1c	-0.06407568
80	0xbbead93f	-0.007167011
81	0x3cff6c3b	0.031179538
82	0x3dc9d0fd	0.098543145
83	0xbda0fdc7	-0.07860904
84	0x3e104be7	0.14091454
85	0x3dc9b275	0.09848491
86	0xbd35f15e	-0.04441964
87	0x3e25b482	0.1618214
88	0xbd3419a6	-0.043969773
89	0x3ce17d27	0.027525498
90	0x3c926f1a	0.017875243
91	0x3d07cc79	0.033153985
92	0xbc209512	-0.009801166
93	0x3c2eb6f1	0.010663734
94	0x3c333785	0.01093853
95	0xbe41806e	-0.18896648
96	0xbe31c52d	-0.17360373
97	0xbd85343b	-0.06504103
98	0x3db4659f	0.08808445
99	0xbdd08668	-0.10181886
100	0xbe24dbe0	-0.160995
101	0xbe045306	-0.12922296
102	0xb92342ac	-0.00015569729
103	0x3d0e3d23	0.034726273
104	0x3d62601b	0.055267435
105	0xbe019422	-0.12654164
106	0xbd4d4ff5	-0.05012508
107	0xbd8dac56	-0.06917636
108	0x3ddbdbaa	0.10735257
109	0xbe0ef2b6	-0.13959774
110	0x3e1929c7	0.14957343
111	0x3dbd666e	0.092480525
112	0xbe472c4f	-0.19450496
113	0x3d557cb8	0.052120894
114	0x3da634a5	0.0811551
115	0x3dd893f1	0.105750926
116	0xbd76481c	-0.060127363
117	0xbd058fde	-0.032607906
118	0xbdbd69ee	-0.0924872
119	0x3d9fd140	0.07803583
120	0xbe0d5c86	-0.13804826
121	0xbe2b1c00	-0.167099
122	0x3e16f16f	0.14740537
123	0xbdb72378	-0.08942312
124	0xbe0267d8	-0.12734926
125	0xbd276047	-0.0408633
126	0xbe02b1c5	-0.12763126
127	0x3daac7bd	0.08338878
128	0x3d5e9a1c	0.05434619
129	0xbe0fb7e0	-0.14034986
130	0xbc5a6831	-0.013330505
131	0xbd986ef8	-0.074430406
132	0x3d28b7b3	0.041190814
133	0x3d3ebb4b	0.046565335
134	0xbe43d957	-0.19125877
135	0x3d701852	0.058616944
136	0xbe24f3c8	-0.1610862
137	0x3dbf6dca	0.093471125
138	0xbde71fd1	-0.112853654
139	0xbab6c500	-0.0013944209
140	0x3dd099d0	0.101855874
141	0x3d39f072	0.045395322
142	0xbd2b7f11	-0.041869227
143	0x3b5dc0f3	0.003383693
144	0xbe081035	-0.13287432
145	0xbdbdc6c1	-0.09266425
146	0x3d3afc24	0.045650616
147	0xbd81ab8b	-0.06331547
148	0xbd8c5e39	-0.06853909
149	0xbda9e0e2	-0.08294846
150	0x3d98d607	0.074626975
151	0xbe13bf0b	-0.14428346
152	0xbe04a5c1	-0.12953855
153	0x3cf70e77	0.030158265
154	0xbda51163	-0.08059957
155	0x3d63dd36	0.055630885
156	0x3d497814	0.04918678
157	0xbd453f2c	-0.04815595
158	0xbdb7f7f9	-0.08982844
159	0xbd1c987b	-0.038231354
160	0xbc6f01c3	-0.014587822
161	0x3dbcfe30	0.0922817
162	0x3e0d9a60	0.1382842
163	0x3db8a7ca	0.09016378
164	0x3c4b0256	0.012390694
165	0x3cac8ddb	0.021063736
166	0x3da0ac04	0.078453094
167	0x3c0437cb	0.008069943
168	0xbdea2868	-0.11433488
169	0x3d752cc2	0.059857138
170	0x3df395be	0.118937954
171	0x3d742a38	0.059610575
172	0x3d0c94b6	0.03432151
173	0x3dd9659b	0.10615083
174	0x3c24606a	0.0100327525
175	0x3dc74ae6	0.097310826
176	0xbce4e64c	-0.027941845
177	0xbdbbf99b	-0.09178468
178	0xbddcb14d	-0.10776005
179	0xbc4af58b	-0.012387644
180	0xbbae4e67	-0.005319405
181	0x3db028d4	0.08601537
182	0xbdd7b045	-0.105316676
183	0x3d77b476	0.060474835
184	0xbd616db2	-0.055036254
185	0xbe259fe7	-0.16174279
186	0xbde24cd8	-0.11049813
187	0x3dc8f774	0.09812823
188	0xbd6be065	-0.057587046
189	0xbe2e30e0	-0.17010832
190	0xbde0f3ed	-0.10984025
191	0x3dfe1a39	0.12407345
192	0xbd1ca538	-0.038243502
193	0xbdf78967	-0.12086754
194	0x3cb4b7ee	0.02206036
195	0xbe03c282	-0.12867168
196	0xbdf2addd	-0.11849568
197	0x3d9ecc9f	0.07753872
198	0x3cfa0844	0.03052152
199	0xbe29373a	-0.16524974
200	0x3d9b0866	0.07569961
201	0xbd4446df	-0.04791915
202	0x3d0a2077	0.033722367
203	0xbc8bdeb0	-0.01707396
204	0x3e2d5be5	0.16929586
205	0xbaf5152d	-0.0018698327
206	0x3d914537	0.0709328
207	0x3d963fb0	0.07336366
208	0xbc875a72	-0.01652262
209	0xbc982ec2	-0.018576983
210	0xbe1b318e	-0.15155622
211	0xbdac69bb	-0.08418604
212	0xba19a320	-0.00058607943
213	0xbd6a7cd8	-0.057247967
214	0x3c87d4ee	0.016581025
215	0x3d898e8e	0.06716643
216	0xbceaeca2	-0.028677288
217	0xbe0c73fc	-0.1371612
218	0x3cefe858	0.029285595
219	0x3d58d9af	0.052941974
220	0x3d644f20	0.055739522
221	0x3d9740cf	0.07385408
222	0x3d7fb498	0.062428087
223	0x3ba2ee56	0.0049722595
224	0x3d2de464	0.04245414
225	0xbd1aeb79	-0.03782222
226	0xbd542e95	-0.051802237
227	0xbe0beffd	-0.13665767
228	0x3e087ea1	0.13329555
229	0xbe214881	-0.15750314
230	0xbd33f299	-0.04393253
231	0x3d3878b1	0.045036975
232	0xbe49dde9	-0.19713558
233	0xbd96122e	-0.07327686
234	0xbd62adbb	-0.055341464
235	0x3c9a5407	0.018838895
236	0x3d2c53e3	0.042072188
237	0x3d5c1eb1	0.053740207
238	0x3d7b0a0c	0.06128888
239	0x3e01edfc	0.1268844
240	0xbcf94b77	-0.030431492
241	0xbe25cc5b	-0.16191237
242	0x3d4bfcba	0.049801566
243	0xbda318cf	-0.07963716
244	0xbe06e480	-0.13173103
245	0xbe07a691	-0.13247134
246	0x3d1e0c98	0.03858623
247	0x3d93b4f7	0.07212251
248	0x3e0a07e1	0.13479568
249	0x3c6f3b36	0.014601519
250	0x3dab2e77	0.08358472
251	0xbd99fbfc	-0.07518765
252	0xbd1ea358	-0.038729995
253	0xbcca0709	-0.024661558
254	0x3dbaf34c	0.091284364
255	0x3dfcc604	0.12342456

fc4.bias f4 [10]
0	0x3dfcd490	0.123452306
1	0x3bf41c24	0.0074496437
2	0xbcc28e41	-0.023749473
3	0x3d5e4698	0.054266542
4	0x3cb48298	0.022034928
5	0x3d408bb3	0.047008228
6	0xbca7dbd8	-0.020490572
7	0xbd876dee	-0.06612764
8	0x3cda2ada	0.026631761
9	0xbd401a5c	-0.04690014
