runs/Mar02_15-54-53_cssd901383-Run(lr=0.001, batch_size=128, patience=1)-valid/checkpoint.pt (torch_old, 972387 bytes, 8 tensors)

fc1.weight f4 [256, 784]
0	0x3d246266	0.040132903
1	0xbcf6aa2b	-0.03011044
2	0xbd7159ca	-0.05892352
3	0xbc31c744	-0.010850731
4	0xbcd29103	-0.025703913
5	0x3bac052a	0.005249639
6	0xbcf03c28	-0.02932556
7	0xbd7870ef	-0.060654577
8	0xbdc025bb	-0.093821965
9	0xbdcf7f0a	-0.10131653
10	0xbe48a0d9	-0.19592609
11	0xbdfb9b85	-0.12285522
12	0x3cfbdaa5	0.030743906
13	0x3e0963f8	0.13417041
14	0x3e0a3ebe	0.13500497
15	0x3d65cc92	0.056103297
16	0xbd52284a	-0.051307954
17	0xbe34f9a0	-0.1767335
18	0xbe0eca74	-0.13944417
19	0xbddd94c2	-0.10819389
20	0xbd9305b5	-0.07178823
21	0xbd821d77	-0.06353276
22	0x3d9947bb	0.074843846
23	0x3da5af48	0.08090073
24	0x3c92de9b	0.017928412
25	0x3d3b10f1	0.045670453
26	0x3caee6d3	0.0213503
27	0x3d1b6448	0.037937433
28	0x3cfccf19	0.03086047
29	0x3cc0d739	0.023540126
30	0xb93aac6d	-0.00017802576
31	0x3b9179da	0.0044395747
32	0x3ca6c0cb	0.020355603
33	0x3cecabc1	0.028890492
34	0xbce9583d	-0.028484458
35	0xbd5b7e04	-0.053586975
36	0xbdd7cef9	-0.10537524
37	0xbdebe067	-0.11517411
38	0xbe043815	-0.12912019
39	0xbd090462	-0.033451445
40	0xbd315915	-0.043297846
41	0x3bf73810	0.007544525
42	0xbd2fd56f	-0.042928156
43	0x3c893b40	0.016751885
44	0xbd2eb6f5	-0.04265495
45	0xbd9ceccd	-0.07662354
46	0xbe05d6a6	-0.13070163
47	0xbdd097f1	-0.101852305
48	0xbdede3d9	-0.11615724
49	0xbc16fe04	-0.0092158355
50	0x3d988ff8	0.07449335
51	0x3d8fcd13	0.07021537
52	0x3da67ea5	0.08129624
53	0x3d9252dd	0.07144711
54	0x3d2390f5	0.039933164
55	0x3ba014dc	0.004885299
56	0x3ceb7446	0.028741967
57	0x3a0758ff	0.0005163103
58	0x3ce885fb	0.0283842
59	0x3a59e16a	0.00083114824
60	0xbcf86a5c	-0.030324154
61	0xbc9c880a	-0.019107837
62	0xbd6199de	-0.05507838
63	0xbe1e1c15	-0.154404
64	0xbd751344	-0.059832826
65	0xbd3cff3c	-0.046141848
66	0x3b400de5	0.0029305157
67	0xbcc9eab3	-0.024648046
68	0xbcc9521c	-0.024575286
69	0xbcc81f3e	-0.02442896
70	0xbcaa29c0	-0.020771861
71	0x3a8da7ec	0.0010807491
72	0xbc9a5f7a	-0.018844355
73	0x3c6ffeb3	0.014648127
74	0xbd4ee113	-0.050507616
75	0xbd3e5858	-0.04647097
76	0xbe0bbccb	-0.13646238
77	0xbdb4e397	-0.08832472
78	0xbd68d813	-0.05684669
79	0x3d867fd6	0.065673515
80	0x3ccccee5	0.025000999
81	0x3d348886	0.04407551
82	0x3da38770	0.07984817
83	0x3d7acf4c	0.06123285
84	0x3cba8bb3	0.022771692
85	0x3d593ec0	0.05303836
86	0x3cbf4777	0.023349507
87	0x3b05f62d	0.0020440922
88	0xbd6b6dd8	-0.057477802
89	0xbd498eb6	-0.049208365
90	0xbda5ae62	-0.080899015
91	0xbd237c9e	-0.039913766
92	0xbd653a95	-0.05596407
93	0xbb76447d	-0.0037577443
94	0x3be4d88d	0.0069838227
95	0x3cc877ea	0.024471242
96	0xbc9b4d40	-0.018957734
97	0x3cdd0fd2	0.026985083
98	0x3cea8980	0.028630018
99	0x3d4d7ea6	0.05016961
100	0xbc57af59	-0.013164365
101	0xbc3b33c6	-0.011425918
102	0x3b8e8056	0.004348795
103	0xbd168902	-0.036751755
104	0xbd26d3b2	-0.040729232
105	0xbd61bfee	-0.05511468
106	0xbdc07a0d	-0.09398279
107	0xbcfe897d	-0.031071419
108	0x3cf02147	0.029312743
109	0x3d9c3ff9	0.07629389
110	0x3d8e1608	0.06937796
111	0x3d70d0ac	0.058792755
112	0x3d87fd36	0.06640093
113	0x3d8c516a	0.06851466
114	0x3d458b46	0.048228525
115	0x3c562da0	0.013072401
116	0xbcc2d373	-0.023782467
117	0xbd5f70bf	-0.054550882
118	0xbd9bfabf	-0.076161854
119	0xbd5e1e61	-0.05422819
120	0xbd6ba1c0	-0.057527304
121	0xbc4f19bb	-0.012640412
122	0xbc853efc	-0.016265385
123	0xbbe6cae2	-0.0070432285
124	0x3c200a2f	0.009768053
125	0xbccbde97	-0.024886413
126	0x3b75aa11	0.00374854
127	0x3d04d11c	0.032425985
128	0x3cb8b965	0.02254934
129	0xbcc19ef9	-0.023635374
130	0xbc1c5307	-0.00954128
131	0xbca40b63	-0.02002496
132	0xbd177e1e	-0.03698551
133	0xbd80ed20	-0.06295228
134	0xbd891e6f	-0.06695258
135	0xbc847b78	-0.016172156
136	0x3d81113f	0.063021176
137	0x3d78bea8	0.0607287
138	0x3dbd7739	0.092512555
139	0x3d10b620	0.035329938
140	0x3d19ce77	0.037550416
141	0x3d3bc763	0.045844447
142	0x3c973d23	0.01846177
143	0xbc47e884	-0.012201432
144	0xbcd890f4	-0.026436307
145	0xbd593edf	-0.053038474
146	0xbdaae073	-0.083435915
147	0xbcf0a0a4	-0.029373474
148	0xbb0f965b	-0.0021909687
149	0xbc0a41ad	-0.00843851
150	0xbc6db246	-0.014507836
151	0x3cb885ce	0.02252474
152	0x3be739ed	0.007056466
153	0x3c98f57d	0.018671745
154	0xbc1b7dd9	-0.009490454
155	0xbc829cb5	-0.015943864
156	0x3d4ea162	0.050446875
157	0x3b97bd4c	0.0046307202
158	0xbcfc3a12	-0.030789409
159	0xbcc8624a	-0.02446093
160	0xbd151c3d	-0.036403883
161	0xbcb227fa	-0.021747578
162	0x3ad77842	0.0016439038
163	0xbd4075ee	-0.046987467
164	0x3d644876	0.055733167
165	0x3d869f4e	0.06573354
166	0x3d9f594d	0.07780705
167	0x3d8b814c	0.06811771
168	0x3dccce67	0.100003056
169	0x3d4f49c1	0.050607447
170	0xbcc2c052	-0.023773346
171	0x3cc151d3	0.023598587
172	0xbd4194bb	-0.04726098
173	0xbd6d64bc	-0.057957396
174	0xbd97756c	-0.07395443
175	0xbd03dcd6	-0.032193027
176	0x3c5580af	0.013031169
177	0xbc821636	-0.015879732
178	0xbcf9cd13	-0.030493295
179	0xbd1873ea	-0.03721992
180	0x3c175623	0.009236845
181	0x3cd802f8	0.026368603
182	0x3d0e90da	0.03480611
183	0x3cb2fc61	0.02184886
184	0x3cd51c22	0.026014391
185	0x3beeabc5	0.00728366
186	0xbcb95992	-0.022625718
187	0x3d199d65	0.03750362
188	0xbcc2e72c	-0.023791872
189	0x3c08bfc1	0.008346499
190	0xbaa5a425	-0.001263742
191	0xbd08df4f	-0.03341609
192	0x3c87cac6	0.016576182
193	0x3d46d139	0.048539374
194	0x3de4015c	0.11133072
195	0x3d6e4849	0.058174405
196	0x3d9bea79	0.076130815
197	0x3d8e987f	0.0696268
198	0x3d182e6b	0.037153643
199	0x3d10278e	0.035193972
200	0xbc81d96e	-0.015850749
201	0xbd7cc360	-0.06170976
202	0xbd891237	-0.06692927
203	0xbccffcc5	-0.025389085
204	0x3b2d582e	0.0026450264
205	0xbd27de71	-0.04098362
206	0xbb27b96a	-0.0025592693
207	0xbceca80e	-0.028888728
208	0x3cd03a93	0.025418555
209	0x3c81144a	0.015756745
210	0x3ca9a516	0.020708602
211	0x3c85a04b	0.016311785
212	0x3d1235c0	0.03569579
213	0x3ce44a37	0.02786742
214	0x3d3792a7	0.044817593
215	0x3a1cb431	0.00059777783
216	0xbbd479bb	-0.006484238
217	0xbc1a0ff6	-0.009403219
218	0xbcdc8fa4	-0.026923962
219	0x3d1dce2f	0.03852671
220	0x3d0e32ee	0.03471654
221	0x3d94df95	0.072692074
222	0x3da3e5a1	0.080027826
223	0x3d95c69d	0.07313273
224	0x3da7708f	0.08175766
225	0x3d6d3f07	0.057921436
226	0xbb9664f6	-0.004589672
227	0x3c87752b	0.016535362
228	0x3c2542f2	0.010086762
229	0xbbb2b011	-0.0054531177
230	0xbcd18e98	-0.02558069
231	0xbcf251ad	-0.029579962
232	0xbcf68040	-0.030090451
233	0xbcc9d3e6	-0.024637174
234	0xbb9e7c96	-0.004836629
235	0x3ca8e36b	0.020616254
236	0xbd15c529	-0.03656498
237	0x3c500e7f	0.012698769
238	0x3ca9552f	0.020670502
239	0x3d17428f	0.03692871
240	0x3ba236bf	0.004950374
241	0xbc988792	-0.018619332
242	0x3d57b432	0.052662082
243	0xbc80616e	-0.015671458
244	0xbc3a13d2	-0.011357265
245	0xbd399aa9	-0.04531351
246	0xbccfd829	-0.025371628
247	0x3cfa6443	0.030565387
248	0x3c610e1b	0.013736273
249	0x3d25193a	0.04030726
250	0x3d9e99b4	0.0774416
251	0x3da404b9	0.08008713
252	0x3df900cb	0.12158354
253	0x3da9a3d1	0.082831986
254	0x3bfe702d	0.0077648372
255	0x3c83ae2a	0.016074259

fc1.bias f4 [256]
0	0xbc1fd739	-0.009755903
1	0xbd53ef4e	-0.05174189
2	0xbb7ed9e2	-0.0038887192
3	0x3d3e37cf	0.046439942
4	0xbcc49c64	-0.024000354
5	0xbd13e2af	-0.036104854
6	0x3cde19ba	0.027111877
7	0x3cfe3cff	0.031034945
8	0x3d838881	0.064225204
9	0x3ceb7eb4	0.02874694
10	0x3d9264a9	0.07148106
11	0x3d9c7f4a	0.07641466
12	0xbc7798bb	-0.015112097
13	0xbca3266a	-0.019915778
14	0x3d5cc7da	0.05390153
15	0xbd06c8b3	-0.032906245
16	0xbd2af04b	-0.041733067
17	0x3c2e36fa	0.010633225
18	0xbc43efdf	-0.011959045
19	0xbce7d7cc	-0.028301142
20	0xbbb24074	-0.0054398123
21	0xbbd51a98	-0.0065034144
22	0x3a3daad0	0.0007235231
23	0x3dbc35cc	0.091899484
24	0x3c10d94f	0.008840873
25	0x3d893766	0.067000195
26	0x3d736690	0.059423983
27	0x3dbf1d3d	0.09331749
28	0x3c175287	0.009235985
29	0x3c8945e5	0.016756961
30	0xbd5665b0	-0.05234307
31	0xbc1e9d45	-0.009681051
32	0x3cdd98f8	0.02705048
33	0xba8db025	-0.0010809941
34	0xbcafb791	-0.021449836
35	0xbc426eed	-0.011867267
36	0xbcfc8b11	-0.03082803
37	0x3dc7da67	0.09758454
38	0x3d3ce7df	0.046119567
39	0x3d86f387	0.06589418
40	0xbd142a70	-0.036173284
41	0x3c8da3b6	0.017289978
42	0xbc1a4e2c	-0.009418052
43	0x3cc21b9f	0.023694811
44	0x3d4617b7	0.04836246
45	0xbd0c2e0a	-0.034223594
46	0xbcb323c1	-0.021867635
47	0x3e11ba07	0.1423112
48	0x3d58bcb9	0.052914355
49	0xbbc454fb	-0.005991576
50	0xbd1f2150	-0.03885013
51	0x3ca3be4b	0.0199882
52	0x3b98b35a	0.0046600522
53	0xbc0f4f5c	-0.008746948
54	0xbcf79b97	-0.030225558
55	0xbb30ad5c	-0.00269588
56	0xbcd1c7c5	-0.025607953
57	0xbd29689c	-0.04135953
58	0x3de26763	0.11054876
59	0xbc84a974	-0.016194083
60	0x3d3037ff	0.043022152
61	0xbd2073fa	-0.039173104
62	0xbd2a666a	-0.041601576
63	0xbd60e6fb	-0.05490778
64	0x3ca8abf0	0.020589799
65	0x3d84e3eb	0.064887844
66	0x3d012fc6	0.0315397
67	0xbd2cf80a	-0.042228736
68	0x3d045c51	0.032314602
69	0xbbd71f19	-0.0065649864
70	0x3e436ec2	0.1908522
71	0xbd4a3b9c	-0.049373254
72	0x3ca1aa30	0.019734472
73	0x3cd28dde	0.025702413
74	0xbd9366bf	-0.07197332
75	0x3d9448da	0.07240458
76	0x3c031c9e	0.008002428
77	0xbbba7c7b	-0.0056911088
78	0xbd2f6ba3	-0.04282726
79	0x3c348c82	0.011019828
80	0xbd789ddc	-0.06069742
81	0x3ca10cd7	0.019659443
82	0x3d893fee	0.06701647
83	0x3d064b43	0.03278662
84	0x3dace7dc	0.08442661
85	0x3d0e8bae	0.034801178
86	0x3e0dd36f	0.13850187
87	0x3e2dbb30	0.16965938
88	0x3e112edd	0.14178033
89	0x3c85556c	0.016276084
90	0x3d1385b8	0.036016196
91	0xbde363a2	-0.11102988
92	0xbd3095a0	-0.043111444
93	0xbd95227e	-0.072819695
94	0x3a8b8418	0.0010644225
95	0x3d58ae4f	0.05290061
96	0x3dcb3251	0.099217065
97	0xbd3f5bb7	-0.046718325
98	0xbba4576d	-0.005015305
99	0x3d7076e4	0.058707133
100	0xbd1f7d3c	-0.038937792
101	0x3dd1692d	0.10225139
102	0x3cc8cc31	0.024511429
103	0x3cdff560	0.027338684
104	0xbcdd2512	-0.026995216
105	0xbd2ac68c	-0.041693255
106	0xbb6a2473	-0.0035727292
107	0xbd841637	-0.0644955
108	0xbc268e2c	-0.010165732
109	0xbca92ca7	-0.020651175
110	0x3ddad727	0.10685568
111	0x3d6287fa	0.05530546
112	0x3bc0e733	0.005886936
113	0x3def7989	0.11693103
114	0xbceb2a2e	-0.028706636
115	0x3df7bc86	0.12096505
116	0x3d214b98	0.039378732
117	0xbcbd3d47	-0.023100508
118	0x3def9e12	0.117000714
119	0x3cac7ebf	0.021056531
120	0x3d3df8ff	0.04638004
121	0x3be61d26	0.0070225177
122	0x3d92cb35	0.07167665
123	0xbd33b760	-0.043876052
124	0xbd525096	-0.051346384
125	0x3d13adfc	0.036054596
126	0x3d593465	0.053028483
127	0x3dd2cd70	0.1029309
128	0x3d7fbca9	0.06243578
129	0x3cbf1cfe	0.023329254
130	0x3d96ee7a	0.073697045
131	0x3dda97eb	0.10673507
132	0xbd6ae7c1	-0.057349924
133	0x3d7e0608	0.06201747
134	0x3dda199f	0.10649418
135	0xbd8a7e7c	-0.06762406
136	0xbc5ebb09	-0.013594397
137	0x3d37c6fa	0.044867493
138	0xbc543325	-0.012951647
139	0x3d8990a3	0.067170404
140	0xb88fb2df	-6.852089e-05
141	0x3c65b745	0.014020746
142	0xbce1ae47	-0.027548922
143	0x3c7c3984	0.015394572
144	0x3e392de8	0.18083918
145	0x3e1e4e87	0.15459643
146	0xbd0224bf	-0.031773325
147	0xbda92a1d	-0.082599856
148	0x3cfb8ebe	0.030707713
149	0xbd0bcb19	-0.034129236
150	0x3da601de	0.08105825
151	0xbd0daaac	-0.034586594
152	0x3d7aec7d	0.06126069
153	0x3c3ee5e3	0.011651489
154	0x3d3b9c67	0.045803454
155	0xbd0d34e9	-0.034474287
156	0x3cc53f7e	0.024078127
157	0x3d936a34	0.07197991
158	0xbc0b85b6	-0.008515766
159	0xbd95d805	-0.07316593
160	0x3d0d5b97	0.034511175
161	0x3b9257a1	0.0044660126
162	0x3d35b813	0.044365
163	0xbd0f966c	-0.035055563
164	0x3da79661	0.081829794
165	0xbd08452c	-0.033269092
166	0x3b4387ca	0.0029835575
167	0x3d93e491	0.0722133
168	0xbdb19c44	-0.086723834
169	0xbd5068ef	-0.050881322
170	0x3cda6205	0.026658067
171	0xbc7da4a0	-0.015481144
172	0x3d86117e	0.06546305
173	0x3dfe346a	0.12412341
174	0xbd3937ba	-0.04521916
175	0x3dfd37e7	0.12364178
176	0x3af67603	0.0018803481
177	0xbc74e9db	-0.014948334
178	0x3d831814	0.06401077
179	0xbcf2060e	-0.029543903
180	0x3ce8c05f	0.028412042
181	0xbb24f15c	-0.0025168275
182	0x3c987da2	0.018614594
183	0x3d11cee6	0.035597704
184	0xbc7888de	-0.01516935
185	0x3d8a7cad	0.06762061
186	0x3cbd489f	0.023105917
187	0x3d71a8db	0.058998924
188	0x3b0b0dac	0.0021217866
189	0x3dad2bd8	0.08455628
190	0xbbc3f89f	-0.0059805657
191	0x3d814692	0.06312288
192	0x3da65d60	0.081232786
193	0xbcd1f663	-0.025630182
194	0x3d32a874	0.04361768
195	0xbd4f1ad4	-0.050562695
196	0xbbdc842b	-0.006729623
197	0x3d320cc6	0.043469213
198	0x3d90592b	0.070482574
199	0x3cf20554	0.029543556
200	0xbd080aac	-0.033213302
201	0x3d765aa2	0.060145028
202	0x3d7e71cc	0.062120244
203	0x3c8ee4f3	0.017443156
204	0xbd87fa5f	-0.06639551
205	0x3e08d308	0.13361752
206	0x3c7fc8c8	0.015611835
207	0xba60935d	-0.0008566881
208	0xbcd2a355	-0.025712648
209	0x3c17e842	0.009271683
210	0x3da1ce9e	0.07900737
211	0xbd08bcfc	-0.033383355
212	0xbd7377ff	-0.05944061
213	0xbdc42ec4	-0.09579232
214	0xbdd612fe	-0.10452841
215	0x3dfda362	0.123846784
216	0x3dcbe484	0.09955695
217	0xbd193dbd	-0.037412394
218	0xbc8fd795	-0.017558852
219	0x3d817d51	0.0632273
220	0x3e1bde1c	0.15221447
221	0xbd073940	-0.033013582
222	0x3d2a429b	0.041567426
223	0x3d71c2e5	0.059023757
224	0x3e0a990a	0.13534942
225	0xbca54297	-0.020173354
226	0x3c3d276b	0.0115450425
227	0x3db265ae	0.087108
228	0x3c00c26e	0.007858856
229	0xbceab6b5	-0.028651575
230	0x3ba6e622	0.005093352
231	0xbd1bc60d	-0.038030673
232	0x3d2241da	0.039613582
233	0x3d0dc57a	0.034612156
234	0xbc982cdd	-0.01857608
235	0x3d26fedc	0.040770397
236	0x3cc23912	0.023708854
237	0xbbfa5973	-0.0076400577
238	0x3e2c70b0	0.16839862
239	0x3c98673b	0.018603912
240	0x3daec9be	0.08534573
241	0x3d034f20	0.03205788
242	0x3da6ecc2	0.08150627
243	0x3b6b2ea7	0.0035885961
244	0x3e2f732b	0.17133777
245	0x3bf7ccb2	0.0075622434
246	0x3ddc336f	0.10751998
247	0x3e00c3f5	0.12574752
248	0x3d0de45a	0.0346416
249	0x3d8db28d	0.069188215
250	0x3ca966ff	0.020678995
251	0xbd30a935	-0.04313012
252	0x3d50a600	0.05093956
253	0x3c19d0e7	0.009388185
254	0xbd39a200	-0.04532051
255	0xbd1a5a78	-0.037683934

fc2.weight f4 [128, 256]
0	0x3d5bedae	0.053693466
1	0x3df8bc05	0.12145237
2	0x3c742b65	0.014902924
3	0xbd38e81b	-0.045143228
4	0xbd115bfd	-0.035488117
5	0xbd45ec58	-0.048321098
6	0x3d8979b1	0.06712664
7	0xbd275fa5	-0.040862698
8	0x3c1932ca	0.009350488
9	0xbcc704af	-0.024294225
10	0x3d3f7c63	0.046749484
11	0xbd3e0eeb	-0.046400946
12	0x3cdfa2f9	0.027299391
13	0x3d08a5cc	0.03336124
14	0xbd8ae147	-0.067812495
15	0x3d239afa	0.03994272
16	0xbdeb720e	-0.114963636
17	0xbd024115	-0.03180035
18	0x3d560cb7	0.05225822
19	0x3d99b13c	0.07504508
20	0xbd970398	-0.07373732
21	0x3d130519	0.035893533
22	0xbd1e56a8	-0.03865686
23	0x3d7eafbb	0.06217931
24	0x3d500f73	0.050795984
25	0xbd1be5e3	-0.038061034
26	0xbc72d418	-0.014821075
27	0xbd7ccc89	-0.061718497
28	0xbd23c456	-0.039982162
29	0x3d690595	0.05689009
30	0xbd888c7a	-0.06667419
31	0x3c0a37ad	0.008436126
32	0x3d2eae79	0.04264686
33	0x3dac1df7	0.08404153
34	0x3d06267a	0.032751538
35	0xbb30d4b3	-0.0026982247
36	0xbda64f5f	-0.081206076
37	0xbc5fa4c7	-0.013650126
38	0xbb74dc67	-0.0037362815
39	0xbd2cb2b3	-0.04216261
40	0x3b7899b0	0.0037933402
41	0x3d3c1691	0.04591996
42	0x3cde9f00	0.027175426
43	0x3c99bfbd	0.018768186
44	0xbd3829eb	-0.04496185
45	0x3d08ee79	0.03343055
46	0x3cd355b7	0.025797708
47	0x3cc35c0c	0.023847602
48	0x3dae63b8	0.085151136
49	0x3d193265	0.037401576
50	0x3cce4283	0.0251782
51	0x3d07bdb4	0.0331399
52	0xbe153694	-0.14571601
53	0x3d6376e4	0.055533305
54	0xbd6279b5	-0.05529185
55	0x3c54ae86	0.012981063
56	0xbce32418	-0.027727172
57	0xbd1a315d	-0.037644733
58	0xbdf72109	-0.12066848
59	0xbc9c47d9	-0.019077228
60	0x3dd2286e	0.102616176
61	0x3c5f9b92	0.013647931
62	0xbd2300d0	-0.039795697
63	0x3d145f5b	0.03622375
64	0x3d51bdee	0.05120652
65	0xbd901e0b	-0.0703698
66	0xbc4627d2	-0.012094455
67	0x3d1ca65a	0.038244583
68	0x3d1cc13e	0.038270228
69	0x3d720c44	0.05909373
70	0xb811a0a3	-3.47203e-05
71	0xbd5d31b2	-0.05400247
72	0xbb830da1	-0.0039994274
73	0x3ccb5cb0	0.02482447
74	0x3d156957	0.036477413
75	0x3c857641	0.01629174
76	0x3c41d58b	0.011830698
77	0xbb4b7548	-0.0031045247
78	0xbd5fc985	-0.054635543
79	0xbbd218b0	-0.0064116344
80	0x3d9ed778	0.07755941
81	0xbbc90939	-0.0061351326
82	0xbd8d9b54	-0.06914392
83	0xbd794313	-0.060854983
84	0xbd8cbd61	-0.06872059
85	0xbd438ce1	-0.047741774
86	0xbd85d080	-0.06533909
87	0xbd807336	-0.06271975
88	0x3d0fb67c	0.03508614
89	0xbcf2bfd5	-0.029632488
90	0xbcb761f6	-0.022385579
91	0xbdc02ccd	-0.09383545
92	0xbd113d6b	-0.035458963
93	0x3d6efc9d	0.05834638
94	0xbc2308a3	-0.00995079
95	0x3cae4a6f	0.021275727
96	0x3b127ed6	0.0022353432
97	0x3d8981f6	0.06714241
98	0x3b778579	0.0037768765
99	0xbd17b661	-0.037039164
100	0x3d6b08a5	0.05738129
101	0x3d6f1d30	0.058377445
102	0x3c2af45f	0.010434239
103	0xbc4a8c8e	-0.012362612
104	0xbc544a2d	-0.012957138
105	0x3b7183da	0.0036852271
106	0x3dbf6bb6	0.09346716
107	0xbde8c708	-0.11366087
108	0x3ccc457a	0.024935473
109	0xbcca2431	-0.02467546
110	0xbc81800c	-0.015808128
111	0xbd55f897	-0.052239027
112	0x3d5598c6	0.05214765
113	0xbdafe0df	-0.08587813
114	0x3d821765	0.063521184
115	0x3c733b03	0.014845612
116	0xbbd4c96b	-0.0064937375
117	0xbcc034b3	-0.023462629
118	0xbdbc4660	-0.091931105
119	0xbcf0b766	-0.029384326
120	0xbd4d933e	-0.05018925
121	0x3bd67ded	0.0065457732
122	0xbd9beac0	-0.076131344
123	0x3d90f98e	0.07078849
124	0x3dfa9827	0.12236052
125	0xbda9aaa0	-0.08284497
126	0xbd73f48e	-0.059559397
127	0x3d8b6789	0.06806857
128	0xbd1b445b	-0.037906986
129	0xbd555e40	-0.052091837
130	0xbda0bebf	-0.07848882
131	0x3c940a46	0.018071305
132	0xbd44e518	-0.048070043
133	0xbc3c70b2	-0.011501478
134	0xbcbdd0de	-0.023170885
135	0x3b4a74d2	0.0030892384
136	0xbd8171ee	-0.063205585
137	0x3cfc4f90	0.030799657
138	0x3d1dce56	0.038526855
139	0xbd2ee8a6	-0.04270234
140	0xbd00b4d1	-0.03142244
141	0xbdc74864	-0.09730604
142	0xbc7b779c	-0.015348341
143	0xbd3f4868	-0.04669991
144	0x3dbe1cb5	0.09282819
145	0x3a10fbb1	0.0005530669
146	0xbb816a78	-0.0039494596
147	0x3d2fc589	0.042912994
148	0xbd7c869a	-0.061651804
149	0x3bf92fb8	0.0076045655
150	0xbdac0adc	-0.08400509
151	0xbc7564e8	-0.014977671
152	0x3de94cdb	0.11391612
153	0xbc82fc6f	-0.01598951
154	0xbd69519d	-0.056962598
155	0x3e0c3176	0.13690743
156	0xbcdf0609	-0.027224557
157	0xbda1beac	-0.07897696
158	0x3accd1b9	0.0015626467
159	0x3c9e6666	0.019335937
160	0x3af6daef	0.0018833558
161	0xbc1cf3dc	-0.009579625
162	0xbd718738	-0.058966845
163	0x3e1a0c98	0.15043867
164	0xbdd3d3be	-0.10343121
165	0x3c6edf2f	0.014579578
166	0xbd1b22f8	-0.037875146
167	0x3cf2fcd2	0.02966157
168	0x3d612f02	0.05497647
169	0x3d8ed8e8	0.06974965
170	0xbdeb984d	-0.115036584
171	0xbd14743a	-0.036243655
172	0x3d6eb4a3	0.058277737
173	0xbdb1f8cf	-0.086900346
174	0x3dc84230	0.09778249
175	0xbc74931e	-0.014927654
176	0x3d26666a	0.040625013
177	0x3d3e78de	0.046501987
178	0xbd2cbb85	-0.04217102
179	0x3d17fdf6	0.03710743
180	0xbd54c4e6	-0.05194559
181	0x3ce92406	0.02845956
182	0xbcf816e7	-0.030284358
183	0x3cac7567	0.021052076
184	0xbd82e472	-0.06391229
185	0xbc328aad	-0.010897321
186	0x3c5852cb	0.013203333
187	0xbd788bbb	-0.060680132
188	0x3cc0564a	0.023478646
189	0x3d55faf3	0.052241277
190	0x3d361cdc	0.044461116
191	0xbcdd0da1	-0.026984038
192	0xbd2cfdad	-0.04223411
193	0xbc4d63e0	-0.012536019
194	0xbd14c435	-0.03631993
195	0x3d975484	0.07389167
196	0xbc7c2060	-0.015388578
197	0xbde70e6b	-0.11282047
198	0xbcdad0b3	-0.026710844
199	0x3cb9296d	0.022602761
200	0x3c657438	0.0140047595
201	0x3c1737ca	0.00922961
202	0xbc12f364	-0.008969162
203	0xbd77c336	-0.060488902
204	0xbce8beb8	-0.028411254
205	0xbdaab8fd	-0.08336065
206	0x3db112aa	0.08646138
207	0xbbd45785	-0.0064801597
208	0xbd9d761f	-0.076885454
209	0xbcc05627	-0.02347858
210	0xbdae035f	-0.08496737
211	0x3e1930f6	0.14960083
212	0xbdca3472	-0.098732844
213	0x3d784999	0.060617063
214	0xbda11645	-0.07865576
215	0x3d0b8e2c	0.034071133
216	0xbd62c3be	-0.055362456
217	0x3de4976b	0.11161693
218	0x3afd08d1	0.0019304996
219	0xbd1fc060	-0.039001822
220	0xbd80494a	-0.06263979
221	0xbd212975	-0.039346177
222	0x3d7e996f	0.062158044
223	0xbcd31073	-0.02576468
224	0x3d26e932	0.040749736
225	0x3d31ea27	0.043436196
226	0x3c913d84	0.017729528
227	0x3c2837f9	0.010267251
228	0x3d998665	0.07496337
229	0x3d8b184d	0.067917444
230	0xbdcb9900	-0.09941292
231	0xbce7fc78	-0.028318629
232	0xbd2e32c1	-0.04252887
233	0xbcf2f898	-0.029659554
234	0x3d5cf0be	0.053940527
235	0x3d438877	0.047737565
236	0xbd492ed2	-0.049116917
237	0xbd180081	-0.037109856
238	0xbde2c10a	-0.110719755
239	0xbc07894a	-0.008272478
240	0x39c7a05b	0.00038075712
241	0x3c771622	0.0150809605
242	0xbcccd245	-0.025002608
243	0x3c02669d	0.007959035
244	0x3ae4425a	0.0017414794
245	0xbd3e68c8	-0.046486646
246	0xbb605b79	-0.003423421
247	0xba35730a	-0.0006921744
248	0x3c9b68d4	0.018970884
249	0x3d7ac915	0.061226923
250	0xbdc7e8e9	-0.09761221
251	0x3b91b790	0.004446931
252	0x3d0684bb	0.032841425
253	0xbd6047eb	-0.054756086
254	0x3d8c0b2e	0.0683807
255	0xbc3c01fe	-0.011475084

fc2.bias f4 [128]
0	0x3c2008c7	0.009767718
1	0xbd95a865	-0.07307509
2	0x3d0a01dd	0.033693183
3	0x3c125ffd	0.008934018
4	0xbcb4ae42	-0.022055749
5	0x3d88e751	0.06684745
6	0x3dd19352	0.10233177
7	0x3c9c6975	0.019093255
8	0x3c41a85e	0.011819927
9	0x3d10ef09	0.03538421
10	0xbc464f96	-0.012103936
11	0xbd957cca	-0.07299192
12	0x3e283af0	0.16428733
13	0x3dcf5362	0.10123326
14	0x3d7bc194	0.061463907
15	0xbcd46939	-0.02592908
16	0xbdefbfa7	-0.11706477
17	0xbd3b1068	-0.045669943
18	0xbdd40e3f	-0.1035428
19	0xbcbff0f8	-0.023430333
20	0x3d4e2062	0.05032385
21	0x3d12c7c7	0.035835054
22	0x3e00e27a	0.12586394
23	0xbc89d432	-0.016824815
24	0xbc5436da	-0.012952531
25	0x3a8f72ac	0.0010944209
26	0x3bca3418	0.006170761
27	0x3c908330	0.01764068
28	0x3d8fbdf7	0.07018655
29	0x3e3ac82d	0.18240424
30	0xbbde6456	-0.0067868633
31	0xbdf64a6c	-0.120259136
32	0xbd8ec165	-0.06970481
33	0x3d520b00	0.05128002
34	0x3d0ff14d	0.03514223
35	0x3cbdfc3f	0.02319157
36	0xbd199cb1	-0.03750295
37	0x3d776e3a	0.060407855
38	0xbbfe89c2	-0.007767887
39	0x3d4a4611	0.049383227
40	0x3b922a0e	0.0044605797
41	0xbbc95db1	-0.006145202
42	0x3d6e1e01	0.058134083
43	0xbd9a81c5	-0.07544283
44	0xbd345690	-0.044027865
45	0x3d4f58a5	0.050621647
46	0xbd19815c	-0.037476882
47	0x3db1922f	0.086704604
48	0x3d82c572	0.06385316
49	0x3bff4f65	0.007791447
50	0xbde2c01d	-0.11071799
51	0xbd64abf6	-0.055828057
52	0x3c3882cc	0.011261653
53	0x3dc36aa2	0.09541823
54	0x3d154533	0.036442947
55	0xbbf16de7	-0.0073678377
56	0x3cb6c8f6	0.022312623
57	0x3e1aba64	0.15110165
58	0x3dea10a1	0.11428953
59	0x3c32146c	0.010869127
60	0x3cdb2305	0.026750097
61	0xbc86273e	-0.016376134
62	0xbb167ad7	-0.0022961402
63	0xbc77402d	-0.015090984
64	0x3d2e8df4	0.042615846
65	0xbc0036a9	-0.007825532
66	0x3d6b94fe	0.057515137
67	0x3ceed5f4	0.029154755
68	0x3d641307	0.05568221
69	0xbd9cbb1e	-0.07652877
70	0x3d4e15df	0.050313827
71	0xbd6d7163	-0.057969462
72	0xbde4dd22	-0.1117499
73	0x3d24eaba	0.040262915
74	0x3d238d3b	0.03992961
75	0x3b181bd1	0.002320994
76	0x3e0bc0d0	0.13647771
77	0x3dfb19bb	0.12260767
78	0xbd08acc7	-0.0333679
79	0x3e1b8c63	0.15190272
80	0xbd86686a	-0.06562884
81	0x3dc34bd8	0.095359504
82	0x3c940307	0.01806785
83	0x3da423c1	0.08014632
84	0xbbf8efa3	-0.0075969263
85	0x3e0c97c8	0.13729775
86	0x3d185c69	0.037197504
87	0x3dff0e26	0.124538705
88	0xbcb7c935	-0.02243481
89	0xbcd183f6	-0.02557562
90	0x3c73afa5	0.01487342
91	0x3897f4c9	7.245836e-05
92	0x3df4735b	0.11936065
93	0xbbe74cfb	-0.0070587373
94	0xbd994d99	-0.07485504
95	0xb994ddec	-0.00028394104
96	0x3ce87424	0.028375693
97	0x3cb3bcfd	0.021940703
98	0x3df3ade4	0.118984014
99	0x3e68c5c1	0.22731687
100	0xbbbe1974	-0.005801374
101	0x3da35e38	0.07976955
102	0xbc8dab31	-0.017293544
103	0x3ce2b1f7	0.02767275
104	0xbce12e0a	-0.027487773
105	0xbd00b4cb	-0.031422418
106	0xbc82988b	-0.015941879
107	0x3d4920f5	0.049103696
108	0xbd5ed8f9	-0.05440614
109	0x3d4f04f8	0.050541848
110	0x3d0e7d8a	0.034787692
111	0x3d5f7f81	0.054564957
112	0x3d27d90e	0.040978484
113	0x3e200314	0.15626174
114	0x3b664dcd	0.0035141588
115	0xbb1bb9a6	-0.0023761778
116	0x3c8baa22	0.0170489
117	0xbd4489ea	-0.047983088
118	0xbd81b786	-0.063338324
119	0x3d014898	0.03156337
120	0xbd828d16	-0.06374566
121	0xbd3c4441	-0.04596353
122	0x3e0a7e6d	0.1352479
123	0x3c788af6	0.01516985
124	0x3deb1097	0.11477774
125	0xbd292614	-0.04129608
126	0x3cd5cb4a	0.026097912
127	0x3d7eecda	0.062237598

fc3.weight f4 [64, 128]
0	0x3ddd3b73	0.10802355
1	0xbceca98f	-0.028889446
2	0x3c5ff5e5	0.013669466
3	0x3d0dec33	0.034649085
4	0x3da9d9a9	0.082934685
5	0x3d9f2441	0.07770587
6	0x3cdbf5e0	0.02685064
7	0xbccf9d7d	-0.025343651
8	0xbd813f28	-0.06310874
9	0x3d0eab5d	0.034831394
10	0x3d9684c4	0.07349542
11	0xbd84adc2	-0.06478454
12	0xbd425729	-0.047446404
13	0x3d4ca9d6	0.049966656
14	0xbd4d2ada	-0.050089695
15	0x3bc5d7c3	0.0060376837
16	0xbd4721e3	-0.0486163
17	0x3d7999ce	0.060937695
18	0xbd1e814f	-0.038697537
19	0xbba980bd	-0.0051728175
20	0xbd098741	-0.033576254
21	0xbd341d4f	-0.043973263
22	0x3d24c5ed	0.04022782
23	0xbd8f1b02	-0.06987573
24	0xbcb6f13a	-0.022331823
25	0x3d5b19e1	0.053491477
26	0x3d697917	0.057000246
27	0x3d0fb9f3	0.035089444
28	0x3caa8a50	0.020817906
29	0x3e162e8c	0.14666194
30	0xbc0d53c6	-0.00862593
31	0x3bc05938	0.0058700107
32	0x3d8367c6	0.064162776
33	0x3cce4973	0.025181508
34	0xbcbc6bda	-0.023000646
35	0x3d3bd3a0	0.04585612
36	0xbd2dd87f	-0.042442795
37	0xbdae2d5c	-0.08504745
38	0x3d6e075f	0.0581125
39	0x3cb0d8cc	0.021587752
40	0x3d7af619	0.061269853
41	0x3de82a42	0.11336185
42	0x3d9b429e	0.075810656
43	0x3d83de2e	0.06438862
44	0xbd55b0ee	-0.052170686
45	0x3d648e3e	0.055799715
46	0x3d59486e	0.05304759
47	0xbccc15c2	-0.024912719
48	0xbdb46f4a	-0.08810289
49	0x3bf642fd	0.00751531
50	0xbbf37651	-0.007429876
51	0xbd8ca318	-0.06867045
52	0xbd0f016c	-0.034913465
53	0xb8cab4b9	-9.665773e-05
54	0xbd5430ae	-0.051804237
55	0xbd61034c	-0.054934785
56	0x3d1fd8b8	0.03902504
57	0xbd0f1107	-0.034928348
58	0xbd4a0c2c	-0.049328014
59	0xbcccb430	-0.024988264
60	0x3d731679	0.059347603
61	0x3dbd9c8e	0.09258376
62	0x3d3ca200	0.046052933
63	0x3c1e2218	0.009651683
64	0xbcbc65e1	-0.022997798
65	0x3c1b8979	0.009493225
66	0xbc79a686	-0.015237456
67	0x3d882e55	0.06649462
68	0xbc3f6d42	-0.011683764
69	0x3d813b99	0.063101955
70	0xbd936d79	-0.071986146
71	0x3d14fc01	0.036373142
72	0x3d42c2ac	0.047548935
73	0x3db1bbd1	0.08678401
74	0x3bc2776d	0.005934647
75	0x3c4b3818	0.0124035105
76	0xbd8fbfbe	-0.07018994
77	0xbb033906	-0.0020023002
78	0x3c52bd11	0.01286246
79	0x3d3022f5	0.043002088
80	0x3b23e818	0.0025010165
81	0x3ca80710	0.02051118
82	0x3d7fb7ff	0.06243133
83	0xbcc59e46	-0.024123322
84	0x3d57356a	0.052541174
85	0x3d372460	0.044712424
86	0xbce3beef	-0.027801005
87	0x3d2db05a	0.04240451
88	0x3d7cc2b6	0.06170913
89	0x3d6823a3	0.05667461
90	0xbd910c79	-0.07082457
91	0xbd4d476f	-0.050116953
92	0xbdbc442e	-0.09192692
93	0x3def4a6c	0.11684117
94	0x3c827385	0.015924225
95	0x3d5e8e40	0.05433488
96	0x3dae568a	0.085126
97	0xbd5cd91b	-0.053917985
98	0x3d39949f	0.04530775
99	0x3b8f0626	0.0043647466
100	0xbd590768	-0.05298558
101	0x3cc6985f	0.024242578
102	0x3d98d271	0.074620135
103	0x3dfbf6dc	0.12302944
104	0xbd7e7b42	-0.062129267
105	0x3df27026	0.11837797
106	0x3d84a226	0.0647624
107	0x3dfa25da	0.12214251
108	0xbb47791d	-0.003043718
109	0xbd9b473e	-0.07581948
110	0xbcb8fe1b	-0.022582104
111	0xbd476db0	-0.04868859
112	0x3d4fb3cc	0.050708577
113	0xbd868193	-0.06567683
114	0xbd9f7d9e	-0.077876315
115	0x3d9b91a5	0.07596139
116	0xbc63099e	-0.013857273
117	0x3bcdf9fd	0.0062859044
118	0x3dd0ba94	0.10191837
119	0x3c88313c	0.01662504
120	0x3d5d3786	0.05400803
121	0x3d58890f	0.052865084
122	0x3d47d111	0.048783366
123	0xbdb629bd	-0.0889468
124	0x3cacfcf2	0.021116707
125	0xbd98d4a7	-0.07462435
126	0xbc743a3d	-0.014906463
127	0xbdbe1798	-0.09281844
128	0xbbb13af0	-0.005408637
129	0x3d5a8afe	0.05335521
130	0xbd6471d3	-0.055772614
131	0x3d094a6a	0.033518232
132	0x3db2fff6	0.08740227
133	0xbb96d11a	-0.0046025636
134	0xbd830a40	-0.063984394
135	0xbd0ecd4a	-0.034863748
136	0xbda8c286	-0.082402274
137	0x3b869500	0.0041071177
138	0xbd7b75f7	-0.061391797
139	0x3b82e36d	0.0039943964
140	0xbc6a4313	-0.014298218
141	0x3d6403f9	0.05566785
142	0x3dc5fb73	0.09667101
143	0x3db54349	0.08850724
144	0xbda9f064	-0.08297804
145	0x3d04d272	0.03242726
146	0x3bbe1f03	0.0058020367
147	0x3c3ef0f1	0.011654125
148	0xbc906f3d	-0.017631168
149	0xbdb363a3	-0.087592386
150	0x3d97dd2f	0.07415234
151	0x3d3cf83e	0.04613518
152	0x3d1c67c5	0.0381849
153	0xbcbbedb9	-0.022940503
154	0x3d8545d8	0.06507462
155	0xbd15e3df	-0.036594268
156	0xbde1268b	-0.109936796
157	0x3d897fc2	0.06713821
158	0x3dac3e9c	0.08410379
159	0xbcf59472	-0.02997801
160	0x3d6152ec	0.05501072
161	0xbd1830d3	-0.037155937
162	0xbdf1e58c	-0.11811361
163	0x3d7fdd84	0.062467113
164	0x3d00d06a	0.03144876
165	0xbdb0a8f3	-0.086259745
166	0x3d4fa465	0.05069389
167	0xbd623552	-0.05522663
168	0x3d5d5bdc	0.054042682
169	0x3d2924bc	0.0412948
170	0xbd51f56c	-0.051259443
171	0xbd3850f0	-0.044999063
172	0xbca8335f	-0.020532308
173	0x3d0ce8b6	0.034401618
174	0xbd39ebba	-0.045390822
175	0x3dc975f8	0.09836954
176	0xbe1b8aa0	-0.151896
177	0xbdc02469	-0.09381945
178	0x3d50ade7	0.050947096
179	0xbd09a255	-0.033602078
180	0xbbf2ff04	-0.007415654
181	0x3d30cc4a	0.043163575
182	0x3d74e1f6	0.059785806
183	0xbde8bbd1	-0.11363948
184	0xbd2321c2	-0.039827116
185	0x3dba4156	0.09094493
186	0xbc05ebd7	-0.008173904
187	0x3da36124	0.079775125
188	0xbddf019a	-0.10888977
189	0x3db90806	0.090347335
190	0xbddb32ab	-0.107030235
191	0x3d2770f5	0.04087921
192	0xbcd0ec11	-0.02550319
193	0xbd83389f	-0.06407284
194	0x3da4e100	0.08050728
195	0x3cf48a6d	0.029851163
196	0x3d19dd64	0.03756465
197	0xbc4b272d	-0.012399477
198	0xbb762b00	-0.003756225
199	0x3c07f619	0.00829842
200	0xbcb3297c	-0.021870367
201	0x3d7e7028	0.06211868
202	0xbcb79105	-0.022408018
203	0x3ce8ae91	0.028403552
204	0xbd063fd5	-0.03277572
205	0x3d2e948b	0.04262213
206	0xbc95a06c	-0.018264972
207	0xbd870191	-0.06592096
208	0x3bc2d4bd	0.0059457705
209	0x3dd9b36e	0.106299266
210	0x3c9bbfc9	0.019012349
211	0xbd4bfaa1	-0.049799565
212	0x3c059468	0.008153059
213	0x3dad1337	0.084509306
214	0xbd5f319b	-0.054490667
215	0xbcf0d77e	-0.02939963
216	0xbd71a0e3	-0.058991324
217	0x3d9cdeb5	0.076596655
218	0xbcdac3c8	-0.026704684
219	0xbd442275	-0.047884423
220	0x3caae091	0.020859035
221	0x3d0b1003	0.033950817
222	0xbd8ac80a	-0.06776436
223	0xbc37af24	-0.01121119
224	0x3da6beab	0.08141836
225	0xbd981e93	-0.074277066
226	0x3cae9371	0.02131054
227	0xba11fe18	-0.0005569174
228	0x3af367e0	0.0018570386
229	0xbd15eb57	-0.03660139
230	0x3da8628a	0.0822192
231	0x3bc72dc4	0.0060784537
232	0x3da8fa23	0.08250835
233	0x3ce22f14	0.02761034
234	0x3ddc8497	0.10767477
235	0x3dc3bac1	0.09557105
236	0x3d017f8b	0.031615775
237	0x3d33fb57	0.04394087
238	0x3ca1d66d	0.019755566
239	0x3d571301	0.052508358
240	0x3d9757ce	0.07389794
241	0x3dc2d920	0.095140696
242	0xbd341fb9	-0.043975566
243	0x3d3c0b2b	0.045909088
244	0xbd3588d2	-0.044319935
245	0xbc74a863	-0.014932725
246	0xbd7388f9	-0.0594568
247	0xbcadb34c	-0.02120366
248	0xbd200123	-0.039063584
249	0x3c8e2df8	0.017355904
250	0x3dd6638c	0.10468206
251	0x3db7c036	0.08972208
252	0x3db2307d	0.08700655
253	0xbd581fb5	-0.052764613
254	0xbc97e6fc	-0.01854276
255	0xbcce4209	-0.025177972

fc3.bias f4 [64]
0	0xbd4d12c5	-0.05006673
1	0x3d7b0d99	0.061292265
2	0x3d736c23	0.0594293
3	0x3dbcc31e	0.09216903
4	0xbcddef36	-0.027091604
5	0x3a62989c	0.00086439564
6	0x3e0d324d	0.1378872
7	0x3daf3ba5	0.08556298
8	0x3e0353f0	0.12824988
9	0x3dfae9d6	0.12251632
10	0x3d1e0d92	0.03858716
11	0x3c882455	0.016618887
12	0xbd3d674e	-0.046241097
13	0xbd3d18a4	-0.046166077
14	0xbd5fc321	-0.05462945
15	0x3da06d9e	0.07833408
16	0x3e42fa9d	0.19040914
17	0x3cc767da	0.024341512
18	0xbce4836c	-0.027894698
19	0xbd3c4e74	-0.045973256
20	0xbdcec613	-0.100963734
21	0xbd84f3d8	-0.06491822
22	0xbd4280d1	-0.04748613
23	0x3db8fd7c	0.09032723
24	0x3e11fdd1	0.1425698
25	0xbdc76d87	-0.097376876
26	0x3db69abb	0.08916231
27	0x3db449ff	0.08803176
28	0x3d82266b	0.06354984
29	0x3d84eabf	0.06490087
30	0x3e27eb75	0.16398413
31	0x3da7c624	0.08192089
32	0xbe053d72	-0.13011721
33	0xbcd93ff6	-0.026519757
34	0x3d6c2b25	0.057658333
35	0x3e00a504	0.12562948
36	0x3de4ace5	0.111657895
37	0x3c6d20fa	0.014473194
38	0x3d2cbcfe	0.042172424
39	0xbd99c97b	-0.075091325
40	0x3e12d739	0.14339913
41	0xbe50023b	-0.20313351
42	0xbca35538	-0.019938096
43	0xbd31bdd6	-0.043393932
44	0x3d6edff4	0.058319047
45	0xbda80bba	-0.08205362
46	0xba87ff82	-0.001037583
47	0x3e185de8	0.14879572
48	0x3d8f3ad7	0.06993645
49	0xbc8ae734	-0.01695595
50	0xbce7fc7c	-0.028318636
51	0xbc9b97a8	-0.018993214
52	0x3db469b3	0.08809223
53	0xbdc5611e	-0.09637664
54	0x3d85f195	0.06540219
55	0xbcb43263	-0.021996683
56	0xbd73e356	-0.059542976
57	0x3d714a8d	0.058908988
58	0x3d15bbad	0.036555935
59	0x3d126536	0.035741054
60	0xbc7971f9	-0.015224927
61	0xbb0958f2	-0.0020957557
62	0x3d37d75f	0.04488313
63	0xbdcccf9f	-0.10000538

fc4.weight f4 [10, 64]
0	0xbdf68214	-0.12036529
1	0xbde8a56f	-0.11359679
2	0x3daa3715	0.08311287
3	0x3d11a19f	0.035554525
4	0x3cd044a2	0.025423352
5	0x3b45c554	0.0030177431
6	0x3e10679c	0.14102024
7	0x3d1a91d2	0.03773672
8	0xbdd892d6	-0.10574882
9	0xbdbe16c1	-0.09281684
10	0x3d3ea2ec	0.046542093
11	0xbd4abd16	-0.049496733
12	0x3d53d57b	0.051717263
13	0x3c17b6e9	0.009259918
14	0x3d7c89fe	0.061655037
15	0x3cd4dfa2	0.025985543
16	0x3d045052	0.032303162
17	0x3dce0e60	0.100613356
18	0xbd0a9c4a	-0.033840455
19	0x3dc348bf	0.095353596
20	0x3df4ce21	0.119533785
21	0x3db8ba4c	0.09019908
22	0x3ced27a5	0.028949568
23	0x3dfeb0bb	0.124360524
24	0xbdbc93f8	-0.0920791
25	0x3e118ef1	0.14214684
26	0x3dae0888	0.08497721
27	0xbde10db7	-0.10988944
28	0x3cf95324	0.030435152
29	0xbd9b7758	-0.075911224
30	0x3c5f62cb	0.013634394
31	0x3d443125	0.04789843
32	0xbdd7531d	-0.105138995
33	0x3d8bb844	0.06822255
34	0x3aac953a	0.0013167032
35	0xbd8a579f	-0.06754994
36	0xbdef9e46	-0.1170011
37	0x3de98654	0.11402574
38	0xbb0d76e2	-0.0021585752
39	0x3ceadd9f	0.02867013
40	0xbd5b55fa	-0.05354879
41	0xbd0f4945	-0.034981985
42	0x3de0c734	0.10975495
43	0x3e0e4da4	0.13896805
44	0xbd7e0467	-0.062015917
45	0xbdd3b89a	-0.10337944
46	0xbc82c574	-0.015963294
47	0xbe02b03b	-0.12762539
48	0xbca2a15f	-0.019852338
49	0x3d1a1db0	0.03762597
50	0xbdd1eb06	-0.10249905
51	0xbda15d3a	-0.0787911
52	0x3e02031b	0.12696497
53	0x3d291f3e	0.04128956
54	0xbe191f73	-0.14953403
55	0xbdf023be	-0.11725567
56	0xbd7be68e	-0.06149917
57	0x3cf03fca	0.029327292
58	0xbde13b42	-0.10997631
59	0x3bd57aa9	0.0065148664
60	0x3cb6f8cc	0.022335432
61	0x3de2af58	0.110686004
62	0xbb69437d	-0.0035593205
63	0x3d6407b8	0.055671424
64	0x3be0bb4a	0.006858264
65	0xbd341e1c	-0.043974027
66	0xbddcee9f	-0.10787701
67	0xbd92df0b	-0.07171448
68	0x3dc0b185	0.09408859
69	0xbd007316	-0.031359755
70	0x3d2a68d8	0.041603893
71	0xbe18ddc0	-0.14928341
72	0x3d991be6	0.07476024
73	0x3d219eb8	0.039458007
74	0x3e1a3857	0.15060554
75	0xbdd111ba	-0.10208459
76	0xbd6e643c	-0.05820106
77	0xbd40b89f	-0.04705107
78	0x3d883810	0.06651318
79	0xbcc510c4	-0.024055846
80	0xbe13782a	-0.14401308
81	0xbdb27986	-0.08714585
82	0x3db87107	0.09005933
83	0x3c7b0cf7	0.015322915
84	0xbda45de5	-0.080257215
85	0xbe0699c5	-0.13144596
86	0x3d3d22db	0.04617582
87	0x3dc69665	0.09696654
88	0xbdc41bf1	-0.09575642
89	0xbd9d5c36	-0.076836035
90	0x3d990779	0.074721284
91	0x3dce195c	0.10063431
92	0x3e260016	0.1621097
93	0x3cc8f58a	0.024531145
94	0x3dee17a2	0.11625601
95	0xbe2a1366	-0.16608962
96	0xbdbc5a1d	-0.09196875
97	0xbd8950fa	-0.06704898
98	0x3c29223f	0.010323106
99	0xbc28e9e2	-0.010309668
100	0x3c8fe2ea	0.017564256
101	0xbe006f00	-0.12542343
102	0xbb21116a	-0.002457703
103	0x3d037b69	0.032100115
104	0x3e2a0a0e	0.16605398
105	0x3db49508	0.08817488
106	0x3dad4910	0.08461201
107	0x3da4e69e	0.08051799
108	0xbcbccfbd	-0.023048276
109	0x3dceec86	0.10103707
110	0xbe22c46a	-0.15895239
111	0xbd5c4394	-0.053775385
112	0x3e0aea5d	0.13565965
113	0x3d9007fc	0.07032773
114	0x3dc30612	0.09522642
115	0xbd873163	-0.06601217
116	0x3dc913be	0.09818219
117	0x3d4c9c3b	0.04995368
118	0x3d19f2b5	0.03758498
119	0xbdd4b0c8	-0.10385281
120	0x3dab6b84	0.08370116
121	0x3d6fff8b	0.058593314
122	0xbe04c959	-0.12967433
123	0xbda33a23	-0.07970073
124	0x3da2897f	0.079363815
125	0x3d3f5481	0.04671145
126	0x3dd6019b	0.10449525
127	0xbd95062e	-0.07276569
128	0xbc03e2f0	-0.008049712
129	0x3b3b80c3	0.0028610684
130	0xbe26ca69	-0.16288151
131	0x3dfa0fbb	0.122100316
132	0x3cff647a	0.03117584
133	0x3e1bdfcc	0.1522209
134	0xbe1968eb	-0.1498143
135	0xbe1dcd00	-0.15410233
136	0x3dee1ab9	0.11626191
137	0xbe06e22e	-0.13172218
138	0xbdb7d854	-0.08976808
139	0xbdcabd8a	-0.09899433
140	0x3d88ed49	0.066858836
141	0x3c4e359b	0.012586023
142	0x3db3cf7b	0.08779808
143	0xbdff6bd7	-0.12471741
144	0x3d56f1b7	0.05247661
145	0x3e1c76df	0.1527972
146	0xbd90acc8	-0.070642054
147	0xbdab440c	-0.08362588
148	0xbd865f3c	-0.06561133
149	0xbddcf7c5	-0.10789446
150	0x3d95c18a	0.07312305
151	0x3e120a26	0.14261684
152	0x3d70b240	0.058763742
153	0xbd9babc1	-0.07601119
154	0xbd02aa3d	-0.031900633
155	0x3da14d94	0.07876125
156	0xbd5c6bca	-0.053813733
157	0xbdcfab36	-0.10140078
158	0x3d26ceea	0.040724672
159	0x3e08e08c	0.13366908
160	0x3ccce97c	0.025013678
161	0x3defdf09	0.117124625
162	0xbe2c6ced	-0.16838427
163	0x3d6dea17	0.058084574
164	0xbd5f31c9	-0.05449084
165	0xbd624c1b	-0.05524836
166	0x3d5664af	0.052342113
167	0xbd01245f	-0.031528827
168	0x3cf63f48	0.030059472
169	0xbc365ad8	-0.011130057
170	0x3d57c9c0	0.05268264
171	0x3dae7dc2	0.0852008
172	0xbc1f3262	-0.009716602
173	0x3c87c245	0.016572127
174	0xbc846973	-0.016163563
175	0x3e0185b0	0.12648654
176	0xbcd9914e	-0.026558544
177	0x3d7be377	0.061496224
178	0xbcd11a60	-0.025525272
179	0xbdb77e06	-0.08959584
180	0x3e0f76b0	0.1401012
181	0xb9d90a1b	-0.00041396994
182	0xbdb171b8	-0.08664268
183	0x3da55ecf	0.08074724
184	0xbdedb80f	-0.11607372
185	0xbdec3b65	-0.11534766
186	0x3d401ebb	0.046904307
187	0xbe18f284	-0.14936262
188	0x3c89c152	0.016815815
189	0x3c233677	0.009961716
190	0x3ca17d1e	0.01971298
191	0x3bb05b02	0.0053819427
192	0xbdc0e10b	-0.094179235
193	0x3cb0f853	0.021602785
194	0x3e0bf00b	0.13665788
195	0x3d1475ba	0.036245085
196	0xbd703b75	-0.058650453
197	0xbafecf58	-0.0019440455
198	0x3dd0411b	0.10168668
199	0xbe36b661	-0.1784301
200	0xbd691182	-0.056901462
201	0x3dd38ad1	0.103292115
202	0x3c8880ba	0.016662944
203	0xbd92534e	-0.07144795
204	0xbde718e0	-0.112840414
205	0x3dc9fbd0	0.098624825
206	0x3debde28	0.11516982
207	0x3dac457d	0.08411691
208	0xbab8cb0c	-0.0014098599
209	0x3ddff761	0.10935856
210	0xbe59ce6b	-0.21270148
211	0xbd99f116	-0.075166866
212	0x3dee02c1	0.11621619
213	0xbbbbb8cd	-0.005728817
214	0x3ce19375	0.027536133
215	0xbd605384	-0.054767147
216	0xbc23b197	-0.009991071
217	0xbdc4cf10	-0.096098065
218	0xbe193369	-0.14961018
219	0x3e0d4e0d	0.13799305
220	0xbdd03d0c	-0.10167894
221	0x3e13c21b	0.14429514
222	0x3d061ddd	0.032743324
223	0x3d6be96c	0.057595655
224	0x3dbcca21	0.092182405
225	0x3d8cffff	0.06884765
226	0xbc64f228	-0.01397375
227	0x3d9ca719	0.07649059
228	0xbe1f6b1c	-0.15568203
229	0x3d8d4366	0.06897621
230	0xbe2422dc	-0.16028923
231	0xbde345ae	-0.11097275
232	0xbc1f9930	-0.009741113
233	0x3b3629c6	0.0027795895
234	0xbc5eae40	-0.013591349
235	0xbe0752d0	-0.13215184
236	0xbc2be099	-0.01049056
237	0x3d3ee2ff	0.0466032
238	0xbc161f0b	-0.009162675
239	0x3da61e4a	0.08111246
240	0x3d5d85a0	0.054082513
241	0x3da870aa	0.08224614
242	0x3dd2f390	0.10300362
243	0xbd87d256	-0.06631915
244	0xbd514990	-0.051095545
245	0x3dbf1a86	0.09331231
246	0x3dd31f61	0.103087194
247	0xbda3dfe5	-0.08001689
248	0xbdd10c36	-0.10207407
249	0xbc308e5c	-0.010776129
250	0xbdf883fc	-0.12134549
251	0x3dc4eef3	0.096158884
252	0xbe0f7249	-0.1400844
253	0x3c23b4eb	0.009991865
254	0x3d1a4e2b	0.037672203
255	0xbdeaa2bc	-0.1145682

fc4.bias f4 [10]
0	0x36eed341	7.117546e-06
1	0xbce4af3d	-0.027915591
2	0xbd264c22	-0.04059995
3	0xbda71718	-0.08158702
4	0xbe24acc4	-0.1608153
5	0x3e18a26a	0.14905706
6	0xbd8ae333	-0.06781616
7	0xbdc82372	-0.09772386
8	0xbdfcd072	-0.12344445
9	0xbd53f7bb	-0.051749926
