runs/Mar02_17-09-29_cssd901383-Run(lr=0.001, batch_size=128, patience=1)-valid/checkpoint.pt (torch_old, 972387 bytes, 8 tensors)

fc1.weight f4 [256, 784]
0	0x3c73ecb0	0.014887974
1	0xbd05b373	-0.03264184
2	0xbdf6a691	-0.12043489
3	0xbe813074	-0.2523228
4	0xbd95cee3	-0.07314851
5	0xbe9e7242	-0.30946547
6	0xbe6a5800	-0.22885132
7	0xbe9aa7d4	-0.30206168
8	0xbeddcbb6	-0.43319482
9	0x3cec9430	0.028879255
10	0x3ede423b	0.43409905
11	0x3f136c91	0.57587534
12	0x3e5596cb	0.20858304
13	0x3e95f723	0.29290113
14	0x3eb58d3c	0.35459316
15	0x3e67d2bd	0.22638984
16	0x3ef65217	0.48109505
17	0x3f13b5c9	0.5769926
18	0x3e645b97	0.22300564
19	0xbe25aa41	-0.16178228
20	0xbedf246a	-0.4358247
21	0xbe40ac84	-0.1881581
22	0xbc0f6ae4	-0.008753512
23	0xbe96361c	-0.29338157
24	0xbdc78d68	-0.09743768
25	0xbd068ae4	-0.0328473
26	0xbd9ed8f9	-0.07756228
27	0xbbad5424	-0.0052895714
28	0xbc98526d	-0.018593991
29	0xbd5e5106	-0.05427649
30	0xbe3e71af	-0.18598054
31	0xbeee03cc	-0.46487272
32	0xbe4ba1e0	-0.19885969
33	0xbeb2544d	-0.3482994
34	0xbf3b37e0	-0.73132133
35	0xbf62b19b	-0.88552254
36	0xbf0368c2	-0.5133172
37	0xbe580b48	-0.21098053
38	0x3d9d6e14	0.07687011
39	0x3e9bbec7	0.3041899
40	0x3d30c8a2	0.04316009
41	0xbe4ace82	-0.19805339
42	0xbd99e940	-0.07515192
43	0xbdadab1b	-0.084799014
44	0x3e34e49d	0.17665334
45	0x3ed3cdd5	0.41367975
46	0xbd252560	-0.040318847
47	0xbebd0986	-0.36921328
48	0xbf5bf761	-0.85924345
49	0xbf22d036	-0.63598955
50	0xbe9c95dd	-0.30583087
51	0xbe747194	-0.23871452
52	0xbe68026b	-0.22657172
53	0xbe35938a	-0.17732063
54	0xbd731e4f	-0.059355076
55	0xbc7db386	-0.015484696
56	0xbcba74e1	-0.02276081
57	0xbe2beda9	-0.16789879
58	0xbea03b80	-0.31295395
59	0xbe8594be	-0.26090044
60	0xbe6e7128	-0.23285353
61	0xbf12fb59	-0.57414776
62	0xbf54c0d4	-0.8310673
63	0xbf2f3735	-0.68443614
64	0xbef63f30	-0.48095083
65	0xbecdfa32	-0.40229946
66	0xbe240734	-0.16018373
67	0x3cf75630	0.030192465
68	0x3baf75b6	0.0053546084
69	0xbe508d76	-0.20366463
70	0xbe4b552e	-0.19856712
71	0xbc7560bb	-0.014976676
72	0x3d6bf3f6	0.057605706
73	0x3d7e260f	0.062048014
74	0xbe118807	-0.14212047
75	0xbec79207	-0.38978598
76	0xbf25dd2b	-0.647906
77	0xbf564bcf	-0.83709425
78	0xbf0e1af6	-0.5550989
79	0xbe9a7de8	-0.30174184
80	0xbd0c547f	-0.03426027
81	0xbe572ad8	-0.21012437
82	0xbd9e2058	-0.07721013
83	0xbd724ef1	-0.059157316
84	0xbe08d1ed	-0.1336133
85	0xbe54755c	-0.20747894
86	0xbe984227	-0.2973797
87	0xbea2a0ca	-0.31763297
88	0xbeeae9da	-0.4588154
89	0xbf07df44	-0.5307505
90	0xbf53e45c	-0.82770324
91	0xbf4d8ec0	-0.80295944
92	0xbf1a5c4e	-0.60297096
93	0xbe8f570c	-0.279961
94	0xbe159779	-0.14608563
95	0x3dc17c0b	0.094474874
96	0x3d129f99	0.035796735
97	0xbb74dc95	-0.0037362922
98	0x3dc1a6d8	0.09455651
99	0x3d776654	0.060400322
100	0x3d536ca4	0.05161728
101	0x3de6fd93	0.11278834
102	0xbdc759c1	-0.09733916
103	0xbee38ef9	-0.44445017
104	0xbf1972f9	-0.5994106
105	0xbf532028	-0.8247094
106	0xbf3519a0	-0.70742226
107	0xbebb5a1a	-0.3659218
108	0xbe18d82c	-0.14926213
109	0xbe547339	-0.20747079
110	0xbdd35f89	-0.10320956
111	0xbdd610df	-0.10452437
112	0xbda8ad4c	-0.08236179
113	0xbe555f21	-0.2083707
114	0xbe7d544b	-0.24739186
115	0xbe13a8e7	-0.144199
116	0xbeebafad	-0.46032467
117	0xbef39a2f	-0.4757857
118	0xbf65b633	-0.8973114
119	0xbf01a398	-0.5064025
120	0xbed7e9e0	-0.4217062
121	0xbdd05510	-0.101724744
122	0xbe01dc92	-0.12681797
123	0x3db89e15	0.09014527
124	0x3de16d00	0.11007118
125	0x3e3550b2	0.17706564
126	0x3e0a2b07	0.13492976
127	0x3d6cbb23	0.057795655
128	0x3d70cee3	0.058791053
129	0x3dfe45bb	0.12415644
130	0xbac9a248	-0.0015383447
131	0xbe5f0a94	-0.21781379
132	0xbf1b89c6	-0.607571
133	0xbf377149	-0.71657234
134	0xbf1ea3ec	-0.61968875
135	0xbef19db3	-0.47190627
136	0xbe66782a	-0.22506776
137	0xbe09e409	-0.13465895
138	0xbee5ad16	-0.44858617
139	0xbf02facc	-0.51163936
140	0x3d6e1a70	0.05813068
141	0xbd945ad6	-0.07243888
142	0x3ddabb47	0.106802516
143	0xbe8f3fdd	-0.2797841
144	0xbe9df8b2	-0.30853802
145	0xbf234ec4	-0.6379206
146	0xbf2fb2fe	-0.68632495
147	0xbed097e1	-0.40740874
148	0xbeb3c207	-0.3510897
149	0xbdb2f4cf	-0.087381
150	0xbde52abc	-0.111897916
151	0x3d3206af	0.043463405
152	0x3d7c0933	0.06153221
153	0x3e5c8510	0.21535134
154	0x3d683ed9	0.05670056
155	0xbd116ef7	-0.035506215
156	0x3de9b0fc	0.1141071
157	0x3e206563	0.15663676
158	0x3de01c1e	0.10942863
159	0xbe90cc73	-0.28280982
160	0xbeebcd76	-0.46055192
161	0xbf284c03	-0.65740985
162	0xbf1be562	-0.60896885
163	0xbef99bed	-0.48751774
164	0xbed3886a	-0.41315013
165	0xbea7678e	-0.32696193
166	0xbec873b9	-0.3915079
167	0xbda4aadc	-0.08040401
168	0xbdb58cf8	-0.08864778
169	0xbcf3cd1c	-0.02976089
170	0x3cf5eece	0.030021098
171	0xbec6c369	-0.3882096
172	0xbea978e3	-0.33100042
173	0xbf3deac0	-0.74186325
174	0xbf198ed6	-0.59983575
175	0xbed864cd	-0.42264405
176	0xbed31065	-0.41223446
177	0xbdca590e	-0.09880267
178	0xbe232187	-0.15930758
179	0x3c9edf28	0.019393519
180	0x3d683b49	0.056697164
181	0x3e05803c	0.13037199
182	0x3da0e064	0.07855299
183	0x3d987aa9	0.074452706
184	0x3d27e3b5	0.040988643
185	0x3e435dcb	0.19078748
186	0x3e34a114	0.17639571
187	0xbe42df6a	-0.19030538
188	0xbec2687a	-0.37970334
189	0xbf0d1042	-0.5510293
190	0xbf28eb5b	-0.65984124
191	0xbf199fcc	-0.60009456
192	0xbebe6c2d	-0.37191907
193	0xbf19e485	-0.6011432
194	0xbf4b01b4	-0.79299474
195	0xbea511f3	-0.32240257
196	0x3c8397e5	0.01606364
197	0xba34ebe8	-0.0006901608
198	0xbe5c9f4b	-0.2154514
199	0xbebff59a	-0.37492067
200	0xbee65e8a	-0.44994003
201	0xbf349f46	-0.7055553
202	0xbf005c6a	-0.5014101
203	0xbeda9b00	-0.4269638
204	0xbecbc1f5	-0.39796415
205	0xbe21041d	-0.15724225
206	0xbda666ab	-0.08125051
207	0x3d54ac60	0.051922202
208	0xbcd814c1	-0.026377084
209	0x3e11c315	0.14234574
210	0x3e095f12	0.13415173
211	0x3e155327	0.14582501
212	0x3c9d4452	0.019197617
213	0x3e456c28	0.1927954
214	0x3e041761	0.12899543
215	0xbe83d8b6	-0.25751275
216	0xbef8fe8e	-0.4863171
217	0xbed94ad0	-0.4243989
218	0xbf26d0d9	-0.65162426
219	0xbf3f9153	-0.7483112
220	0xbf08d8bb	-0.53455704
221	0xbf0e491d	-0.5558031
222	0xbf3bf3d6	-0.7341894
223	0xbef51f3d	-0.47875395
224	0xbd0e85f5	-0.03479572
225	0xbdd3b7e6	-0.1033781
226	0xbe2d8772	-0.169462
227	0xbedca201	-0.4309235
228	0xbf0fd26a	-0.5618044
229	0xbf2dab7a	-0.6783978
230	0xbec17154	-0.37781775
231	0xbeb6610e	-0.35620922
232	0xbee38eee	-0.44444984
233	0xbea62506	-0.32450122
234	0xbd718a99	-0.058970068
235	0x3d84fe7b	0.06493851
236	0xbcf34585	-0.029696235
237	0x3e5afcf3	0.21385555
238	0x3d1f2836	0.038856708
239	0x3d974c9b	0.07387658
240	0xbded3946	-0.1158319
241	0x3ddfc2f1	0.10925854
242	0x3c970e6b	0.018439492
243	0xbe8af9b6	-0.2714364
244	0xbed7e6bc	-0.42168224
245	0xbe91228d	-0.28346673
246	0xbf2d6f64	-0.67748094
247	0xbf464a72	-0.77457345
248	0xbee688ed	-0.4502634
249	0xbecc7e75	-0.3994023
250	0xbee911b6	-0.45521325
251	0xbdeb4028	-0.11486846
252	0xbdd9e722	-0.10639788
253	0xbea4b928	-0.32172513
254	0xbed5dc4c	-0.41769636
255	0xbee38af3	-0.44441947

fc1.bias f4 [256]
0	0x3dff3787	0.12461763
1	0xbcd366e4	-0.025805898
2	0xbd94569d	-0.07243083
3	0x3eb95330	0.3619628
4	0xbdc5bb1a	-0.096548274
5	0x3f811ebb	1.0087503
6	0x3e4b0a14	0.19828063
7	0x3e0dc816	0.13845858
8	0xbcb90532	-0.022585485
9	0xbcf2665d	-0.029589826
10	0xbe1b7c30	-0.15184093
11	0xbf106ca3	-0.56415766
12	0xbda8b97a	-0.08238502
13	0xbdc52ef7	-0.096280985
14	0x3e8e3321	0.27773383
15	0xbe1f7756	-0.15572867
16	0x3ef67d8d	0.48142663
17	0x3f0314c2	0.5120355
18	0xbdbcf450	-0.092262864
19	0xbd82935c	-0.06375763
20	0xbf2072d8	-0.6267524
21	0xbd6bb470	-0.057545125
22	0x3dadbc9a	0.084832385
23	0x3f00ec85	0.503609
24	0x3f185cf8	0.5951686
25	0xbd3ae2ac	-0.045626327
26	0xbe234050	-0.15942502
27	0x3d93ea0c	0.07222375
28	0xbf85e741	-1.0461198
29	0xbc4d6fcf	-0.012538864
30	0x3f2584d3	0.646558
31	0xbf657bad	-0.8964184
32	0x3ed1c42c	0.4096998
33	0xbc20e296	-0.009819647
34	0x3f446ec7	0.7673153
35	0xbdaa26d3	-0.083081864
36	0xbd1234fd	-0.035695065
37	0xbd93e961	-0.07222248
38	0x3f3fa2ad	0.748576
39	0xbd6b32ed	-0.057421613
40	0xbd2e2a69	-0.042520914
41	0xbdc32e26	-0.095302865
42	0xbd87d89b	-0.06633111
43	0x3ceb6cff	0.028738497
44	0xbe2c7c65	-0.16844328
45	0xbdf140c1	-0.11779929
46	0x3f3e2300	0.74272156
47	0xbdc06ab6	-0.093953535
48	0xbd83be27	-0.06432753
49	0x3dc3a073	0.09552088
50	0xbd99715d	-0.074923255
51	0xbd6de727	-0.058081772
52	0xbe3d6e59	-0.18499126
53	0x3bec1360	0.007204458
54	0x3f172840	0.5904579
55	0xbf5fa14e	-0.87355506
56	0xbf882c53	-1.0638527
57	0xbda30d90	-0.07961571
58	0x3ecdb363	0.40175924
59	0x3d79b231	0.060960952
60	0xbe262d18	-0.1622814
61	0xbe0689cd	-0.13138504
62	0x3e1454d4	0.14485484
63	0x3f46f193	0.77712363
64	0x3f06c4b7	0.52643913
65	0xbe23f555	-0.16011555
66	0xbd8ea0ac	-0.069642395
67	0x3e6b7fb7	0.22997938
68	0xbc07b47c	-0.008282777
69	0xbd84493a	-0.06459279
70	0xbda80b49	-0.082052775
71	0xbd8b1026	-0.067901894
72	0x3f1e7633	0.6189911
73	0x3d4e0389	0.05029634
74	0xbd1ce1b3	-0.03830118
75	0x3b140961	0.0022588598
76	0xbd5924dc	-0.053013667
77	0xbd1e0bc9	-0.038585458
78	0x3d7ab884	0.061211124
79	0x3f2ed7a9	0.6829782
80	0xbe5d9481	-0.21638681
81	0x3e8cbb4d	0.2748665
82	0xbd432d49	-0.04765061
83	0x3d9679bf	0.0734744
84	0xbcd8d7dd	-0.02647012
85	0xbdbcefaf	-0.092254035
86	0x3f1dd1f2	0.61648476
87	0x3e49b75e	0.19698855
88	0xbd1b954c	-0.037984177
89	0xbdb3cbde	-0.08779119
90	0x3f61b9fe	0.88174427
91	0xbd8c6982	-0.068560615
92	0xbd875d58	-0.06609601
93	0x3c614a5d	0.01375064
94	0xbf0c3185	-0.5476306
95	0x3ef8ea3d	0.4861621
96	0xbeecfb1a	-0.46285325
97	0xbdc896b9	-0.09794373
98	0xbeb7a1fe	-0.35865778
99	0x3cd79862	0.026317779
100	0xbd8f587e	-0.069993004
101	0xbc09a826	-0.008401906
102	0xbd83f92c	-0.0644401
103	0xbd44a837	-0.048011985
104	0xbda80376	-0.08203785
105	0xbe6fda53	-0.23423128
106	0xbd7a5259	-0.06111369
107	0xbdc7876c	-0.097426265
108	0xbeab3adb	-0.3344334
109	0xbe142915	-0.14468797
110	0xbe52d2b1	-0.20588185
111	0x3d273385	0.040820617
112	0x3d5e4d15	0.05427273
113	0x3fae6294	1.3623834
114	0xbd899638	-0.06718105
115	0xbd4e668e	-0.050390773
116	0xbdb154a9	-0.08658726
117	0xbd4bc75f	-0.049750682
118	0xbdc1cffa	-0.094634965
119	0xbf048e29	-0.5177942
120	0x3eaf3b13	0.34224758
121	0xbd615078	-0.05500838
122	0x3e1e126e	0.15436718
123	0x3f1f4d96	0.6222776
124	0xbcefabc7	-0.029256715
125	0xbdc030bf	-0.093842976
126	0x3e3b8476	0.18312249
127	0xbd10553a	-0.03523753
128	0x3f78ddc3	0.9721338
129	0x3b4dcd4a	0.003140288
130	0x3f5fcc57	0.8742117
131	0xbdee1f30	-0.11627042
132	0xbcf4d09c	-0.029884629
133	0xbda44cbf	-0.08022451
134	0xbc4f4af5	-0.0126521485
135	0xbe49c40d	-0.19703694
136	0x3f322b45	0.69597274
137	0xbd19e709	-0.037573848
138	0xbd8afafc	-0.06786153
139	0x3d878d33	0.066187285
140	0xbd8d3836	-0.06895487
141	0x3e73b4bf	0.23799418
142	0x3c4a73bd	0.012356696
143	0x3eddb166	0.43299407
144	0xbe697dc0	-0.22801876
145	0xbe0d532e	-0.13801262
146	0x3f4e9345	0.80693465
147	0xbd88fa03	-0.06688311
148	0x3efc3c0e	0.49264568
149	0xbe9fe9d0	-0.31233072
150	0xbdefb5e4	-0.11704615
151	0xbdb9f154	-0.09079233
152	0xbcedc4ff	-0.0290246
153	0x3d349fd8	0.04409775
154	0x3ee94065	0.45556942
155	0x3ddc94a0	0.107705355
156	0x3d18c3da	0.037296154
157	0xbd663766	-0.056205176
158	0xbf33c240	-0.70218277
159	0x3f390c52	0.72284424
160	0xbd235edf	-0.039885398
161	0x3d54a354	0.051913574
162	0xbd080482	-0.033207424
163	0xbd50aba2	-0.05094493
164	0x3d1d6178	0.03842303
165	0xbdb53787	-0.088484816
166	0xbe08c20c	-0.13355273
167	0xbdb67a90	-0.08910096
168	0xbe51b05a	-0.20477429
169	0x3f1830e2	0.5944959
170	0xbf2761f2	-0.6538383
171	0xbe3431ec	-0.17597169
172	0xbd84b9d5	-0.06480757
173	0xbe0b4890	-0.13601899
174	0xbdaa7435	-0.08322946
175	0xbd02fd53	-0.03197987
176	0xbdb0f6aa	-0.086407974
177	0x3e1cc776	0.15310463
178	0xbe4e0681	-0.20119669
179	0x3d8200e2	0.06347825
180	0xbc3d32f1	-0.01154779
181	0x3db8634b	0.09003314
182	0x3e10045b	0.14064161
183	0xbd2d0739	-0.042243216
184	0x3eace626	0.3376934
185	0xbd86de4e	-0.0658537
186	0xbd85176b	-0.06498607
187	0xbd97557c	-0.07389352
188	0x3f6afb3f	0.9178962
189	0xbf043f5d	-0.51659185
190	0xbdbfec96	-0.09371297
191	0x3e89a95d	0.26887026
192	0xbdb2dcbc	-0.08733508
193	0xbc807b45	-0.01568378
194	0xbd968aeb	-0.07350715
195	0x3c8a2327	0.016862465
196	0xbda60ba4	-0.08107689
197	0x3f962347	1.1729516
198	0xbe80ee4f	-0.25181815
199	0xbda37e58	-0.079830825
200	0xbda83e27	-0.082149796
201	0x3f18eb78	0.59734297
202	0xbd4770cf	-0.048691567
203	0xbc385a02	-0.011251928
204	0xbc6edc7c	-0.014578935
205	0x3e021290	0.12702394
206	0x3e5d6fd2	0.21624687
207	0xbda2d6c2	-0.07951118
208	0xbd9c2b7b	-0.07625481
209	0xbd228129	-0.039673958
210	0xbce9068d	-0.028445506
211	0xbdbb15e5	-0.091350354
212	0xbd1da5dd	-0.038488258
213	0x3ef5e978	0.48029685
214	0xbd50bf89	-0.050963912
215	0x3e058001	0.13037111
216	0xbd455ad1	-0.048182312
217	0xbd4ee8b2	-0.050514884
218	0x3d83ba0d	0.06431971
219	0xbd84ecdb	-0.06490489
220	0xbd32bf2d	-0.04363935
221	0xbdbc1bd3	-0.091849945
222	0x3d6d0f84	0.057876125
223	0xbf945fe6	-1.1591766
224	0x3ebc027f	0.36720654
225	0xbda7c493	-0.081917904
226	0xbd7b9fd7	-0.061431732
227	0xbd2b3531	-0.041798774
228	0x3d9867a5	0.074416436
229	0xbd96e605	-0.073680915
230	0x3f6622e8	0.8989701
231	0x3e3af898	0.18258893
232	0xbd9098c3	-0.07060387
233	0xbd917833	-0.07103004
234	0x3df0de33	0.11761131
235	0xbda3998c	-0.07988271
236	0x3ed6b200	0.41932678
237	0xbd2d7b6d	-0.042354036
238	0xbeddf528	-0.43351102
239	0xbdb7f752	-0.089827195
240	0xbf85b94b	-1.0447172
241	0xbdb7d7d5	-0.089767136
242	0xbf9cc39d	-1.2247196
243	0xbda7484d	-0.08168087
244	0xbc21b196	-0.009869
245	0xbd465dfe	-0.04842948
246	0x3d8fb4af	0.070168845
247	0x3e0b1426	0.13581905
248	0xbe0f52c8	-0.13996422
249	0x3f19e978	0.6012187
250	0x3f1a318c	0.6023185
251	0xbd71c93d	-0.059029806
252	0x3ed8a836	0.42315835
253	0xbd89d096	-0.06729238
254	0xbe24462b	-0.16042392
255	0xbda2872c	-0.07935938

fc2.weight f4 [128, 256]
0	0xbdbf61a3	-0.093447946
1	0xbc2f69c0	-0.010706365
2	0x3a0077c7	0.0004900661
3	0xbdea4372	-0.114386454
4	0x3d3432fc	0.043993935
5	0xbd2357e1	-0.03987873
6	0xbde2789a	-0.11058159
7	0xbd04162a	-0.0322477
8	0xbdc082dc	-0.093999594
9	0xbd366b4a	-0.044535913
10	0xbd561f90	-0.052276194
11	0xbd200ed3	-0.039076637
12	0xbdbfe5f9	-0.09370036
13	0xbd3ea526	-0.046544217
14	0xbdd37372	-0.10324754
15	0xbddf8f01	-0.10915948
16	0xbd4eaaf0	-0.050455987
17	0x3ccabbf0	0.024747819
18	0xbc1833ac	-0.009289663
19	0xbb6ed8bd	-0.0036445104
20	0xbda3c4ad	-0.07996497
21	0xbc11eab7	-0.008906058
22	0xbb04543b	-0.0020191807
23	0xbcf5acc1	-0.029989602
24	0xbcf81ffc	-0.030288689
25	0x3b0b927c	0.0021297028
26	0x3cfb643c	0.030687444
27	0xbdaf2b11	-0.08553136
28	0xbdadf736	-0.08494417
29	0xbc3bc660	-0.0114608705
30	0xbd7ac666	-0.061224364
31	0xbd91cce2	-0.071191564
32	0xbcb1b167	-0.021691037
33	0xbcf7eb5c	-0.030263595
34	0xbdc0b6b3	-0.09409847
35	0xbd991ece	-0.07476579
36	0xbd5d6ff7	-0.054061856
37	0xbd789d18	-0.06069669
38	0xbd583298	-0.052782625
39	0xbdea9e0c	-0.11455926
40	0xbd19017b	-0.037354928
41	0xbd8c67df	-0.06855749
42	0xbdce5737	-0.10075229
43	0x3d719f9c	0.058990106
44	0xbde81a1d	-0.11333106
45	0xbdd39a3f	-0.103321545
46	0xbd42b09d	-0.047531713
47	0xbdab9c5f	-0.08379435
48	0xbdb29d64	-0.08721426
49	0xbad687ea	-0.001636741
50	0xbd012bf6	-0.031536065
51	0xbdef5c72	-0.116875544
52	0xbdd41132	-0.10354842
53	0xbd71d1f7	-0.05903813
54	0xbdf268c9	-0.118363924
55	0xbdade814	-0.08491531
56	0xbdfaac4f	-0.122398965
57	0xbc3b6188	-0.0114368275
58	0xbc02f1b7	-0.0079922
59	0x3c2bb528	0.010480203
60	0xbd7194c5	-0.05897977
61	0xbd4fb2a2	-0.050707467
62	0xbb6d8bca	-0.003624665
63	0xbe1190b8	-0.14215362
64	0xbca57ea3	-0.020201987
65	0xbdadd0f4	-0.0848712
66	0xbd9a76d8	-0.07542199
67	0xbd56ad2b	-0.05241124
68	0xbd6ba9c5	-0.05753495
69	0xbd6d9cd8	-0.058010906
70	0xbd813c52	-0.06310333
71	0xbd72adf8	-0.05924794
72	0xbd0644e7	-0.032780554
73	0xbdf55d29	-0.119806595
74	0xbd37e956	-0.04490026
75	0xbcf9717c	-0.030449621
76	0xbd1459e4	-0.03621854
77	0xbc6e315e	-0.014538137
78	0xbc0518f7	-0.008123628
79	0xbda20435	-0.07910959
80	0x3c2d02f8	0.01055979
81	0xbde6b759	-0.112654395
82	0xbbb54519	-0.0055319187
83	0xbd3384b3	-0.043827724
84	0xbd3b9c4f	-0.045803364
85	0xbc925718	-0.017863795
86	0xbd0f0376	-0.03491541
87	0xbd895630	-0.06705892
88	0xbdce8f05	-0.100858726
89	0xbdf99905	-0.12187389
90	0xbdfc6254	-0.12323442
91	0xbd2550b9	-0.040360186
92	0xbd45c40f	-0.04828268
93	0xbd39fe57	-0.045408573
94	0xbdf945ed	-0.121715404
95	0xbccffde7	-0.025389625
96	0xbdf8002b	-0.12109407
97	0xbccbb4e0	-0.024866521
98	0xbd9c70ed	-0.076387264
99	0xbdf4a56a	-0.11945613
100	0xbb886d1e	-0.0041633984
101	0xbcabadef	-0.020956961
102	0xbd6a12a4	-0.057146683
103	0xbd576e4e	-0.05259543
104	0xbd5124d5	-0.051060516
105	0xbd2c5da3	-0.042081486
106	0xbde17f94	-0.11010662
107	0x3b0e1620	0.0021680668
108	0xbcf4809f	-0.029846488
109	0xbd68c2fc	-0.056826577
110	0xbcb027c8	-0.021503344
111	0xbce8413e	-0.028351422
112	0xbd3209ea	-0.043466486
113	0xbd66fa9d	-0.056391347
114	0xbd56be78	-0.05242774
115	0xbd51c50d	-0.051213313
116	0xbdc9cb6a	-0.09853251
117	0x3c82a2cc	0.015946768
118	0x3c39d860	0.011343092
119	0xbd0aa57d	-0.03384923
120	0xbdd07c00	-0.10179901
121	0x3ca52368	0.020158485
122	0xbd6d95e9	-0.058004294
123	0xbd708228	-0.058717877
124	0xbc920b5e	-0.017827686
125	0xbda35d91	-0.07976831
126	0xbdf07956	-0.11741893
127	0x3d760930	0.060067356
128	0xbde27762	-0.11057927
129	0xbdc16287	-0.09442621
130	0x3c8734cc	0.016504668
131	0xbc6e6794	-0.014551062
132	0xbd0261dc	-0.031831607
133	0x3bb85870	0.005625777
134	0xbbdedda0	-0.006801322
135	0xbdc6e87a	-0.0971231
136	0xbb696720	-0.0035614446
137	0xbd3a1a3e	-0.045435183
138	0xbde16de6	-0.110072896
139	0xbda8cf7a	-0.08242698
140	0x3b183248	0.002322333
141	0xbdeb1cb0	-0.11480081
142	0xbb093f8e	-0.0020942423
143	0xbdb8cd07	-0.09023481
144	0xbdee428e	-0.11633788
145	0xbd90c9e2	-0.07069756
146	0xbda27492	-0.0793239
147	0xbd731033	-0.05934162
148	0xbc24600d	-0.010032666
149	0xbdbe62dd	-0.092962004
150	0x3cfd0ec4	0.03089083
151	0xbd21a8a7	-0.03946748
152	0x39b4f800	0.0003451705
153	0xbd382cd8	-0.04496464
154	0xbc9c6158	-0.019089386
155	0xbd5272ba	-0.051378943
156	0xbd32c19c	-0.04364167
157	0xbb6569ce	-0.0035005691
158	0xbc8c6140	-0.017136216
159	0xbdefd66b	-0.11710819
160	0xbd93f801	-0.07225037
161	0xbdb9f88b	-0.09080609
162	0xbc6eb834	-0.014570285
163	0xbdf104aa	-0.11768468
164	0xbd9e286c	-0.077225536
165	0xbddc6813	-0.10762038
166	0xbd1cf22d	-0.038316894
167	0xbd6f2170	-0.058381498
168	0x3cd89ac4	0.026440986
169	0xbd9fd3b5	-0.07804052
170	0xbdd103ff	-0.1020584
171	0xbd741602	-0.0595913
172	0xbcf77fb3	-0.030212259
173	0xbd70d552	-0.058797188
174	0xbd2b33ce	-0.04179745
175	0xbaad80c0	-0.0013237223
176	0x3d7c21d0	0.061555684
177	0xbdc8a6d3	-0.09797444
178	0xbc32aca5	-0.0109054195
179	0xbced6c4b	-0.028982302
180	0xbcb0363c	-0.021510236
181	0xbbc44806	-0.005990031
182	0xbc6f82a8	-0.014618553
183	0xbdedfacc	-0.11620101
184	0xbde0d707	-0.10978513
185	0xbd76a050	-0.06021148
186	0xbbd23cb6	-0.0064159287
187	0xbcf9b46c	-0.03048154
188	0xbbe1d050	-0.006891288
189	0xbdd52946	-0.10408263
190	0xbdb24b6b	-0.08705791
191	0xbcb21578	-0.021738753
192	0x3d351a96	0.044214807
193	0xbdc2dc3a	-0.09514661
194	0x3cdaf860	0.026729763
195	0xbdbabbcb	-0.0911785
196	0xbd040560	-0.03223169
197	0xbd831192	-0.06399836
198	0xbc8ba913	-0.017048394
199	0xbc1e9165	-0.009678219
200	0xbdaa5ad3	-0.083181046
201	0xbdedee1f	-0.116176836
202	0xbc440965	-0.01196513
203	0xbdb52fd3	-0.08847012
204	0xbd16eff8	-0.036849946
205	0xbdedddb5	-0.11614553
206	0xbd750787	-0.05982163
207	0xbd2d32b6	-0.04228469
208	0x3c436530	0.01192598
209	0xbc8e86af	-0.017398207
210	0xbd930b80	-0.07179928
211	0xbcac4248	-0.0210277
212	0x3d7d0750	0.061774552
213	0xbcd03158	-0.025414154
214	0x3cf7127c	0.030160181
215	0xbca720c1	-0.02040136
216	0xbde13523	-0.10996463
217	0xbcd9ee7d	-0.026602978
218	0xbc0ce3a6	-0.0085991975
219	0xbcf21aa9	-0.029553728
220	0xbd8eb336	-0.069677755
221	0xbd486925	-0.0489284
222	0xbd9cbbe7	-0.07653027
223	0xbda03f76	-0.07824604
224	0xbd5a962b	-0.053365868
225	0xbd01e264	-0.031710044
226	0xbd36e9e2	-0.04465664
227	0x3d17b4b6	0.037037574
228	0xbcda2d17	-0.026632829
229	0xbd029092	-0.031876154
230	0xbdafa05a	-0.085755065
231	0xbaf82480	-0.0018931776
232	0x3d5c8bc6	0.053844236
233	0xbdf32a62	-0.11873318
234	0x3b92c590	0.0044791177
235	0x3c4f4810	0.012651458
236	0xbdc40135	-0.09570543
237	0xbd9f7171	-0.07785309
238	0xbc3c0990	-0.011476889
239	0xbd638124	-0.05554308
240	0x3b03576a	0.0020041117
241	0xbcdb52e7	-0.02677293
242	0x3cbfb79c	0.023402981
243	0xbda55ee4	-0.080747396
244	0xbcc732e8	-0.024316266
245	0xbd7ea994	-0.06217344
246	0xbacc50ba	-0.0015588023
247	0xb99afa00	-0.00029559433
248	0xbd5174db	-0.051136833
249	0xbc4e96ad	-0.012609166
250	0xbd720f5b	-0.059096675
251	0x3cc41da4	0.023939915
252	0xbdc0155c	-0.09379074
253	0xbd97550c	-0.07389268
254	0xbc60f2e3	-0.013729784
255	0xbca4ca0f	-0.02011588

fc2.bias f4 [128]
0	0xbdf3ed76	-0.119105265
1	0xbe85ca10	-0.26130724
2	0x3edcee3b	0.43150505
3	0xbf477659	-0.7791496
4	0xbf2d1988	-0.6761708
5	0x3e1b6bb3	0.15177803
6	0xbf006c22	-0.50165
7	0xbd8ef7e2	-0.06980874
8	0xbe5f3f32	-0.21801451
9	0x3eb324a3	0.3498889
10	0xbe236cb2	-0.15959433
11	0x3f3716c0	0.7151909
12	0xbf0daa1d	-0.553377
13	0xbe36c72e	-0.17849419
14	0xbe1aade9	-0.15105404
15	0xbe2117b9	-0.15731706
16	0xbeeb2dfc	-0.4593352
17	0x3f4b05bf	0.7930564
18	0xbea3ac77	-0.31967518
19	0xbf22e29c	-0.6362703
20	0x3f185d14	0.59517026
21	0xbe827963	-0.25483236
22	0x3f8288c6	1.019799
23	0x3d130fd5	0.03590377
24	0xbebbb2d9	-0.36659887
25	0xbdc38cfd	-0.09548376
26	0xbf44afa5	-0.7683051
27	0xbdeceb33	-0.11568298
28	0x3ee6ea41	0.45100597
29	0xbf00fe6b	-0.5038821
30	0x3f4efb24	0.8085196
31	0xbe8f99d0	-0.28047037
32	0xbf807af8	-1.0037527
33	0xbf876408	-1.0577402
34	0x3caa1fbe	0.020767089
35	0xbef3d021	-0.47619727
36	0x3f42e28d	0.7612694
37	0xbf8076c1	-1.0036241
38	0xbede79de	-0.43452352
39	0x3f7a1acd	0.97697145
40	0xbf0e5796	-0.55602396
41	0xbf30adec	-0.69015384
42	0x3f22787c	0.63465095
43	0x3eacaaba	0.33724004
44	0xbda946ed	-0.08265481
45	0x3e24db73	0.16099338
46	0xbe16e11f	-0.14734314
47	0x3f48aa4f	0.7838487
48	0x3f81b123	1.0132183
49	0xbdff649b	-0.12470361
50	0x3ea15429	0.31509522
51	0x3f1f8ebf	0.6232719
52	0x3f14307b	0.57886475
53	0xbe02b212	-0.12763241
54	0xbef6f9b8	-0.48237395
55	0xbeb4a4cf	-0.3528199
56	0xbf429d00	-0.76020813
57	0xbf074455	-0.5283864
58	0x3e8e7252	0.27821594
59	0xbe381123	-0.17975287
60	0xbd1d6637	-0.038427558
61	0x3f1f4552	0.6221515
62	0xbe980b9b	-0.29696354
63	0xbeab5680	-0.33464432
64	0x3e008f18	0.12554586
65	0x3f5c3fe2	0.8603498
66	0xbe9df386	-0.30849856
67	0xbf7ef361	-0.99590117
68	0xbed07d4e	-0.407206
69	0xbd1d7084	-0.03843738
70	0xbf362269	-0.71146256
71	0xbef3a51b	-0.47586903
72	0xbf2fd138	-0.6867862
73	0xbe12bb08	-0.1432916
74	0xbc582d92	-0.013194459
75	0x3df0950b	0.11747178
76	0xbe124883	-0.14285474
77	0xbe39ef1d	-0.1815762
78	0xbdc2d987	-0.09514146
79	0xbe54c767	-0.20779191
80	0xbee75644	-0.45183003
81	0xbf1b20a8	-0.60596704
82	0x3e928594	0.28617537
83	0xbf35dfaf	-0.7104444
84	0xbf0134dc	-0.5047128
85	0xbe40fc98	-0.18846357
86	0xbf2ba52c	-0.6704891
87	0xbe2870fc	-0.1644935
88	0x3e305822	0.1722112
89	0xbd3bc703	-0.04584409
90	0x3e175351	0.14777876
91	0xbea0cd04	-0.31406415
92	0x3f1292ca	0.5725523
93	0x3de12d57	0.10994976
94	0x3f8b9c76	1.0907123
95	0xbd7cb136	-0.06169244
96	0x3f4d05a7	0.8008675
97	0x3f4e57c5	0.80602676
98	0x3f06e346	0.5269054
99	0xbf4071b6	-0.7517351
100	0xbf179486	-0.59211004
101	0xbf943044	-1.157723
102	0x3d308da2	0.04310382
103	0x3f422aa6	0.75846326
104	0xbe88f0ae	-0.26746124
105	0xbe5be049	-0.21472277
106	0xbea8e0db	-0.3298405
107	0xbe51638c	-0.2044813
108	0x3b3adb70	0.0028512143
109	0x3f495c53	0.786565
110	0x3f085e05	0.5326846
111	0xbd25a0ff	-0.04043674
112	0xbe8dc0cc	-0.27686155
113	0xbeaaa9ff	-0.33332822
114	0x3fa58c64	1.2933469
115	0xbdef58dc	-0.116868705
116	0xbdf77978	-0.12083715
117	0x3f34854c	0.70515895
118	0xbab9d43d	-0.0014177632
119	0xbebb92f0	-0.36635542
120	0xbe9ed560	-0.31022167
121	0x3d59a09c	0.053131685
122	0x3f6582aa	0.896525
123	0x3ca9f605	0.020747194
124	0x3f6fb83e	0.93640506
125	0x3f3b65bf	0.7320213
126	0x3c396dd9	0.011317694
127	0xbe3cd3f2	-0.18440226

fc3.weight f4 [64, 128]
0	0xbd09515f	-0.033524867
1	0xbda3e0a2	-0.0800183
2	0xbe858ad1	-0.2608247
3	0x3edd9898	0.43280482
4	0xbdd14f0d	-0.10220156
5	0xbeb2f4be	-0.34952348
6	0xbc5d919c	-0.0135234855
7	0xbe8a4455	-0.27005258
8	0x3d6a42fc	0.057192788
9	0x3c7fe999	0.015619659
10	0xbe06d519	-0.13167228
11	0xbdf479f0	-0.1193732
12	0x3d7fffbc	0.062499747
13	0xbcf8cece	-0.03037205
14	0xbe4e8c55	-0.2017072
15	0xbe0832dd	-0.13300653
16	0x3e82779d	0.25481883
17	0x3d76daa6	0.060267113
18	0x3e3ff32c	0.18745106
19	0xbe4d4437	-0.20045553
20	0x3d95f23a	0.07321592
21	0x3cceaf74	0.025230147
22	0xbe7f3ed6	-0.24926314
23	0xbe3c8b52	-0.18412521
24	0xbe0b6875	-0.13614066
25	0xbe2b0038	-0.16699302
26	0x3d724834	0.05915089
27	0x3e2e8d95	0.17046197
28	0xbe701512	-0.23445538
29	0xbe873618	-0.26408458
30	0xbdd99f0d	-0.1062604
31	0xbdc1df96	-0.09466474
32	0x3e167cd9	0.14696063
33	0xbe4d120f	-0.2002642
34	0xbde58f4d	-0.11208973
35	0xbd82d226	-0.06387739
36	0xbe64dac6	-0.2234908
37	0x3d708cb8	0.05872795
38	0xbe2049c6	-0.15653142
39	0x3d2b3685	0.04180004
40	0xbea171fa	-0.3153227
41	0xbe331383	-0.17487912
42	0xbd477033	-0.048690986
43	0xbe0374b7	-0.12837492
44	0x3e525a4b	0.20542257
45	0x3d5829e4	0.052774325
46	0xbe5b70af	-0.21429704
47	0xbdc2d44b	-0.09513148
48	0xbdf6baa8	-0.120473206
49	0x3eb78990	0.3584714
50	0xbd2d8e84	-0.04237224
51	0xbe2ff8bf	-0.17184733
52	0xbdd473ef	-0.10373675
53	0xbd9ce0de	-0.076600775
54	0xbeb3c5ce	-0.3511185
55	0xbc195ce4	-0.009360526
56	0xbdd413ab	-0.10355314
57	0xbbf377b3	-0.0074300407
58	0x3d693e91	0.056944434
59	0xbe18ee98	-0.14934766
60	0x3d5edddf	0.05441081
61	0xbdbdea8b	-0.09273251
62	0xbe106f0e	-0.14104864
63	0xbe9ddae5	-0.30831066
64	0xbd3c8728	-0.046027333
65	0x3d856dee	0.06515108
66	0xbb71f3d1	-0.0036919008
67	0x3ed2425d	0.41066256
68	0xbdd87968	-0.105700314
69	0xbd234f80	-0.03987074
70	0x3e2f7be4	0.17137104
71	0xbe4e829d	-0.20167013
72	0x3e50870a	0.20364013
73	0xbe424796	-0.1897262
74	0xbb436f80	-0.0029821098
75	0x3e53e9a8	0.20694602
76	0xbca249ec	-0.01981064
77	0x3ea1ab89	0.31576183
78	0x3d67df5a	0.05660949
79	0xbe974ca6	-0.29550666
80	0x3f370b9c	0.7150209
81	0xbef14120	-0.4712
82	0xbe0013d1	-0.1250756
83	0xbf075143	-0.5285837
84	0xbf15bbb8	-0.5848956
85	0xbe003dbd	-0.12523551
86	0xbd2306bb	-0.03980134
87	0x3d60fbae	0.05492752
88	0xbe562841	-0.20913793
89	0xbc07f1f6	-0.008297434
90	0xbe60ff66	-0.21972427
91	0x3dcc9986	0.0999022
92	0xbf0ea4c3	-0.55720156
93	0x3e8163f1	0.25271562
94	0xbe003526	-0.12520275
95	0xbd1e2da7	-0.038617756
96	0x3cd67137	0.026177032
97	0xbf16e8e7	-0.5894913
98	0xbe125aa1	-0.14292385
99	0xbe3b7ecb	-0.18310086
100	0xbe07bef1	-0.13256432
101	0xbe82565f	-0.2545652
102	0xbe579f1f	-0.21056794
103	0x3d78690b	0.06064705
104	0x3c9d4f3d	0.019202823
105	0x3ca03dfc	0.019560806
106	0x3d265f0e	0.040617995
107	0x3c27404d	0.010208202
108	0x3da3101f	0.07962059
109	0xbd44706f	-0.047958788
110	0xbe44fe0f	-0.1923754
111	0xbd3b6ba0	-0.045756936
112	0xbd8dd3d8	-0.069251716
113	0xbee99cb9	-0.45627382
114	0xbde6d5e1	-0.11271263
115	0xbec5e13c	-0.38648403
116	0x3db438cf	0.08799898
117	0xbe331387	-0.17487918
118	0x3e65b049	0.22430529
119	0xbe0bf619	-0.13668098
120	0xbe976c05	-0.295746
121	0xbe5a243e	-0.21302888
122	0xbd30cf68	-0.043166548
123	0xbe202a60	-0.15641165
124	0xbd6d7cb7	-0.057980265
125	0xbe35d41a	-0.17756692
126	0xbcda52bd	-0.02665078
127	0xbd942ea4	-0.072354585
128	0xbb787440	-0.0037911087
129	0x3caea3dc	0.021318369
130	0xbd4f0ca7	-0.050549176
131	0xbdc31245	-0.09524969
132	0xbd30556e	-0.043050222
133	0xbe24ccfb	-0.16093819
134	0xbe560248	-0.20899308
135	0xbe77e0cd	-0.24206848
136	0xbd23c1c8	-0.039979726
137	0xbeb435f6	-0.3519742
138	0xbdc732f3	-0.09726515
139	0xbe325952	-0.17416885
140	0xbd9ea515	-0.07746331
141	0x3da43389	0.08017642
142	0xbd9e6458	-0.07733983
143	0xbc3ae8d0	-0.011408046
144	0x3cc90d94	0.024542607
145	0xbd946b82	-0.07247068
146	0x3d8f4e35	0.06997339
147	0xbe6db1ff	-0.23212431
148	0xbd96799c	-0.07347414
149	0x3d87ae61	0.06625057
150	0xbd6ce8b1	-0.0578391
151	0xbdaf5c55	-0.08562533
152	0xbd69c182	-0.05706931
153	0xbe2b2f8a	-0.16717353
154	0xbcc8211c	-0.02442985
155	0xbc994846	-0.01871122
156	0xbde98bed	-0.11403642
157	0xbd0e59f5	-0.03475376
158	0xbdbef6c3	-0.0932441
159	0xbd00d0b8	-0.03144905
160	0xbda8d902	-0.08244516
161	0xbe358d81	-0.1772976
162	0xbdb4671c	-0.08808729
163	0xbd449d05	-0.048001308
164	0xbd5097fd	-0.050926197
165	0x3d314d8e	0.043286853
166	0x3aa519ff	0.0012596248
167	0xbd4cb8f5	-0.049981076
168	0x3d369b74	0.044581845
169	0x3db82222	0.08990885
170	0xbcd9f507	-0.026606096
171	0xbe389c22	-0.1802831
172	0xbd6b2201	-0.057405476
173	0x3b26baf1	0.0025441016
174	0x3c55ec88	0.013056882
175	0xbe03cfc5	-0.12872227
176	0xbe53bf12	-0.20678356
177	0xbd8b9dd4	-0.06817213
178	0xbddb90e7	-0.10720997
179	0xbdc00f15	-0.09377877
180	0xbe8361b6	-0.25660485
181	0x3d7674f2	0.06017012
182	0xbcff2f53	-0.031150496
183	0xbdabb604	-0.08384326
184	0xbc89fd5f	-0.01684445
185	0xbd08a178	-0.033357114
186	0xbd60a318	-0.05484304
187	0xbe06721f	-0.13129471
188	0x3d2525e0	0.040319324
189	0xbe0bcb6f	-0.13651823
190	0xbe6c2f2a	-0.23064867
191	0x3d9e610d	0.07733355
192	0xba0b0724	-0.0005303493
193	0xbe02fdce	-0.12792131
194	0x3b1c795e	0.0023876051
195	0x3c3967f8	0.011316292
196	0xbd1797fc	-0.037010178
197	0xbb471080	-0.0030374825
198	0xbd8c9da8	-0.06866008
199	0xbd8c10f8	-0.06839174
200	0x3d673102	0.056443222
201	0xbd3bab45	-0.045817632
202	0xbcc51824	-0.024059363
203	0xbde9d1ea	-0.11416991
204	0x3d5fe8ce	0.05466538
205	0xbd005a45	-0.031336088
206	0xbd38b25a	-0.045091964
207	0xbd86b7c5	-0.0657802
208	0x3e862287	0.26198217
209	0x3dd82d36	0.10555498
210	0xbd906d74	-0.070521265
211	0xbd0f055b	-0.034917217
212	0xbd9be6a0	-0.076123476
213	0xbe0d6a4b	-0.13810079
214	0xbd601946	-0.054711603
215	0xbd88ee1c	-0.06686041
216	0xbe0bb9b2	-0.13645056
217	0xbe18cce9	-0.14921917
218	0xbd11ed62	-0.035626777
219	0xbe838567	-0.25687715
220	0xbe5f97b5	-0.21835215
221	0xbe1200f0	-0.1425817
222	0xbdf3899e	-0.11891483
223	0x3d00ab4a	0.031413354
224	0xbe0e8b02	-0.13920215
225	0xbe053dcf	-0.1301186
226	0x3e254fd3	0.16143732
227	0xbd794fb3	-0.060867023
228	0xbd9c2d2b	-0.076258026
229	0xbd8bcfaf	-0.06826722
230	0xbe72a7e6	-0.2369686
231	0xbe9a408d	-0.30127373
232	0xbd88b692	-0.066754475
233	0x3d8a2c05	0.06746677
234	0xbc5af358	-0.013363682
235	0x3dac866f	0.08424079
236	0xbb264abb	-0.0025374133
237	0xbdd57fe8	-0.10424787
238	0xbdfd286c	-0.123612255
239	0x3da022f3	0.07819166
240	0xbd17091e	-0.03687393
241	0xbdfa1a17	-0.122120075
242	0xbcae6afe	-0.021291252
243	0xbd75177e	-0.059836857
244	0x3d374b72	0.044749685
245	0xbdc497ba	-0.09599252
246	0xbcc59aa8	-0.024121597
247	0x3b782420	0.003786333
248	0xbdba7d2b	-0.09105905
249	0xbe0f10e0	-0.13971281
250	0x3ccae00f	0.024765043
251	0xbe84afb2	-0.25915295
252	0xbcc82661	-0.024432363
253	0xbdbfc96b	-0.09364589
254	0xbec99b69	-0.3937638
255	0x3dad5475	0.084633745

fc3.bias f4 [64]
0	0xbec16fbd	-0.37780562
1	0xbe3fa235	-0.18714221
2	0xbeabb49b	-0.3353623
3	0x3dc8c223	0.09802654
4	0x3eb877b6	0.36028832
5	0xbdc2b835	-0.09507791
6	0xbdb85f9a	-0.090026096
7	0xbcfea320	-0.031083643
8	0xbf50c187	-0.815453
9	0xbe964c04	-0.2935487
10	0xbf04015f	-0.5156459
11	0xbcefb97b	-0.029263249
12	0x3eafcb80	0.34334946
13	0x3eb1e3f3	0.34744224
14	0xbe7e09aa	-0.24808374
15	0x3f35f682	0.71079266
16	0xbf2661d8	-0.6499305
17	0xbe7f40bd	-0.2492704
18	0xbf030962	-0.5118619
19	0xbeb53512	-0.35392052
20	0xbf7067aa	-0.9390818
21	0x3e2bdea9	0.16784157
22	0xbe500504	-0.20314413
23	0xbe97deb2	-0.2966209
24	0x3f1d207f	0.6137771
25	0xbe9079f4	-0.28218043
26	0x3f4c8cf0	0.79902554
27	0x3f92e11d	1.1474949
28	0x3f7bc311	0.9834452
29	0xbde2589c	-0.11052057
30	0xbdcca9ae	-0.09993301
31	0x3f4eb58c	0.8074577
32	0xbe7a6ebb	-0.24456303
33	0x3f16d2f3	0.5891563
34	0x3ebbe6cd	0.36699525
35	0x3de31f03	0.110898994
36	0x3f37baa0	0.7176914
37	0xbe8fff82	-0.28124624
38	0xbf0aee01	-0.54269415
39	0x3f54ffe7	0.83202976
40	0xbe423570	-0.18965697
41	0xbdfea657	-0.124340706
42	0x3fa69d25	1.3016707
43	0xbc9b866d	-0.018984998
44	0xbe872ebb	-0.2640284
45	0xbeb1f24a	-0.34755164
46	0x3f2d142d	0.6760891
47	0xbe0be79a	-0.13662568
48	0x3f2e1d20	0.6801319
49	0x3e78a24b	0.2428066
50	0xbdc0d9cc	-0.094165415
51	0x3f5d6dce	0.86495674
52	0x3f2a0c54	0.6642506
53	0xbf1db890	-0.61609745
54	0xbecdc24b	-0.40187296
55	0x3fc43df3	1.5331405
56	0x3f766adb	0.962568
57	0xbe13d7e9	-0.14437832
58	0x3ef0c06f	0.47021815
59	0x3e21d769	0.15804829
60	0xbe67b27f	-0.22626685
61	0xbe0d6d63	-0.13811259
62	0xbe57ed4a	-0.21086612
63	0x3f63f10a	0.8903967

fc4.weight f4 [10, 64]
0	0xbe8a7bd7	-0.27047607
1	0x3c551c67	0.01300726
2	0xbdb60f84	-0.08889678
3	0xbed414c1	-0.41422084
4	0x3d1fc2ba	0.039004065
5	0xbd0bbfa6	-0.034118317
6	0xbe9a420f	-0.30128524
7	0xbe01178f	-0.12606643
8	0xbf4aa74e	-0.79161537
9	0xbe06cac9	-0.13163294
10	0xbf3d9d9e	-0.7406863
11	0x3cf9634c	0.030442856
12	0xbd925f1d	-0.07147048
13	0xbe9fd6a9	-0.3121846
14	0x3d2338e7	0.03984919
15	0x3d876c9f	0.06612515
16	0xbed72ba2	-0.42025477
17	0xbdc76486	-0.0973597
18	0xbd042fac	-0.032272026
19	0xbc8bb4ef	-0.01705405
20	0xbe4ec196	-0.20191035
21	0xbc585cf7	-0.013205758
22	0xbe02827a	-0.12745085
23	0xbe73ec84	-0.23820692
24	0xbe0175a6	-0.12642536
25	0x3e35d402	0.17756656
26	0xbe23e42e	-0.16005012
27	0xbed69f11	-0.41918233
28	0xbdeaa7cb	-0.11457785
29	0xbce8593b	-0.02836286
30	0xbd8c0fdf	-0.06838965
31	0x3da6379f	0.08116078
32	0xbc0b3783	-0.008497122
33	0xbea04b98	-0.31307673
34	0xbf061348	-0.5237317
35	0xbe11a2e7	-0.14222299
36	0x3d57adea	0.05265609
37	0xbf1f6d32	-0.62275994
38	0xbe44ada5	-0.19206865
39	0x3e0b34a9	0.13594307
40	0xbc993edb	-0.01870673
41	0xbe80c34d	-0.25149003
42	0x3e88c8bc	0.26715648
43	0x3d86535e	0.0655887
44	0xbc885ab0	-0.016644806
45	0x3d29b570	0.041432798
46	0xbc19aa31	-0.009378956
47	0xbea17b9d	-0.31539622
48	0x3d71cb8d	0.05903201
49	0xbc10c282	-0.008835437
50	0xbda3d5fc	-0.07999799
51	0xbf1bce93	-0.6086208
52	0xbda0fbd5	-0.07860533
53	0xbea636e7	-0.32463762
54	0xbec49cff	-0.3840103
55	0x3d73bad5	0.05950435
56	0xbecde90f	-0.40216872
57	0xbe4b42d9	-0.19849719
58	0x3d07ff11	0.033202235
59	0xbee8d15c	-0.4547223
60	0xbdc6a819	-0.09700031
61	0x3ca239d1	0.01980296
62	0x3e590103	0.21191792
63	0xbed158ef	-0.40888163
64	0xbe0bee0a	-0.13665023
65	0x3d18f529	0.037343178
66	0xbf8a5ddc	-1.0809894
67	0xbcec2a8b	-0.02882888
68	0x3e270382	0.16309932
69	0xbc609ed5	-0.0137097435
70	0xbef38a81	-0.47566608
71	0xbf63e870	-0.89026546
72	0xbec7b7de	-0.39007467
73	0x3d27dbd0	0.040981114
74	0xbf2963ac	-0.6616771
75	0xbe10c6f4	-0.14138395
76	0x3e28fc78	0.16502559
77	0xbf804038	-1.0019598
78	0xbdd5ed70	-0.10445678
79	0x3ce4e29e	0.02794009
80	0xbf2c7d84	-0.6737902
81	0xbd1473c5	-0.03624322
82	0xbd070e25	-0.032972474
83	0xbe9aa210	-0.3020177
84	0xbf16853b	-0.58797044
85	0xbf429835	-0.760135
86	0xbe3aae49	-0.18230547
87	0x3ea26914	0.31720793
88	0xbfa3c8ad	-1.2795616
89	0xbd141533	-0.03615303
90	0x3dc1c43d	0.094612576
91	0xbe1189b3	-0.14212684
92	0xbeb570f3	-0.35437736
93	0xbe2391ef	-0.15973638
94	0xbdeca98b	-0.11555775
95	0xbe84b161	-0.2591658
96	0x3e85d8e1	0.26142028
97	0xbdc21546	-0.09476714
98	0xbf560e21	-0.8361531
99	0xbeb91e74	-0.36156046
100	0x3e5f4a66	0.21805725
101	0xbeba125c	-0.36342132
102	0xbe0d0ddd	-0.1377482
103	0xbf266b2c	-0.6500728
104	0x3c525d1e	0.012839584
105	0xbec8e454	-0.392367
106	0xbe970239	-0.29493883
107	0x3d96930b	0.07352265
108	0xbdbae88e	-0.091263875
109	0xbd93f4dd	-0.07224438
110	0xbebc2503	-0.36746988
111	0x3bfcb0f2	0.007711523
112	0xbd976b34	-0.07393494
113	0xbe7b3884	-0.24533278
114	0xbdb03acb	-0.08604964
115	0xbf931ff2	-1.1494124
116	0xbe6aef7a	-0.22942916
117	0xbe47827e	-0.19483373
118	0xbc41f7de	-0.011838881
119	0xbe67457b	-0.22585098
120	0xbf583c23	-0.8446676
121	0xbe1ed279	-0.15509976
122	0x3e5edbf8	0.21763599
123	0xbf0fecf3	-0.5622093
124	0xbe0b108d	-0.13580532
125	0x3e0c76d2	0.13717201
126	0xbe9393eb	-0.2882379
127	0xbf086c80	-0.5329056
128	0xbc46f744	-0.012143914
129	0xbdbe5bb6	-0.09294836
130	0xbeda23eb	-0.42605528
131	0xbed48d84	-0.41514218
132	0x3dc46792	0.09590067
133	0x3d0cdbf5	0.034389455
134	0xbf125b1f	-0.5717029
135	0xbe58c4af	-0.21168779
136	0xbf0a34d0	-0.53986835
137	0x3e30c143	0.17261223
138	0xbf6e0d16	-0.9298872
139	0x3e18ca78	0.14920986
140	0x3dc1718a	0.09445484
141	0x3d7662c4	0.060152784
142	0xbd7caee1	-0.061690215
143	0x3cc6bdaf	0.02426037
144	0xbcb31875	-0.021862248
145	0xbdf21503	-0.11820414
146	0x3c3d391b	0.01154926
147	0xbee63dcb	-0.4496902
148	0xbdd4ef2b	-0.1039718
149	0x3dd5f179	0.10446448
150	0xbddcc047	-0.107788615
151	0xbe7793d0	-0.2417748
152	0x3de84802	0.113418594
153	0xbd24624a	-0.0401328
154	0xbe4fabb3	-0.20280342
155	0xbec4df76	-0.38451737
156	0x3e8716bf	0.2638454
157	0xbed063ff	-0.4070129
158	0xbd8aeca3	-0.06783416
159	0xbe54fde7	-0.20799981
160	0x3da18841	0.078873165
161	0x3dde60fc	0.10858342
162	0xbf063067	-0.52417606
163	0xbe3bfc76	-0.18358025
164	0xbee6209e	-0.4494676
165	0xbee05f0e	-0.4382252
166	0xbc2cb4b0	-0.010541126
167	0xbd7ff8ea	-0.062493242
168	0xbcbcb265	-0.023034284
169	0xbe6ec1ec	-0.23316163
170	0x3ccb437c	0.024812452
171	0xbddf3fde	-0.109008536
172	0xbe6e8f61	-0.23296882
173	0xbd0f369f	-0.0349642
174	0xbea912af	-0.33022067
175	0xbe1d721d	-0.15375562
176	0x3e1e92e7	0.15485726
177	0xbce8b924	-0.028408594
178	0xbe8a6ed9	-0.27037695
179	0xbed1d4ae	-0.40982574
180	0x3e03c21c	0.12867016
181	0xbef1f763	-0.47259054
182	0xbcd1b657	-0.025599642
183	0xbe4261e4	-0.18982655
184	0xbe4c6362	-0.19959787
185	0xbe1acfcb	-0.15118329
186	0xbe29d34b	-0.16584508
187	0xbe69e598	-0.2284149
188	0xbe728f50	-0.23687482
189	0x3d909f08	0.07061583
190	0x3dcccb28	0.099996865
191	0xbf1c2fdf	-0.61010545
192	0x3d66afaa	0.05631987
193	0xbd4c6213	-0.04989822
194	0xbe779bb5	-0.24180491
195	0xbcc7ad8e	-0.02437475
196	0xbd58c395	-0.052920897
197	0x3dc3cade	0.09560178
198	0xbe5948ad	-0.2121913
199	0xbe552970	-0.20816588
200	0xbeea00c8	-0.4570372
201	0xbd559b07	-0.0521498
202	0x3e3a7dbc	0.18212026
203	0xbd4ef003	-0.05052186
204	0x3d9773fb	0.073951684
205	0xbf123871	-0.5711737
206	0xbd80528f	-0.06265747
207	0xbf3e0e04	-0.74240136
208	0xbf02c209	-0.51077324
209	0xbcad3c8d	-0.021147037
210	0xbf07aa2b	-0.5299403
211	0xbe416554	-0.1888631
212	0xbe6f4624	-0.233666
213	0xbec3328b	-0.381245
214	0xbeab8dfa	-0.33506757
215	0xbe50a635	-0.20375903
216	0x3d1ea70e	0.038733535
217	0x3eaa1934	0.33222353
218	0x3e1bb6b3	0.15206413
219	0xbe4d2fd2	-0.20037773
220	0xbe9ff373	-0.31240425
221	0xbe3b7fbd	-0.18310447
222	0x3ca4656e	0.020067897
223	0x3def5e4f	0.1168791
224	0xbcb9ff91	-0.022704871
225	0xbca9e05e	-0.02073687
226	0xbf89da23	-1.0769695
227	0xbebde4d7	-0.37088653
228	0x3dbcf35d	0.09226105
229	0xbf3eacee	-0.7448262
230	0xbed38726	-0.41314048
231	0xbeb21d58	-0.34788013
232	0x3d244a5e	0.040109985
233	0xbdf632ad	-0.120213844
234	0xbd9d670a	-0.07685669
235	0x3d758408	0.059940368
236	0x3b867905	0.004103782
237	0x3d9fdd14	0.07805839
238	0xbd41b301	-0.047289852
239	0xbd909226	-0.070591256
240	0x3e610d3b	0.21977703
241	0x3e148d84	0.14507109
242	0x3d9408ce	0.07228242
243	0xbf4fc804	-0.81164575
244	0xbf3aa02f	-0.7290067
245	0xbdcd59c0	-0.10026884
246	0xbc0d45d4	-0.008622605
247	0x3d2acad0	0.041697323
248	0xbf119976	-0.5687479
249	0x3dfa14a2	0.12210967
250	0x3e274614	0.16335326
251	0xbea4c075	-0.32178083
252	0x3d2d700b	0.04234318
253	0xbd34a53f	-0.044102903
254	0xbe633e06	-0.22191629
255	0xbf8acd1d	-1.0843846

fc4.bias f4 [10]
0	0xbe78f697	-0.24312817
1	0xbf082679	-0.53183705
2	0x3d480c83	0.048840057
3	0x3e9ad436	0.3024003
4	0xbecc5947	-0.39911863
5	0x3f117ad7	0.56828064
6	0x3de83ba7	0.11339503
7	0x3ed9dad3	0.42549762
8	0x3e7989e0	0.24369001
9	0xbf5ab7cd	-0.8543671
