runs/Mar02_17-05-15_cssd901383-Run(lr=0.01, batch_size=256, patience=1)-valid/checkpoint.pt (torch_old, 972387 bytes, 8 tensors)

fc1.weight f4 [256, 784]
-0.031266183 -0.0068742037 0.027283829 0.06900583 0.005992822 -0.0015209551 0.062322665 -0.022856979
-0.047850322 -0.054832596 -0.05884653 -0.07186046 -0.030303834 -0.029424643 -0.05464895 -0.08847386
-0.08056055 -0.05695792 -0.071584955 -0.085118145 -0.050270982 -0.0550324 -0.07508653 0.0427402
0.015152618 0.03066672 0.014606357 -0.031323742 -0.026591996 -0.03213746 -0.08548297 0.06928748
0.05561076 -0.07013462 -0.042415567 -0.07585659 -0.08284392 -0.059242744 -0.024497692 -0.057771944
-0.026883231 -0.05136962 -0.05138773 -0.03924098 -0.055146467 -0.048806407 -0.038937617 -0.09345823
-0.07809357 0.039255127 0.05915977 -0.03909593 0.054102845 0.029449295 0.028059822 -0.008218719
0.023045879 -0.0042709336 0.022072686 0.049255133 -0.027604742 0.061400212 -0.030544288 -0.07292625
-0.08454107 -0.04247848 -0.090401106 -0.03713482 -0.042491015 -0.08810525 -0.07073012 -0.039287727
-0.03773207 -0.09289569 -0.059192106 -0.031721007 -0.046237968 -0.06880993 0.05832009 0.06517679
-0.031135084 0.06152091 -0.007553395 -0.031610798 0.027041141 0.010525428 -0.023456205 0.040422995
-0.07205722 -0.028882524 -0.026757795 -0.0928289 -0.06998816 -0.075282164 -0.051368997 -0.026152859
-0.07400073 -0.038389992 -0.042615525 -0.052436836 -0.06789863 -0.07494134 -0.04123611 -0.03257473
-0.050185792 -0.033312656 -0.04212796 0.07401111 0.073313974 0.0024067443 -0.016655497 -0.002210591
0.027347777 -0.0141813215 -0.03188234 0.00027406216 0.03640815 -0.09352007 -0.042227186 -0.05557993
-0.076518945 -0.05509285 -0.09275813 -0.03763638 -0.086469464 -0.036106396 -0.091669425 -0.045828447
-0.044254728 -0.08604609 -0.029124238 -0.041611668 -0.08257607 -0.04956974 -0.08731094 0.033005707
0.071079485 -0.045629077 0.0126959095 -0.010702955 -0.004619859 -0.0070604514 -0.045968466 -0.07870752
-0.071987994 -0.024939585 -0.04709778 -0.030725723 -0.094306335 -0.0807784 -0.054235402 -0.08786691
-0.047482744 -0.035482083 -0.058694802 -0.06391141 -0.030243222 -0.059129916 -0.04525514 -0.074218
-0.067041084 -0.060476236 -0.056461517 -0.06591423 0.031417735 0.075771935 0.005136254 0.024073202
-0.025358325 -0.012340343 -0.0749263 -0.071875535 -0.04273249 -0.06002963 -0.028701628 -0.0544702
-0.0799151 -0.083945796 -0.07526397 -0.034581628 -0.030390121 -0.026848441 -0.09441825 -0.034868117
-0.028957708 -0.06373061 -0.07445364 -0.0877657 -0.052843682 -0.033202767 -0.034481995 -0.070758164
0.03807448 0.028264191 -0.012687279 0.022511683 -0.008088354 0.014802035 -0.058356103 -0.03555544
-0.02732836 -0.027319178 -0.04957345 -0.0839613 -0.069375776 -0.03030923 -0.058772452 -0.06591484
-0.06250933 -0.066051275 -0.047241144 -0.06741869 -0.029788861 -0.08902916 -0.028911378 -0.053145222
-0.054336436 -0.059577845 -0.09078459 -0.07346933 0.04660183 0.057241973 0.013286836 -0.020039164
-0.02187853 0.024605356 -0.08222547 0.030324625 -0.08658425 -0.0454279 -0.026735688 -0.0477682
-0.080073304 -0.05007021 -0.07940066 -0.09390949 -0.06493202 -0.058772944 -0.08394258 -0.03755506
-0.052515067 -0.03219314 -0.06200017 -0.076239936 -0.05700043 -0.066354886 -0.05070143 -0.07392147
0.048524722 0.042309616 -0.029105771 -0.016116168 -0.024160272 0.025888205 0.08442107 0.040255737
00000000: f810 00bd 0041 e1bb 5682 df3c ee52 8d3d
00000010: 6f5f c43b c95a c7ba 0d46 7f3d 8f3e bbbc
00000020: b3fe 43bd 2598 60bd 0f09 71bd 942b 93bd
00000030: bf3f f8bc f30b f1bc 94d7 5fbd c831 b5bd
00000040: eefc a4bd b54c 69bd 229b 92bd 6c52 aebd
00000050: f2e8 4dbd a769 61bd f7c6 99bd 5910 2f3d
00000060: b042 783c c638 fb3c 804f 6f3c 534d 00bd
00000070: 75d7 d9bc 92a2 03bd b211 afbd 98e6 8d3d
00000080: 1cc8 633d bda2 8fbd f2bb 2dbd b35a 9bbd
00000090: 13aa a9bd 85a8 72bd 62af c8bc 46a2 6cbd
000000a0: 393a dcbc f368 52bd f17b 52bd 26bb 20bd
000000b0: 43e1 61bd 3ae9 47bd 0d7d 1fbd 0767 bfbd
000000c0: 86ef 9fbd fcc9 203d 8451 723d 0e23 20bd
000000d0: f29a 5d3d a63f f13c b6dd e53c cea7 06bc
000000e0: b6ca bc3c 30f3 8bbb c7d1 b43c c0bf 493d
000000f0: 5723 e2bc ca7e 7b3d 0438 fabc 5c5a 95bd
00000100: de23 adbd eafd 2dbd 3724 b9bd ae1a 18bd
00000110: 0f0b 2ebd 8670 b4bd f4da 90bd 2bec 20bd
00000120: f18c 1abd 1840 bebd 6c73 72bd e3ed 01bd
00000130: 0664 3dbd 38ec 8cbd 0ce1 6e3d 697b 853d
00000140: 010f ffbc 5afd 7b3d 7882 f7bb 537a 01bd
00000150: 6285 dd3c d872 2c3c 3a27 c0bc 9592 253d
00000160: bc92 93bd 0b9b ecbc 2a33 dbbc 141d bebd
00000170: f455 8fbd 892d 9abd 4c68 52bd 853e d6bc
00000180: b28d 97bd d33e 1dbd 9e8d 2ebd 02c8 56bd
00000190: 700e 8bbd d87a 99bd 32e7 28bd 156d 05bd
000001a0: 9e8f 4dbd da72 08bd 5e8e 2cbd 2393 973d
000001b0: a325 963d 78ba 1d3b 1c71 88bc 90df 10bb
000001c0: 7208 e03c c658 68bc 0e97 02bd 00b0 8f39
000001d0: b620 153d 7387 bfbd 6af6 2cbd c8a7 63bd
000001e0: f7b5 9cbd 0aa9 61bd f9f7 bdbd 9b28 1abd
000001f0: e716 b1bd 4de4 13bd 2ebd bbbd 9cb6 3bbd
00000200: 7244 35bd ef38 b0bd f495 eebc ff70 2abd
00000210: a51d a9bd a409 4bbd 14d0 b2bd fe30 073d
00000220: 1f92 913d 8ee5 3abd 8102 503c 725b 2fbc
00000230: 3062 97bb 5c5b e7bb 6e49 3cbd 6931 a1bd
00000240: 716e 93bd 1a4e ccbc 9ae9 40bd 83b4 fbbc
00000250: ae23 c1bd 256f a5bd f125 5ebd 91f3 b3bd
00000260: 447d 42bd a955 11bd f669 70bd fce3 82bd
00000270: a2c0 f7bc 3632 72bd 745d 39bd 9bff 97bd
00000280: d64c 89bd eeb5 77bd 3144 67bd 0afe 86bd
00000290: e2af 003d 512e 9b3d 054e a83b 2a35 c53c
000002a0: 43bc cfbc 262f 4abc f672 99bd 7b33 93bd
000002b0: 4308 2fbd a1e1 75bd ad1f ebbc 251c 5fbd
000002c0: 87aa a3bd c6eb abbd ff23 9abd 77a5 0dbd
000002d0: b4f4 f8bc 43f1 dbbc 5b5e c1bd dfd1 0ebd
000002e0: b738 edbc 3285 82bd 267b 98bd 81be b3bd
000002f0: 9e72 58bd a0ff 07bd fe3c 0dbd a8e9 90bd
00000300: fcf3 1b3d 4e8a e73c 4ede 4fbc 6c6a b83c
00000310: 0485 04bc 3c84 723c cf06 6fbd 95a2 11bd
00000320: badf dfbc 78cc dfbc 880d 4bbd e7f3 abbd
00000330: e314 8ebd 104b f8bc 62bb 70bd 5cfe 86bd
00000340: e404 80bd e445 87bd ee7f 41bd cf12 8abd
00000350: c507 f4bc ec54 b6bd 8ed7 ecbc ceae 59bd
00000360: e28f 5ebd e607 74bd 45ed b9bd 1777 96bd
00000370: 8fe1 3e3d 8f76 6a3d 08b1 593c 2c29 a4bc
00000380: 9a3a b3bc 2c91 c93c d465 a8bd 596b f83c
00000390: 1553 b1bd 9b12 3abd cd04 dbbc 97a8 43bd
000003a0: 79fd a3bd 6c16 4dbd d09c a2bd 9e53 c0bd
000003b0: 14fb 84bd e6bb 70bd 16ea abbd 56d3 19bd
000003c0: 0a1a 57bd f4dc 03bd e4f3 7dbd af23 9cbd
000003d0: 4879 69bd 12e5 87bd 4dac 4fbd 2464 97bd
000003e0: dcc1 463d d94c 2d3d 3a6f eebc 0e06 84bc
000003f0: c3eb c5bc 8013 d43c f4e4 ac3d 33e3 243d

fc1.bias f4 [256]
-0.09021706 -0.06389868 -0.22019273 -0.09419737 -0.011514985 0.29605865 -0.037031446 -0.06968837
0.11942646 -0.04349631 0.22531627 0.12876411 -0.07464239 -0.058977243 -0.024578255 -0.06701087
-0.07212422 -0.06837692 0.3276573 0.33437133 -0.092471056 -0.07034791 0.027557688 -0.05133766
-0.040842056 0.19389327 0.030104142 0.08693358 -0.11751937 -0.051347565 0.59287226 -0.04113409
0.27881056 0.024218991 0.078025736 -0.041861255 -0.113838024 -0.24794537 -0.06745076 0.03416252
0.15950489 -0.04057327 0.13881525 -0.11209135 -0.066739075 -0.057832904 -0.033172537 -0.06694804
-0.069469415 -0.05139901 -0.056920152 -0.04526766 0.06988021 -0.043656953 -0.11312191 -0.004562744
-0.112647295 -0.3561895 -0.03752483 0.0422396 -0.04611331 -0.05354718 -0.049343366 -0.055192605
-0.17666323 0.07426667 0.018807035 -0.027114095 -0.1283548 0.08713268 0.16706742 -0.14268222
0.038205784 -0.03513989 -0.013640939 -0.03997144 -0.06819966 -0.018222475 -0.03708669 -0.08679432
0.24074802 0.03299606 0.19897161 -0.07698036 -0.082065254 -0.08998641 0.099414624 0.08312882
-0.0130191725 0.052839857 0.113489985 -0.04802212 -0.02424483 -0.03395628 -0.033204716 -0.23525588
-0.20812298 -0.07714459 -0.077382475 0.03213247 0.12349994 -0.03469505 -0.06976912 0.18436235
0.2378256 -0.020429892 0.05679161 -0.03163441 0.12472393 0.3701817 0.18779957 0.009706121
-0.06688545 -0.10756687 -0.08039693 -0.056282405 -0.10503575 -0.07450994 0.032424796 0.021331612
0.24861684 -0.0406523 -0.048994426 0.19664085 0.11355555 -0.07365885 0.18083051 -0.046129297
0.031370144 -0.29281434 -0.08583118 -0.08104507 -0.01799715 0.21048766 0.010150164 -0.046460364
-0.08875172 -0.008423608 -0.13525748 -0.08074941 -0.067174576 -0.048287503 -0.23957738 0.277944
-0.07300326 -0.0652329 -0.22884116 -0.0066396617 0.29217812 -0.037558727 -0.085230984 -0.035308197
0.26751018 -0.051956795 -0.025398642 0.07371055 -0.07329829 -0.033679653 -0.29229933 -0.09384158
-0.042189937 -0.04754778 0.08813495 -0.07524778 0.121314675 -0.086875305 -0.08200553 -0.092124574
-0.12602925 0.2692853 -0.07881662 0.15697856 -0.07226375 0.1345374 -0.06284314 -0.05719716
0.0015146112 -0.08392033 -0.025543114 -0.06928961 -0.074469775 -0.050662972 -0.07649308 -0.028202618
-0.08295059 0.15926826 0.40910226 -0.13528955 -0.16083686 0.11482319 0.12535608 0.25297055
-0.06399976 -0.045723636 0.05172377 -0.087597914 -0.057256166 -0.04964997 -0.04323638 -0.021556843
0.013605722 0.20796962 -0.07631616 -0.031901978 -0.08149189 0.15827227 -0.06401549 -0.08701403
-0.07054262 -0.20073786 -0.06785607 0.1475865 -0.10396302 0.2051363 -0.04431644 0.21290366
0.19859122 -0.052929427 -0.08797864 0.09058951 -0.05224181 0.40865126 0.10698257 -0.06450895
-0.06215274 0.04998614 0.2401896 0.28791445 0.059695195 -0.07410939 -0.051473565 -0.05510932
0.37326777 0.32782963 -0.009152241 -0.09435599 0.030947099 0.3951168 -0.063911326 -0.0417927
-0.031427853 0.05120357 0.07681365 -0.061186172 -0.028573295 -0.04648181 -0.054649215 -0.047549494
-0.087253764 -0.039304577 -0.030812148 -0.03534304 -0.4636816 -0.05790998 -0.07522721 -0.0725042
00000000: b9c3 b8bd 50dd 82bd 347a 61be 8dea c0bd
00000010: 59a9 3cbc 0095 973e 49ae 17bd c7b8 8ebd
00000020: dc95 f43d 3029 32bd 4fb9 663e bdda 033e
00000030: 1cde 98bd 1f92 71bd 5658 c9bc ff3c 89bd
00000040: ddb5 93bd 3309 8cbd b3c2 a73e b832 ab3e
00000050: 7761 bdbd 9112 90bd a9c0 e13c 7047 52bd
00000060: 004a 27bd f58b 463e f69c f63c 3c0a b23d
00000070: ffad f0bd d351 52bd 7ac6 173f 387c 28bd
00000080: 42c0 8e3e e866 c63c f5cb 9f3d b576 2bbd
00000090: e923 e9bd 64e5 7dbe a023 8abd 00ee 0b3d
000000a0: 4055 233e 2830 26bd 9625 0e3e 2690 e5bd
000000b0: 7fae 88bd 32e2 6cbd eddf 07bd 0e1c 89bd
000000c0: fb45 8ebd c587 52bd 1b25 69bd 956a 39bd
000000d0: 5b1d 8f3d a2d1 32bd 76ac e7bd 1283 95bb
000000e0: a0b3 e6bd 785e b6be a3b3 19bd 6e03 2d3d
000000f0: 4fe1 3cbd 4a54 5bbd 451c 4abd a411 62bd
00000100: 35e7 34be 2019 983d 3611 9a3c 611e debc
00000110: 716f 03be 9e72 b23d b913 2b3e 4a1b 12be
00000120: ab7d 1c3d d8ee 0fbd 3f7e 5fbc 18b9 23bd
00000130: 43ac 8bbd 4d47 95bc 37e8 17bd 38c1 b1bd
00000140: a686 763e e026 073d 37bf 4b3e e1a7 9dbd
00000150: d411 a8bd cc4a b8bd e599 cb3d 713f aa3d
00000160: 5e4e 55bc 9b6e 583d 706d e83d d8b2 44bd
00000170: 189d c6bc be15 0bbd ab01 08bd ebe6 70be
00000180: 311e 55be fcfd 9dbd b47a 9ebd 569d 033d
00000190: 89ed fc3d 661c 0ebd 1de3 8ebd 7cc9 3c3e
000001a0: 8e88 733e 975c a7bc 529e 683d 1593 01bd
000001b0: 436f ff3d 7588 bd3e 884e 403e 6c06 1f3c
000001c0: 3dfb 88bd 054c dcbd 25a7 a4bd 6188 66bd
000001d0: fc1c d7bd ab98 98bd ddcf 043d a2bf ae3c
000001e0: 6a95 7e3e 0783 26bd 61ae 48bd 385c 493e
000001f0: d08f e83d 73da 96bd a22b 393e 13f2 3cbd
00000200: fb7d 003d c3eb 95be 42c8 afbd f5fa a5bd
00000210: c26e 93bc 148a 573e e04c 263c 394d 3ebd
00000220: 76c3 b5bd 2c03 0abc f080 0abe f25f a5bd
00000230: d392 89bd 1ec9 45bd c653 75be ad4e 8e3e
00000240: bc82 95bd d498 85bd 5655 6abe 8591 d9bb
00000250: 5f98 953e 2ed7 19bd 958d aebd 549f 10bd
00000260: 18f7 883e a6d0 54bd d010 d0bc 8ff5 963d
00000270: 6a1d 96bd adf3 09bd 42a8 95be 0430 c0bd
00000280: 5bcf 2cbd 76c1 42bd 1980 b43d 821b 9abd
00000290: d473 f83d aeeb b1bd 84f2 a7bd cfab bcbd
000002a0: d00d 01be c3df 893e 9c6a a1bd fdbe 203e
000002b0: 04ff 93bd 2cc4 093e e7b3 80bd 9247 6abd
000002c0: eb85 c63a 6cde abbd cb3f d1bc b6e7 8dbd
000002d0: 9c83 98bd fa83 4fbd 67a8 9cbd 2d09 e7bc
000002e0: 00e2 a9bd 3817 233e da75 d13e 5889 0abe
000002f0: 6bb2 24be 6c28 eb3d 585d 003e 5b85 813e
00000300: 4e12 83bd b548 3bbd 4edc 533d 8966 b3bd
00000310: 7185 6abd c45d 4bbd a118 31bd fa97 b0bc
00000320: 89ea 5e3c fdf5 543e a64b 9cbd a6ab 02bd
00000330: 38e5 a6bd 2012 223e 8e1a 83bd 6934 b2bd
00000340: a678 90bd 3a8e 4dbe 20f8 8abd ea20 173e
00000350: 90ea d4bd 400f 523e 2885 35bd 6b03 5a3e
00000360: 7f5b 4b3e 87cc 58bd 252e b4bd fe86 b93d
00000370: 82fb 55bd bd3a d13e ad19 db3d 451d 84bd
00000380: df93 7ebd 44be 4c3d 43f4 753e 8669 933e
00000390: f382 743d aac6 97bd f2d5 52bd 4fba 61bd
000003a0: f41c bf3e 49d9 a73e 48f3 15bc b73d c1bd
000003b0: c584 fd3c c04c ca3e f1e3 82bd d22e 2bbd
000003c0: 7eba 00bd d6ba 513d 7a50 9d3d 5a9e 7abd
000003d0: 8b12 eabc b663 3ebd dbd7 5fbd 42c3 42bd
000003e0: 1ab2 b2bd d6fd 20bd c269 fcbc ddc3 10bd
000003f0: ad67 edbe 0433 6dbd b910 9abd 157d 94bd

fc2.weight f4 [128, 256]
0.0059285094 0.1505967 -0.022911606 0.062555484 0.065349996 -0.023743844 0.054116502 0.06404419
-0.017590877 0.0075991647 -0.027344948 0.012545013 0.033423092 0.08726777 0.029355368 0.023155503
0.10821155 -0.08400082 -0.0635047 0.00611205 0.01251496 -0.0046940967 -0.047318902 -0.06803055
-0.035835207 -0.03320372 -0.014204101 0.01891906 -0.017464558 -0.031152662 0.0019799485 -0.062197
-0.043412384 0.052421313 -0.02668799 0.0810901 -0.013080415 0.006562436 0.031077374 0.1254287
-0.058455564 -0.0069355597 0.013305303 -0.07409792 0.0583463 0.055811975 0.021426639 0.12208934
0.104522295 -0.00325274 0.086906075 -0.011453642 -0.12591547 0.044861116 -0.12092126 -0.03607692
0.04220834 -0.010481792 -0.0028603896 -0.036798954 0.031055704 0.10335246 -0.07587584 0.0995299
-0.09366426 -0.06953694 -0.04100271 0.019567093 -0.05481151 -0.03162509 0.11814936 0.15164745
-0.04470092 -0.054694604 0.078454085 0.0064324187 0.10822517 0.055508815 0.103588 0.029084342
-0.3400941 -0.05549752 0.018793518 -0.053942323 0.059717923 0.021730624 -0.115629464 0.039801817
0.20606221 0.0015777404 -0.110732906 0.10630711 0.045300193 0.025422432 0.0468605 0.08596638
0.06999217 0.11073989 -0.11361277 -0.094341844 -0.06988379 0.059266277 -0.1534549 -0.08708354
-0.001532981 -0.030390514 -0.061695717 0.26760784 -0.045270387 0.019349355 -0.18278682 0.010482925
0.061302613 0.10546072 -0.023180097 0.004138647 -0.06391329 0.12090294 -0.07667365 -0.066089444
0.08555845 0.14799172 0.029040394 0.07088546 -0.00688877 0.060299266 -0.020126117 0.046994116
0.035900112 0.06278434 0.017244877 0.040933914 -0.013818183 -0.018886652 0.083537094 0.07282706
0.0905723 0.061119977 -0.07650027 0.02390405 -0.05485163 -0.057554185 -0.1306883 0.08312311
-0.014611832 0.045400545 -0.104890585 0.04207193 -0.015224996 0.053866025 0.0025595617 0.023401663
-0.10245106 0.048082933 -0.10135641 0.05632866 -0.024774447 0.06375349 0.012226711 0.008962635
-0.061089896 0.045869697 -0.10842645 0.08649963 0.012211079 0.0012470849 -0.12115376 -0.002140825
0.0061884252 -0.18365602 -0.036938198 0.04713899 0.0040584784 0.060003147 0.028570987 -0.043475233
-0.06933066 -0.012918534 0.05944865 0.046750415 -0.0031583235 0.03156713 -0.059148982 -0.16580905
0.02790845 -0.02092357 -0.12720132 0.2886753 0.26417735 0.022303965 -0.08534262 0.036268257
-0.10026025 0.05327076 0.0003024763 0.1134867 0.10617555 0.022072075 0.032872893 -0.0654682
-0.06394908 -0.14952756 -0.02677209 0.0018232713 0.043560028 -0.036184996 -0.05567301 -0.044386167
-0.04664539 -0.18407017 -0.045238584 0.09327154 -0.03426885 0.18496707 -0.051619053 -0.12131518
0.061554328 -0.101351455 -0.09405344 -0.007792797 0.08052839 0.057103816 -0.11895457 0.0022732434
-0.10218679 0.056511037 -0.07662478 -0.021807158 0.102616616 0.0020207146 -0.0338073 0.0702526
-0.038115837 -0.123952806 -0.045084324 -0.053435013 -0.103294045 0.16575503 -0.0050079306 -0.04373432
0.07386523 -0.1964604 -0.038703863 -0.048182193 -0.10238595 0.08160146 -0.09755585 0.120463565
-0.014023293 0.025079824 -0.011515332 0.05839572 -0.07378559 -0.049482346 0.011314431 0.085308604
00000000: f143 c23b 0536 1a3e 1fb1 bbbc 171d 803d
00000010: 38d6 853d 7382 c2bc 44a9 5d3d 9a29 833d
00000020: be1a 90bc 6a02 f93b 8302 e0bc 9989 4d3c
00000030: a7e6 083d 72b9 b23d ab7a f03c 9cb0 bd3c
00000040: 049e dd3d 9f08 acbd c10e 82bd 9747 c83b
00000050: 8c0b 4d3c f0d0 99bb 77d1 41bd 9a53 8bbd
00000060: f0c7 12bd a000 08bd 51b8 68bc 25fc 9a3c
00000070: d511 8fbc de33 ffbc 06c2 013b 48c2 7ebd
00000080: 2fd1 31bd bbb7 563d c6a0 dabc 9112 a63d
00000090: 3d4f 56bc b409 d73b fa95 fe3c 6270 003e
000000a0: 1a6f 6fbd b143 e3bb 7cfe 593c a6c0 97bd
000000b0: 88fc 6e3d 199b 643d eb86 af3c fa09 fa3d
000000c0: c90f d63d ec2b 55bb d0fb b13d 0ea8 3bbc
000000d0: fcef 00be 4ac0 373d 91a5 f7bd 64c5 13bd
000000e0: a7e2 2c3d d2bb 2bbc 6075 3bbb 80ba 16bd
000000f0: 8868 fe3c 74aa d33d cb64 9bbd 55d6 cb3d
00000100: 0cd3 bfbd 6269 8ebd 75f2 27bd 2b4b a03c
00000110: 0982 60bd 4f89 01bd 4bf8 f13d 7849 1b3e
00000120: 5018 37bd 7307 60bd 89ac a03d 0ac7 d23b
00000130: 28a5 dd3d 365d 633d f225 d43d 4942 ee3c
00000140: d020 aebe 5e51 63bd ddf4 993c a0f2 5cbd
00000150: c89a 743d 6c04 b23c 24cf ecbd 3b07 233d
00000160: f901 533e 2fcc ce3a efc7 e2bd 8bb7 d93d
00000170: b28c 393d b442 d03c ccf0 3f3d 240f b03d
00000180: 0e58 8f3d 98cb e23d d0ad e8bd 4c36 c1bd
00000190: 3c1f 8fbd 32c1 723d 4823 1dbe db58 b2bd
000001a0: 4fee c8ba 87f5 f8bc a6b4 7cbd e503 893e
000001b0: 716d 39bd 8a82 9e3c 782c 3bbe 93c0 2b3c
000001c0: 7318 7b3d cafb d73d 30e4 bdbc 7d9d 873b
000001d0: f9e4 82bd f69b f73d 1307 9dbd e759 87bd
000001e0: 4539 af3d 248b 173e 1fe6 ed3c 652c 913d
000001f0: 31bb e1bb 5dfc 763d 87df a4bc e77c 403d
00000200: ff0b 133d 1395 803d 2145 8d3c 52aa 273d
00000210: a965 62bc 2eb8 9abc 7f15 ab3d 5b26 953d
00000220: f87d b93d f158 7a3d 2cac 9cbd 6dd2 c33c
00000230: 1aac 60bd f0bd 6bbd 27d3 05be 733c aa3d
00000240: 7766 6fbc ecf5 393d e0d0 d6bd 9e53 2c3d
00000250: 4372 79bc 9fa2 5c3d 52be 273b d8b4 bf3c
00000260: ddd1 d1bd 9cf2 443d f393 cfbd e2b8 663d
00000270: c8f3 cabc 3191 823d 8b52 483c 04d8 123c
00000280: 6639 7abd dde1 3b3d b00e debd b826 b13d
00000290: fa10 483c 3a75 a33a 761f f8bd 154d 0cbb
000002a0: 46c8 ca3b 5310 3cbe 824c 17bd d014 413d
000002b0: fcfc 843b dcc5 753d b40d ea3c 1613 32bd
000002c0: 3cfd 8dbd 42a8 53bc 6d80 733d 5d7d 3f3d
000002d0: e0fb 4ebb 894c 013d 3446 72bd d9c9 29be
000002e0: 43a0 e43c e867 abbc 1041 02be 40cd 933e
000002f0: 4142 873e ceb6 b63c 1dc8 aebd 068e 143d
00000300: 3f55 cdbd 7132 5a3d af95 9e39 b76b e83d
00000310: 9172 d93d 7fd0 b43c baa5 063d 3114 86bd
00000320: bcf7 82bd c11d 19be 2451 dbbc d5fa ee3a
00000330: 006c 323d b836 14bd 6209 64bd 45ce 35bd
00000340: 3d0f 3fbd e47c 3cbe 184c 39bd 2605 bf3d
00000350: 7e5d 0cbd 0268 3d3e 806e 53bd 1874 f8bd
00000360: 6420 7c3d 5a91 cfbd 179f c0bd b85a ffbb
00000370: 12ec a43d b1e5 693d 749e f3bd b2fa 143b
00000380: 4f47 d1bd 1e78 673d 74ed 9cbd eda4 b2bc
00000390: a928 d23d f76d 043b 8679 0abd 98e0 8f3d
000003a0: 5a1f 1cbd f8da fdbd 57aa 38bd acde 5abd
000003b0: d48b d3bd b0bb 293e 9119 a4bb c222 33bd
000003c0: a746 973d ea2c 49be f187 1ebd b15a 45bd
000003d0: baaf d1bd ab1e a73d 5dcb c7bd 9ab5 f63d
000003e0: f4c1 65bc 3474 cd3c ceaa 3cbc 5a30 6f3d
000003f0: e61c 97bd 00ae 4abd 2a60 393c 47b6 ae3d

fc2.bias f4 [128]
0.12658547 0.08814616 0.1514002 -0.09952793 -0.00200092 0.14303994 -0.013923205 -0.07864301
-0.12024597 0.25038683 -0.058347434 0.3236737 -0.036811043 -0.049368724 -0.08810624 0.27450752
-0.2408939 -0.2423419 -0.07013375 -0.03326616 0.021230265 0.33978528 0.31750336 -0.091815494
0.06316831 -0.11461255 0.022861795 0.3995854 -0.08145676 -0.009360148 0.42705956 0.090712234
0.00995614 -0.06760399 -0.19547166 -0.140013 0.007674545 -0.054119248 -0.077738665 0.08998722
-0.20845619 0.03382061 -0.021356028 0.003929215 0.1273004 0.25366026 -0.038799394 0.48172712
-0.14354846 -0.12795752 0.0015310249 0.08363492 0.36999142 0.13144608 0.12110452 -0.4776359
-0.030953476 -0.073438466 -0.20012523 -0.20438476 -0.07788006 -0.022288017 -0.11542775 -0.118600205
-0.36737055 0.11485841 0.04131526 -0.08379348 0.1283112 0.019679306 -0.119481854 -0.17768861
0.25129008 -0.075285345 0.0879886 0.11284971 -0.0019601167 0.18190628 0.27900407 -0.10510486
-0.036225572 -0.071698494 0.08784654 -0.10051395 0.13085867 0.065771975 0.17664072 -0.13601018
-0.11896472 -0.10667485 -0.03632226 -0.12573484 -0.16149244 -0.013612587 -0.20074257 0.13348031
-0.22398734 0.22252505 0.0150760235 -0.15290146 -0.05970197 -0.016611397 0.08712738 0.268561
-0.111001074 0.1631185 -0.03828033 -0.06902048 -0.10994005 0.16821437 0.018099777 0.19559379
0.20405135 0.25536 0.046900615 -0.058252674 0.025527999 -0.06502043 0.11375871 0.05396514
-0.041357804 0.01683793 -0.158138 0.08793505 -0.12109701 0.11750512 0.25271502 -0.06949047
00000000: 9f9f 013e f985 b43d a708 1b3e 4dd5 cbbd
00000010: de21 03bb 1079 123e 281e 64bc 960f a1bd
00000020: 8543 f6bd b432 803e b8fd 6ebd 8fb8 a53e
00000030: 2dc7 16bd dc36 4abd 0b71 b4bd 408c 8c3e
00000040: e4ac 76be 7a28 78be 49a2 8fbd 1942 08bd
00000050: 18eb ad3c 56f8 ad3e cd8f a23e c309 bcbd
00000060: 635e 813d fcb9 eabd a948 bb3c 7596 cc3e
00000070: cdd2 a6bd 4e5b 19bc 8da7 da3e 56c7 b93d
00000080: 141f 233c f673 8abd b929 48be 915f 0fbe
00000090: c07a fb3b 25ac 5dbd 7335 9fbd 384b b83d
000000a0: 8a75 55be 7b87 0a3d d6f2 aebc a5c0 803b
000000b0: 095b 023e c2df 813e 1dec 1ebd f0a4 f63e
000000c0: 5efe 12be 4c07 03be acac c83a c948 ab3d
000000d0: 846f bd3e cd99 063e a605 f83d b18c f4be
000000e0: 2592 fdbc e866 96bd a1ed 4cbe 3d4a 51be
000000f0: 957f 9fbd 5c95 b6bc 6265 ecbd aae4 f2bd
00000100: fe17 bcbe e33a eb3d 313a 293d eb9b abbd
00000110: 0364 033e 7f36 a13c e7b2 f4bd 01f4 35be
00000120: 18a9 803e 342f 9abd 5e33 b43d c01d e73d
00000130: 4d75 00bb a445 3a3e 9fd9 8e3e 3841 d7bd
00000140: 4461 14bd a9d6 92bd e3e8 b33d 42da cdbd
00000150: d1ff 053e 75b3 863d 4ee1 343e 4146 0bbe
00000160: c6a3 f3bd 5878 dabd a6c6 14bd a2c0 00be
00000170: 465e 25be 5407 5fbc 768f 4dbe 10af 083e
00000180: f05c 65be 9bdd 633e 6d01 773c 3392 1cbe
00000190: 0e8a 74bd a014 88bc d76f b23d d480 893e
000001a0: 8854 e3bd 8908 273e d6cb 1cbd 9c5a 8dbd
000001b0: 4028 e1bd 6340 2c3e fc45 943c bd49 483e
000001c0: d6f2 503e 8cbe 823e dc1a 403d 5b9a 6ebd
000001d0: 1820 d13c 6e29 85bd 54fa e83d 8d0a 5d3d
000001e0: cd66 29bd b3ef 893c eeee 21be 4b17 b43d
000001f0: b601 f8bd 86a6 f03d dd63 813e 0551 8ebd

fc3.weight f4 [64, 128]
0.07729561 0.0003796386 -0.030139517 0.06806304 -0.06288391 -0.060407855 0.006750375 0.025462663
-0.043435477 0.051258136 0.11642534 0.09384753 -0.06491994 0.063610025 -0.03637228 0.03095798
-0.035050634 -0.037445534 -0.017174631 -0.0067705913 -0.14419238 0.038501132 0.042942174 -0.045724314
-0.006721239 -0.11681806 -0.011519144 0.0049816207 -0.029308263 -0.04646266 0.00131221 -0.15455943
0.026627505 -0.121722385 0.085608505 -0.05815715 -0.0063828295 -0.108648516 -0.07861249 -0.025725015
-0.102107905 -0.13596362 -0.027044436 0.028520193 0.021566039 -0.02841263 -0.14081262 0.07691891
-0.06274655 -0.12282364 -0.09755584 -0.09218006 -0.112399556 -0.009488644 -0.0104581425 -0.09609516
-0.10711572 -0.018050924 -0.13100076 -0.0018318662 0.07383194 -0.034138646 -0.1321413 -0.07744961
-0.11553504 -0.0495851 0.0364693 -0.113550305 -0.16835375 0.17742597 -0.0986309 -0.09177964
-0.007097522 -0.08118843 0.15357809 -0.0647553 0.013811916 -0.02873501 0.049831484 0.009571775
0.023599753 0.12374679 -0.09454262 0.009348132 -0.029795295 -0.0025277997 -0.061756138 0.017694432
-0.041771732 -0.001700595 -0.07529965 0.06142465 0.13306692 0.08722765 -0.12651691 -0.1329318
-0.07225141 -0.03909512 -0.053256307 -0.06553928 -0.01513945 -0.04485945 -0.026247406 -0.1439831
-0.0888943 -0.033836316 -0.100319475 -0.06466966 -0.14054203 -0.057618752 0.008658974 0.10841573
-0.041296538 -0.046284195 -0.021987738 -0.04958628 -0.12031166 0.13512358 -0.035888236 -0.08626656
-0.08244872 -0.08486033 -0.039713863 0.045659617 -0.09125967 -0.08683492 -0.15436216 -0.08645021
0.08718767 -0.05911064 -0.017061587 -0.023235671 -0.034233447 0.058541197 -0.036561064 0.060834292
0.011496069 -0.009643404 0.15258086 -0.08325949 -0.16991834 -0.07008491 -0.024216343 -0.05812281
0.09073062 0.14264153 -0.025933687 -0.08718945 0.077678554 -0.0534946 -0.1619171 -0.074630536
0.120714255 0.011067378 0.06898318 0.0027287994 -0.09430885 0.05886865 -0.06616628 -0.0561837
0.042303808 -0.012869245 0.079687424 -0.120002784 -0.05507317 0.03252582 0.0012534506 0.05200005
0.038555425 0.09876778 -0.002423545 0.049190737 -0.022670219 0.0003546177 0.08579357 -0.14132756
-0.026058711 0.12688003 0.119262286 0.14318906 0.013124221 -0.037840575 -0.0018735268 0.03831827
0.15404958 -0.07458901 -0.10208919 0.0119148325 -0.059973594 -0.00912576 -0.033443872 0.16397393
0.13711718 -0.117359616 0.07482821 0.12987421 0.06094582 0.012535219 0.06308461 0.009637791
0.028330594 0.021677326 0.1587504 -0.099051856 -0.010061475 -0.18074514 0.08296092 0.036704496
-0.119644105 0.13380219 -0.018948931 0.021287458 0.052865602 0.061557706 -0.04815928 -0.010125134
-0.033257738 -0.03157198 0.13153942 -0.06936042 -0.048315413 0.028914586 0.07037717 -0.011673927
0.01500522 -0.09756329 0.047651805 0.047016934 0.13364662 -0.06251647 -0.09324779 -0.11743944
-0.0225696 0.01990676 0.13298507 0.04285025 0.027348213 0.07985401 -0.052066404 -0.072671905
-0.016645532 -0.030409222 -0.057627168 0.008788436 0.102356784 -0.10079849 -0.03006957 0.1225659
-0.033571355 -0.02523732 0.083289824 -0.0028013776 0.103507385 -0.07932989 -0.14956366 0.026110435
00000000: 294d 9e3d 3b0a c739 26e7 f6bc a364 8b3d
00000010: 48c9 80bd 3a6e 77bd 4032 dd3b 1397 d03c
00000020: 66e9 31bd 0df4 513d 6970 ee3d 2233 c03d
00000030: bff4 84bd f945 823d 1afb 14bd 979b fd3c
00000040: 4191 0fbd 7d60 19bd d0b1 8cbc d6db ddbb
00000050: 2ba7 13be 5db3 1d3d 22e4 2f3d 6b49 3bbd
00000060: d73d dcbb 4f3e efbd cbba 3cbc dd3c a33b
00000070: e217 f0bc a14f 3ebd 76fe ab3a d444 1ebe
00000080: ed21 da3c 9649 f9bd 8353 af3d 3136 6ebd
00000090: 0e27 d1bb 1d83 debd 96ff a0bd 44bd d2bc
000000a0: f31d d1bd 0c3a 0bbe 4b8c ddbc 2ea3 e93c
000000b0: 43ab b03c 9bc1 e8bc 2f31 10be a987 9d3d
000000c0: 4381 80bd f68a fbbd 5bcb c7bd e6c8 bcbd
000000d0: bd31 e6bd 4276 1bbc a158 2bbc 8acd c4bd
000000e0: 7d5f dbbd 88df 93bc 1025 06be 3b1b f0ba
000000f0: 3335 973d f7d4 0bbd 0d50 07be e79d 9ebd
00000100: a39d ecbd bf19 4bbd d560 153d 108d e8bd
00000110: ed64 2cbe 27af 353e fffe c9bd f7f6 bbbd
00000120: 5492 e8bb 1f46 a6bd 9343 1d3e 6d9e 84bd
00000130: 604b 623c af65 ebbc 191c 4c3d efd2 1c3c
00000140: 4554 c13c f56e fd3d 909f c1bd e828 193c
00000150: 4315 f4bc 71a9 25bb 01f4 7cbd eaf3 903c
00000160: d618 2bbd 80e6 deba b436 9abd 6a98 7b3d
00000170: b242 083e 69a4 b23d a68d 01be 461f 08be
00000180: 8cf8 93bd 3422 20bd 4923 5abd 7539 86bd
00000190: 750b 78bc 8bbe 37bd cd04 d7bc 4e70 13be
000001a0: 370e b6bd f397 0abd 4c74 cdbd 8771 84bd
000001b0: 40ea 0fbe a401 6cbd 5fde 0d3c 1109 de3d
000001c0: 8f26 29bd 7f94 3dbd a11f b4bc fc1a 4bbd
000001d0: f665 f6bd d65d 0a3e 8bff 12bd 86ac b0bd
000001e0: e0da a8bd 41cb adbd 01ab 22bd 9405 3b3d
000001f0: 5ae6 babd 82d6 b1bd 1d11 1ebe cf0c b1bd
00000200: 738f b23d 001e 72bd bec4 8bbc bc58 bebc
00000210: 5f38 0cbd e5c8 6f3d 0ec1 15bd 612d 793d
00000220: 025a 3c3c 5eff 1dbc 283e 1c3e f483 aabd
00000230: 13ff 2dbe ad88 8fbd 5a61 c6bc 2f12 6ebd
00000240: fad0 b93d 9f10 123e e272 d4bc 6290 b2bd
00000250: ef15 9f3d 271d 5bbd 99cd 25be e5d7 98bd
00000260: 0939 f73d f353 353c 0e47 8d3d a8d5 323b
00000270: 0025 c1bd 4120 713d 3082 87bd e120 66bd
00000280: c246 2d3d 87d9 52bc 2933 a33d 05c4 f5bd
00000290: 6894 61bd cb39 053d d34a a43a 01fe 543d
000002a0: 4bec 1d3d c346 ca3d 57d4 1ebb 3a7c 493d
000002b0: e5b6 b9bc fbeb b939 8ab4 af3d 2cb8 10be
000002c0: 1479 d5bc d7ec 013e c93f f43d 27a0 123e
000002d0: f906 573c b8fe 1abd 2191 f5ba 9ef3 1c3d
000002e0: 2cbf 1d3e 1fc2 98bd 2314 d1bd 6e36 433c
000002f0: dfa6 75bd 3684 15bc 71fc 08bd c8e8 273e
00000300: 7268 0c3e 3d5a f0bd 883f 993d bffd 043e
00000310: 53a2 793d 8560 4d3c 8132 813d d3e7 1d3c
00000320: 9015 e83c a694 b13c 778f 223e b3db cabd
00000330: e3d8 24bc 4115 39be 6ae7 a93d 7457 163d
00000340: f807 f5bd 7103 093e ca3a 9bbc 0963 ae3c
00000350: 9a89 583d ef23 7c3d aa42 45bd e4e3 25bc
00000360: 4439 08bd 9f51 01bd 45b2 063e d60c 8ebd
00000370: 62e6 45bd 48de ec3c e821 903d 0044 3fbc
00000380: 74d8 753c 43cf c7bd 8a2e 433d d494 403d
00000390: a9da 083e a308 80bd b3f8 bebd 1784 f0bd
000003a0: e2e3 b8bc 8013 a33c 3d2d 083e be83 2f3d
000003b0: 5c09 e03c 808a a33d 9543 55bd 02d5 94bd
000003c0: 365c 88bc c31c f9bc 770a 6cbd 5ffd 0f3c
000003d0: 6fa0 d13d 706f cebd 7554 f6bc d503 fb3d
000003e0: 1e82 09bd 7fbe cebc db93 aa3d 5197 37bb
000003f0: aefb d33d b677 a2bd 3727 19be 8de5 d53c

fc3.bias f4 [64]
-0.06647093 -0.111920744 0.14989704 0.062278792 0.13357662 -0.04123318 0.041616276 -0.075484976
-0.05134079 0.09125409 -0.011436501 -0.017268872 0.39426777 0.31197664 -0.112218365 0.3315892
-0.060253438 0.28547415 -0.1090841 -0.10972308 -0.18445562 -0.109349936 -0.1978704 0.04789446
-0.0008129056 0.10553956 0.35941565 0.059611548 -0.023107883 -0.11763791 0.34262213 -0.08104385
-0.026961353 -0.07673451 0.12707478 0.07261052 -0.033672776 0.078442715 0.123214714 0.3908359
0.087883 -0.08921151 -0.092772745 -0.13762875 -0.05909662 -0.081444465 0.062131707 0.0118455775
-0.21168654 -0.034162443 0.19706273 0.16195929 -0.021470806 0.1827845 -0.037137277 0.022801597
-0.051507425 -0.008664463 -0.097138986 -0.0059523983 0.049416017 -0.09285009 0.21732593 -0.29837748
00000000: e921 88bd b436 e5bd 9c7e 193e 0c18 7f3d
00000010: 4fc8 083e 1fe4 28bd d475 2a3d de97 9abd
00000020: b84a 52bd 6de3 ba3d 2960 3bbc 7377 8dbc
00000030: 77dd c93e 67bb 9f3e bed2 e5bd 0fc6 a93e
00000040: 4fcc 76bd ab29 923e 7c67 dfbd 7fb6 e0bd
00000050: efe1 3cbe dcf2 dfbd 8a9e 4abe fb2c 443d
00000060: 2c19 55ba 2025 d83d 5405 b83e 3d2b 743d
00000070: be4c bdbc 25ec f0bd 2b6c af3e 51fa a5bd
00000080: 0ede dcbc fc26 9dbd e41f 023e d3b4 943d
00000090: 77ec 09bd 93a6 a03d ff57 fc3d a51b c83e
000000a0: 01fc b33d 86b4 b6bd a3ff bdbd 8dee 0cbe
000000b0: 4c0f 72bd 5bcc a6bd d17d 7e3d f413 423c
000000c0: 5bc4 58be ebed 0bbd d0ca 493e a8d8 253e
000000d0: 8be3 afbc dc2b 3b3e 421d 18bd 6aca ba3c
000000e0: 73f9 52bd 64f5 0dbc cef0 c6bd 560c c3bb
000000f0: 7368 4a3d 3028 bebd b08a 5e3e efc4 98be

fc4.weight f4 [10, 64]
0.024290515 -0.1289172 -0.0036549268 -0.21827531 0.012797629 -0.12627025 0.1034029 -0.029880289
0.048710257 0.18434751 0.00052620185 -0.02483263 0.10140323 -0.5662573 0.014941891 0.10196762
-0.01889932 -0.06324019 -0.018237256 0.03962875 0.012334998 -0.13197492 -0.19724122 -0.023425564
0.023578899 0.13729829 0.08608433 -0.003003502 0.045693055 -0.073870026 0.07083154 -0.09429725
0.013296809 -0.12686634 -0.07867309 0.021943804 0.141563 0.172979 0.13356625 -0.047011994
-0.25014436 -0.039999805 -0.06454621 0.06887602 0.04040187 -0.0466957 -0.009727551 -0.02027122
-0.0021731155 -0.001425794 0.1306891 -0.15150747 0.06620807 0.027114544 -0.027672416 0.12904279
-0.09109204 -0.12554939 -0.11851352 -0.13159065 -0.07919769 -0.07831838 -0.033901226 -0.09420772
-0.06720043 0.07195285 -0.23976363 0.06909532 0.055365194 -0.14491121 0.12678565 0.07459472
-0.17117667 0.062455896 0.11675645 0.08318981 -0.08895854 -0.4920962 -0.013960428 0.015024931
-0.053027656 -0.19947141 0.039708357 -0.021571713 -0.04176596 -0.1129429 0.21565467 -0.1669942
-0.030970495 -0.118202366 -0.10144262 0.12263266 -0.12820311 0.0699728 0.013818023 0.031868327
0.02972088 -0.27441782 0.1840399 -0.0770687 -0.0051581734 -0.029482158 0.1298566 -0.14463085
-0.13655074 -0.10336221 0.022577597 -0.025703039 0.17284477 -0.0670737 0.08776338 0.22111425
-0.047948506 0.17059882 -0.01934863 -0.09312475 -0.053496096 -0.14056975 -0.074665785 -0.01875077
0.11113016 0.019505732 -0.04545047 -0.20943777 0.1071274 -0.12968405 -0.07461109 -0.17901301
-0.036546282 -0.10733221 -0.26372206 -0.10644488 0.06038961 0.08495573 -0.01377638 -0.0050722556
0.06390917 -0.27850425 -0.0273346 0.045994423 -0.1611252 -0.36566907 -0.11807477 0.113671586
0.039653294 -0.06868491 0.04674345 -0.0020619112 -0.32280633 -0.15317973 -0.26816815 -0.03315507
0.06173091 0.0682326 -0.12663871 -0.11152069 -0.20763534 -0.05499781 0.06234968 -0.1554311
-0.0775123 -0.09476675 -0.137208 0.20313168 0.10278642 0.06954904 -0.14245167 -0.040092506
-0.02289501 0.11866293 0.12447407 -0.04032668 0.027067035 -0.031953037 0.15990247 -0.15201849
0.07523543 0.09568951 0.12148226 0.12021617 0.007947924 0.04573753 -0.16535583 0.13574377
0.012449714 0.116277725 -0.0037666052 0.117370546 -0.03483836 -0.0310121 0.15307657 -0.038270522
-0.078599945 -0.046511892 -0.052158944 -0.091393515 -0.10498203 -0.06726118 0.15824379 -0.10837669
-0.1841333 0.10931138 0.025872838 -0.021919793 0.0369318 -0.121111065 0.022429256 0.10188364
-0.029570319 -0.029029986 -0.15914848 0.050230578 -0.068453096 -0.010166444 0.05892863 0.04338167
0.034072522 -0.14430068 -0.2649205 0.08052771 -0.14682017 -0.015828833 0.11491193 -0.21754862
-0.05111599 -0.076765664 0.11163815 -0.11906048 0.16459782 0.00923819 0.07460617 -0.22088233
-0.36874098 -0.066464774 0.03056468 -0.17644931 0.05507118 0.16581444 -0.05900031 -0.08903755
-0.00708947 -0.19289643 0.13124813 0.12231812 -0.07374474 -0.23435159 -0.1668112 -0.121362075
-0.053870566 -0.062167794 -0.033995714 -0.029759951 0.042176243 -0.1667652 0.12627825 -0.07529718
00000000: e7fc c63c df02 04be 7f87 6fbb 9083 5fbe
00000010: 26ad 513c fd4c 01be e6c4 d33d 82c7 f4bc
00000020: 6884 473d 98c5 3c3e cff0 093a cd6d cbbc
00000030: 7fac cf3d 3df6 10bf d5ce 743c 66d4 d03d
00000040: bfd2 9abc 1384 81bd 4c66 95bc c251 223d
00000050: bb18 4a3c 6f24 07be 9af9 49be f8e6 bfbc
00000060: 8928 c13c ec97 0c3e fb4c b03d 67d6 44bb
00000070: a428 3b3d 2b49 97bd 2010 913d eb1e c1bd
00000080: dcda 593c 40e9 01be 5b1f a1bd 7ec3 b33c
00000090: e4f5 103e 6821 313e 97c5 083e a68f 40bd
000000a0: ec12 80be d6d6 23bd ce30 84bd df0e 8d3d
000000b0: 6e7c 253d fe43 3fbd 4e60 1fbc d40f a6bc
000000c0: d46a 0ebb b5e1 baba 5dd3 053e c624 1bbe
000000d0: 1998 873d 521f de3c 43b1 e2bc cb23 043e
000000e0: 778e babd 0590 00be 37b7 f2bd b3bf 06be
000000f0: 6632 a2bd 6365 a0bd 03dc 0abd faef c0bd
00000100: 61a0 89bd 045c 933d 9984 75be d981 8d3d
00000110: 9dc6 623d 9b63 14be 19d4 013e 1ec5 983d
00000120: f048 2fbe c1d1 7f3d 011e ef3d 6b5f aa3d
00000130: e52f b6bd 08f4 fbbe 47ba 64bc 212b 763c
00000140: 8733 59bd 3c42 4cbe 3ba5 223d 29b7 b0bc
00000150: c912 2bbd 9b4e e7bd 94d4 5c3e 8700 2bbe
00000160: d6b5 fdbc 1514 f2bd 26c1 cfbd d526 fb3d
00000170: ad47 03be e64d 8f3d fd64 623c 5d88 023d
00000180: 3479 f33c 7e80 8cbe f574 3c3e 32d6 9dbd
00000190: e505 a9bb 9184 f1bc 21f9 043e 1c1a 14be
000001a0: f5d3 0bbe 91af d3bd a7f4 b83c 2e8f d2bc
000001b0: 38fe 303e f05d 89bd 49bd b33d c66b 623e
000001c0: a765 44bd 75b1 2e3e 0581 9ebc 30b8 bebd
000001d0: b91e 5bbd 84f1 0fbe 60ea 98bd 379b 99bc
000001e0: 3698 e33d 7cca 9f3c 462a 3abd db76 56be
000001f0: 9c65 db3d e5cb 04be b3cd 98bd 304f 37be
00000200: 8eb1 15bd fdd0 dbbd 9406 87be c6ff d9bd
00000210: 185b 773d 45fd ad3d 53b6 61bc 2a35 a6bb
00000220: d0e2 823d 1c98 8ebe d0ec dfbc a664 3c3d
00000230: 01fe 24be fa38 bbbe 2fd1 f1bd a6cc e83d
00000240: 7e6b 223d adaa 8cbd 0f76 3f3d 2121 07bb
00000250: df46 a5be 26db 1cbe 564d 89be 9ccd 07bd
00000260: 8dd9 7c3d 89bd 8b3d 94ad 01be f664 e4bd
00000270: 5c9e 54be 6245 61bd 6162 7f3d 5529 1fbe
00000280: c5be 9ebd 1215 c2bd 4180 0cbe c001 503e
00000290: b081 d23d ba6f 8e3d dade 11be 0a38 24bd
000002a0: 518e bbbc 8d05 f33d 43ec fe3d 972d 25bd
000002b0: b0bb dd3c 30e1 02bd 79bd 233e bcaa 1bbe
000002c0: 0815 9a3d ddf8 c33d b1cb f83d e533 f63d
000002d0: 0238 023c 4757 3b3d 0a53 29be 6a00 0b3e
000002e0: e3f9 4b3c 0423 ee3d 26d9 76bb f85f f03d
000002f0: abb2 0ebd 160d febc 1bc0 1c3e 8dc1 1cbd
00000300: 02f9 a0bd 4183 3ebd 9ea4 55bd 862c bbbd
00000310: d200 d7bd 3bc0 89bd a90a 223e 99f4 ddbd
00000320: 718d 3cbe a5de df3d 46f3 d33c 2391 b3bc
00000330: cd45 173d 1409 f8bd 8fbd b73c 5fa8 d03d
00000340: 743d f2bc 4bd0 edbc d2f7 22be 94be 4d3d
00000350: 2331 8cbd 2891 26bc 265f 713d fab0 313d
00000360: a18f 0b3d 8fc3 13be a9a3 87be b6eb a43d
00000370: 0758 16be 78ab 81bc f256 eb3d 11c5 5ebe
00000380: 005f 51bd 5137 9dbd 8ba2 e43d fbd5 f3bd
00000390: 558c 283e c75b 173c 1fcb 983d fa2e 62be
000003a0: 9ecb bcbe af1e 88bd c862 fa3c 21af 34be
000003b0: 5192 613d 43cb 293e 4faa 71bd 5259 b6bd
000003c0: c94e e8bb a486 45be e965 063e ec81 fa3d
000003d0: 7b07 97bd ddf9 6fbe 8ed0 2abe ae8c f8bd
000003e0: 62a7 5cbd a8a3 7ebd 173f 0bbd 24cb f3bc
000003f0: ffc0 2c3d 7fc4 2abe 164f 013e 6835 9abd

fc4.bias f4 [10]
0.0018685064 -0.2213339 0.12651774 0.13378525 -0.25514346 0.42258665 0.17813185 -0.008181477
-0.10936388 -0.37497225
00000000: ace8 f43a 5ba5 62be de8d 013e 00ff 083e
00000010: 2aa2 82be 475d d83e 3268 363e 9a0b 06bc
00000020: 2bfa dfbd 5dfc bfbe
