runs/Mar02_17-13-45_cssd901383-Run(lr=0.001, batch_size=128, patience=1)-valid/checkpoint.pt (torch_old, 972387 bytes, 8 tensors)

fc1.weight f4 [256, 784]
-0.014498392 -0.017611226 -0.030891186 -0.0387926 -0.040041715 -0.22361112 0.122619025 0.2591771
0.2811683 0.31822446 0.32634452 0.26079503 0.21053681 0.15971881 0.20533083 0.17242517
0.17099221 0.23853214 0.28511125 0.3071815 0.29536393 0.21271941 -0.11847809 0.00780413
-0.3000177 0.11078226 -0.049178854 -0.017553622 -0.08033308 0.11210268 0.105905056 0.094292
-0.07439447 -0.19036342 -0.004366719 0.17482343 0.20048176 0.09440286 0.26977023 0.14715861
0.0011924525 0.028065782 -0.02559916 -0.032923054 -0.044948086 0.12845188 0.22178543 0.1462921
0.05202453 0.13656531 -0.14513862 -0.307836 -0.3028581 0.19075596 0.072567195 -0.032022905
0.05443515 -0.014429997 -0.030809212 0.024533955 -0.051291823 -0.04237219 0.0009393909 0.051846854
-0.0052710157 0.08954799 0.12465253 -0.0061020185 -0.101333156 -0.049426027 -0.037324816 -0.07737254
-0.10110731 -0.0031476973 0.14164762 0.15523969 0.009854568 0.1419437 0.030564142 -0.06933747
-0.44338143 0.085184984 0.112614825 -0.08021558 0.082401045 -0.27524704 0.04584846 -0.09917693
-0.1337236 -0.10223353 0.0537399 -0.01644538 -0.0935843 -0.011603981 0.02121311 -0.022777366
-0.047158018 -0.0521254 -0.05605397 -0.11945311 -0.074818216 -0.031300724 0.05248895 -0.00982538
0.040537275 0.011491755 -0.04107364 0.0676083 -0.43123788 0.006614672 0.040512174 -0.23363361
-0.0849625 0.03324826 -0.112372525 -0.05835044 -0.08865371 -0.30462337 0.04968258 -0.017926512
-0.1864503 0.0030529439 -0.0229325 -0.035226155 0.009839308 -0.06627401 -0.0053640893 -0.05874775
-0.031031413 -0.019393573 -0.013112932 -0.12277525 -0.18654338 0.03779305 -0.15578134 0.213533
-0.0990544 -0.10281477 -0.17433633 -0.26637238 0.037063126 0.21961966 -0.12052991 0.00088336196
-0.08209348 -0.30944648 0.038552873 -0.17851193 -0.11594273 -0.0074774413 -0.05168741 -0.0025434075
0.02036813 -0.056457143 -0.030906463 0.020645877 -0.07679924 -0.09363599 -0.07184631 -0.045062747
-0.14234206 -0.13204804 -0.15615104 0.16782615 -0.020072624 -0.030801501 -0.14879309 -0.25896102
0.21007422 0.19048226 -0.07601223 0.21839066 -0.14637367 -0.10498806 -0.042901542 -0.19432329
-0.11383451 0.035485756 -0.042585433 -0.04839024 -0.021231465 -0.05601288 -0.027267262 -0.07759921
-0.096046165 -0.089730546 -0.05558593 0.047513284 -0.15561253 -0.12695438 -0.15140706 0.119532555
-0.08665225 0.015888833 -0.25860664 -0.2315674 0.09352063 0.14680423 0.13124219 0.108679004
-0.14565584 -0.071646824 -0.038811244 -0.22908606 -0.13083424 0.01561504 -0.086896785 -0.09506545
-0.08752004 -0.062203646 -0.055051625 -0.08280152 -0.14003137 -0.18961093 -0.1374185 -0.0155430855
-0.16857675 -0.1478083 -0.2696569 -0.13188988 -0.04132691 0.027583867 -0.1219994 -0.235913
-0.2608926 0.16121663 0.104149476 0.02840816 -0.22547238 -0.043057434 -0.037097313 -0.22300448
-0.16505374 -0.02996469 -0.08690727 -0.057744958 -0.061377265 -0.041995563 -0.123403035 -0.11592818
-0.05616751 -0.19578831 -0.19079715 -0.057221096 -0.13603647 -0.10863095 -0.1768377 -0.13218945
-0.11902239 -0.063315995 -0.11507209 -0.29356155 -0.2554287 -0.26933983 0.10629927 0.029314734
00000000: aa8a 6dbc 6b45 90bc 830f fdbc fde4 1ebd
00000010: c802 24bd 50fa 64be af1f fb3d dcb2 843e
00000020: 4bf5 8f3e 51ee a23e a116 a73e ed86 853e
00000030: f696 573e 548d 233e 3f42 523e 3990 303e
00000040: 9518 2f3e c541 743e 1afa 913e e546 9d3e
00000050: f139 973e 1ed3 593e a4a4 f2bd cab9 ff3b
00000060: ec9b 99be cfe1 e23d c46f 49bd 9dcc 8fbc
00000070: ab85 a4bd 1796 e53d c0e4 d83d 2a1c c13d
00000080: 215c 98bd a1ee 42be b216 8fbb ea04 333e
00000090: 174b 4d3e 4956 c13d 531f 8a3e bfb0 163e
000000a0: 114c 9c3a 36ea e53c 54b5 d1bc 53da 06bd
000000b0: 7c1b 38bd e488 033e b81b 633e 99cd 153e
000000c0: ac17 553d c7d7 0b3e 389f 14be ae9c 9dbe
000000d0: 3810 9bbe 8855 433e 1c9e 943d 732a 03bd
000000e0: 64f7 5e3d cb6b 6cbc 9a63 fcbc 6ffb c83c
000000f0: 6017 52bd 768e 2dbd 7541 763a 5e5d 543d
00000100: 7cb8 acbb f064 b73d d349 ff3d 71f3 c7bb
00000110: c287 cfbd f272 4abd e8e1 18bd 7f75 9ebd
00000120: 5911 cfbd 9949 4ebb 130c 113e 27f7 1e3e
00000130: 0e75 213c b059 113e a761 fa3c ce00 8ebd
00000140: e402 e3be 7775 ae3d 9aa2 e63d 1148 a4bd
00000150: e1c1 a83d 2eed 8cbe 98cb 3b3d 461d cbbd
00000160: d7ee 08be d05f d1bd 5f1e 5c3d 76b8 86bc
00000170: 20a9 bfbd a01e 3ebc 1ec7 ad3c 9997 babc
00000180: c428 41bd 7281 55bd d998 65bd d5a3 f4bd
00000190: 4b3a 99bd 3035 00bd a7fe 563d a1fa 20bc
000001a0: 6a0a 263d ea47 3c3c d53c 28bd 3876 8a3d
000001b0: 36cb dcbe e4bf d83b 18f0 253d a63d 6fbe
000001c0: d200 aebd 542f 083d 9123 e6bd df00 6fbd
000001d0: 1490 b5bd 98f7 9bbe f67f 4b3d 9fda 92bc
000001e0: d4ec 3ebe e613 483b f0dc bbbc 4d49 10bd
000001f0: 0d35 213c abba 87bd 3ec5 afbb 7ba1 70bd
00000200: 9735 febc 45df 9ebc a0d7 56bc 9771 fbbd
00000210: 3a05 3fbe e3cc 1a3d 2585 1fbe 65a8 5a3e
00000220: 09dd cabd 8d90 d2bd 3985 32be f661 88be
00000230: 81cf 173d fae3 603e 63d8 f6bd 6b91 673a
00000240: a020 a8bd c56f 9ebe 9ee9 1d3d d5cb 36be
00000250: 6273 edbd 5305 f5bb 2db6 53bd 4caf 26bb
00000260: 11db a63c 9b3f 67bd 8d2f fdbc 8b21 a93c
00000270: ec48 9dbd 3ac4 bfbd 2824 93bd b793 38bd
00000280: 1ec2 11be 9a37 07be 0fe6 1fbe 9eda 2b3e
00000290: 586f a4bc 6e53 fcbc 375d 18be 8a96 84be
000002a0: b21d 573e c80d 433e 4dac 9bbd cda1 5f3e
000002b0: fbe2 15be fb03 d7bd 87b9 2fbd affc 46be
000002c0: 1122 e9bd 8359 113d 106e 2ebd d834 46bd
000002d0: 9ced adbc c36d 65bd 985f dfbc 56ec 9ebd
000002e0: dab3 c4bd a6c4 b7bd 12ae 63bd 4a9d 423d
000002f0: e458 1fbe 5400 02be 740a 1bbe 7ccd f43d
00000300: bc76 b1bd 4c29 823c 1768 84be 0120 6dbe
00000310: be87 bf3d d953 163e 5a64 063e 1993 de3d
00000320: ce26 15be 92bb 92bd 8af8 1ebd 8995 6abe
00000330: 69f9 05be 3ad6 7f3c f1f6 b1bd adb1 c2bd
00000340: b53d b3bd 40c9 7ebd d07d 61bd d893 a9bd
00000350: 6264 0fbe 5e29 42be 6fb7 0cbe 6da8 7ebc
00000360: 629f 2cbe 0f5b 17be 7810 8abe 240e 07be
00000370: 6846 29bd 90f7 e13c d2da f9bd 2d93 71be
00000380: b793 85be f915 253e 524c d53d 3bb8 e83c
00000390: 3be2 66be fe5c 30bd 5af3 17bd 495b 64be
000003a0: d903 29be 8278 f5bc 70fc b1bd fa85 6cbd
000003b0: ba66 7bbd 8a03 2cbd bbba fcbd c16b edbd
000003c0: e70f 66bd bb7c 48be 5460 43be ab60 6abd
000003d0: 254d 0bbe e779 debd f114 35be ac5c 07be
000003e0: 03c2 f3bd d1ab 81bd eaaa ebbd b34d 96be
000003f0: 8dc7 82be e9e6 89be 6fb3 d93d 7425 f03c

fc1.bias f4 [256]
-0.1360724 0.9464049 -0.048591785 -0.01353041 0.4439439 -0.0045696897 -0.08291916 0.40924802
-0.03314572 -0.032655567 -0.36452883 -0.07807948 -0.13909826 -0.08163104 -0.058969423 -0.09601728
-0.3843092 -0.11122275 -0.07943904 -0.4087781 -0.027267078 0.16323741 0.7727321 0.54642224
-0.048778184 -0.10727437 -0.03192681 -0.02692942 -0.07592295 -0.08439749 0.027537413 -1.1061662
1.2267418 -0.01968787 -0.033622205 -0.093348786 -0.058532942 -0.05971082 -0.05021421 -0.1539925
0.03671393 -0.08183222 -0.13879174 -0.065912075 0.33448356 0.02684808 -0.08940583 0.5572349
-0.24728827 0.24178956 -0.038459536 0.9526874 -0.007896877 0.073557355 -0.045644246 -1.1167653
1.2980274 1.1287832 -0.50060976 -0.5516883 -0.0503048 -0.06895619 0.061095703 0.84188753
0.1130302 -0.055073947 -0.8618859 -0.08197606 -0.04581133 -0.20474444 -0.065989636 -0.084273115
0.045091268 -0.07409836 -0.03844844 -0.04120895 -0.036766756 -0.12611441 -0.04742885 0.26225922
-0.10383844 -0.050352 -0.06497621 -0.083396465 -0.06265173 0.35000375 -0.45363134 0.47498673
-0.077140614 -0.08244495 -0.060973298 -0.042244624 -0.57239246 -0.55292785 0.5415971 -0.13069423
0.4627385 -0.054051567 -0.043146625 -0.1613559 -0.040671814 -0.06305339 1.0610756 -0.093231164
-0.04437132 -0.042272817 -0.053403955 -0.08790861 -0.0788586 -0.044573653 0.28378373 -0.4317069
-0.098172665 -0.003164769 -0.005680052 -0.051762763 -0.07352292 -0.14586644 0.28092086 -0.05593423
0.13140145 -0.14700653 -0.07015249 -0.07658123 -0.036214877 -0.38123095 0.0630594 -0.13041301
-0.05087452 -0.24194703 -0.16051024 -0.5667121 0.5085831 -0.06302718 -0.07630001 -0.010370121
-0.122126766 -0.013017308 0.11366378 -0.04153468 -1.1015631 -0.050150916 -0.031766582 -0.86156183
-0.26302144 0.13743746 -0.8090661 -0.077622645 -0.090136096 -0.09542467 -0.1437411 -0.09199341
-0.06130392 -0.059298296 -0.10888317 -0.095480025 0.18348326 -0.071703345 1.1829182 -0.03339461
1.0145376 -0.27088332 -0.07589885 -0.06725743 -0.04861608 -0.09387346 -0.08706217 0.20655252
-0.16148345 -0.06179151 0.38529953 -0.077071816 -0.8189649 -0.056371823 -0.087983854 -0.04583881
-0.19035053 -0.5446498 -0.030118011 -0.014009557 -0.08303532 -0.062077872 0.48662838 -0.05402506
-0.03346261 0.4621375 -0.04624537 -0.07525344 -0.067422815 1.1612782 -0.0068994807 -0.040624645
1.1638548 0.92697585 -0.07036239 -0.04370657 -0.0657403 -0.07875841 -0.14298253 -0.26310763
-0.032128207 0.34635565 0.67070013 -0.09200868 -0.27116844 -0.03712556 -0.10089351 -0.078298606
0.005481894 0.0036303645 0.24849284 -0.043820873 0.6554174 0.5319664 0.85623384 0.84265417
-0.027319035 -0.112600625 -0.07204208 -0.08098423 -0.045599706 -0.06326457 -0.07820872 0.5582627
-0.03783178 0.12732387 -0.096271574 -0.053059723 -0.09960763 -0.035046883 -0.059041828 1.3903551
-0.057684556 -0.068766475 -0.07627061 1.1086468 0.44366023 0.15528822 -0.08731778 0.6869071
-0.08354604 -0.0114842765 1.2558471 -0.30310464 -0.06385097 -0.04581616 -0.014176909 -0.052654933
-0.20476286 0.099631794 -0.2337505 -0.065385975 0.13604733 -0.020448606 0.24920566 -0.22170538
00000000: 9056 0bbe 9747 723f 2e08 47bd a7ae 5dbc
00000010: 9d4c e33e 56bd 95bb 85d1 a9bd f588 d13e
00000020: cec3 07bd d8c1 05bd 86a3 babe 22e8 9fbd
00000030: c66f 0ebe 2d2e a7bd ec89 71bd b5a4 c4bd
00000040: 2dc4 c4be c1c8 e3bd efb0 a2bd 5d4b d1be
00000050: 355f dfbc b527 273e c5d1 453f 54e2 0b3f
00000060: a2cb 47bd aab2 dbbd b0c5 02bd 169b dcbc
00000070: 7e7d 9bbd 97d8 acbd 2496 e13c db96 8dbf
00000080: e005 9d3f 7548 a1bc 70b7 09bd a62d bfbd
00000090: 3dc0 6fbd 5593 74bd 6aad 4dbd 36b0 1dbe
000000a0: 5961 163d a797 a7bd 6c1f 0ebe e9fc 86bd
000000b0: 6e41 ab3e 81f0 db3c 671a b7bd f2a6 0e3f
000000c0: 2339 7dbe af97 773e bf87 1dbd 52e3 733f
000000d0: e761 01bc 3da5 963d 76f5 3abd 2af2 8ebf
000000e0: c325 a63f f87b 903f f627 00bf 723b 0dbf
000000f0: 680c 4ebd e738 8dbd 7d3f 7a3d f185 573f
00000100: 617c e73d 3895 61bd 8ea4 5cbf 11e3 a7bd
00000110: a9a4 3bbd 87a8 51be 9325 87bd 6297 acbd
00000120: 9fb1 383d e2c0 97bd 1d7c 1dbd b7ca 28bd
00000130: bd98 16bd 2324 01be c144 42bd d746 863e
00000140: 3fa9 d4bd e63d 4ebd 3f12 85bd c4cb aabd
00000150: 8d4f 80bd b133 b33e 5e42 e8be 7631 f33e
00000160: e6fb 9dbd e6d8 a8bd 23bf 79bd b308 2dbd
00000170: 5088 12bf ae8c 0dbf 1ca6 0a3f b5d4 05be
00000180: 10ec ec3e 2d65 5dbd 84ba 30bd 7b3a 25be
00000190: 7d97 26bd 2322 81bd 53d1 873f fbef bebd
000001a0: b4be 35bd 4326 2dbd 1bbe 5abd 6e09 b4bd
000001b0: 9e80 a1bd dd92 36bd 1a4c 913e b008 ddbe
000001c0: c00e c9bd 0368 4fbb bb1f babb 3105 54bd
000001d0: 2f93 96bd 035e 15be dcd4 8f3e 4b1b 65bd
000001e0: 1a8e 063e e188 16be 1cac 8fbd 9fd6 9cbd
000001f0: 0d56 14bd b430 c3be 4925 813d fd8a 05be
00000200: cd61 50bd f6c0 77be cc5c 24be 0b14 11bf
00000210: 8132 023f 6514 81bd 2e43 9cbd 71e7 29bc
00000220: 991d fabd 8c46 55bc 8ec8 e83d 4520 2abd
00000230: 0500 8dbf 0c6b 4dbd ad1d 02bd 518f 5cbf
00000240: bfaa 86be 68bc 0c3e f51e 4fbf 9ff8 9ebd
00000250: 4699 b8bd 026e c3bd de30 13be 0a67 bcbd
00000260: d219 7bbd c5e2 72bd 24fe debd 088b c3bd
00000270: 09e3 3b3e 34d9 92bd dd69 973f c9c8 08bd
00000280: 5edc 813f 38b1 8abe db70 9bbd 43be 89bd
00000290: a821 47bd bb40 c0bd a74d b2bd 8182 533e
000002a0: eb5b 25be 1819 7dbd fb45 c53e d4d7 9dbd
000002b0: afa7 51bf 24e6 66bd e130 b4bd 7ac1 3bbd
000002c0: 40eb 42be 2b6e 0bbf 0cba f6bc 5788 65bc
000002d0: 6c0e aabd 5e45 7ebd 5b27 f93e 6249 5dbd
000002e0: 1710 09bd 499d ec3e c96b 3dbd 7a1e 9abd
000002f0: f914 8abd c4a4 943f 0a15 e2bb 0766 26bd
00000300: 32f9 943f 4a4e 6d3f 281a 90bd a905 33bd
00000310: daa2 86bd 174c a1bd 036a 12be 0bb6 86be
00000320: de98 03bd 8755 b13e 01b3 2b3f 0c6f bcbd
00000330: 97d6 8abe f910 18bd 42a1 cebd 055b a0bd
00000340: 76a1 b33b 69eb 6d3b e874 7e3e 847d 33bd
00000350: 6fc9 273f f32e 083f 2432 5b3f 2fb8 573f
00000360: 2bcc dfbc 289b e6bd cc8a 93bd 0fdb a5bd
00000370: c2c6 3abd db90 81bd e52b a0bd 4eea 0e3f
00000380: 7ff5 1abd 3061 023e 082a c5bd 2755 59bd
00000390: 16ff cbbd 528d 0fbd d8d5 71bd 28f7 b13f
000003a0: a446 6cbd 70d5 8cbd c433 9cbd 23e8 8d3f
000003b0: 6f27 e33e e003 1f3e aad3 b2bd 25d9 2f3f
000003c0: 301a abbd 8c28 3cbc 99bf a03f 8830 9bbe
000003d0: 4cc4 82bd baa9 3bbd 4446 68bc b3ac 57bd
000003e0: 5bad 51be c10b cc3d 4b5c 6fbe 15e9 85bd
000003f0: fe4f 0b3e d683 a7bc c52f 7f3e bc06 63be

fc2.weight f4 [128, 256]
-0.113960035 -0.028758524 -0.057326823 0.034587976 -0.04687846 0.045172423 -0.093125895 -0.08578626
0.010605122 0.059058413 0.110985465 0.118066676 -0.0340492 0.030787295 0.010502168 -0.05008782
0.03524828 -0.028846411 0.016693123 -0.12400676 -0.032563765 0.005451597 -0.0791398 -0.13274635
0.06554969 0.011303871 -0.0018531824 0.077596545 -0.027613442 -0.06004315 -0.04297079 -0.19028853
-0.0071868035 0.004485331 0.11159895 -0.019888135 -0.0585309 -0.0740759 -0.030739577 0.01669695
-0.09049137 -0.09302505 -0.100450896 -0.09088864 0.01337633 -0.10267623 -0.060642447 -0.06714166
0.010087876 -0.1367767 0.066927895 -0.013829702 0.11149797 -0.11864539 -0.04752148 -0.01302575
-0.09457437 0.090372466 -0.017231906 -0.07308869 0.07665284 0.09127312 -0.11280875 -0.0357147
0.0131632015 0.027664753 -0.09548492 -0.0478906 -0.069147825 -0.052252043 0.06957492 0.01972448
0.021943249 -0.0049010105 -0.06384895 -0.028783035 0.008043289 0.023435993 0.033764847 -0.005952534
-0.007999947 0.11122618 -0.08503881 -0.046828285 0.04011827 0.0109453695 -0.048103392 -0.006689699
0.009311081 0.06462399 -0.028924277 0.08385252 -0.14594457 -0.12581198 -0.10811935 -0.13800134
-0.05621869 -0.03724121 -0.08372988 0.009300538 0.0034581234 0.09992615 -0.04487395 -0.13736703
0.057395127 0.11916546 0.112734325 0.010413827 -0.07059445 -0.0076634535 -0.12575631 -0.025595581
0.04115167 -0.030785618 -0.10648126 -0.096807 0.091944195 -0.092098884 -0.06182841 0.010121224
-0.09459776 -0.039029386 0.008419987 -0.077020675 -0.04740524 -0.07481127 -0.040300578 0.0006620398
-0.052160226 -0.07019499 -0.008543034 -0.005986696 -0.022253677 -0.020683393 0.07137626 -0.044886436
-0.045508467 0.035521284 -0.020014372 -0.09275109 -0.09814523 -0.0048924796 -0.084394455 -0.124057874
-0.019491797 -0.109439425 -0.03944482 -0.06052491 0.101093024 0.0657224 0.12215066 -0.019607633
0.0076062097 -0.102826335 0.01029766 -0.03886291 -0.12533656 0.11551164 -0.0639714 -0.080979094
-0.033035483 -0.09661622 -0.04673778 0.09858694 -0.08114943 -0.03316444 -0.0109138135 0.04195545
0.003356089 0.11902713 -0.010180168 -0.0019485343 0.016108895 0.09016995 -0.046750184 0.06471782
-0.2079049 -0.06855917 0.019395437 0.008740578 0.008506879 -0.022098523 -0.042825036 0.015740974
-0.034973226 -0.07718719 -0.026648534 -0.05009 -0.051445063 -0.019533936 0.114569016 -0.028248813
-0.15530445 -0.052556653 -0.060318183 -0.097004436 -0.055093568 -0.07287894 -0.06282423 -0.06714358
-0.093405284 -0.2901513 -0.017593833 0.060058884 -0.026655577 0.099204406 -0.036645968 -0.011166229
-0.07441076 -0.10859151 -0.073473394 -0.033148203 -0.11262668 -0.021557197 -0.054733954 -0.042593163
-0.07221715 -0.06589436 -0.08149459 0.09820143 0.0013756115 0.058238324 0.07263338 -0.12297157
0.09397931 0.001634811 -0.021187836 0.0026077526 -0.028314987 -0.03526814 0.027444825 -0.07358165
0.09782021 0.03635124 -0.10887733 -0.12572096 -0.042138234 -0.09265855 0.0044749905 -0.049396995
-0.07589934 -0.12290673 0.013312653 0.10154513 -0.11054494 0.089376405 -0.037321236 -0.059716355
-0.027841214 -0.08625493 0.018730914 -0.0013424249 -0.15076523 -0.031343736 -0.08103171 -0.03445898
00000000: e163 e9bd ff96 ebbc 88cf 6abd 1fac 0d3d
00000010: a103 40bd b806 393d cab8 bebd b5b0 afbd
00000020: 1bc1 2d3c 3ce7 713d 594c e33d f1cc f13d
00000030: 2d77 0bbd a335 fc3c 4911 2c3c e328 4dbd
00000040: 8060 103d 4f4f ecbc 04c0 883c 42f7 fdbd
00000050: 9561 05bd 4fa3 b23b 0c14 a2bd a9ee 07be
00000060: ea3e 863d df33 393c 7ce6 f2ba f0ea 9e3d
00000070: 9635 e2bc ceef 75bd 2402 30bd ffda 42be
00000080: 477f ebbb aff9 923b fe8d e43d 71ec a2bc
00000090: 19be 6fbd 1bb5 97bd 91d1 fbbc 0bc8 883c
000000a0: 8a53 b9bd eb83 bebd 33b9 cdbd d323 babd
000000b0: 6528 5b3c ea47 d2bd 3764 78bd 9181 89bd
000000c0: 9e47 253c 310f 0cbe 7e11 893d f995 62bc
000000d0: 0c59 e43d 5bfc f2bd e2a5 42bd f569 55bc
000000e0: 35b0 c1bd 3315 b93d ed29 8dbc 86af 95bd
000000f0: 2afc 9c3d 67ed ba3d 4608 e7bd 9449 12bd
00000100: 78aa 573c 31a1 e23c 998d c3bd ef28 44bd
00000110: 609d 8dbd 3d06 56bd 4c7d 8e3d 3c95 a13c
00000120: 54c2 b33c a898 a0bb 3dc3 82bd 66ca ebbc
00000130: 00c8 033c d7fc bf3c 024d 0a3d 790d c3bb
00000140: 3612 03bc 8dca e33d d428 aebd 04cf 3fbd
00000150: 0e53 243d 3554 333c 1008 45bd 4335 dbbb
00000160: 818d 183c 9559 843d 9bf2 ecbc dfba ab3d
00000170: 7e72 15be dbd4 00be ae6d ddbd 3950 0dbe
00000180: 9245 66bd 3d8a 18bd 927a abbd 4961 183c
00000190: afa1 623b 15a6 cc3d bfcd 37bd f1a9 0cbe
000001a0: 2717 6b3d 050d f43d 41e1 e63d c29e 2a3c
000001b0: d393 90bd b51d fbbb 43c6 00be d3ad d1bc
000001c0: a78e 283d 1f32 fcbc d912 dabd c042 c6bd
000001d0: 3d4d bc3d 579e bcbd c93f 7dbd 7ed3 253c
000001e0: 78bc c1bd 47dd 1fbd fcf3 093c 04bd 9dbd
000001f0: ff2b 42bd a736 99bd 3812 25bd bd8c 2d3a
00000200: f6a5 55bd 64c2 8fbd 15f8 0bbc 0c2c c4bb
00000210: 584d b6bc 3870 a9bc b72d 923d d7da 37bd
00000220: 1667 3abd c47e 113d 2ef5 a3bc 49f4 bdbd
00000230: 5e00 c9bd 1851 a0bb 00d7 acbd 0e12 febd
00000240: 43ad 9fbc c721 e0bd e490 21bd f8e8 77bd
00000250: dc09 cf3d 7799 863d 202a fa3d 30a0 a0bc
00000260: 833d f93b 9d96 d2bd 84b7 283c b72e 1fbd
00000270: 3a58 00be 5e91 ec3d 7003 83bd 5ed8 a5bd
00000280: 3750 07bd bade c5bd 1d70 3fbd f3e7 c93d
00000290: ac31 a6bd 70d7 07bd dacf 32bc 7ad9 2b3d
000002a0: d4f1 5b3b 7fc4 f33d b8ca 26bc f665 ffba
000002b0: cdf6 833c 06ab b83d 1f7d 3fbd c78a 843d
000002c0: 06e5 54be c068 8cbd 2ee3 9e3c a434 0f3c
000002d0: 7060 0b3c f607 b5bc 4e69 2fbd 37f3 803c
000002e0: 1640 0fbd 5114 9ebd 074e dabc 2c2b 4dbd
000002f0: 0fb8 52bd a205 a0bc 29a3 ea3d 0e6a e7bc
00000300: 2108 1fbe a545 57bd 3310 77bd 43aa c6bd
00000310: cba9 61bd 8e41 95bd fda9 80bd 9382 89bd
00000320: 454b bfbd b68e 94be f120 90bc 4e00 763d
00000330: cc5c dabc ae2b cb3d 151a 16bd 8ff2 36bc
00000340: ab64 98bd 3a65 debd 3879 96bd 69c6 07bd
00000350: d1a8 e6bd b898 b0bc b630 60bd 2b76 2ebd
00000360: 96e6 93bd 9ff3 86bd a3e6 a6bd d51d c93d
00000370: dd4d b43a 4f8b 6e3d cfc0 943d 85d8 fbbd
00000380: 3978 c03d 2847 d63a 1d92 adbc d4e6 2a3b
00000390: d5f4 e7bc 5375 10bd f8d3 e03c fab1 96bd
000003a0: f655 c83d 0ae5 143d 14fb debd ffbc 00be
000003b0: 2499 2cbd c4c3 bdbd f1a2 923b 8154 4abd
000003c0: 1d71 9bbd 86b6 fbbd 501d 5a3c e5f6 cf3d
000003d0: 6365 e2bd fa0a b73d 27de 18bd 2399 74bd
000003e0: 4213 e4bc 6da6 b0bd 9371 993c 4ef4 afba
000003f0: 3362 1abe 4a62 00bd f4f3 a5bd dc24 0dbd

fc2.bias f4 [128]
-0.1594079 0.6837018 -0.23429829 -0.5684598 -0.36979124 0.44334552 0.014945665 -0.61223
0.48478413 -0.9451264 -0.5924444 0.5713924 0.76454 -0.0955277 -0.7912925 -0.6761162
-0.15460405 0.60016 -0.33754256 -0.51224136 -0.039560925 -0.075048566 -0.45057583 0.04476388
-0.036583472 0.16506773 0.9516191 0.50157183 1.7927463 0.015977377 -0.40635753 -0.07079542
-0.24574326 -0.5216909 0.2582025 -0.42106 0.029397748 0.77983737 -0.15335767 -0.70431435
-0.69097906 0.8349687 0.5592394 0.09319724 0.5884819 -0.054983895 -1.0387778 -0.23204824
0.016350048 -0.4307418 0.39468256 -0.12661903 -0.4817655 0.4512658 -0.29846758 -0.38351667
0.31646988 0.18584459 -0.030577619 1.0387346 1.0574763 -0.22916842 -0.2920707 -0.27363047
0.6039366 -0.12010568 -0.3884434 -0.6558328 -0.09166586 -0.08565884 0.49909183 -0.035964917
-0.26674634 -0.7145714 0.16256392 0.027598118 -0.97541493 -0.005165493 1.0167738 -0.009861864
-0.24544156 -0.41098022 -0.08744841 -0.3093757 -0.13939893 -0.028392695 0.021648036 -0.04913957
-0.07602679 -0.21969509 0.21312992 -0.39964008 -0.17488281 0.22840378 -0.8833916 -0.94812524
0.89832807 -0.27380168 -0.39614764 -0.47181353 -0.6049129 -0.07708413 -0.55882883 0.29280385
-0.10748279 -0.38254085 -0.121505596 -0.12361781 -0.15725608 -0.075100474 -0.844713 -0.45486298
0.8081111 0.24576958 0.06987349 -0.5715866 0.9086506 -0.17005315 -0.8149961 -0.47133726
-0.30382183 -0.6807788 -0.5029363 -0.13972636 -0.085986346 1.5394236 0.621385 -0.07823422
00000000: d33b 23be 1507 2f3f e4eb 6fbe 9586 11bf
00000010: 4755 bdbe 2ffe e23e aade 743c 1bbb 1cbf
00000020: a035 f83e cef3 71bf 70aa 17bf c646 123f
00000030: e5b8 433f 07a4 c3bd 2592 4abf f415 2dbf
00000040: 8650 1ebe 16a4 193f 61d2 acbe 4022 03bf
00000050: a30a 22bd 10b3 99bd e0b1 e6be 555a 373d
00000060: 8dd8 15bd 8407 293e 4f9d 733f 0367 003f
00000070: b678 e53f fde2 823c 180e d0be 30fd 90bd
00000080: 1fa4 7bbe 898d 05bf 1e33 843e 2d95 d7be
00000090: 8cd3 f03c 6ca3 473f cb09 1dbe f24d 34bf
000000a0: 01e4 30bf 82c0 553f 502a 0f3f 32de be3d
000000b0: c0a6 163f cb36 61bd acf6 84bf 0e9e 6dbe
000000c0: 89f0 853c 308a dcbe d513 ca3e 6ba8 01be
000000d0: f8a9 f6be 500c e73e bed0 98be 4c5c c4be
000000e0: 5708 a23e 0b4e 3e3e ea7d fabc 41f5 843f
000000f0: 625b 873f 20ab 6abe 4a8a 95be 4b19 8cbe
00000100: 979b 1a3f f7f9 f5bd 0ee2 c6be a9e4 27bf
00000110: 4fbb bbbd e76d afbd f788 ff3e f34f 13bd
00000120: fa92 88be 27ee 36bf 2877 263e 7315 e23c
00000130: cbb4 79bf 4c43 a9bb a525 823f a893 21bc
00000140: 0855 7bbe 006c d2be 2718 b3bd 7e66 9ebe
00000150: 98be 0ebe cc97 e8bc 3957 b13c 9346 49bd
00000160: efb3 9bbd c0f7 60be bb3e 5a3e a09d ccbe
00000170: 7b14 33be aee2 693e f425 62bf 56b8 72bf
00000180: d4f8 653f bc2f 8cbe ddd3 cabe 8b91 f1be
00000190: 92db 1abf 49de 9dbd 680f 0fbf 63ea 953e
000001a0: f01f dcbd 65dc c3be edd7 f8bd 562b fdbd
000001b0: bd07 21be 47ce 99bd 1c3f 58bf cde3 e8be
000001c0: 5ee0 4e3f 05ab 7b3e d519 8f3d 8053 12bf
000001d0: 539d 683f 6a22 2ebe 96a3 50bf 1e53 f1be
000001e0: 898e 9bbe 8547 2ebf 6fc0 00bf 6d14 0fbe
000001f0: 9c19 b0bd d50b c53f 1613 1f3f 4339 a0bd

fc3.weight f4 [64, 128]
-0.08384832 -0.20325333 0.05275122 0.38597566 -0.2832023 -0.22432244 -0.28166372 0.14099564
-0.3907608 -0.13331077 0.45895305 0.03645432 -0.1547672 0.110170335 0.3461722 -0.21254535
0.12172645 -0.09952461 0.5084392 0.08083213 -0.060627513 -0.087620854 -0.6813893 -0.029084422
-0.003770128 -0.36907566 0.29262206 -0.2792243 -0.08477684 -0.09962338 0.27240497 0.045663312
0.35696992 0.27867982 -0.2742459 0.4519338 0.22381453 -0.012699724 0.03089201 0.26044616
0.0951938 -0.120121084 -0.28486085 -0.12552033 -0.09054376 -0.018017309 0.17681937 -0.16928513
0.51545846 -0.32622302 0.08559671 0.21490869 -0.050777443 0.01545905 0.1251335 -0.12630783
-0.18561208 -0.37255505 -0.23255737 -0.4035245 -0.21951434 0.009648792 0.3186063 0.05900956
-0.066130266 0.08066952 -0.07779901 -0.18975411 -0.35847428 0.1935403 -0.1463156 -0.056476567
-0.12498896 0.4459128 0.062496208 -0.0790776 -0.013926843 -0.11986656 -0.18153656 -0.09069578
0.112225495 0.2822663 0.05367328 0.22006205 0.1322848 0.021954512 0.03950758 -0.24656108
-0.27558413 -0.02515064 0.11096236 -0.08527505 0.22498237 -0.015415837 0.411581 0.0688791
-0.07182847 1.0802714 0.00033548896 -0.30669144 -0.009942625 -0.05690696 -0.53605366 -0.36267155
0.05496685 -0.027496945 -0.05016582 -0.003246672 0.0872553 -0.055695295 -0.076370426 0.059164014
-0.22225916 0.15287788 -0.22056422 0.045900352 0.007281485 -0.37601805 -0.06783253 -0.17230715
0.005456905 -0.14522475 0.08429098 -0.07881491 0.017379235 -0.0351035 -0.7230668 -0.05621775
0.014311962 -0.288989 -0.082542814 0.07444335 -0.12892824 -0.059145942 0.036872394 -0.05133677
-0.19578265 0.039158903 -0.017324358 -0.102586694 -0.16427764 -0.02217761 -0.0687803 -0.034889724
0.05183252 -0.10199741 0.2012245 -0.28850022 -0.07452937 -0.11286273 0.076572515 -0.07655844
-0.07747791 -0.042741023 -0.15421425 -0.19209187 -0.22188033 -0.16771285 0.022113368 -0.08716149
-0.05456803 0.22044119 -0.038480464 -5.3539872e-05 -0.04150943 -0.051639196 -0.10967411 0.06143967
0.06479912 -0.2840742 -0.212331 -0.059718147 0.030786296 -0.041059807 0.07020993 -0.061559897
-0.09129358 -0.058496706 -0.1527063 -0.04027696 0.0020556673 -0.034650482 -0.06773515 0.038660876
0.0075041777 -0.08950287 -0.21676484 -0.048674308 -0.060754042 -0.07257261 -0.0150866695 -0.047660436
-0.15240517 -0.12403373 -0.030413663 -0.079504594 -0.13417016 -0.0073291883 -0.37339634 -0.14056283
0.012290975 -0.014193307 0.17738833 -0.054962415 -0.060500022 -0.1601686 0.036013924 -0.12993357
-0.067911796 -0.023539059 -0.11794127 0.0006155968 -0.27829674 0.01631842 0.05787728 0.024313912
-0.112510286 -0.04079917 -0.06286281 -0.05173015 -0.07334271 -0.01663487 -0.004912317 -0.14843228
-0.07294184 -0.056283996 -0.015111566 -0.119161814 -0.014570914 -0.053545907 -0.058468528 -0.30636767
-0.070342846 0.013782955 -0.0062494725 -0.023977807 -0.058499582 -0.09773159 0.007983908 -0.13365051
-0.33375287 -0.27960128 -0.29799682 0.023144292 -0.044742554 -0.12473129 -0.14824183 0.066456296
0.006112629 0.032243125 -0.2848083 -0.078010544 -0.039809395 -0.025598535 -0.2602455 -0.29417545
00000000: abb8 abbd a421 50be aa11 583d 9a9e c53e
00000010: e4ff 90be c8b4 65be 3a36 90be 2961 103e
00000020: cd11 c8be 9e82 08be e5fb ea3e 2051 153d
00000030: 4b7b 1ebe fca0 e13d 7c3d b13e 7da5 59be
00000040: b84b f93d 8fd3 cbbd 1229 023f 518b a53d
00000050: 8e54 78bd 9072 b3bd 876f 2ebf 7442 eebc
00000060: 4014 77bb 7cf7 bcbe 8fd2 953e 7df6 8ebe
00000070: 7b9f adbd 5807 ccbd aa78 8b3e 7409 3b3d
00000080: c3c4 b63e 1faf 8e3e f569 8cbe de63 e73e
00000090: a32f 653e 8112 50bc 3e11 fd3c 3359 853e
000000a0: f8f4 c23d 0b02 f6bd 48d9 91be 6788 00be
000000b0: 026f b9bd 0999 93bc 2310 353e 1559 2dbe
000000c0: 16f5 033f b406 a7be 544d af3d 0611 5c3e
000000d0: 02fc 4fbd f547 7d3c ff22 003e d756 01be
000000e0: 1811 3ebe 89bf bebe 8523 6ebe c39a cebe
000000f0: 5ec8 60be f815 1e3c 5d20 a33e 02b4 713d
00000100: 4e6f 87bd 1036 a53d 1655 9fbd e74e 42be
00000110: f189 b7be 6e2f 463e c2d3 15be f953 67bd
00000120: 36fa ffbd af4e e43e 06fc 7f3d 70f3 a1bd
00000130: 6a2d 64bc 997c f5bd b8e4 39be b6be b9bd
00000140: 7bd6 e53d 3585 903e 83d8 5b3d f257 613e
00000150: ab75 073e f3d9 b33c b3d2 213d 827a 7cbe
00000160: 5d19 8dbe b708 cebc 3c40 e33d afa4 aebd
00000170: c761 663e b592 7cbc bfba d23e 7c10 8d3d
00000180: ce1a 93bd 5546 8a3f 91e4 af39 a906 9dbe
00000190: 64e6 22bc 4617 69bd d03a 09bf 16b0 b9be
000001a0: eb24 613d 4641 e1bc ad7a 4dbd 1ec6 54bb
000001b0: e8b2 b23d c020 64bd 1968 9cbd f755 723d
000001c0: e897 63be 058c 1c3e 96db 61be 0202 3c3d
000001d0: 8699 ee3b 7085 c0be c8eb 8abd 4971 30be
000001e0: d6cf b23b ccb5 14be c0a0 ac3d b669 a1bd
000001f0: e65e 8e3c b0c8 0fbd e81a 39bf 9544 66bd
00000200: b87c 6a3c 5ef6 93be 350c a9bd c175 983d
00000210: c405 04be 0443 72bd 8207 173d 8146 52bd
00000220: 3f7b 48be 1665 203d d0eb 8dbc f918 d2bd
00000230: 6638 28be d2ad b5bc b0dc 8cbd 87e8 0ebd
00000240: 564e 543d 05e4 d0bd cc0d 4e3e 4db6 93be
00000250: dba2 98bd 9324 e7bd 0dd2 9c3d acca 9cbd
00000260: bdac 9ebd 3611 2fbd 57ea 1dbe bbb3 44be
00000270: 9934 63be ebbc 2bbe 1827 b53c b981 b2bd
00000280: ba82 5fbd 56bb 613e b19d 1dbd 0090 60b8
00000290: cb05 2abd 9f83 53bd d29c e0bd 2aa8 7b3d
000002a0: 67b5 843d 2c72 91be 4c6d 59be 049b 74bd
000002b0: 8b33 fc3c 542e 28bd 39ca 8f3d 3b26 7cbd
000002c0: 21f8 babd 3e9a 6fbd 0a5f 1cbe 74f9 24bd
000002d0: 60b8 063b aaed 0dbd bab8 8abd de5a 1e3d
000002e0: 9be5 f53b 484d b7bd 9af7 5dbe b65e 47bd
000002f0: 3bd9 78bd f3a0 94bd 142e 77bc 9737 43bd
00000300: 1a10 1cbe 6505 febd 1326 f9bc 4ed3 a2bd
00000310: e763 09be b029 f0bb ce2d bfbe b4ef 0fbe
00000320: 1660 493c 0b8b 68bc 49a5 353e 4520 61bd
00000330: dfce 77bd 3d03 24be 5683 133d 4e0d 05be
00000340: 5715 8bbd fcd4 c0bc 318b f1bd 0060 213a
00000350: e97c 8ebe 35ae 853c ba10 6d3d f82d c73c
00000360: cb6b e6bd 081d 27bd 38be 80bd fee2 53bd
00000370: b434 96bd da45 88bc 80f7 a0bb a2fe 17be
00000380: 8862 95bd 0c8a 66bd 8096 77bc 1c0b f4bd
00000390: d8ba 6ebc f452 5bbd b27c 6fbd 39dc 9cbe
000003a0: e90f 90bd e7d1 613c 60c8 ccbb 1b6d c4bc
000003b0: 429d 6fbd 8027 c8bd f0ce 023c aedb 08be
000003c0: a8e1 aabe e627 8fbe 0a93 98be 1999 bd3c
000003d0: f843 37bd 1e73 ffbd b5cc 17be 3d1a 883d
000003e0: 734c c83b 5e11 043d 65d2 91be fec3 9fbd
000003f0: 2d0f 23bd 05b4 d1bc e63e 85be 2a9e 96be

fc3.bias f4 [64]
0.19967034 -0.17823687 -0.21478027 1.1483002 1.6523172 -0.23384558 0.5219471 -0.14875838
0.381692 -0.23142011 0.3335599 -0.56553984 0.42658523 -0.15949069 -0.16137826 -0.27528033
-0.15975483 -0.17513898 -0.26796216 0.9749006 -0.2936452 -0.038395904 -0.1494772 0.8697392
-0.14969368 0.14600512 -0.30523446 0.92398214 -0.089803606 -0.15905684 -0.45295143 -0.27566892
0.86710453 -0.5542091 -0.34723386 -0.32250053 0.5237881 -0.13313551 -0.13583931 1.3504864
0.8321717 -0.0035089424 -0.05648731 -0.36689478 0.8339366 -0.24825965 -0.030072315 0.8785658
-0.21729128 -0.5080197 -0.20075473 1.0306562 -0.37753052 -0.5152497 0.5775421 1.0369679
-0.109040536 -0.40586513 -0.1399072 -0.10211177 -0.11480407 1.2598269 -0.10830481 -0.0034494475
00000000: 6276 4c3e ba83 36be 5cef 5bbe 80fb 923f
00000010: 217f d33f 3775 6fbe 539e 053f 1e54 18be
00000020: 226d c33e 65f9 6cbe 5dc8 aa3e 38c7 10bf
00000030: 6169 da3e 8751 23be 5840 25be 8bf1 8cbe
00000040: c596 23be a257 33be 5632 89be 1693 793f
00000050: aa58 96be 0645 1dbd 8d10 19be 3aa7 5e3f
00000060: 4d49 19be 5e82 153e b147 9cbe 188a 6c3f
00000070: f4ea b7bd ccdf 22be 40e9 e7be 7a24 8dbe
00000080: 90fa 5d3f a6e0 0dbf a3c8 b1be ca1e a5be
00000090: fa16 063f ad54 08be 7619 0bbe bddc ac3f
000000a0: 3409 553f 49f6 65bb 3d5f 67bd a2d9 bbbe
000000b0: de7c 553f c737 7ebe 375a f6bc b0e9 603f
000000c0: 9b81 5ebe 940d 02bf a692 4dbe 8bec 833f
000000d0: ae4b c1be 68e7 03bf cdd9 133f 5dbb 843f
000000e0: a550 dfbd 8ecd cfbe d543 0fbe fa1f d1bd
000000f0: 651e ebbd 0242 a13f eace ddbd 2010 62bb

fc4.weight f4 [10, 64]
-0.12053274 0.045432076 0.14501134 0.11163621 -1.18406 -0.48553607 -0.50232935 -0.13503568
-0.16041264 -0.18234609 0.06686981 -0.4869518 -0.10082661 -0.11553455 0.0017945557 -0.19624461
0.08896848 -0.15614823 -0.8343119 0.08163007 -0.12518673 -0.16992438 -0.017465442 -0.3993119
0.08206699 -0.1496015 -0.20157675 -0.1215761 -0.6306567 -0.11376518 0.025140174 -1.3916388
-0.21907835 -0.34818769 -0.16912282 0.24841794 -0.20046222 -0.0029755202 -0.043073375 0.24315046
-0.20277368 -0.44258907 -0.17099643 0.15076296 -0.17634666 -0.26928306 0.044809468 0.14471513
-0.07159392 -0.029578576 0.3631777 0.11407987 -0.27316114 -0.10342687 0.12456817 0.13729744
-0.21515563 -0.31121168 -0.0954832 0.061889008 0.0540643 0.22519396 -0.025639683 -0.41846687
-0.42324382 -0.1524098 -0.079993635 0.17122614 -1.8082384 -0.5460563 -0.734456 -0.1726724
-0.24167845 0.21779752 -0.2996731 -0.004435516 -0.31480572 -0.08783949 -0.03735705 0.015982533
-0.15036912 -0.13717699 -0.36594048 0.19426163 0.21302392 -0.30920434 0.022064965 -0.69264996
0.11206255 -0.19154435 -0.5532986 -0.071138255 -0.8803345 -0.060570076 0.017663455 -0.56300044
-0.24244668 -0.6663593 -0.16194493 -0.1211363 0.20025885 0.0071843015 -0.06493359 -0.060210835
-0.9889968 -0.10451368 -0.14295441 -0.121621676 -0.17881502 -0.3868585 0.14320938 0.17118704
-0.19695312 -0.0731321 0.2954154 -0.5951418 -0.9398304 -0.08703977 -0.16502982 -0.43525004
-0.449087 -0.6067988 -0.14033179 0.19532028 -0.07750592 -0.5537777 0.073092766 -0.56284124
0.09365787 -0.44321898 -0.035192754 0.0019421324 -0.9950857 -0.21959902 -0.37846142 -0.18399127
0.11207591 -0.1537785 0.034795158 -0.79808044 -0.013589881 0.116587594 -0.04855048 -0.20489393
0.0052519185 -0.1454366 -1.107342 0.008587791 -0.34267896 -0.07176892 0.10134475 0.20331627
-0.027690638 -0.17016874 -0.22441243 -0.119709335 -0.20650458 -0.12619166 -0.1563242 -1.0288322
-0.6703388 -0.17435677 -0.07051173 -0.030922182 -0.10427886 -0.006866348 -0.1708104 0.12997553
0.19390556 -0.3102467 -0.045381743 0.018923746 -0.5312723 -0.37287483 0.017442007 -0.094215944
0.17112666 -0.31001487 -0.029112155 0.08914735 -0.06847958 -0.2891812 0.040136307 0.08061165
-0.28397363 -0.60007864 0.056380097 -0.0835227 -0.119585454 -0.47126463 -0.106678255 -0.33967277
-0.4849402 -0.4036887 -0.03783797 0.18672092 -1.425488 -0.2009936 -0.43680912 -0.103084326
-0.28663042 -0.20571432 -0.2892874 -0.34754044 0.00366216 -0.060379352 0.026573673 -0.09361074
-0.007087081 -0.048761364 -0.55524 0.1829628 -0.036406394 -0.15645202 -0.23173493 -0.31521675
0.064764515 0.1433575 -0.123929426 0.28969932 -0.85402304 0.044209857 -0.30249274 -1.3139575
-0.28155255 -0.45249823 -0.34617546 -0.014557401 0.016904145 0.013938808 -0.01984907 -0.15794706
0.14241172 -0.24637662 -0.093102515 -0.25172284 -0.18259035 -0.045037456 0.010025022 0.13083144
-0.21034814 -0.19503018 -0.27703542 -0.37936884 -0.051865652 -0.6749051 0.19848175 -0.39337066
-0.37825656 -0.63301814 0.17246743 0.066301495 0.029204145 -0.011520337 -0.12881109 -0.41101453
00000000: dfd9 f6bd fc16 3a3d da7d 143e 86a1 e43d
00000010: 478f 97bf 2f98 f8be a898 00bf cb46 0abe
00000020: 3643 24be efb8 3abe 0af3 883d bf51 f9be
00000030: 2f7e cebd 619d ecbd 4c37 eb3a 59f4 48be
00000040: 1b35 b63d 52e5 1fbe 7795 55bf ab2d a73d
00000050: f330 00be a800 2ebe b013 8fbc 9c72 ccbe
00000060: bd12 a83d 2331 19be 236a 4ebe e4fc f8bd
00000070: b872 21bf b8fd e8bd c4f2 cd3c 3821 b2bf
00000080: 1356 60be a845 b2be 882e 2dbe 4661 7e3e
00000090: f845 4dbe f200 43bb b56d 30bd 6ffc 783e
000000a0: e7a3 4fbe 099b e2be b019 2fbe 9b61 1a3e
000000b0: 3894 34be 78df 89be 228a 373d 3430 143e
000000c0: d59f 92bd c54e f2bc 6df2 b93e b5a2 e93d
000000d0: c7db 8bbe 78d1 d3bd 991d ff3d b397 0c3e
000000e0: c251 5cbe 2357 9fbe b28c c3bd 547f 7d3d
000000f0: 8772 5d3d 3f99 663e 500a d2bc 4a41 d6be
00000100: 6ab3 d8be 5111 1cbe b4d3 a3bd e855 2f3e
00000110: 5b74 e7bf 58ca 0bbf 4f05 3cbf 09d1 30be
00000120: 8e7a 77be 5006 5f3e c16e 99be ce57 91bb
00000130: 372e a1be 31e5 b3bd b503 19bd cded 823c
00000140: 5dfa 19be 2078 0cbe 8d5c bbbe 85ec 463e
00000150: f122 5a3e 0850 9ebe 96c1 b43c 8251 31bf
00000160: 0d81 e53d 3424 44be faa4 0dbf efb0 91bd
00000170: 9a5d 61bf 5418 78bd f3b2 903c cc20 10bf
00000180: f143 78be 8696 2abf e4d4 25be 4f16 f8bd
00000190: a810 4d3e 4a6a eb3b e7fb 84bd a39f 76bd
000001a0: e52e 7dbf 450b d6bd a462 12be c914 f9bd
000001b0: 491b 37be 5112 c6be 7ba5 123e a84b 2f3e
000001c0: 14ae 49be 48c6 95bd b040 973e 375b 18bf
000001d0: ba98 70bf e841 b2bd 94fd 28be 18d9 debe
000001e0: bbee e5be 2b57 1bbf 23b3 0fbe 0a02 483e
000001f0: 6cbb 9ebd 60c4 0dbf a9b1 953d 5d16 10bf
00000200: b3cf bf3d 99ed e2be 4726 10bd 268f fe3a
00000210: f0bd 7ebf 91de 60be b2c5 c1be 3568 3cbe
00000220: 0e88 e53d 1c78 1dbe 5e85 0e3d 004f 4cbf
00000230: 18a8 5ebc 7ac5 ee3d dedc 46bd b7cf 51be
00000240: 4918 ac3b 55ed 14be 62bd 8dbf ceb3 0c3c
00000250: 9e73 afbe 95fb 92bd d68d cf3d 2432 503e
00000260: 7ad7 e2bc b740 2ebe 5fcc 65be 2b2a f5bd
00000270: f075 53be 6338 01be 7313 20be c6b0 83bf
00000280: 539b 2bbf 958a 32be 7468 90bd 8450 fdbc
00000290: 2890 d5bd 1aff e0bb ece8 2ebe 4e18 053e
000002a0: 2e8f 463e a8d8 9ebe 35e2 39bd f905 9b3c
000002b0: 7601 08bf 73e9 bebe 8ae2 8e3c 4af4 c0bd
000002c0: d43b 2f3e 45ba 9ebe 9d7c eebc e392 b63d
000002d0: 063f 8cbd 8f0f 94be f865 243d b917 a53d
000002e0: fe64 91be c19e 19bf d1ee 663d f30d abbd
000002f0: 38e9 f4bd 9949 f1be 217a dabd 97e9 adbe
00000300: 154a f8be 49b0 cebe fdfb 1abd c533 3f3e
00000310: 6476 b6bf 44d1 4dbe 72a5 dfbe e01d d3bd
00000320: 39c1 92be c6a6 52be 7a1d 94be d2f0 b1be
00000330: d900 703b 5750 77bd 08b1 d93c fdb6 bfbd
00000340: bf3a e8bb ffb9 47bd 3524 0ebf 9a5a 3b3e
00000350: df1e 15bd f534 20be ec4b 6dbe 1764 a1be
00000360: 42a3 843d 4fcc 123e b6ce fdbd 7853 943e
00000370: 41a1 5abf 6515 353d 54e0 9abe c22f a8bf
00000380: a827 90be d9ad e7be e93d b1be 2a82 6ebc
00000390: 907a 8a3c 995f 643c 849a a2bc e0bc 21be
000003a0: 61d4 113e 274a 7cbe 88ac bebd d1e1 80be
000003b0: f7f8 3abe 3279 38bd fd3f 243c adf8 053e
000003c0: 8165 57be feb5 47be 96d7 8dbe a23c c2be
000003d0: 1471 54bd 95c6 2cbf cd3e 4b3e e167 c9be
000003e0: d8aa c1be 7a0d 22bf 4d9b 303e 14c9 873d
000003f0: 883d ef3c ccbf 3cbc 0ee7 03be 7f70 d2be

fc4.bias f4 [10]
-0.104156 -0.46966478 0.33843422 0.43528298 -0.51777977 0.53829527 0.2755194 0.2088456
-0.17296897 -0.74106
00000000: be4f d5bd e777 f0be 4047 ad3e 69dd de3e
00000010: 378d 04bf b8cd 093f e110 8d3e 9fdb 553e
00000020: c71e 31be 1cb6 3dbf
