runs/Mar02_17-12-18_cssd901383-Run(lr=0.01, batch_size=128, patience=1)-valid/checkpoint.pt (torch_old, 972387 bytes, 8 tensors)

fc1.weight f4 [256, 784]
00000000: 385d 66bc f0e7 89bc 89e5 8abd bd6a babd
00000010: 2554 6b3d 0950 723c dbff 7d3d fdf6 c03d
00000020: 9069 c43d c15e b63d 6343 f43d 1536 d33d
00000030: 95d0 603d 9288 25bb 1aeb e23c 7f14 193c
00000040: 354d b03d 184a c33d 5e44 1a3e d947 003e
00000050: 2368 dd3d 6378 823d d3b5 48bc a370 153d
00000060: 16b9 b3bd 9522 8fbd 1ee4 d53c 0aa3 07bc
00000070: fe9f a3bd ecc9 eabc 4520 97bd 4f4c b4bd
00000080: ff55 f13c aabb c3bd a635 42bd bb1d 02bd
00000090: e4ea 85bd 90e9 0ebc fb54 0b3e af53 4f3d
000000a0: 3efa ce3b 28b7 403c 7a2f cdbc 15b9 b73b
000000b0: 63e1 093d 0b97 8f3d 6a8e ad3d a0a4 29bd
000000c0: a2da c6bd 4fea b0bd cb81 63bd 6a30 35bd
000000d0: 61f1 adbd 9207 a4bd 2d5c c5bc 612a 03bd
000000e0: 623d 863c 8c52 f3bc dfb6 49bd 5565 82bd
000000f0: f237 0abd 7dc7 babd 40d0 f5bd b732 c3bd
00000100: 135d d8bd 3752 9f3c 4a56 41bb 8541 96bc
00000110: 984f e4bc 2244 1abd 0121 27bd 6199 27bd
00000120: 7dbd 30bd 9162 8aba da16 b7ba 5bf2 f7bb
00000130: e0ec f8bd 2e57 2cbe 1d00 ecbd 2026 b9bd
00000140: 81c1 01be 445d dbbd 6315 ffbc a010 a1bc
00000150: 40dc 8b3c 4480 d6bd 1f22 b4bd e547 07be
00000160: 95c7 e6bd e7d1 edbd d24f e1bd 7127 f2bd
00000170: 1d82 abbd 03cd 09bc 6498 55bc 8eb6 60bc
00000180: 5e8c 81bc e0dd d5bc 2dc3 cbb9 671b 3cbd
00000190: 8eb0 c4bc 3821 f7ba 8394 f6ba 0b10 47bd
000001a0: c669 b8bd 281a 09be 73c2 1fbe f3ce 0ebe
000001b0: 674c c9bd 8f3e a7bd 0ddc 10bd b947 52bd
000001c0: 7b78 3ebd 0659 aabd ee86 ddbd 986b e4bd
000001d0: 75a9 cabd 324f 00be 3535 01be 7d2b 2cbd
000001e0: 9576 c9bd 87e4 5e3c f870 06bc b3c0 b8bc
000001f0: d85d 653d a6de cf3c b5d4 023d 93fc 73bc
00000200: 64eb 443c 6813 1fbc 7aa9 06bd 535b 5cbd
00000210: 590b 06be 1f1c c6bd ca60 09be 4697 dcbd
00000220: 7297 14be 8c6b 7dbd 0968 9ebd 83a9 56bd
00000230: 5356 8abd afbc a1bd 0aaa cabd 6338 e9bd
00000240: e652 b8bd e883 28be 527f 9cbd 8945 a7bd
00000250: cf52 64bd b9ff 85bc 154d b3bc 7e6d 323d
00000260: a4b1 6c3d 65c4 653c 310d a3bb e284 cc3c
00000270: 6371 6f3b 9501 0ebc 4c57 fdbc 00dc a8bd
00000280: fd77 8ebd 1728 0fbe 5e15 13be aeaf 15be
00000290: e75e dbbd 4977 a2bd 55c2 2cbd d514 aebd
000002a0: 5b89 273c fa67 ebbd 3ae5 5cbd b951 b4bd
000002b0: be2c a4bd 796e 0bbe 9c16 f5bd 1d36 a4bd
000002c0: 8c15 95bd 0a13 4ebb bb1a 7b3c d341 193d
000002d0: c685 743d 250c 9e3c 4c01 3e3d 3126 31bc
000002e0: 48a6 37bb 2e3d 68bb 4066 a5bc 4098 44bd
000002f0: a5ea ebbd 5f71 d6bd ad7e d5bd c240 e4bd
00000300: 0c0f a8bd c309 aebd 62ab cabd 92a2 93bd
00000310: e254 b5bd fa9c 03be 7041 44bd 654f d9bd
00000320: b2dc a7bd 9c2c 1dbe cac5 69bd a6c0 55bd
00000330: 82ac a9bd d7a1 993b c3d0 ee3b a7fa 1a3c
00000340: 1046 353d c02f 253d 596c 46bc 0103 423c
00000350: 78d1 9ebc 1d32 61bb 9ff0 ffbc 04ff b9bd
00000360: 36bc ecbd 4aa3 e0bd 9fcf 20be 4ec4 21be
00000370: f6f4 03be 825f 94bd b8cf cbbd 490d bcbd
00000380: 900e 84bd d6b2 0bbe 7083 acbd 4056 b7bd
00000390: 2706 dcbd 6686 c8bd a098 5abd 3a68 b3bd
000003a0: dce6 c8bd d6b0 c43a a3c6 02bc a70a bc3c
000003b0: 7770 143d 16fc d73c 8359 95bd 4dc9 f5bc
000003c0: a712 a4bc 485d 72bd 0a57 78bc 9fe8 01be
000003d0: 801e b6bd b90c e4bd d78f 0fbe 96cd c3bd
000003e0: 82c1 f6bd e7c1 84bd f1a8 c2bd c5ab 9bbd
000003f0: 4591 59bd 184e dabd c7c1 07be dd96 a9bd
-0.014060311 -0.01683423 -0.067820616 -0.0910239 0.057453293 0.01478959 0.06201158 0.09422109
0.09590447 0.089047916 0.119269155 0.1031305 0.05488642 -0.0025258404 0.027699996 0.009343266
0.08608476 0.09535617 0.15065143 0.12527408 0.10810878 0.06370618 -0.0122503815 0.036484372
-0.08775537 -0.06989018 0.026109751 -0.008278618 -0.079895005 -0.028660737 -0.07379202 -0.08803617
0.029459951 -0.095572785 -0.047414444 -0.031766634 -0.065389425 -0.008722678 0.13606636 0.050616916
0.0063164523 0.011762418 -0.025047053 0.0056067803 0.03366221 0.07011231 0.08474429 -0.041416764
-0.0970967 -0.08638441 -0.055543702 -0.044235624 -0.08493305 -0.080092564 -0.024091804 -0.032022838
0.016386691 -0.029702447 -0.049246665 -0.06366984 -0.03374476 -0.091200806 -0.12002611 -0.095311575
-0.105646275 0.019448383 -0.0029500895 -0.018341789 -0.027869985 -0.037662633 -0.04080296 -0.040917758
-0.04314946 -0.001055794 -0.0013968602 -0.007566733 -0.12154555 -0.16830131 -0.11523459 -0.09040475
-0.12671472 -0.107111484 -0.031138128 -0.019661248 0.017072797 -0.104736835 -0.087955706 -0.1321102
-0.11268536 -0.11612301 -0.11001553 -0.11823929 -0.083744265 -0.008410695 -0.013036821 -0.013715399
-0.015814003 -0.026106775 -0.00038864595 -0.04592457 -0.02400997 -0.0018854504 -0.001881257 -0.048599284
-0.0900455 -0.13388884 -0.1560152 -0.13946132 -0.09829026 -0.08166229 -0.035366107 -0.05133793
-0.046501618 -0.08317761 -0.108167514 -0.111533344 -0.098956026 -0.1253021 -0.12617953 -0.04203366
-0.09837071 0.01360429 -0.008205645 -0.022552824 0.0559977 0.025374722 0.031941134 -0.014891761
0.012019012 -0.009709217 -0.03287647 -0.05379803 -0.13090266 -0.096733324 -0.13415828 -0.107710406
-0.14510897 -0.061870143 -0.07734687 -0.052407753 -0.06754746 -0.07897317 -0.098957136 -0.11387708
-0.090001866 -0.16456568 -0.07641472 -0.0816756 -0.055743035 -0.01635729 -0.021887342 0.04356145
0.0577866 0.014023875 -0.004975938 0.024965707 0.003653609 -0.008667369 -0.030925415 -0.08245087
-0.0695648 -0.13980137 -0.1436362 -0.14617798 -0.107114606 -0.07932908 -0.042177517 -0.08500067
0.010225619 -0.11494441 -0.053929545 -0.0880465 -0.080163464 -0.1361636 -0.11967203 -0.08018134
-0.072795 -0.0031444454 0.015326197 0.03741629 0.05969789 0.0192929 0.046387956 -0.010812328
-0.0028022695 -0.0035436857 -0.020190358 -0.04799676 -0.11519364 -0.104708426 -0.10424552 -0.11145164
-0.08205995 -0.08497956 -0.0989597 -0.07208742 -0.08854081 -0.1285285 -0.04791397 -0.106108464
-0.08196391 -0.15349048 -0.057073392 -0.052185677 -0.082848564 0.0046884823 0.00728807 0.009459174
0.04425627 0.04032874 -0.012110793 0.0118415365 -0.019386992 -0.0034362145 -0.031242667 -0.090818435
-0.11559336 -0.10968645 -0.15704201 -0.1579754 -0.12886414 -0.07244779 -0.099517286 -0.091822214
-0.0644809 -0.13642439 -0.08423507 -0.08951998 -0.10743361 -0.097912595 -0.05336821 -0.08760114
-0.09809658 0.0015006314 -0.007981929 0.022954298 0.036240067 0.026365321 -0.07292464 -0.030003214
-0.020028425 -0.05917099 -0.0151574705 -0.12686394 -0.08892536 -0.11135239 -0.14019714 -0.09560697
-0.120486274 -0.064822964 -0.09504879 -0.07601122 -0.053117055 -0.106594265 -0.13257514 -0.08280728

fc1.bias f4 [256]
00000000: 33a3 823b fe3b aa3e 2e08 47bd dc2f 3ebb
00000010: 6247 153e 15bb 95bb 85d1 a9bd d77c c43e
00000020: cec3 07bd d8c1 05bd 4930 63be 22e8 9fbd
00000030: ca42 d2bb 2d2e a7bd ec89 71bd 8dcb c4bc
00000040: 5776 d7bd 591f 8cbc efb0 a2bd d97d 9fbd
00000050: 355f dfbc b650 313e 07df c23e db32 8e3e
00000060: a2cb 47bd be4f bcbd b0c5 02bd 169b dcbc
00000070: 7e7d 9bbd 4c00 57bb a448 903c 3cf3 95be
00000080: 54b0 1d3f 7548 a1bc 70b7 09bd a62d bfbd
00000090: 3dc0 6fbd 5593 74bd 93ad 4dbd 7657 55bd
000000a0: f9ce 203d a797 a7bd 228f 0fbe e9fc 86bd
000000b0: 8cff 953e 117f 9c3d 671a b7bd 323a 083e
000000c0: f0d5 cfbd cbd7 473e bf87 1dbd e31a 7e3e
000000d0: e761 01bc 9115 393d 76f5 3abd f5a1 e1be
000000e0: bd58 063f 49b0 dc3e 58c1 88be ac2e ca3d
000000f0: 690f 18bd e738 8dbd dcc3 83be abb2 5d3e
00000100: 74f4 023e 3895 61bd 3d74 98bd 11e3 a7bd
00000110: a9a4 3bbd 23a3 51be 9325 87bd 6297 acbd
00000120: 9fb1 383d e2c0 97bd 1d7c 1dbd b7ca 28bd
00000130: bd98 16bd 8202 4abd a89e 443c acb7 6a3e
00000140: 3fa9 d4bd e63d 4ebd 3f12 85bd c4cb aabd
00000150: 8d4f 80bd ad56 143e bc78 84be 253e b63e
00000160: e6fb 9dbd 4aa7 a7bd 23bf 79bd b308 2dbd
00000170: 1e4e dcbd 240c 88be 1e96 683e c204 b5bc
00000180: 6511 923e 2d65 5dbd 285e 0fbd 09b8 0ebc
00000190: 7d97 26bd 2322 81bd 304f 813e f4c3 a4bd
000001a0: b4be 35bd 4326 2dbd 1bbe 5abd 6e09 b4bd
000001b0: 9e80 a1bd dd92 36bd e7a2 693d e64a 1fbe
000001c0: c00e c9bd f529 51bb bb1f babb 3105 54bd
000001d0: 2f93 96bd ed2a 11be 3df9 513e 4b1b 65bd
000001e0: 7ef9 ca3c 528f c5bc 1cac 8fbd 007e 813c
000001f0: 0d56 14bd c774 45bd 8939 573d 5236 ecbd
00000200: 99d7 44bd d44e a9bd 17f6 14be 394d dbbe
00000210: 1ffc 1abd 914b 95bd 2e43 9cbd c9e1 29bc
00000220: 991d fabd 8c46 55bc d2f8 a33e 587e 2bbd
00000230: 023a 0ebf 0c6b 4dbd ad1d 02bd 6878 6fbd
00000240: d3bd 8ebd 02fa 503e 4e49 98bd 9ff8 9ebd
00000250: 4699 b8bd 026e c3bd de30 13be 0a67 bcbd
00000260: d219 7bbd c5e2 72bd 24fe debd 429c c3bd
00000270: 6391 4bbb 34d9 92bd d788 583f c9c8 08bd
00000280: b779 273f fa1c 85bd db70 9bbd 9b96 0c3c
00000290: a821 47bd 90b1 17bc 2bdd 8abc 8d38 673e
000002a0: 9d85 d1bd 1819 7dbd c4d6 793c d4d7 9dbd
000002b0: 5378 8dbe 24e6 66bd e130 b4bd 7ac1 3bbd
000002c0: d7c2 873c 07dd 23be 0cba f6bc 5788 65bc
000002d0: 6c0e aabd 5e45 7ebd ac70 573e 6249 5dbd
000002e0: 1710 09bd 9953 10be c96b 3dbd 7a1e 9abd
000002f0: cd3a 8abd d35d 283f 8f47 153e c85a 26bd
00000300: f377 453e 6f58 843e ef19 90bd a905 33bd
00000310: daa2 86bd 174c a1bd 036a 12be b89c e93d
00000320: de98 03bd 1d5d 943e fd6f cd3e 0c6f bcbd
00000330: 6052 3abd f910 18bd 42a1 cebd 4800 003d
00000340: 76a1 b33b 69eb 6d3b fd27 323e 847d 33bd
00000350: 6993 8b3e a911 863e 3d53 143e 4d74 313f
00000360: 2bcc dfbc 289b e6bd d2a9 93bd 0fdb a5bd
00000370: c2c6 3abd db90 81bd e52b a0bd 7a9f b23e
00000380: d3b6 16bd 3f30 38bc 082a c5bd 1b55 59bd
00000390: 6ded adbc 528d 0fbd d8d5 71bd a866 023f
000003a0: a446 6cbd 70d5 8cbd c433 9cbd 528d 923e
000003b0: ab85 6e3e e174 c83d 0d55 783c 401e 6b3e
000003c0: 9d94 abbd 6496 b8bc d1de 3d3f 379e 23be
000003d0: 4cc4 82bd baa9 3bbd 4446 68bc b3ac 57bd
000003e0: d661 f6bd feeb d53d 4e37 0cbe 15e9 85bd
000003f0: 0a95 893c 0451 31bc 9b18 fd3d 9d3e ebbd
0.00398674 0.33248895 -0.048591785 -0.0029020226 0.14578012 -0.004569421 -0.08291916 0.38376495
-0.03314572 -0.032655567 -0.22186388 -0.07807948 -0.0064166533 -0.08163104 -0.058969423 -0.024022842
-0.105206184 -0.017104791 -0.07943904 -0.077876754 -0.027267078 0.17315945 0.3806078 0.27773175
-0.048778184 -0.09194897 -0.03192681 -0.02692942 -0.07592295 -0.0032806573 0.017612763 -0.29287136
0.6159718 -0.01968787 -0.033622205 -0.093348786 -0.058532942 -0.05971082 -0.05021436 -0.052085362
0.039259885 -0.08183222 -0.14019445 -0.065912075 0.2929653 0.076414235 -0.08940583 0.1330345
-0.10148227 0.19515912 -0.038459536 0.24814944 -0.007896877 0.045186583 -0.045644246 -0.44068876
0.52479154 0.43103245 -0.2671001 0.09872183 -0.03712407 -0.06895619 -0.25735366 0.21650188
0.12788564 -0.055073947 -0.07444046 -0.08197606 -0.04581133 -0.20472388 -0.065989636 -0.084273115
0.045091268 -0.07409836 -0.03844844 -0.04120895 -0.036766756 -0.049318798 0.012000717 0.22921628
-0.10383844 -0.050352 -0.06497621 -0.083396465 -0.06265173 0.14486189 -0.25873363 0.35594288
-0.077140614 -0.08186205 -0.060973298 -0.042244624 -0.10757087 -0.26571763 0.22713515 -0.022096995
0.28528896 -0.054051567 -0.035001904 -0.00871087 -0.040671814 -0.06305339 0.25255728 -0.080451876
-0.04437132 -0.042272817 -0.053403955 -0.08790861 -0.0788586 -0.044573653 0.05704012 -0.15555915
-0.098172665 -0.0031915877 -0.005680052 -0.051762763 -0.07352292 -0.14176531 0.20505233 -0.05593423
0.02477717 -0.024116192 -0.07015249 0.015807152 -0.036214877 -0.04820707 0.052545104 -0.11533798
-0.048057172 -0.082669884 -0.14547001 -0.42832354 -0.037838098 -0.07289804 -0.07630001 -0.010368773
-0.122126766 -0.013017308 0.32025772 -0.041868538 -0.5555726 -0.050150916 -0.031766582 -0.058464438
-0.069698 0.2040787 -0.07435857 -0.077622645 -0.090136096 -0.09542467 -0.1437411 -0.09199341
-0.06130392 -0.059298296 -0.10888317 -0.09551288 -0.0031062 -0.071703345 0.845838 -0.03339461
0.654201 -0.064996675 -0.07589885 0.008580829 -0.04861608 -0.009258643 -0.016951164 0.22580166
-0.10230563 -0.06179151 0.015248958 -0.077071816 -0.27630863 -0.056371823 -0.087983854 -0.04583881
0.016572399 -0.16002284 -0.030118011 -0.014009557 -0.08303532 -0.062077872 0.21039075 -0.05402506
-0.03346261 -0.1409439 -0.04624537 -0.07525344 -0.067494966 0.65768164 0.14578079 -0.04061392
0.19284038 0.2584872 -0.070361964 -0.04370657 -0.0657403 -0.07875841 -0.14298253 0.11406845
-0.032128207 0.2897729 0.40124503 -0.09200868 -0.045488715 -0.03712556 -0.10089351 0.03125027
0.005481894 0.0036303645 0.17398067 -0.043820873 0.27260903 0.2618535 0.14484878 0.69318086
-0.027319035 -0.112600625 -0.07210125 -0.08098423 -0.045599706 -0.06326457 -0.07820872 0.34887296
-0.03679545 -0.0112419715 -0.096271574 -0.05305968 -0.021231377 -0.035046883 -0.059041828 0.5093789
-0.057684556 -0.068766475 -0.07627061 0.28623444 0.23293178 0.09787918 0.015156996 0.22960758
-0.08377955 -0.02253265 0.74168116 -0.15978323 -0.06385097 -0.04581616 -0.014176909 -0.052654933
-0.120303795 0.104454026 -0.13692972 -0.065385975 0.0167947 -0.010822538 0.12358209 -0.11486552

fc2.weight f4 [128, 256]
00000000: e163 e9bd ff96 ebbc 88cf 6abd 1fac 0d3d
00000010: a103 40bd b806 393d cab8 bebd b5b0 afbd
00000020: 1bc1 2d3c 3ce7 713d 594c e33d f1cc f13d
00000030: 2d77 0bbd a335 fc3c 4911 2c3c e328 4dbd
00000040: 8060 103d 4f4f ecbc 04c0 883c 42f7 fdbd
00000050: 9561 05bd 4fa3 b23b 5d37 9abd a9ee 07be
00000060: ea3e 863d df33 393c 7ce6 f2ba f0ea 9e3d
00000070: 9635 e2bc ceef 75bd 2402 30bd d841 efbb
00000080: 65ad c9ba aff9 923b fe8d e43d 71ec a2bc
00000090: 19be 6fbd 1bb5 97bd 91d1 fbbc 0bc8 883c
000000a0: 8a53 b9bd eb83 bebd 33b9 cdbd d323 babd
000000b0: 5287 d53d ea47 d2bd 3764 78bd 9181 89bd
000000c0: 9e47 253c 310f 0cbe 7e11 893d f995 62bc
000000d0: 0c59 e43d 5bfc f2bd e2a5 42bd f569 55bc
000000e0: 35b0 c1bd 3315 b93d ed29 8dbc ef25 92bd
000000f0: 2afc 9c3d 67ed ba3d b608 e4bd 600e 12bd
00000100: 78aa 573c 31a1 e23c de81 5bbc ef28 44bd
00000110: 609d 8dbd 3d06 56bd 4c7d 8e3d 3c95 a13c
00000120: 54c2 b33c a898 a0bb 3dc3 82bd 66ca ebbc
00000130: 00c8 033c d7fc bf3c 024d 0a3d 790d c3bb
00000140: 3612 03bc 8dca e33d d428 aebd 04cf 3fbd
00000150: 0e53 243d 3554 333c 1008 45bd 4335 dbbb
00000160: 818d 183c 9559 843d 9bf2 ecbc dfba ab3d
00000170: 4462 3a3d 18d3 00be ae6d ddbd 3950 0dbe
00000180: 9245 66bd 3d8a 18bd 927a abbd 4961 183c
00000190: afa1 623b 15a6 cc3d 19cc 37bd f1a9 0cbe
000001a0: 2717 6b3d 050d f43d 41e1 e63d c29e 2a3c
000001b0: d393 90bd b51d fbbb 43c6 00be d3ad d1bc
000001c0: a78e 283d 1f32 fcbc d912 dabd c042 c6bd
000001d0: 3d4d bc3d 579e bcbd c93f 7dbd 7ed3 253c
000001e0: 78bc c1bd 47dd 1fbd fcf3 093c 04bd 9dbd
000001f0: ff2b 42bd a736 99bd 3812 25bd bd8c 2d3a
00000200: f6a5 55bd 64c2 8fbd 15f8 0bbc 0c2c c4bb
00000210: 584d b6bc 3870 a9bc b72d 923d d7da 37bd
00000220: 1667 3abd c47e 113d 2ef5 a3bc 49f4 bdbd
00000230: 5e00 c9bd 1851 a0bb 00d7 acbd 4d74 f9bd
00000240: 43ad 9fbc c721 e0bd e0ec 20bd f8e8 77bd
00000250: dc09 cf3d 7799 863d 202a fa3d 30a0 a0bc
00000260: 833d f93b 9d96 d2bd 84b7 283c b72e 1fbd
00000270: 3a58 00be 5e91 ec3d 7003 83bd 5ed8 a5bd
00000280: 3750 07bd 65db c5bd 1d70 3fbd f3e7 c93d
00000290: ac31 a6bd 70d7 07bd dacf 32bc 7ad9 2b3d
000002a0: d4f1 5b3b 7fc4 f33d b8ca 26bc f665 ffba
000002b0: cdf6 833c 06ab b83d 1f7d 3fbd c78a 843d
000002c0: a0a4 97bd c068 8cbd 2ee3 9e3c a434 0f3c
000002d0: 7060 0b3c f607 b5bc 4e69 2fbd 37f3 803c
000002e0: 1640 0fbd 5114 9ebd 074e dabc 2c2b 4dbd
000002f0: 0fb8 52bd a205 a0bc 29a3 ea3d 0e6a e7bc
00000300: 0a86 1e3c a545 57bd 3310 77bd 43aa c6bd
00000310: cba9 61bd 8e41 95bd fda9 80bd 9382 89bd
00000320: 454b bfbd 956e e0bd f120 90bc 4e00 763d
00000330: cc5c dabc ae2b cb3d 151a 16bd 8ff2 36bc
00000340: ab64 98bd 3a65 debd 3879 96bd 69c6 07bd
00000350: d1a8 e6bd b898 b0bc 1b2e 60bd 2b76 2ebd
00000360: 96e6 93bd 9ff3 86bd a3e6 a6bd d51d c93d
00000370: dd4d b43a 4f8b 6e3d cfc0 943d 85d8 fbbd
00000380: 3978 c03d 2847 d63a 1d92 adbc d4e6 2a3b
00000390: d5f4 e7bc 5375 10bd f8d3 e03c fab1 96bd
000003a0: f655 c83d 0ae5 143d 14fb debd d8c7 043c
000003b0: 3f66 91bc 46bc bdbd f1a2 923b 8154 4abd
000003c0: 1d71 9bbd 86b6 fbbd 501d 5a3c e5f6 cf3d
000003d0: 6365 e2bd fa0a b73d 27de 18bd 2399 74bd
000003e0: 4213 e4bc 6da6 b0bd 9371 993c 4ef4 afba
000003f0: 9bb0 bebc 4a62 00bd f4f3 a5bd dc24 0dbd
-0.113960035 -0.028758524 -0.057326823 0.034587976 -0.04687846 0.045172423 -0.093125895 -0.08578626
0.010605122 0.059058413 0.110985465 0.118066676 -0.0340492 0.030787295 0.010502168 -0.05008782
0.03524828 -0.028846411 0.016693123 -0.12400676 -0.032563765 0.005451597 -0.07530091 -0.13274635
0.06554969 0.011303871 -0.0018531824 0.077596545 -0.027613442 -0.06004315 -0.04297079 -0.0073015504
-0.0015386759 0.004485331 0.11159895 -0.019888135 -0.0585309 -0.0740759 -0.030739577 0.01669695
-0.09049137 -0.09302505 -0.100450896 -0.09088864 0.10426201 -0.10267623 -0.060642447 -0.06714166
0.010087876 -0.1367767 0.066927895 -0.013829702 0.11149797 -0.11864539 -0.04752148 -0.01302575
-0.09457437 0.090372466 -0.017231906 -0.071361415 0.07665284 0.09127312 -0.11134474 -0.03565824
0.0131632015 0.027664753 -0.013397662 -0.0478906 -0.069147825 -0.052252043 0.06957492 0.01972448
0.021943249 -0.0049010105 -0.06384895 -0.028783035 0.008043289 0.023435993 0.033764847 -0.005952534
-0.007999947 0.11122618 -0.08503881 -0.046828285 0.04011827 0.0109453695 -0.048103392 -0.006689699
0.009311081 0.06462399 -0.028924277 0.08385252 0.04550387 -0.12580526 -0.10811935 -0.13800134
-0.05621869 -0.03724121 -0.08372988 0.009300538 0.0034581234 0.09992615 -0.044872377 -0.13736703
0.057395127 0.11916546 0.112734325 0.010413827 -0.07059445 -0.0076634535 -0.12575631 -0.025595581
0.04115167 -0.030785618 -0.10648126 -0.096807 0.091944195 -0.092098884 -0.06182841 0.010121224
-0.09459776 -0.039029386 0.008419987 -0.077020675 -0.04740524 -0.07481127 -0.040300578 0.0006620398
-0.052160226 -0.07019499 -0.008543034 -0.005986696 -0.022253677 -0.020683393 0.07137626 -0.044886436
-0.045508467 0.035521284 -0.020014372 -0.09275109 -0.09814523 -0.0048924796 -0.084394455 -0.12180386
-0.019491797 -0.109439425 -0.0392884 -0.06052491 0.101093024 0.0657224 0.12215066 -0.019607633
0.0076062097 -0.102826335 0.01029766 -0.03886291 -0.12533656 0.11551164 -0.0639714 -0.080979094
-0.033035483 -0.09660987 -0.04673778 0.09858694 -0.08114943 -0.03316444 -0.0109138135 0.04195545
0.003356089 0.11902713 -0.010180168 -0.0019485343 0.016108895 0.09016995 -0.046750184 0.06471782
-0.074044466 -0.06855917 0.019395437 0.008740578 0.008506879 -0.022098523 -0.042825036 0.015740974
-0.034973226 -0.07718719 -0.026648534 -0.05009 -0.051445063 -0.019533936 0.114569016 -0.028248813
0.009675512 -0.052556653 -0.060318183 -0.097004436 -0.055093568 -0.07287894 -0.06282423 -0.06714358
-0.093405284 -0.10958592 -0.017593833 0.060058884 -0.026655577 0.099204406 -0.036645968 -0.011166229
-0.07441076 -0.10859151 -0.073473394 -0.033148203 -0.11262668 -0.021557197 -0.05473147 -0.042593163
-0.07221715 -0.06589436 -0.08149459 0.09820143 0.0013756115 0.058238324 0.07263338 -0.12297157
0.09397931 0.001634811 -0.021187836 0.0026077526 -0.028314987 -0.03526814 0.027444825 -0.07358165
0.09782021 0.03635124 -0.10887733 0.008104287 -0.01774895 -0.09264426 0.0044749905 -0.049396995
-0.07589934 -0.12290673 0.013312653 0.10154513 -0.11054494 0.089376405 -0.037321236 -0.059716355
-0.027841214 -0.08625493 0.018730914 -0.0013424249 -0.023277571 -0.031343736 -0.08103171 -0.03445898

fc2.bias f4 [128]
00000000: 9fa0 d3bc 4799 363e db79 7cbd 06a8 5fbe
00000010: b51a fdbd cb93 833e 6bd3 113e c591 f9bd
00000020: bf14 1d3e 4583 82be 915d aebe c2b2 a23e
00000030: 3b4e 9f3e 8c20 aebd 6d34 b8be b7d0 94be
00000040: f6c3 d0bd dd6e c33e 86e2 17be b9e7 1bbe
00000050: 5da0 20bd 917f 1dbd 4a28 fdbd f11a 993d
00000060: 8dd8 15bd 8ebd 553e 3adf ba3e 5c9f ac3e
00000070: 194b 033f a267 293e 54e5 12be 1604 85bd
00000080: 33be febd 4703 a1bd a5bb 023c b80d 40be
00000090: 11a0 01be ce31 9e3e 3148 cabc 2ad7 33be
000000a0: ea5f 3ebe c342 793e c70f a03e 94b5 8bbb
000000b0: b44c 0b3f 62f2 1bbd 18fc a0bd 7eb8 64be
000000c0: cdfe 263e cfe0 23be 73c1 de3d 19d8 2cbe
000000d0: b0e0 21be 6049 363e c8c6 33bd ee90 e2bd
000000e0: a3ea 023e d34a 6f3e d485 7f3e b25f 4d3d
000000f0: f882 683e f582 06be c355 5dbe 096e eebd
00000100: 00a4 1e3e a109 abbd ed94 babb 2ce5 c7bd
00000110: 1d9d cb3d eaee 203d 35bc 533e 9f79 7fbd
00000120: c3e9 d0bd 7794 9dbd f58e 1e3e 3fa9 333d
00000130: c6e0 c9be 35e5 be3d 88dc dc3e 70df 6c3c
00000140: d09e a5bd b69b 8ebe 13b6 72bd a9f2 d9bd
00000150: f5af 893e bec0 c9bc c70a 0ebd 37f9 4dbe
00000160: 0b11 cfbd e33d 8ebe eec8 7d3d 2700 15be
00000170: e8e5 43bd 7d75 2b3d fb1f e3bb dd2f 7cbe
00000180: 30d4 bd3e 39cb e1bd ebda 40be 7b48 97bd
00000190: 930e 8dbd 17fe 5abc dde8 8cbd 2c08 9f3e
000001a0: f01f dcbd 6602 aebd d010 d2bd 6b97 47bd
000001b0: 8139 d0bd 619e 8bbd e445 0dbe c29e a0bd
000001c0: 3f14 8c3e 79eb f03d ddd5 9a3d 44e5 a6be
000001d0: 9cd8 003f 6a8e c1bc 79ac 06bd 3b6a fdbd
000001e0: 8fa6 d8bd 83b7 99be 0317 85be 108c 9dbc
000001f0: 3d78 a8bd 8c26 173f d302 523e a2c0 e33c
-0.025833426 0.17831908 -0.061639648 -0.2184144 -0.123586096 0.25698695 0.14240806 -0.121860065
0.15339945 -0.25490776 -0.3405576 0.31777006 0.31114373 -0.085023016 -0.35977498 -0.29065487
-0.101936266 0.3817052 -0.14832506 -0.15225114 -0.039215434 -0.038451735 -0.123612 0.07475842
-0.036583472 0.2087309 0.36498433 0.33715332 0.51286465 0.16543439 -0.14345294 -0.0649492
-0.12438621 -0.07861953 0.007979308 -0.18755233 -0.12658717 0.30897373 -0.024692627 -0.17562547
-0.18591276 0.24341874 0.31262037 -0.004263589 0.54413915 -0.03807295 -0.07860583 -0.22336003
0.16308136 -0.16003726 0.10876741 -0.1687931 -0.15808368 0.17801428 -0.043890744 -0.110627994
0.1278482 0.23368387 0.24953395 0.05014009 0.2270621 -0.13135894 -0.21614747 -0.11642081
0.15492249 -0.08351446 -0.005694023 -0.09760508 0.09942076 0.039290346 0.20677264 -0.062371846
-0.102008365 -0.07694333 0.15484221 0.043862578 -0.394293 0.093210615 0.43137002 0.0144575685
-0.08086932 -0.27853173 -0.05925567 -0.10641987 0.26892057 -0.02462804 -0.034678247 -0.20114599
-0.101106726 -0.2778159 0.0619592 -0.1455084 -0.047826678 0.041860092 -0.0069313026 -0.24627633
0.3707595 -0.1102509 -0.1883351 -0.073868714 -0.068875454 -0.013366244 -0.06880353 0.31060922
-0.10748279 -0.08496551 -0.10257113 -0.048728388 -0.10167218 -0.06817318 -0.13796192 -0.07842781
0.27359197 0.11763663 0.075603224 -0.3259679 0.5033052 -0.023627479 -0.032879326 -0.123737775
-0.105786435 -0.3002282 -0.2599412 -0.019231826 -0.08226059 0.5904319 0.2050889 0.027801815

fc3.weight f4 [64, 128]
00000000: abb8 abbd 296f 85bd d811 583d 428e 843e
00000010: 4750 d8bd 9906 563d a1e3 a0bd 5f9b 473d
00000020: 1cad 10be f9c7 e03a 3b47 b93e fbd3 febd
00000030: 1f68 0cbe e12a e33d 9cd3 ae3d 3c41 b13d
00000040: b84b f93d 7406 4a3d a4b5 1d3e 925d bebd
00000050: a350 78bd 2570 b3bd 5e97 813d 1f32 423d
00000060: 4014 77bb 48b1 16be 87ce e63d 3796 85bd
00000070: 2f88 253d 47d2 25be ad44 433e 7409 3b3d
00000080: ff69 473c f363 323d 46a7 ea3c 8cba 013e
00000090: 14ba 3f3d c522 9ebd 3e11 fd3c 7593 0a3e
000000a0: 99a5 d03d b916 c1bd 004e 113d 4d82 02bc
000000b0: 88d3 3abd de98 93bc 1a86 6dbb 1559 2dbe
000000c0: 8201 82bd ddab f7bd 5d0e 9a3c 8463 fd3e
000000d0: c1f2 a23d 92aa 093e 0d08 85bc c549 8ebd
000000e0: 2b1b 8cbd 1a05 0dbd 6e83 1fbe c005 86bc
000000f0: 1e36 67be dabf ccbc e705 a53e a544 05be
00000100: 3530 4a3e 1636 a53d bb61 2abd bba8 263d
00000110: 6202 2bbe b381 a43d 5ba9 343d 4610 6d3d
00000120: 30d1 85bc 2fb4 d63d 557c 073d aaf2 a1bd
00000130: 2623 c73d 0414 813d 3f21 bb3c b6be b9bd
00000140: 66c4 e63d 390f edbd b34d 203e 6548 8ebd
00000150: e067 e4bd f6d9 b33c 756a 0f3c a58e e7bd
00000160: ed2d cdbd 744b 6d3e 911f 3c3e 5416 4ebd
00000170: ca70 c83d 2070 143e 9d8e 0e3d 56d2 29bd
00000180: a43e fc3c e843 8c3d eea8 f23d 21be f9bc
00000190: 79d7 573d 4617 69bd a1f1 0ebe 012d a93c
000001a0: eb24 613d 8dee 413c ad7a 4dbd 1ec6 54bb
000001b0: e8b2 b23d c020 64bd 50eb 213c f755 723d
000001c0: 5803 5fbd 1393 ea3d d8fe b839 5871 71bd
000001d0: 7538 2a3d 6268 33be c5e4 b5bd 101a 9ebd
000001e0: 0bf4 89bc 49f3 8fbc 4e02 603e 42e6 be3d
000001f0: fd5f 8e3c 3539 d1bd 02cc 76be 9de8 02be
00000200: b87c 6a3c 9583 93be 350c a9bd c175 983d
00000210: 30dd 03be 0688 6fbd 8207 173d 8146 52bd
00000220: daa8 47be 1665 203d d0eb 8dbc 0711 d2bd
00000230: 8866 27be d2ad b5bc b0dc 8cbd 6fcc 0ebd
00000240: 564e 543d 6c87 d0bd 0187 4d3e 861b 93be
00000250: dba2 98bd 9324 e7bd 0dd2 9c3d 9909 9cbd
00000260: bdac 9ebd c2f4 2cbd 229e 1dbe 0457 43be
00000270: 1aa4 62be 54bd 2abe 1827 b53c b981 b2bd
00000280: ba82 5fbd 8b34 613e 7cee 1bbd 0090 60b8
00000290: cb05 2abd 53d7 50bd d29c e0bd 2aa8 7b3d
000002a0: 67b5 843d bfa5 90be 4d77 58be 049b 74bd
000002b0: 8b33 fc3c 542e 28bd 39ca 8f3d 3b26 7cbd
000002c0: 21f8 babd 3e9a 6fbd cbfd 1bbe 74f9 24bd
000002d0: 60b8 063b ba0c 0ebd bab8 8abd de5a 1e3d
000002e0: 9be5 f53b 484d b7bd 8adc 5cbe b65e 47bd
000002f0: 3bd9 78bd f3a0 94bd 9574 77bc 9737 43bd
00000300: d8b3 1bbe 6505 febd 1326 f9bc ce6c a1bd
00000310: 87c8 08be b029 f0bb cb61 bebe b4ef 0fbe
00000320: 1660 493c 0b8b 68bc a848 353e 4520 61bd
00000330: dfce 77bd f282 23be a9c9 153d 4e0d 05be
00000340: 5715 8bbd fcd4 c0bc 318b f1bd 0060 213a
00000350: a61c 8ebe 35ae 853c ba10 6d3d f82d c73c
00000360: cb6b e6bd 081d 27bd 4fbf 7ebd fee2 53bd
00000370: b434 96bd 6cfe 87bc 80f7 a0bb fb31 17be
00000380: 0421 95bd 0c8a 66bd 8096 77bc 1c0b f4bd
00000390: d8ba 6ebc f452 5bbd b27c 6fbd c645 9cbe
000003a0: e90f 90bd e7d1 613c 60c8 ccbb 1b6d c4bc
000003b0: 429d 6fbd 8027 c8bd f0ce 023c aedb 08be
000003c0: 4433 aabe 3cd8 8ebe 6c22 98be 1999 bd3c
000003d0: c89c 37bd 0198 febd f2be 17be 3d1a 883d
000003e0: 734c c83b 5e11 043d 4b65 91be fec3 9fbd
000003f0: 2d0f 23bd 05b4 d1bc 7c8b 84be 6f22 96be
-0.08384832 -0.06515343 0.052751392 0.25889784 -0.10562187 0.052252386 -0.07855917 0.048732158
-0.14128536 0.001714944 0.36187157 -0.12442776 -0.13711594 0.11092163 0.08536455 0.086550206
0.12172645 0.04932256 0.15401322 -0.09295191 -0.060623776 -0.08761624 0.06327699 0.04741108
-0.003770128 -0.14716065 0.11269861 -0.06522792 0.040413078 -0.16193496 0.19069166 0.045663312
0.0121712675 0.04355235 0.028644215 0.12668818 0.046808317 -0.077214755 0.03089201 0.13532813
0.10187835 -0.09428162 0.035474777 -0.007965636 -0.04561189 -0.018017229 -0.003624326 -0.16928513
-0.06347944 -0.12093327 0.018805677 0.49489987 0.07956458 0.13443974 -0.01623919 -0.06947664
-0.068411194 -0.034428693 -0.1557748 -0.016360164 -0.22579238 -0.024993826 0.32231066 -0.13014467
0.19744952 0.08066957 -0.04159711 0.040688258 -0.16700128 0.08032551 0.044106822 0.057876848
-0.0163351 0.10483586 0.033077557 -0.079076126 0.09723501 0.06302646 0.022843001 -0.09069578
0.11267929 -0.11575169 0.1565464 -0.06947402 -0.11152625 0.021954518 0.008753409 -0.11306504
-0.10018525 0.23173314 0.18371417 -0.050314263 0.09787138 0.14495897 0.034803975 -0.041460358
0.030791588 0.068488896 0.11848627 -0.030486168 0.052695725 -0.05690696 -0.13959362 0.020651342
0.05496685 0.01183666 -0.05016582 -0.003246672 0.0872553 -0.055695295 0.009882763 0.059164014
-0.05444655 0.114538334 0.00035285088 -0.058945984 0.041557748 -0.17520288 -0.08881525 -0.07719815
-0.016840002 -0.017572062 0.21875879 0.09321262 0.017379755 -0.102159895 -0.2410126 -0.12784047
0.014311962 -0.28811327 -0.082542814 0.07444335 -0.12877345 -0.05847933 0.036872394 -0.05133677
-0.19498006 0.039158903 -0.017324358 -0.10257154 -0.16347706 -0.02217761 -0.0687803 -0.03486293
0.05183252 -0.1018208 0.20071031 -0.28731936 -0.07452937 -0.11286273 0.076572515 -0.07619018
-0.07747791 -0.042225607 -0.15392354 -0.19076163 -0.22132912 -0.16673785 0.022113368 -0.08716149
-0.05456803 0.219927 -0.038069233 -5.3539872e-05 -0.04150943 -0.0509866 -0.10967411 0.06143967
0.06479912 -0.28251454 -0.2113926 -0.059718147 0.030786296 -0.041059807 0.07020993 -0.061559897
-0.09129358 -0.058496706 -0.15233533 -0.04027696 0.0020556673 -0.034680106 -0.06773515 0.038660876
0.0075041777 -0.08950287 -0.21568504 -0.048674308 -0.060754042 -0.07257261 -0.015103479 -0.047660436
-0.15205324 -0.12403373 -0.030413663 -0.07882081 -0.13357745 -0.0073291883 -0.37183985 -0.14056283
0.012290975 -0.014193307 0.17703497 -0.054962415 -0.060500022 -0.1596792 0.03656927 -0.12993357
-0.067911796 -0.023539059 -0.11794127 0.0006155968 -0.27756232 0.01631842 0.05787728 0.024313912
-0.112510286 -0.04079917 -0.062194165 -0.05173015 -0.07334271 -0.01660081 -0.004912317 -0.1476516
-0.07281688 -0.056283996 -0.015111566 -0.119161814 -0.014570914 -0.053545907 -0.058468528 -0.30521983
-0.070342846 0.013782955 -0.0062494725 -0.023977807 -0.058499582 -0.09773159 0.007983908 -0.13365051
-0.33242238 -0.2789935 -0.29713762 0.023144292 -0.044827253 -0.12431336 -0.14818934 0.066456296
0.006112629 0.032243125 -0.28397593 -0.078010544 -0.039809395 -0.025598535 -0.25887668 -0.29323146

fc3.bias f4 [64]
00000000: 51ff 85bc c704 36be 19b3 58be 5955 cc3e
00000010: d63c 243f 3193 b8bd 2601 e03e aebf ffbc
00000020: 8992 823c b5e1 a2bd d80c 3d3e aefa 42bd
00000030: 26d1 613e 0223 11bc f74e 8e3d 9bd1 e1bd
00000040: bf26 543c eee1 f13b 897d 3ebe de1b 1b3e
00000050: 1e33 afbd 071b f03c 5de1 9bbd 436b 2f3e
00000060: d417 f23b 04a3 ea3d 9043 07be c412 3a3e
00000070: 1f9e 02bd 6323 c4bc 47d7 c9bd b84d 37be
00000080: e683 b33e d4e8 a8bd 8b35 8bbc 13b7 38be
00000090: 3a2b 843e 36ee a4bd 7270 473d a8a4 e93e
000000a0: 1980 d53e 9246 163e eb2c 2fbd 0325 eebd
000000b0: dee5 653e 98e8 373d d964 eebc e2d8 853e
000000c0: 72b7 b5bc ada6 aabd 6e9c 733c fe02 3f3e
000000d0: 9506 d9ba fd3d c3bd 6efe 793e c17f 993e
000000e0: e065 38be c19e 48be 0829 50bc f183 bd3d
000000f0: 5926 dcbd e1c3 8a3e 59da 69bc f0a2 063d
-0.016357096 -0.1777526 -0.2116207 0.39908865 0.6415533 -0.090124495 0.43750876 -0.03121933
0.015939014 -0.079532064 0.18461931 -0.047602348 0.2205244 -0.008858444 0.06948655 -0.11026307
0.012948691 0.0073816692 -0.18602575 0.15147349 -0.08554672 0.029309763 -0.07611344 0.17130761
0.0073880944 0.11456874 -0.13209367 0.18171221 -0.031889077 -0.023942655 -0.09855514 -0.17900741
0.35061568 -0.082475334 -0.016993305 -0.18038587 0.2581423 -0.08053248 0.04869122 0.45633435
0.41699293 0.14675358 -0.042767446 -0.11628153 0.22450969 0.044899553 -0.029100822 0.2614203
-0.0221822 -0.08332572 0.014868839 0.18653485 -0.0016557748 -0.09533308 0.24413463 0.2998028
-0.18007612 -0.1959181 -0.012705095 0.092536815 -0.10749502 0.2710257 -0.01427325 0.032870233

fc4.weight f4 [10, 64]
00000000: d20c fabd 7fdb 353d a2d9 133e 7f1a e43d
00000010: 90f4 21bf aa86 04bd ac75 6cbe 6086 d139
00000020: 1b7b 2bbe 3f5e b93d 07ba 1c3e 0e7c babe
00000030: 9b9f a3bc 0a9f 0f3d 3b62 83bd 7cd8 85bd
00000040: e3fd 983d 5bc3 c0bc aa12 85be 6d0c 513d
00000050: b0e0 8abd e4b5 a73c 5649 d1bb 5733 41be
00000060: b7c7 d93d 4b39 4abc d130 06be 90a2 08bc
00000070: 88da cabd f9c5 f23c 9cb0 3e3c b9c2 99be
00000080: 6256 f7bd d5e0 8ebd c141 1d3d c595 273e
00000090: acce 73be f207 3dbe 00d6 7d3d c6fb 2b3e
000000a0: 95b2 f1bd a08f 33bd dbab 2ebe 51af f83d
000000b0: 1764 f4bd abb0 063d fad6 373d 624b 063e
000000c0: e810 f23d d27e b93c fea6 a53d 2381 cc3d
000000d0: 00dc 52be 3a2f 8d3c b792 cc3d 7e20 e43d
000000e0: 0d9f 00bc 0a68 3cbd 0ded ba3d 86da 5737
000000f0: 9aad 603d 38f1 223e 9286 563d cdb1 bc3c
00000100: 0da0 00be 3b31 1bbe 9ac8 a3bd d2b0 933c
00000110: 3441 48bf 2631 96bd f976 febd f921 7ebd
00000120: 139b ba3d 47ef 613e 5bc8 d03d c387 7c3d
00000130: 71cb 1ebe 265f 713d 4452 0d3e 8795 843c
00000140: d4a8 debd 05fe 1b3c 1f50 4cbe 8f9d e03d
00000150: c7cf 393e 6d93 343d b76f 2cba 37ba 3e3d
00000160: 2f67 e63d 93d9 2dbe 3506 debc 1ed6 39be
00000170: 78c5 81be 95dc 26be 52bd e53d 42ab 5ebe
00000180: 9a75 8fbe deb4 fdbc ee46 8cbd 9e16 dcbd
00000190: ba5c 8b3d 3d30 e13b fdc5 90bd 0078 7fbb
000001a0: ba09 c5be ce86 37bd 46a4 0fbe c8c4 d6bd
000001b0: 694e d2bd 2cf3 8bbd 1faf 123e eb3c f83d
000001c0: df60 99bc b1e3 103c b795 a03d 7f82 9cbe
000001d0: fc4c c7bd d278 4f3d 35af 663b d6f1 4bbe
000001e0: f3b9 23be d8d5 fcbd 9f65 d63d fef1 053e
000001f0: 3a58 9c3d e685 b2be bc9a 0cbc f1f2 0cbd
00000200: 89a8 0a3d 9737 e2be f7b2 0fbd 362e bebd
00000210: d3e3 3ebf e8bb 0cbe 3b94 7abe 0bce 43bd
00000220: 1f38 df3d c521 d0be 1392 9c3d c1fb 36bd
00000230: 9f65 8f3d a4b9 0bbd b009 e63d 2efe 63bd
00000240: 2f61 9b3d e5a4 a23d 234f 53be 7a83 8fbd
00000250: 4535 dc3c f2de 283d 4dc9 c7bd ec3d 1d3e
00000260: b09a c4bd 599e 4cbe 9c7c d23c 2026 c4bc
00000270: 8475 9e3c 6958 4bbd 1ff8 bbbd d6e3 8ebe
00000280: b030 43be 8f10 44bd 8c13 6d3c 8a82 1dbd
00000290: eb61 a63b d8d6 af3c 7e2f b9bd 610e dc3d
000002a0: 6317 943d 642a 7c3c f25d ffbc fa4a cdbc
000002b0: 0493 81be 40d9 4abd 6baa 8b3c 2457 9abc
000002c0: 4667 fabb 8578 e739 f787 40be 1e3d d83d
000002d0: 88fd 67bd 7af5 0cbe 873d 0f3d 766a d93d
000002e0: d8cc 93be a6ad 67bc c3cc bb3b 4d60 273d
000002f0: f0df f4bd fbf0 0fbe 6197 87bd 6c83 90b9
00000300: fffe aebe 402c cebe b22f 2dbd b7f9 2c3e
00000310: 7033 5cbf 388f d33c 5b79 c4b9 c34b d33c
00000320: 11b8 51be d387 6a3b 1a55 0a3e 371b 3fbe
00000330: 1d90 3bbd d301 b83d e6ad 143e 0d50 76bd
00000340: dd1e d6bd 61a7 033e 2a47 7cbe 868a 5a3e
00000350: 6ced 06bd 943c 86bd 2e59 e5bc 8b28 0bbc
00000360: d2d4 873d 4aee 72bd 9707 00bd 10c5 423e
00000370: a5a9 f0bd 14c3 babd af6c 25bd 513e 82be
00000380: 2389 98be 2a39 00be a256 afbd bf2b d8bd
00000390: 0d29 983d 7832 8c3c 3608 113e b4d4 a4bc
000003a0: 7eb9 f7bd e86c 3a3d 6172 14be 2d86 0fbe
000003b0: a759 d3bd 5f71 0fbe 4567 253c d0ff 1d3e
000003c0: 8f06 f9bc baf2 aebd 2e52 cf3d eab2 ddbd
000003d0: 6e70 9ebd 3f00 393d 1de6 c2bc 8c53 58be
000003e0: 0db4 79be 9fe1 b93b 9a19 233d 69c0 253e
000003f0: 110a 203d 43e0 35bc ef52 d73d c054 d7bd
-0.122094765 0.04439878 0.14438489 0.11137866 -0.632638 -0.03235499 -0.23091763 0.00039963704
-0.1674618 0.09051179 0.15305339 -0.3642277 -0.019973567 0.03506378 -0.0641522 -0.06535432
0.074703 -0.023530653 -0.25990802 0.05103724 -0.06781137 0.020472474 -0.006386916 -0.18867241
0.10633796 -0.012342761 -0.1310456 -0.008339539 -0.09904963 0.029635416 0.011638787 -0.30031374
-0.12077023 -0.06976477 0.038392786 0.16365726 -0.23809308 -0.18460062 0.061971664 0.16795263
-0.1180164 -0.043838143 -0.17057745 0.12142814 -0.11933153 0.032883327 0.044882752 0.13114694
0.11819631 0.02264348 0.08088492 0.099855684 -0.20591736 0.017234433 0.09988921 0.1113901
-0.007850421 -0.045997657 0.09127245 1.2865878e-05 0.05485306 0.1591233 0.05237443 0.023034
-0.12561055 -0.15155499 -0.07997246 0.01802865 -0.7822449 -0.07333593 -0.12425036 -0.062044118
0.09111609 0.22063933 0.10194465 0.06165291 -0.15507294 0.05892863 0.13800913 0.016184581
-0.10872045 0.009521012 -0.19952439 0.10967552 0.18145667 0.04408591 -0.0006577926 0.046564307
0.112501495 -0.16977529 -0.02710257 -0.18148085 -0.2534597 -0.16295083 0.112177506 -0.21745017
-0.2801941 -0.030970033 -0.06849466 -0.107465014 0.068047956 0.0068722055 -0.07069013 -0.0038981438
-0.38483983 -0.044806294 -0.14027509 -0.10486752 -0.10268862 -0.06833491 0.14324616 0.12120994
-0.01872295 0.008843348 0.07841056 -0.3056831 -0.097314805 0.050652333 0.0035199646 -0.19916472
-0.15988903 -0.12345475 0.104686014 0.13080594 0.076340154 -0.3486778 -0.008581813 -0.034411374
0.033852134 -0.44183037 -0.035082784 -0.09286158 -0.7456638 -0.13743556 -0.24470608 -0.04780392
0.10899376 -0.40650764 0.07645049 -0.044673685 0.070018046 -0.034112588 0.112323165 -0.055662327
0.07586896 0.079416074 -0.20635657 -0.07007499 0.02688087 0.041228242 -0.09755192 0.15355653
-0.09599817 -0.1998228 0.025694184 -0.02394396 0.019343145 -0.04964486 -0.09178185 -0.279082
-0.19061542 -0.047867354 0.014469992 -0.03845457 0.0050775907 0.02146475 -0.090422615 0.1074493
0.07231023 0.015390966 -0.031172726 -0.025060166 -0.25307477 -0.049523592 0.017049035 -0.01884038
-0.0076417057 0.00044149547 -0.18801866 0.10558532 -0.05663827 -0.13765517 0.034970786 0.10616009
-0.2886722 -0.014140522 0.0057311966 0.040863324 -0.11956775 -0.1405677 -0.0662067 -0.00027563737
-0.34178922 -0.40268135 -0.042281814 0.16892134 -0.8601599 0.025825128 -0.0003747445 0.025792962
-0.20480372 0.0035786524 0.13509026 -0.18662725 -0.045791734 0.08984723 0.14519462 -0.060134936
-0.104551055 0.12856819 -0.24636522 0.21341905 -0.032941267 -0.06554523 -0.027996626 -0.008493553
0.06632389 -0.05930928 -0.03125724 0.19020486 -0.11751107 -0.091192394 -0.040386852 -0.2543817
-0.29792127 -0.12521806 -0.08561446 -0.10555219 0.07429705 0.01711391 0.14163288 -0.020120956
-0.12095927 0.045514017 -0.14496757 -0.14016028 -0.10319834 -0.14008091 0.010095422 0.15429616
-0.030398635 -0.0854239 0.101230964 -0.10825141 -0.07736288 0.04516625 -0.023791367 -0.2112562
-0.2438509 0.005672648 0.039819337 0.1618668 0.0390721 -0.011100831 0.10513865 -0.10514212

fc4.bias f4 [10]
00000000: de5a 3a3b ee6d 86be 3fc8 a73d 65db 0e3e
00000010: cffd 8abe 3588 0e3f b7f8 873e 317e 483d
00000020: 1bac 12be ba28 02bf
0.0028435509 -0.26255745 0.08192491 0.1395088 -0.27146766 0.55676585 0.26556942 0.04894847
-0.14323466 -0.50843394
