runs/Mar02_17-33-40_cssd901383-Run(lr=0.001, batch_size=128, patience=1)-valid/checkpoint.pt (torch_old, 972387 bytes, 8 tensors)

fc1.weight f4 [256, 784]
00000000: fcf8 37bc 634f d3bc 28df 30bd d021 f33c
00000010: 0357 9bbd b4f7 a0bd 8b89 91bd f794 cdbd
00000020: 91c3 3bbd 0139 43bd 63be c0bd 013f 47bd
00000030: ded3 cdbc 42eb adbc e35e 6ebc 27fd 8cbc
00000040: 3bce 18bd 2b7f 7cbd 2089 4dbd 081c b8bd
00000050: 7450 d9bd a144 013d 8575 8c3d bf17 153d
00000060: f992 11bd 1964 7ebd 4c83 af3c c64d d23c
00000070: 3a0c bfbc 3cd6 763c de95 aebc 2108 7abd
00000080: 3fd4 4ebd 5a47 c8bd 942a abbd f96f 22bd
00000090: 0bba 65bd 671a b0bd 1b39 4bbd b4ee c6bc
000000a0: eb20 8fbd d531 9abd 4751 3cbc 32d9 0abd
000000b0: cebb a0bd 6d01 45bd ad68 3abd def2 c0bd
000000c0: 6ff5 bdbd a007 b8bd 6755 68bd 3984 95bc
000000d0: 5e56 8ebd 6339 1cbd 4d0a 373d e0f4 b93c
000000e0: 9a78 d7bc 1055 3a3c 5596 bfbd d71c 91bd
000000f0: 4c9a 09bd 0ba8 b0bd ee09 abbd 6d5c 88bd
00000100: 28b7 bebc c098 18bd fe2b 9ebd f418 19bd
00000110: f59b 2bbd c2f7 80bd 7ed1 82bd d248 82bd
00000120: a3c4 2fbd 2580 52bd f63c 90bd 2fa0 3fbc
00000130: ca36 10bd dc39 acbd cc34 cdbd 1ca4 bdbd
00000140: 8c76 81bc 9ddb 67bd 6e84 69bd d089 ca3d
00000150: 3248 e63d 424c 48bd e3eb 0b3b 021a 843c
00000160: b69a 37bd 5210 a5bd b237 51bd ec9e 91bd
00000170: 2128 2dbd e4dd 97bd 7114 25bd 6ddf 79bd
00000180: 2a3b 93bd 785f 5dbd 0043 cabc 8fb3 69bd
00000190: 8a90 4dbd e186 05bd 2f0f 0dbd c6bd c5bc
000001a0: 3aa2 08bd b7f7 25bd 6f90 a6bd 8d2d 3dbd
000001b0: df55 16bd 0534 e7bc 5eb4 613d 140d 35bd
000001c0: f7f8 2c3e 48c1 fa3d 8fdb 843d 7612 6c3d
000001d0: 6a21 47bc 26de 1bbd b6c9 31bd 6ce9 98bd
000001e0: 8a2a 33bd ac10 12bd 0d3f 8fbd 2cd8 79bd
000001f0: 67dc 11bd 90ea 94bd fde3 6dbd 8623 13bd
00000200: 2977 e0bc cb99 61bd 85b1 3fbd 0914 f6bc
00000210: 3490 3dbd 7f27 1cbc 8839 43bd 5863 47bd
00000220: 6ce8 8b3d 56c8 b83d 4075 8d3d b8e2 1cbe
00000230: 015d 5d3d 79bb 1e3e 51d9 ee3d 091e 583d
00000240: 54de 8ebb 84b2 d7bc a9a9 c7bb 2469 54bc
00000250: e74b 81bc 8706 8abd f7be 45bb 52db 1bbb
00000260: 9b97 66bd bfab ebbc d248 8cbd 4e3d a7bc
00000270: 6238 bdbc e3eb 9fbd dc71 19bd e42e 54bd
00000280: 8667 52bd 1230 5abd d8dc 05bd 2398 8dbc
00000290: 17a3 0c3c 5ae7 923d c226 963d b72c 0cbe
000002a0: b8c2 6a3d adc9 363e 75e3 a93d 5763 333e
000002b0: 7afb a33d e7bf 473c 1888 25bd b676 283c
000002c0: 8821 2ebc 1c63 7cbd 7249 273c acb5 063c
000002d0: f0b6 12bc 0e81 b5bb 52ea 16bd 3b75 76bd
000002e0: 774f 35bd 8581 c0bb 935b 2abc a487 b6bd
000002f0: 09f6 34bd 5ade 03bd 4c28 4ebd 6222 9cbd
00000300: 7dc3 7abc f002 1e3d 97ff 84bc a8c8 063d
00000310: e6b0 0e3e 33ee b93d 2654 183e 6236 f03d
00000320: e4d5 853d cfe7 f8bc aa95 b0bc 46c9 0ebc
00000330: a1c2 0dbd 5da3 8abc 902c 2abd 6cea 45bd
00000340: e096 b3bc af65 26bd b54a 23bd cdf2 9bbd
00000350: 7d0b bdbd fd1e 56bd 1240 fb3b a2bf cd3b
00000360: a60b 32bd a400 42bd 50a6 82bd 1fce 28bd
00000370: 29cf 37bc 217e 72bd 185d 02bd 59c4 5a3d
00000380: 16fd 493e 4593 153e 0de2 b83d 483e 093e
00000390: 0b22 c53b e1f4 47bc 8a86 d23b 0bd0 803c
000003a0: 54bc 693c f1ce 27bd 784e 76bd c578 d5bc
000003b0: dc57 9abb d5f4 d4bc b4e5 87bd 5200 6abd
000003c0: 3b31 b8bd 9a54 89bd 5cd9 c73b c6ee 81bc
000003d0: c23a 1bbd 8ab7 aabc c7a5 67bd fabf e7bd
000003e0: f371 5fbd 8eae 85bc 1af9 d9bb 899d 813d
000003f0: db2e 363e 1fe1 1c3e 70c0 7d3d 03a3 c13d
-0.011228796 -0.02579469 -0.04318157 0.029679209 -0.075849555 -0.078597456 -0.07106312 -0.100381784
-0.045840804 -0.047661785 -0.094113134 -0.04864407 -0.02512544 -0.021230344 -0.01454899 -0.017210556
-0.03730605 -0.061644714 -0.0501796 -0.089897215 -0.10611048 0.03155959 0.068583526 0.0363996
-0.035540555 -0.06210718 0.021424912 0.02567185 -0.02332126 0.015065726 -0.021311697 -0.06104291
-0.050495382 -0.09779234 -0.083577305 -0.039657567 -0.056085628 -0.08598786 -0.049615007 -0.024283744
-0.069887005 -0.07529036 -0.011493987 -0.03389854 -0.07848321 -0.048097063 -0.045509983 -0.09421323
-0.09275328 -0.08985829 -0.05672207 -0.018251525 -0.06950067 -0.038140666 0.044687558 0.022699773
-0.026302624 0.01137282 -0.093548454 -0.07085579 -0.033594415 -0.08625802 -0.08351503 -0.06658254
-0.023280695 -0.03725505 -0.077232346 -0.037377313 -0.04189678 -0.06297256 -0.06387614 -0.063615456
-0.042912137 -0.05139174 -0.070428774 -0.011695906 -0.0352085 -0.08409473 -0.10019836 -0.09259817
-0.015803598 -0.056605924 -0.05701106 0.09889567 0.11244239 -0.04890085 0.0021350316 0.016125683
-0.04482528 -0.080597535 -0.051078506 -0.0711039 -0.042274598 -0.07415369 -0.040302698 -0.06100409
-0.07189019 -0.054046124 -0.024690151 -0.057056006 -0.05018667 -0.032599334 -0.03443831 -0.024138343
-0.033357836 -0.040519442 -0.08133017 -0.04618602 -0.036702987 -0.028223047 0.055103652 -0.044201925
0.16891848 0.12243897 0.0648719 0.057634793 -0.012153963 -0.038053654 -0.043405257 -0.07466397
-0.04374174 -0.03566043 -0.06994448 -0.060997173 -0.035610583 -0.07271302 -0.058078755 -0.03592255
-0.02740057 -0.05507831 -0.046800155 -0.03003885 -0.0462801 -0.009530901 -0.047662288 -0.048678726
0.0683144 0.09022586 0.06907129 -0.15320861 0.054043774 0.15501203 0.116625436 0.05276302
-0.0043599997 -0.02633024 -0.006093223 -0.012964521 -0.015783263 -0.06739526 -0.0030173638 -0.0023781848
-0.056296926 -0.028768418 -0.06849827 -0.020414975 -0.023098174 -0.07808664 -0.0374621 -0.05180253
-0.05136826 -0.0532685 -0.032681316 -0.017284459 0.0085838055 0.07173033 0.07331611 -0.13688932
0.057314605 0.1785037 0.08295337 0.17518364 0.0800695 0.012191749 -0.040412992 0.010282209
-0.010628112 -0.061617956 0.010210382 0.008222025 -0.0089547485 -0.005539066 -0.03684456 -0.060170393
-0.044265237 -0.005874815 -0.01039781 -0.0891259 -0.04417995 -0.032194473 -0.0503314 -0.076237455
-0.015305397 0.03857702 -0.016235156 0.032906204 0.13934669 0.09078636 0.1487585 0.11729123
0.06534937 -0.030383972 -0.02155574 -0.0087149795 -0.03460944 -0.0169236 -0.041546404 -0.048319265
-0.021922529 -0.040624317 -0.039866168 -0.0761467 -0.09230707 -0.052275646 0.00766755 0.006278948
-0.04346814 -0.047363892 -0.06379378 -0.041212197 -0.011218824 -0.059202317 -0.031827062 0.053409908
0.19725451 0.1460696 0.09027491 0.13402665 0.006016021 -0.01220438 0.0064247297 0.015724203
0.014266092 -0.04096884 -0.060133427 -0.026058564 -0.0047101807 -0.025995651 -0.06635609 -0.05712921
-0.08993765 -0.067055896 0.0060989093 -0.015860926 -0.037897833 -0.020839471 -0.056554582 -0.113159135
-0.05455203 -0.016318586 -0.0066520097 0.063288756 0.17791311 0.15320252 0.0619511 0.0945492

fc1.bias f4 [256]
00000000: 2f2f f8bd e8ef 90be bcc3 e9bc fd8b ae3e
00000010: b6ea e3bd 692c 95bd f289 c3bd c417 0b3e
00000020: 5d7b d3bc af94 47bf 2683 02bd 4366 bcbc
00000030: c4bc e8be 69ed a2bd f2e9 4abd 66f4 9ebd
00000040: 148c 64bd b299 353f 6096 dbbd 80bc 65bd
00000050: 6c41 2e3f a2aa 51bd 9206 a1be e01c a93f
00000060: 6768 eb3e 9271 97bd 1718 373f bef4 adbd
00000070: 785d 3cbe a445 89bd 5b95 00bd e522 703e
00000080: 77cb 0ebd efc0 0cbf 379e 5ebd 3af9 b0bd
00000090: 7b91 86bc 1d89 ff3d 6d98 aebd 121d f5bd
000000a0: 7396 c6bd 930f c9be 3682 9ebd ef99 4cbd
000000b0: 54dd 43bd c2ac a9bd 0ae8 afbd 3e15 5ebd
000000c0: 92dc 5e3f f0d2 61bf 72cd 6fbd d3f5 013f
000000d0: 03c2 6cbd e0ec c1bd 0b1b 54bd 985a aa3e
000000e0: 35ae e23e c4c2 153d af62 ddbe e0e3 f5bc
000000f0: 89cd eb3e b254 913e a841 81bc c346 a53d
00000100: a65c d13e 4ebd 79bc 3fd4 14bd a1c2 5c3f
00000110: e2c7 f9bd ce83 2dbd 2d6b 303f f945 bbbd
00000120: 1d9c 2dbf 83d5 dabc f0dd 13be 34c4 9ebf
00000130: 55c6 87bc ef50 c0bd 0acb c33e d41c ae3c
00000140: 6791 923d 5056 60be 2c78 51bd b31d 80bd
00000150: d895 f63c ce94 233f e91d b8bd 3cc2 b3bc
00000160: 53da 213e 12e2 57bd bb3b 49bd 7944 7cbd
00000170: e00f 29bd 89a4 93bd 31f6 a6bd 4cdf 263d
00000180: 31b9 323c 5f93 4ebd edcf 64bd 876e 143f
00000190: b426 65bd b9c7 0c3f fe22 5b3f 3146 3d3e
000001a0: 1b2e cebc 5563 5dbd 75ca d8bd 4d5b 80bd
000001b0: 31e7 a3bd dbb9 c9bd 8e1c e93e 8b50 6d3d
000001c0: 7dda c5bd bb5a 8ebd 7db0 45bd c24d aabd
000001d0: ac5a debc 2d60 2bbd e795 adbd cb85 92bd
000001e0: 171d 4f3d 1435 403e 6d6f bfbd b206 fe3e
000001f0: c644 9bbd bd0a 2abd 772a d8bc 26e4 efbd
00000200: a517 f9bd 99ac 253f 33d1 aebd 847e cebc
00000210: b931 e63b 4d04 8e3d f277 6abd 0fa7 65be
00000220: e1ae 35bd 7e68 9dbd c2ef 64bd 6e47 49be
00000230: 06d7 b0bc d6f2 513f 70cd 3abd d650 8ebd
00000240: 04fe 80bd dd19 2f3e 959e d83e b1c1 ccbd
00000250: 2f6b e63d 6317 bbbd 0d85 9ebe 008a 23bd
00000260: cccb 033e 5272 b2bf fc14 f73e 6eda 48bd
00000270: d3b2 36be 5a4e b0bd 65a7 1ebe 0966 35bd
00000280: c7a3 593f 70f2 543e 95a5 56bd 501e c0bd
00000290: 63b8 18be 6c89 16be a904 18be 4f39 7cbe
000002a0: 87e2 a2be 2f13 aa3f 82ad bfbd 7273 973e
000002b0: c7f3 923d 05fc 81be 1ba8 9dbd 46bc fdbe
000002c0: 48a3 edbc 8177 a8bd e62e 9cbd 2402 85bd
000002d0: bac6 cc3e b2d6 87bc 57d2 5cbe ef2e 07bd
000002e0: 5b5d 97bd 0365 b1bd c058 a23e 3eee 053e
000002f0: 1b9e 8fbd f632 adbb 49e5 17bd 5e26 40bd
00000300: 592b 43bc 9fd3 fbba c5ec 08be 7087 89bd
00000310: e4ae aabe 1cf3 79bd 679f a1bd 0848 633e
00000320: 30ab b83c d80d e63e 4bbf 44be 8874 85bd
00000330: 2519 033f 20ea 283f a27f 833f 173e 683e
00000340: 0673 5ebd 063c 5cbd 32a4 a8bd 2e07 b9bd
00000350: 40c5 933e fb88 f7bd 5077 7f3f 6163 8bbe
00000360: 7289 bdbd 8374 ebbc a2c2 8a3d fb0c 46bd
00000370: 6656 1d3e afe3 a9bd 6f06 efbc 6a12 c0be
00000380: 61d9 7bbd 8ef3 5b3f 315a a5bd 3a90 94bd
00000390: 121d 513d 4b4b b1be a660 e33e 4b4d 25bd
000003a0: 6d31 7cbd 4bd6 f2bd f7f1 5bbf b7c8 4c3f
000003b0: fd3a 953f 2ea9 0dbf b898 89bd 4724 bdbd
000003c0: 63bb 573f 0f28 f5be 52a3 b2be 71dc 1cbe
000003d0: e68c 24bd fa82 83be 180c ac3d 1cdf 8ebd
000003e0: b31e b1bd 063a 7ebd 2bd9 a4bd 8b7f 1a3e
000003f0: b096 00bd 28a1 4a3f 6180 61bd 2360 ca3e
-0.121183746 -0.28308034 -0.028535716 0.34091178 -0.11128752 -0.07283861 -0.09547795 0.13583285
-0.02581566 -0.7796125 -0.031863354 -0.022997981 -0.45456517 -0.07955439 -0.049539514 -0.07761459
-0.05579765 0.70937645 -0.10722041 -0.05608797 0.68068576 -0.05118812 -0.31450325 1.3211937
0.4597809 -0.07394709 0.71521133 -0.084939465 -0.1839503 -0.06702736 -0.031392436 0.23450811
-0.034862008 -0.54981893 -0.054350104 -0.08641286 -0.016426792 0.12477324 -0.08525167 -0.11968435
-0.09696665 -0.39269695 -0.077396795 -0.04995149 -0.047818497 -0.08284904 -0.0858918 -0.054219477
0.87055314 -0.8821249 -0.058545537 0.50765723 -0.05780221 -0.094690084 -0.051783603 0.33272243
0.44273534 0.036562696 -0.43239352 -0.030015886 0.46055248 0.2838493 -0.015778378 0.08070137
0.40890998 -0.015242888 -0.036335226 0.8623448 -0.12196328 -0.042362027 0.6891354 -0.091442056
-0.67816335 -0.026713138 -0.14440131 -1.2403626 -0.016574064 -0.09390437 0.38240844 0.02125398
0.071566395 -0.21907926 -0.051139995 -0.06255665 0.030100748 0.6389893 -0.0899008 -0.021943204
0.1580594 -0.05270583 -0.04912923 -0.061588738 -0.041274905 -0.07209117 -0.08152426 0.040740296
0.010908411 -0.050433513 -0.055862356 0.5798115 -0.055945113 0.5499225 0.8560027 0.18483807
-0.02516847 -0.05404981 -0.105854906 -0.06267414 -0.08003081 -0.09849902 0.45529598 0.05793814
-0.09660814 -0.06950899 -0.048264015 -0.083156124 -0.027142845 -0.041839767 -0.08475857 -0.07154425
0.05056485 0.18770248 -0.09347425 0.49614483 -0.07581477 -0.041514147 -0.026387436 -0.11713438
-0.12162713 0.6471649 -0.08535995 -0.025206812 0.0070249704 0.06934414 -0.057243295 -0.22427009
-0.04435623 -0.07685946 -0.055892713 -0.19656155 -0.021586906 0.82011163 -0.045606077 -0.06949012
-0.0629845 0.1709971 0.42308488 -0.09997881 0.112509124 -0.0913532 -0.30960885 -0.03992653
0.12870711 -1.3941138 0.48258197 -0.049036436 -0.17841654 -0.086086944 -0.15493543 -0.04428676
0.8501553 0.20795608 -0.052404005 -0.09380782 -0.14914088 -0.1470086 -0.14845528 -0.24631236
-0.31813452 1.3287104 -0.09359266 0.29580265 0.07175403 -0.25387588 -0.07698079 -0.49557704
-0.029008523 -0.082259186 -0.07626133 -0.06494549 0.39995366 -0.016581867 -0.21564613 -0.033003744
-0.07390853 -0.086618446 0.31708336 0.13079163 -0.07012578 -0.005285616 -0.037083898 -0.04691159
-0.01191219 -0.0019212848 -0.1337157 -0.06715286 -0.33336556 -0.061022863 -0.07891732 0.22195446
0.022542566 0.44932437 -0.19213597 -0.06516367 0.5121024 0.65982246 1.0273325 0.22679935
-0.054308914 -0.05376818 -0.08234443 -0.090345725 0.28861427 -0.12086674 0.9979143 -0.27224258
-0.09254731 -0.02874208 0.067754045 -0.048352223 0.1536499 -0.0829538 -0.029177872 -0.3751405
-0.061486606 0.8591851 -0.08073843 -0.072540715 0.051053114 -0.34627756 0.44409674 -0.040356915
-0.061570574 -0.118572794 -0.85916084 0.79993767 1.1658627 -0.5533627 -0.06718582 -0.09235435
0.84270304 -0.47882125 -0.3489023 -0.15318467 -0.040173434 -0.25685865 0.08400744 -0.069761485
-0.086484335 -0.062067054 -0.08049234 0.15087716 -0.031393707 0.79152155 -0.055054072 0.39526471

fc2.weight f4 [128, 256]
00000000: 8050 0cbe 89e8 b4be 3bbc c53d b919 bdbd
00000010: c48a 55be 8cb0 e4bc 5bb9 dd3c bc53 af3e
00000020: a40f e43b abff a33e 2ac8 643d 7f87 fbbd
00000030: 2e1f 2dbe 2cc4 9abd b842 c5bd 7092 ae3b
00000040: 7898 e0bd 7163 8fbe d5b3 873d 9e29 c8bd
00000050: b23e f6bd e60e 203c 7004 63be 8f5d 92be
00000060: 2dad 033c e592 c83c 09f1 d33e a316 b5bb
00000070: 09a1 d2be f047 9ebd 393f a83d acf4 85be
00000080: 1ad0 c7bd d6db 6abd d122 49be ddae a8bd
00000090: f519 6d3d 7ec0 133d 0800 a9bc ec89 cbbc
000000a0: bcbc ebbd 3c12 10be 50ec bebd fab7 643c
000000b0: fae2 b7bc db99 23bf 30f9 f33b 059f f7bd
000000c0: aefb 1ebe a3e3 5a3d 629c b53c 07ed 7fbe
000000d0: 233d 3c3d 75f4 113c 8076 313c 7c12 8fbe
000000e0: 5ca6 093f 0840 d13b 0885 89be 048a d83d
000000f0: c134 a03d 071d 6abe 5dda 8e3d ed34 d8bd
00000100: e741 1d3e d569 d7bc 0116 fa3d 56ce 36bf
00000110: a092 343b 8282 0e3d 0a48 8fbe 2389 c03c
00000120: cdc5 d03d 1e61 bc3d 5614 03bf 51e3 0e3e
00000130: 1a50 66bd 0623 f8bd 31a9 cdbe e1c8 98bd
00000140: 86cc 72be 5f72 20bc 37e0 11be 8873 c0bc
00000150: 7592 ebbe 8e5f acbd 10aa 9c3d 869d 51bd
00000160: fa18 b5be 39bd 7f3d cc1c 313d c9da eabd
00000170: b083 bebc ce74 65bd 4acf f4bd 5ca8 b6bc
00000180: ce25 163e fee0 b33d 9f9a 903d 5a8b 64bc
00000190: 9edd 27bd 3bfa c63e 4c9d bebc 8b14 b1bd
000001a0: 577d febc 7a69 76bd 9642 4e3d 47cc ca3d
000001b0: bc01 7dbc b141 5b3d 3064 8e3e ee95 37bc
000001c0: d92a 04be cfa3 bfba 8def 97bc b7e2 e8bb
000001d0: ef2f 44bc de0c 59bd 0393 79bd 500c f5bc
000001e0: 0efd 20bc 8978 c5be fb99 06bd af79 36bd
000001f0: fdc6 a23b 00a1 45be 3f46 303b 6599 42bd
00000200: 5e98 ecbe 04e6 4abf 2129 6bbd 11ad 34bc
00000210: 5c4f 5fbe 7582 39bd a83f a2bc 1cb3 bebc
00000220: dc6b edbc a297 e1bc 1474 90bd c845 e43d
00000230: bd63 85bd 5338 ccbe 04d6 483d b283 e1bd
00000240: d436 023d 4b03 2fbe 04f3 8d3e 2df9 c63d
00000250: d44a cd3c fc97 eebc 271d febd 157c dd3d
00000260: 4a23 85be d2a2 dabe 4335 90be a542 a3bd
00000270: 4ea2 42bc 3112 f8ba b32f 22be 1acf f7bd
00000280: 9f34 c2be 83a0 18be c597 a1bd 621b d63d
00000290: 40be 17bd fd3e 603b bf8d 88bd b846 c73c
000002a0: eb0d b83c 5649 99bc 43e6 2cbd 6941 0a3e
000002b0: 4f94 a6bd 33b5 cabc 7545 503d adf2 c2bc
000002c0: 6499 333d 9184 b63d 2147 eebc 1578 cd3d
000002d0: f3a5 71bf 76f7 b53d 98f1 d2be 2b42 16bd
000002e0: 8428 dfbd 3d62 25bc 2e11 42be dbfc d7be
000002f0: 0262 f83d 6f6e 763d 83df 713d b5b2 e33d
00000300: b106 c53c 0c09 c03d 7e0b 18bd 1e08 80bc
00000310: 21af c3bd eacc 4f3d e20b 16bd aa75 0cbe
00000320: 187b f2bd e674 ca3c 52de 5abd 7d3b e1bd
00000330: 64e2 c03e bf29 d6be 104a 923e 8747 043e
00000340: 8901 eabd ee22 27be 2d75 89bd d07a 83bd
00000350: d38d 74bd e9a0 18bf 514b 0dbe 60a5 02be
00000360: 220a fdbc 41db 023a 0464 89bd d6cb df3d
00000370: 020b 9a3e c1a5 2dbd a77e 0ebd 2f3f 023d
00000380: 4113 35bd 53ba c7be 25d3 cd3d 2938 b33c
00000390: 0a49 ed3d f30d 82be 774d 8ebe 056d 213d
000003a0: e9e7 6cbd d9ea 9cbd 070f 8c3d fd39 443d
000003b0: ac4e 993e 8860 0fbf 650f cabd 2d5b 053d
000003c0: 5890 1fbf 100c 833d f4e9 2abd 69a9 3ebd
000003d0: 109d 7fbd 47d5 b13d b3ee 31bd 961e fcbc
000003e0: ad94 b0bd eda9 d5bd 8aea 5ebd 2079 283d
000003f0: 5f0f f23d 864d 9abe 9210 643c 997d 7b3e
-0.13702583 -0.3533366 0.09655043 -0.09233422 -0.20853716 -0.027916215 0.027065923 0.34243572
0.0069598723 0.32030997 0.055854954 -0.12281703 -0.16906425 -0.07556948 -0.09631866 0.0053275153
-0.10966581 -0.28005555 0.06626097 -0.09773563 -0.12023677 0.009769177 -0.22169662 -0.28587005
0.008036894 0.024484107 0.41394833 -0.00552638 -0.41138485 -0.07728565 0.08215184 -0.26163232
-0.09756489 -0.05733856 -0.19642188 -0.082364775 0.057886083 0.036072247 -0.020629898 -0.02484604
-0.115106076 -0.14069456 -0.09322417 0.013959879 -0.022447098 -0.6390664 0.007445477 -0.120908774
-0.15525696 0.053439748 0.022169296 -0.24992763 0.045956742 0.008908381 0.010831475 -0.2794379
0.5376947 0.006385807 -0.26859307 0.105731994 0.07822562 -0.22862636 0.06975243 -0.1055697
0.15357171 -0.026295582 0.12211228 -0.71408594 0.0027553216 0.03479243 -0.2798465 0.023502892
0.101939775 0.09198211 -0.51202905 0.13953902 -0.056228735 -0.12116055 -0.40168145 -0.074601896
-0.23710832 -0.009792893 -0.14245687 -0.02349259 -0.46010175 -0.08416663 0.07649624 -0.051175617
-0.35370618 0.062436316 0.043240353 -0.11467511 -0.023256153 -0.056019597 -0.119536 -0.022297077
0.14662859 0.08783148 0.07060742 -0.01394924 -0.040982835 0.38862786 -0.023268364 -0.086464964
-0.031065626 -0.060159184 0.05035647 0.09902244 -0.015442308 0.053529445 0.27810812 -0.01120518
-0.1290697 -0.0014620962 -0.018546844 -0.0071071046 -0.011974319 -0.052990787 -0.060931217 -0.029913098
-0.009825958 -0.38568524 -0.03286169 -0.04454964 0.004967569 -0.19299698 0.0026897339 -0.04750957
-0.46209997 -0.79257226 -0.05741227 -0.01102759 -0.21807617 -0.04529043 -0.019805744 -0.023278765
-0.028982095 -0.027538124 -0.0705339 0.11146122 -0.06513164 -0.39886722 0.049032226 -0.11011447
0.03179057 -0.170911 0.2772447 0.09715495 0.025060095 -0.029125206 -0.12407904 0.108146824
-0.26003486 -0.42702347 -0.28165635 -0.07971696 -0.011879517 -0.001892632 -0.15838508 -0.12100048
-0.37930772 -0.1490498 -0.07890276 0.104544416 -0.03704667 0.0034217231 -0.06667661 0.024325714
0.022467574 -0.018711727 -0.042211782 0.13501514 -0.08133756 -0.024744606 0.05084749 -0.023797357
0.043847457 0.08912004 -0.029086651 0.100326695 -0.94393843 0.0888509 -0.41199946 -0.036684196
-0.108963996 -0.010094223 -0.18951866 -0.421851 0.121280685 0.06016391 0.059051048 0.1111807
0.024051042 0.093767256 -0.037120335 -0.01562887 -0.095548876 0.05073253 -0.036632426 -0.1371676
-0.118398845 0.024713945 -0.053434677 -0.109976746 0.37672722 -0.41828725 0.2857213 0.1291791
-0.11426074 -0.16321918 -0.06711803 -0.06419909 -0.059705567 -0.5962053 -0.13798262 -0.12758398
-0.03088862 0.0004991778 -0.067085296 0.109275505 0.30086523 -0.042394403 -0.034788754 0.031798538
-0.044207815 -0.39009342 0.10050038 0.021877365 0.11586197 -0.25401267 -0.27793476 0.03941061
-0.057838354 -0.07661981 0.06838804 0.047906864 0.29942834 -0.5600667 -0.098662175 0.032557655
-0.62329626 0.06398785 -0.04172702 -0.04654828 -0.062405646 0.086832576 -0.043440532 -0.030776303
-0.08622108 -0.104328014 -0.054422893 0.04113114 0.11819338 -0.3013727 0.013919966 0.2455963

fc2.bias f4 [128]
00000000: 2226 883e 65ba b3bc 0d45 773f 357f c9be
00000010: ee14 973e 8509 57bd e45f 26be 0699 22bf
00000020: 3f14 c73e 6b31 103e 485a 1fbf c4ea a9be
00000030: f43b 35be f743 cf3e b9f7 c23b 2468 873d
00000040: b4f9 6dbe 945f 30bf b0ea a8bd eb33 abbe
00000050: fdd9 9ebd 768b 37bf 08f2 0d3f 35f7 c23e
00000060: 3467 4a3f e5f8 72bc 257b 79be b0bf 0bbf
00000070: 8264 243e a5bc 20be 1544 cbbd 5b3c ad3e
00000080: f46f b9bc 0a76 8cbd 7e4a bbbe 9609 71be
00000090: c648 8c3e 3fa5 1dbf cb6f 4fbd 89fb 1cbd
000000a0: 95a0 34be e5ea cbbe 5ba2 6f3f 1619 383f
000000b0: 8af5 68be 7195 36be 5abd 8e3e f8cf 5f3f
000000c0: f5a8 51be 8321 083f 66e8 893e fa3b cabe
000000d0: e70a cebe 4f19 193f 8a57 cf3d 7955 d3be
000000e0: ad53 37be 93dd 4abe a0a1 07be dc3a b9be
000000f0: d173 21bf 5fe3 3a3f 8aa7 29be d9fb a93f
00000100: b4b8 99bd e4a5 30be d47c 903e 78f4 933e
00000110: a932 0f3e 174e 40be a806 15bf ac6a 64bf
00000120: 8996 563c 1805 ee3e fcf5 a73e ca43 bdbd
00000130: cb97 9fbe ca38 81be 40ee 42bd 5ce8 af3d
00000140: 9284 2ebf 1072 8abe c612 833f 789b 31bf
00000150: 8bb4 0bbe d22c e7be f1f6 75bf 304d 623e
00000160: bd16 17bf 3f8e a23e ecfe 5c3e add0 3c3f
00000170: 841e f03e 7e29 67bf e807 edbc 2184 04bf
00000180: fbf5 a63e d60a c33d e6e4 c1bd eca0 6fbe
00000190: a64b cfbe 1af0 d2bd 118a aa3e ab6a 4e3f
000001a0: 4c9f 03bd 3680 e1be e91e e1bd 5852 ebbd
000001b0: 846b 233e 64cc 2dbf 604a 16be 35cb 0dbf
000001c0: 93d5 c73e 2760 803f 34d4 843f cf53 01be
000001d0: f182 96be d4ee 9cbe 5e59 1a3e 1287 18be
000001e0: 3f38 abbc 6c76 183f 05e2 9cbd f7da 293e
000001f0: 735a 35be eef1 563f b525 523f 28b7 febe
0.26591593 -0.021939466 0.9658974 -0.39354864 0.29508156 -0.052499313 -0.16247517 -0.63514745
0.38882634 0.14081351 -0.62247133 -0.33186924 -0.17698652 0.4048154 0.005949941 0.0661166
-0.23239785 -0.6889584 -0.08247888 -0.33438048 -0.07756422 -0.71697176 0.55447435 0.3807923
0.79063725 -0.014829849 -0.24363382 -0.54589367 0.16053966 -0.15696962 -0.09925095 0.3383511
-0.022636391 -0.06858452 -0.3658027 -0.23538813 0.27399272 -0.6158027 -0.050643723 -0.03832582
-0.17639382 -0.39827648 0.9360711 0.7191328 -0.22749916 -0.17830445 0.2787884 0.8742671
-0.20474608 0.53176135 0.26935118 -0.39498883 -0.40242693 0.5980424 0.101241186 -0.41276148
-0.17903014 -0.19811086 -0.13245249 -0.3617772 -0.63067347 0.7300319 -0.16567817 1.3279983
-0.075059325 -0.17250782 0.28220236 0.28897452 0.13984169 -0.18779789 -0.5821328 -0.8922527
0.013097414 0.4648826 0.3280486 -0.09241445 -0.31170496 -0.2523864 -0.047590494 0.08589241
-0.68171036 -0.27040148 1.0240104 -0.6937785 -0.1364309 -0.45151383 -0.9607993 0.22099757
-0.5901907 0.3174915 0.2158162 0.73755914 0.46898282 -0.9029769 -0.028934434 -0.5176411
0.32609543 0.09523551 -0.09467487 -0.2340123 -0.40487403 -0.10299702 0.3330846 0.8063151
-0.03213434 -0.4404313 -0.10992224 -0.11490315 0.15958983 -0.6789 -0.1467681 -0.55388194
0.39030132 1.0029343 1.0377259 -0.12629627 -0.29396775 -0.3065096 0.15073153 -0.14895275
-0.020900844 0.595557 -0.07660297 0.16587435 -0.17710285 0.83962905 0.82088786 -0.49749112

fc3.weight f4 [64, 128]
00000000: edbf c63d 7b9a 9dbd 302f 633d 511e c6bd
00000010: 1834 813d 7ab3 3b3c 1b2e 7bbc 5408 303e
00000020: b301 a6be 9d24 c3bd 990d acbe bc91 b03d
00000030: 4083 4f3e e75c fcbd 7c82 0fbe 4bd6 11be
00000040: d055 053d a2a7 34bd c106 c03d 8146 e0bd
00000050: 49ae 053f 3717 abbc 78ea 84be 3669 e43d
00000060: 61bf bd3d 5de7 00bd 33ff 9fbe 4f54 ab3e
00000070: efa0 e6bb e3ca cc3b 76a3 11bb 9436 c6be
00000080: 034a 9c3e c791 b6bb 4143 173e b66f d83d
00000090: 8f9e 34be 05c5 ce3d a969 63bd 0271 df3e
000000a0: a69d 093e 953b d83e de0d a7be 0293 91be
000000b0: cde7 7abd 5ea9 93bd 3261 71bd 5f83 4ebc
000000c0: 4c90 0c3e 16df dbbd 186b 2fbd 23ab 72bd
000000d0: 9a4c 283d 71ad 3dbb 0548 47be b643 163d
000000e0: c56c 0cbe 2807 03bb af1e 2fbd e822 a83d
000000f0: 91a5 ed3e 276b 1bbe 1844 f3bc fdcc f1be
00000100: d127 32be 506c d7bd 7275 3a3d 620c 86be
00000110: 4374 cbbc 088f 02bf d2f1 b53e b6ff 2a3e
00000120: cbaf 2e3e 069e 17be 2e0f 20be a0e4 853d
00000130: 5085 acbe 0f4c 783e b0a5 f33c 8755 9abe
00000140: f3c7 c33e 24e0 473e 17e6 7b3e 9513 d3be
00000150: 5ee0 913d 2273 b73c c271 dcbd ae52 853e
00000160: e683 003e 4f17 503e f9af 80be b001 113e
00000170: 0404 d33d bcd3 9939 986c 6dba bf9d e73d
00000180: 4033 233d 4d24 99bc e6eb 9fbd 836c dc3c
00000190: cf3e b0bd 4531 493d d7f4 1fbe ffaf b0be
000001a0: 1eb4 b1bb 7d06 82bd 185a b73e dc19 143d
000001b0: 25d3 623b 71c2 4b3e c304 f43d 1887 cdbe
000001c0: 02dc 18be 6e78 cf3c b050 5b3d 7f28 4e3d
000001d0: dd56 0e3e 7673 a9be de4b 1ebd 8c24 7ebb
000001e0: 3b7d d3bc 74d6 5bbe 5936 cebc 2ec3 50be
000001f0: 3f97 02bd 97da 4abe aabd fcbd c586 c8bc
00000200: 7260 203e aacc 953c 8778 6ebe fd79 86be
00000210: cfd5 9f3d ea0f b63b bfce 9b3d 380f d7be
00000220: a32d a13e da05 3bbc 8ede c1bd 8d18 b4be
00000230: 4bc7 bd3e 26b7 ebbe 15d1 ab3d 8d94 7bbe
00000240: 2038 0d3c b80d bd3d af98 3a3c bf28 ccbe
00000250: 9fde b83e 85da 363e c023 d2bd dd3c 97bd
00000260: 9800 eb3d ff5a b3bd a72b 25be b14b 71be
00000270: a039 483e a1c6 8e3c 27c5 8abb 3b02 8abd
00000280: 5e5a 2d3e 22c1 a93a ddfc 41be 8c9d a4bd
00000290: 0bf7 21be cbd6 1b3c b8b8 a4bd 369c cbbd
000002a0: e1d7 d7bd f242 c43e ec17 863d 10e8 4ebe
000002b0: c8e0 1d3e d960 bdbd 84d0 dcbb 1a63 c6bc
000002c0: 5420 07bc 0fcf 1abe 8963 17bc 67fa 3d3e
000002d0: ebc9 38be c5d1 10be 9c7a 01be f7e7 b63d
000002e0: 783b bd3d 179e ec3b 2831 d6bd 0ca6 81bd
000002f0: f93c b03b ba8f 313e 4739 71be 58ef 233e
00000300: afa7 57be 7650 34bd bdf4 63be fe0f 1abe
00000310: 11bb 41bb f27e 34be 4d9c b43e 6ee5 583e
00000320: f645 b8be de11 233e 5832 223d f1a7 4d3e
00000330: 0224 37bf b537 0d3f fa11 bcbb 1a99 013e
00000340: b46d 013e 7433 02bc dd4b be3d 2a07 593e
00000350: 9764 bfbd f730 ae3d 68ad e03d bddb dd3d
00000360: 6664 b23e acfa 273e 6647 95be 8102 943e
00000370: f11e 3c3e ebd5 483f 1a4b 213d 175d a1be
00000380: 5e10 c6bd b7bc f1bc a5ea 8c3d 586b fcbd
00000390: d293 473e aea7 6abc b6ee bfbe d785 3ebe
000003a0: f191 f2bc 4475 f73d 75f9 163d a12d e03d
000003b0: 5759 bebd 09b2 ae3e 1dae ca3d 095b 48be
000003c0: aa56 a8be f3de 743e 5985 8b3e 7e7a 06bf
000003d0: 17eb c03d fe04 95bd 6f31 343d 911d 08be
000003e0: a551 d1bc bde2 0bbe 9acd 19be c969 f83b
000003f0: ba11 b9be f512 33be 8771 303e 11a3 c13e
0.09704576 -0.076954804 0.055464923 -0.09673751 0.06308764 0.011456365 -0.015330817 0.17190677
-0.3242317 -0.09528468 -0.33604124 0.086215466 0.20264912 -0.12322407 -0.1401462 -0.14241903
0.03255254 -0.04410518 0.09376288 -0.109509476 0.52219063 -0.020885093 -0.25960135 0.1115288
0.09265018 -0.031470645 -0.3124939 0.3346276 -0.0070382277 0.006249772 -0.0022222674 -0.38713515
0.30525216 -0.005571577 0.14771749 0.10568182 -0.1763861 0.10096172 -0.055520687 0.43640906
0.13439044 0.42232957 -0.32627767 -0.2843247 -0.06125622 -0.072100386 -0.058930583 -0.0126045635
0.1372692 -0.1073591 -0.042826742 -0.05924524 0.041088678 -0.002894249 -0.19461067 0.036685668
-0.13713367 -0.001999328 -0.04275387 0.08209783 0.4641538 -0.15177594 -0.029695556 -0.47226706
-0.17398001 -0.10518706 0.04552216 -0.26181322 -0.024835711 -0.509995 0.35536057 0.16699108
0.17059247 -0.14806375 -0.1563079 0.065377474 -0.3369546 0.24247764 0.029742092 -0.30143377
0.38238487 0.19519097 0.24599491 -0.41225877 0.07122873 0.022393767 -0.10763885 0.26039642
0.12550315 0.20321392 -0.25134256 0.141608 0.103035 0.00029340188 -0.0009057014 0.113093846
0.039843798 -0.018694067 -0.07808666 0.026907211 -0.0860573 0.049119253 -0.15620743 -0.34509274
-0.005423083 -0.06348894 0.35810924 0.036157474 0.0034610715 0.19898392 0.11914971 -0.4014213
-0.14927676 0.02532598 0.053543746 0.05033159 0.13900323 -0.33095902 -0.03864657 -0.0038779108
-0.02581655 -0.21468526 -0.0251724 -0.20386955 -0.03188252 -0.19809948 -0.12340863 -0.024478326
0.15661791 0.018286068 -0.23288165 -0.26264945 0.07804453 0.0055560963 0.07607793 -0.42003798
0.3148013 -0.011414969 -0.09466277 -0.3517498 0.3706611 -0.4603817 0.083894886 -0.24568386
0.008619338 0.09231132 0.011388942 -0.39874837 0.36107346 0.17856796 -0.10260725 -0.073846556
0.114747226 -0.087575905 -0.16129933 -0.2356403 0.19553232 0.017428698 -0.004234928 -0.06738707
0.16929004 0.0012951235 -0.18944116 -0.08037862 -0.15816896 0.00951166 -0.08043045 -0.09941904
-0.105392225 0.38332325 0.065475315 -0.20205712 0.15417778 -0.09246988 -0.006738724 -0.024217177
-0.008247454 -0.15118049 -0.00924004 0.18552552 -0.18045776 -0.1414252 -0.12644428 0.089309625
0.092398584 0.007220994 -0.104585946 -0.06330499 0.0053783623 0.17339984 -0.23557006 0.16009271
-0.2106006 -0.044022046 -0.22261329 -0.15045163 -0.0029560963 -0.17626551 0.35275498 0.2118127
-0.35990876 0.15924785 0.039598793 0.20083596 -0.7153932 0.5516313 -0.0057394477 0.1265606
0.12639505 -0.007946838 0.092918135 0.21194139 -0.09345358 0.08505433 0.109705746 0.108329274
0.34842223 0.16404217 -0.29156035 0.2890816 0.18371178 0.7845141 0.039378263 -0.31516334
-0.096710905 -0.029508932 0.068806924 -0.12325162 0.19489983 -0.0143222045 -0.3748681 -0.18605743
-0.029610606 0.120829135 0.036858995 0.10946203 -0.09294384 0.34120205 0.09896491 -0.19565977
-0.3287862 0.23913173 0.27250174 -0.5253066 0.0941984 -0.07276343 0.043992456 -0.13292529
-0.025551626 -0.13660713 -0.15019837 0.00758097 -0.36146337 -0.174877 0.17230807 0.37819722

fc3.bias f4 [64]
00000000: da19 9d3e f9d0 413f 37a8 9ebe 3e6a 45bd
00000010: 523b 81be 2bf5 243f aaf2 95be f070 803e
00000020: 3578 713f 1266 303f 2e3e 2bbe 88a1 0d3f
00000030: 15b0 93be 69bb 073f aa95 d9be 8c91 e5be
00000040: 42af 09be 6b3e 08bf bf18 0fbf 7454 8dbe
00000050: c876 e6bd abb6 1f3f a176 6b3f d38b 843f
00000060: 8539 0fbf 06b0 e7be 3c2f 4abe 6e39 f03e
00000070: c18d c4bd ee4a 023f ad90 fabe 25c6 233f
00000080: fdda 12bf 4b12 a13e 00ab bb3f 113c 7a3e
00000090: 9df9 0ebe c2b2 e33e 8183 533f 7c07 be3d
000000a0: 8520 87be 6b67 7cbe f983 a2bd 8a95 eb3e
000000b0: e2b0 bebe 9671 693f ffa7 c33e 3484 c9be
000000c0: 2077 c3be 730b 0bbd f47b e5be 1abb c1be
000000d0: dda0 d83e 0ab3 adbe cb9f 99bf cb09 153e
000000e0: 1ebe a6be 6e0c 803f ee47 953f 23fb 553e
000000f0: 7748 13be 4364 09be 2ed9 0b3e 0817 653f
0.30683786 0.7570949 -0.30987713 -0.048197024 -0.2524057 0.64436597 -0.292867 0.25086164
0.94324046 0.68905747 -0.16722938 0.553246 -0.28845277 0.5302034 -0.42496997 -0.44837606
-0.13445762 -0.5322024 -0.55897135 -0.27603495 -0.112531245 0.62388104 0.9197789 1.0355171
-0.5594714 -0.45251483 -0.19744581 0.46918815 -0.0959735 0.50895584 -0.48938504 0.6397422
-0.573654 0.3145927 1.466156 0.24436976 -0.13962407 0.4447232 0.82622534 0.09278771
-0.26391998 -0.24648826 -0.07935328 0.46012527 -0.37244326 0.91188943 0.38214108 -0.39358675
-0.38176823 -0.033946466 -0.4482113 -0.3783806 0.4231023 -0.33925658 -1.200189 0.14554517
-0.32566923 1.0003793 1.1662576 0.20896582 -0.14383112 -0.13417153 0.13657066 0.8948827

fc4.weight f4 [10, 64]
00000000: 6c59 2c3e 0036 f53d a95e 25be a476 9ebc
00000010: 747d 09be 1fcb 13bd 74ce 05be e2dd 9abd
00000020: c6a7 54be 5805 d63d 0f22 fdbd 9b62 bdbe
00000030: 1543 cabb ae0e e9bc a4e2 be3d 2f01 d3bd
00000040: 2cbe 2a3d efc6 33be f581 5cbe f3f6 8c3d
00000050: 9ef9 8cbf d152 75be fbbe 29bd fda9 8e3e
00000060: b8da 48be 2dfa 46bf a755 82bb 3bec d2bd
00000070: 8397 7ebd dca6 8d3d 4bde f73a 379d 88bc
00000080: e517 21bd a2c2 253e 0795 b9be 588e 07be
00000090: 421b e03d a141 20be 723b 083d c16d bf3d
000000a0: 5091 033e 4962 503d a931 d1be 3721 4cbf
000000b0: 3238 9cbe f721 af3d 6858 75be 2f03 2cbe
000000c0: ba9b ec3d 326e 89be e0e8 41bc b843 2cbe
000000d0: 14f9 26be 3be1 fbbe 0954 b8be d9c2 113e
000000e0: d8cf fdbe 388f 7cbf f53d 3fbc d98c ba3d
000000f0: 7f88 51bf fa37 15bf 0f0d dabd d621 333e
00000100: 94fb 01bf 32fb b2be 0ed9 ddbd e6c7 f73d
00000110: ab62 17bf c4a2 dd3d 019b 85bd 97ca c5be
00000120: 57a9 99be f44b 033e c9f7 d63c 14d3 48bf
00000130: b5a4 e3bc 06b5 313e 9453 89bd 490e b3bb
00000140: b7cb e93d 5d2c 3abe e24c 48be 1e44 e43d
00000150: 1db5 54bf 7132 11be 0010 adbb 5486 1b3d
00000160: eee2 19be a542 01bf fde8 9bbe d48c 0d3e
00000170: 7507 c2bd 0d54 13be e61a 7b3d 50e1 1abe
00000180: e993 433d 9385 fbbb f88b fabe e5ca 80be
00000190: dacc ebbd 0178 17bf 35e7 b5be 5964 42be
000001a0: 086e c2bd e663 f7bd 56ae 8abe bf35 4bbf
000001b0: 3959 81be 552f f9be 4bcb 1ebf 0f54 4abd
000001c0: 0881 a3be 86c5 13be be17 acbd 0570 08bd
000001d0: 5da5 193e 4bfd 1e3e 4e8d afbe b654 27bd
000001e0: 877e 0bbf 7bf8 18be ea1e e5bb 7896 013e
000001f0: 8982 4a3d fcc9 cb3c 598a 6c3e 8d24 12bf
00000200: a191 153e e8b0 413e a20b c4bd 7132 9c3c
00000210: 73a6 08bf f83b 1c3e 4d68 8abe d93f 6fbc
00000220: 2750 12bf c774 c3be 739f 30be 134c e13d
00000230: b137 43be 0843 c7bd 7723 213e bdaf a1be
00000240: 3e95 1fbd 858d 2ebf 2a68 42be c20d 9e3b
00000250: 15de c8bf 17cd 86be 4a4c 50be c608 a7be
00000260: 37d2 1ebf 7ca8 9bbf 8983 75be 9e46 abbd
00000270: 8181 ed3c 6492 80bc 07bd b7bd 72b8 bd3c
00000280: 7ca8 91be ff6b b63c 43c7 42bf 984e babe
00000290: c01b e5bd 3cf2 91bd 9170 8fbe 27d1 5cbd
000002a0: 2e83 673d 7c17 e93b 7ba0 dfbe 66f5 83bf
000002b0: f13f 16bf 6caf 0d3e 13de e73d d33a 663d
000002c0: 53dd 12be d6b8 0ebe f65a d0be ed4c 1fbe
000002d0: a58c 24be 6e21 293d aad1 85bf b545 0b3e
000002e0: f987 a93c bc5b b4bf 3d49 a63d 2557 083d
000002f0: 5b8a 07bf 8e88 b0be 9264 e63d db48 f13d
00000300: 796f b33c 0350 053d f1e9 97be f65e 763e
00000310: 98c2 89bf 3cb0 81be 9b1a fc3d 4ca4 e4bd
00000320: 7c5c 11bf f154 5cbd 739c e6bc 6a48 07be
00000330: 84d4 00be dd0c ad3d 4103 2cbd 8598 61be
00000340: 443f 83bc c5be 8dbe 4b6d abbe dd66 563d
00000350: 12af 4bbf 4584 5a3d eb3d 893e 5f15 333d
00000360: ce2b 4ebe 9a1b 34bf c164 10bf f3cb 213e
00000370: 2d75 35bc 0bfb 0b3e d6e8 83be 9172 85be
00000380: 3934 92bd 5f2c 2cbe b50e babe 6cb7 1cbe
00000390: 4483 7dbc e1ce 0dbe 919d 21be 951c c3be
000003a0: 63c5 1abf c4a7 0abe a1d6 c43d c9d0 30bf
000003b0: 6154 9bbe cb3c e3be a4c2 44bf 59f3 1bbd
000003c0: 8ea2 12be db7f 38be 4395 9dbd 91a8 59bd
000003d0: 6565 b93d 0c2b ffbd 5337 dfbe 9cf5 39bf
000003e0: ede6 11bf 5527 00bf 0309 463e 6503 c03d
000003f0: 6d63 dcbe c121 fd3c 779e 1cbe 504f a83c
0.16830987 0.1197319 -0.16149391 -0.019343682 -0.13426763 -0.036082383 -0.13067037 -0.07561852
-0.20767125 0.10450238 -0.12360012 -0.36989293 -0.0061725476 -0.028449383 0.09320572 -0.1030296
0.04168527 -0.17556356 -0.2153395 0.06883039 -1.1013677 -0.23957373 -0.0414419 0.27864066
-0.19614685 -0.7772549 -0.0039774957 -0.10298964 -0.06215621 0.069165915 0.0018910853 -0.016676528
-0.03932943 0.16187528 -0.3624651 -0.13237894 0.10942699 -0.15650035 0.033259816 0.09347106
0.12848401 0.050874982 -0.408582 -0.7973818 -0.30511624 0.085514 -0.23959506 -0.1679809
0.1155314 -0.26841885 -0.011835307 -0.16822708 -0.16305953 -0.49195275 -0.36001614 0.14234485
-0.49572635 -0.98656034 -0.011672487 0.09108896 -0.818489 -0.5828854 -0.10647022 0.17493376
-0.507745 -0.34957272 -0.108324155 0.120986745 -0.5913493 0.10822061 -0.06523705 -0.38631126
-0.3001201 0.12821943 0.0262412 -0.7844708 -0.0277885 0.17354211 -0.067053944 -0.0054643494
0.11415809 -0.18180986 -0.19560578 0.11145805 -0.83088857 -0.14179398 -0.0052814484 0.037969902
-0.15027973 -0.50492316 -0.30451193 0.13823253 -0.094740786 -0.14387532 0.06130495 -0.15125012
0.04774848 -0.0076758354 -0.48934913 -0.25154796 -0.11513682 -0.59167486 -0.3552796 -0.18983592
-0.09493643 -0.12079601 -0.27086133 -0.79378885 -0.25263384 -0.48668924 -0.6202895 -0.04939657
-0.3193438 -0.14430818 -0.08402966 -0.033309955 0.15004487 0.15526311 -0.34287494 -0.04085227
-0.5448994 -0.14938538 -0.0069922106 0.12655056 0.049440894 0.024876587 0.2309965 -0.5708702
0.14606334 0.1891514 -0.09572531 0.019067021 -0.5337898 0.15257251 -0.270327 -0.014602625
-0.5715355 -0.38175032 -0.17248325 0.11000838 -0.19064213 -0.09729582 0.15736185 -0.3157939
-0.038960688 -0.6818469 -0.18985048 0.0048234174 -1.5692774 -0.26328346 -0.20341602 -0.3262388
-0.6203951 -1.2160792 -0.23975958 -0.083630785 0.028992416 -0.015694804 -0.08971601 0.02315924
-0.28448856 0.022268293 -0.760853 -0.36388087 -0.111869335 -0.07126281 -0.2801557 -0.0539104
0.056521587 0.0071133953 -0.43677124 -1.0309265 -0.58691317 0.1383645 0.11321654 0.056208443
-0.14342241 -0.13937697 -0.40694398 -0.15556689 -0.16069277 0.041291647 -1.0454609 0.1360081
0.02069472 -1.4090495 0.08119438 0.033286233 -0.5294549 -0.34479183 0.11249651 0.11781474
0.02190374 0.03254701 -0.2967067 0.24059662 -1.076251 -0.2532977 0.12309762 -0.1116415
-0.56781745 -0.053791944 -0.028150773 -0.13211218 -0.12581068 0.08449719 -0.04199529 -0.22030838
-0.016021378 -0.27684608 -0.3348182 0.05234419 -0.7956401 0.0533488 0.26805052 0.043721553
-0.20133898 -0.70354617 -0.5640374 0.15800457 -0.0110753 0.13669984 -0.25763577 -0.2606397
-0.07138867 -0.16813801 -0.36339346 -0.15304345 -0.015473191 -0.1384845 -0.15782763 -0.38107744
-0.6045744 -0.1354056 0.0961125 -0.6906858 -0.30337813 -0.4438232 -0.768595 -0.03807387
-0.14319822 -0.18017523 -0.07694485 -0.053139273 0.090525426 -0.124593824 -0.43596897 -0.72640395
-0.5699299 -0.50060016 0.19339375 0.093756475 -0.43044606 0.030899884 -0.15294825 0.020545632

fc4.bias f4 [10]
00000000: 2da0 af3c 8602 01bf a8f9 923e f816 eb3e
00000010: 53e1 efbe aef4 d73e 5b37 843e eeb9 123e
00000020: a515 c63d 25b8 6cbf
0.021438682 -0.50394475 0.28706098 0.4591596 -0.46851596 0.42178863 0.25823483 0.14328739
0.09672097 -0.9246848
