runs/Mar02_16-59-44_cssd901383-Run(lr=0.01, batch_size=128, patience=1)-valid/checkpoint.pt (torch_old, 972387 bytes, 8 tensors)

fc1.weight f4 [256, 784]
00000000: b84a 70bc 007b 6bb9 742f 173c cb83 003d
00000010: c089 ccbc 4156 fbbc 8046 e93b 54a9 8a3c
00000020: 68d8 c83b 945b 063c aa20 31bc 6873 bc3c
00000030: 9836 593c 3a91 d73c 120d 12bc a01e d1bc
00000040: c06b a13c 3c64 ca3c 0034 54bb b6b2 df3c
00000050: 3a41 babc 23fe 103d 26e1 f33c f2e4 a63c
00000060: 62a6 9b3c 304a a03c dccd 6c3c 95db 96bc
00000070: aaf5 d43c 20fd bbbc 135c 0ebd 3690 d63c
00000080: ca4b a33c e0e3 b0bc 8f6d 0c3d 4a40 0bbc
00000090: bc00 7b3c 88c1 b1bb 908f 7bbb 96bb eb3c
000000a0: 4385 cabc f736 073d e72c 033d c398 c7bc
000000b0: 80d7 4f3a 90cb 8f3c 182a 9b3b 5cdb aebb
000000c0: 40d7 e0bb 261b 3ebc 1033 3c3b b353 07bd
000000d0: 38fe ac3b f5af b9bc 82d6 f33c 0017 fa3a
000000e0: 55cc bcbc 5960 003d 6003 1c3b 1abe 9c3c
000000f0: 45be 113d b259 16bc 30ed d9bc 3e83 ef3c
00000100: e88b 403c 4e34 a7bc 952b 87bc 30a3 0cbb
00000110: 2a15 eabc 2870 e8bc f0b2 dbbb 40f4 a5bc
00000120: a639 66bc b8d8 953c c6a2 7dbc 0041 26bb
00000130: dd1d 063d 8384 06bd 9362 a0bc 6c4f 9dbc
00000140: 5037 68bb 95ec c5bc 860c f43c fe50 ed3c
00000150: 00f5 5a3b 4a82 61bc 97ce 00bd 3009 7abb
00000160: 1c90 1abc 45fc c9bc 60f6 e53a dddf 0fbd
00000170: 2854 8f3c 0678 cb3c a06c 313c 18f6 48bd
00000180: e235 4bbd d86f edbc 0033 13bc 6635 e43c
00000190: ee28 18bc 1632 a4bd 9800 c73c 7dc5 65bd
000001a0: 7cab 04bd 0df2 90bd 669c 2ebd a766 79bd
000001b0: 6492 0dbd 78b9 b7bb 4300 81bc 68f5 c3bc
000001c0: f2b0 ed3c 2e83 99bc dcc6 61bc 3e5b 8f3c
000001d0: 503b 2dbb 44e8 1a3c 80cf b439 20c9 c93b
000001e0: 88db 363c 6059 343b 6bdf 7fbd 0740 50bd
000001f0: 4031 b0bd 25cd 0ebd 331d 0ebd 00d7 adbc
00000200: 77bf 02bd 40e0 eb3b 1d62 0a3d 875c 9fbc
00000210: 5cfa afbc 7a9c 89bd 785b afbd 3ea1 bdbd
00000220: a7d0 0cbd 7846 3dbc 765c a4bd a0e4 283c
00000230: 8031 57bc 9882 07bd 5010 2f3b 28c5 3d3c
00000240: 209a a63a 9297 9d3c fcaa a73c 4024 94bc
00000250: 24a2 01bd 60bc 9fba 2e10 853c 7a88 aabc
00000260: 2498 dfbb 80e4 7eba 2fc5 89bd c112 09bd
00000270: f143 58bd 1b0f 63bd a80c c93c 3d2a 0dbd
00000280: 82d2 bbbd 53f4 52bd a5d5 1fbd 222e 74bd
00000290: 35b0 bcbc 9331 d3bc 9050 efbc 90f6 4a3c
000002a0: 5a8b 85bc 6e9a 0dbc 05a0 0a3d 3cb0 9bbc
000002b0: d831 bfbc 134c 113d 78d1 4d3c dc8c f2bb
000002c0: 90f6 04bd 27ee 16bd b850 d33b 8486 03bd
000002d0: e451 2fbd 8084 613c 1ca7 bfbb be46 d5bc
000002e0: c66a c33c 0d87 55bd 6348 c9bc 158f 74bd
000002f0: 4892 7fbd c165 abbd b1a1 b0bd ad29 98bd
00000300: 0c47 b83c 3c36 06bc 0a57 ba3c 9ac8 02bd
00000310: d335 dfbc 2c5a a13c 525f b23c b37e 053d
00000320: 9acd c43c 4862 8f3b 9593 8abc 1566 fbbc
00000330: ba0c 84bd e6dc 64bd a4a0 b7bb 0457 d9bc
00000340: c294 38bd 3982 29bd 1acd 7cbd 945d 1cbd
00000350: 57d4 8abd 79b6 8dbd 9ef3 36bd 3f80 0abd
00000360: 8524 32bd b4f8 12bd 2887 9cbd ab90 b6bd
00000370: 9409 95bd 990c 38bd 172e a1bd 8101 efbc
00000380: c5ea aabc 6e70 9cbc 388f 823c 9cde a9bc
00000390: fe3a 02bd da8e b9bc c09b bcbb 904e 08bb
000003a0: 8ed2 a7bc d139 38bd a912 94bd 28f1 0cbd
000003b0: a949 43bd 6351 babd 0d53 6fbd 5049 6fbd
000003c0: 03b4 62bd e451 43bd ba60 1cbd 8950 5bbd
000003d0: e8c1 0cbd 07f7 70bd d317 9cbd fa1a b5bd
000003e0: 569e f6bc aa81 3abd 4b5e 42bd 0bc6 adbd
000003f0: e883 c03b e4f0 06bc 0e35 18bc 6e37 c83c
-0.014666252 -0.00022457168 0.009227622 0.031375688 -0.024968028 -0.030680778 0.007119 0.016926445
0.0061293133 0.008200545 -0.01081101 0.023004249 0.013257645 0.026314367 -0.008914249 -0.025527298
0.0197047 0.024705999 -0.0032379627 0.027306896 -0.02273618 0.035398614 0.029770445 0.020372842
0.019000236 0.019566625 0.014453378 -0.018415252 0.025996048 -0.022947848 -0.034755778 0.026191812
0.0199336 -0.021593034 0.03428417 -0.008499214 0.015319999 -0.005424682 -0.003838513 0.028775971
-0.024721747 0.033011403 0.032025244 -0.024364835 0.00079285353 0.01755312 0.0047352426 -0.0053362083
-0.0068615973 -0.011603152 0.002871696 -0.033038806 0.0052793287 -0.02266691 0.029765371 0.0019080341
-0.023046652 0.031341884 0.0023805723 0.019133616 0.035581846 -0.0091766585 -0.026602358 0.029237386
0.011752106 -0.020410683 -0.016500274 -0.0021459572 -0.028574545 -0.028373793 -0.0067046806 -0.020258069
-0.01405183 0.018291816 -0.015480703 -0.0025368333 0.032743324 -0.032841217 -0.019578254 -0.01920291
-0.003543336 -0.024160663 0.029791128 0.028969284 0.0033410192 -0.0137639735 -0.03144702 -0.0038152449
-0.009433772 -0.024656424 0.0017544739 -0.035125602 0.017496184 0.024837505 0.010829121 -0.04906282
-0.049611934 -0.028983995 -0.008984327 0.027857494 -0.009287102 -0.08017366 0.024292275 -0.056096543
-0.032390103 -0.070774175 -0.042629622 -0.060888913 -0.034563437 -0.0056068264 -0.015747195 -0.02392073
0.029015038 -0.01873931 -0.013780322 0.017499562 -0.0026433058 0.0094547905 0.00034486875 0.006158009
0.011160739 0.0027519092 -0.062468927 -0.05084231 -0.08603144 -0.03486361 -0.034695815 -0.021220684
-0.031920876 0.0071983635 0.033784974 -0.0194533 -0.021481685 -0.06719299 -0.08562368 -0.0925927
-0.034378674 -0.011552446 -0.08025448 0.010308415 -0.01313436 -0.03308353 0.0026712604 0.01158265
0.0012710728 0.019237313 0.020467274 -0.018083692 -0.03164877 -0.0012186877 0.016243067 -0.02081703
-0.0068235565 -0.000972338 -0.06727063 -0.03346515 -0.05279917 -0.055434328 0.024542168 -0.03446411
-0.091710106 -0.051502537 -0.039022107 -0.05961431 -0.02303324 -0.025780475 -0.02921322 0.012387887
-0.0163018 -0.008642776 0.033844013 -0.019004934 -0.023339197 0.03547294 0.012562148 -0.0074020457
-0.032461703 -0.036848214 0.0064488314 -0.032110706 -0.042802706 0.013764501 -0.0058487784 -0.026034709
0.023854624 -0.052130748 -0.02457065 -0.059706766 -0.062395364 -0.083690174 -0.0862459 -0.07429824
0.022494815 -0.008191641 0.022746582 -0.03192959 -0.027247345 0.019696318 0.021773968 0.032591533
0.02402382 0.0043757297 -0.016916076 -0.030688325 -0.0644774 -0.055874728 -0.0056038667 -0.02653075
-0.04506374 -0.041383956 -0.061719038 -0.03817518 -0.06778782 -0.069195695 -0.044665925 -0.03381371
-0.04349186 -0.035881713 -0.076429665 -0.08914312 -0.072772175 -0.04493389 -0.07870119 -0.029175522
-0.0208639 -0.01909658 0.015937433 -0.020736031 -0.03179454 -0.022651125 -0.0057558715 -0.002079878
-0.020486142 -0.044977013 -0.07230122 -0.034409672 -0.04767767 -0.090975545 -0.058428813 -0.058419526
-0.055347454 -0.04768552 -0.038178183 -0.0535436 -0.03436461 -0.058829334 -0.076217316 -0.08843036
-0.030104797 -0.045533814 -0.047453206 -0.08485039 0.0058750995 -0.008236144 -0.009289993 0.024440493

fc1.bias f4 [256]
00000000: 52eb 1bbd ac0d 4ebd d94b 233e 3f8d 8abd
00000010: e69c 18bd c863 423e 4d62 d7bd 1892 083f
00000020: a406 9bbd f0c5 8a3d addb 0fbe fa3c 25bd
00000030: 095b 21bd 423b 4cbd d4e3 1cbd 428d 9f3e
00000040: 510a a43e 0862 783e 7dd5 0bbd 42de d4be
00000050: 044e e73e 03be bfbd d861 91bd 0451 1ebd
00000060: 0f3e eabd 9a78 9bb8 f159 6dbd 2197 293f
00000070: 1a69 88bd b279 a43e a06f 4bbd 268b 913e
00000080: db84 82bd 5799 22bd 6393 dc3e 44c3 03bf
00000090: 7960 84bd 4b36 29bd 98e0 e2bd 4a7f 913e
000000a0: f69c 0a3f 771a af3d 4594 663e 8eb2 fabd
000000b0: a53d bb3e 7f69 4c3d 3d36 433e f728 b8bd
000000c0: 22d3 5dbd ef4d c2bd c914 bf38 c83a 31bd
000000d0: 2b25 c53e 1b43 01bd 2d4a b5bd a949 80bd
000000e0: 7b85 0ebd 71a3 503e 7dee b2bc c5a8 32bd
000000f0: 2347 1dbd 2d20 8dbd 1cf1 113e 40a4 2bbe
00000100: f3da 343e 70ce 9cbd 5a62 1e3e 9855 9f3e
00000110: e6c8 99bc a939 6ebd fa5b a0bd 61b4 5a3e
00000120: a3b5 7cbd 76d2 813e 557a 713d 0380 c9be
00000130: 7dfd 7ebd f716 e8bc a1b4 53bd 4468 75bd
00000140: beda d1bd 9b8f e2bc 7594 193e 1888 96bd
00000150: da90 5fbd 7628 18bd e4bc 98bc fe7c 2a3f
00000160: 481d 15bd 5a0e 28bd f40c a33d b286 19bf
00000170: a530 0dbd a365 52bd 852b c0bc 95b3 90bd
00000180: 749d da3e 6d59 32be 6ddb a9bd 0172 303b
00000190: 5fdf a1bc dd1d 5ebd 54b5 b5bd cf41 8d3c
000001a0: babf 95bd b5c7 a9bd 2009 873d 4ab7 6ebe
000001b0: 2da0 82bd 4fb6 f13e fbdf 2cbd 0c8b c7bd
000001c0: 8d15 29bd 7153 063e 555a 78be 9713 8f3e
000001d0: d938 9ebd f957 283d 4b33 99bd 18b5 0ebe
000001e0: 3dff 8b3e a7ef b5bd 8712 c1ba eaae f5bd
000001f0: 4cf3 15bd 6309 10be 7ef1 1ebd 98e6 aabd
00000200: e22b a93e 97e5 843b 96b1 e6bd 4f0b 24bd
00000210: 4944 d6bd 4583 b7bd 5142 97bd 6798 98bd
00000220: bde5 86bc 12f3 9abd 7866 c9bd 3df7 6dbd
00000230: 3d48 b83c 03ae e83e 5c61 0f3e 1b92 b83d
00000240: 2329 ecbe 21cf 05bd c540 553e 2008 7ebd
00000250: 6ea9 0bbe d325 86bc 9757 e3b9 23b3 54be
00000260: c921 803e 342c 80bd 408a 6e3d a4a8 e13d
00000270: df9d 0cbd 6c4b 963d 68c8 a7be 3dcf acbe
00000280: 7dcf 11bd 4e71 48bd 7a6c 8cbd 256f 9a3e
00000290: ef67 85bd e2ee 1abc 8be1 e5bc 60b4 28bd
000002a0: 4a68 393e 4f24 573f 3857 9ebd 0480 2bbe
000002b0: 2f12 8fbe 9774 ddbd b81f 8cbd 8256 90bd
000002c0: 56d3 9dbd 24b8 4cbc 2116 89bd 8c9f 81be
000002d0: 4ff4 5b3e 74b7 cbbd 41c5 883e 2269 363e
000002e0: 96a9 e13d 64de 1f3f 5bcb ecbc 9fe6 81be
000002f0: 620c 57bd 5364 8abd 7895 4f3e a6cd 3fbd
00000300: bccb 2e3d 1ffe 9ebd 83fe 1ebd 1525 953e
00000310: d58a 543e 113b e93d e342 20bc 0465 93bd
00000320: 6423 fcbd c4b8 003f e48a 913e 17ba 843e
00000330: a2cc c0bd 5235 49be 9d63 73be 08f7 05bd
00000340: d957 d9bd 3d1a 02bd 6370 9dbd e9e3 4cbc
00000350: cd6f bdbd fe3e 85bd 0f5c 86bd 7690 c8bd
00000360: c0e1 02be 310f 98bd b2dc ebbc df53 4fbd
00000370: 3846 ad3e 70c2 97bd 98ca cebb 97e0 15bd
00000380: fa69 103f e507 64bd d92f 8abe cb2e bcbd
00000390: 1ad3 c93d 4c24 d3bd a4b2 883d 9b9e b3bc
000003a0: 3429 acbd 3aca 8b3e 5db1 1b3f 7839 083e
000003b0: 2895 83bd 4c94 42bd 31ed c13e 37dc abbd
000003c0: 9eba 04bf 3777 a7bd 94f6 113d 3308 b03e
000003d0: e7e6 80bc 5c5c 303e e94a 8cbe 2d54 e5bd
000003e0: 90b1 b2be a2b6 c63c 1f77 7ebd 1d04 5abe
000003f0: b5c1 92bd f63a 85bd 5d77 7a3e 40ad 313e
-0.038066216 -0.050306007 0.15946902 -0.06765222 -0.037259005 0.18983376 -0.10516796 0.5334792
-0.07569626 0.06776035 -0.14048643 -0.040341355 -0.03939346 -0.0498612 -0.03830321 0.3116246
0.3203912 0.24256146 -0.034139145 -0.4157582 0.4517671 -0.09362414 -0.0709874 -0.03865148
-0.11437618 -7.41344e-05 -0.057947103 0.6624623 -0.066606715 0.32124096 -0.049667 0.28426474
-0.063729964 -0.039697018 0.43081197 -0.51469827 -0.06463713 -0.041311543 -0.11077994 0.28417426
0.54145753 0.0854997 0.22517498 -0.12241088 0.3657047 0.049905296 0.19063659 -0.089921884
-0.05415643 -0.09487521 9.111461e-05 -0.04326895 0.3850492 -0.031558137 -0.088520385 -0.062640496
-0.034795266 0.20374848 -0.021842236 -0.043617982 -0.03839792 -0.06890903 0.14252132 -0.16761875
0.17661647 -0.07656562 0.15467206 0.3111999 -0.018772554 -0.058160458 -0.07830043 0.21357872
-0.06169666 0.2535588 0.058954556 -0.39355478 -0.062253464 -0.028331263 -0.051685933 -0.05991389
-0.102468 -0.027656367 0.14998038 -0.073501766 -0.0545815 -0.03714796 -0.018644758 0.6659697
-0.036404878 -0.04102931 0.07961455 -0.59971154 -0.03447022 -0.05136646 -0.023458252 -0.070655026
0.42698252 -0.17416926 -0.08293805 0.002692342 -0.019759832 -0.0542277 -0.08872476 0.017243294
-0.073119596 -0.08290044 0.06593537 -0.23312107 -0.06378207 0.47209403 -0.042205792 -0.09743318
-0.041280318 0.13117768 -0.24253209 0.27944633 -0.077256866 0.041099522 -0.074804865 -0.1393627
0.2734317 -0.08883601 -0.0014730253 -0.11996253 -0.03660898 -0.14066081 -0.038804524 -0.083447635
0.33041292 0.0040556896 -0.112643406 -0.040049847 -0.10462243 -0.089605846 -0.07385696 -0.074509434
-0.01646697 -0.07565893 -0.098339975 -0.058097113 0.022495383 0.4544526 0.14001983 0.090122424
-0.46125135 -0.032668237 0.20825489 -0.062019467 -0.13638851 -0.016375458 -0.00043362073 -0.2077146
0.25025776 -0.06258431 0.058237314 0.11018494 -0.034330245 0.07338604 -0.32770085 -0.3375186
-0.035598267 -0.04893618 -0.06856628 0.30162922 -0.065139644 -0.009456368 -0.028061649 -0.041187644
0.1810619 0.8403978 -0.077314794 -0.16748053 -0.2794356 -0.108132534 -0.06841987 -0.0704775
-0.07706325 -0.012495074 -0.06693674 -0.25317037 0.21479915 -0.099471 0.26712993 0.17813542
0.11018674 0.62448716 -0.028905561 -0.25371262 -0.052502044 -0.067574166 0.20271862 -0.04682698
0.042674765 -0.077633135 -0.03881694 0.29129854 0.20756085 0.11388219 -0.009781572 -0.071970016
-0.12311438 0.5028193 0.28426278 0.25923225 -0.094140306 -0.19649246 -0.23768468 -0.03270629
-0.10612459 -0.031763304 -0.07687452 -0.01250551 -0.0924984 -0.065061554 -0.065605275 -0.09793179
-0.1278143 -0.074247725 -0.02879176 -0.050617095 0.33842635 -0.07410133 -0.006310772 -0.03659114
0.5641171 -0.05567159 -0.2698963 -0.091886126 0.098547176 -0.103096575 0.06674698 -0.021926215
-0.08406296 0.27302724 0.6081751 0.13303173 -0.06424934 -0.04750471 0.37876275 -0.08391612
-0.51847255 -0.08177035 0.035635546 0.34381256 -0.015735103 0.17222732 -0.27400902 -0.11197696
-0.34901094 0.024257008 -0.06212532 -0.21290632 -0.07165853 -0.065053865 0.24459596 0.17351246

fc2.weight f4 [128, 256]
00000000: c41a 133d d202 f3bd c53e 4bbd 9a31 09be
00000010: e213 943d 1ef9 5ebc 5294 e9bc 0aa1 b2bb
00000020: fa6f 77bd 0185 a6bd 3900 55bd 18a7 fcba
00000030: f84e de3c 49ec 4ebd 9b6a b7bd a960 87bd
00000040: 3b4b 2abd 4d9b 3ebd fa77 31be 04a4 16be
00000050: 8657 29be fae8 153d f34a d5bd 206f efbb
00000060: 6cbf 0b3d f23c bfbb ac14 0fbd 65a1 1cbe
00000070: 10b7 92bd 31a5 23be ea5c 97be e438 263c
00000080: 8afd acbd 5c9d cdbc c1e6 2cbb 80f3 44be
00000090: a70a bcbd 0ed6 0d3d ea99 c8bd e9c2 ecbd
000000a0: d5ea fbbd a116 f3bc fbb3 ccbd 4a74 c8bd
000000b0: d431 e6bd 140e 13be d85b 94bd 8e5f dcbc
000000c0: a8a3 3a3c 071c ad3c 4411 02be 00e6 7d3a
000000d0: 32e9 0fbe 26a3 88bd a491 21bd a268 77bd
000000e0: fb85 4abd 4e77 48be 8be0 cebd 0ee0 a83c
000000f0: 5ac1 c8bd 30e7 f1bc edd2 91bd bbdc 52be
00000100: e82d 97bd 2e3e efbc 38ea 95bd 40db 01bc
00000110: ccc0 1dbe 6f20 9dbd bd1d 92bd e1cc 97be
00000120: e6b1 debb 8fb0 9cbd 4866 64be 5ec8 36be
00000130: 3704 8a3d b22f 99bd 4243 04bd d628 73bd
00000140: f2f2 d23d 18ab 72bd 1c45 443d 9652 d3bd
00000150: 23cb b1bd f254 88bd e34a 04be e4f5 59be
00000160: 7fe3 a6bd 2a2f d83d a819 babd 451a 65be
00000170: 5893 083c 640b 8fbd 88a9 d9bd a3c2 c2bd
00000180: fb98 d8bd 109f 0ebb 441e bfbc 210c dbbd
00000190: 4448 e0bd 6f14 cd3d 682f 20bc 3c8d cfbd
000001a0: da9a 8dbd 8e1d 403d 1ccd 8b3c 9f25 fbbd
000001b0: a53c d8bd 0446 b4bd 1cdd 54bd a9f2 463d
000001c0: 6d88 96bd 112e 3fbd a0b5 6f3d 8fec 1ebd
000001d0: a0e5 b1bd aa6a 23bd 6431 3fbd 0d37 59be
000001e0: ca92 363d d8a9 c13c 2018 80be 5a86 c4bc
000001f0: f386 3cbd 4a18 03be e7fb ffbd e7e2 85bd
00000200: aa9e 21be c19e 693d 020c 50be c873 65be
00000210: b44d e0bd e89b e93d 5eec bbbd a5f3 e8bd
00000220: a37e 883c f269 08bd 5922 613d 7859 5cbe
00000230: 81b5 b8bc 2d40 07be 6c8f 5fbe 4377 47be
00000240: 5cea 33be 475b a63d a089 c1bd 7d2f c2bd
00000250: 8e8d 103d 03fa cbbd 8c6c f2bc 2fa6 90bd
00000260: 7d59 b43c 1a58 83bd bb37 f43c 7fa5 cfbd
00000270: a643 93bd a165 93bd a25b 14bd 5bf6 59be
00000280: 00e0 a4bc 2f3a 09be 0305 86bd 9ab5 15be
00000290: 5616 d5bd 6cd1 16bd a0e4 323b 1b1b e13b
000002a0: 7409 1dbe fa77 33be 2c28 d5bd b883 2abe
000002b0: e55a d1bd 48b8 b9bd b42d 4f3d 7319 d1bc
000002c0: d99d ee3d e29b d2bb 2b3f 81bd 11cd 48be
000002d0: 7274 acbd 251c abbd c4d1 03be 46ef 94bd
000002e0: 4742 06be 17ef 7dbd a5b6 08bd e489 53be
000002f0: dbdb 9a3d 40be f83d 1e01 ffbd d33c bbbd
00000300: c340 cebd abee be3c 3060 b3bc fe70 dcbc
00000310: 4417 2fbd 8e68 acbd 5242 34bd d429 73bd
00000320: 6290 d9bd d80d 61bb ca21 e5bd 29d7 6fbb
00000330: 4c07 0d3d ec9e f33d 9538 d9bd b4bb e83c
00000340: 247a 94bd 286c f9bc 32aa 43bb 20a5 89bd
00000350: d434 4abd aae8 fbbd a1c7 b23d cac2 9cbd
00000360: 7027 eabb db28 46bd cad4 4ebd 48ba d33c
00000370: c7c8 55be 4fa5 aabd 439f b3bc e4e4 893d
00000380: 3829 9b3c b9da 37bd 875e 01be bbbf 9d3d
00000390: ae3e b3bc d66e e0bd 4c19 88bd f1ce 73bd
000003a0: 0d86 543d 2d1f 64bd df47 00be 4d21 53bd
000003b0: c176 9bbd 801d cdbb f150 59be db4b b0bd
000003c0: ed97 20be 9884 d23c 4d58 c4bd d834 61bd
000003d0: d257 d5bc a5da dfbd e3f6 3abe dc25 af3b
000003e0: 5d69 5abe 5472 a73d d67c 83bd a068 e0bd
000003f0: 8d48 7bbc 80cd 313a d7cb 02be a091 4cbe
0.035914198 -0.11865772 -0.04962041 -0.13397828 0.07230355 -0.013609199 -0.028513107 -0.0054513263
-0.060409524 -0.08130837 -0.052002165 -0.0019275872 0.027137265 -0.050518308 -0.0895588 -0.06610233
-0.04157565 -0.046534825 -0.17330924 -0.14711004 -0.16537294 0.036599137 -0.10414686 -0.0073069483
0.0341181 -0.0058361227 -0.034931824 -0.15295942 -0.07163823 -0.15980984 -0.29563075 0.0101454
-0.08446796 -0.025099449 -0.0026382657 -0.19233513 -0.09181719 0.034627967 -0.09794982 -0.11560614
-0.1230065 -0.029673876 -0.09995266 -0.097878054 -0.11239973 -0.14360839 -0.0724408 -0.026901033
0.011391558 0.021131529 -0.12701899 0.0009685457 -0.140538 -0.06671743 -0.039445534 -0.06040252
-0.04944418 -0.19576761 -0.10101422 0.02061465 -0.09802504 -0.029529184 -0.07120309 -0.20592014
-0.07381803 -0.029204454 -0.07320064 -0.007925808 -0.15405577 -0.07672202 -0.071345784 -0.29648498
-0.0067961095 -0.076508634 -0.22304642 -0.17849872 0.06739085 -0.074798 -0.032290705 -0.059365116
0.103002444 -0.0592452 0.04791747 -0.103184864 -0.086813234 -0.06656827 -0.12919192 -0.21285206
-0.0814886 0.10555871 -0.09086925 -0.22373302 0.008335911 -0.069845945 -0.10628039 -0.0950978
-0.10576054 -0.002176229 -0.023329861 -0.10695673 -0.109512836 0.10013663 -0.0097769275 -0.1013436
-0.06914301 0.046903186 0.017065577 -0.12263035 -0.10558442 -0.08802417 -0.05196868 0.048571263
-0.0735024 -0.04667479 0.05852282 -0.03879982 -0.086863756 -0.039896645 -0.046677962 -0.21212406
0.044573583 0.023640558 -0.25018406 -0.023989845 -0.046027135 -0.12802234 -0.124992184 -0.06537419
-0.15783182 0.057036165 -0.2031708 -0.22407448 -0.10952321 0.1140669 -0.09175943 -0.113745965
0.016661948 -0.033304162 0.054964397 -0.21518505 -0.022547485 -0.13208075 -0.21832055 -0.19479088
-0.1756987 0.081228785 -0.09450078 -0.09481714 0.035291247 -0.09959795 -0.029592775 -0.07062947
0.022015328 -0.064132884 0.02981173 -0.10138988 -0.07190637 -0.071971186 -0.0362202 -0.21285383
-0.020126343 -0.13401102 -0.06543925 -0.14620057 -0.10404651 -0.036820814 0.0027296916 0.0068696863
-0.15335637 -0.17526236 -0.10408053 -0.16651809 -0.10222415 -0.09068352 0.050580695 -0.02552483
0.11651201 -0.006427274 -0.063108765 -0.19609477 -0.08420648 -0.083549775 -0.12872988 -0.072722
-0.1311122 -0.061995592 -0.03337731 -0.2065807 0.07561465 0.12145662 -0.12451385 -0.09142461
-0.10070946 0.023307165 -0.021896452 -0.026909348 -0.042746797 -0.0841838 -0.04400856 -0.059366062
-0.10623242 -0.0034340527 -0.111880854 -0.0036596751 0.034430787 0.11895546 -0.10606495 0.028409816
-0.07249859 -0.03044708 -0.0029856083 -0.06720948 -0.049366787 -0.123002365 0.087294824 -0.076543406
-0.0071458146 -0.048378807 -0.0504959 0.025845662 -0.20877372 -0.08332311 -0.021926528 0.067331105
0.018940553 -0.044886325 -0.12633716 0.07702585 -0.021880474 -0.1095864 -0.0664545 -0.059523527
0.051885653 -0.055693794 -0.12527417 -0.05154543 -0.0759101 -0.00625962 -0.21222283 -0.08608218
-0.15682955 0.025697991 -0.095871545 -0.054982036 -0.026042853 -0.10930375 -0.18258242 0.0053450894
-0.21329255 0.08176103 -0.06420295 -0.10957456 -0.015337122 0.0006782636 -0.12773071 -0.19977427

fc2.bias f4 [128]
00000000: efd1 adbe 2d43 993e c350 afbd b3ed f8bc
00000010: 1e86 883e 334c 9c3d 32d2 89be 4ac8 9b3d
00000020: cdf8 a4bc 5044 113d 3d18 28bd 116e a3be
00000030: 76b3 debc 390b cabd ac7d a2be ae4b 903e
00000040: 4b5e 843e 9aa4 dfbd 662c ddbd ca1c 333e
00000050: 983b 123d e3f7 b3bd bca0 9cbe 14ea a5bd
00000060: 2245 0abe 3a3e 8e3e 43b6 703d ac3e ddbd
00000070: b476 843d b7bf 613d 0d19 5ebd c944 96bc
00000080: a33a e03d a87f af3e 7646 7abd d763 593e
00000090: dc43 2d3f 9d11 3ebd e4b6 d33e da08 b0bc
000000a0: 9b9a 3f3d 0cc4 c23e 58a0 22bd 9f5a a3bd
000000b0: 80ad 62be 12dc 17bd d071 21be 8fc1 b83d
000000c0: b214 88bd b3cd 2fbe c48b c43e f123 62be
000000d0: 09ce 6c3e b887 2fbd 50ac ab3e 8cf0 b9bd
000000e0: 1c9f 13bd b462 103d c2ce 91bd 724c d0be
000000f0: 61e9 f3bc c623 2ebd 36b7 23bf 3d84 163f
00000100: ccf0 60bd f0c2 2cbe eb2a 0b3e ae33 81be
00000110: 469d c0bd 1a94 4fbd e11b 5e3c 4f22 1ebe
00000120: a0cd 25bc 8af1 b3be e5be 8b3e 21f8 9bbd
00000130: 5521 0fbd a1ee 873e a8f0 503e 6f86 473e
00000140: 09df f9bd 3e56 a93d 58f3 e53b 3958 b1bd
00000150: d91e 2ebe a8d6 8fbd 5fea 893e 6deb 2d3e
00000160: 0b2a 50bd 3f3b c8bd 4837 69bd b8c4 26be
00000170: 9b91 00be 7155 54be 0288 eb3d 9086 303e
00000180: e8b7 eabd 6df5 6ebd 740e 923d 91ae d83e
00000190: fc0e e1bd 91e3 9ebd fb85 a4bd 019b 6ebd
000001a0: b3a6 333f 4685 9fbe 28a4 753d db41 f13e
000001b0: 49b8 853e f3b6 b0bc 5b67 133e 91dd 5bbd
000001c0: f917 f6bc 9711 ad3d 0fae be3d 0148 e0be
000001d0: 2422 c23d 3bed 98bd 47d4 cbbe 3d69 8ebd
000001e0: 9f15 ac3c 7139 09be 49ad 4cbe d709 823d
000001f0: f160 96bc 6a65 f7bd eb39 94bd c70a a53d
-0.3394923 0.29934064 -0.08560326 -0.030386781 0.26664823 0.07631721 -0.2691818 0.076065615
-0.020138169 0.03546554 -0.04103874 -0.31919912 -0.027185183 -0.09865422 -0.31736505 0.2818274
0.2585319 -0.10920067 -0.10799484 0.17491451 0.035701364 -0.08787515 -0.3059138 -0.081012875
-0.13502935 0.2778185 0.05876757 -0.10802969 0.06467953 0.055114474 -0.05422311 -0.018343346
0.10948684 0.3427708 -0.061102353 0.21229492 0.6768167 -0.046403516 0.41350472 -0.021488596
0.046778303 0.38040197 -0.039703697 -0.07976269 -0.22136497 -0.03707511 -0.15766072 0.09021293
-0.06644572 -0.17168312 0.38387883 -0.22084023 0.23125471 -0.04285404 0.33529902 -0.09079084
-0.03604041 0.03525038 -0.07119514 -0.40683323 -0.02977437 -0.042514585 -0.6395143 0.5879553
-0.05491714 -0.16871238 0.1359059 -0.2523474 -0.094049975 -0.05067835 0.013556452 -0.15442775
-0.010119826 -0.35145217 0.27294078 -0.07615686 -0.034943897 0.26549247 0.20404303 0.19484876
-0.12200744 0.082684025 0.007017534 -0.08659405 -0.17003955 -0.07023364 0.26936623 0.16984339
-0.050821345 -0.09776925 -0.056937486 -0.1628598 -0.12555544 -0.20735718 0.11500551 0.17238832
-0.114608586 -0.058339525 0.07131663 0.42320684 -0.10989186 -0.077582486 -0.08033367 -0.058253292
0.7017624 -0.31156367 0.059971005 0.47120556 0.2611716 -0.021571612 0.14394896 -0.0536781
-0.030040728 0.084506206 0.09310543 -0.43804935 0.09479168 -0.07467123 -0.39810392 -0.06953666
0.021006403 -0.13400818 -0.19987978 0.06349533 -0.018356772 -0.1207989 -0.072376095 0.08058696

fc3.weight f4 [64, 128]
00000000: e0c0 c43b 9a09 983c e4c2 c83c 8fca f4ba
00000010: 0995 fa3a cd54 7bbd 9d60 973f 03f5 17be
00000020: fa3e 7d3d a118 a33d 57da a53d 268b 823d
00000030: f00e b8bb c5ed 853d 8cc7 9bbc f554 dcbd
00000040: e7c6 903d e802 063d 0894 28bd 4307 b5bd
00000050: 39ce fcbd 74be 23bd 5745 61bd 27b2 23bd
00000060: b4b7 123d 82e5 01bd 41d5 de3b f55c 23bd
00000070: 63fb 3abb 76af b4bd 43e2 5f3d 039c d93c
00000080: 4dad 75bd ed45 94bd b20c b33c f607 47be
00000090: a87f 9bbd 1fb2 f3bd 3c2f 6a3b 2966 c63d
000000a0: 4ccb 9ebd 1811 c83c d607 0a3e 5d06 033e
000000b0: 0652 3a3d aebc 09bb d8c9 c93e c307 5fba
000000c0: 003b db39 7845 90bc 344e 13bc 4d73 aebd
000000d0: 2a0c a4bc 02b3 773d 1a46 d3bc 5066 063d
000000e0: bdd2 a23d 6406 15be 10a5 3d3c c53a 15be
000000f0: 4b7a 9bbd 2094 e5bc f3ae 483d 41ba 98bd
00000100: 35e8 3cbc ec17 893d 85f8 23bc 35d4 873d
00000110: 830a 8abd 64a3 4b3d 4071 28bd 9bb4 4fbd
00000120: 743e bdbd 6d28 bebc b251 bcbc 790e 30bc
00000130: ed23 823d 2cec e43b e08e 94bd d35b bbbd
00000140: 9311 0fbc c559 083d 21f2 b23d 9be8 013e
00000150: 1838 9ebd 9ab2 a73b d181 9ebd f633 bebd
00000160: dccd 90bd b96d 0e3e 224c 663d 583b ebbd
00000170: fbcc 9ebd fdfd 43bd 51d3 1f3c 6b8d c7bc
00000180: fdfd 9fbd 5ab9 c33d f471 b3bd b50e 25bd
00000190: 806f 933c a4d3 a53d e189 2f3c 4b7f 9abd
000001a0: 077f 83bd 8c79 a5bd 61c0 dfbd e523 dbbd
000001b0: c287 7ebd 1ef5 143e 0fec 2dbd f85b 01be
000001c0: 8579 243e 9ca1 1abe d24e f03d 3de5 a63d
000001d0: 99fe 8fbd a8c2 023e 5148 3abd 1561 07bd
000001e0: e429 4dbd efec d1bd b3f2 77bd 99ed e5bc
000001f0: 9cd2 6dbd af3c 973d f86d 6dbc 6fea 92bb
00000200: 661f 5a3e 5cb0 b2bc d9c2 453e e9a9 bd3c
00000210: 2e3c 17bc 0443 293c 5af3 163e df38 aebc
00000220: 4323 2dbe a1a0 263d ad95 b8bd 56b5 633e
00000230: 85cd 89bd c744 f2bd 52f8 233c dadb 213d
00000240: 55e7 fa3d 585b bd3e a6f1 653d aa09 b7ba
00000250: ffa6 313d 6767 17be 8258 bbbd 6afd 113e
00000260: 9297 46bd 19f9 863d 0b5b 01bd d1dc 0bbe
00000270: 5893 8d3e a33d 853d ad7e bb3d 2445 6d3d
00000280: 61d7 323d 5523 aa3d a854 55bb f26b 1abd
00000290: 20d9 2e3c 7668 39be 3fb9 10bc 1d99 bfbc
000002a0: ce7e 0dbd 40ef 2fbd 2e36 133e 904e 753d
000002b0: 4886 1cbc 4760 343d b702 98bd d7ff 323d
000002c0: b088 8ebd b22c a2be e3c1 84bd faff 203d
000002d0: a054 cfbd 51e9 c9bc 911f 433e b76f fc3d
000002e0: 038d f33c c047 0e3e 58ce ca3d a5d6 61bd
000002f0: e87a 0a3e f43c fe3d 226e 99bd daa5 c93d
00000300: be00 81bc dd5e bf3c a5ca 933c 3a16 a7bd
00000310: 72ca 563d a9e2 da3d 44c1 b23b bb52 b23d
00000320: c333 22be 9d0c f7bd 3ece f4bc 8b94 a53d
00000330: 7080 653d 80ad 153e 401c efbd a2fa 053d
00000340: 3ff0 4abe 25a2 f4bd 4eed 633d 526b 2d3d
00000350: 55db 373e 75a6 a93d ee02 9ebd a81f 91bd
00000360: 356a c83d 2402 26be 317f 223e 27a8 21bd
00000370: 3666 773d 8514 3f3e 3de9 b5bd 1e87 393d
00000380: c156 98bd 1628 043e afa7 56be 2741 df3d
00000390: 39e5 b4bd 855f 873d 2a0f 24bc 61d4 db3d
000003a0: 38f2 0bbd 4c0b 273d e1ed 1dbe b988 c8bd
000003b0: b43c fa3d 3e9e 93bd 518d 643d 8b39 c9bc
000003c0: d12f 403e 3da2 3a3e c800 023b 229a 953d
000003d0: 9b7b 17be 00e2 dfbd 088a 5f3c 028d bbbc
000003e0: 254b 53bc 2cab 9c3d 457e 2fbc 7d45 043e
000003f0: 5b49 aaba 7658 453d 6850 0b3e 0649 9cbd
0.006004438 0.018559266 0.024506994 -0.001867609 0.0019117902 -0.06136017 1.1826359 -0.14839558
0.061827637 0.07963682 0.08098286 0.06374197 -0.005617015 0.065394916 -0.01901605 -0.10758392
0.070691876 0.032717615 -0.0411568 -0.08839276 -0.12344021 -0.039976552 -0.05499777 -0.03996482
0.035819724 -0.031713016 0.006800324 -0.039883573 -0.0028531186 -0.08822529 0.05465914 0.02656365
-0.059979726 -0.072399 0.02185664 -0.1943663 -0.07592708 -0.11899208 0.003573372 0.09687454
-0.077536196 0.024422213 0.13479552 0.12795396 0.04548838 -0.0021017003 0.39411807 -0.00085079315
0.00041814893 -0.01761125 -0.008990813 -0.08518086 -0.020025332 0.06047345 -0.025790263 0.032812417
0.079503514 -0.14553219 0.0115749985 -0.145732 -0.07591685 -0.028024733 0.04899497 -0.074574
-0.011529972 0.06694016 -0.010007982 0.06632272 -0.06740286 0.04971637 -0.04112363 -0.05070935
-0.092404276 -0.023212636 -0.022988174 -0.010745638 0.063545085 0.0069861617 -0.07253814 -0.091483735
-0.008732217 0.033288736 0.08737589 0.12686388 -0.07725543 0.0051177265 -0.07739604 -0.092872545
-0.070705146 0.13909043 0.05622495 -0.11485928 -0.07753941 -0.047849644 0.009754972 -0.024359426
-0.07812116 0.095568374 -0.08761969 -0.04029723 0.017997503 0.08097008 0.010714025 -0.075438105
-0.06420713 -0.08079824 -0.10925365 -0.10700206 -0.062141187 0.1454663 -0.04246145 -0.1263274
0.16061981 -0.15100712 0.11733784 0.081491925 -0.070309825 0.12769568 -0.045479123 -0.03305157
-0.05008878 -0.102502696 -0.06053419 -0.028067397 -0.05806218 0.07384621 -0.014491551 -0.004483513
0.2130104 -0.02181261 0.1931261 0.023152309 -0.009230657 0.010330919 0.14741269 -0.021267353
-0.16907983 0.04068053 -0.090129234 0.22237143 -0.06728653 -0.118295245 0.010007935 0.039516307
0.12251154 0.36983752 0.056138657 -0.0013964672 0.04337215 -0.14785539 -0.09147741 0.14256826
-0.048484392 0.0659048 -0.031580966 -0.13658454 0.27651477 0.06505897 0.09155021 0.057927266
0.043662433 0.0830752 -0.003255168 -0.0377006 0.010671884 -0.18106255 -0.008833229 -0.02338844
-0.03454476 -0.042952776 0.14376137 0.059889376 -0.0095534995 0.04403713 -0.07422393 0.04370102
-0.06959665 -0.31674725 -0.064822935 0.03930662 -0.10123563 -0.024647387 0.1905501 0.123259954
0.029730326 0.13894558 0.09902638 -0.05513634 0.13523448 0.1241397 -0.07491709 0.09846087
-0.015747424 0.023360664 0.018040964 -0.08158536 0.05243916 0.10687763 0.005455168 0.08707186
-0.15840058 -0.12062953 -0.0298835 0.08084973 0.05603069 0.14616966 -0.1167531 0.032709725
-0.19818209 -0.11944989 0.055646233 0.042338677 0.17954762 0.08283702 -0.077154025 -0.07086116
0.097858824 -0.16211754 0.15868832 -0.039467003 0.06040021 0.18660171 -0.08882377 0.045294873
-0.07438422 0.12905917 -0.20962404 0.10901099 -0.08832783 0.06610016 -0.010013381 0.107338674
-0.034166545 0.040782258 -0.15422775 -0.09791703 0.122186095 -0.07207917 0.055798832 -0.024563571
0.1876824 0.18225951 0.0019836891 0.07304789 -0.14793245 -0.10931778 0.013643749 -0.022894386
-0.012896334 0.07649836 -0.010711257 0.12917133 -0.0012991832 0.048180066 0.13604891 -0.076311156

fc3.bias f4 [64]
00000000: b73c afbd 4569 123e d9e8 dcbd 596e 51be
00000010: e6bc 013d f869 4bbe 6de0 a7bb efb6 cc3c
00000020: d5d9 473e 438f dbbc 140f f3bc 992b b9bd
00000030: 62fc ef3d 3acf 53bc 6ad6 08be 9688 b13d
00000040: eb6e b53e 42d8 5cbc 9e97 0a3c 60e8 ad3e
00000050: f021 a93d 41b9 293e 0816 273e 2c09 a0be
00000060: 6ca1 4ebe 2043 0fbc 66b5 3c3e 82cf 2f3e
00000070: 472b 093d 3fc3 89bc 3ef9 e2bd 9168 823e
00000080: 50c9 1f3e 7863 b33e c727 e23e 2dbd 253e
00000090: 372b 43be 65df e83d 9499 1ebc f326 90bd
000000a0: 7896 18be 3739 31bd 73ae cc3d 9f23 24be
000000b0: d982 54bd 000f 683c 6941 8ebd cc5c 14bd
000000c0: b5c2 22bd ab76 06bd 5bc3 09be 0c40 6fbe
000000d0: c266 c33e 58ad fbbd 6a6d eebd d0be 733d
000000e0: a4df 4c3d ebd9 a4bd 72b9 d0bd 9755 883d
000000f0: 0a01 6abc b88b 8dbd 8779 05bd 0658 963e
-0.08556502 0.1429797 -0.107866 -0.2045225 0.03167429 -0.19864643 -0.005123189 0.024989573
0.1951669 -0.026801711 -0.029670276 -0.09041519 0.1171806 -0.012927825 -0.13363042 0.0866863
0.35436186 -0.013479294 0.008459 0.3396635 0.08258426 0.16574575 0.16316998 -0.31256998
-0.20178765 -0.008744031 0.18428573 0.17169002 0.033488538 -0.016816733 -0.110826954 0.25470403
0.15604138 0.35036826 0.44170973 0.16185446 -0.19059454 0.11370734 -0.009680171 -0.07038679
-0.1490115 -0.043267455 0.09994211 -0.16029213 -0.0518826 0.0141637325 -0.0694607 -0.03622131
-0.03973647 -0.032828014 -0.13453428 -0.23364276 0.38164335 -0.12288922 -0.11641963 0.059508145
0.050017968 -0.08049377 -0.10191621 0.0665695 -0.014282474 -0.06911415 -0.0325866 0.29364032

fc4.weight f4 [10, 64]
00000000: 0e7c a13d 70bd ea3d 68d2 86bc 128f 00be
00000010: 3b0d 20be be30 99bd 54ef a7bd 7f8d 1ebe
00000020: b2f8 b6bd 5534 d73d 6787 983d 867a 84bc
00000030: ad09 ba3d 3028 22be cdc4 8fbd b61a 34be
00000040: 01fd 763e 7b00 30be 5777 98bd 9abf 84be
00000050: 85c0 27be a780 193e 4f1f 2d3d c77e 0d3d
00000060: 141e a6be 2a77 1d3d f651 e8bd 8656 203c
00000070: 26ef 85bd 613f 61bd 6832 16bd 08b4 613e
00000080: 4089 54bc 6fed dabc 1e0f 0cbc bab5 68be
00000090: ede8 e8bd a866 7bbe 5482 873c 02f1 213d
000000a0: 7299 50bf f9d4 c03c d26c 9c3c c1b8 13be
000000b0: eb26 18be e1d4 c13b a68c 10bd 853d 9d3c
000000c0: 666a 933d 2980 c9ba 49cf 35be 390f 6cbe
000000d0: 4089 abbd 6415 93bd c086 803d 7d10 243e
000000e0: 920e f83d a18a 153e c6ed 2cbd 0b30 26be
000000f0: 505c b8bd 79f4 51be 5019 1cbd d2c5 a4be
00000100: 377f a1bc de3b 543d 7bcb 15be 6fde 073e
00000110: a8f0 a63d 3d31 0bbd 9184 4f3d e0a9 83be
00000120: 5926 8dbc d469 0b3e 6f9a 23be 3a07 b93b
00000130: 845a 083a c5d9 63bd c4e0 7cbe 8c07 1b3d
00000140: d1bc e3bc a6f9 4cbd 145b 0abe 907a 74be
00000150: 2631 023e fa29 2dbe e5ce f2bd 6697 bf3d
00000160: 8192 923c 6bb1 e3bd 2bdc 37be e2ee 5b3d
00000170: 0205 c83d 2a89 123d eb26 a3bd ecb8 7fbe
00000180: 48dc 4bbe 1bd9 1e3d acaf 4abd 0221 82be
00000190: a2e4 57bd a773 62be 56fe dcbd 9bbb fcbb
000001a0: 9b3a 4bbf 81a8 fb3d e05e 10be d12f 67be
000001b0: 8c1b 0bbe cf51 423e 7163 e2bc f124 253e
000001c0: fa04 6a3b a7b7 77be 176a eebc 2885 b1bd
000001d0: b4c4 853d db3c 9dbc 2f1d 2e3d 4af2 b2bd
000001e0: 0108 c23d 2a80 bebc 36bd 5dbd b48e 01be
000001f0: 817a 9dbc 3dc4 f83d 47b2 81bc 34b5 53bf
00000200: 6e3f d4bd 5091 0e3e f166 09be 23ed 7ebe
00000210: 1ab8 47bc e12d 38be 03a7 84bd 16bc 9a3d
00000220: 1f66 223c 9b19 943c 6fae 53be f2fe 8dbd
00000230: a514 a7bd b080 1fbe 22dd debd b3fb 1b3e
00000240: e4a3 473b 5fc8 85bd 90ca 3bbe ce81 e7bc
00000250: 6148 6dbe 4aaf 1e3e 83f6 173d 7d62 673c
00000260: d1ae 083e 9f88 98bd 4348 85be e912 d13d
00000270: 8f3b 64bd 5c77 5c3d 9895 003d 6a62 6a3d
00000280: e1f0 fd3d f5d8 9cbd 6513 853c da02 c7be
00000290: ec64 44bd dde8 c23d baf8 bd3c 03ed fdbd
000002a0: d762 5dbe 7fb3 1fbd 0750 373d 4e4a b53c
000002b0: 496f e4bd bc7b 58be 388c 92bc 8071 24be
000002c0: a5b7 8a3b 6ac9 4fbd 91df a3bd 422e 25be
000002d0: c160 d7bd 4337 773d 3aa4 fdbd 1dd8 bebd
000002e0: 97b3 86bd 9cc7 c43a 16d8 46bd 18b8 8c3d
000002f0: a617 233d 8cd9 cbbd 40db 8abb 28af 1ebe
00000300: 6525 ac3d f1c7 0d3d c678 dfbc 2d68 873d
00000310: ff64 083e 44cb 3d3e 173b 0bbe bcea c23a
00000320: db45 b23d dc03 8abd 626a 7fbd c093 bbbd
00000330: 442d 183e 7d1b 02bc b64a 5d3d b696 6f3d
00000340: 0096 1d3e d5bd 9c3c 7bb7 e0bd aa92 a5be
00000350: 2ca1 b7bd f58f e0bd 1c0b 63be a54f ec3d
00000360: 57dd a03d 0cf1 d4bc a168 7ebe 48b9 c3bc
00000370: ae2a 473e 3354 0d3b aba7 373d c4a1 b43d
00000380: 4f16 22be 65f9 653d d0bd ad3d 62c8 16be
00000390: d057 6dbe baa5 55be ecec 88bb 9f4b dabc
000003a0: f0e7 16bf 6b45 863d 00e5 d7be c1db 5a3c
000003b0: ce65 ad3c 820d 1fbc ba0b 37bd 34d7 02bd
000003c0: ee98 323d d537 2f3d 809c 63bd 9961 39bd
000003d0: 57dd 1ebe 4985 dabd 9dd3 c1bc 7f2c 113d
000003e0: 0476 c6be c487 2b3d 33ad 553d 2752 9fbe
000003f0: db94 a8bd d055 d9bc 4adc ed3d c4e3 cabe
0.0788499 0.114619136 -0.016457751 -0.12554577 -0.15630047 -0.0748 -0.08199945 -0.15483664
-0.089341536 0.105080284 0.07447701 -0.016171705 0.09083877 -0.15835643 -0.07019959 -0.17588314
0.24119951 -0.17187683 -0.07444637 -0.2592743 -0.16382034 0.14990483 0.042266186 0.034544732
-0.32444823 0.03844372 -0.11343758 0.009786254 -0.065397546 -0.054992083 -0.036669165 0.22041333
-0.012972176 -0.026724545 -0.008548526 -0.22725573 -0.11372552 -0.24550879 0.016541637 0.039536484
-0.8148414 0.023539053 0.019094858 -0.14425947 -0.14858596 0.0059152697 -0.035290383 0.019194374
0.07198028 -0.0015373278 -0.17754854 -0.23052682 -0.08375788 -0.07181814 0.062757015 0.16021915
0.12112154 0.14603664 -0.042218946 -0.16229264 -0.09001982 -0.20503415 -0.038110077 -0.32182175
-0.019713981 0.051814906 -0.14628403 0.13268445 0.0815137 -0.033982504 0.050663535 -0.25715542
-0.0172302 0.13614589 -0.1597688 0.0056466134 0.0005201476 -0.055627603 -0.24695116 0.037848994
-0.027799996 -0.05004277 -0.13511306 -0.23874879 0.12714061 -0.16910544 -0.11855868 0.09355049
0.017892124 -0.11117824 -0.17955081 0.053694613 0.0976658 0.03577534 -0.079664074 -0.24972886
-0.1990825 0.038781267 -0.04948394 -0.25415808 -0.052708276 -0.2211443 -0.10790698 -0.007712794
-0.793863 0.12287999 -0.14098692 -0.22576834 -0.13584727 0.1897652 -0.027635308 0.16127373
0.0035708533 -0.24191152 -0.029103322 -0.08667976 0.06531659 -0.019194057 0.0425083 -0.08737619
0.09474183 -0.023254473 -0.054135524 -0.12652093 -0.019223453 0.121468045 -0.01583208 -0.8269837
-0.10363661 0.1392262 -0.13418175 -0.24895148 -0.012189889 -0.17986251 -0.064771675 0.07555406
0.009912043 0.018078616 -0.2067201 -0.069333926 -0.081582345 -0.15576434 -0.108820215 0.15232734
0.0030462677 -0.065323584 -0.1833899 -0.028260138 -0.23172142 0.15496555 0.037100326 0.0141226025
0.13347937 -0.074479334 -0.26031694 0.10208685 -0.055720862 0.053824767 0.031392664 0.05722276
0.1239946 -0.07658569 0.0162446 -0.38869363 -0.04794781 0.095170714 0.023189891 -0.12398722
-0.21619736 -0.03898954 0.044754054 0.022130158 -0.111540385 -0.21140951 -0.017889127 -0.16058922
0.004233318 -0.050729193 -0.08001626 -0.16130927 -0.10516501 0.060355436 -0.12384839 -0.09318564
-0.06577223 0.0015013102 -0.04854592 0.068710506 0.039817475 -0.09953603 -0.0042375624 -0.15496504
0.0840557 0.034614507 -0.027279269 0.06611667 0.13319777 0.18534571 -0.1359676 0.0014870982
0.0870473 -0.06739017 -0.062357314 -0.091590405 0.14861017 -0.007941124 0.054026328 0.05849334
0.15389252 0.019133488 -0.10972496 -0.32338458 -0.08966288 -0.109649576 -0.22172207 0.115386285
0.07854717 -0.025993846 -0.248446 -0.02389206 0.19449875 0.002156508 0.044837635 0.08819917
-0.15828823 0.056146044 0.084834695 -0.14724877 -0.23178029 -0.20864001 -0.004178634 -0.026647387
-0.5894766 0.06556209 -0.421669 0.0133580575 0.021166708 -0.00970781 -0.044688918 -0.031943515
0.043602876 0.042777855 -0.055569172 -0.045259092 -0.15514122 -0.106699534 -0.023660475 0.035442825
-0.38761914 0.041877523 0.05216713 -0.31117365 -0.08231517 -0.026530176 0.116142824 -0.39626896

fc4.bias f4 [10]
00000000: 26de 7c3d adf8 79be 8677 b63d d92c 703d
00000010: e198 e2be 6444 0e3f ee01 853e c343 11be
00000020: f169 2fbe 615f b5be
0.061735295 -0.24411269 0.08909516 0.05863652 -0.44257262 0.55573106 0.25978035 -0.14186005
-0.17130257 -0.3542433
