runs/Mar02_17-42-27_cssd901383-Run(lr=0.001, batch_size=128, patience=1)-valid/checkpoint.pt (torch_old, 972387 bytes, 8 tensors)

fc1.weight f4 [256, 784]
000000 de 57 ae 3c f6 29 84 bb e2 36 0e be 49 31 5d bd
       0.021282133 -0.0040333224 -0.13888124 -0.05400208
000010 41 3c f6 bc 80 ae 0b bc ad 20 12 3d 1e f8 71 be
       -0.030058028 -0.008525491 0.035675693 -0.23629805
000020 70 1f f5 bd 32 e9 c7 bd 7f 41 35 bd 60 7e 97 bd
       -0.11968887 -0.09761275 -0.044251915 -0.07397151
000030 3c a9 d1 bd e6 9c f6 3d 5d 65 b8 3d c3 c8 f4 3d
       -0.10237357 0.12041645 0.090037085 0.11952355
000040 85 66 b0 bd a6 91 84 bd 78 26 b6 bd 21 3e 09 be
       -0.08613304 -0.06473093 -0.08894056 -0.13402607
000050 4e 4a 6c bd 41 77 da 3d a9 38 a0 3e 2c 5c 1e 3f
       -0.05768805 0.10667277 0.31293228 0.61859393
000060 b5 5d 26 3f 9a 5f b4 3e 43 36 7d 3e 36 7c ec bc
       0.64986736 0.35229188 0.2472773 -0.028867822
000070 d6 60 e0 3c 27 b5 69 bc 13 91 df 3b f4 10 f8 bd
       0.027389925 -0.0142643815 0.006822714 -0.121126086
000080 40 4e a6 bd 20 4f 4a bd 94 b5 52 be 0d a2 ee bd
       -0.08120394 -0.049391866 -0.20577079 -0.116520025
000090 20 e4 04 be 08 52 ff bd fe 47 f2 bd 8d e1 1a bd
       -0.12977648 -0.12466818 -0.11830138 -0.03781276
0000a0 b5 85 98 bc e5 36 dd 3d 8c 83 05 3e 03 dc ef 3d
       -0.018618444 0.10801486 0.13038462 0.11711886
0000b0 60 dd b5 bd 2c ea 57 bd 84 02 be 3c b4 6f 93 bd
       -0.088801146 -0.052713558 0.023194559 -0.0719904
0000c0 35 3b ea 3c 6d 40 d6 3e 0b 57 1b 3f 2d 87 23 3e
       0.028592685 0.41846028 0.6067969 0.15969534
0000d0 34 bd 1e 3e 8d dd 5d 3e d8 da 3f 3e f0 69 ba bc
       0.15501863 0.21666546 0.18735826 -0.022755593
0000e0 6a 91 82 3a 4e 63 44 bc 23 8a 99 3b 25 ec 00 be
       0.000996155 -0.011986567 0.0046856566 -0.12590082
0000f0 18 f6 6b bd 55 45 6f be 0f 74 31 be d1 83 e3 bd
       -0.05760774 -0.23366292 -0.17329429 -0.11109126
000100 33 80 46 be 25 b6 4d be 93 46 41 be b7 13 03 be
       -0.19384842 -0.20089014 -0.18874578 -0.1280049
000110 ce 14 08 be 7e a2 ef bd 00 20 1d be 7c bb 92 be
       -0.13289186 -0.11700915 -0.15344238 -0.28658664
000120 95 04 89 be 4f fa 66 be 7f 34 74 be 12 1d 2c be
       -0.26761308 -0.22556423 -0.2384815 -0.16807964
000130 2a 31 bc bd d3 6d 9f bb c6 2e 16 3e b1 28 3d bd
       -0.09189065 -0.004865387 0.1466628 -0.046181384
000140 ef 52 3c be 40 ec 24 be 99 bb 65 3e c3 bb 09 be
       -0.18391012 -0.16105747 0.22434844 -0.13450532
000150 a8 37 91 3c 67 5f 08 bd cc a6 c8 3c a4 f0 e3 bc
       0.017726734 -0.033294108 0.024493597 -0.027824707
000160 b3 48 6d be 50 f8 3d be eb 3d d4 bd a4 34 29 be
       -0.23172264 -0.18551755 -0.103633724 -0.16523987
000170 a3 f5 83 be 8e 73 8e bd aa 86 1a be 85 54 d7 bb
       -0.25773343 -0.06955634 -0.15090433 -0.006571355
000180 4b e5 b5 bd a9 84 2b be 71 87 4e be 88 f6 72 be
       -0.08881625 -0.16749825 -0.20168854 -0.23726857
000190 67 ca 84 be 1b c4 3a be 7e 89 32 be c5 bf 1c be
       -0.2593567 -0.18238871 -0.17435262 -0.1530753
0001a0 46 1a f7 bd 84 4d 8e bc 6b 76 b5 3d 2c 7b 85 3e
       -0.12065558 -0.017370947 0.08860477 0.26070535
0001b0 b8 24 87 3b b4 0c 66 be b2 83 0c 3e ff 00 44 3e
       0.0041242503 -0.22465783 0.13722113 0.19141005
0001c0 3e c1 6b 3c a7 74 95 3d 52 fc d4 3c 3b 5b e8 bd
       0.014389334 0.0729764 0.025999222 -0.11345526
0001d0 cd e6 1f be 88 58 76 be 58 6d 0a be 8a b5 48 be
       -0.15615387 -0.2405721 -0.13518274 -0.19600502
0001e0 20 42 65 be 03 13 09 be a6 b7 0b be 18 8a d4 bd
       -0.22388506 -0.13386159 -0.13644275 -0.10377902
0001f0 65 58 37 be 29 18 2e be b2 00 52 be 4c 45 3f be
       -0.17904814 -0.17001404 -0.20508078 -0.18678778
000200 43 c4 23 be fa 74 e5 bd b0 93 47 bd 43 9a cb bd
       -0.15992837 -0.11203952 -0.04872483 -0.099415325
000210 bf ec e0 bd c0 b5 13 bc 19 23 93 ba a4 f4 23 3e
       -0.10982656 -0.009015501 -0.001122567 0.16011292
000220 08 50 a6 3d bd 3a 81 3d 8c 8b 47 3e 96 26 d3 3d
       0.081207335 0.063100316 0.19486827 0.10310094
000230 8a cf 79 bd da 81 4f bd ba 67 45 bd 01 80 20 be
       -0.06098894 -0.050660945 -0.048194624 -0.1567383
000240 7c 8b 35 be 84 c7 79 be 86 99 53 be d5 49 1b be
       -0.1772899 -0.24392515 -0.20664033 -0.15164883
000250 13 a7 57 be 41 43 4b be 35 fc d9 bd 13 d7 a0 bd
       -0.21059828 -0.19849874 -0.10643808 -0.07853522
000260 e5 f3 71 be 95 4b e5 bd aa c1 2f be 0d 18 d3 bd
       -0.23628195 -0.11196057 -0.1716372 -0.10307322
000270 7e 0d 4b be b6 2e 50 be 89 8c f9 bd 21 fd ff bd
       -0.19829366 -0.20330319 -0.12185008 -0.124994524
000280 7f 5a 34 be c1 02 a7 bd 89 b9 a0 bd f9 5b 0b bd
       -0.17612647 -0.08154822 -0.07847888 -0.03402326
000290 7d 7f 6e 3d fb c6 9d 3d 81 3a cb 3c fa f6 2d 3e
       0.05822705 0.07703968 0.02480817 0.16988745
0002a0 ac 5b 15 3d fa c3 12 3c 53 fe a2 bd e8 ad 1a be
       0.03646438 0.008957857 -0.07958665 -0.15105402
0002b0 0f b1 f6 bd a5 e6 27 be dd 23 45 be 03 60 5a be
       -0.1204549 -0.16396578 -0.19251962 -0.21325688
0002c0 2b cc 5d be 5e fb e2 bb 11 00 7a be 8b 40 2b be
       -0.21659915 -0.006926938 -0.24414088 -0.1672384
0002d0 3f 15 93 be 53 49 16 be c2 6b 35 be 71 12 72 be
       -0.28727147 -0.14676408 -0.17716888 -0.23639847
0002e0 4f fa 9b be 4c 78 84 be 40 4a f6 bd 93 31 c1 bd
       -0.30464408 -0.2587303 -0.12025881 -0.09433284
0002f0 f7 f7 31 be 33 c2 4a be 31 75 fa bd a2 60 77 bd
       -0.17379747 -0.19800644 -0.12229384 -0.06039489
000300 d0 b3 19 bd 6a e6 4c 3c d9 bc a8 3d 3c 06 45 3e
       -0.037525 0.012506107 0.08239145 0.1924066
000310 72 08 48 3d f8 14 95 3b b6 07 c3 bd e1 82 d6 bd
       0.04883618 0.004549619 -0.09522955 -0.10474182
000320 1b 08 12 be bb fd 49 be 1f 20 55 be 52 dd 70 be
       -0.14260904 -0.19725697 -0.20813034 -0.23521927
000330 73 4b 84 be 84 cc 90 be ac c1 b9 be d9 75 e5 bc
       -0.25838813 -0.28281033 -0.36280572 -0.028010296
000340 62 73 3d be 5d 58 36 be 52 ae 5f be 24 2d a0 be
       -0.18501046 -0.17807145 -0.21843842 -0.3128444
000350 55 37 ca be 88 a6 52 be e9 05 c0 bd 90 44 98 bd
       -0.3949534 -0.20571339 -0.09376127 -0.07434952
000360 5f a5 21 be 61 f3 33 be 96 3e 27 be 5a f9 b0 bd
       -0.1578574 -0.1757331 -0.16332468 -0.0864131
000370 de 9d b1 bd 7f 20 90 bc a1 f4 e4 bc 03 87 8d 3e
       -0.08672689 -0.01759362 -0.02794868 0.27642068
000380 f0 2d 40 bb 2c c9 1e bd 51 72 f2 bd 2e 95 0d be
       -0.0029324256 -0.03876607 -0.118382104 -0.13826439
000390 62 d6 60 be cb ab 59 be 40 09 32 be d7 72 41 be
       -0.2195678 -0.2125694 -0.17386341 -0.18891464
0003a0 6d ef 31 be 24 0a 30 be f1 96 64 be 30 f7 e0 bd
       -0.1737649 -0.17191368 -0.22323205 -0.10984647
0003b0 65 b6 0e be 9a 4a 54 be 2e ba 67 be 56 64 97 be
       -0.13936765 -0.20731583 -0.22629616 -0.29568738
0003c0 40 2d c0 be 86 01 d3 bd ef 47 11 bd 9d f9 74 3c
       -0.37534523 -0.10303025 -0.03546899 0.014952091
0003d0 fb ef 08 be ee 21 02 be af a9 c0 bd c2 69 1c be
       -0.13372795 -0.12708256 -0.094073646 -0.15274718
0003e0 23 e6 2a be 07 7a 14 3e 4b f8 a4 3d 5f 84 90 3e
       -0.16689353 0.14499675 0.080551706 0.2822599
0003f0 ab 1f 73 bd 85 54 a8 bd 28 35 18 be f7 2d 70 be
       -0.059356373 -0.08219246 -0.14864028 -0.23455034

fc1.bias f4 [256]
000000 ef 98 2d 3e a5 c4 ab bc 1a 8c 10 be 28 74 2b be
       0.16952871 -0.02096779 -0.14115945 -0.16743529
000010 ce 87 a0 bd 7a ef 03 be 64 f2 84 3e c8 f8 00 bd
       -0.07838403 -0.12884322 0.2596618 -0.031487256
000020 f3 3d ba bc 19 87 d0 bd af e0 84 bd d0 ad 87 bd
       -0.022734618 -0.10182018 -0.064881675 -0.06624949
000030 c0 03 47 3d 11 a5 16 be e0 cb 1b bd ec c2 87 bd
       0.04858756 -0.14711405 -0.038036227 -0.06628975
000040 2b 5d a0 bd ac 70 00 bd 45 bb c3 bd a9 90 be bd
       -0.078302704 -0.031357452 -0.09557203 -0.093049355
000050 54 89 65 bd 35 53 74 bd a5 9b 2c bf 27 bf a7 bd
       -0.05603917 -0.059649665 -0.67424995 -0.08190756
000060 cd 19 30 bd 80 f8 1c 3e d7 d5 6d bd b7 2a 75 bd
       -0.042993356 0.1532917 -0.05806526 -0.05985519
000070 49 89 12 bf 07 a6 c3 be 35 29 30 bd 91 f0 ed bd
       -0.5724073 -0.38212606 -0.043008048 -0.1161815
000080 4f 64 c7 bd 27 1a f7 3e b7 44 c0 bd 54 86 8a bd
       -0.09735929 0.4826214 -0.09388106 -0.06763902
000090 01 0a ab bd 63 41 50 3d 74 36 e8 bd 36 aa 0b be
       -0.083515175 0.050843608 -0.11338511 -0.13639149
0000a0 66 5b f5 3e 49 22 5c be 69 9f 7b bd 66 0c 02 be
       0.47921294 -0.21497454 -0.061431322 -0.12700042
0000b0 8f 36 80 bc 09 3a 81 3f 0a 5a ba bc ef 77 0e bd
       -0.015651016 1.0095836 -0.022748012 -0.034782346
0000c0 1f ae 6f 3d 0c 18 66 bf 0a 28 a8 3d 97 e3 3b 3c
       0.058515664 -0.8988044 0.08210762 0.011467836
0000d0 d7 fb 7c bd 0c e4 09 bf bc eb 03 bd 81 8c 7a bd
       -0.06176361 -0.53863597 -0.032207236 -0.06116915
0000e0 12 af 2d be 72 dd 8d 3e d4 e8 28 bd 89 8b 59 bd
       -0.16961315 0.27708012 -0.041237667 -0.053111587
0000f0 ec 1b 07 be 3d 5c 1a 3f 3c 2d 9d 3e c5 a1 b7 bd
       -0.13194245 0.60296994 0.30698574 -0.08966402
000100 32 e9 21 bd ae a1 51 be 0b fc a1 bd a1 db 95 bd
       -0.039529033 -0.20471832 -0.079094015 -0.073172815
000110 ed cc f4 bd e0 0c eb 3e a4 73 fe bc a1 d2 7c be
       -0.11953149 0.4590826 -0.031061001 -0.24689724
000120 2e 59 b8 3d 0a 97 80 3e 4d 54 f0 bc 4d b2 9e bd
       0.09001385 0.25115234 -0.029337073 -0.07748852
000130 8b 10 b4 bd 8b e8 19 bd d0 4f 1f 3f 13 bd aa bd
       -0.08792218 -0.037575286 0.6223116 -0.08336844
000140 c3 7e ad 3e ee df bb bd 12 8d 8f bd 84 74 45 bd
       0.33885774 -0.091735706 -0.07009329 -0.04820682
000150 9d 8a b3 be 49 c6 87 3c f8 c0 16 bd 66 c5 35 be
       -0.3506669 0.016574042 -0.036805123 -0.17751083
000160 81 2c 9a bf 07 2f 3e bd ae ae 27 3e a2 c7 43 3f
       -1.2044832 -0.046431568 0.16375229 0.7647649
000170 fa 71 86 bd b7 08 cf bf ac 8d 8d bd 87 c7 81 3f
       -0.06564708 -1.6174535 -0.069117874 1.0139016
000180 c9 d0 2b 3f 6e fe b5 bd c3 fd 7f bd 50 38 9a bc
       0.67115456 -0.08886419 -0.062497865 -0.01882568
000190 34 0f 38 bd 1f 31 8a bc 4b 85 30 bc 89 2b 75 3e
       -0.044936374 -0.016869126 -0.010773967 0.23942389
0001a0 be 96 1c 3e 10 e9 53 3f 8b df f6 3c 56 d4 5c bd
       0.15291879 0.827775 0.03013589 -0.053913437
0001b0 59 f3 9f bd 75 8b ab 3c 1d e7 f3 3e 9d 86 af bd
       -0.07810087 0.020940522 0.47637263 -0.08570597
0001c0 e7 7e da bd 12 95 8e be d8 ed f8 bd b2 3f 8d bd
       -0.10668736 -0.27848107 -0.1215474 -0.068969145
0001d0 dc b3 38 be 4f 2e c9 be 84 6b 6b bd c8 4d f4 bd
       -0.18037361 -0.39293143 -0.05747558 -0.11928898
0001e0 09 e0 57 bd a5 d1 18 3d 08 0e 8c bf c3 3c 8c 3f
       -0.05270389 0.037309308 -1.0941782 1.0956043
0001f0 3b 30 5d be 71 21 95 bd 3b d8 da bd 7d b1 ab 3e
       -0.2160043 -0.07281769 -0.10685774 0.3353385
000200 e8 40 bf bd d0 a2 8f bd e1 b5 ca be d4 b0 0a 3f
       -0.09338552 -0.07013476 -0.39591888 0.5417607
000210 c3 74 f0 bc 6f 9c cf be f9 12 cc bd 33 b5 8a bd
       -0.029352551 -0.40549037 -0.09964556 -0.06772842
000220 59 f2 c6 bd 98 56 dc bc 4f 2e 8f bf c3 72 51 bf
       -0.09714193 -0.02689676 -1.1186007 -0.8181574
000230 c4 50 ac 3d a6 06 3f be db 7b b3 bd 18 03 27 3f
       0.08413842 -0.1865488 -0.08763858 0.65239096
000240 76 71 3b 3e e6 6b 1b be 0d b8 df bd f5 b9 9d bd
       0.18305 -0.15177879 -0.10923777 -0.07701484
000250 8a fb 84 bd 86 ce a7 bd 95 52 b6 bd dd 0f 03 bd
       -0.0649329 -0.08193688 -0.0890247 -0.03199755
000260 31 ca 8d bd 77 cc 2a bf 1f 79 4e 3e 0a 8b 13 be
       -0.069233306 -0.6671824 0.20163392 -0.14408508
000270 70 4b e5 3e c7 a5 16 bd 60 e5 ec be 6b 45 7a 3e
       0.44784117 -0.03677919 -0.4626875 0.24440543
000280 7a 11 45 be 60 8a a2 bd 19 3d 25 3f 88 9d a7 bd
       -0.19244948 -0.07936549 0.6454635 -0.081843436
000290 20 a2 5a 3e f6 87 1a bd 23 c9 04 bd 8d 66 0e 3f
       0.21350908 -0.03772732 -0.03241838 0.5562523
0002a0 85 da ba bd 29 e4 c8 3d d2 85 40 bf 18 dd a5 3f
       -0.091237105 0.09809143 -0.75204194 1.2958097
0002b0 65 45 d3 be a7 89 9f bd 9b f0 3e 3f 5f d0 ab bd
       -0.4126388 -0.07789927 0.74585885 -0.08389353
0002c0 da 45 0a bd ca 63 0e 3f 06 29 2c bf 91 55 d1 bd
       -0.033758022 0.55621016 -0.67250097 -0.102213986
0002d0 82 94 5c 3c 00 c7 82 3e ee 25 d5 3e 3d ca 05 3f
       0.013463141 0.2554245 0.416305 0.52261716
0002e0 25 43 b3 be 15 c4 01 3f a8 f5 79 bd b6 32 9e bf
       -0.35012165 0.5068982 -0.06102529 -1.2359226
0002f0 12 ec f3 3e 27 43 74 be fc 16 b5 3e 45 d1 61 be
       0.47641045 -0.23853742 0.35369098 -0.22052486
000300 5a 93 c4 bd 8e 0e af 3e a9 a2 54 be 6e 19 65 3f
       -0.095984176 0.34190792 -0.20765175 0.8949193
000310 ad 04 b5 bd cf 48 6b be a9 6c c6 bd 7d 96 87 3e
       -0.088387825 -0.22976993 -0.09688694 0.26482
000320 81 3c de bd 1c 4e 9f bd 18 84 32 3e 83 ba 86 bc
       -0.10851384 -0.0777857 0.17433202 -0.016446358
000330 a2 b5 3b be c2 ac a6 be 41 80 c0 bd 77 e0 cd bd
       -0.18331006 -0.3255368 -0.093994625 -0.10052579
000340 80 ec 2e be 1e 07 92 bc 31 0a d2 3e 07 b4 b3 bd
       -0.17082405 -0.01782566 0.410234 -0.08774572
000350 1d b7 12 3f 39 b6 df 3d 7e 3a 43 3f 53 31 ba bd
       0.5731066 0.10923428 0.76261127 -0.09091439
000360 39 cc 11 3d 0d da 98 bd 01 1b af bd eb 54 25 3f
       0.035595153 -0.07463465 -0.085500725 0.645827
000370 bb aa 2c bd 34 55 d9 bc db a9 97 bd 2e 01 86 be
       -0.04215501 -0.026529886 -0.07405444 -0.26172775
000380 3d 69 9e bd 95 47 c0 bd 91 24 7d bd ab 51 44 3e
       -0.07734916 -0.09388653 -0.06180245 0.19171779
000390 78 50 bd bd 6d 99 19 bc 21 da ff bd e2 d9 31 bd
       -0.09243864 -0.009374958 -0.12492777 -0.04342068
0003a0 e7 e7 36 bc 3c a0 ab 3e a4 71 4c bf f3 0f cc 3e
       -0.011163688 0.33520687 -0.798609 0.39855918
0003b0 9c d3 67 bd d1 7b 26 bd 2c 0e 03 bd 39 e2 0d bd
       -0.05659829 -0.040645424 -0.031995937 -0.03463957
0003c0 0e cb 60 be 8d e0 1a 3f 4c 88 5c 3f d3 de 8a 3d
       -0.21952459 0.6049889 0.8614547 0.067807816
0003d0 b5 72 b8 bd d3 f9 ad 3e 1f 2b 38 3f 3f 73 ab 3e
       -0.09006254 0.33979663 0.719408 0.33486363
0003e0 81 1c 32 3e e3 fb c9 3f 95 de 64 bd 01 bb 68 bd
       0.17393686 1.5779995 -0.055876333 -0.056818966
0003f0 fb 36 71 3f 22 6d 68 bd eb a5 8c bf 04 f5 81 bd
       0.9422452 -0.056744702 -1.0988134 -0.06345561

fc2.weight f4 [128, 256]
000000 b6 dc 8f 3d 4c e8 44 3d fb 6c 25 3d e2 5b 84 3d
       0.07024519 0.048073098 0.040387135 0.06462838
000010 c6 52 2e 3d 29 d2 44 3e 6e 69 5f bb a5 8d 2e bd
       0.042559408 0.19220795 -0.003408994 -0.04261555
000020 e2 12 c5 bc 00 74 12 bc 22 ef da bd 1f 13 07 bd
       -0.024056856 -0.008938789 -0.10690142 -0.03297722
000030 92 15 b1 bc 70 11 03 3d 5a 2e a9 bc 5f 87 fb ba
       -0.02161673 0.03199905 -0.020651985 -0.0019190124
000040 b8 2c b1 3d c3 75 d3 3c ad 6d 04 3b d9 63 ac be
       0.086511075 0.02581299 0.0020206973 -0.33669928
000050 fe 00 c8 bd b6 30 ed bc 1d 64 99 bc 7c f4 f0 3c
       -0.09765814 -0.028953891 -0.018724496 0.029413454
000060 f1 a4 35 3c 63 23 25 3e 67 7d bd 3c d2 23 fc 3c
       0.011086688 0.1612678 0.023131086 0.0307788
000070 d3 10 75 be 63 f9 b4 3e 4d e3 88 3b 15 b2 34 be
       -0.23932199 0.35346517 0.004177487 -0.17646058
000080 16 3c 8f 3d 1f 0c ac bd 48 42 06 3d b6 8a 0b bd
       0.06993882 -0.084007494 0.032778054 -0.034067832
000090 33 0e 85 bd 11 b3 ab 3d 74 d1 71 3d b0 bd b0 3c
       -0.06496849 0.083837636 0.05903764 0.021574825
0000a0 af cf 90 3e 3a ee 74 3b 0d 64 eb 3d 43 e1 0c 3d
       0.2828345 0.003737344 0.114936925 0.034394514
0000b0 9b 4c 4e 3e f4 df c4 3d f6 06 3d bd 0a 10 eb 3d
       0.2014641 0.09613028 -0.046149217 0.114776686
0000c0 86 30 45 3d 67 ec 1a be ac a2 e3 3e 34 dd 51 bd
       0.04814198 -0.15129243 0.44460046 -0.051236346
0000d0 46 e4 b8 bc b9 65 8b bd c0 60 4f 3c a6 cf 0a 3e
       -0.022569787 -0.068065114 0.012657344 0.13555774
0000e0 19 98 0d bd 42 7b 9d be 6f 15 ab 3c bc 91 97 bc
       -0.03456888 -0.307581 0.020884244 -0.018502109
0000f0 a5 44 03 3e 12 aa c1 bd 4c bd 28 3e a3 63 43 3d
       0.12819155 -0.094562665 0.16478461 0.047702443
000100 bd 6c ae 3d ad d4 7a 3d b0 d4 e2 bc cb ba b3 bb
       0.08516834 0.06123798 -0.027689308 -0.005484914
000110 7b f0 df 3d d2 5e 8a bd 4c 2a e3 bc 47 a7 3a 3d
       0.1093454 -0.06756367 -0.02773013 0.045569684
000120 23 3f 4a 3d ff 35 a6 be 70 9c 0b bd c1 dc a4 3d
       0.049376618 -0.3246307 -0.034084737 0.08049918
000130 58 9d 35 bd 6e 12 47 bd 65 1b 0d bf 9d e2 03 bc
       -0.044339508 -0.04860156 -0.55119926 -0.008049634
000140 44 9a f6 bd 36 73 ae 3d bd 86 08 be cc 79 92 3d
       -0.120411426 0.085180685 -0.13332649 0.07152137
000150 9b ae 62 3d e8 27 a7 3d 3d 12 18 3d 36 ec 63 bd
       0.055342298 0.081619084 0.03712677 -0.05564519
000160 f2 72 06 bf e9 26 59 3d fa ce 5e 3b c7 d5 8c 3e
       -0.5251914 0.053015623 0.003399788 0.2750685
000170 85 36 32 3d 91 da c8 3d 48 13 ac bc fd 01 7a be
       0.043509025 0.09807313 -0.021005288 -0.24414821
000180 19 d5 c6 3e 78 76 2b 3d 33 0d 08 be 68 83 56 3c
       0.38834456 0.041861027 -0.13286285 0.013092853
000190 41 b5 19 3d ea 9e cb 3d 9a 4e f1 bd 80 10 42 3d
       0.037526373 0.0994242 -0.1178257 0.047379017
0001a0 6a a2 26 3d b3 6e c8 be 61 aa 5d 3c 23 00 d1 3d
       0.040682234 -0.39146957 0.013529391 0.10205104
0001b0 d8 c5 63 bc 83 5b 8a bd 40 b2 a3 3e 58 f6 d4 3d
       -0.01390215 -0.06755736 0.3197193 0.10398549
0001c0 6a c0 7b 3d 61 a2 82 bc 23 e4 df 3c 0b 8c a5 bd
       0.061462797 -0.015946569 0.027330464 -0.08083352
0001d0 bf 68 76 bd 01 ec fb 3d 62 03 d9 3c 5d 77 93 3c
       -0.060158487 0.123008735 0.02649087 0.018001253
0001e0 88 fe c3 bd 81 99 35 3e 95 89 a8 be a1 0f 05 be
       -0.09570032 0.17734338 -0.32917467 -0.12994243
0001f0 2a 8c 9d 3d 5f ca ea bc 60 90 c1 3d 67 cc 7d be
       0.0769275 -0.028660951 0.094513655 -0.24785005
000200 46 7e ac 3d 80 f0 c8 bc f3 3c 7b be 93 bf 4d 3e
       0.08422522 -0.024528742 -0.24534969 0.20092611
000210 a0 b6 33 3d e6 a5 be bd bd 3b 2d bb a7 78 bf 3b
       0.043875337 -0.09308986 -0.0026433312 0.0058432403
000220 3a 3b dd bd 95 97 c1 3c 10 ee 61 be 5a 81 58 bd
       -0.10802312 0.02363185 -0.2206347 -0.052857734
000230 58 f3 10 bb 74 cd 32 bd ad 17 a1 3b 28 c7 16 3e
       -0.00221177 -0.043652967 0.0049161525 0.1472441
000240 e4 ea f3 3e da 7b 6d bc 65 9f ad be 44 50 9e bc
       0.47640145 -0.014494861 -0.3391067 -0.019325383
000250 6f 34 0c bf cf c1 00 3d aa 09 8b 3d d5 3e 95 3d
       -0.5476751 0.03143483 0.06788953 0.07287375
000260 17 52 7e bd 4d c6 10 3e 26 93 7e be 66 00 bf bc
       -0.062090006 0.14138146 -0.2486082 -0.02331562
000270 0a d5 ad be f4 50 9e bd 47 09 a5 bd 18 4d fc be
       -0.33951598 -0.07730284 -0.0805841 -0.49277568
000280 39 c7 0b 3e 06 a8 d7 3c aa 97 ae 3e 60 7f 7e 3d
       0.13650216 0.026325237 0.34100085 0.062133193
000290 47 b8 bc 3e c8 36 80 3b 28 87 ba 3e e0 7d 48 3c
       0.36859342 0.0039127804 0.3643124 0.012237042
0002a0 cf 12 8a bd d1 bf 04 bd 47 b7 9c 3c f5 5b b4 3e
       -0.06741869 -0.032409493 0.019130362 0.35226408
0002b0 a0 fe 59 3e b3 2e 94 3d 2b 78 81 3e 1e cd 0e bd
       0.21288538 0.0723547 0.25286993 -0.034863584
0002c0 56 c6 cc 3c 74 b0 80 3a ff 7b ca bd ed f7 b9 3d
       0.024996918 0.0009818212 -0.09886932 0.09080491
0002d0 4b 92 da bd b6 19 ab 3d b9 14 69 3b db e0 72 bd
       -0.106724344 0.08354513 0.003556533 -0.05929647
0002e0 3f 5a d2 bc 9b bf bf be 2c 60 d1 bb e1 83 ac be
       -0.025677798 -0.3745087 -0.0063896384 -0.33694366
0002f0 68 82 a1 3e 9b 7c d8 3c 89 ae 03 3f aa 82 a5 bd
       0.31544805 0.026426604 0.51438195 -0.08081563
000300 de 7d 92 3c 7c 91 03 3c a7 85 a6 bd 21 59 fc be
       0.017882284 0.008030292 -0.08130961 -0.4928675
000310 17 97 54 3d c7 62 89 bd ea ad 51 3d 37 79 a3 bd
       0.051901903 -0.067082934 0.051191248 -0.07982104
000320 96 36 8b 3d fc 92 bd bd c4 45 66 be 40 1d 5e bd
       0.06797521 -0.09256551 -0.22487551 -0.054227114
000330 47 63 08 3e 79 ec 1f 3d c2 74 5a 3d a2 cc 51 bb
       0.13319121 0.039043877 0.053334005 -0.003201284
000340 4c 03 01 bd d4 75 54 3e 0a 3d a8 bd 66 1e 96 3d
       -0.031497285 0.20748073 -0.08214767 0.07330017
000350 85 01 16 3f 21 47 20 be bf b2 23 bf 36 d8 99 3c
       0.5859607 -0.15652134 -0.6394462 0.018779855
000360 7d 43 b9 3c fb 8a 58 3c dc 21 50 bc bd ab d4 bd
       0.022615189 0.013216729 -0.012703385 -0.10384319
000370 d5 90 8c bd a1 19 64 3d 8e 2e a5 3c 2c 72 d0 bd
       -0.06863562 0.055688504 0.0201638 -0.101780266
000380 71 ad 06 be 62 9d 82 3b 40 3e a5 3d ee 9e 26 3d
       -0.131521 0.0039860466 0.08068514 0.04067891
000390 29 3b 69 3d 4d ed 90 3c fc 4f 45 3d 94 61 f1 3c
       0.056941185 0.017691279 0.048171982 0.029465474
0003a0 b3 c8 90 bc 4d d0 14 3d ad 17 1e be 5d 3b ab be
       -0.017673826 0.036331464 -0.15438719 -0.33443728
0003b0 00 eb 0c bd 00 55 33 bd db ca 41 3b 1d 62 82 bd
       -0.0344038 -0.043782234 0.0029570374 -0.0636637
0003c0 2d 49 5d 3d 0b 6b b1 3d 0a 68 cf 3e 49 b9 bf 3d
       0.054024864 0.08662995 0.40509063 0.09361512
0003d0 06 9b e8 3c 65 0d 91 bd 35 51 65 3e 24 cc 18 3f
       0.028394233 -0.07082633 0.2239426 0.59686494
0003e0 ef d2 d3 3d c1 36 34 3d 54 72 1b 3d 31 cd 02 3d
       0.10342967 0.04399753 0.03795083 0.031933967
0003f0 4b 87 67 be 95 a7 ae bc b5 0f 06 be b1 7c 0a 3d
       -0.22610204 -0.021320144 -0.1309193 0.03381032

fc2.bias f4 [128]
000000 05 8e 4c 3d 60 aa c6 be 9b f1 80 3e 90 6b 83 be
       0.049940128 -0.3880186 0.2518433 -0.25668
000010 fa 91 54 3f 52 67 16 be df 50 4b be 92 93 c7 bd
       0.8303524 -0.14687851 -0.19855069 -0.09744944
000020 6a de 08 be 77 46 b2 bd 3a 63 a4 be 88 69 d5 be
       -0.13366094 -0.08704846 -0.32106954 -0.41682076
000030 c1 e9 71 3f 01 3a 4b 3f 7e a4 4a be 90 d9 8f 3f
       0.94497305 0.7938538 -0.19789311 1.123827
000040 2d 32 94 3f 31 dc fd bd ef f0 4a 3f 75 83 2f bf
       1.1577812 -0.12395514 0.79273885 -0.6855996
000050 c1 91 61 be 7e 86 f6 3e 31 94 ce 3d e9 f1 4f 3f
       -0.22028257 0.48149484 0.10086859 0.812285
000060 97 90 52 3f 94 9e ac 3e 51 2a a0 be 2c 41 a7 be
       0.82251877 0.33714736 -0.31282285 -0.3266691
000070 83 0b 2c bf ca b4 9b 3c 83 ae 2a be ba 74 a4 bc
       -0.67205065 0.019007105 -0.16668133 -0.02007519
000080 ae 29 79 be 91 8a ad 3f 17 a7 a8 bd 56 5a 6a 3f
       -0.24332306 1.3557912 -0.08234995 0.9154409
000090 fe e3 00 3f 62 26 59 3d c4 32 cf 3e 9c 33 a6 3c
       0.5034789 0.05301512 0.4046842 0.020288281
0000a0 68 68 43 3e fb e5 2e bf 93 ff 42 3e 5b 8b 75 3f
       0.19082797 -0.6831967 0.19042806 0.95915765
0000b0 7d ed 51 3e 96 46 3a be 53 73 33 bf c6 d1 1e be
       0.20500751 -0.18190989 -0.70097846 -0.1550971
0000c0 66 ee 04 bf f5 5b 46 be 64 1e d5 be 30 3c 1b be
       -0.5192627 -0.19371016 -0.4162475 -0.15159678
0000d0 2d 94 3d bd ad 5e 49 bf b9 9b 08 bf 87 2e 30 be
       -0.04628389 -0.7866009 -0.53362614 -0.17205249
0000e0 2a ee 1b ba 4c c0 e7 be ac a3 4f bf aa 2c e5 be
       -0.000594827 -0.45263898 -0.8110912 -0.44760638
0000f0 bc 70 27 3f 44 0c f0 3e a2 ec 44 3f b9 06 05 3f
       0.65406394 0.46884358 0.76923573 0.5196338
000100 04 65 b8 be a9 f6 13 3f 11 7c 4c be a0 71 f4 be
       -0.3601457 0.5779825 -0.19969203 -0.4774294
000110 44 0e a0 bd f5 81 d1 3e 90 aa 88 3e f9 9c b8 be
       -0.07815221 0.40919462 0.2669263 -0.3605726
000120 4d 53 ec be d6 c4 5c 3f 58 d0 60 3f 1c 0e 1f 3e
       -0.46157303 0.8623785 0.8781791 0.15532726
000130 3a 8c 1c 3f 76 67 63 bf e6 c9 07 be 1c 5d ae 3f
       0.6115147 -0.88829744 -0.13260612 1.3622165
000140 b3 56 e5 3d 21 f7 37 3f 51 b9 74 3e 4a 95 3e be
       0.11198177 0.71861464 0.23898818 -0.18611637
000150 7b 9f ce 3f 29 09 b6 be a1 d7 16 bf 5e 9b f4 be
       1.614242 -0.35553864 -0.58922774 -0.47774786
000160 49 90 8d be 01 47 d1 be ac fe b9 be 75 0d e6 be
       -0.27649143 -0.40874484 -0.36327112 -0.44932142
000170 6a af 1e bf 73 e2 87 3e f4 b1 b2 bc 03 ac 32 be
       -0.6198641 0.26539955 -0.02181337 -0.1744843
000180 e7 96 91 be 05 c1 12 3d 7c 40 34 bf 74 c0 0b 3f
       -0.28435442 0.03582861 -0.70410895 0.54590535
000190 4a 9a 8a be f0 66 5f be 36 93 b6 bd c2 5c c0 3b
       -0.27070838 -0.21816611 -0.08914797 0.0058704326
0001a0 b6 87 0f be 2c c8 0d bf 9f 12 02 3e fc 9e 32 bf
       -0.14016613 -0.55383563 0.12702416 -0.6977384
0001b0 75 b2 87 be 4f ae d3 bd 26 f0 0a bf 6a 3a 9c be
       -0.2650334 -0.10335981 -0.5427269 -0.30513316
0001c0 33 a6 0a 3f 56 ff af 3e 82 35 2b 3f 25 f9 02 bd
       0.5415985 0.34374493 0.6687852 -0.031975884
0001d0 a1 c2 10 bf 75 32 97 be ac d1 cb 3d aa f0 35 bf
       -0.5654698 -0.29530683 0.09952101 -0.7107035
0001e0 40 12 6d bf 33 2c fc be c5 8b 50 bf a5 3d 54 be
       -0.9260597 -0.4925247 -0.8146327 -0.2072664
0001f0 80 99 1e 3e 76 cc 9e 3e f6 8c 44 bf 70 c8 cc bd
       0.15488243 0.31015366 -0.7677759 -0.09999168

fc3.weight f4 [64, 128]
000000 77 26 0b 3f ff 25 91 3d b3 1b 80 be 37 64 74 3e
       0.5435557 0.07087325 -0.25021133 0.23866354
000010 23 9e 16 be 49 c1 2d be af d2 08 be e1 ea 00 3c
       -0.14708762 -0.16968264 -0.1336162 0.0078684995
000020 5e ac 69 3f 91 a1 f5 3e b0 3f be 3e 9f 6b 9b be
       0.91278636 0.47974828 0.37157965 -0.30355546
000030 37 e8 af 3e 3b da a4 be 87 d9 f4 3d 89 16 0f be
       0.34356853 -0.32197747 0.119555525 -0.1397344
000040 2a 09 51 bd 1e 75 5e 3d 75 ab ae bc ca d0 4f 3e
       -0.05103413 0.05431091 -0.021321991 0.2029449
000050 5f c9 27 3d 2b 1f 29 3d c6 a1 07 3e 92 f7 4d bd
       0.040963527 0.04128949 0.13245305 -0.05028493
000060 a3 02 ae be 83 87 7a bc e7 f9 ab bb a4 6e 79 3e
       -0.33986387 -0.015291098 -0.0052482965 0.24358612
000070 07 ed 3e 3d e7 0c 31 3e e7 9b 0a bd 38 c7 db 3d
       0.046612766 0.17290078 -0.033840086 0.10731357
000080 42 b5 d1 3d 7b d4 b9 be bd 05 33 3e 76 86 38 3e
       0.1023965 -0.36294922 0.17482658 0.18020043
000090 28 34 35 3e 78 f1 ce be 4c d3 a4 bd 93 a4 2d be
       0.17695677 -0.404186 -0.08048114 -0.16957311
0000a0 61 92 36 be 44 83 96 bd 4e bf bf be b2 37 63 be
       -0.17829277 -0.07349256 -0.3745064 -0.22189215
0000b0 e1 02 8a be 95 8d da bc 1a 75 a5 bd 73 f7 aa bc
       -0.2695532 -0.02667884 -0.08078976 -0.020869946
0000c0 f0 17 a3 bc 25 0b b2 be ff 4c f9 bc ec c0 45 bd
       -0.019908875 -0.34774128 -0.030432222 -0.048279688
0000d0 4e 69 66 3c fa b4 39 3e 93 c8 d8 bd 03 f2 13 3e
       0.0140631925 0.18135443 -0.105851315 0.14447789
0000e0 0f f4 cc 3d 0e 66 07 be f8 a3 21 3f 48 a8 a5 bd
       0.10007488 -0.13222525 0.6314082 -0.08088738
0000f0 d9 10 39 be df 84 01 be 96 ed 26 3e 8c 01 6e 3e
       -0.18072833 -0.12648343 0.1630157 0.23242778
000100 e0 1e 7e 3b 42 2f 0e be 9e 40 08 be 93 ce 8e bd
       0.0038775727 -0.13885215 -0.133059 -0.06972995
000110 e6 35 02 be 17 42 13 be 76 04 7c 3e 69 d7 0c be
       -0.12715873 -0.1438068 0.24611077 -0.13754047
000120 63 a4 c5 3e 57 5c 77 bd ab 61 d0 3d 46 1b 31 bb
       0.3860198 -0.060390797 0.10174879 -0.0027024313
000130 ba 10 91 3d 90 41 ef 3e f4 ff 1d 3c 17 ac 14 be
       0.070832685 0.46729708 0.0096435435 -0.14518772
000140 87 5c 8f be c5 61 25 be 62 65 be 3d 11 91 a8 bc
       -0.2800028 -0.16150577 0.09296681 -0.020576986
000150 8d 12 04 3e 3d f7 34 bd 01 9a a3 3e c3 bb 5c 3e
       0.12897702 -0.044181097 0.31953433 0.21556
000160 30 ac eb 3d 77 cd 3c 3c 35 d0 42 3e 91 d5 09 be
       0.115074515 0.011523596 0.19024737 -0.13460375
000170 58 a1 e6 bd ef 30 39 be 1b 6b 7a 3e b9 4e 4e 3d
       -0.11261243 -0.18085073 0.2445492 0.050368045
000180 e9 09 45 be 09 57 b9 3d 55 f6 cd 3d 16 3e 46 be
       -0.19242062 0.09049804 0.1005675 -0.19359621
000190 05 64 0f bf 00 99 b7 be 5d 6e b4 bb ca 30 97 bd
       -0.5601199 -0.35858917 -0.0055063204 -0.07382353
0001a0 8f 3d 34 be 4f 8c 7a 3e 8d 2c f5 be 8d 97 12 be
       -0.17601608 0.24467586 -0.47885552 -0.14315625
0001b0 f6 c9 0d 3e 3c 91 30 bd 5a b2 5f 3e 97 4a 6c be
       0.13846573 -0.043107256 0.2184538 -0.23075329
0001c0 31 6e 6a bc d1 96 80 be a0 9a 25 3d 48 c2 d1 3d
       -0.014308498 -0.25115064 0.040430665 0.10242134
0001d0 0b 90 e1 3c d3 3c 3a 3d 01 b9 01 3e b5 f9 e6 3d
       0.027534505 0.045468163 0.1266823 0.112780966
0001e0 3b ca 18 be 22 90 c3 3e 90 05 92 3e 65 6d de bc
       -0.14920895 0.38195902 0.2851987 -0.027151773
0001f0 43 9e f4 be 97 26 90 bd 02 6b 16 3f e8 51 1e 3d
       -0.47776994 -0.070386104 0.5875703 0.03865233
000200 6c 4c d6 bc 2d e3 cc bd 14 79 1d 3d 07 f0 82 bd
       -0.026159488 -0.10004268 0.038445547 -0.06393438
000210 ac a9 f5 bc 7a 44 4c be 87 8c 7e 3d b6 07 17 3d
       -0.029988132 -0.19947997 0.062145736 0.036872588
000220 de 83 6e 3d ef 24 87 3e 5a d6 21 3d 74 a7 9e 3e
       0.058231227 0.26395366 0.039511062 0.30987132
000230 86 b2 08 be c2 e6 4d be 3d cb d6 bc ce db 89 be
       -0.13349351 -0.20107558 -0.026219958 -0.2692551
000240 3f d2 6b be 05 00 31 3d a0 03 47 be b7 70 72 3d
       -0.23029421 0.04321291 -0.19434977 0.059189525
000250 80 ec bf 3a b1 7e 64 3c e0 36 54 bd 9d 65 c1 bd
       0.0014642626 0.013946221 -0.051810145 -0.09443209
000260 d6 f2 e6 bd c2 cf 12 be 1e 3d 8b 3d 5b 4b 12 bd
       -0.11276786 -0.14337066 0.067987666 -0.035716396
000270 2a 5a 07 3c 91 f8 d3 3c 84 32 08 be e0 55 0b be
       0.008261243 0.025875362 -0.1330052 -0.13606977
000280 66 da d5 3c 47 7e 67 bd 0b 32 e3 bb 25 a2 34 bd
       0.026105117 -0.05651691 -0.006933456 -0.044099946
000290 22 9d 9d bd de ed cb 3d 8b a8 59 bd 4f 1e ba bd
       -0.07695986 0.09957479 -0.05313925 -0.09087812
0002a0 4d e8 1f be e6 17 5e bd 2a ed 8e be 15 63 84 3d
       -0.1561596 -0.05422201 -0.27915317 0.06464211
0002b0 f0 3e 14 be 00 a8 a9 3a b3 92 84 3d d7 5e 9d 3c
       -0.14477134 0.0012943745 0.06473293 0.019210262
0002c0 00 68 23 be 08 65 c1 bc 93 76 ad 3d f3 01 ac bc
       -0.15957642 -0.023607746 0.08469882 -0.020997023
0002d0 59 50 d3 3d 7b 69 b7 3e c2 0e f3 bd 59 f0 53 bd
       0.103180595 0.35822663 -0.11868049 -0.051742885
0002e0 55 a3 b8 3d 39 df 6d be e6 dd 43 3e 80 ec 44 3e
       0.09015528 -0.23229684 0.19127616 0.19230843
0002f0 6b 57 a3 be ce 3b bf be 96 a7 84 3d 55 ad 86 be
       -0.31902632 -0.37350315 0.06477277 -0.26304117
000300 ee c8 09 3d 64 d8 64 3e b4 90 a2 3c 4f 3d a9 3d
       0.033638887 0.22348171 0.01984439 0.08263647
000310 3f e6 68 3d 26 30 99 bd e2 25 9a bc 5e 20 8b bd
       0.056860205 -0.07479887 -0.018816892 -0.06793283
000320 db ea 43 3e 78 1b cc bd ee ea 5d be 17 cd f9 bd
       0.19132559 -0.09966177 -0.2167165 -0.12197321
000330 e8 f0 84 be 4f e5 7a 3e 02 5e 2d bb 21 ec 62 be
       -0.25965047 0.24501537 -0.0026453738 -0.22160389
000340 2a 7a ec be 2e d2 8f be ca 5b 3d be dc 81 3e 3d
       -0.46186954 -0.28090042 -0.18492046 0.046510562
000350 69 0d e9 bd f0 fa 56 be 0d 93 e7 bd 4b 09 39 bc
       -0.11379511 -0.20994163 -0.113073446 -0.0112937195
000360 8a 2b f0 3c 32 be 2f 3c e0 3e 00 bd c4 fa b5 bd
       0.029317636 0.010726498 -0.031309962 -0.0888572
000370 ad 3a 08 3d c2 85 37 be 37 35 0a bd dd 7a 23 3c
       0.033259083 -0.17922118 -0.033742156 0.009978023
000380 e2 1c 89 3e 0b 50 a9 bd d9 93 81 3d 22 34 38 3e
       0.26779848 -0.0826722 0.06327028 0.17988637
000390 48 f2 00 be 7d dc 2d be be 05 f9 3d a3 51 a7 bd
       -0.12592423 -0.16978641 0.12159298 -0.08169868
0003a0 4e 83 58 3d 9e 1c b1 bd 2f b4 d4 bc 9e 57 c4 be
       0.052859597 -0.086480364 -0.025964824 -0.38348097
0003b0 a1 9a 35 3e 5e 12 0e 3e 72 ec c0 be c1 5e 56 bd
       0.17734767 0.13874194 -0.37680393 -0.052336458
0003c0 d9 95 00 be f5 49 47 be 3f e3 12 be cd 44 61 bd
       -0.12557162 -0.19461806 -0.143445 -0.054997254
0003d0 5d 05 53 be 4b 10 fe 3d 58 18 9b 3d 2b 31 3f 3d
       -0.20607515 0.124054514 0.075730026 0.04667775
0003e0 00 49 59 bd 5f 31 04 bd 73 24 ac b9 17 c7 18 3e
       -0.053048134 -0.032273646 -0.00032833553 0.14919697
0003f0 0b 4e e5 bc e8 fb 36 3d d6 e4 83 3e bd a2 b1 bd
       -0.027991315 0.04467383 0.25760525 -0.08673618

fc3.bias f4 [64]
000000 94 e4 01 3f af 50 a3 be fb 6d 8a 3f c3 2c 8e be
       0.5073941 -0.31897494 1.0814813 -0.27768525
000010 98 6f 3d be ef 89 27 bf 55 78 d9 3e 68 4c 02 bf
       -0.18499601 -0.65444845 0.4247462 -0.50897837
000020 df b4 f1 be 3c 44 3f 3f 5b 41 37 bd 36 69 02 be
       -0.47208306 0.7471349 -0.044740062 -0.12735447
000030 96 f3 13 bf 76 89 19 3f 0e 3b a7 3e ff 72 6b 3f
       -0.5779356 0.59975374 0.32662243 0.91972345
000040 a4 c8 75 bf 48 5b 10 3d aa af ab 3e 22 ac bf be
       -0.9600928 0.035243303 0.3353246 -0.37436014
000050 dd c7 a4 3d 07 fb 30 3e 86 a5 9f 3f 15 8c 5c 3f
       0.080459334 0.1728326 1.2472389 0.8615125
000060 34 8c 8c 3f c6 72 cd be 30 dc 15 3f 19 df 3e be
       1.0980287 -0.40126628 0.58539104 -0.18639793
000070 ed 38 c6 be 9e b2 15 bf 3e 2d 75 be 60 34 21 3f
       -0.38715306 -0.58475673 -0.2394304 0.6297054
000080 00 85 04 3f 2a c0 b7 3e 33 d9 92 3f b3 ea 33 3f
       0.5176544 0.35888797 1.1472534 0.7028
000090 7f 07 53 be f6 30 62 3e 9d 3b 4d 3f 8f d3 c2 be
       -0.20608328 0.2208899 0.8016909 -0.3805203
0000a0 b0 5d 73 3f aa 6b 9a 3f e4 58 22 bf 56 46 eb 3d
       0.9506483 1.2064106 -0.63416886 0.11488025
0000b0 58 18 a1 be 24 1e 27 bf 52 bc 67 be 54 c2 a0 3f
       -0.31463885 -0.65280366 -0.22630432 1.2559304
0000c0 83 ce 98 3e 71 7b 62 be 0e 6a 1e bf 98 78 ae 3e
       0.29845056 -0.22117402 -0.61880577 0.3407638
0000d0 8e db 9a bd eb ce 96 3f e1 f7 f7 be 59 34 80 be
       -0.07561408 1.1781896 -0.48431304 -0.25039938
0000e0 09 17 09 bf 5a 94 5a bc 9d 26 e4 be 6d 21 4f 3f
       -0.53550774 -0.013341034 -0.4456071 0.8091038
0000f0 8c 03 9c be 22 82 77 be 69 f0 4d bd 23 e5 de 3e
       -0.30471456 -0.24170735 -0.0502781 0.43534192

fc4.weight f4 [10, 64]
000000 76 9a a1 be ea eb 03 be c5 93 29 3e 99 37 9b be
       -0.31563157 -0.12882963 0.16560276 -0.30315855
000010 29 9f 34 3d ed 57 15 bf 2d 4c 9e bf fa c9 2b bf
       0.0440971 -0.5833729 -1.2366997 -0.67105067
000020 3b c7 04 bd 22 e1 a9 bd 56 af 3b 3b 3d 16 bf be
       -0.032416563 -0.08294894 0.0028638444 -0.37321654
000030 f9 52 0c bf 34 8c 1b be ff ba 59 bd 83 82 18 38
       -0.54814106 -0.15190202 -0.05315685 3.6361173e-05
000040 a1 9d 58 3e 5f 51 c2 bb 20 91 78 bf 2a 79 21 be
       0.2115388 -0.0059301103 -0.97096443 -0.15768877
000050 7b f4 56 3e 85 56 39 bf 5f 5b 33 bf 34 bb a3 be
       0.209917 -0.72397643 -0.70061296 -0.31978762
000060 5a 27 04 3e c5 7f ff be 22 92 88 be 77 96 15 bf
       0.12905636 -0.49902168 -0.2667399 -0.58432716
000070 3a 25 96 bb b3 5a a3 be 99 c2 3b be d4 e5 6d 3d
       -0.0045820745 -0.31905136 -0.18335952 0.05808051
000080 c7 0e 62 3e 49 de 99 be 1d 2d 5c 3e 07 27 0b 3e
       0.2207595 -0.30052403 0.21501584 0.13589107
000090 b2 3f a9 3c 38 0c 44 bf 7c 35 81 be 5c c2 38 be
       0.020660255 -0.76581144 -0.25236118 -0.18042892
0000a0 49 d5 a7 3d b4 a3 bc 3d e5 56 4f 3d c8 45 42 bd
       0.08194978 0.092109114 0.05061998 -0.04742983
0000b0 52 5d de be d2 33 26 bf fe 9d 03 be 4e 8c 2e 3d
       -0.43430573 -0.6492282 -0.12853238 0.042614274
0000c0 e3 4c c1 3d 5e 24 31 be 6c c9 a1 be 73 ae 05 bf
       0.09438493 -0.17299029 -0.31598985 -0.52219313
0000d0 64 a6 39 be ed f6 f2 be 77 e5 a7 bc f2 44 8f 3d
       -0.18129879 -0.47454014 -0.02049516 0.06995572
0000e0 cb d8 96 3e dc 93 23 be 12 26 8a ba 1c 5f 1e be
       0.29462275 -0.15974373 -0.001053991 -0.15465969
0000f0 7d f0 a3 bd 8c 02 00 bf e9 a2 d7 be 98 59 ad be
       -0.08004854 -0.50003886 -0.42116478 -0.33857417
000100 c3 c5 90 be e7 ee 61 bf 0c f9 a2 be bb c4 24 bd
       -0.2827588 -0.8825516 -0.31830633 -0.04022668
000110 09 09 c6 bd 89 a9 35 bf 59 82 bf be 46 1a b5 bf
       -0.09669692 -0.70961815 -0.37404135 -1.4148643
000120 91 a1 9b be 99 95 18 bf 8f a5 dc 3c ca b6 08 be
       -0.30396703 -0.5960327 0.026934413 -0.13350978
000130 e1 b1 89 bf a5 1a d7 be 64 f2 a5 be a5 93 30 3d
       -1.0757409 -0.42012516 -0.32411492 0.043109555
000140 99 77 c3 be f9 69 35 be c9 0f 6f bf 05 ac 9d bd
       -0.38177183 -0.17716207 -0.9338346 -0.07698826
000150 5f 45 c8 be 34 77 4b bf a8 b6 50 bf 39 fd 07 bf
       -0.39115426 -0.79478765 -0.8152871 -0.5312076
000160 53 b8 bc 3d 0d 40 56 bf da 37 db be bf ff 35 bf
       0.092148446 -0.83691484 -0.4281605 -0.7109336
000170 6b fd c6 bf bc 24 84 3e 57 66 ee 3d 57 93 15 3d
       -1.5546087 0.25809276 0.116406135 0.036517467
000180 1e 82 8d be d0 75 50 3e 55 c5 37 be bd a1 83 3d
       -0.27638334 0.20357442 -0.1794637 0.064273335
000190 f0 6a 1f be 8b 0a f8 be 0d 12 fb be d7 18 62 3d
       -0.15568137 -0.48445544 -0.4903721 0.05519947
0001a0 f4 dd c3 be 4b 2e 2f 3e 75 1f d1 be d5 f9 5f bd
       -0.38255274 0.17107503 -0.40844312 -0.054681618
0001b0 0d 43 9f bd 2e dc 38 bf 96 93 a3 be a2 99 2c 3e
       -0.07776461 -0.7221097 -0.31948537 0.16855481
0001c0 05 4b 58 be 7a 4d 53 be 54 74 61 bf b8 70 17 bf
       -0.21122368 -0.20635024 -0.8806813 -0.5915637
0001d0 cd 73 14 be 5a 60 ae be 58 ad 99 be f5 49 0d be
       -0.144973 -0.34057885 -0.30015063 -0.13797744
0001e0 43 d0 43 be 36 a5 be be 73 b5 bf be 0f 12 9b 3d
       -0.19122414 -0.3723542 -0.37443122 0.07571804
0001f0 01 84 1f bf ba 0d 11 bf 8f 74 26 3e 8e 1d e8 be
       -0.62310797 -0.5666157 0.16255401 -0.45335048
000200 ed 64 98 be be ea a3 3d fc 21 28 3e ac 24 d2 be
       -0.297645 0.08003758 0.16419214 -0.41043603
000210 17 d0 c0 bd 22 dd 14 bf 78 cc 0b bf 43 53 ac bc
       -0.0941469 -0.5814992 -0.5460887 -0.021035796
000220 88 71 c7 3d 98 f3 96 3d 09 de 06 be 80 7e 18 3e
       0.09738451 0.073706806 -0.13170637 0.14892006
000230 93 7b 9c bf 51 bb 24 bf bd b9 c5 be 03 e8 49 bd
       -1.2225212 -0.6434832 -0.3861827 -0.04929353
000240 89 01 b5 bd f1 7c ce bb db 00 33 bf ec db f7 bc
       -0.088381834 -0.0063015153 -0.6992318 -0.030256234
000250 64 cc 29 3e e0 8c 12 be e2 f2 14 bf 11 1d 7e be
       0.16581875 -0.14311552 -0.5818311 -0.24815775
000260 5e cd 1c be 72 44 b0 be 88 fe 52 3e 50 3b ac 3d
       -0.15312716 -0.3442722 0.20604908 0.084097505
000270 91 1f 30 be c7 08 09 bd 8b c2 21 be f9 bf f0 3d
       -0.17199542 -0.033455636 -0.15796869 0.11755366
000280 4f 30 9e bd ef b9 e1 bd 46 2f 53 3e 2a 57 41 be
       -0.07724058 -0.11021792 0.20623502 -0.18880907
000290 8c 8e 66 be 3f ba 02 bf 9a 6f 6e 3d 31 eb af bd
       -0.22515315 -0.5106544 0.0582119 -0.08589781
0002a0 7a 65 42 be 7f 91 0f bf 6e 6e ee bd 34 ef c4 3b
       -0.18984023 -0.56081384 -0.116421565 0.0060099605
0002b0 29 2c 99 3d d7 b4 07 bf 36 b2 0b be 55 aa 2a 3e
       0.07479126 -0.53010315 -0.13642201 0.16666539
0002c0 67 25 06 be 6d d4 51 bd 98 1b 44 be 9b cb 53 bf
       -0.13100205 -0.051227976 -0.19151151 -0.8273255
0002d0 dc c5 15 be c5 2e 0b bf 63 51 05 bd 94 3d ce bc
       -0.14626259 -0.5436824 -0.03254832 -0.025175847
0002e0 00 bf 33 bf 35 69 1a bf 3d ed ac be 51 d6 80 bb
       -0.7021332 -0.60316783 -0.33774748 -0.0039317985
0002f0 c7 05 19 bf 7e a9 f7 be 9f dd 33 be d3 2b 27 3e
       -0.5977444 -0.483715 -0.1756501 0.16325311
000300 d7 52 ad bd 41 a5 2d bf e0 2e 46 3e 32 9f d9 bd
       -0.08463066 -0.6783028 0.19353819 -0.10626067
000310 ee 26 0d 3e 1c 99 83 bf 61 dd 09 bf 14 ad ac be
       0.13784382 -1.02811 -0.5385342 -0.33725798
000320 eb f0 80 be cf 0d 7d bd 16 ba 62 bd 0d c7 ca be
       -0.25183806 -0.061780747 -0.055353247 -0.3960499
000330 2c 2b dc bd d5 99 1b be 5c 04 f1 bd 26 2f 3a 3e
       -0.10750422 -0.15195401 -0.117684096 0.18182048
000340 f8 87 8d be cb 85 02 3d 48 a3 8c bf 92 9d 0d bc
       -0.27642798 0.031865876 -1.098733 -0.008643525
000350 74 6f 94 be b0 14 33 bf d3 d3 10 bf 1b 7c 66 be
       -0.28991282 -0.6995344 -0.5657322 -0.2250828
000360 0e 02 46 3e cc 6c 2c bf 92 0a bd be ad 35 1a bf
       0.19336721 -0.6735351 -0.36922127 -0.6023815
000370 b3 be 10 be ff 0e d1 3d bd cd 8b 3d e8 11 fb be
       -0.14135246 0.102079384 0.06826351 -0.490371
000380 56 f0 85 3d b6 66 00 be fe 09 8c be 11 81 0f be
       0.06539981 -0.12539181 -0.27351373 -0.14014079
000390 52 50 20 3e b3 e2 1b bf a8 82 ce bd 91 ae 05 bd
       0.1565564 -0.6089279 -0.100835145 -0.032637183
0003a0 f2 d5 ff bd 6e ab 9c 3d 73 e1 bd bd 78 76 2d 3c
       -0.12491979 0.07649885 -0.09271517 0.010587327
0003b0 f3 d3 a7 be d3 02 4f bf e2 9e 39 bd fa c6 a7 3d
       -0.32778892 -0.80863684 -0.045317538 0.08192249
0003c0 72 48 2a 3e b1 9c 1c 3e b0 13 0a bf 4c 01 50 bf
       0.16629198 0.15294148 -0.5393629 -0.8125198
0003d0 a1 e6 5d 3c 46 d5 3d be 53 5e 36 be 79 8d 69 bd
       0.013543756 -0.18538389 -0.1780942 -0.057019684
0003e0 e7 91 7e be bb a4 08 3d 54 d8 cb be e2 78 48 3e
       -0.24860345 0.033360224 -0.39813483 0.19577363
0003f0 c4 79 ca be db 44 2b bf a3 1d d8 3c 94 49 2a 3e
       -0.39546025 -0.6690194 0.02638132 0.1662963

fc4.bias f4 [10]
000000 22 ef 88 bc 01 17 3f bf 2c 5a 4b 3e c6 9e fe 3e
       -0.01671559 -0.74644476 0.19858617 0.4973051
000010 20 31 9e be 7a 44 24 3f 41 aa 9f 3e 9c ec 9b 3e
       -0.30896854 0.64166987 0.3118458 0.30453956
000020 cf ca c6 bd 58 90 2a bf
       -0.097066514 -0.666265
