runs/Mar02_15-59-57_cssd901383-Run(lr=0.01, batch_size=256, patience=1)-valid/checkpoint.pt (torch_old, 972387 bytes, 8 tensors)

fc1.weight f4 [256, 784]
00000000: b291 1cbc 7f8a 213e 314f 3a3d bb65 9f3e
00000010: 033f 583e b8e3 283e 99cf 3bbe 7988 63be
00000020: 603f 6bbe a4b9 42be 42e8 35bc f40b 113e
00000030: 205c bc3d 71ff ccbd 8126 fdbd 9b23 fdbb
00000040: 05a6 b33d 9f30 163e 6327 c5bd 5fc9 19be
00000050: f3bb 4dbe ad93 f7bd aa9c 1a3d 18cb b33d
00000060: 670e 13be cb7d 25bd e6f9 b0bb d521 a2bc
00000070: 406e 983b 3bcf 7e3d 2590 663d a99c af3d
00000080: 842a ee3c c088 d5bd 03d1 1ebe f490 bfbd
00000090: 642e 7bbd 7b04 28bd cbd5 2f3e a745 823e
000000a0: 1f43 003e a0d0 9a3d 4c67 933d 4174 d23d
000000b0: 327c 693e a166 503e dc43 8d3d 316e e23b
000000c0: ea69 fcbd 2654 153d e25d 07be 0bdf 32be
000000d0: 349f fcbd 0fdf 4a3e 36c6 c33d 56d8 f73c
000000e0: ca9b 5abc b716 f63d ea58 0f3e a7fb fb3c
000000f0: 8631 0abe 9e99 443d 089b f03d d9e0 bb3d
00000100: d6c4 a5b9 8dcd dbbd f2d9 e4bc 5c30 183d
00000110: 3a3e a93d 946c 703d ff3c 973d ee8f 9b3d
00000120: 0b8a 873c 9501 5d3c 056d 95bc 4660 74bd
00000130: 85a5 313b f493 9b3d 3152 92bc b7df f7bd
00000140: 3765 d3bd 4f94 87bd 5fc0 ab3c 160b 01bd
00000150: 1ad4 15be e2aa 663d b7e0 abba 9d60 a13d
00000160: 6781 b8bc 9092 1d3e cb00 043e 87f3 24bd
00000170: f464 e4bd 1825 9abc 1a7d acbd 2694 69bd
00000180: ee4c 133d 698c 57bd 987c 9fbc fd9a fbbd
00000190: 5869 85bd 9ae9 19be 0da9 3ebe faef 49be
000001a0: bb60 18be f195 e7bc b391 f53d b8b7 293b
000001b0: 7409 d8bd 73fd d8bd 4db6 8cbd df64 8a3d
000001c0: 46e2 173e 4bb7 783e de90 a73c c263 a9bd
000001d0: 0918 0f3e cbe0 3e3e a329 403e fa60 783d
000001e0: 7ff1 b2bd 7110 823c 92f7 06bc 3057 82be
000001f0: e235 4c3d 91c9 77be bf0d 0ebe ef55 f8bd
00000200: 09ba 19be 8c30 07be 25aa 5ebe 926f 2bbe
00000210: 5957 2ebe e07c 88bd c037 2e3d 3f35 413e
00000220: b5fe 97bc 3f72 9cbd a4d6 5c3d 0119 cabd
00000230: bcb8 133c 244a f73d 7592 b03d 2dde 8e3c
00000240: 466e 723e 7e03 3d3e 4f22 ac3d 41c8 1e3d
00000250: 1e32 2fbd f9bd ccbc 4b42 66bd 63f7 20be
00000260: 0c57 9ebc 0d77 4ebe edd0 58be 83e6 2ebe
00000270: 7330 92be dbab 27be cdd8 7abe 2373 52be
00000280: 3783 53be 7722 0a3b a9d5 2d3d 2683 5e3e
00000290: 2bfd ad3d 377f 0cbd e854 96bc 33ad 683d
000002a0: e8c2 0a3c 50b8 5a3d 406b f33d 4864 543d
000002b0: bb3e 5b3e 9058 6b3e 744a 543e 2004 e73d
000002c0: e825 e5bc 81bf 01bd 0377 2dbe 05da 55be
000002d0: fb72 4dbe 1ed0 71be 6658 56be f96e 03be
000002e0: dd28 5bbe 6633 c3bd 2b3f 46bd ce04 aebd
000002f0: 63f8 8abd ed46 b9bd 9f72 ee3d 32d5 0e3e
00000300: 4dfc b63d 1030 de3d afa7 8a3d 2e43 78bc
00000310: 109a da3d 1821 883d 0f96 543d 5dbd e43d
00000320: 4160 483e fb48 4e3e 0c62 923e 9c1c 5f3d
00000330: 7ec2 323d 1297 8abc f259 1fbe c572 39be
00000340: 669e 1abd 6ea8 6cbd 2d41 fdbc 2f51 efbc
00000350: fd10 2fbd 8f54 0bbd e727 98bd 0c7b 12be
00000360: ae12 fabd da8d c9bc 6f88 bc3d 3efe 063e
00000370: f6b6 303e 13f6 adbd 3ed2 b83d 9d22 e23d
00000380: b277 f33d 4c3c a23d ad8d 963e 4c25 273e
00000390: b29d 9d3e 319d a83e 80ff 9e3e 3757 723e
000003a0: a574 b23d ffd4 fbbb 39da ecbc 5bdc 4fbd
000003b0: d788 35bd a1be 89bd 3f17 b0bc d967 39bd
000003c0: 2118 8bbd 8971 a3bc 6cef 4e3d 776a 07bd
000003d0: a4af 24be 0885 4c3e 88b4 323e 2822 f13d
000003e0: 919d 803e 170c 3bbc e87a 803c c3d2 283e
000003f0: af68 a23d 88f2 c33c 0623 b63e 5be2 b83e
-0.009556221 0.15775488 0.04548568 0.31132302 0.21117787 0.16493118 -0.18340911 -0.22220029
-0.22973394 -0.19016129 -0.011102738 0.14164716 0.09197259 -0.10009659 -0.1236086 -0.007725192
0.087719 0.14666985 -0.09626653 -0.15018223 -0.20091228 -0.12088714 0.037747063 0.087789714
-0.14360963 -0.04040317 -0.005400884 -0.019791523 0.0046518147 0.06220935 0.05628981 0.085748024
0.029073007 -0.104264736 -0.15509419 -0.093538195 -0.06132354 -0.041019898 0.171714 0.25443766
0.12525605 0.07559323 0.07197437 0.1027608 0.22801283 0.2035165 0.06897709 0.0069101085
-0.12324889 0.036457203 -0.13219407 -0.17467897 -0.12335053 0.19811653 0.0955929 0.030254524
-0.013342807 0.12016051 0.13998762 0.030759646 -0.13495454 0.047998063 0.1174832 0.09173746
-0.00031617907 -0.10732565 -0.027935956 0.037155494 0.08263822 0.0586973 0.07384681 0.07595812
0.016545316 0.013489147 -0.018240461 -0.059662126 0.0027106714 0.07596579 -0.017861458 -0.12103217
-0.103220396 -0.066200845 0.020965753 -0.031504713 -0.14631692 0.05631531 -0.0013113235 0.07879756
-0.022522641 0.1538794 0.12890927 -0.04027131 -0.11152068 -0.018816516 -0.08422299 -0.05702605
0.035962038 -0.05262414 -0.01946859 -0.12285421 -0.06514233 -0.15030518 -0.18619175 -0.1972045
-0.1488065 -0.02826974 0.119906805 0.0025896858 -0.10548678 -0.105952166 -0.068707086 0.06757521
0.1483241 0.2428867 0.02045482 -0.082709804 0.13974012 0.18640439 0.18765883 0.06063936
-0.08737468 0.01587698 -0.008237736 -0.25457144 0.049856074 -0.24197985 -0.13872431 -0.121257655
-0.15012373 -0.13202113 -0.21744592 -0.1674178 -0.17025508 -0.06664443 0.042533636 0.18867968
-0.018554071 -0.07638978 0.053915635 -0.0986805 0.009016212 0.12074688 0.086216845 0.017439926
0.23674878 0.18458363 0.08404981 0.038765196 -0.042772405 -0.02499293 -0.056215566 -0.1571937
-0.019328617 -0.20162602 -0.21173449 -0.1708012 -0.2855259 -0.16374151 -0.24496765 -0.20551734
-0.20655523 0.0021077672 0.04244009 0.21729717 0.084955536 -0.03430101 -0.018351033 0.0568058
0.008469321 0.05339843 0.11885691 0.05185345 0.21410649 0.22983003 0.20731527 0.11280084
-0.027972177 -0.031676773 -0.1693993 -0.20883949 -0.20063393 -0.23614547 -0.20932159 -0.12835301
-0.21402307 -0.09531288 -0.048400085 -0.0849701 -0.06785657 -0.09046731 0.11642956 0.13948515
0.08934841 0.10849011 0.06770264 -0.015152736 0.10673916 0.06646937 0.05190092 0.11168931
0.19567968 0.20145027 0.2859043 0.054470643 0.043642513 -0.016917739 -0.15561655 -0.18110187
-0.037748717 -0.057777815 -0.030914867 -0.029213516 -0.04274081 -0.03401619 -0.07429486 -0.14304751
-0.12210594 -0.024603773 0.0920571 0.13182923 0.17257294 -0.084942006 0.090244755 0.11041758
0.118880644 0.07921657 0.29404965 0.16322821 0.30784374 0.32932428 0.31054306 0.23666082
0.087136544 -0.007685303 -0.02891265 -0.050747257 -0.044319954 -0.06725813 -0.02149546 -0.045265052
-0.067917116 -0.019951599 0.0505213 -0.033060517 -0.16082627 0.19972622 0.1745168 0.11774093
0.25120214 -0.011416457 0.015683606 0.16486649 0.07930123 0.023919359 0.35573596 0.36110196

fc1.bias f4 [256]
00000000: 1e2a c83c 6df2 a23d c5c7 6fbd 9f59 a1bc
00000010: 97a5 4ebd b9b1 d0bd af63 c83e 6282 fcbc
00000020: 3900 00bd 5467 7ebd 8dc6 d2bd a246 23bc
00000030: 7758 2e3d 6d4f ea3e 58e8 fc3d bc1a a53e
00000040: ed66 183b fa6b 1dbb 2260 993d 2ee6 49bc
00000050: 6d4d 053e 23d1 8fbd afd0 fdbc 9d01 debd
00000060: 0609 85bd 8cc7 39ba 37ad 1abd 5dc9 493e
00000070: 23d7 cbbb 7187 a3bc 415d 7b3d 3794 cb3d
00000080: 5aca 6e3e dac2 7b3e 3d37 36bd 45b6 20bd
00000090: d740 97bd 4023 d5bc 3194 cebc 8045 e7bc
000000a0: b432 a3bd a00c 763e 9288 1ebd 74ad 90bd
000000b0: b50e 7abc 0924 0abd 449b 07bd 0a5e 36be
000000c0: 0e11 44bd df67 a1bd 3a6a 51bd 0570 59bd
000000d0: 7ff1 903e a503 1c3e ccaa f33d 64ee 003e
000000e0: 16ec 99bd 86a3 9a3e aaaa 27bd 8876 bfbc
000000f0: 0c73 cdbd ccaa fd3d 4c22 49bd 21e5 9e3e
00000100: e7ee 07bd 9332 05be 1cbb 98bd fdd5 61bd
00000110: 9a95 3fbd 3f82 38bd f566 763e cc64 e3ba
00000120: 3c34 2ebe 90c9 a8bd deaa b1be 27ea 503e
00000130: 0a0e c4bd 77d1 a9bd bd09 58bd 8cb3 02bd
00000140: f526 f8bc 28a3 72bd 90db 41bd 1d67 32be
00000150: bb42 d03d a398 28bd e43f a5bd 287f b73e
00000160: 5313 81be fcd9 39be b72c c3bd f84f 3db9
00000170: a3ed 9fbc d948 b6bc f857 013e 16a3 a8be
00000180: 137e 1c3e 5af5 003e 1ec2 db3d 700e 393e
00000190: 67b4 8dbd e98f 02bd 75c0 eeb8 a9cf 46be
000001a0: 6e48 0cbd aeb7 133e edd1 fabc 9021 24bc
000001b0: 4cdf 853d 1de5 7b3d 9d87 b9bd 748a 89bd
000001c0: 87c0 f2bc a4bd b33d 8ad5 8ebe 169d e4bd
000001d0: 39a9 84bd 08bb 19bd 9cae 853e 3ce9 2cbd
000001e0: 691f 35bd 0ea4 e2bc 53cc ecbd 2e80 3abd
000001f0: c85c 203c 4dcd 52be 8c48 ed3a 0cb0 253e
00000200: a3d7 a03e e123 74bd 1e44 72bd 1b66 58bd
00000210: 90a4 18bd c15c 2fbd bcea 31bd 9c6a 183d
00000220: 7dba a43d 2cb1 babd 4ba0 503e d7d1 81bd
00000230: 0f93 a4bd c202 c93e 44c4 f73e e7a0 c2bd
00000240: d434 95bd 853f 1dbd 2e82 cd3d 8756 813e
00000250: 1705 e0bd e648 05bd 3507 5cbd dfbd a5bd
00000260: 8a52 75bd c0f7 b63e e2fc bcbd 26bf 03bd
00000270: 475d c9be 8354 c6bc e1ca 06ba 87a0 5cbc
00000280: 5b51 c2bd 8114 f53d c211 4e3e 50be 0ebd
00000290: a34f adbc 5e28 773e fbc3 3dbd c170 803e
000002a0: 0d8d 963d 161e 29bd 5aa3 c5bd d4fd 40bd
000002b0: c353 173d 7d31 8b3e 0e67 c6bd 583a b3bc
000002c0: 986e 143d 0449 e0bc bd42 b4bd 1b8e f13e
000002d0: 0deb 123d 81e4 0a3f b7ba 80bc 2755 7bbd
000002e0: cc80 3d3e 84f8 c3bd dc93 8abc dd4e 103e
000002f0: 708b 64bd a645 493e 3c67 86bd 5d5b b73e
00000300: f241 b4bd 6562 7cbd 93c4 afbd c5c4 283e
00000310: e63d dabc e70f 55bd 2a6f 04bd 4d80 813e
00000320: cf70 55bd c793 7fbd e8b2 57bc c73a 063e
00000330: abf0 cfbc c864 f8bd 37b8 06bd a0f3 12bd
00000340: e6be 6dbd 95df 9b3d 061e 7dbd 3c57 3cbd
00000350: f8c8 9fbd ab61 bfbd 4542 42bd 54e6 00bd
00000360: 819d 90bd 6619 a33d 8f5a c3bd f703 23bd
00000370: fd42 3e3c f5c4 8a3e 6dc2 4d3e d0c8 6ebd
00000380: 6460 d2bd 0914 c23e 657a aabd 2bd7 93bd
00000390: b52c 143e 6227 1e3e 6e8b 793e ab5e 4ebd
000003a0: 0b23 87bd e690 043e 992d 07bd 7709 0abc
000003b0: 56df b9bd 0685 883d 9a9f eabc c042 01bd
000003c0: e2a3 fa3b 47ce 0f3e 8daa 443e 5825 6c3d
000003d0: 53bf 9c3d 2d02 5bbd aea8 96bd 7f3c 62bc
000003e0: 9afc 443e 3fad 273e bc68 ba3d 3a1a a4bd
000003f0: 4483 7dbc f9e6 e53b 12c7 873e bc37 72bd
0.024434146 0.07956395 -0.058540124 -0.019696055 -0.050450888 -0.10190148 0.39138553 -0.03082389
-0.031250212 -0.06211026 -0.10291777 -0.009965571 0.042564835 0.45763722 0.123490036 0.3224696
0.0023254708 -0.0024020658 0.07489039 -0.0123229455 0.13017817 -0.070223115 -0.030983297 -0.108401515
-0.06495862 -0.0007086925 -0.037762847 0.1970572 -0.0062207147 -0.019962044 0.06136823 0.09940379
0.23319378 0.24586049 -0.044486273 -0.039236326 -0.07385414 -0.026017785 -0.025217148 -0.028231382
-0.07968655 0.24028254 -0.038704462 -0.070643336 -0.0152622955 -0.033725772 -0.033107057 -0.1780931
-0.047867827 -0.0788114 -0.051126696 -0.053085346 0.28309247 0.15235765 0.11897811 0.12590939
-0.07515733 0.30202883 -0.040934242 -0.02337195 -0.10031709 0.123860925 -0.049104974 0.31034186
-0.03318682 -0.13007574 -0.07457563 -0.055135716 -0.04677353 -0.045046087 0.24062712 -0.0017348765
-0.17012113 -0.0824157 -0.34700674 0.20401822 -0.0957299 -0.082919054 -0.052743662 -0.03190951
-0.030292014 -0.05923763 -0.04732853 -0.17422147 0.10168978 -0.04116119 -0.08068827 0.358392
-0.25210056 -0.1814956 -0.09530013 -0.00018054235 -0.019522494 -0.022251533 0.12631214 -0.32936925
0.15282468 0.12593594 0.10730384 0.18071914 -0.06919175 -0.031875525 -0.00011384572 -0.19415154
-0.03424876 0.14425537 -0.030617679 -0.010017768 0.06536731 0.061497796 -0.09059069 -0.06715861
-0.02963282 0.087764055 -0.27897292 -0.11162774 -0.06477589 -0.037531883 0.2610978 -0.042214617
-0.04421941 -0.027666118 -0.11562409 -0.045532398 0.009787746 -0.20586129 0.0018103286 0.16180438
0.31414518 -0.05960453 -0.059146993 -0.05283175 -0.037266314 -0.042813066 -0.04343675 0.037211046
0.08043382 -0.09115824 0.20373647 -0.06338852 -0.08035862 0.39259917 0.48391926 -0.09503346
-0.07285467 -0.038390655 0.100345954 0.25261328 -0.10938471 -0.032540224 -0.05371781 -0.08092856
-0.05989317 0.35735893 -0.09227921 -0.032164715 -0.39328977 -0.02421022 -0.00051419256 -0.013466007
-0.094881736 0.119668014 0.20123962 -0.034849465 -0.021156138 0.24136493 -0.04632948 0.25086024
0.07351122 -0.041288458 -0.096502975 -0.04711707 0.036945116 0.27186194 -0.09687625 -0.021878406
0.036238283 -0.027378567 -0.08801792 0.4717873 0.035868693 0.5425492 -0.015714033 -0.061360504
0.18506163 -0.09568885 -0.016916208 0.14092584 -0.05579704 0.19655475 -0.06562659 0.35811892
-0.088016406 -0.061617274 -0.085824154 0.16481312 -0.026640844 -0.05201712 -0.032332577 0.25293198
-0.052109536 -0.06239679 -0.013165213 0.1310836 -0.025383314 -0.121285975 -0.032890525 -0.03587687
-0.058043383 0.07611004 -0.06179621 -0.04598163 -0.078020036 -0.093448006 -0.04742648 -0.031469658
-0.070612915 0.07963829 -0.09538757 -0.039798703 0.011612651 0.2710339 0.20093699 -0.05829698
-0.10272291 0.3790591 -0.08324126 -0.072187744 0.1447018 0.15444711 0.24369594 -0.05038325
-0.06598481 0.129459 -0.03300247 -0.008425108 -0.09075801 0.06665997 -0.028640557 -0.0315578
0.007648931 0.14043532 0.19205685 0.0576528 0.0765368 -0.05346887 -0.07356392 -0.013808369
0.19236985 0.16374682 0.09102008 -0.08012815 -0.015473191 0.0070160595 0.26519066 -0.059135184

fc2.weight f4 [128, 256]
00000000: 040a 773d 06d1 fc3d 14b9 b2bc bb87 9c3d
00000010: 1f23 713d 578a bebd 2360 b93c a4c5 98bd
00000020: 53cb 6f3c bc2f cd3d 0ee5 0b3e 2432 b8bd
00000030: 13e9 803c a5ce 71bd 0d4e d53d 2af1 293b
00000040: c5b9 923d 1e9d efbb 12be 153e fbc6 afbd
00000050: 9413 653c a910 c7bc 160b c2bb 05a4 823d
00000060: ea73 ba3d 72dc f33c cacf d83d 4686 19bc
00000070: 44dc 0bbd 4fdb 24bd e1e8 52bd 9383 8f3d
00000080: 26ba c5bd 7dd6 c5bd 8aaf ba3a 3132 fbbd
00000090: 5bf7 373d db16 11bd a2bb 933d 8fe3 7b3d
000000a0: 2a6e ba3d f18a eebd 5f18 293d 2564 2fbd
000000b0: 23df f7bc 24de 2d3b 4044 753d c0e9 0b3d
000000c0: 0b89 a0bd fc5b 933d be1b e23d ca2a 5c3a
000000d0: 3517 0dbd 94f1 76bd 6046 e7bc f98e 223b
000000e0: a2d6 123b 7269 773d 5470 b8bd 5a84 043c
000000f0: 976c 933a f962 18be 9bd8 003e cec1 f2ba
00000100: 5d7f 553b b246 46bd 3941 083e 78c4 803d
00000110: 6f71 c83d ae9f 3e3d 5f88 bebd b0b0 cfbd
00000120: 8dd4 d63d 6422 fbbc d7a4 a8bd 6b7a d43d
00000130: 2c15 e93d 8fcb 8bbc a35a be3d 55c6 343d
00000140: 078a 793d 7ca6 3f3d 50f7 873d f3bf 00bd
00000150: 2c3d ed3d 28d9 ce3d 72eb 163d acf5 1ebd
00000160: a0e7 d23c e1ec ce3d 5a91 d13a ae40 a03b
00000170: f21e d63d 0cf1 dd3c 78b7 03be 87cd 973a
00000180: 7383 71bd 0354 52bd 40d0 debd 6102 13bd
00000190: 7a8f 3a3d 6456 8a3d 1efe ac3d bad2 a13c
000001a0: 23c7 853d 7102 b5bd b57a f03c 7ae4 113e
000001b0: 7902 d8bc cae3 893b 6760 c53d 25ec 993d
000001c0: 5575 a7bd 7387 cbbc 88ec e53c a7e1 4cbc
000001d0: 1f9e 97bd 7562 2a3d 2695 8e3d 6768 393c
000001e0: 8bde 863d 96ef 49bd 971d c13d 3e9f c03c
000001f0: 06c7 60bb bc1e ff3d cee7 e13d e76a c13c
00000200: 0739 82bc 1007 f5bc acfa 02bb 18ba 43bc
00000210: 3d6a ca3d 9f5e a03d 6b49 c23d 1cf6 713d
00000220: c579 aa3d fba4 303c 6382 67bc 073d c13d
00000230: d2d5 47bc b7da 56bb 6142 1fbe 4bb0 3f3c
00000240: bbb1 333d 68b1 45bd caf5 e03d 5f96 8fbd
00000250: a4e9 fe3b 1fb0 053e 1e24 0d3d 1230 aa3d
00000260: 700f da3c 8e96 0dbe e255 4d3c 194c 103d
00000270: 01a2 b6bb 534c 05bc a8de 83bd e77e 8c3b
00000280: 68cd e33d 45a9 a03d 3290 d1bd f060 413d
00000290: da7d 863d 7dfe babd fff5 193c 29b0 f23d
000002a0: b372 4dbd a782 f53d 6673 523d 73c4 e83c
000002b0: de3b b33d 3a7b 6abd 0ae5 da3d ca79 b63d
000002c0: a116 6bbd 4a06 ebbd de51 d93d 7f7c 433e
000002d0: 027b c63d acc6 25be 0b6a 643d 8565 5f3d
000002e0: 1150 67bb 4c49 3c3d efa7 043d 09fd e8bc
000002f0: bfa0 e33d 1146 793d 7ab5 023d a127 f6bb
00000300: f30c a93d 7676 b73d 45c3 c8bc dcb5 babd
00000310: 3b95 b33d b5fe ec3c 2f38 563d 7ae9 b2bd
00000320: 992e 753c 7981 9a3d 39a4 063e a899 70bd
00000330: ba4c ea3d c7ec bbbc 7c6e 6cbd d03a f9bd
00000340: fc8a f5bc 0faf 973d 5092 193c f24e 783d
00000350: 7458 283d dcc8 5bbd c64f cebb 8d57 ff3d
00000360: 88c8 053c bf06 d73c 3b8c 4cbe a81d 37bc
00000370: b2ed 693e 0bee 993c 0642 35bd 4f7b 0e3d
00000380: cad6 46bd 57a8 dbbc 0508 7a3d c3be ce3d
00000390: c1f8 b5bd c3ca 68bd 1aaa e6bc 8f5a 0c3d
000003a0: cbc2 ef3d b4a9 1e3e 0040 a73d bd53 c83d
000003b0: ed2c cc3c e157 383d 45c5 b2bc 7e97 e73d
000003c0: c0e5 353d d18d 8cbd 52db 2e3c 26a9 5fbc
000003d0: e50e 7ebd 36f1 a43d fc3f 423d 714b a93d
000003e0: 6efb febd 3483 883d b0df 0e3e 8b3d c83c
000003f0: bdb6 fd3d a1b4 973d 1408 0f3e 3d6d 013d
0.060312286 0.123445556 -0.021816768 0.07643076 0.058871385 -0.0930373 0.02262885 -0.07459572
0.014635879 0.1001887 0.13661596 -0.089939386 0.015736138 -0.059034962 0.10415278 0.0025931098
0.07164339 -0.007312431 0.14623287 -0.085828744 0.013981719 -0.024299936 -0.0059217317 0.063789405
0.0910414 0.029768202 0.105865076 -0.009370392 -0.03414561 -0.04024821 -0.051491622 0.07007518
-0.096546456 -0.09660051 0.0014242989 -0.122654326 0.04491363 -0.035422187 0.072135225 0.061496314
0.091030434 -0.11647595 0.041283008 -0.042820115 -0.030257767 0.0026530111 0.05987954 0.03415847
-0.07838639 0.07195279 0.11040448 0.000839871 -0.03444596 -0.06028898 -0.0282318 0.0024804457
0.0022405763 0.060403295 -0.090058 0.008088196 0.0011247572 -0.14881505 0.12582628 -0.0018520893
0.0032577135 -0.048407264 0.1330613 0.062874734 0.09787261 0.046539 -0.093033545 -0.10141122
0.104897596 -0.030656047 -0.08234566 0.10374912 0.11380991 -0.017064838 0.09294631 0.044134457
0.06092265 0.04678963 0.06638968 -0.031433057 0.11583933 0.10100013 0.036845632 -0.03880851
0.025745213 0.10103775 0.0015988753 0.004890523 0.10455121 0.02709248 -0.12862957 0.0011581638
-0.05896325 -0.05134965 -0.10879564 -0.03589094 0.045546986 0.06754759 0.084469065 0.019753803
0.06532123 -0.08838356 0.029355386 0.14247313 -0.026368367 0.004208063 0.09637528 0.07515744
-0.08176676 -0.02484486 0.028066888 -0.012504972 -0.07403206 0.041597802 0.069620416 0.011316395
0.065854155 -0.049300753 0.09429472 0.023513433 -0.0034298315 0.12457034 0.11030541 0.023610545
-0.015896333 -0.029910594 -0.0019985838 -0.011946224 0.098835446 0.078305475 0.094866596 0.0590726
0.08324007 0.010781522 -0.014130208 0.09435468 -0.012196975 -0.0032784173 -0.15552665 0.011699746
0.04387067 -0.04826489 0.109843805 -0.07011103 0.007779317 0.13055466 0.034458272 0.0830995
0.02661869 -0.13826963 0.012532683 0.035228822 -0.0055735116 -0.008135873 -0.06438953 0.004287589
0.111231625 0.078447856 -0.10232581 0.047211587 0.06566973 -0.09130571 0.009397029 0.11850006
-0.050158214 0.119878106 0.051379584 0.028413987 0.08751653 -0.057246424 0.10688217 0.08909948
-0.057394627 -0.11475809 0.10611318 0.1909046 0.09691431 -0.16189069 0.055765193 0.054540176
-0.0035295526 0.04596834 0.032386716 -0.028440969 0.11114644 0.060857836 0.03191135 -0.0075120484
0.08254423 0.089581415 -0.024507174 -0.09116718 0.08768698 0.028930048 0.052299675 -0.08735938
0.014964723 0.07544226 0.13148583 -0.058740288 0.11440416 -0.022940053 -0.057722554 -0.12169421
-0.0299735 0.07406437 0.0093732625 0.060622163 0.04109998 -0.05365835 -0.006296131 0.12467871
0.008165486 0.026248334 -0.19975369 -0.011176504 0.2284458 0.018790266 -0.044252418 0.034785565
-0.048544683 -0.02681367 0.061042804 0.10094979 -0.08885337 -0.056833994 -0.028157283 0.03426605
0.11707076 0.15494424 0.08166504 0.09781597 0.024923766 0.045005683 -0.021822581 0.11308192
0.04440856 -0.06862987 0.010672407 -0.013651168 -0.062025923 0.0805382 0.0474243 0.082663424
-0.124503 0.0666565 0.13952518 0.024443408 0.1238837 0.07407499 0.13967925 0.03159832

fc2.bias f4 [128]
00000000: 5b6c a9bc beb2 e03c 7313 943d eadc 623e
00000010: 81f7 db3e 757a 383e 2c4d fa3d b48f 9d3d
00000020: 8418 74be a4aa 23bd 12be dfbd 41ea 2bbd
00000030: fdaa 8dbc 2c98 c5bd 2e85 c33e 015e 8c3c
00000040: f856 a9bd f5c5 f2bd b6dd 40bd ac7e 493e
00000050: d54f 1ebd 3aee 51bd 01e3 b2bd 16a9 9c3e
00000060: 0606 febd 21bb ddbc de06 a03d 47d1 3ebd
00000070: 70eb 3d3e 1ee4 95bd f5b5 43bd c2d0 983e
00000080: d141 073e e3d7 f2bd d991 ffbc 3003 35be
00000090: 5c99 8abc 634a 9d3c 3e04 603e 6cfa cfbd
000000a0: b2d7 31bd 6b4c b2bc 6d41 b43e df09 5b3e
000000b0: 3733 ab3e f8a5 edbd fbd2 383e 360c 17be
000000c0: 2536 80bc a668 bcbd a03b eabd 6f86 0abe
000000d0: 4984 a0be 8c50 00be 96a3 d4bd e463 d6bd
000000e0: 5c84 86bd 43b7 f63d 586d 753e ed8e adbd
000000f0: 8fd5 703e 6512 26bc 5da8 1f3e e263 bc3a
00000100: 0c0e 943e 59e3 5dbe e7e7 acbc bb66 8e3d
00000110: 1250 7f3c ceaf 91be 238f c7ba 79ea 2b3e
00000120: c22b 4c3b 9549 393d 103b b7bd bbf0 12bd
00000130: ed1a ccbd fc21 2bbd 0814 f7bc cd82 99bd
00000140: 72cf 30be 826e 8cbd 5fed 9a3e c423 4fbd
00000150: bcfe 79bd 7fd8 e3bb 4426 c13e c610 3f3e
00000160: 1e43 073e ed04 97bd 1e79 a8bd 7032 87be
00000170: 4428 d4bd 1ccf 303e 9f64 43bd 3433 653e
00000180: 16dc 61be 5b9e 573e dbfd 2dbd 5dfa 3d3e
00000190: 9855 0a3e 9691 59bd 9dcf 603d 19fe a93e
000001a0: dfb4 8cbd 3131 333b dd28 0b3e 092e a7bc
000001b0: 8c35 b6bc 0dcd 8fbd bbac 073f 5ef4 34bd
000001c0: 5c32 85bb bb87 f9bc ce36 c3bd fc4b 6fbd
000001d0: 9387 833e e6e9 4abd 77a5 c6bb 7efb e7bd
000001e0: ac17 24be dbac 12be 4adf a8be 791b 00be
000001f0: 3af8 ad3e 4209 7ebd 617b 823e e2c1 abbd
-0.02068155 0.02742898 0.07230272 0.22154585 0.42962268 0.18015464 0.122217506 0.07693425
-0.23837477 -0.039957657 -0.10924925 -0.04197145 -0.017293448 -0.09648165 0.38187546 0.017134668
-0.08268541 -0.118541636 -0.04708644 0.19677228 -0.038650353 -0.05125258 -0.08734704 0.30597752
-0.12403493 -0.02706677 0.0781381 -0.0465863 0.18546844 -0.073189005 -0.04778095 0.2984677
0.132087 -0.118575834 -0.031197475 -0.17676997 -0.01691883 0.01920051 0.21876618 -0.10155186
-0.043418594 -0.021764955 0.35206166 0.21390484 0.3343751 -0.11603922 0.18049233 -0.14750752
-0.015650818 -0.091996476 -0.11437154 -0.13527845 -0.31350926 -0.12530726 -0.10382764 -0.104682714
-0.06568214 0.12046673 0.23967493 -0.084745266 0.23518966 -0.010136222 0.15591569 0.0014373029
0.28916967 -0.21668757 -0.021106673 0.06953188 0.015583055 -0.2845444 -0.0015225153 0.16788663
0.0031154011 0.04523619 -0.08946812 -0.03587411 -0.09966073 -0.041780457 -0.030160919 -0.074956514
-0.17266634 -0.06857015 0.30259225 -0.050571218 -0.06103395 -0.0069532986 0.37724507 0.18658742
0.13209197 -0.073739864 -0.08226226 -0.26405668 -0.103592426 0.17266506 -0.04770338 0.22382814
-0.22056612 0.21056502 -0.042478424 0.18552537 0.13509214 -0.053117357 0.054885495 0.33201674
-0.06870436 0.0027342553 0.13589807 -0.020407693 -0.02224233 -0.07021532 0.5299794 -0.04417836
-0.004064841 -0.03046023 -0.095319375 -0.058422074 0.25689372 -0.04953947 -0.0060622054 -0.11327265
-0.16024655 -0.14323752 -0.32982856 -0.1251048 0.33978444 -0.062020548 0.25484756 -0.083865896

fc3.weight f4 [64, 128]
00000000: ed7e 29bd 2874 d43c 554c e03c 1071 a0bd
00000010: 28f2 7cbd dbf6 a1bc 7088 27bd ee9f d4bc
00000020: fee6 af3c 8fb9 eebd 9d86 a8bb 9f9e 0fbe
00000030: 7c4d ddbc 40e9 d2ba 7fd3 06be 5617 3dbd
00000040: 2d2c 7fbd 150a 0abd 0720 a33c 1a30 2abd
00000050: 3c0b 8cbd 1a99 3e3c 7e87 393d 0709 133d
00000060: 480e 92bd 30bf 32bd 18ce 12bc 872e 7ebd
00000070: 4286 a9bd 4efd 273d 8ad8 aebd f8a6 a8bd
00000080: 73ff 16be 34f7 cd3c 06a5 c3bc 1772 71bd
00000090: 154f 00be 9247 ee3c 3420 95bd 10e0 013c
000000a0: 1618 303d 0987 11bd 8802 85bc 71c5 41bd
000000b0: 40f3 b53b 1632 dcbc 1334 97bd 78e8 75bd
000000c0: 005f ffb9 e889 9d3c d53d 2cbd aa26 4cbd
000000d0: d58f 803d 28ad 6abd 3e37 46bd 2cd3 85bd
000000e0: 7c33 c5bc b00b d5bd ae4c 90bc 032f ae3d
000000f0: 4422 d1bd 7fce 84bd 0d01 e9bc 1c22 09be
00000100: 072b 5cbd a306 f6bc d0e2 d13c b411 b6bd
00000110: ae0b c2bb 900d cebc 7afd 9ebd 0b0e 83bd
00000120: 2649 45bb 1517 41bd 2d2d c23c cec6 81bd
00000130: 410f 0ebe 9d1e d9bc df53 15bd 3f20 17be
00000140: 275a cebd 3d53 753c 0018 03ba 0a69 b3bc
00000150: 6cb8 e4bd 2538 a83d 2037 75bc b3bb 953d
00000160: ce08 7dbd 842f 92bd 023e 1dbd 3636 97bc
00000170: 6c42 dfbd 183e 67bc ba36 683d 61ec c3bd
00000180: 8085 f2ba 1ac5 35bd 1372 a33d 85ee 34bd
00000190: f974 efbb 7f9c a53d 5366 cbbd 2100 8ebd
000001a0: e2ac 02be e053 403c d9d3 913d 4e83 923b
000001b0: 7a46 0dbc 2e61 4f3d 707b 23bc 7220 84bd
000001c0: 9fe1 0fbe 8868 f13c cac9 80bd f474 04be
000001d0: 4e74 e3bc c114 8a3c 3367 0dbe f4c1 a4bd
000001e0: a142 8bbd d849 6abc 17e7 2f3d 04f5 cf3c
000001f0: 0d04 1abd 037e 6ebb a16f 483b cab3 61bc
00000200: 2d76 0a3d b0e3 d2bc 05dd f33d 3c32 cbbc
00000210: 89d6 76bc 3aa2 833d e364 90bd 38f8 8b3d
00000220: 86c9 663e 0259 a53d 2457 063e 9b30 843d
00000230: a373 2e3c d6dc eabc 50fb 10be 0e6b 493e
00000240: 3623 76bd 5847 d43d fd2f 133e e0c8 0abe
00000250: 40be 0b3e fdf7 18bd ea6b 5a3d fa68 82bd
00000260: 60dd 6a3e de77 653d b1e1 98bd 391c 183d
00000270: 371c 143e b9c3 843c 5557 aa3d 689b 87bd
00000280: 1374 193c c732 b0bc 855a 89bd 8e02 a13d
00000290: 69fc 683d b1cd 523c a19b 323e c152 c7bb
000002a0: 7d51 ba3a ebea 51bc cd80 74bd 562c b33d
000002b0: 7c8c 9cbc dab5 ffbc ade6 4e3c 70c5 073e
000002c0: 8369 4dbd b080 a23c 2819 693c 4927 c9bc
000002d0: e7e7 b5bd f22c 563d 0ae4 313c 9bda 8c3c
000002e0: 8aa5 8dbc 459c 23bd 18da 343c 3f1e aabc
000002f0: 95ae 653c c4e3 ff3d c5a5 91bd b6b2 603c
00000300: 106b 3dbd 1595 c33c b480 efbd 0e49 0b3e
00000310: 67ee 3bbb e3f3 49bd 581b 18bb 4fff 44bd
00000320: e66b 8a3e 8362 15be af68 9f3d bdca 94bd
00000330: 2093 cfbc 0571 583d db49 f83d 0f1f f03c
00000340: aeb3 b93d 79dd 4ebd b072 15bd 9e77 8dbd
00000350: f107 993d 701e 24bc 7308 b4bd c134 99bd
00000360: 23ca 333e 4136 883d 3332 d93d 1508 c7bd
00000370: 37b9 59bd 6980 3dbd b855 b4bb e180 27be
00000380: 31c4 44bd 5eb8 8b3d a329 dcbd 5489 043c
00000390: 1ef0 f53d a92b d13c 9ec0 213e 3c3a a9bd
000003a0: 93e5 943c de89 36bd 0f48 893d d880 713d
000003b0: f0d4 093e 0505 e23d bce8 12bd 691f 0fbd
000003c0: f0c0 0a3e b98e 393d 903e 4ebe 7f5f fa3d
000003d0: f967 243d 503d 79be 4064 513c e031 fa3c
000003e0: 4353 5abd 436c e2bc b35d 313d f796 ee3d
000003f0: 8084 4cbd 4156 883d d209 ab3d 0d0b 983b
-0.04138081 0.025934294 0.027380148 -0.07834065 -0.061754376 -0.01977103 -0.0409016 -0.025955167
0.02147245 -0.11656486 -0.0051430003 -0.14025353 -0.027014486 -0.0016091242 -0.13166617 -0.046164833
-0.06229799 -0.03370102 0.019912733 -0.04154978 -0.0683808 0.011633182 0.04529523 0.03589728
-0.0713163 -0.04363936 -0.008960269 -0.06205609 -0.08277561 0.041013055 -0.08537395 -0.08234972
-0.14745884 0.02514229 -0.0238824 -0.058946695 -0.12530167 0.029086862 -0.07281533 0.007926956
0.04299172 -0.03552917 -0.016236559 -0.047307435 0.0055526793 -0.026879352 -0.07382979 -0.060036153
-0.0004870817 0.019230798 -0.042051155 -0.04984156 0.06277434 -0.05729404 -0.048392527 -0.065344185
-0.024072401 -0.1040262 -0.017614689 0.085050605 -0.10211614 -0.064846985 -0.028442884 -0.13391918
-0.05375197 -0.030032462 0.025620848 -0.08890095 -0.0059218025 -0.025152951 -0.077631906 -0.06399163
-0.0030103414 -0.047141153 0.023703182 -0.06336747 -0.13873006 -0.026503855 -0.03645694 -0.14758395
-0.10075789 0.014973459 -0.00050008297 -0.021900672 -0.11167988 0.08213834 -0.014966756 0.073111914
-0.061775975 -0.07137969 -0.038389213 -0.018458467 -0.10901341 -0.014113925 0.056692816 -0.0956657
-0.0018502921 -0.044377424 0.07980742 -0.044172782 -0.0073076454 0.0808649 -0.09931626 -0.06933618
-0.12761262 0.011738747 0.07120485 0.004471219 -0.00862276 0.050629787 -0.00997816 -0.06451501
-0.14050911 0.02946879 -0.06288488 -0.12935239 -0.02776542 0.0168556 -0.13808899 -0.08044806
-0.06799818 -0.014299832 0.042944994 0.025385387 -0.03760152 -0.0036391027 0.0030584114 -0.013775775
0.033804107 -0.025743335 0.119073905 -0.024804227 -0.015065798 0.06427427 -0.070504926 0.06834453
0.22537813 0.080736175 0.13119179 0.06454583 0.010647687 -0.028669756 -0.14158368 0.19669744
-0.060092174 0.1036517 0.14373775 -0.1355319 0.13646793 -0.037345875 0.05332557 -0.06367679
0.2293601 0.056022517 -0.07464922 0.03713629 0.14463888 0.01620661 0.083174385 -0.06621438
0.009366053 -0.021508588 -0.06706718 0.078618154 0.056881342 0.012866423 0.1744218 -0.006082863
0.0014214959 -0.012812356 -0.059693146 0.08748691 -0.019109957 -0.031214643 0.01262824 0.1325891
-0.050149452 0.019836754 0.014227189 -0.024554865 -0.088821225 0.052288957 0.010857591 0.017194083
-0.01729085 -0.039943952 0.011038326 -0.020766376 0.014018674 0.12494615 -0.07111696 0.013714483
-0.04624468 0.023874799 -0.1169447 0.13602087 -0.0028676034 -0.049304854 -0.0023209658 -0.048095044
0.27035445 -0.1458836 0.07783639 -0.07265232 -0.02533871 0.05284216 0.12123462 0.029311685
0.09067474 -0.05050418 -0.036486328 -0.06907581 0.07472218 -0.0100170225 -0.08790674 -0.07480765
0.17557578 0.06650973 0.10605278 -0.097183384 -0.05315515 -0.04626504 -0.0055033825 -0.16357757
-0.048038665 0.068222746 -0.10750129 0.008089382 0.12008689 0.025533514 0.15796134 -0.082630605
0.018175876 -0.044565074 0.06703197 0.058960766 0.13460135 0.11036114 -0.035866484 -0.034942064
0.13550162 0.045302127 -0.20141053 0.12225246 0.04013822 -0.24339795 0.012780249 0.03054136
-0.05330206 -0.027639514 0.04330225 0.11649888 -0.04993105 0.066570766 0.083514825 0.004639989

fc3.bias f4 [64]
00000000: 3923 ebbd 5a5d 44bc 472c 113e d2ff 8f3d
00000010: 975f c13e a5d3 4abc 7c24 f4bd 207a 04be
00000020: 7ba0 05bd 95e9 013f 3465 c23d a192 3d3e
00000030: cc49 d43d 582a 1d3e 601a 6c3e 42e6 033e
00000040: 0d5c 3bbc 12ee 633e d1a3 82bd 27bc 01be
00000050: 2dc5 febd 039a bd3e fef1 9d3e 6d08 f43d
00000060: 7321 4d3e a52b 513d 3db5 a7bb 4ae2 b13e
00000070: d8d8 f23c a65d a3bd 8439 30be 59aa a7bd
00000080: 6de3 8ebe 593d 093e 8905 27be 0638 353e
00000090: f49c c53d 181c 20be bb29 d5bb 18a4 f3bb
000000a0: c57f 3cbd 5ce9 87bc 5ab6 d4bd 7709 c4bd
000000b0: d838 2f3d a1eb d0bd 4f65 013c 0c3d 31bd
000000c0: 4f29 593c 7530 96bd 9375 443d 9241 9fbb
000000d0: 4cb8 5d3c 4923 e8bc 11bc dbbd 6b58 b33d
000000e0: f1a9 70bd 2921 d43d 82a2 48bd 2ae2 e93d
000000f0: 3796 70be a60d 543c 1886 ddbd f1c6 1ebe
-0.114813276 -0.011985147 0.14177047 0.07031216 0.37768242 -0.012379562 -0.11921021 -0.12937212
-0.03262375 0.5074704 0.09491959 0.18512966 0.10365638 0.15348184 0.23056936 0.12880805
-0.011435521 0.22258785 -0.06378902 -0.1266943 -0.12439952 0.37031564 0.30848688 0.119156696
0.20032291 0.051067013 -0.005118041 0.34742957 0.029644415 -0.079768464 -0.1720944 -0.08186788
-0.27907887 0.13402309 -0.16310705 0.17697152 0.09649077 -0.15635717 -0.006505219 -0.007435333
-0.046020288 -0.016590767 -0.10386343 -0.09572118 0.04277882 -0.10201193 0.007897689 -0.04327111
0.013254478 -0.07333461 0.04796369 -0.0048601115 0.013532709 -0.028337138 -0.1072923 0.08757099
-0.05875582 0.10357887 -0.048983105 0.114200905 -0.23494802 0.012942707 -0.10816592 -0.15505578

fc4.weight f4 [10, 64]
00000000: 066a d23c 8572 d2bd 6460 72bd 702d 76bd
00000010: c5e9 0f3e e088 8b3b b8bf d9bd a0b5 e3bd
00000020: c3c8 20be d05d 80bd 2c10 9e3d 1e91 293d
00000030: 08f2 f8bc 08e9 13be f913 0f3e 957a b4bd
00000040: a743 863d 805f 2cbc bf0d 5fbd 897e d7bd
00000050: e5d3 6e3d 2962 aa3c c38f 7a3d 29de 803d
00000060: eb7a 133e fff5 01be dc69 2e3d fb4a eebb
00000070: 8716 ca3d d332 ab3d 51c5 17bd 76ad 2ebd
00000080: 184b a33d f90a afbd 9316 fabd 5a59 7fbc
00000090: 39b7 33be acd3 e7bc 5a0c 803d 8b1e a9bd
000000a0: 0bd6 e7bd ca51 c63c ef9e 813c ecd4 b33b
000000b0: 341a 3a3b 7266 b7bd 5ff2 253d f918 833d
000000c0: d780 3dbd 405c 4e3c 9a3a 08be 2fac 65bc
000000d0: 3d51 6c3c 2c89 7e3d 6b6c cfbd 35fe 9f3d
000000e0: 82c1 9bbd df76 ba3d c245 bbbd b361 1b3e
000000f0: 45ff 0dbe 18ac 83bd e526 4abd 3227 98bc
00000100: 5651 64bd ea65 44bd fe85 b23d e8d2 09be
00000110: f3aa 75bc d43a f93b 3329 a2bc 36ac 3bbe
00000120: a094 22be c463 30be f67a 153e 4959 993d
00000130: 87a3 c1bd b410 06be 1166 e1bc f26c a13d
00000140: 66da 4e3d dc87 24be 67cf 27bc 53ac 5ebe
00000150: e0b9 543d 1fd5 1abe f6ab 23be 39f7 acbc
00000160: 1aa4 1dbe 7056 b73d d1ac e23c e51b cabd
00000170: 2f4d 03be f4c8 d23c ea25 ce3d 5592 083e
00000180: f03b 2bbd 997a 93bd e449 febd 430f fc3d
00000190: c98c debd a3f4 bb3c 935b f63d 0273 1f3e
000001a0: 84d9 9c3d a867 573d 45c4 123d a4e4 e33d
000001b0: 4aa3 423e a868 40bc a605 68bc 10b7 d23d
000001c0: f48c 11bd c34b 543c 2f6b 03be 12af b13d
000001d0: 3c74 01bd c92c bd3d 8d65 743e 5b06 fdbd
000001e0: adf3 0d3e a353 f7bd 5a60 9c3c c9f0 f2bc
000001f0: be84 14be 4f92 08be ba68 08be 786b 9a3c
00000200: cdae febc 1bc7 fe3c fc5f c0bd 781b 413c
00000210: 600e eebd 2580 ac3d 3efa 71bd cf77 aebe
00000220: a836 02be 7735 803d a4f1 31be 2109 a9bd
00000230: 4e7c ad3c 06b4 77be 41fa 8cbd 4ebe 03ba
00000240: 7d07 aa3c a26a a83d 33a0 2d3d e429 e6bd
00000250: 9c69 2ebe 9ed1 6abc ba05 61be cb95 b7bd
00000260: 2d80 163e 62bf 14be a77b 02bd c7b6 d03d
00000270: 5d77 babd cc15 e13d ad22 1f3d d8a0 723c
00000280: 8452 1abd 6f82 093e 101c 623d c84b 6abe
00000290: c4cd 3bbe 1f1b ccbc 4cd9 213e eaa0 98be
000002a0: fdba dabd 6203 f43c 434a 13bd ca7a 23be
000002b0: e868 513e fff0 cd3c b9fd 4f3d b3cf ea3d
000002c0: 1b04 97bd 0b39 eebc f5c4 55be feca 24be
000002d0: c7a7 7c3d 2554 003d 5a17 45ba 76b1 053e
000002e0: b135 c03d b0db 5abd e6a0 2fbe 9459 3dbc
000002f0: c83a f4bc 70fe 4e3d 1cc0 24be 172b 263d
00000300: 2cc3 1e3d b487 2d3e 5cff 333e b065 02be
00000310: 9a36 1c3e dad3 a03d ecc8 c0bd 286e 02be
00000320: c057 43be 0fbe 8fbe 5cd2 4b3e a7ba b93d
00000330: e0c9 1abe 20e4 33be f0af 393d a09e e7bd
00000340: b72b 0a3e 1fd4 23be 61c7 f8bc 3b96 aebd
00000350: 5c1e 8ebd b459 98be 459a e8bd c7b9 bf3b
00000360: c632 c03d cd31 76be ebda 46bc a247 b8bd
00000370: 9491 dfbd cb84 bb3d 1550 813b b114 3f3d
00000380: e5e5 a3be 06c7 093d 66c6 faba 775a 3fbd
00000390: 608f 8bbd 8a78 adbd 5de0 23bd 0a16 cfb9
000003a0: 3059 59bc 0901 f93c fad6 133e ab7f fc3c
000003b0: 0dcf ddbc 64ac 483d 3a5b 3c3e 52fa 2a3e
000003c0: 2cd5 0ebd 6b05 043e 1c70 30be d0bc 663d
000003d0: f58d 4bbd a2a8 053e a201 9a3d e29f db3c
000003e0: e37f edbd 4ec1 103e cdc5 b4bd e5bf 3cbe
000003f0: 855b 2abe 2545 803b 7a58 37be 806d 2bbe
0.025685322 -0.10275749 -0.059173957 -0.060101926 0.1405402 0.00425826 -0.106322706 -0.111186266
-0.15701585 -0.06267893 0.07717928 0.04139816 -0.030388847 -0.14444363 0.13972463 -0.08812443
0.065558724 -0.010520816 -0.05445647 -0.105221815 0.058307547 0.02079876 0.061172258 0.06292374
0.14402358 -0.12691496 0.042581424 -0.007272122 0.09867578 0.08359303 -0.03705341 -0.042645894
0.07973307 -0.08547015 -0.12211337 -0.015585268 -0.17550363 -0.028299175 0.06252356 -0.08257779
-0.11320122 0.024208922 0.015822856 0.0054880287 0.0028396966 -0.08955087 0.040514346 0.064012475
-0.04626545 0.012595236 -0.13303605 -0.014018103 0.014423666 0.062142536 -0.10128101 0.07812158
-0.07605268 0.09104704 -0.091441646 0.15173988 -0.13866909 -0.06429309 -0.0493535 -0.018573377
-0.05574163 -0.047948755 0.08716963 -0.1345936 -0.014994371 0.00760589 -0.019795036 -0.18327412
-0.15877008 -0.17225558 0.14597687 0.07487733 -0.094550185 -0.13092309 -0.02751449 0.07882108
0.05050125 -0.16067451 -0.01024232 -0.21745424 0.051935077 -0.15120362 -0.15983567 -0.021113979
-0.15394631 0.089520335 0.027670296 -0.09868602 -0.12822412 0.025730588 0.10065825 0.13337071
-0.041805208 -0.07201118 -0.12416437 0.123075984 -0.108666964 0.0229438 0.12029185 0.15571216
0.07658675 0.05258909 0.03583171 0.11127594 0.19007602 -0.011743702 -0.014161503 0.10288823
-0.035534814 0.012957516 -0.12833856 0.0867597 -0.03160499 0.09237058 0.23866864 -0.12354728
0.13862486 -0.12076499 0.019088913 -0.029655831 -0.14503762 -0.13337062 -0.133212 0.018850073
-0.03108921 0.0311008 -0.093933076 0.011786334 -0.116238356 0.08422879 -0.05907654 -0.34075782
-0.12716162 0.062601976 -0.17377335 -0.08253694 0.021177437 -0.24189767 -0.0688367 -0.0005025611
0.020755524 0.082234636 0.042389106 -0.11238459 -0.17032474 -0.014332203 -0.21974841 -0.089641176
0.14697333 -0.14526132 -0.031856205 0.10191112 -0.09104798 0.109904855 0.03885143 0.014808856
-0.03767635 0.13428663 0.055202544 -0.22880471 -0.18340212 -0.024915276 0.15805548 -0.29810268
-0.106801964 0.02978677 -0.035959493 -0.15964809 0.20450175 0.02513933 0.05077908 0.11465397
-0.0737383 -0.029079935 -0.20875914 -0.1609306 0.061683442 0.031330246 -0.0007518433 0.13055977
0.09385241 -0.053432167 -0.17151222 -0.011557002 -0.029813185 0.05053562 -0.16088909 0.040568437
0.03876035 0.16946298 0.1757788 -0.12734103 0.15255204 0.078529075 -0.09413323 -0.12737334
-0.19076443 -0.2807469 0.19904464 0.09068804 -0.15116072 -0.17567492 0.045333803 -0.11309552
0.13493238 -0.15998887 -0.030368509 -0.08524748 -0.06939384 -0.29755938 -0.113575496 0.005851004
0.09384684 -0.24042435 -0.012137155 -0.08998038 -0.10916439 0.091561876 0.003946314 0.046650592
-0.32011333 0.03363707 -0.0019132614 -0.046717133 -0.06814456 -0.084702566 -0.04000889 -0.00039498537
-0.013265893 0.030396001 0.14437476 0.030822596 -0.027076269 0.04899253 0.18394175 0.16697052
-0.034871265 0.12892692 -0.17230266 0.05633241 -0.049695928 0.1305261 0.07519843 0.026809637
-0.11596658 0.1413624 -0.0882679 -0.18432577 -0.16636474 0.0039144927 -0.17904845 -0.1674099

fc4.bias f4 [10]
00000000: 2813 2a3c 3b1c 66bd 9642 083d 00be 503e
00000010: ef5d 55be 95ae c93e fe88 713e e0cd 2cbc
00000020: a39c aebd 055d abbe
0.010380544 -0.056179266 0.033266626 0.20384979 -0.20836614 0.39391008 0.23587415 -0.010547131
-0.0852597 -0.33469406
