runs/Mar02_17-44-21_cssd901383-Run(lr=0.01, batch_size=128, patience=1)-valid/checkpoint.pt (torch_old, 972387 bytes, 8 tensors)

fc1.weight f4 [256, 784]
00000000: 7036 153c 0e9e 60bc c0b7 88bb 4e57 5fbc
00000010: a68a 0cbd 9583 8dbc b6f6 953c ec14 d4bc
00000020: 70ff 16bb 93a4 15bd c08e f9bb b230 963c
00000030: b776 babd 3dc1 c2bd 32be c0bd dc2d 92bd
00000040: d2b5 f9bc 2796 d5bc 5883 43bc fd09 aebc
00000050: 15da dfbc 54fe 7ebc 181d cfbc ea44 35bc
00000060: 82b5 cd3c da74 ee3c 921e 14bc f3dd 91bc
00000070: 124b de3c 708f 94bc 5e92 cdbc 338b a0bc
00000080: 381c 9fbb 40f9 be3b d09e 86bb 6420 6c3c
00000090: e291 fa3c 126f 4dbc 47e2 3ebd 9fed a4bd
000000a0: 847e 4ebd 2ed5 23bd 4f6e 12bd c7ec d5bc
000000b0: 5f0b 56bd 63e2 9cbd 1094 073c 2e98 ac3c
000000c0: b02e 143c 1a97 a73c 675f 053d 92d2 f63c
000000d0: bc34 5f3c da91 cf3c c818 7b3c f20c fb3c
000000e0: ee15 b3bc a0fb aabc 5cae 673c 9c2d 40bc
000000f0: 8015 e6b9 1f39 073d 46ef ea3c f631 8dbc
00000100: 8420 b2bd c63c acbd 3673 a4bd 1f34 79bd
00000110: 41f5 bbbd 2bed e6bc 3581 1ebd fb2b 19bd
00000120: 8766 c1bd 9d1e b7bd 219d 85bd eede a5bd
00000130: a680 ffbc 0518 81bc 903a 69bb ca67 12bc
00000140: ceb8 2ebc ee13 8bbc b04b 7a3b bc9e d3bc
00000150: 1815 b93b 0af9 50bc 32a6 27bc 6236 f23c
00000160: a6bd 43bc 46f3 09bd 06eb 86bd 6aa4 64bd
00000170: 175b 56bd 2338 99bd d3bb c0bd 8683 bbbd
00000180: e696 6cbd 33f9 80bd 7750 39bd 0b07 6bbd
00000190: 8818 eebc 3735 59bd 6b33 1fbd 2ad5 b1bd
000001a0: d6f9 97bd f458 85bd 78ed 19bd 1005 46bb
000001b0: d57f febc 2c7a bc3c d062 453b 80ae 133c
000001c0: 5c17 8a3c d833 d0bc 005f e6bb 02b4 d43c
000001d0: bc43 5e3c 28a5 d9bc 64fc dcbc 18ee 14bd
000001e0: c9d2 4dbd cb3a 29bd 61d9 bbbd d97a 9bbd
000001f0: e4a4 9dbd 803e 66bd ffbd 5fbd 8152 08bd
00000200: b8d9 b6bd 9e8a 38bd 206f a1bd cc00 34bd
00000210: 5e94 6dbd 312f 8bbd 00e8 a0bd 062b 21bc
00000220: 1f95 053d 7077 99bc b455 7ebc c011 4d3c
00000230: c836 a03b 141d 5b3c 6210 a03c d022 553b
00000240: 508c 3d3b ccf1 86bd 3895 adbd 5ec2 13bd
00000250: 5440 78bd a5ef 80bd 2b34 3fbd d2aa e5bc
00000260: 0538 acbd de00 babd 4049 84bd 3a8a 70bd
00000270: 6f50 63bd 1d09 b8bd 81ae a4bd 8a7e 05bd
00000280: 3786 6abd 0ada c1bd 02f5 03bd 4497 81bd
00000290: cc79 b83c 542e 06bd a3b1 8abc 73d1 f6bc
000002a0: ac1b ffbc 100b 783b c8e2 5d3c 0673 18bc
000002b0: 88de bcbc 256d 66bd 29f7 48bd 51c8 99bd
000002c0: c52d 9cbd 49ab 31bd 5d6d 56bd 7adb 9bbd
000002d0: 4c8b 80bd 34a2 11bd 7047 98bd 4525 8cbd
000002e0: 68ed 93bd 51bf 2ebd f90c 53bd 5f32 f5bc
000002f0: eba2 3bbd 92af 85bd 590a 59bd 7bbf a4bd
00000300: 4520 dabc 5586 d9bc 8833 bf3c 53e8 f8bc
00000310: 607e 313c 3b5b 063d bc6c 7ebc 2c29 90bc
00000320: 7094 96bb ac7f 04bd 0020 b6bd 0d13 a6bd
00000330: 4701 4cbd 2d73 c1bd e2b3 bebd e721 65bd
00000340: 0b8f 56bd bd00 47bd 8dc8 bcbd 0c66 d4bc
00000350: 4ed9 bcbd 1def 88bd 075f b3bd d8ab 89bd
00000360: a749 2abd 8103 2ebd b135 92bd 9c0d 06bd
00000370: 4e81 d73c c547 053d cac7 b83c 6869 bc3c
00000380: 514a 0e3d 65dc eebc 1485 9ebb b222 20bc
00000390: 4df2 91bd 1acc 16bd 2610 85bd 9ba5 77bd
000003a0: 544d 80bd e3ef 41bd 01c8 8abd 0066 a9bd
000003b0: 3695 28bd 7be0 c0bd 3598 bebd 6554 9fbd
000003c0: d7da 1bbd feb9 dabc b670 bdbd 1735 b1bd
000003d0: 47c4 9dbd c835 0bbd 44ed 9abd 25aa 7ebd
000003e0: b3bd e7bc 3627 b93c 5246 2abc 7c77 513c
000003f0: c868 343c c7d1 0b3d 9c6a 8a3c dc03 d0bc
0.009107217 -0.013709558 -0.0041722953 -0.013631655 -0.034311913 -0.017274657 0.018306118 -0.025888883
-0.0023040436 -0.036533903 -0.007615894 0.018333767 -0.09104674 -0.095095135 -0.09411277 -0.07137653
-0.030482206 -0.026072575 -0.01193317 -0.021244997 -0.02732567 -0.015563566 -0.025282428 -0.011063794
0.025110964 0.029108454 -0.009040492 -0.017806029 0.027135406 -0.018134803 -0.025094207 -0.019597625
-0.004855659 0.0058280528 -0.0041082874 0.014412019 0.03058714 -0.012538688 -0.046602514 -0.08053135
-0.050413623 -0.039998226 -0.03574973 -0.02611388 -0.052256938 -0.07660367 0.008275047 0.021068659
0.009044334 0.020457793 0.032561686 0.030129705 0.013623413 0.025338102 0.0153257325 0.030645821
-0.021861043 -0.020871937 0.014140692 -0.011729624 -0.00043885037 0.03301346 0.028678548 -0.017235737
-0.08697608 -0.08410029 -0.08029787 -0.060840722 -0.09177638 -0.028189262 -0.03869744 -0.03739546
-0.09443384 -0.08941386 -0.065241106 -0.08099161 -0.031189274 -0.015758524 -0.0035587884 -0.008935878
-0.010664178 -0.016977277 0.0038192086 -0.025832526 0.0056482665 -0.012754688 -0.010232495 0.029566947
-0.011947071 -0.03367927 -0.06587796 -0.05582086 -0.052332964 -0.0748141 -0.094108246 -0.091559455
-0.057761095 -0.06297531 -0.045242753 -0.057379764 -0.029064432 -0.053029265 -0.038867395 -0.08683236
-0.07420699 -0.06511107 -0.037579983 -0.003021542 -0.031066814 0.023007475 0.0030118711 0.009013772
0.016856842 -0.025415346 -0.007030368 0.02596474 0.013565954 -0.02656801 -0.026975818 -0.036359876
-0.05024985 -0.041315835 -0.09172321 -0.07591791 -0.07697466 -0.05621195 -0.054624554 -0.033281807
-0.08928245 -0.04505407 -0.078825235 -0.043946072 -0.058002822 -0.067961104 -0.078567505 -0.009836918
0.032612916 -0.01873371 -0.015523363 0.012516439 0.004889343 0.013373632 0.019539062 0.003252197
0.0028922744 -0.06589088 -0.08475727 -0.036074035 -0.060608223 -0.062957086 -0.04668061 -0.028035555
-0.084091224 -0.09082197 -0.06459284 -0.058725573 -0.05549663 -0.08986113 -0.080410965 -0.03259138
-0.057256903 -0.09465416 -0.03221608 -0.0632768 0.022519015 -0.032759026 -0.016930407 -0.03012917
-0.031141125 0.003784839 0.013542838 -0.0093047675 -0.02305533 -0.056256432 -0.049063835 -0.075089104
-0.07625917 -0.04337624 -0.05235039 -0.07610221 -0.06276569 -0.03555508 -0.074355006 -0.06843046
-0.07223016 -0.042662922 -0.051526044 -0.029931245 -0.045809668 -0.06527628 -0.052988384 -0.080443345
-0.026626715 -0.026553312 0.023340002 -0.030384218 0.010833353 0.032801848 -0.015528854 -0.017597757
-0.004595332 -0.03234832 -0.08892822 -0.081091024 -0.049805906 -0.09445796 -0.09311654 -0.055940535
-0.05238251 -0.04858469 -0.092179395 -0.025927566 -0.09221135 -0.06686232 -0.087583594 -0.0672223
-0.041574147 -0.04248381 -0.07139147 -0.032727823 0.026306774 0.032539148 0.022556204 0.02299948
0.034738842 -0.029157827 -0.0048376415 -0.009773897 -0.07126293 -0.03681574 -0.06497221 -0.060460668
-0.06264749 -0.047347914 -0.06776429 -0.08271408 -0.041157924 -0.09417816 -0.09306375 -0.07779769
-0.0380505 -0.026700016 -0.092500135 -0.08652704 -0.077034526 -0.033986837 -0.07564786 -0.06217398
-0.028288698 0.022601705 -0.010392742 0.012784835 0.01101131 0.034135606 0.016896538 -0.025392465

fc1.bias f4 [256]
00000000: f2f3 b1bd c4de 57bd f50b acbd 9c51 5bbd
00000010: 5cce a0bd 4bd0 9b3d f294 a43e 764c 95bd
00000020: 2225 5fbd 950d 5f3d 12cb e83b 1ac0 653c
00000030: 92dc ecbe 1685 b1bd c3dd 1fbd 2771 6dbd
00000040: af0b cbbc 04a2 303d e240 be3e fb6c 0ebd
00000050: cef0 153e aa40 34bd 138c d1bd 7cde 3bbd
00000060: 15dc ea3d b7cb 9abd b546 adbd b8fc 7abd
00000070: c862 f6bd 6e66 ffbd ee69 8ebd f7e8 adbd
00000080: 30ef b43c 0095 9b3c 897d 1abd 2754 4b3e
00000090: 7e9a 62bd a0fa 4abd 887a 94be c7fd 2c3e
000000a0: 3a91 8dbe 9b63 c43d 7b82 bd3e 325c 6e3e
000000b0: 0135 9cbd d5a7 8bbe 8816 a8bd c33d 07be
000000c0: 9b54 60bd eebb a8bd 96d9 7a3c b486 70bd
000000d0: cb53 193d 97cb 86bd 68d2 74bc 6d3b 95bd
000000e0: 4c4f e03e 5421 d8bc f8df f7bd 705b bdbd
000000f0: 71da 733c 1792 aebd 93cd 84bd 6229 ddbc
00000100: 2990 7bbd ae0b 2fbd d66c 37bd cdaa 92bd
00000110: 036c 873d e4a3 c53c 263f a5bd 77e0 45bd
00000120: 9e31 8abd d05a 1d3c 1cb5 d03a edf4 85bd
00000130: fac0 093f 0c58 3a3e e2e7 aebd aefa e43e
00000140: d32a b3bd 98b5 c3bd 5913 29bd b284 153f
00000150: f322 fb3e 44fc acbd fd6b cd3d 87ad 80bd
00000160: 0403 313d 27d5 8ebd f116 433d 5bbc b2bd
00000170: 5788 b1be 5cd8 9d3e f6c0 c7bc 55c5 14be
00000180: a5b2 aebd b900 45bc 86b3 1fbe da94 9bbd
00000190: ecc5 84bd 187e 203e 6259 9b3e 0c96 c4bd
000001a0: f2f3 abbc 0c9d 35ba 97f7 a43e c10f b3bd
000001b0: 4fad ccbd 5e51 543f 96f5 94be ea81 a4bc
000001c0: 09cd 93bd 1549 a0bd 16bd 6fbc c5af f53e
000001d0: 1438 c6bc 9d9f 4ebd 00af 5dbd 59bd 5ebd
000001e0: e1ed cfbd 3c35 b9bd dd32 bcbe e6a4 8a3e
000001f0: ef2e 873b b38e e0bc 8bb8 66be a5df a2bd
00000200: d246 f43e 83e6 1d3d 5d43 b6bd fc82 fabc
00000210: 9d2b 4bbd 411e 8fbd 06d7 063e 12ca 61bd
00000220: e21e e6bd 8789 a3bd e729 82bd 6c10 f2bd
00000230: 8d1a c73c 3704 28bd 8a86 1b3e 4971 1fbd
00000240: 94f7 08bd 45e3 a2be a720 383e 8a7d 6cbd
00000250: b5d2 3abd cd26 40bd e6cc 93bd c8ea be3e
00000260: 1193 8abd 19eb 973d 3d05 283e 3ef5 83bd
00000270: 80b7 5cbc 8737 053e 4d96 26bd 6f82 7dbe
00000280: 437b 513d 3a3c 853b 8b54 08bb f2de f5bb
00000290: bd54 693e 1abb d9bd c56f e1bd 7bd9 633e
000002a0: ae9c 7b3e 4a7e 0abd 84e7 13be 1e2e 4c3e
000002b0: 7542 5dbd 3077 57be 25b9 e5bc d1d8 e63d
000002c0: a1b0 29bd e1cb fdbd e7c7 23bc 92ed 7b3a
000002d0: a09c ca3e 9a45 c4be 5480 f4bd 4d6a 94bd
000002e0: 2f41 843e df33 383e d06b f4bc ee3f e53c
000002f0: 7d44 12bd 3e0e 1fbe dbef 8fbd ec8f b6bd
00000300: 8fde aebd fc2a adbd 743f 61bd 6762 5dbd
00000310: c870 1dba d4a4 813e fc56 28bd 6d67 3bbd
00000320: e3f5 22be 2c00 18bd 452e 043f b7fa 68bc
00000330: 1bd6 34bd b29b 10be 2042 e93d 30ec ecbd
00000340: f197 e0bc c05f 87be 4e4d ca3c 2f4b 98bd
00000350: 5ff6 bebd 897f cfbc b019 9ebd 10f8 593e
00000360: ab74 a3bd 36aa 69bd 3cd1 e8bd 4fba b63d
00000370: f4b6 07be 9371 20bb 9386 3abd 3a82 18bd
00000380: d941 063f f609 92bd 3f9f 0dbd db29 92bd
00000390: 0afa 61bd 2c21 66bd 775c cd3e 8c5e cc3c
000003a0: 05f6 813e 3429 1e3e 1a2c d23d 646f 803d
000003b0: 4171 5fbd 84ed 65bd dd64 c2bd 29a8 6abd
000003c0: 438d 1cbe 37f8 b6bd 8735 80bd eced 76bd
000003d0: f17d 34bd 2059 a3bd 1d70 a5bd 9a8f 6a3d
000003e0: d4f4 babd 6bfa 843e 34d1 82bd ce4f 1a3f
000003f0: 7c9b e33d a100 78bd 7a67 2c3e 6f88 7cbc
-0.08689107 -0.05270268 -0.08400718 -0.053544626 -0.0785186 0.07608088 0.32144886 -0.072899744
-0.054478772 0.054456312 0.007104286 0.014022851 -0.46262032 -0.08667962 -0.039029848 -0.05796924
-0.024785845 0.04312326 0.37158877 -0.0347719 0.14642641 -0.04400698 -0.10231795 -0.045866475
0.114677586 -0.07558387 -0.08460752 -0.061276168 -0.1203056 -0.12470709 -0.06953798 -0.084917
0.02208671 0.018991947 -0.037717376 0.1985632 -0.055323116 -0.04955542 -0.28999734 0.16893683
-0.27649862 0.09589311 0.3701361 0.23277357 -0.07627297 -0.27276483 -0.082074225 -0.13207154
-0.054768186 -0.0823897 0.015310666 -0.058722213 0.037433427 -0.065818004 -0.014942743 -0.07286725
0.438105 -0.02638308 -0.121032655 -0.09245956 0.014883623 -0.08523958 -0.06484523 -0.026997272
-0.06141678 -0.042735748 -0.04478153 -0.07161484 0.066123985 0.024126 -0.08068685 -0.04830977
-0.06747745 0.009604171 0.0015923115 -0.065408565 0.53810084 0.1819765 -0.08540322 0.44722503
-0.087484024 -0.09556121 -0.041278217 0.584056 0.49050102 -0.08446553 0.10030363 -0.06283098
0.043215767 -0.06974249 0.0476293 -0.08727332 -0.34674332 0.30829132 -0.024384003 -0.14528401
-0.085301675 -0.012024098 -0.15595827 -0.075967506 -0.06483063 0.15673101 0.3034163 -0.09598932
-0.020990346 -0.0006928004 0.32220146 -0.08743239 -0.099939935 0.82936656 -0.29093617 -0.02008148
-0.07216842 -0.07826439 -0.014632484 0.47985664 -0.024196662 -0.050445188 -0.05412197 -0.054379795
-0.10152794 -0.09043357 -0.36757556 0.27078933 0.004125468 -0.027411794 -0.22531335 -0.07952813
0.47710282 0.03854991 -0.08899567 -0.030580036 -0.04960214 -0.06988192 0.13167962 -0.05512435
-0.11236359 -0.07985216 -0.063556485 -0.118195385 0.024304653 -0.041019645 0.15188041 -0.038926397
-0.033439234 -0.31814018 0.17981206 -0.05773691 -0.045611102 -0.046912003 -0.07216816 0.372885
-0.06766332 0.07417888 0.16408248 -0.064432606 -0.013471484 0.13009463 -0.04067068 -0.24756788
0.051142942 0.0040660175 -0.0020802345 -0.007503384 0.22786231 -0.1063139 -0.110076465 0.22250931
0.24571487 -0.033811845 -0.14443785 0.19939467 -0.054018456 -0.2104156 -0.028042385 0.11271823
-0.041428212 -0.123924024 -0.009996391 0.0009610291 0.3957262 -0.38334352 -0.11938539 -0.07246838
0.2583098 0.17988537 -0.029836565 0.027984586 -0.035709847 -0.15532777 -0.07028171 -0.0891417
-0.085385434 -0.08455464 -0.054992154 -0.054048922 -0.00060058804 0.25321066 -0.04109858 -0.04575293
-0.15914111 -0.03710954 0.516331 -0.014219931 -0.0441495 -0.14121893 0.113895655 -0.11568487
-0.027416201 -0.2644024 0.024695065 -0.07436215 -0.09324335 -0.025329368 -0.07719743 0.21286035
-0.07981237 -0.05704709 -0.11368033 0.08922254 -0.13253385 -0.0024481758 -0.045538496 -0.03723357
0.52444226 -0.07130806 -0.034575697 -0.071368895 -0.055170096 -0.05618398 0.40109608 0.024947427
0.2538301 0.15445405 0.10262318 0.06271246 -0.054551367 -0.056134716 -0.094918944 -0.057289276
-0.15288262 -0.08934062 -0.062602095 -0.060285494 -0.04406542 -0.079759836 -0.080780245 0.057265855
-0.091287285 0.25972304 -0.063875586 0.6027802 0.11113641 -0.060547475 0.16836348 -0.015413388

fc2.weight f4 [128, 256]
00000000: 0eea 7f3d d2fe 1abd 8666 babd d8be bdbd
00000010: 33fe ccbd da17 a9bd 13db 32be 00d4 9339
00000020: fb4f f23d c139 a4be fc31 273d b2dc dbbd
00000030: 7357 233d 7812 4c3d 40c9 9fbd 1160 cb3d
00000040: f806 89bd 0d07 87bd 3682 2cbc 0a67 953c
00000050: 6175 40bd fdae e6bd e171 dfbc 3b4a bcbc
00000060: d703 013d 4ad6 9bbd 40ba e5bd 6054 e63d
00000070: ea36 e4bb d55e 013c ad44 663d 296d 4d3c
00000080: 45d4 083e fcc9 0bbd b046 87bd 235b eebe
00000090: 1392 a93d cb41 98bd d315 103c 8e14 85bd
000000a0: 3dce 9cbc 68ae 8dbe 6006 d9be 47fb 01bd
000000b0: 93fa dfbc 28bf 2e3d c863 56bd 6cf4 723d
000000c0: 7198 d2bd 88da 5c3c 9ea1 6abd 7951 97bd
000000d0: d18d 65bd a2ac 0cbd 00c0 ca3d 9f35 aabd
000000e0: e89e 8c3c 9a2c df3c e552 97bc f98d d8bc
000000f0: 39af b33d 55fa b13d a0e9 bd3b 7ddc 923d
00000100: d274 99bd 8910 0cbb 4d13 5a3c a09d 8dbd
00000110: c80b ca3d 6539 8d3d e632 09bd 0d27 88bd
00000120: 6b88 d43d c785 833e 563e 57bd f2c3 34bc
00000130: e95d 9fbd 9aeb f33d 99dc 29bd 9bd2 a4be
00000140: 618a 00be 2bdc 47bd 4a40 233d fe42 21bc
00000150: eff4 f43b 1c5f 0b3d ede6 06be aefe 74bd
00000160: 3e30 113d f847 593d 1e1f dabc be5c f53c
00000170: 04b2 5b3e 6f1f a6bd ce68 e63c 0526 623c
00000180: d441 c03d a543 e43c 4460 2abd 9982 8bbd
00000190: 6f5f dc3d 5ae0 74bd c6ee 1cbe 73b9 143d
000001a0: 47c9 3bbd fe6b 60bb a85c eabd a45b c93d
000001b0: 7ed9 5cbd c897 14be 8396 243e b3e8 3abd
000001c0: 5afc 403d db64 a53a e59c 93bd 0165 bf3c
000001d0: b726 3cbd daff 123d 4c93 753d a104 80bc
000001e0: 4c90 5fbd 744b afbd b643 99bb f2d5 aa3a
000001f0: 1e24 a8bc ec0c acbd d912 0a3d 9db2 6c3b
00000200: bbfc 4b3c c407 403c 28f2 a73d f432 f63d
00000210: f742 debc 5898 b0bd 05db aebd 7c69 c63d
00000220: fb5f d23d 2f8a 34bd 613f eabc be82 d1bd
00000230: e513 aebb 5ae6 373b 0e0f 12be 9553 d93d
00000240: d29b 84bd c145 f33d d687 3dbe a154 04be
00000250: 2720 bf3d 485d cd3d 13de 6f3c 5ccc ecbd
00000260: aabe 153d d821 0c3d 2595 45be 43a3 3c3d
00000270: b61d ca3d 6ac1 00bd 53c3 3c3d c2f4 1cbe
00000280: 8c46 d8bd 4e34 f8bd 4341 9c3b f190 a4bd
00000290: 1c64 13be 9e23 71bd 77b5 6f3d 93d7 41be
000002a0: 7c7f 82be 1f62 113d ce16 d03d da2d 8ebd
000002b0: 6905 2bbb 3e8e b5bd a2d4 b03c 5760 08be
000002c0: 5990 503d 8100 213e f6de b2bd 82c8 af3d
000002d0: e8d3 983c 97b6 5dbe 2df4 2b3d 9801 bb3d
000002e0: d301 aebd 4d1a 00be 6dce e0bc 6598 20bc
000002f0: 57fe 05bd 1381 1a3d 4da2 bfb9 adb7 303d
00000300: 3a5e cd3d 4381 b53d 1407 f2bd aafd 6cbd
00000310: 5e3a 8abc 0937 80bd 28e5 1f3d 9d95 68bd
00000320: c9c0 b7bc b979 9fbd de50 223d 6ab8 afbc
00000330: 2d3b 4c3d 0def 8abd 6b50 1d3d 497c 9c3d
00000340: f3eb d1bd 24a7 063d c3f7 21bc 287c b5bd
00000350: 18b1 b83c 474e 603d f284 efbc 5e92 fd3c
00000360: a4fc b3bd 2475 193d 065c 9a3d 6dc7 99bb
00000370: beb1 563e 1ca0 3d3e 5212 60bc b58e 503c
00000380: dd08 29be 22df d5bc f25d d6bd 104e f2bd
00000390: 4af7 26bc 3377 4ebc 65a7 9bbc 0267 78bd
000003a0: 21da 8bbd f87f c8bb 03d0 10bd f13f 9fbd
000003b0: 25ed 5c3d d7d8 853d c1f0 1ebd 4dbc 81bd
000003c0: a96b 12ba bd9e 583d 4f20 a5bd 30a1 8a3c
000003d0: faa3 ec3a da8f 1e3d a39f cd3c da58 19be
000003e0: c2ee 533d ee4c 9dbe e7dd 79bd 8c83 1cbd
000003f0: f0c7 0bbe b9a6 bfbd 2504 a93d 00e4 0cbd
0.06247907 -0.03784067 -0.09101586 -0.09264916 -0.10009422 -0.082565024 -0.17466383 0.00028195977
0.11831661 -0.32075313 0.040819153 -0.10735454 0.03987832 0.0498223 -0.07802057 0.099304326
-0.06690782 -0.06593142 -0.010529092 0.01823761 -0.04698694 -0.11263845 -0.027275981 -0.022984615
0.031497803 -0.07609232 -0.11217165 0.11246562 -0.006964554 0.007896145 0.056217838 0.012538233
0.13362224 -0.034128174 -0.066052794 -0.46553907 0.082798146 -0.07434424 0.008794266 -0.06498061
-0.01914131 -0.27672124 -0.42387676 -0.031733777 -0.027341163 0.04266277 -0.052341253 0.05931513
-0.10282982 0.013479836 -0.057283036 -0.073885866 -0.05604345 -0.034344323 0.09899902 -0.08311009
0.017165616 0.027242947 -0.018472144 -0.026434885 0.087736554 0.08690325 0.0057956725 0.07170961
-0.07492985 -0.002137216 0.013310266 -0.0691483 0.09865528 0.06895713 -0.033495806 -0.06648073
0.10377582 0.25688002 -0.052549683 -0.011033045 -0.07781584 0.11910172 -0.041470144 -0.3219193
-0.12552787 -0.048793953 0.039856233 -0.009842632 0.0074754874 0.03402625 -0.13174029 -0.059813194
0.035446398 0.05304715 -0.026626166 0.02995145 0.21454626 -0.08111464 0.028126147 0.01380301
0.09387556 0.027864287 -0.041595712 -0.06812019 0.1076039 -0.05978427 -0.1532546 0.03630967
-0.04584625 -0.0034244056 -0.11443454 0.09831932 -0.053918354 -0.14511025 0.1607304 -0.045632076
0.04711566 0.0012618558 -0.0720766 0.023363592 -0.04593536 0.03588853 0.059954926 -0.015627207
-0.05458097 -0.085593134 -0.004677261 0.0013033731 -0.020525035 -0.08400902 0.03370938 0.0036117204
0.012450392 0.0117206015 0.082004845 0.12021437 -0.02713154 -0.08622807 -0.085378684 0.09688088
0.10272213 -0.044077095 -0.028594675 -0.10230015 -0.00531243 0.0028060884 -0.14263555 0.10611645
-0.06475033 0.11878539 -0.18508849 -0.12922908 0.093323044 0.100275576 0.014640349 -0.11562416
0.036558785 0.034211963 -0.19295175 0.046054136 0.09868948 -0.031434454 0.046084713 -0.15327743
-0.10560331 -0.12119351 0.004768522 -0.08035458 -0.14393657 -0.058871858 0.058522668 -0.18929891
-0.25487888 0.035493966 0.101606 -0.06942339 -0.0026095754 -0.08865021 0.021585766 -0.13318
0.05091891 0.15722848 -0.08733933 0.08583166 0.018655732 -0.21651684 0.04198091 0.09131163
-0.08496442 -0.12510033 -0.027442181 -0.009801959 -0.03271326 0.03772075 -0.00036551282 0.043143917
0.10027738 0.08862545 -0.11817756 -0.0578591 -0.016873535 -0.06260497 0.0390369 -0.056783307
-0.022430794 -0.07786889 0.039627902 -0.02145024 0.049861122 -0.067838766 0.03840677 0.07640893
-0.10250082 0.03287424 -0.009885731 -0.088615716 0.022545382 0.05476215 -0.029238198 0.030953582
-0.08788422 0.03746523 0.07537083 -0.004692963 0.20966241 0.18518108 -0.013676243 0.0127293365
-0.16507287 -0.026107375 -0.104671374 -0.118312955 -0.010190794 -0.0126016615 -0.019000718 -0.06064511
-0.06828714 -0.0061187707 -0.035354625 -0.07775868 0.053937096 0.065354995 -0.03880382 -0.06334744
-0.00055855006 0.05288576 -0.08062803 0.016922563 0.001805424 0.038711406 0.025100535 -0.149753
0.05174137 -0.30722755 -0.06100264 -0.03821139 -0.13650489 -0.09357972 0.08252744 -0.034397125

fc2.bias f4 [128]
00000000: 58f3 80be 973f 803e 6243 b9bc f1f4 9fbd
00000010: 9e87 25be 87d2 2b3e 148e 05be e756 e0bd
00000020: f900 6ebc 0a9c 79bd 2a48 1abe a6b8 833e
00000030: 0680 333f 0a8c 08bd 869e aebd 745e bebd
00000040: e0db 44bc d00b a2bd eb18 1abe 647f f43e
00000050: 724c 493e 7ac5 53bd cd5b 62be 3fa9 863e
00000060: 740b 3bbd 4038 9b3e 82f8 45be f749 f2bd
00000070: 3fb0 1dbd 034f 993e 1657 893e 7728 fbbd
00000080: e4ef 73bc a28e 1b3e 1c4b 54be 8c74 c7bc
00000090: e03d 523d 10eb f4bd 6b49 7bbe ab79 acbe
000000a0: 4511 febd 8fb7 8ebd 7b7c 2e3e 2c70 fc3c
000000b0: 72b7 fbbc 1aa7 febd 06c5 eabd f457 0fbe
000000c0: 597a c0bd 9a90 30be ae04 91be 54dc ccbd
000000d0: 0530 7ebe 068f e53e 8c86 dc3e 9403 573e
000000e0: 1912 97ba 5c29 51be bf09 4d3e aaa2 b9bd
000000f0: 9777 87bd ea5d ef3b 8e37 d2bd 9fb9 a03e
00000100: fa69 a83e 29d3 94bc bbb3 02be ce49 2d3e
00000110: e828 f2bd 5973 653f ebea d33e c9c3 c73d
00000120: 715a e3bd 4325 473d f07e 613e c2c2 f9bd
00000130: b851 a6be a4c9 87bc 86a0 46bd 7c33 edbe
00000140: 048e ad3c 9532 e33c 75bd c2bd df86 04be
00000150: 9435 12be a8c6 a23e 4afe 6abd e9c2 c13e
00000160: a426 bfbe 8f79 85be 691d c83c 837e a43e
00000170: aa60 dabe 3350 023e 0eb8 b6bd b940 b6bd
00000180: a5cb 0a3b a2d3 09be 8a5c aa3d 4859 ad3e
00000190: ea49 2bbe f597 1dbe 8451 9fbd ceb3 003f
000001a0: 8fc4 853d 4172 f2bc 01da 54bc e0dd cdbd
000001b0: 59e9 cdbd a539 d1bd c316 72be 1ef6 9dbd
000001c0: df6a bb3e 78bf cc3e cc84 6d3d 86a5 c33e
000001d0: 376f 663e be10 f9bd 67e4 733e 2b11 acbd
000001e0: 8703 a7bd f23d 813d 90c0 f1bd fedb 2bbd
000001f0: 1634 6a3e c322 66be 4e77 20be 0cc4 153e
-0.25185657 0.25048515 -0.022615138 -0.07810391 -0.16165015 0.16779529 -0.1304248 -0.10954075
-0.014526599 -0.060939826 -0.15066591 0.25726813 0.70117223 -0.033336677 -0.0852633 -0.09295359
-0.012015313 -0.07912409 -0.15048568 0.4775344 0.19658068 -0.051702 -0.22105332 0.26301
-0.04566522 0.30316353 -0.1933308 -0.11830514 -0.03849816 0.29943094 0.26824254 -0.122635774
-0.014888737 0.15191129 -0.20731777 -0.024347566 0.05132854 -0.11958897 -0.24539725 -0.33686575
-0.12405638 -0.06968605 0.17039673 0.030815206 -0.030727122 -0.12434216 -0.114633605 -0.13998395
-0.09398336 -0.17242661 -0.28323883 -0.10002962 -0.24823005 0.4483568 0.430714 0.20997459
-0.0011525779 -0.20425934 0.20023249 -0.09064229 -0.06614607 0.0073048966 -0.102645025 0.31391618
0.32893354 -0.018167095 -0.12763874 0.16922686 -0.118242085 0.8962913 0.41390166 0.0975414
-0.11101235 0.04861952 0.22021079 -0.1219535 -0.3248422 -0.016575642 -0.04849293 -0.46328342
0.021185882 0.02773408 -0.09508792 -0.12942074 -0.14278251 0.31792188 -0.057371415 0.37844017
-0.37334168 -0.26069304 0.024428086 0.3212777 -0.42651874 0.12725906 -0.089218244 -0.088990636
0.002117851 -0.13459638 0.08318432 0.3385718 -0.16727415 -0.15389998 -0.0777922 0.5027436
0.06531631 -0.029595496 -0.012991429 -0.10052085 -0.10054273 -0.10216073 -0.23641495 -0.07712959
0.36604974 0.3998983 0.057987973 0.38212222 0.22503363 -0.121613964 0.23817597 -0.08401712
-0.0815497 0.06310643 -0.118043065 -0.041957848 0.22871432 -0.22474198 -0.15670511 0.14625567

fc3.weight f4 [64, 128]
00000000: bd6f 8b3d c8e3 efbc 099b 91bd 26f4 1c3b
00000010: c2c5 4a3d 60bf 813b 12b2 723d bf91 34bd
00000020: 6677 75bd ec0a 8f3c 3eb7 353d 76ac 8dbd
00000030: 4036 e43b 00b2 dfbd 9484 e0bc 04e3 e93c
00000040: ab82 3abd 2ae1 343d d013 23bc b6a8 aabc
00000050: 10d6 b9bd 3bda 9cbd 6dd5 79bd 2089 f6bc
00000060: 2bb0 8dbd 1b6f 17bd d6b8 3a3d 93cd 4fbd
00000070: 0798 87bd 00fe 68ba df86 903d b84b 2b3c
00000080: 74eb 073d 1039 0abe 8a1e 11bd fe61 493d
00000090: d5aa 2fbd f9f7 883d ddaf ad3d 20b7 4cbc
000000a0: e04f b5bc b89b 72bd 4443 dabd 7aad 58bd
000000b0: cb54 91bd 4487 a1bd 98ca 3bbc 90a0 08bc
000000c0: 20fa 71bd 80ff c6bb 9e42 9bbd 2b98 1abd
000000d0: 2065 483b f55e 90bd 320e 653b 0cf6 80bd
000000e0: c2d7 debc 70f3 ba3b 5a1c cbbd 7c48 25bd
000000f0: eac3 443d 2664 adbd 18e0 0ebd 01f0 c9bd
00000100: 06ad b2bd 6c30 2bbd 59f2 943d 08b6 963c
00000110: 1401 b6bc 0039 71ba a6bb 52bd 00d6 80ba
00000120: 0ca5 1bbd 2bd3 a5bc 4e23 b8bb b6b9 a6bd
00000130: 79ba ea3c a1c6 9abd f285 0f3d 4ccd 07be
00000140: 9fe0 82bd 1041 94bb 380c a0bd 8f97 303b
00000150: 36f0 02be a480 96bc cfe7 8b3d 2c51 05be
00000160: e986 9f3d 990b 93bd c012 ba3c 9c13 9fbc
00000170: 2efb 0c3d 584e 0dbe 391e 0abd 0d8c 893d
00000180: 585e 45bc afe9 a3bd c1df 99bd 30f1 0a3c
00000190: b0f8 74bc 9f32 d0bc b0ac b1bc d08f bbbc
000001a0: 3ddb 56bd 7468 26bd 24f7 a33c 350c 0fbe
000001b0: 9ecd f8bc 1d7a 36bd 80e8 b33c 8098 f7bc
000001c0: 9d22 a73d 4097 903a c8c0 193b eec8 f6bd
000001d0: 90a3 b1bd d059 bebb b9a5 853d 14ac 113d
000001e0: e02e 90bd 1209 493d b89c 103d b3ae 90bd
000001f0: 0b9e 99bd 36f3 1d3d 6bbb bbbc d7a9 c9bb
00000200: 6a1d 79bd 3649 97bd 4ec8 6abb 5b3f 74be
00000210: e8aa 59bd 5052 1cbe 8379 0fbd 7475 b23c
00000220: bb11 0bbe 191b d53c b457 c3bd 797a 20be
00000230: c6b6 ccbd 014d 71be d098 8dbd 92b3 16bd
00000240: e119 893b 1d8f d03c cec3 093d 8851 d8bd
00000250: 6c9f 0dbe 34b9 aebd 98bf 8bbd a349 38be
00000260: 0c41 7bbd cf21 75be c550 2939 70a4 67bd
00000270: 3fae f1bd 85b5 30be b26f aabc 92b0 63be
00000280: d060 75bc 3b57 34be 0aa5 29bd 732f febd
00000290: a1fe 8fbe 885e 7fbd 4015 bdba 8b08 763c
000002a0: 5009 c73c f494 05be dcca e0bd cd6e 68bd
000002b0: 8992 dbbc e25e 6bbd e48e a7bc 94fd cf3c
000002c0: 2412 0abe ce97 1d3d d1ca 16be 4769 c83c
000002d0: 9639 d0bd 7025 cbbd a043 f5bd 47bb d5bd
000002e0: 6c60 07be 412f bcbd 0e42 d0bd 95b5 0dbe
000002f0: 9a47 07be 53b0 c4bc 6b9f 07bd 97c5 f9bd
00000300: c344 b3bd 441f cc3c 803f 103e 6289 b7bd
00000310: a026 003b ce34 00be f2a2 4ebd 4adc 64bd
00000320: c602 2e3d 7f45 263b c804 1bbe 789c 7cbd
00000330: 7013 bcbd a261 54be ef87 fabd 9181 5a3c
00000340: 1427 29be f7a4 35be e225 05be cfa1 63be
00000350: e615 94bd f38d d6bd 9623 303d c79b c3bd
00000360: 4876 debc b0cb a0bb 3345 a9bd 5787 af3c
00000370: 380b 6ebd d5b3 89be a834 c73c edbc 933d
00000380: a210 9a3d 06c6 05be 144e fbbc e5df 1abd
00000390: 4ff3 bbbd aa25 bb3c df95 31bd 85d9 53bb
000003a0: 0048 42be 1a46 9fbd aecf 10be 5f03 2abd
000003b0: 4e20 dbbd 4dd7 0bbe 470f 0dbe ac81 47bd
000003c0: 0e8c 43be f1e2 5abd f187 afbd f473 babc
000003d0: 9387 55be 1850 db3c c1fe d8bc d863 193c
000003e0: ccc7 01bd dad0 babd a7a5 5ebe 1034 a9bd
000003f0: 9281 06be af0e a23c 64e5 17be a330 f9bd
0.06808422 -0.02928342 -0.07109649 0.0023949235 0.049505003 0.0039595813 0.059251852 -0.044084307
-0.05992832 0.017461263 0.044364206 -0.0691766 0.006964475 -0.10922623 -0.027406968 0.028550632
-0.04553477 0.044160046 -0.009953454 -0.0208324 -0.09074032 -0.07658812 -0.060994554 -0.030094683
-0.06918367 -0.036971193 0.04558643 -0.05073316 -0.06620794 -0.00088879466 0.070569746 0.0104550645
0.03318353 -0.1349833 -0.035429515 0.04916572 -0.042887527 0.06687922 0.08480809 -0.012494832
-0.022132814 -0.059230536 -0.10657361 -0.052899815 -0.07096251 -0.07887128 -0.011461876 -0.008339062
-0.05907643 -0.0060729384 -0.075810656 -0.037742775 0.0030577853 -0.070493616 0.0034951088 -0.0629693
-0.02720249 0.0057052895 -0.09917517 -0.04035233 0.0480384 -0.084663674 -0.03488168 -0.0986023
-0.08724408 -0.041794226 0.07272787 0.018397346 -0.022217311 -0.0009201914 -0.051448487 -0.0009829402
-0.037999198 -0.020242294 -0.005619443 -0.0814089 0.02865337 -0.07557417 0.03503985 -0.13261908
-0.06390499 -0.0045243576 -0.078148305 0.0026945805 -0.12786946 -0.018371888 0.06831323 -0.13019246
0.07789404 -0.071799465 0.022714019 -0.01941853 0.03441923 -0.13799417 -0.03372023 0.06716166
-0.012046419 -0.08003556 -0.07513381 0.008480355 -0.01495187 -0.025414763 -0.02168879 -0.022895724
-0.052455176 -0.040626958 0.020015307 -0.139695 -0.030371483 -0.04455005 0.02196145 -0.030224085
0.08160899 0.0011031404 0.0023460854 -0.12050043 -0.08673775 -0.0058090463 0.0652575 0.035564497
-0.07040191 0.049080916 0.03530571 -0.07064571 -0.075008474 0.038562022 -0.022916516 -0.0061542797
-0.060819067 -0.07387011 -0.0035824957 -0.23852293 -0.053141505 -0.15265775 -0.035027992 0.021784522
-0.13580982 0.026013898 -0.095382124 -0.1567172 -0.09995799 -0.23564531 -0.06913912 -0.036792345
0.004183993 0.025458867 0.033634 -0.10562426 -0.13830346 -0.085314184 -0.06823653 -0.1799684
-0.06134133 -0.23938678 0.00016147185 -0.056553304 -0.11800813 -0.17256744 -0.020805214 -0.22235325
-0.014976695 -0.17611401 -0.04141716 -0.12411394 -0.28123954 -0.06234601 -0.0014425889 0.015016685
0.024296433 -0.13045102 -0.10976192 -0.056746293 -0.026803272 -0.057463534 -0.020453878 0.02538947
-0.13483483 0.03847485 -0.14725806 0.024464263 -0.10167234 -0.0991925 -0.11975789 -0.10436111
-0.13220376 -0.091887005 -0.10168849 -0.138388 -0.13210908 -0.02400986 -0.033111017 -0.121958904
-0.0875335 0.024917252 0.14086723 -0.089617506 0.0019554272 -0.12520143 -0.050448366 -0.055874147
0.042483114 0.0025371013 -0.15138543 -0.061672658 -0.09183395 -0.20740369 -0.122329585 0.013336555
-0.16518813 -0.1773871 -0.13002732 -0.22229694 -0.07230739 -0.104762934 0.043002687 -0.095511965
-0.02715601 -0.004907094 -0.08265152 0.02142684 -0.058116168 -0.26895013 0.0243171 0.07213769
0.07522704 -0.13063821 -0.030676879 -0.03781118 -0.09177267 0.022845108 -0.04335582 -0.0032325697
-0.18972778 -0.07777043 -0.14141724 -0.04150712 -0.10699521 -0.1365635 -0.13775359 -0.04870765
-0.19096395 -0.053439084 -0.08570851 -0.022760369 -0.20852499 0.02677159 -0.026488664 0.0093621835
-0.03168468 -0.091218665 -0.21742879 -0.08261883 -0.13135365 0.019782392 -0.148336 -0.1216748

fc3.bias f4 [64]
00000000: 909e 0dbe b1c6 11be 9240 dcbc 4959 cfbc
00000010: acbc e83e 9869 5b3e d33b d13e 9505 adbd
00000020: 1d75 c4bd 20db 00bf e436 02be a325 09be
00000030: 3519 c2bc 799c 093f aace fcbd 1667 533d
00000040: 9356 1cbe 3473 403d 810c 8dbd 8646 19be
00000050: 7c98 573d 936c b7bb f5ac fbbd 5970 053f
00000060: 1c2c 4b3e 2a36 223e 7977 64bc f450 31be
00000070: f416 4d3e 274e 043e 7a7b f93d f119 6ebe
00000080: c60b 023c 953c a33e b474 203e 6040 e8bd
00000090: 0a75 3cbd 5b24 34be d439 863e 02d1 5bbe
000000a0: ae02 aa3e b3bc f13e 8b28 5bbd 37fb 683e
000000b0: 2e7a 1ebc 6b47 983e 645f 943d a393 e83d
000000c0: c8f5 a03e a200 55bb 98ac f93d 527f 9dbe
000000d0: 9aef 8cbe 72d0 4dbe 87c7 5d3d 3d39 ec3d
000000e0: 75c8 9d3d c1ce bdbc 24d2 a9bd e51e 08be
000000f0: 8a0d 043e d803 623e b31f c63e a93f dbbd
-0.13830018 -0.14235951 -0.026886258 -0.02531113 0.45456445 0.21427 0.40865955 -0.0844833
-0.0959265 -0.5033436 -0.12716252 -0.13393264 -0.02369366 0.53754383 -0.123441055 0.051611982
-0.152674 0.046984866 -0.068871506 -0.14968309 0.052635655 -0.00559766 -0.12288848 0.52124554
0.19841045 0.15840974 -0.0139445 -0.17316037 0.20028287 0.12920438 0.121817544 -0.23252083
0.007937377 0.31882158 0.15669519 -0.113404036 -0.046010055 -0.17591994 0.26215994 -0.21466449
0.3320517 0.4721428 -0.05350546 0.22752081 -0.009672685 0.29741988 0.07244757 0.113562845
0.31437516 -0.0032501598 0.12191123 -0.307612 -0.2752655 -0.20099047 0.054145362 0.11534355
0.0770425 -0.023169877 -0.08292034 -0.13293035 0.1289579 0.22071779 0.3869606 -0.107055016

fc4.weight f4 [10, 64]
00000000: c061 cebd 3a92 a1bd 83f1 58bd 9080 3c3d
00000010: 3388 2d3d 8fd5 f43d a608 33bc a62e 643d
00000020: d671 623d 6be4 46be d2ab 303d 1128 99bd
00000030: 7977 0f3e 4d97 14be d4b5 b83d dfe6 95bd
00000040: 0f61 143d 52d3 f3bd 40c7 74bd 83e3 9abd
00000050: 1afc 23be 253c 6abc e9d2 193d d831 0fbe
00000060: e16f 993c 08a4 37bd baff fe3c 25dc b0bc
00000070: dfbb 423d e244 fdbd f56a 4e3d 6ee3 b5be
00000080: 8a4f ccbd ffea c03d 1cb9 21be eb02 68bd
00000090: 37d5 19be 1f79 53bd 6ad7 c2bd a57a bdbd
000000a0: 38c9 a1be 2999 293e 3ab2 113d e44d 8f3d
000000b0: 4371 72bd 89c3 043e d1fe 9cbd b92f 0cbe
000000c0: 0dd7 223e 0ecc 5e3c adde f5bc 5eb2 09bd
000000d0: 8665 eabd 331a c83d ff43 933d e4af e63d
000000e0: 38b5 833c 0d2a efbc 5b5e d7bb 4369 26bd
000000f0: f8f8 c03d e5b2 67bd f8f9 e6bd 3fc5 1ebc
00000100: 1246 153d adab e73c f40e a1bb ef33 453e
00000110: 3c37 88be 45e0 ac3d 69f7 42be 8155 0a3d
00000120: e207 053d 9993 84be c84d 62bd 112e 5bbe
00000130: 772b 163d c6fa 3bbe 5b76 483c 450a 8fbe
00000140: 264c f1bc e832 51be 769c 89bd 0132 6a3e
00000150: c68b abbd c987 453c 95c3 2f3b 86df b7be
00000160: 8558 3abe c4ef cb3d f9c9 7fbd dff2 08bd
00000170: 27a7 74bd d631 d7bc 2afb 60be c043 14be
00000180: 2cd9 7cbe fa81 7dbe 1712 76bd 596a 23be
00000190: ab5d 15bd dbe8 fcbd 3164 013e b13f 83bd
000001a0: 14c7 93be 69c1 a0bd 549e 32be 5ab8 983d
000001b0: 6c0f 62be 1176 e83c 0ff2 11be 9ed5 de3c
000001c0: 645d 3fbe 7837 aebc be97 8d39 43b6 ea3d
000001d0: 7d7f 7bbe db9c 643b 4526 3fbe ea64 cabd
000001e0: df7e c53d c5a7 02be e19a 843d ae06 98bd
000001f0: e77a d5be fadb 8dbe b0da 35be 6229 013e
00000200: f365 d4bd fb25 f7bd defa 90bc 589f 3abe
00000210: c4c0 343c df1b babe 4c31 9fbe ff27 343d
00000220: 4f1d 09be 8e29 94be 677d 70bd 643e 92bd
00000230: 7f62 6ebd 4165 76be 3e2b 4c3d dd4a 38bd
00000240: 9044 b13d ff00 413e bb51 11bd b538 fbbd
00000250: 221b d7bd ba72 ae3d af76 6c3d 65e3 eabe
00000260: 3e8a 26bc fcbe a4bc b566 bfbd b74c 203e
00000270: 71c4 fbbd e1b9 6fbe f670 2fbd da00 bcbe
00000280: 20cb ba3c 402f b73d 5c4c 963d 39cd bebc
00000290: 97aa 2f3d bbe2 a13d c000 b03d c46b 8abe
000002a0: f761 8cbe f9fb 153e 6f14 d2bd a84a 01be
000002b0: 9df7 463d 1df8 97bc f26f be3d b07a 4e3d
000002c0: f6fa e7bd c070 e73c 74ff 3dbd 5e25 69be
000002d0: c4f6 0f3d 1f26 603c b73f c03d 0026 fbba
000002e0: abb4 be3d fa77 57bd 32a0 57bd af51 f1ba
000002f0: a2b4 8dbd a36d 373e 9c71 e1bc 0143 53bd
00000300: 75bd 87b9 8ba1 ac3c 7328 13bd fa0a 993b
00000310: 1c30 b9be 8f6e a9bd 4433 c7bd d0c4 95bc
00000320: 50f6 e73c 1b32 cbbe 34d4 d73d 2fd4 71bd
00000330: 3ca5 6fbc bc02 40bd b2b8 04be 5bf4 57be
00000340: 1511 8fbc 2d26 1abe fee6 a9bd 3ae5 91bd
00000350: 24dd 13be c485 2dbe b701 4cbd 9cbb abbe
00000360: 51b0 1e3d 948c 043e 9bd7 dc3d acc3 3d3d
00000370: 959c bb3c 56ee 0b3e bde2 98bd faad a5be
00000380: 35cf 7cbe ed84 b5bd 098e ae3c 8c0d 343d
00000390: 1dab 83bd 8b7d 7d3c 64d7 aabd dd4e 14be
000003a0: cd0c 93be 6361 ae3d aa96 9c3c e587 883d
000003b0: 97b7 94bc f90f 4a3e d46b b0be 43b2 3bbb
000003c0: 8b81 0abe d5c8 d1bd 38c5 243e 2177 d5bd
000003d0: 3427 a93c 6885 e83d 49ce 35bd 5a3f 8ebd
000003e0: a6c7 a3bd 920a ae3a 2af8 ed3d c9c4 f8bd
000003f0: 252f 52bd 15eb 6bbd 0fea 86be a91f 46bc
-0.10077238 -0.07889219 -0.0529647 0.046021044 0.042366218 0.119547956 -0.010927355 0.05570855
0.055284344 -0.19423072 0.04313261 -0.07478345 0.14010419 -0.14510842 0.09019056 -0.07319426
0.036225375 -0.119055405 -0.059760332 -0.07562926 -0.16014138 -0.014296566 0.037554655 -0.13983858
0.018730106 -0.044834167 0.0311278 -0.021589348 0.04754245 -0.12366654 0.05039497 -0.35525078
-0.09976108 0.09419822 -0.1579327 -0.056643408 -0.15022741 -0.051629182 -0.09513743 -0.09251908
-0.3159883 0.16562332 0.03557036 0.06997278 -0.059190046 0.12965216 -0.0766579 -0.1369008
0.15902348 0.013598455 -0.030013407 -0.03361737 -0.11445145 0.09770622 0.071907036 0.11264017
0.016077623 -0.029194856 -0.0065725273 -0.04062773 0.09422487 -0.05656709 -0.112781465 -0.009690582
0.036443777 0.028280104 -0.0049151126 0.19258092 -0.2660464 0.084412135 -0.19039692 0.03377295
0.03247822 -0.25893858 -0.05524996 -0.21404292 0.036662545 -0.18357381 0.012235249 -0.27937523
-0.029455256 -0.20429575 -0.06719296 0.22870637 -0.08376269 0.0120562995 0.0026819457 -0.35912722
-0.1819783 0.09957841 -0.062448476 -0.033434745 -0.05972972 -0.02626888 -0.21970811 -0.1447897
-0.2469222 -0.24756613 -0.060075846 -0.15958537 -0.03646628 -0.12349101 0.12635876 -0.064086325
-0.28862822 -0.0784939 -0.1744321 0.07457037 -0.22076195 0.028376611 -0.14252494 0.02720147
-0.1868797 -0.021266684 0.00027006672 0.11460545 -0.24560352 0.0034883532 -0.18666942 -0.09882529
0.09643339 -0.12759311 0.06474853 -0.07423149 -0.4169533 -0.2770689 -0.17759204 0.12613443
-0.10371008 -0.12067791 -0.017697748 -0.18224847 0.011032287 -0.3634939 -0.31092298 0.043983456
-0.13390087 -0.28937954 -0.058713343 -0.07140806 -0.058199402 -0.24062063 0.049845926 -0.04499327
0.086556554 0.18848036 -0.035478335 -0.122666754 -0.10503222 0.08517976 0.057730373 -0.45876613
-0.010164795 -0.0201106 -0.09345762 0.15654264 -0.122933276 -0.23410751 -0.042832337 -0.367194
0.022801936 0.08944559 0.07338783 -0.023291217 0.042887297 0.079045735 0.08593893 -0.27035344
-0.2741849 0.14646901 -0.10257804 -0.12626135 0.048575986 -0.018550927 0.092986956 0.050409973
-0.11327164 0.028252006 -0.046386197 -0.2276816 0.035147443 0.013680964 0.09387153 -0.0019161105
0.093118034 -0.052604653 -0.05264301 -0.0018411184 -0.069192186 0.17912917 -0.027519993 -0.05157757
-0.00025890363 0.021073123 -0.035927247 0.004670498 -0.36169517 -0.082730405 -0.09726575 -0.018282324
0.028315693 -0.39686665 0.105385214 -0.059040245 -0.014626797 -0.046877608 -0.1296108 -0.21089308
-0.0174642 -0.15053625 -0.082960114 -0.071237996 -0.14439827 -0.16945559 -0.049806323 -0.33541572
0.038742367 0.12944251 0.10783311 0.046329185 0.022901813 0.13665137 -0.07465122 -0.32359296
-0.24688418 -0.08863244 0.021307962 0.04395823 -0.06429122 0.015471826 -0.08341864 -0.14483209
-0.28720704 0.08514669 0.019114811 0.06666545 -0.018153949 0.19732656 -0.34457266 -0.0028640188
-0.13525979 -0.10243384 0.16090858 -0.10423113 0.020648576 0.1135357 -0.044386182 -0.06945677
-0.07997064 0.0013278297 0.11619599 -0.12146909 -0.05131449 -0.05759724 -0.26350448 -0.012092509

fc4.bias f4 [10]
00000000: 8fed 773d dfa7 bcbe 21ae 4b3e 07c3 7d3e
00000010: 2d62 69be ff09 d93e 3d82 8a3e 8248 643d
00000020: e668 e3bd 1705 06bf
0.060529288 -0.36846825 0.19890644 0.24781428 -0.22791357 0.4239044 0.2705249 0.05573321
-0.11103992 -0.52351516
