runs/Mar02_17-08-23_cssd901383-Run(lr=0.01, batch_size=128, patience=1)-valid/checkpoint.pt (torch_old, 972387 bytes, 8 tensors)

fc1.weight f4 [256, 784]
00000000: b0ec 733c 73b3 05bd 8da6 f6bd bef0 89be
00000010: 9541 db3d bcb6 febd d75d c8bd 846a 323c
00000020: c2cd e4bd f5d1 d63d 425b 923e 7857 903e
00000030: fb7e bf3d 6c02 203e 0de2 323e 90b5 163e
00000040: 54b5 923e 8b19 8d3e f916 a93d 1819 eebd
00000050: 9053 5ebe 705b 5abd f851 8dbd 35f0 2abe
00000060: 0d79 cbbd e48a 06bd f9d8 9ebd 2454 adbb
00000070: 6d52 98bc a336 90bd da41 7dbe 2ab2 a5be
00000080: bb84 01bd 435f 44be 639b 9bbe 01a9 cdbe
00000090: a9bf f6bd a2d7 3a3e 28ad 673e abb3 0c3e
000000a0: f00b 80bc 3435 f13b fa38 ab3d c787 2cbd
000000b0: 60d6 423d d8c8 883e 0ac0 bd3d af5a a6bd
000000c0: 8745 babe ae29 c7be 0d1c 8bbe 1c9a 76be
000000d0: ba5e 55be 8a4b 36be 3470 a3bd 86b3 7dbc
000000e0: e174 babc db2e 31be dbea a9be f0f3 40be
000000f0: bac5 a1bd 169c 9cbe d0fd dcbe 8368 5dbe
00000100: 84a3 36bd abc4 3fbd c72f 18bd ed77 4ebc
00000110: 7001 5cbd 9fd7 f0bc f591 48bd c1f5 9ebd
00000120: 3964 743c 1810 55bc 5ecc 88bc dc9b 8ebd
00000130: b68a 37be d226 cfbe f58e d2be 07fa a2be
00000140: d74f 0cbd 14fb 24be 191f 9ebd f14e 72bd
00000150: edd1 08be 5c75 54be ace4 9fbe c1d6 97be
00000160: b901 86be 2b4b aabe b599 ecbe 1bba 94be
00000170: 85df 4bbe 89ac 0cbe 4a11 dbbc e8d8 7b3d
00000180: 07c2 66bd 7702 3fbc 6b40 a43d 2113 9ebc
00000190: be0f 393b 4c3f fabc fa6c 93bd 1020 6fbe
000001a0: 1191 55be 6d55 d4be 9069 d3be 728f 77be
000001b0: 23e6 0dbe d19d 4cbe ec62 c4bd 62bc bebd
000001c0: 9dd3 a7bd 9727 5cbe 0742 8bbe 1946 4ebe
000001d0: b925 8cbe b7dc a6be 6ea9 06bf 541e 03be
000001e0: 07c1 e4bb e2e1 fabc 74cb b83a 4938 a63d
000001f0: 3505 5e3d a6cb 1d3d d1e8 6b3d 7135 99bc
00000200: 2211 20bd b773 763b 7398 28bd da56 8dbd
00000210: 9863 c9bd d1e1 a5be d9a4 aebe 71e0 94be
00000220: c294 52be dfe7 cdbd 47d9 8dbe 0ff0 64be
00000230: 8dbf d6bd 3073 69be 7d32 12be ca0a 56be
00000240: abd9 58be 6af6 f4be 6e1a a9be eeb9 063d
00000250: 19cd e93a d7cf 1bbd e9ea 16bc 6250 633d
00000260: 9c67 b33d 42ef 2a3d 37bf 613d fa37 9b3c
00000270: c972 183d bca1 debb 6b66 e3ba 752a 83bd
00000280: df75 7ebb 8aea 3fbe fda6 a4be 77eb 6bbe
00000290: 56be bbbe 2733 62be c857 20be cea9 8bbd
000002a0: 1568 32be 66f3 13be 9d3e e1bd 90e2 acbe
000002b0: 9c0a 2fbe b63d eabe 1644 52be ccc2 9fbb
000002c0: 435b 8fbd ee47 27bd 23e6 f2bc b38e 06bb
000002d0: 9e9b 693d 136d 563d 184c 1a3d 4b25 a63c
000002e0: 716b 7b3b a86f d6bc f49a cc3c 4410 e43c
000002f0: dfee 903c 7f75 b8bd 1ef0 91be a1da 99be
00000300: 2976 91be 0ad7 cdbe 349f ebbe df05 fabd
00000310: 4d6f c0bd 8ba4 32bd fb85 6ebe bd98 adbe
00000320: bd8a 9dbe e50f c6be ffe1 c8bd 3539 1abd
00000330: 99af bebd b8e3 1fbd 9eb4 c1bc 1d90 dd3c
00000340: 8778 f6bc 17ad 0b3d aa60 163d fa38 bb3c
00000350: ebc7 4dbd 3770 0bbd 7af2 61bc 5091 22bd
00000360: 8968 81bc 95b9 49bc d94e 65be e5b9 b5be
00000370: 3d32 c0be c2ad dabe c77b 01bf 7243 cfbe
00000380: a701 b2bd 8111 0ebe c01a 4bbe f7f3 bebe
00000390: 75d8 d2be 0bb6 b9be 804e 07bd 37fe 093c
000003a0: 7af0 40be aca8 fbbd 9110 643c 4e31 493b
000003b0: 6f4d 8a3c 1321 933d 116e 18bd 1348 b839
000003c0: 0bec dcbd 39d0 4cbd 8055 dcbc ad62 debd
000003d0: b7e9 84bc f8ca 063e c56a 4ebe 40d0 a1be
000003e0: bb6e 8ebe 4c88 40be 7c5d 5ebe 7619 84bc
000003f0: 64d0 20be 696d abbe 3223 efbe 3406 f2be
0.014887974 -0.03264184 -0.12043486 -0.26941484 0.10705868 -0.124371976 -0.097835235 0.010889653
-0.11172058 0.10489265 0.2858525 0.28191733 0.093503915 0.15625924 0.17469044 0.14717698
0.28653967 0.2755855 0.08256335 -0.1162588 -0.21711564 -0.053309858 -0.069004 -0.16693194
-0.09935198 -0.0328473 -0.07756228 -0.0052895714 -0.018593991 -0.07041671 -0.24732152 -0.3236249
-0.031620722 -0.19176964 -0.30391988 -0.40168002 -0.12048275 0.1824632 0.22624648 0.13740413
-0.015630692 0.0073610786 0.08360477 -0.042121675 0.047567725 0.26715732 0.09265144 -0.08122765
-0.3638117 -0.38898987 -0.2716984 -0.24082226 -0.20836917 -0.17802253 -0.079803854 -0.015484696
-0.02276081 -0.1730303 -0.33186993 -0.18843055 -0.078990415 -0.30587834 -0.43162394 -0.216219
-0.044589534 -0.046818417 -0.03715494 -0.012601835 -0.05371231 -0.029399691 -0.04896732 -0.077617176
0.014916473 -0.013004325 -0.016699012 -0.069633216 -0.17924008 -0.40459305 -0.41124693 -0.3183138
-0.03425583 -0.16111404 -0.07720775 -0.059157316 -0.1336133 -0.20747894 -0.3122915 -0.29656032
-0.2617319 -0.33260474 -0.4621102 -0.29048237 -0.19909485 -0.13737692 -0.026741643 0.061486155
-0.056337383 -0.0116583025 0.08020099 -0.01929623 0.0028238143 -0.03054776 -0.0719852 -0.23352075
-0.2085612 -0.41471425 -0.41291475 -0.24175814 -0.13857321 -0.19982077 -0.0958918 -0.09313275
-0.08194659 -0.21499477 -0.27198812 -0.20143928 -0.2737253 -0.32590267 -0.5260228 -0.12804538
-0.0069810185 -0.030625287 0.001409872 0.08116204 0.054204185 0.038524292 0.057595078 -0.01870224
-0.03907884 0.0037605593 -0.041161012 -0.06901331 -0.09833449 -0.32398847 -0.34110144 -0.29077485
-0.20564559 -0.100539915 -0.27704832 -0.223572 -0.10485754 -0.22797847 -0.14277072 -0.20902553
-0.21176784 -0.4784425 -0.33027977 0.03289216 0.0017837613 -0.03804001 -0.00921128 0.05549658
0.08759996 0.04173208 0.055113997 0.01894759 0.037218843 -0.0067941826 -0.0017349249 -0.064045824
-0.003882758 -0.18741813 -0.32158652 -0.23039041 -0.36668652 -0.22089826 -0.15658486 -0.06819497
-0.17422517 -0.14448318 -0.10998271 -0.33766603 -0.17093891 -0.45750207 -0.20533785 -0.0048755165
-0.06999829 -0.040840082 -0.029650753 -0.0020531833 0.057033174 0.052350115 0.037670225 0.020281455
0.00383636 -0.026176289 0.024976231 0.027839787 0.017692028 -0.090067856 -0.28503507 -0.30049613
-0.28410462 -0.40203124 -0.460199 -0.12208151 -0.09396229 -0.04361395 -0.23293297 -0.33905593
-0.3076991 -0.38684002 -0.0980873 -0.037652213 -0.09310836 -0.03903553 -0.023645695 0.027046258
-0.030086769 0.03410062 0.03671328 0.022854317 -0.050239485 -0.034042563 -0.013790721 -0.039689362
-0.015796917 -0.012312313 -0.22393359 -0.3549339 -0.3753833 -0.42710692 -0.50579494 -0.40481144
-0.086917214 -0.13873865 -0.19834423 -0.37295505 -0.4118077 -0.362717 -0.033033848 0.008422426
-0.18841735 -0.12288031 0.013919965 0.0030699554 0.016882626 0.07184043 -0.037214343 0.00035148914
-0.10787209 -0.050003264 -0.026896238 -0.10858665 -0.016224725 0.13163364 -0.20157917 -0.31604195
-0.27818856 -0.18801993 -0.21715349 -0.016125422 -0.15704495 -0.3348191 -0.4670654 -0.47270358

fc1.bias f4 [256]
00000000: 5822 153e 851e d7bc 9d56 94bd 1ee8 d23d
00000010: 4e05 0dbc b372 8c3e 8154 053e 63c5 0a3e
00000020: 3205 b9bc 5d66 f2bc ef04 93bd 93be 01be
00000030: 7ab9 a8bd a374 49bd ba0a 483c 8eee 67bd
00000040: 4084 8e3e e0f6 913d 50f4 bcbd 5c93 82bd
00000050: 0f3e c5be 6874 6bbd a29a d23d 46b9 653d
00000060: cd14 1c3f c808 8b3e 5040 23be 3beb 81bd
00000070: 5cb1 54be cf6f 4dbc 824d c43e 85f5 8cbe
00000080: c251 b13e 96e2 20bc 8e91 b33e d326 aabd
00000090: fd34 12bd 61e9 93bd 4f77 a43e ed32 6bbd
000000a0: 692a 2ebd 262e c3bd 417c 89bd ff6c eb3c
000000b0: d9c9 15be 2535 3abd 9662 b23e b66a c0bd
000000c0: 27be 83bd 990b e53c 5d71 99bd 27e7 6dbd
000000d0: fe21 12be 4773 463d a84d a43e 9d51 d1be
000000e0: a38b acbe 900d a3bd 7f0c b53e 4615 d83c
000000f0: 6d70 6ebd 77e0 a83b c47b b3bc 08e6 f03e
00000100: 330f 953e 463c 3ebd aca0 8ebd f7f6 373e
00000110: 36a7 bc3d 3a49 84bd a8aa 34bd 2610 8bbd
00000120: 6146 993e 77aa e7bc b2ce 593a 7e79 c23a
00000130: dc24 59bd 4115 2e3d 84b8 7a3d 3d3d 1f3f
00000140: da36 55bd ff6f 2dbe dedc 11bb 1237 b33d
00000150: ddd7 d8bc afef bcbd da64 b83e 6d9a 323e
00000160: 204a 87bb decb b3bd f29f 073f 9362 4a3e
00000170: 585d 87bd 794c 9c3c 5ee0 9bbe b136 853e
00000180: 1ae3 3cbe b996 c8bd 8911 ce3d 6298 d73c
00000190: 7e58 8fbd 26a8 09bc 2cf9 83bd 37a8 44bd
000001a0: 7603 a8bd 4a40 99bd 5952 7abd 6c87 c7bd
000001b0: 74b5 bebd 1529 14be fa50 38be f541 f6bd
000001c0: c74c 0b3e 4204 133f 3896 89bd 8e66 4ebd
000001d0: a954 b1bd 5fc7 4bbd facf c1bd e3ff c2be
000001e0: 3eb1 603e 7850 61bd 203a 4d3e d77f aa3e
000001f0: c7ab efbc bf30 c0bd e77a 373e 3a55 10bd
00000200: 5f3f 293f 374e eb3d c514 573e 301f eebd
00000210: 9cd0 f4bc bf4c a4bd f54a 4fbc 2f51 02bc
00000220: fac5 863e 09e7 19bd fcfa 8abd 4bb4 a83d
00000230: 3638 8dbd 1002 923e bd73 4a3c c170 b83e
00000240: 5eea 98be 268d 5f3d 4369 173f 03fa 88bd
00000250: 5242 db3e 4dca f9bd 899a f33c 54f1 b9bd
00000260: 2f6b b53c 0071 1bbc 585b a43e b1ed d93d
00000270: aab4 0c3d a752 04bd 4a81 a1be 3946 bd3e
00000280: 434a 0ebd 610a fb3c 8204 08bd a2ab 50bd
00000290: 4ea5 fdbc 8737 b5bd 0cc2 08be 907a b6bd
000002a0: 733f 88bd d45b 4a3e 450f 84be ec31 34be
000002b0: d899 45bd c64e 8e3d 3574 aabd 53fd 02bd
000002c0: aaf6 b0bd 3fc8 5c3e d9ee 9dbd ab33 703e
000002d0: f132 3dbc 04e9 a73d 0a7a 1cbb 3907 2dbd
000002e0: a965 a33e 4ede 86bd 6b17 85bd 7c55 97bd
000002f0: fc67 8b3e 3ebb b6be 5823 71bd f72a d83c
00000300: bcdc b2bd e66b 7cbc eb8a 96bd 2723 8a3c
00000310: a40b a6bd 03df 993e 1652 41be 238d a3bd
00000320: 273e a8bd 65fa 9d3e cf70 47bd 7a67 893c
00000330: 7cdc 6ebc bac0 013e 623a fa3c c2d6 a2bd
00000340: 7b2b 9cbd 2981 22bd 8d06 e9bc e515 bbbd
00000350: dda5 1dbd 2364 3a3e 89bf 50bd 17b8 6c3e
00000360: d15a 45bd b2e8 4ebd ea83 183e dbec 84bd
00000370: 2dbf 32bd d31b bcbd 43fc 0cbd ffe7 c1be
00000380: d432 613e 6f09 7dbd d79f 7bbd 3135 2bbd
00000390: 493a 7d3d 05e6 96bd 6f4c 1a3f 7e3c 153e
000003a0: c398 90bd 3367 91bd a374 4ebc 8c99 a3bd
000003b0: 557b 063f 6d7b 2dbd f5a6 63be 52f7 b7bd
000003c0: 1226 d9be 01f6 543c 5b83 1dbf 4d48 a7bd
000003d0: 96b1 21bc fe5d 46bd 04a5 503d 93e3 c43d
000003e0: 3c8d 01be 50ca 8d3e b9a4 0c3e 3dc9 71bd
000003f0: f007 663e 96d0 89bd e15b a33d 2987 a2bd
0.14563882 -0.02625967 -0.07243083 0.10298179 -0.008607222 0.2743126 0.13020517 0.1355186
-0.022585485 -0.029589826 -0.071786754 -0.12670355 -0.08238502 -0.0491835 0.012209589 -0.056623988
0.27835274 0.07127166 -0.092262864 -0.06375763 -0.3852391 -0.05748406 0.102834 0.056084894
0.6096924 0.27155137 -0.15942502 -0.06343695 -0.20770782 -0.012538864 0.38340384 -0.27531067
0.3463269 -0.009819647 0.35071987 -0.083081864 -0.035695065 -0.07222248 0.32122275 -0.057421613
-0.042520914 -0.095302865 -0.06713153 0.028738497 -0.1462778 -0.04546084 0.3484084 -0.093953535
-0.06432753 0.027959632 -0.074923255 -0.058081772 -0.1427078 0.04844978 0.32090497 -0.40882578
-0.33700284 -0.07961571 0.35361096 0.026377331 -0.058212686 0.0051537114 -0.021909602 0.470505
0.2911316 -0.0464442 -0.069642395 0.17965303 0.092115805 -0.06459279 -0.044108063 -0.067901894
0.29936507 -0.028279526 0.0008308693 0.0014837233 -0.053013667 0.042500738 0.061211124 0.6220282
-0.052054264 -0.16937254 -0.0022256891 0.08750738 -0.02647012 -0.092254035 0.36014444 0.17441721
-0.0041287094 -0.08779119 0.5297843 0.19764166 -0.06609601 0.019079434 -0.30444616 0.2601829
-0.18446007 -0.09794373 0.10061938 0.026317779 -0.069993004 -0.008401906 -0.0644401 -0.048011985
-0.08203785 -0.07482965 -0.06111369 -0.097426265 -0.09311953 -0.14468797 -0.1799964 -0.12024299
0.13603507 0.5742837 -0.06718105 -0.050390773 -0.08658726 -0.049750682 -0.094634965 -0.3808585
0.21942613 -0.05500838 0.20041704 0.3330066 -0.029256715 -0.093842976 0.17917977 -0.03523753
0.6611232 0.11489528 0.21004017 -0.11627042 -0.029884629 -0.08022451 -0.0126521485 -0.007953926
0.2632292 -0.037573848 -0.06786153 0.08237513 -0.06895487 0.285172 0.012356696 0.36023524
-0.29866308 0.05457797 0.5914499 -0.06688311 0.42824036 -0.12196789 0.029736774 -0.09079233
0.022145836 -0.0094873905 0.3210094 0.10641039 0.034351982 -0.032305386 -0.31543952 0.36967638
-0.03473879 0.030644597 -0.033207424 -0.05094493 -0.030962612 -0.088484816 -0.13355273 -0.08910096
-0.06652727 0.19761592 -0.257929 -0.17597169 -0.04824242 0.069486186 -0.08322946 -0.03197987
-0.086407974 0.21560763 -0.07711572 0.2345721 -0.01154779 0.08198741 -0.0023876452 -0.042243216
0.31913498 -0.0658537 -0.06498607 -0.07389352 0.2722777 -0.3568973 -0.058871597 0.026387675
-0.08733508 -0.015406584 -0.07350715 0.016862465 -0.08107689 0.30052957 -0.1887897 -0.07985904
-0.082149796 0.30855098 -0.048691567 0.016772974 -0.014578935 0.12671176 0.030545417 -0.07951118
-0.07625481 -0.039673958 -0.028445506 -0.091350354 -0.038488258 0.18202262 -0.050963912 0.231171
-0.048182312 -0.050514884 0.14894071 -0.06490489 -0.04363935 -0.091849945 -0.034420263 -0.3787231
0.21992046 -0.061776575 -0.061431732 -0.041798774 0.061823163 -0.073680915 0.6027288 0.14573857
-0.07060387 -0.07099762 -0.012601051 -0.07988271 0.5253194 -0.042354036 -0.22231658 -0.089827195
-0.42411858 0.012998105 -0.6152856 -0.08168087 -0.009869 -0.04842948 0.05093862 0.09613719
-0.12651533 0.27693415 0.13734712 -0.059029806 0.22463965 -0.06729238 0.07976509 -0.07935936

fc2.weight f4 [128, 256]
00000000: a361 bfbd c069 2fbc c777 003a 8d0c eabd
00000010: fc32 343d e157 23bd 9a78 e2bd 2a16 04bd
00000020: dc82 c0bd 4a6b 36bd 901f 56bd d30e 20bd
00000030: f9e5 bfbd 26a5 3ebd 7273 d3bd 018f dfbd
00000040: f0aa 4ebd f0bb ca3c ac33 18bc bdd8 6ebb
00000050: 744c 973c b7ea 11bc 3b54 04bb c1ac f5bc
00000060: fc1f f8bc 7c92 0b3b 3c64 fb3c 112b afbd
00000070: cc75 b53c 60c6 3bbc 66c6 7abd 42a4 91bd
00000080: 67b1 b1bc 5ceb f7bc b3b6 c0bd ce1e 99bd
00000090: f76f 5dbd 189d 78bd 9832 58bd 0c9e eabd
000000a0: 7b01 19bd df67 8cbd 3757 cebd 9c9f 713d
000000b0: 1d1a e8bd 3f9a d3bd 9db0 42bd 5f9c abbd
000000c0: 649d b2bd ea87 d6ba f62b 01bd 725c efbd
000000d0: 3211 d4bd b016 48bc c968 f2bd 14e8 adbd
000000e0: 4fac fabd 8861 3bbc b7f1 02bc 28b5 2b3c
000000f0: c594 71bd a2b2 4fbd 397f 5fbb 4045 843a
00000100: a37e a5bc f4d0 adbd d876 9abd 2bad 56bd
00000110: c5a9 6bbd d89c 6dbd 523c 81bd f8ad 72bd
00000120: e744 06bd 295d f5bd 56e9 37bd 7c71 f9bc
00000130: e459 14bd a5bc 16bc f718 05bc a6a0 0ebd
00000140: f802 2d3c 59b7 e6bd 1945 b5bb b384 33bd
00000150: 4f9c 3bbd 1857 92bc 7603 0fbd 3056 89bd
00000160: 058f cebd 0599 f9bd dc0e 573d b950 25bd
00000170: 0fc4 45bd 57fe 39bd ed45 f9bd e7fd cfbc
00000180: 2b00 f8bd e0b4 cbbc ed70 9cbd 6aa5 f4bd
00000190: 1e6d 88bb efad abbc a412 6abd 4e6e 57bd
000001a0: d524 51bd a35d 2cbd 947f e1bd 2016 0e3b
000001b0: 9f80 f4bc fcc2 68bd c827 b0bc 3e41 e8bc
000001c0: ea09 32bd 9dfa 66bd 78be 56bd 0dc5 51bd
000001d0: 6acb c9bd cca2 823c 60d8 393c 7da5 0abd
000001e0: 007c d0bd 6823 a53c e995 6dbd 2882 70bd
000001f0: 5e0b 92bc 915d a3bd 5679 f0bd 3009 763d
00000200: 9c91 b23c 8762 c1bd cc34 873c 9467 6ebc
00000210: dc61 02bd 7058 b83b a0dd debb 7ae8 c6bd
00000220: 2067 69bb 3e1a 3abd e66d e1bd 7acf a8bd
00000230: 4832 183b b01c ebbd 8e3f 09bb 07cd b8bd
00000240: 31d0 edbd e2c9 90bd 9274 a2bd 3310 73bd
00000250: 0d60 24bc dd62 bebd c40e fd3c a7a8 21bd
00000260: 00f8 b439 d82c 38bd 5861 9cbc ba72 52bd
00000270: 9cc1 32bd ce69 65bb 4061 8cbc 6bd6 efbd
00000280: 01f8 93bd 8bf8 b9bd 34b8 6ebc aa04 f1bd
00000290: 6c28 9ebd 1368 dcbd 2df2 1cbd 7021 6fbd
000002a0: c49a d83c b5d3 9fbd ff03 d1bd 0216 74bd
000002b0: b37f f7bc 52d5 70bd ce33 2bbd c080 adba
000002c0: d021 7c3d d3a6 c8bd a5ac 32bc 4b6c edbc
000002d0: 3c36 b0bc 0648 c4bb a882 6fbc ccfa edbd
000002e0: 07d7 e0bd 50a0 76bd b63c d2bb 6cb4 f9bc
000002f0: 50d0 e1bb 8063 4ebb 6b4b b2bd 7815 b2bc
00000300: 961a 353d 3adc c2bd 60f8 da3c cbbb babd
00000310: 6005 04bd 9211 83bd 13a9 8bbc 6591 1ebc
00000320: d35a aabd 1fee edbd 6509 44bc d32f b5bd
00000330: f8ef 16bd b5dd edbd 8707 75bd b632 2dbd
00000340: 3065 433c af86 8ebc 800b 93bd 4842 acbc
00000350: 5007 7d3d 5831 d0bc 7c12 f73c 8902 a3bc
00000360: 2335 e1bd 7dee d9bc a6e3 0cbc a91a f2bc
00000370: 36b3 8ebd 2569 48bd e7bb 9cbd 763f a0bd
00000380: 2b96 5abd 64e2 01bd e2e9 36bd b6b4 173d
00000390: 172d dabc 9290 02bd 5aa0 afbd 8024 f8ba
000003a0: c68b 5c3d 622a f3bd 90c5 923b 1048 4f3c
000003b0: 3501 c4bd 7171 9fbd 9009 3cbc 2481 63bd
000003c0: 3cbb 1e3b e752 dbbc 9cb7 bf3c e45e a5bd
000003d0: e832 c7bc 94a9 7ebd ba50 ccba 00fa 9ab9
000003e0: db74 51bd ad96 4ebc 5b0f 72bd a41d c43c
000003f0: 5c15 c0bd 0c55 97bd e3f2 60bc 0fca a4bc
-0.093447946 -0.010706365 0.0004900661 -0.11428175 0.043993935 -0.03987873 -0.11058159 -0.0322477
-0.093999594 -0.044535913 -0.052276194 -0.039076637 -0.09370036 -0.046544217 -0.10324754 -0.10915948
-0.050455987 0.024747819 -0.009289663 -0.0036445104 0.018469073 -0.008906058 -0.0020191807 -0.029989602
-0.030288689 0.0021297028 0.030687444 -0.08553136 0.022150896 -0.0114608705 -0.061224364 -0.07111408
-0.021691037 -0.030263595 -0.09409847 -0.07476579 -0.054061856 -0.06069669 -0.052782625 -0.11455926
-0.037354928 -0.06855749 -0.10075229 0.058990106 -0.11333106 -0.103321545 -0.047531713 -0.08379435
-0.08721426 -0.001636741 -0.031536065 -0.116875544 -0.10354842 -0.01221244 -0.118363924 -0.08491531
-0.122398965 -0.0114368275 -0.0079922 0.010480203 -0.05897977 -0.050707467 -0.003410293 0.0010091439
-0.020201987 -0.0848712 -0.07542199 -0.05241124 -0.05753495 -0.058010906 -0.06310333 -0.05924794
-0.032780554 -0.119806595 -0.04490026 -0.030449621 -0.03621854 -0.00920025 -0.008123628 -0.034821175
0.01055979 -0.112654395 -0.0055319187 -0.043827724 -0.045803364 -0.017863795 -0.03491541 -0.06705892
-0.100858726 -0.12187389 0.052504405 -0.040360186 -0.04828268 -0.045408573 -0.121715404 -0.025389625
-0.12109407 -0.024866521 -0.076387264 -0.11945613 -0.0041633984 -0.020956961 -0.057146683 -0.05259543
-0.051060516 -0.042081486 -0.11010662 0.0021680668 -0.029846488 -0.056826577 -0.021503344 -0.028351422
-0.043466486 -0.056391347 -0.05242774 -0.051213313 -0.09853251 0.015946768 0.011343092 -0.03384923
-0.10179901 0.020158485 -0.058004294 -0.058717877 -0.017827686 -0.07976831 -0.11741893 0.060067356
0.021797948 -0.09442621 0.016504668 -0.014551062 -0.031831607 0.005625777 -0.006801322 -0.0971231
-0.0035614446 -0.045435183 -0.110072896 -0.08242698 0.002322333 -0.11480081 -0.0020942423 -0.09023481
-0.11611975 -0.07069756 -0.0793239 -0.05934162 -0.010032666 -0.092962004 0.03089083 -0.03946748
0.0003451705 -0.04496464 -0.019089386 -0.051378943 -0.04364167 -0.0035005691 -0.017136216 -0.11710819
-0.07225037 -0.09080609 -0.014570285 -0.11768468 -0.077225536 -0.10762038 -0.038316894 -0.058381498
0.026440986 -0.07804052 -0.1020584 -0.0595913 -0.030212259 -0.058797188 -0.04179745 -0.0013237223
0.061555684 -0.09797444 -0.0109054195 -0.028982302 -0.021510236 -0.005990031 -0.014618553 -0.11620101
-0.10978513 -0.06021148 -0.0064159287 -0.03048154 -0.006891288 -0.0031492412 -0.08705791 -0.021738753
0.044214807 -0.09514661 0.026729763 -0.0911785 -0.03223169 -0.06399836 -0.017048394 -0.009678219
-0.083181046 -0.116176836 -0.01196513 -0.08847012 -0.036849946 -0.11614553 -0.05982163 -0.04228469
0.01192598 -0.017398207 -0.07179928 -0.0210277 0.061774552 -0.025414154 0.030160181 -0.01989867
-0.10996463 -0.026602978 -0.0085991975 -0.029553728 -0.069677755 -0.0489284 -0.07653027 -0.07824604
-0.053365868 -0.031710044 -0.04465664 0.037037574 -0.026632829 -0.031876154 -0.085755065 -0.0018931776
0.053844236 -0.11873318 0.0044791177 0.012651458 -0.09570543 -0.07785309 -0.011476889 -0.05554308
0.0024220487 -0.02677293 0.023402981 -0.080747396 -0.024316266 -0.06217344 -0.0015588023 -0.00029559433
-0.051136833 -0.012609166 -0.059096675 0.023939915 -0.09379074 -0.07389268 -0.013729784 -0.02011588

fc2.bias f4 [128]
00000000: 28db f3bd 3a5c 95bd 9488 843e a681 dbbd
00000010: d0fe 2dbe aff2 febc a68c 59be 2ae0 a23d
00000020: 06e3 d5bd ed6f a23e ad73 88bd 1e38 b73e
00000030: 6119 8ebd f30e bebd cb98 7ebd 564c dfbd
00000040: 619d 9fbd 4c90 ee3e ebe6 5bbe 3e81 5bbe
00000050: 1d5a af3e 4cb4 edbd 53ed ef3e 1228 133e
00000060: a734 9ebd ea9f 6f3d e0ec 95be 4141 e9bd
00000070: cea9 543e 782b 20be cf91 f63e 471c 88be
00000080: 325a efbd 0171 c9be 6395 1e3d 1ebd 2dbe
00000090: 2a6d d73e 6524 f8be cea2 28be 7600 913e
000000a0: ce60 90be 3e5c 48be 5f77 983e 367e 42bd
000000b0: cbe4 52bc 3acf 01bd d7d1 d3bd 8812 fc3d
000000c0: 70ab 163f 54d7 38bd f86b c0bd 4fe5 cb3e
000000d0: ffc1 8f3e f6bb a7bd 1a6d 61be eb45 05be
000000e0: 1cd9 0ebe d5c1 5cbe c25e f83d 9737 243d
000000f0: 7e31 41bd 84ae 0b3e 3b74 20be 166c 14be
00000100: fbc1 743d 3a87 3f3e 0392 5cbd 5963 f9bd
00000110: 1d6e 02be 5d5f 03bd fa4e 3bbe deab 0dbe
00000120: 6e16 e4bd 6f6f d73d 93d7 54bc 189d 3bbd
00000130: b9f6 c1bd 6e55 c1bd 87d9 c2bd 2b9b 1ebe
00000140: f8ae 8cbe fcda 16bd 9fe5 46bd 88e9 5cbe
00000150: bf86 06be 2586 62bd 7bbb c0bd d813 f8bd
00000160: cfc0 473d 5ffd 123d 9f4a a53d 4d0c 22be
00000170: 7b88 a33e 1a74 b93e 56bd c43e 36b1 7cbd
00000180: 2717 923e fdc4 c53e 4af2 623e 9ce9 6ebe
00000190: a43c ecbd 5186 abbd 8dd9 313d f6fb db3e
000001a0: fb53 583d 5c70 3dbe 4ea1 f6bd efce 0bbe
000001b0: d8ac 743d c239 e03e 6612 8e3e 44a2 f9bc
000001c0: 6762 bdbd cd45 8f3d 870e 0c3f 2c7a 14be
000001d0: 98fd b7bd e765 a33d 4e5b b5ba 08e7 81be
000001e0: 0f02 59bd 693e 7c3d a979 0e3f 7157 3d3d
000001f0: a576 073f 9b34 e73e 1479 a63d 6070 dabd
-0.11907035 -0.072929814 0.2588545 -0.10718088 -0.16991735 -0.03112158 -0.2124506 0.07952912
-0.10443692 0.31726018 -0.066626884 0.35785002 -0.069384344 -0.09280195 -0.062157433 -0.10903232
-0.077936895 0.46594465 -0.21474807 -0.2143602 0.34248438 -0.116066545 0.46860752 0.14370754
-0.077248864 0.058502115 -0.29282284 -0.11389399 0.207679 -0.15641582 0.48158118 -0.26584074
-0.11687125 -0.39344028 0.038716685 -0.16966674 0.42075473 -0.48465267 -0.16468355 0.28320664
-0.28198856 -0.19566438 0.29778573 -0.047483645 -0.012871931 -0.031691767 -0.10342758 0.12308222
0.5885534 -0.045127228 -0.093955934 0.39823386 0.28077695 -0.081901476 -0.22014275 -0.13014953
-0.13950008 -0.21558316 0.121274486 0.040092077 -0.04716634 0.13640791 -0.15669338 -0.14494357
0.059755307 0.18703929 -0.053850185 -0.12177152 -0.12737317 -0.032073367 -0.18291846 -0.13835093
-0.111370906 0.10519301 -0.01299085 -0.045804113 -0.09470887 -0.094401225 -0.09514146 -0.1548888
-0.2747724 -0.036829934 -0.048558827 -0.2157346 -0.13137339 -0.05530371 -0.09410759 -0.1211316
0.04876786 0.035886165 0.080708735 -0.15825005 0.31940064 0.3622139 0.38425702 -0.06169244
0.2853329 0.38626853 0.22162738 -0.23331302 -0.11535004 -0.08375228 0.043420363 0.42965668
0.052814465 -0.18499893 -0.12042485 -0.13653158 0.05973515 0.43794066 0.27748412 -0.030472882
-0.092472844 0.06995735 0.54709667 -0.1449973 -0.08983916 0.07978421 -0.0013836415 -0.25371575
-0.05298048 0.061582956 0.5565439 0.04622597 0.5291541 0.45157322 0.081285626 -0.10665965

fc3.weight f4 [64, 128]
00000000: 5f51 09bd cea0 283b 29c3 98bd bb6f 38bd
00000010: d45c 603d f3eb 8dbe 776b 5c3e eb16 03be
00000020: dc06 183c 43dd a4bd 2375 8cbd 531f 553d
00000030: 4608 0e3d cece f8bc f7c9 aa3d 894f f6bd
00000040: fa6a 60bd 4832 983d 2cf3 3f3e 837c 03be
00000050: d62b 2c3e 74af ce3c 7fde 15be f5d9 b4bd
00000060: 7568 0bbe bc0a 753d 8f1d 8a3d f883 183c
00000070: 4d7c 3bbe 9c50 fdbc f195 0f3b 601d bbbd
00000080: 7029 443e 8bc4 58bd c7cc a53d 26d2 82bd
00000090: 008b 91bd 8452 683d 5693 cdbd 724f 3abd
000000a0: 421f 85be 9783 73bd ed81 d93d 0d25 16bd
000000b0: 488e 513e 7efa 883d af70 5bbe 6a61 e3bd
000000c0: 79d7 e93c 7e0d 403d 4444 933b 0466 78bd
000000d0: bf7b ccbd dee0 9cbd 171a 54be 465d 19bc
000000e0: ab13 d4bd 7ec9 943d 8595 103e 38ca 09be
000000f0: dd34 c93d 69d2 1e3d 09dd 60be 4ffd b7be
00000100: 0f82 da3d ffa9 683d 4d17 ad3d e4e5 b63c
00000110: 43ce 723e 804f 23bd dd2a b43d aa59 dcbd
00000120: 79e1 a33d 2db9 e2bd 806f 43bb 8f05 a03d
00000130: ec49 a2bc aa35 793d 5adf 673d 27ac c4bd
00000140: 445a 6b3e 8ee7 7cbd aa40 ddbd 8b05 afbd
00000150: 89e5 a8bd 9f12 eebd ca1e c23d aefb 603d
00000160: aa30 54bd 8f1e f53c 1b37 acbd 1d0f aebc
00000170: 9bc3 80be 5b24 c73d cce2 67bd a72d 1ebd
00000180: e4ce 5f3d cc99 1cbe 2838 06bd 86cb 1cbc
00000190: 21ca 513d 3fbd 8c3d 7b43 99bd de71 5bbd
000001a0: 2fb4 4c3d fc3d a03c 0e5f 263d 4922 cd3c
000001b0: c639 32bd 44ac 83bd e2e8 8bbc a06b 3bbd
000001c0: 4627 44bd 0ff0 debd 39b6 c93c 32e1 c5be
000001d0: cf38 b43d 61d0 83bd 76a5 653e a4c7 0dbe
000001e0: 7d23 17be 606b a2bd 49eb 883d 3d46 a93d
000001f0: a0fe 19bd 8d11 64bd 2b98 743c a42e 94bd
00000200: 4074 78bb dca3 ae3c 6c27 d43c bc75 b83c
00000210: 6e55 30bd b713 0fbc 1be9 d6bd 714c a6bd
00000220: 5634 363d b084 0abe 5112 adbd e476 d7bc
00000230: 15a5 9ebd 8933 a43d 5864 9ebd d0e8 3abc
00000240: 940d c93c 40ce 91bc 354e 8f3d 6a80 05be
00000250: 0a9c d4bd 61ae 873d 9757 8dbc 776a 5d3c
00000260: 82c1 69bd 2e0c d6bc 3e1f 29bd 4648 99bc
00000270: ed8b e9bd bd6e e1bd c3f6 bebd b8d0 00bd
00000280: 02d9 a8bd 066c acbd cced cbbc 059d 44bd
00000290: 8271 df3c 8e4d 313d cc76 c8bc a04e 04bb
000002a0: 4942 b1bd 813c ac3d c40e 0cbe 5c6a 28bd
000002b0: 0122 6bbd f1ba 263b 88ec 553c c5cf 03be
000002c0: 9ebc 5dbc d49d 8bbd 08b3 67bc 0474 c5bc
000002d0: fccf abbd f274 763d f2cb 7d3d 04b6 abbd
000002e0: 5ffd 89bc 78a1 08bd a9f4 cfbd 95a7 99bd
000002f0: 910c f5bb c1a2 0abe c2d6 02be e984 3cbd
00000300: 077d 32bd c1b9 e1bd 5e79 1c3b f867 393c
00000310: fc97 17bd 8010 47bb a89d 8cbd f810 8cbd
00000320: 0231 673d 45ab 3bbd 2418 c5bc 00bc 38bc
00000330: cee8 5f3d 455a 00bd 5ab2 38bd c5b7 86bd
00000340: ab62 9d3d 5e1c 0c3d 746d 90bd f309 5cbd
00000350: a0e6 9bbd a1bd 16bd 4619 60bd 1cee 88bd
00000360: b2b9 0bbe 582a d2bd cb86 953d 5886 02be
00000370: 2cb4 44bd 68aa dc3c 11f3 97bb 4aab 003d
00000380: 8f71 abbc 6573 ebbd a3c7 743c 4818 06bc
00000390: 6eb3 893c afcf 8bbd 855f 85bd 10a2 03be
000003a0: 92b6 88bd 052c 8a3d 58f3 5abc 6f86 ac3d
000003b0: 5b5f e5bd 93cc 11bd efec babd f322 a03d
000003c0: 63ba 3dbd 8e1c babd 11e6 98bd 7e17 75bd
000003d0: 724b 373d ba97 c4bd a89a c5bc 2024 783b
000003e0: c8ad 063b 7aef 2cbd 667d 63bd bf1f 8fbd
000003f0: 6bdf 833d d1df b2bd a7a7 b6bd 7554 ad3d
-0.033524867 0.0025730613 -0.07459099 -0.04502843 0.054776028 -0.27719077 0.2152537 -0.12801711
0.009278979 -0.08050015 -0.068582796 0.052031826 0.03467586 -0.03037205 0.08339303 -0.12026889
-0.05478952 0.074314654 0.18745106 -0.12840466 0.16813597 0.025230147 -0.14635657 -0.088306345
-0.13614066 0.05982469 0.06743919 0.009308808 -0.18309136 -0.030922227 0.002190944 -0.09136462
0.19156432 -0.052921813 0.08095699 -0.06387739 -0.0710659 0.056719318 -0.10037868 -0.04548592
-0.2600041 -0.059451666 0.106204845 -0.036656428 0.20464432 0.066884026 -0.21429704 -0.11102565
0.028545128 0.046887867 0.004494222 -0.060644165 -0.0998454 -0.076600775 -0.20713077 -0.009360617
-0.10355314 0.07264994 0.14119537 -0.13456047 0.09824536 0.03877488 -0.21959318 -0.35935447
0.10669338 0.056802746 0.0845171 0.022326417 0.23711495 -0.03987074 0.08797238 -0.107592896
0.0800199 -0.11070476 -0.0029821098 0.0781356 -0.01981064 0.060842194 0.05660949 -0.09603148
0.22983652 -0.061744265 -0.10803349 -0.08545979 -0.08246905 -0.116246454 0.09478529 0.05492752
-0.051804222 0.029921798 -0.08408948 -0.021247441 -0.25149235 0.09723731 -0.056612775 -0.038617756
0.054640666 -0.15293044 -0.0327684 -0.009570008 0.051218156 0.06872033 -0.07483574 -0.05357539
0.049976524 0.019560806 0.040617995 0.025040762 -0.04351213 -0.064293414 -0.01707882 -0.045756936
-0.047889017 -0.10885631 0.024623023 -0.38648373 0.08799898 -0.064362295 0.224264 -0.13845688
-0.14759631 -0.079306364 0.06685502 0.0826535 -0.037596345 -0.0556808 0.014928858 -0.072354585
-0.0037911087 0.021318369 0.025897704 0.022517078 -0.043050222 -0.008732728 -0.1049368 -0.08120049
0.044483505 -0.13527179 -0.08450759 -0.026301809 -0.07746331 0.08017642 -0.07733983 -0.011408046
0.024542607 -0.017798543 0.06997339 -0.13037267 -0.103813246 0.06625057 -0.01725368 0.013514153
-0.05706931 -0.026128855 -0.04128956 -0.01871122 -0.11403642 -0.1100745 -0.0932441 -0.03144905
-0.08244516 -0.08419041 -0.024893664 -0.048001308 0.027275804 0.043286853 -0.02447071 -0.0020188466
-0.08655221 0.08409978 -0.13677508 -0.041117057 -0.057405476 0.0025441016 0.013056882 -0.12872227
-0.013533739 -0.06817213 -0.0141418055 -0.024103172 -0.08389279 0.06017012 0.061962076 -0.08384326
-0.01684445 -0.033357114 -0.10154087 -0.07502667 -0.0074783047 -0.13538648 -0.12777236 -0.04602519
-0.043576267 -0.11021758 0.0023876051 0.011316292 -0.037010178 -0.0030374825 -0.06866008 -0.06839174
0.056443222 -0.045817632 -0.024059363 -0.011275291 0.05466538 -0.031336088 -0.045091964 -0.0657802
0.07684835 0.03420674 -0.070521265 -0.053720426 -0.076123476 -0.036801938 -0.054711603 -0.06686041
-0.13645056 -0.10261983 0.073011 -0.1274656 -0.048023388 0.026936725 -0.00463713 0.031413354
-0.020928172 -0.11496619 0.014940175 -0.0081845 0.016809192 -0.06826722 -0.065123595 -0.1285479
-0.066754475 0.06746677 -0.013363682 0.08424079 -0.11199828 -0.035595488 -0.09127223 0.07819166
-0.04632033 -0.090874776 -0.07465757 -0.059836857 0.044749685 -0.09599252 -0.024121597 0.003786333
0.002055036 -0.04222057 -0.05553951 -0.06988477 0.06439098 -0.08734096 -0.08918696 0.084633745

fc3.bias f4 [64]
00000000: 7136 38be 9dcc 9ebd c2c3 93bd 020b c23d
00000010: d471 603e 1b52 25be 1ff6 aa3b ba98 12bd
00000020: d723 bbbe 6888 ea3c e759 f4bd a4fd e3bc
00000030: 9d8d 853d eabf 9c3e 1a77 42be 4bc8 293e
00000040: 18b8 4fbd 1a6c c5bd 9f3f 6cbd 666a e7bd
00000050: f4c1 cebd ce5b 4d3d 843d 17bd afad c8bd
00000060: c5e6 383e 658c a3bd 3a1b 7e3c 1ddb ef3e
00000070: 15b0 ae3e 4772 b53c 4803 a4bd b297 1d3e
00000080: 5c5c 0bbe b60f 553e 70a2 263d 1aa3 29be
00000090: b401 5f3e e238 64bc 4367 b7bd 3e24 3e3e
000000a0: f9ee d5bd a610 b13c 1d18 f53e 1d95 21bb
000000b0: bb2e 87be c3b5 eebd 9aee 043f 9ae7 0bbe
000000c0: 4558 453e 0a66 c63d 4958 a5bb 8a0c 873e
000000d0: 2e62 fe3e 9969 71be 1d01 32be b729 f13e
000000e0: 830c ba3e 79aa 0f3d 930e 403e 0ce1 d63d
000000f0: bd94 28bd c5a2 d0bd d5ac 2dbe 52ca 863e
-0.17989518 -0.07753871 -0.07215072 0.09474756 0.21918422 -0.16144602 0.005217328 -0.035790183
-0.3655078 0.028629497 -0.1193121 -0.027830906 0.06521151 0.3061517 -0.18990746 0.16580312
-0.050712675 -0.09639759 -0.05767786 -0.11299591 -0.100955874 0.05013638 -0.0369239 -0.097987525
0.18056782 -0.079857625 0.015509421 0.46846858 0.34118715 0.022149218 -0.08008438 0.15389898
-0.13609451 0.20806774 0.040682256 -0.16566125 0.21777993 -0.013929578 -0.089552425 0.18568513
-0.10445971 0.021614384 0.4786996 -0.0024655529 -0.2640284 -0.11655762 0.5192658 -0.13662568
0.19271953 0.09687431 -0.005045925 0.26376754 0.4968428 -0.23575439 -0.17383237 0.47102138
0.3633767 0.035074685 0.1875556 0.10492143 -0.041157473 -0.10187296 -0.16960461 0.26326233

fc4.weight f4 [10, 64]
00000000: 605c 6bbe a992 793d 884f 893d d4f2 d3bd
00000010: 60ce 943d 4d6e 163d 4c1d bcbd 698e febd
00000020: 8bee 363d 934d 98bc 8e38 39be 1f76 f93c
00000030: f3e4 65bd 6d83 dbbe 6daa 70bd a6cc d9bb
00000040: e92d 573d 6f28 563d fd58 0ebd 05e7 1e3d
00000050: 861e 03be a8be fdbd 2302 133d bf54 b8bd
00000060: 367b cb3d 8dc2 723c 2af5 02be 61f1 9abd
00000070: fc3c 65bd cbf4 d6bb a512 86bd 1bf7 943d
00000080: a95c f73c c470 a9bd a9cf 33be 6970 153d
00000090: 60c8 eb3d 4736 6a3d b0e8 22be 839d e43d
000000a0: eff4 8fbc d4e5 b5bc 2d78 363e d188 9e3d
000000b0: f35a 88bc 5d6f 8d3d f6e3 5c3d 9d7b a1be
000000c0: 6e6a d33d 7074 5a3c 725a debd 39b8 8abe
000000d0: 93ad 4fbe 3b26 4bbd 10fa dfbc 4e32 8a3c
000000e0: 2688 9cbb a8dc c5bd 8e19 4d3d 394e 90bd
000000f0: ec2e d73b ca2e ae3c 2c56 60bd add3 21be
00000100: 3651 aabd 6d90 a43d 436e 91be 24b6 0c3e
00000110: 98a7 183e cf78 713d d063 1c3d 95ed b23d
00000120: fa35 6dbd 236f f33d fdae 073d f4c6 10be
00000130: 85cd 243e ff44 4fbe d5ee e3bd 04d8 42be
00000140: ccd5 cfbd 5b3e 2abb 8dba 5abd 0b37 fcbd
00000150: 2a62 a03d b9f9 b3bd 5ffd c6bc 0e6c 8e3e
00000160: 0152 27bd eb78 5bbc afbc 803d dec5 2a3e
00000170: b998 08be 64fd fa3d 8c47 ecbd e7b1 85bd
00000180: d440 9bbd 4996 5bbd 2533 aebe c72f 30bd
00000190: cf69 d63d 6878 b13d 93a0 f03c 8275 97be
000001a0: c234 be3c 1e8e 01be 1471 45bd 7d46 ce3d
000001b0: 82e8 babd a8b2 9bbd 9570 07be edb0 fc3b
000001c0: bb79 86bc cffe 57be 2fe9 853c 97bf 4cbd
000001d0: 7cc1 8dbd f177 46be cfd8 333e 6b2a 08be
000001e0: be8e a3be 459f 83bb 8776 473e 5471 2ebe
000001f0: 16bb 17bc d7ef 0c3e 398a 85bd fd0c a1be
00000200: 9a52 34bd f60e 45bc 58c7 42be 26ef ecbd
00000210: c441 823d e4b6 613d 15c1 723d 8547 d7bd
00000220: 7101 cf3c 03d6 c53d d0bd a4bd b2d2 183e
00000230: 1fba 9c3c 9d60 f63c 85c3 5c3d d608 413d
00000240: 3e27 22be 0bc2 223d fb8d dfbc fde6 4f3d
00000250: 97de 8bbc 420b f93d e294 77bd b902 0abe
00000260: e452 863c 2224 af3c 848e e9bd 0fc1 90be
00000270: 71d2 183e b224 d33d ca31 6abd 70fe 2cbe
00000280: 1850 a93d ec6d 043e 4659 97bd 0544 19be
00000290: 1c65 62be a214 333b 6f16 db3c 3b9e 2abd
000002a0: f867 a9bc 0889 49bd b09f d53c 1a5a cfbd
000002b0: 618f 6ebe 5463 f1bc 16d4 0bbe 1d72 1dbe
000002c0: 3b64 0b3e 603d 8a3d fd66 39be a1b8 e7be
000002d0: bac2 003e 0661 8dbe 1569 e4bc b7a1 dabd
000002e0: 913f 0ebe 49d5 4b3c 766b 44bd b3e3 38bd
000002f0: e877 08bd 08e4 87bd 4519 883d 29e4 1bbe
00000300: 13f1 8d3c 1b23 d23c 83e8 0cbe 7a30 64bd
00000310: 9d44 be3d a729 3e3d cdfa a2bb 9536 edbd
00000320: 0b5b 313d 2a9c 8e3d 0816 423d 66ed 4ebd
00000330: f288 1b3e a940 10be 23ea d83c dec4 aebe
00000340: 31c7 3ebe 026e 763d 2585 33be 1dad b6bc
00000350: 54c6 5ebd 72c4 83be 8c2e 28be bccf b4bd
00000360: 0c54 d33c 31d2 1abe d705 0a3e 42b5 e43c
00000370: 6ed4 18be 51e1 a73d 32ce ce3c f489 0a3e
00000380: c77e 923c 2a55 d73d 066e 84be d96d 27be
00000390: d84a 873d 3583 f03c 7eaa 60bd 3947 dcbd
000003a0: 60c0 283d a85a c73c 5f04 893c f863 4c3c
000003b0: 7e78 863b edd1 fc3d e6a7 e4bd 2692 90bd
000003c0: c34c 1d3e 81fc 9d3d 9554 1b3d 4eb1 85be
000003d0: eeea 61be 06cd a9bd 0ea2 5f3d 27ab c03d
000003e0: 84d6 23be 4262 bfbc b345 0e3e 8ec7 80bd
000003f0: bef7 1b3d 1da2 40bd 6715 20be a9cd a9be
-0.22984457 0.06093088 0.067046225 -0.1034905 0.072659254 0.036726285 -0.091852754 -0.12429506
0.044661086 -0.018591678 -0.1808798 0.030451832 -0.056126546 -0.42873707 -0.05875628 -0.0066467104
0.052534018 0.052284654 -0.034752835 0.038794536 -0.12804613 -0.123898804 0.03589071 -0.09000539
0.0993561 0.014816892 -0.12788835 -0.075655706 -0.055966362 -0.0065599433 -0.06546525 0.07273694
0.030195551 -0.082734615 -0.17559685 0.036484156 0.11512828 0.05718067 -0.15909076 0.111628555
-0.017572848 -0.022204317 0.17819281 0.077409394 -0.01664493 0.069060065 0.053928338 -0.31539622
0.10323034 0.013333425 -0.10857095 -0.27093676 -0.20281057 -0.049597006 -0.027340919 0.01686969
-0.0047769723 -0.096612275 0.0500732 -0.0704617 0.006566873 0.021262545 -0.05476968 -0.15803404
-0.08316271 0.080353595 -0.28404436 0.13741356 0.14907682 0.058953103 0.038181126 0.087367214
-0.057912804 0.11886432 0.033125866 -0.14138395 0.16094024 -0.20241164 -0.11129538 -0.19027716
-0.101482004 -0.0025977108 -0.053400565 -0.12315186 0.07831223 -0.08787865 -0.024290739 0.27816814
-0.04084969 -0.013395528 0.062859885 0.16677043 -0.13339509 0.12255362 -0.11537084 -0.06528073
-0.07580724 -0.05361012 -0.34023395 -0.043014314 0.104694 0.08665544 0.029373443 -0.2958184
0.023218516 -0.1265187 -0.048203543 0.10072038 -0.091263786 -0.07602435 -0.1322654 0.007711521
-0.016415467 -0.21093296 0.016346542 -0.0499874 -0.0692167 -0.19381692 0.17563175 -0.13297431
-0.3194484 -0.004016789 0.19478808 -0.17035419 -0.009260913 0.13763367 -0.065205045 -0.31455222
-0.044024087 -0.012027493 -0.19021356 -0.115690514 0.063602 0.05510606 0.05926617 -0.10511688
0.025269242 0.0965996 -0.08044016 0.14924124 0.019131718 0.030075366 0.0538974 0.047127567
-0.15835282 0.039735835 -0.027289381 0.050757397 -0.017073913 0.121603504 -0.06044472 -0.13477601
0.016396947 0.021379534 -0.11404136 -0.28272292 0.14924027 0.103097335 -0.05717639 -0.16893935
0.0826723 0.12932557 -0.073900744 -0.14967354 -0.22108883 0.002732553 0.026744096 -0.041654807
-0.020679459 -0.04920295 0.026077121 -0.101246074 -0.23296882 -0.029466309 -0.13655123 -0.15375562
0.13612454 0.067499876 -0.18105693 -0.45258048 0.12574282 -0.27613086 -0.027882138 -0.10675376
-0.13891436 0.012440988 -0.047954045 -0.045139026 -0.033317477 -0.066352904 0.06645445 -0.15223755
0.017326867 0.025651505 -0.13760571 -0.055710293 0.09290431 0.04642644 -0.0049737454 -0.11582676
0.043299716 0.0696338 0.047384292 -0.05051937 0.15188959 -0.14087166 0.026478833 -0.34134573
-0.18630673 0.060163505 -0.1753126 -0.022299344 -0.05438836 -0.25735813 -0.16424006 -0.08828685
0.025796913 -0.15119244 0.1347879 0.027918462 -0.14924785 0.081972726 0.025244806 0.13529187
0.017882718 0.10514291 -0.2586519 -0.16350497 0.06606072 0.02935944 -0.054850094 -0.10755772
0.041199088 0.02433522 0.016725717 0.012475006 0.0041037193 0.12344728 -0.111648366 -0.070591256
0.15361314 0.07714177 0.03792246 -0.26111835 -0.22062275 -0.08291058 0.054597907 0.09407645
-0.159998 -0.023362283 0.13893776 -0.06288062 0.038078062 -0.047029603 -0.15633164 -0.3316472

fc4.bias f4 [10]
00000000: c67b e2bd a8a0 88be 879a d23d d2f8 7d3d
00000010: 1849 3bbe 5814 0d3f 7d32 f73c 12d0 033e
00000020: 8616 67be 3304 f0be
-0.11058764 -0.2668507 0.1028338 0.06200487 -0.18289602 0.5510917 0.030175442 0.12872341
-0.22567186 -0.46878204
