runs/Mar02_17-24-16_cssd901383-Run(lr=0.01, batch_size=256, patience=1)-valid/checkpoint.pt (torch_old, 972387 bytes, 8 tensors)

fc1.weight f4 [256, 784]
000000 70 36 15 3c 0e 9e 60 bc c0 b7 88 bb 4e 57 5f bc
       0.009107217 -0.013709558 -0.0041722953 -0.013631655
000010 a6 8a 0c bd 95 83 8d bc b6 f6 95 3c ec 14 d4 bc
       -0.034311913 -0.017274657 0.018306118 -0.025888883
000020 70 ff 16 bb 93 a4 15 bd c0 8e f9 bb b2 30 96 3c
       -0.0023040436 -0.036533903 -0.007615894 0.018333767
000030 b7 76 ba bd 3d c1 c2 bd 32 be c0 bd dc 2d 92 bd
       -0.09104674 -0.095095135 -0.09411277 -0.07137653
000040 d2 b5 f9 bc 27 96 d5 bc 58 83 43 bc fd 09 ae bc
       -0.030482206 -0.026072575 -0.01193317 -0.021244997
000050 15 da df bc 54 fe 7e bc 18 1d cf bc ea 44 35 bc
       -0.02732567 -0.015563566 -0.025282428 -0.011063794
000060 82 b5 cd 3c da 74 ee 3c 92 1e 14 bc f3 dd 91 bc
       0.025110964 0.029108454 -0.009040492 -0.017806029
000070 12 4b de 3c 70 8f 94 bc 5e 92 cd bc 33 8b a0 bc
       0.027135406 -0.018134803 -0.025094207 -0.019597625
000080 38 1c 9f bb 40 f9 be 3b d0 9e 86 bb 64 20 6c 3c
       -0.004855659 0.0058280528 -0.0041082874 0.014412019
000090 e2 91 fa 3c 12 6f 4d bc 47 e2 3e bd 9f ed a4 bd
       0.03058714 -0.012538688 -0.046602514 -0.08053135
0000a0 84 7e 4e bd 2e d5 23 bd 4f 6e 12 bd c7 ec d5 bc
       -0.050413623 -0.039998226 -0.03574973 -0.02611388
0000b0 5f 0b 56 bd 63 e2 9c bd 10 94 07 3c 2e 98 ac 3c
       -0.052256938 -0.07660367 0.008275047 0.021068659
0000c0 b0 2e 14 3c 1a 97 a7 3c 67 5f 05 3d 92 d2 f6 3c
       0.009044334 0.020457793 0.032561686 0.030129705
0000d0 bc 34 5f 3c da 91 cf 3c c8 18 7b 3c f2 0c fb 3c
       0.013623413 0.025338102 0.0153257325 0.030645821
0000e0 ee 15 b3 bc a0 fb aa bc 5c ae 67 3c 9c 2d 40 bc
       -0.021861043 -0.020871937 0.014140692 -0.011729624
0000f0 80 15 e6 b9 1f 39 07 3d 46 ef ea 3c f6 31 8d bc
       -0.00043885037 0.03301346 0.028678548 -0.017235737
000100 84 20 b2 bd c6 3c ac bd 36 73 a4 bd 1f 34 79 bd
       -0.08697608 -0.08410029 -0.08029787 -0.060840722
000110 41 f5 bb bd 2b ed e6 bc 35 81 1e bd fb 2b 19 bd
       -0.09177638 -0.028189262 -0.03869744 -0.03739546
000120 87 66 c1 bd 9d 1e b7 bd 21 9d 85 bd ee de a5 bd
       -0.09443384 -0.08941386 -0.065241106 -0.08099161
000130 a6 80 ff bc 05 18 81 bc 90 3a 69 bb ca 67 12 bc
       -0.031189274 -0.015758524 -0.0035587884 -0.008935878
000140 ce b8 2e bc ee 13 8b bc b0 4b 7a 3b bc 9e d3 bc
       -0.010664178 -0.016977277 0.0038192086 -0.025832526
000150 18 15 b9 3b 0a f9 50 bc 32 a6 27 bc 62 36 f2 3c
       0.0056482665 -0.012754688 -0.010232495 0.029566947
000160 a6 bd 43 bc 46 f3 09 bd 06 eb 86 bd 6a a4 64 bd
       -0.011947071 -0.03367927 -0.06587796 -0.05582086
000170 17 5b 56 bd 23 38 99 bd d3 bb c0 bd 86 83 bb bd
       -0.052332964 -0.0748141 -0.094108246 -0.091559455
000180 e6 96 6c bd 33 f9 80 bd 77 50 39 bd 0b 07 6b bd
       -0.057761095 -0.06297531 -0.045242753 -0.057379764
000190 88 18 ee bc 37 35 59 bd 6b 33 1f bd 2a d5 b1 bd
       -0.029064432 -0.053029265 -0.038867395 -0.08683236
0001a0 d6 f9 97 bd f4 58 85 bd 78 ed 19 bd 10 05 46 bb
       -0.07420699 -0.06511107 -0.037579983 -0.003021542
0001b0 d5 7f fe bc 2c 7a bc 3c d0 62 45 3b 80 ae 13 3c
       -0.031066814 0.023007475 0.0030118711 0.009013772
0001c0 5c 17 8a 3c d8 33 d0 bc 00 5f e6 bb 02 b4 d4 3c
       0.016856842 -0.025415346 -0.007030368 0.02596474
0001d0 bc 43 5e 3c 28 a5 d9 bc 64 fc dc bc 18 ee 14 bd
       0.013565954 -0.02656801 -0.026975818 -0.036359876
0001e0 c9 d2 4d bd cb 3a 29 bd 61 d9 bb bd d9 7a 9b bd
       -0.05024985 -0.041315835 -0.09172321 -0.07591791
0001f0 e4 a4 9d bd 80 3e 66 bd ff bd 5f bd 81 52 08 bd
       -0.07697466 -0.05621195 -0.054624554 -0.033281807
000200 b8 d9 b6 bd 9e 8a 38 bd 20 6f a1 bd cc 00 34 bd
       -0.08928245 -0.04505407 -0.078825235 -0.043946072
000210 5e 94 6d bd 31 2f 8b bd 00 e8 a0 bd 06 2b 21 bc
       -0.058002822 -0.067961104 -0.078567505 -0.009836918
000220 1f 95 05 3d 70 77 99 bc b4 55 7e bc c0 11 4d 3c
       0.032612916 -0.01873371 -0.015523363 0.012516439
000230 c8 36 a0 3b 14 1d 5b 3c 62 10 a0 3c d0 22 55 3b
       0.004889343 0.013373632 0.019539062 0.003252197
000240 50 8c 3d 3b cc f1 86 bd 38 95 ad bd 5e c2 13 bd
       0.0028922744 -0.06589088 -0.08475727 -0.036074035
000250 54 40 78 bd a5 ef 80 bd 2b 34 3f bd d2 aa e5 bc
       -0.060608223 -0.062957086 -0.04668061 -0.028035555
000260 05 38 ac bd de 00 ba bd 40 49 84 bd 3a 8a 70 bd
       -0.084091224 -0.09082197 -0.06459284 -0.058725573
000270 6f 50 63 bd 1d 09 b8 bd 81 ae a4 bd 8a 7e 05 bd
       -0.05549663 -0.08986113 -0.080410965 -0.03259138
000280 37 86 6a bd 0a da c1 bd 02 f5 03 bd 44 97 81 bd
       -0.057256903 -0.09465416 -0.03221608 -0.0632768
000290 cc 79 b8 3c 54 2e 06 bd a3 b1 8a bc 73 d1 f6 bc
       0.022519015 -0.032759026 -0.016930407 -0.03012917
0002a0 ac 1b ff bc 10 0b 78 3b c8 e2 5d 3c 06 73 18 bc
       -0.031141125 0.003784839 0.013542838 -0.0093047675
0002b0 88 de bc bc 25 6d 66 bd 29 f7 48 bd 51 c8 99 bd
       -0.02305533 -0.056256432 -0.049063835 -0.075089104
0002c0 c5 2d 9c bd 49 ab 31 bd 5d 6d 56 bd 7a db 9b bd
       -0.07625917 -0.04337624 -0.05235039 -0.07610221
0002d0 4c 8b 80 bd 34 a2 11 bd 70 47 98 bd 45 25 8c bd
       -0.06276569 -0.03555508 -0.074355006 -0.06843046
0002e0 68 ed 93 bd 51 bf 2e bd f9 0c 53 bd 5f 32 f5 bc
       -0.07223016 -0.042662922 -0.051526044 -0.029931245
0002f0 eb a2 3b bd 92 af 85 bd 59 0a 59 bd 7b bf a4 bd
       -0.045809668 -0.06527628 -0.052988384 -0.080443345
000300 45 20 da bc 55 86 d9 bc 88 33 bf 3c 53 e8 f8 bc
       -0.026626715 -0.026553312 0.023340002 -0.030384218
000310 60 7e 31 3c 3b 5b 06 3d bc 6c 7e bc 2c 29 90 bc
       0.010833353 0.032801848 -0.015528854 -0.017597757
000320 70 94 96 bb ac 7f 04 bd 00 20 b6 bd 0d 13 a6 bd
       -0.004595332 -0.03234832 -0.08892822 -0.081091024
000330 47 01 4c bd 2d 73 c1 bd e2 b3 be bd e7 21 65 bd
       -0.049805906 -0.09445796 -0.09311654 -0.055940535
000340 0b 8f 56 bd bd 00 47 bd 8d c8 bc bd 0c 66 d4 bc
       -0.05238251 -0.04858469 -0.092179395 -0.025927566
000350 4e d9 bc bd 1d ef 88 bd 07 5f b3 bd d8 ab 89 bd
       -0.09221135 -0.06686232 -0.087583594 -0.0672223
000360 a7 49 2a bd 81 03 2e bd b1 35 92 bd 9c 0d 06 bd
       -0.041574147 -0.04248381 -0.07139147 -0.032727823
000370 4e 81 d7 3c c5 47 05 3d ca c7 b8 3c 68 69 bc 3c
       0.026306774 0.032539148 0.022556204 0.02299948
000380 51 4a 0e 3d 65 dc ee bc 14 85 9e bb b2 22 20 bc
       0.034738842 -0.029157827 -0.0048376415 -0.009773897
000390 4d f2 91 bd 1a cc 16 bd 26 10 85 bd 9b a5 77 bd
       -0.07126293 -0.03681574 -0.06497221 -0.060460668
0003a0 54 4d 80 bd e3 ef 41 bd 01 c8 8a bd 00 66 a9 bd
       -0.06264749 -0.047347914 -0.06776429 -0.08271408
0003b0 36 95 28 bd 7b e0 c0 bd 35 98 be bd 65 54 9f bd
       -0.041157924 -0.09417816 -0.09306375 -0.07779769
0003c0 d7 da 1b bd fe b9 da bc b6 70 bd bd 17 35 b1 bd
       -0.0380505 -0.026700016 -0.092500135 -0.08652704
0003d0 47 c4 9d bd c8 35 0b bd 44 ed 9a bd 25 aa 7e bd
       -0.077034526 -0.033986837 -0.07564786 -0.06217398
0003e0 b3 bd e7 bc 36 27 b9 3c 52 46 2a bc 7c 77 51 3c
       -0.028288698 0.022601705 -0.010392742 0.012784835
0003f0 c8 68 34 3c c7 d1 0b 3d 9c 6a 8a 3c dc 03 d0 bc
       0.01101131 0.034135606 0.016896538 -0.025392465

fc1.bias f4 [256]
000000 f2 f3 b1 bd 01 eb db bd 8d 20 4e be 9c 51 5b bd
       -0.08689107 -0.10738183 -0.20129605 -0.053544626
000010 5c ce a0 bd 40 7d d4 3d 4e 9e 08 3f 76 4c 95 bd
       -0.0785186 0.10375452 0.53366554 -0.072899744
000020 c2 fa 75 3e 05 22 ad 3d 37 84 4c bd dd 98 cf bc
       0.24021438 0.08453754 -0.049930777 -0.025341446
000030 52 53 3b bf 16 85 b1 bd b5 e6 1f bd 27 71 6d bd
       -0.7317401 -0.08667962 -0.03903838 -0.05796924
000040 af 0b cb bc 04 a2 30 3d 3d ef 12 3f fb 6c 0e bd
       -0.024785845 0.04312326 0.573963 -0.0347719
000050 a5 b6 c8 3d cf 39 34 bd 13 8c d1 bd 7c de 3b bd
       0.09800462 -0.044000443 -0.10231795 -0.045866475
000060 98 72 46 3e b7 cb 9a bd a6 27 17 be d6 16 7b bd
       0.19379652 -0.07558387 -0.14761218 -0.061301075
000070 c8 62 f6 bd fb b1 52 be ee 69 8e bd f7 e8 ad bd
       -0.1203056 -0.20575707 -0.06953798 -0.084917
000080 fe ff 0a bc 13 51 6d bc 89 7d 1a bd 81 60 ae 3e
       -0.008483885 -0.014484662 -0.037717376 0.34058002
000090 7e 9a 62 bd a0 fa 4a bd d8 f7 c9 be 1b 5d 0c 3e
       -0.055323116 -0.04955542 -0.39446902 0.13707392
0000a0 25 2c 34 be 10 8e c4 3d ca 4d 15 3f 8c 4d 0d 3e
       -0.17594965 0.09597409 0.5832182 0.13799113
0000b0 93 79 22 be 77 a0 d3 be 88 16 a8 bd c3 3d 07 be
       -0.1586669 -0.41333362 -0.082074225 -0.13207154
0000c0 9b 54 60 bd 17 63 ec bd 3e 87 cc ba b4 86 70 bd
       -0.054768186 -0.115423374 -0.001560427 -0.058722213
0000d0 cb 53 19 3d 97 cb 86 bd 68 d2 74 bc 6d 3b 95 bd
       0.037433427 -0.065818004 -0.014942743 -0.07286725
0000e0 fd 5b 36 3f 54 21 d8 bc f8 df f7 bd 70 5b bd bd
       0.7123411 -0.02638308 -0.121032655 -0.09245956
0000f0 d5 f8 d6 bc de d1 b1 bd 93 cd 84 bd 62 29 dd bc
       -0.0262417 -0.08682607 -0.06484523 -0.026997272
000100 29 90 7b bd ed 87 e7 3d d6 6c 37 bd a3 a9 92 bd
       -0.06141678 0.11305223 -0.04478153 -0.07161262
000110 75 f8 de 3d e4 a3 c5 3c 26 3f a5 bd 77 e0 45 bd
       0.10887233 0.024126 -0.08068685 -0.04830977
000120 9e 31 8a bd 00 48 04 3e 98 64 38 be 16 2d d0 3b
       -0.06747745 0.12918091 -0.18007123 0.006353031
000130 c8 42 71 3f bb 1e 30 3e 62 14 f9 bd 15 50 41 3f
       0.94242525 0.17199223 -0.12162091 0.7551282
000140 7c 48 98 be 98 b5 c3 bd 59 13 29 bd 04 7b 1c 3f
       -0.297428 -0.09556121 -0.041278217 0.61125207
000150 21 70 06 3f 44 fc ac bd 53 2c 55 3d 87 ad 80 bd
       0.52514845 -0.08446553 0.052044224 -0.06283098
000160 04 03 31 3d 5e d8 8e bd af 53 51 3e 5b bc b2 bd
       0.043215767 -0.069748625 0.20442079 -0.08727332
000170 8c a3 0a bf e7 d6 26 3e f6 c0 c7 bc 55 c5 14 be
       -0.541558 0.16292916 -0.024384003 -0.14528401
000180 a5 b2 ae bd b9 00 45 bc 24 9d 6a be da 94 9b bd
       -0.085301675 -0.012024098 -0.22911507 -0.075967506
000190 ec c5 84 bd ce eb 99 3e 0a cc a6 3e 0c 96 c4 bd
       -0.06483063 0.30062717 0.32577544 -0.09598932
0001a0 f2 f3 ab bc c3 3e 10 bd 4c 35 0f 3f df 0f b3 bd
       -0.020990346 -0.035216104 0.559407 -0.087432615
0001b0 4f ad cc bd 33 24 9f 3f 5a 33 06 bf 49 04 37 bd
       -0.099939935 1.2432922 -0.52422106 -0.04468182
0001c0 09 cd 93 bd a8 4e a0 bd 0e f5 1e be f0 3c 54 3f
       -0.07216842 -0.078275025 -0.15523168 0.82905483
0001d0 14 38 c6 bc 9d 9f 4e bd 0e 7d 8b bd 59 bd 5e bd
       -0.024196662 -0.050445188 -0.06810962 -0.054379795
0001e0 e1 ed cf bd 3c 35 b9 bd a0 cd da be 31 c4 6a 3e
       -0.10152794 -0.09043357 -0.42735004 0.22926404
0001f0 30 d8 86 3b b3 8e e0 bc 1d a2 1e be b8 0b a3 bd
       0.004115127 -0.027411794 -0.15491529 -0.079612195
000200 44 54 c7 3e ce 23 d4 bb b4 da 52 be fc 82 fa bc
       0.38931477 -0.006473995 -0.20591241 -0.030580036
000210 9d 2b 4b bd a5 a4 c5 bd 77 15 9a 3e 3e e1 23 3e
       -0.04960214 -0.09650544 0.300945 0.16003892
000220 47 1f e6 bd 87 89 a3 bd e7 29 82 bd d1 b5 5a be
       -0.112364344 -0.07985216 -0.063556485 -0.2135842
000230 2e 38 82 bc 15 da 88 bd 4a 5a e2 3c 49 71 1f bd
       -0.01589593 -0.06682221 0.027630944 -0.038926397
000240 94 f7 08 bd 71 b5 0c bf 6d 06 fb 3d d8 fd 6e be
       -0.033439234 -0.5496436 0.12257085 -0.23339021
000250 b5 d2 3a bd cd 26 40 bd e6 cc 93 bd d1 b1 07 3f
       -0.045611102 -0.046912003 -0.07216816 0.530057
000260 11 93 8a bd 03 52 4d 3d 4f ca 2f 3e 3e f5 83 bd
       -0.06766332 0.05012704 0.17167018 -0.064432606
000270 f0 78 1f 3e 36 4c 7a 3e 4d 96 26 bd 19 51 eb be
       0.15573478 0.24443135 -0.04067068 -0.4596031
000280 3b c1 95 3d 09 10 43 bb 8b 54 08 bb 1b 69 0c bd
       0.073122464 -0.0029764196 -0.0020802345 -0.034279924
000290 55 7f c5 3e 8e 8d 09 be fa 4c 00 bf 71 05 79 3e
       0.3857371 -0.13432905 -0.50117457 0.24318482
0002a0 c9 dc fb 3e 4a 7e 0a bd 7c 06 0c 3e d6 09 a3 3e
       0.49191883 -0.033811845 0.13674349 0.31843442
0002b0 75 42 5d bd e5 29 d6 be 25 b9 e5 bc 1a 40 b0 3d
       -0.054018456 -0.41828838 -0.028042385 0.086059764
0002c0 a1 b0 29 bd e1 cb fd bd 5e 85 36 3b 92 ed 7b 3a
       -0.041428212 -0.123924024 0.002785049 0.0009610291
0002d0 03 16 2b 3f 5f 1e 3c bf 54 80 f4 bd c9 83 94 bd
       0.6683046 -0.7348384 -0.11938539 -0.072516985
0002e0 b6 6f bf 3e ca 9e 96 3e d0 6b f4 bc 7e f5 1c be
       0.37389916 0.2941802 -0.029836565 -0.15328023
0002f0 c2 cc d8 bc 9b 5c 2c be db ef 8f bd ec 8f b6 bd
       -0.026464824 -0.16832201 -0.07028171 -0.0891417
000300 8f de ae bd fc 2a ad bd 12 6a 03 be 1a 2a 72 ba
       -0.085385434 -0.08455464 -0.12833431 -0.0009237841
000310 c8 70 1d ba 4c 4a ac 3e 1c e1 6f bd 6d 67 3b bd
       -0.00060058804 0.33650434 -0.05856429 -0.04575293
000320 02 f6 22 be 1b 21 98 bd 9d ac 0f 3f 57 09 f3 3a
       -0.15914157 -0.07428189 0.5612276 0.0018542212
000330 1b d6 34 bd ae 10 9d bd 89 57 97 3e 30 ec ec bd
       -0.0441495 -0.07669197 0.29558972 -0.11568487
000340 f1 97 e0 bc 4a 2f 49 be 2c 8c f6 bc 2f 4b 98 bd
       -0.027416201 -0.19646946 -0.030096136 -0.07436215
000350 5f f6 be bd 89 7f cf bc dc 26 a2 bd 00 29 50 3e
       -0.09324335 -0.025329368 -0.07917568 0.2032814
000360 ab 74 a3 bd 36 aa 69 bd 3c d1 e8 bd 74 c9 4c 3e
       -0.07981237 -0.05704709 -0.11368033 0.19998723
000370 42 f3 44 bd fc 22 58 3c 93 86 3a bd 3a 82 18 bd
       -0.04808355 0.013191935 -0.045538496 -0.03723357
000380 2f cd 01 3f 93 9f 74 be 3f 9f 0d bd db 29 92 bd
       0.5070371 -0.23888998 -0.034575697 -0.071368895
000390 0a fa 61 bd 27 b1 8b bd 49 f0 ff 3e 66 3b 60 3d
       -0.055170096 -0.068208985 0.4998801 0.054744147
0003a0 f2 06 30 3e 6e d0 62 3e 78 ff 02 3e 7d 5d 87 3e
       0.1719015 0.22149822 0.12792766 0.26438513
0003b0 41 71 5f bd 53 d6 5c be dd 64 c2 bd 1d a6 6a bd
       -0.054551367 -0.21566133 -0.094918944 -0.057287324
0003c0 2c b3 9e be d7 7b 11 be 87 35 80 bd ec ed 76 bd
       -0.30996072 -0.14207397 -0.062602095 -0.060285494
0003d0 f1 7d 34 bd 20 59 a3 bd 1d 70 a5 bd 50 01 90 3d
       -0.04406542 -0.079759836 -0.080780245 0.070315
0003e0 d4 f4 ba bd a0 e5 a6 3e 34 d1 82 bd 54 e5 50 3f
       -0.091287285 0.32597065 -0.063875586 0.81599927
0003f0 2b 21 9f 3d a1 00 78 bd 93 7f ae 3d e9 1f 12 bd
       0.07769998 -0.060547475 0.085204266 -0.035674963

fc2.weight f4 [128, 256]
000000 0e ea 7f 3d 77 90 e2 3b 8a 87 03 be d8 be bd bd
       0.06247907 0.006914194 -0.12844673 -0.09264916
000010 33 fe cc bd 28 8a ed bd f5 e1 7b be 00 d4 93 39
       -0.10009422 -0.11598617 -0.24597915 0.00028195977
000020 4d 40 82 3d 29 7a 0e bf 60 18 26 3e b2 dc db bd
       0.06359921 -0.5565515 0.16220236 -0.10735454
000030 93 a4 63 bd 78 12 4c 3d 40 c9 9f bd 11 60 cb 3d
       -0.055576872 0.0498223 -0.07802057 0.099304326
000040 f8 06 89 bd 0d 07 87 bd f5 62 8e bc 0a 67 95 3c
       -0.06690782 -0.06593142 -0.01738117 0.01823761
000050 61 75 40 bd fd ae e6 bd e1 71 df bc 3b 4a bc bc
       -0.04698694 -0.11263845 -0.027275981 -0.022984615
000060 d7 03 01 3d 4a d6 9b bd 27 31 df bd 60 54 e6 3d
       0.031497803 -0.07609232 -0.10898047 0.11246562
000070 ea 36 e4 bb 12 85 80 3a ad 44 66 3d 29 6d 4d 3c
       -0.006964554 0.0009805283 0.056217838 0.012538233
000080 fa 91 01 3e fc c9 0b bd b0 46 87 bd eb 6b 3f bf
       0.12653342 -0.034128174 -0.066052794 -0.74774045
000090 13 92 a9 3d cb 41 98 bd 5e ca 1a bd 20 b0 7d bd
       0.082798146 -0.07434424 -0.03779065 -0.061935544
0000a0 40 ae 41 be 3b 36 dc be 69 0b 18 bf 28 37 0c bd
       -0.18914127 -0.43010125 -0.5939241 -0.03423229
0000b0 93 fa df bc d5 f0 01 be c8 63 56 bd 6c f4 72 3d
       -0.027341163 -0.12689526 -0.052341253 0.05931513
0000c0 71 98 d2 bd b2 04 c4 3c 9e a1 6a bd 79 51 97 bd
       -0.10282982 0.02392802 -0.057283036 -0.073885866
0000d0 d1 8d 65 bd a2 ac 0c bd 00 c0 ca 3d 9f 35 aa bd
       -0.05604345 -0.034344323 0.09899902 -0.08311009
0000e0 e4 aa 11 bc 9a 2c df 3c e5 52 97 bc f9 8d d8 bc
       -0.008890841 0.027242947 -0.018472144 -0.026434885
0000f0 73 8d 22 3d 55 fa b1 3d a0 e9 bd 3b 7d dc 92 3d
       0.039685678 0.08690325 0.0057956725 0.07170961
000100 d2 74 99 bd cb f7 b6 bc 4d 13 5a 3c a0 9d 8d bd
       -0.07492985 -0.022334954 0.013310266 -0.0691483
000110 1b a9 a7 bd 65 39 8d 3d e6 32 09 bd 0d 27 88 bd
       -0.08186551 0.06895713 -0.033495806 -0.06648073
000120 6b 88 d4 3d ad 31 00 3f ad 3c 0f be 18 70 b7 bd
       0.10377582 0.500758 -0.1398799 -0.08956927
000130 ed 5e 49 be 43 8c 3d bd 99 dc 29 bd 2a 99 e5 be
       -0.19665118 -0.046276342 -0.041470144 -0.44843417
000140 61 8a 00 be 2b dc 47 bd 4a 40 23 3d c7 fb 77 bd
       -0.12552787 -0.048793953 0.039856233 -0.060542848
000150 7d 35 9a be 1c 5f 0b 3d ed e6 06 be ae fe 74 bd
       -0.30118933 0.03402625 -0.13174029 -0.059813194
000160 3e 30 11 3d f8 47 59 3d 12 d7 85 3d be 5c f5 3c
       0.035446398 0.05304715 0.06535162 0.02995145
000170 6f 5d ba 3d c3 a8 8f bd ce 68 e6 3c 05 26 62 3c
       0.09099852 -0.070146106 0.028126147 0.01380301
000180 d4 41 c0 3d a5 43 e4 3c ef 94 60 3d 99 82 8b bd
       0.09387556 0.027864287 0.054829534 -0.06812019
000190 6f 5f dc 3d 8c 8e b8 bd 32 f8 0f be 73 b9 14 3d
       0.1076039 -0.09011564 -0.14059523 0.03630967
0001a0 47 c9 3b bd 9e 60 b3 3d a8 5c ea bd a2 5b c9 3d
       -0.04584625 0.08758663 -0.11443454 0.09831931
0001b0 7e d9 5c bd 4f fa 4c be 3c 76 8c 3d b3 e8 3a bd
       -0.053918354 -0.2001736 0.06858489 -0.045632076
0001c0 5a fc 40 3d db 64 a5 3a e5 9c 93 bd 23 33 a9 3c
       0.04711566 0.0012618558 -0.0720766 0.020654267
0001d0 b7 26 3c bd da ff 12 3d d3 cb b6 3d a1 04 80 bc
       -0.04593536 0.03588853 0.08925595 -0.015627207
0001e0 4c 90 5f bd 74 4b af bd e0 20 d7 bd 02 9f 29 3d
       -0.05458097 -0.085593134 -0.10504317 0.041411407
0001f0 2b 24 a8 bc ec 0c ac bd ad b9 8c bd 9d b2 6c 3b
       -0.020525059 -0.08400902 -0.06871352 0.0036117204
000200 66 44 21 bc 57 e1 a0 bd 92 3b b0 3e f4 32 f6 3d
       -0.009842968 -0.0785548 0.3442045 0.12021437
000210 f7 42 de bc 58 98 b0 bd 05 db ae bd 6d 33 94 3d
       -0.02713154 -0.08622807 -0.085378684 0.07236371
000220 fb 5f d2 3d 2f 8a 34 bd 61 3f ea bc c9 e3 a3 bd
       0.10272213 -0.044077095 -0.028594675 -0.08002431
000230 0c 8c f0 3c eb 14 2f bc cb 28 3f be 95 53 d9 3d
       0.029363655 -0.01068614 -0.18667905 0.10611645
000240 d2 9b 84 bd 65 36 d5 bd 9b 00 36 be a1 54 04 be
       -0.06475033 -0.104107656 -0.17773668 -0.12922908
000250 27 20 bf 3d 48 5d cd 3d 13 de 6f 3c 61 f7 87 bd
       0.093323044 0.100275576 0.014640349 -0.06638981
000260 aa be 15 3d d8 21 0c 3d b5 a7 99 be 43 a3 3c 3d
       0.036558785 0.034211963 -0.30010763 0.046054136
000270 13 47 0e 3e fb 4d 6d bd 53 c3 3c 3d cc 8f 35 be
       0.138943 -0.057935696 0.046084713 -0.17730635
000280 92 3f 02 be 4e 34 f8 bd 43 41 9c 3b f1 90 a4 bd
       -0.12719563 -0.12119351 0.004768522 -0.08035458
000290 65 80 d9 3d 9e 23 71 bd ae 3f d0 3b 5a 9f 7e be
       0.106201924 -0.058871858 0.0063552475 -0.24865475
0002a0 0b ae 4b be 1f 62 11 3d 70 ed 35 3e 88 74 8c bd
       -0.19890611 0.035493966 0.17766356 -0.06858164
0002b0 69 05 2b bb d7 fa da bd a2 d4 b0 3c b0 2d 6f be
       -0.0026095754 -0.10692375 0.021585766 -0.23357272
0002c0 59 90 50 3d 81 00 21 3e da 0d 82 be 82 c8 af 3d
       0.05091891 0.15722848 -0.25401193 0.08583166
0002d0 22 f2 69 bd 4a ee 78 be 2d f4 2b 3d 98 01 bb 3d
       -0.05711568 -0.2430965 0.04198091 0.09131163
0002e0 94 bf 39 be 4d 1a 00 be 6d ce e0 bc 59 5e 27 be
       -0.18139488 -0.12510033 -0.027442181 -0.16344585
0002f0 4d e8 92 bd 92 27 4e 3c 4d a2 bf b9 ad b7 30 3d
       -0.07173214 0.0125826765 -0.00036551282 0.043143917
000300 3a 5e cd 3d 43 81 b5 3d 97 cd 88 3e aa fd 6c bd
       0.10027738 0.08862545 0.26719353 -0.0578591
000310 5e 3a 8a bc ff c5 2b be 46 d2 1b 3d 9d 95 68 bd
       -0.016873535 -0.16774748 0.03804233 -0.056783307
000320 c9 c0 b7 bc b9 79 9f bd d1 12 18 3d 49 02 d8 bd
       -0.022430794 -0.07786889 0.03712732 -0.10547311
000330 2d 3b 4c 3d 0d ef 8a bd 02 23 02 bd 49 7c 9c 3d
       0.049861122 -0.067838766 -0.031771667 0.07640893
000340 f3 eb d1 bd 7c ab da bc 05 e3 06 bc 28 7c b5 bd
       -0.10250082 -0.026693098 -0.008232837 -0.088615716
000350 18 b1 b8 3c 47 4e 60 3d 6b 88 c8 bd 0a eb 2d 3b
       0.022545382 0.05476215 -0.09791645 0.00265378
000360 a4 fc b3 bd 24 75 19 3d 06 5c 9a 3d e3 10 ee 3d
       -0.08788422 0.03746523 0.07537083 0.11624315
000370 73 7c 09 3e 75 f7 11 3f 52 12 60 bc b5 8e 50 3c
       0.1342638 0.57018214 -0.013676243 0.0127293365
000380 5b 9c 19 be d4 4f 87 bd f2 5d d6 bd 10 4e f2 bd
       -0.15001051 -0.06607023 -0.104671374 -0.118312955
000390 4a f7 26 bc 08 a2 8f bc fe c7 1c bd fc bf 34 bd
       -0.010190794 -0.017533317 -0.038276665 -0.044128403
0003a0 b0 d6 fc bd a2 8c 55 bd 05 17 f8 bc e2 c0 b3 bd
       -0.12345636 -0.05213607 -0.030284414 -0.08777024
0003b0 25 ed 5c 3d b3 06 aa 3e c1 f0 1e bd 4d bc 81 bd
       0.053937096 0.33208236 -0.03880382 -0.06334744
0003c0 97 6b dd bc 1a b9 c6 3e 4f 20 a5 bd 30 a1 8a 3c
       -0.027028842 0.38813096 -0.08062803 0.016922563
0003d0 fa a3 ec 3a da 8f 1e 3d a3 9f cd 3c 51 d8 a4 be
       0.001805424 0.038711406 0.025100535 -0.32196286
0003e0 c2 ee 53 3d e0 a5 b9 be e7 dd 79 bd d7 2a e6 3c
       0.05174137 -0.36259365 -0.06100264 0.0280966
0003f0 f8 88 2b be b9 a6 bf bd 63 bf 62 3d 00 e4 0c bd
       -0.16751468 -0.09357972 0.0553583 -0.034397125

fc2.bias f4 [128]
000000 a9 60 ba be 32 5a db 3e 62 43 b9 bc 2f 91 29 be
       -0.3640187 0.4284225 -0.022615138 -0.1655929
000010 64 6d 8d be d2 f1 d1 3d 19 be b7 be e7 56 e0 bd
       -0.2762252 0.10251202 -0.3588722 -0.10954075
000020 f9 00 6e bc c0 0a f6 bd 66 0b 64 be 5f d8 93 3e
       -0.014526599 -0.12013769 -0.22269973 0.28876016
000030 00 b1 7a 3f 84 9e f8 bd b4 42 4d bd a2 5d 95 be
       0.9792633 -0.121396095 -0.05011244 -0.29173
000040 e0 db 44 bc 8f 26 c2 bd eb 18 1a be ff bc 27 3f
       -0.012015313 -0.09480011 -0.15048568 0.6552276
000050 64 ef 1a 3d 50 3b de bd 26 50 ac be f8 2d ef 3e
       0.037825957 -0.10851157 -0.33654898 0.4671476
000060 69 0a 3b bd d6 c0 02 3f 53 01 46 be a5 c5 9b bd
       -0.045664225 0.51075494 -0.19336443 -0.07606057
000070 1b c0 e1 bd c5 a4 07 3f c6 15 9d 3e 31 b0 83 be
       -0.11022969 0.52985793 0.30680674 -0.2572036
000080 bc e7 ac be b8 44 06 3e 9a a5 93 be f6 4a 97 bd
       -0.3377055 0.13112152 -0.2883728 -0.073873445
000090 ee 87 3b bd a8 e2 8a be 8b a0 7b be 1a c6 ca be
       -0.04578393 -0.2712605 -0.24572961 -0.39604264
0000a0 45 11 fe bd 42 e1 2a be 97 bf 06 3e 48 cb 3b 3e
       -0.12405638 -0.16687492 0.13159023 0.18339264
0000b0 11 cf 0c be de 6e 0f be 1b 97 72 bd 9e 8a d9 be
       -0.13750865 -0.14007136 -0.059226137 -0.4248857
0000c0 18 51 12 be bc 92 30 be c5 71 d5 be 67 1b 10 be
       -0.14288747 -0.17243475 -0.41688362 -0.14072953
0000d0 05 30 7e be 93 e1 4b 3f 3c 4b d1 3e 1e b3 26 3e
       -0.24823005 0.79641074 0.40877712 0.16279265
0000e0 3b f8 48 bd 42 b6 71 be 77 e0 87 3e 5c a4 b9 bd
       -0.049064856 -0.23604682 0.2653844 -0.09064552
0000f0 ec 7a 87 bd 42 59 87 3e 6a 64 25 be 9c b2 03 3f
       -0.06615242 0.26435286 -0.16151586 0.5144441
000100 fe 49 e7 3e f2 a4 c0 bc e5 bd 40 be 9e 4f b4 3e
       0.4517364 -0.023516152 -0.18822439 0.35216993
000110 53 44 99 bc 20 2f 9a 3f 65 92 17 3f 4d 17 81 3e
       -0.018709337 1.2045631 0.59207755 0.2521309
000120 75 7f e5 bd 02 0e 55 3c ce e2 76 3e 01 43 a2 be
       -0.11205951 0.013003828 0.24109957 -0.31691745
000130 13 f7 01 bf 79 9a a5 3c 72 46 49 bd 4d e6 57 bf
       -0.5076763 0.02021526 -0.049139448 -0.84335786
000140 05 a1 4d bd 66 c3 b2 3d 4b be c2 bd 96 48 81 bc
       -0.05020239 0.087286755 -0.09508952 -0.015781682
000150 b3 ff c1 be a8 e2 0f 3f 07 e3 0b be d4 2c 25 3f
       -0.37890396 0.56205225 -0.13660823 0.6452153
000160 66 ae f4 be 8f 79 85 be 2f 8e a0 3c aa 18 1c 3f
       -0.47789305 -0.26069304 0.019599048 0.60975134
000170 02 9a 31 bf 77 f0 0a 3e 96 9c fa be cb c0 3d be
       -0.6937562 0.13568293 -0.4894759 -0.18530576
000180 14 90 2f 3d 1c 0c 69 be 4c a4 77 3e eb 5e b8 3e
       0.042862013 -0.22758526 0.24183768 0.36009917
000190 29 5e 2c be 85 ea 72 be 97 09 31 be f5 b4 2e 3f
       -0.16832794 -0.23722275 -0.17288814 0.6824487
0001a0 2c fb f2 3d 03 47 6a 3a c6 fa 66 be 7e e5 b0 bc
       0.118643135 0.0008936973 -0.225566 -0.021593805
0001b0 9a b7 ee bd 54 6b 9c be 16 a6 8c be 1e f6 9d bd
       -0.11656113 -0.30550635 -0.27470464 -0.07712959
0001c0 eb 0f dd 3e d3 67 fb 3e 65 1f 43 bd af 00 31 3f
       0.43176207 0.4910265 -0.047637362 0.6914167
0001d0 c2 68 6c 3d be 10 f9 bd 13 af 9b 3e cc f1 4f be
       0.057717092 -0.121613964 0.3040701 -0.20307082
0001e0 87 03 a7 bd b4 5c 77 3c ee 4d 18 be b8 4c 30 be
       -0.0815497 0.015097786 -0.14873478 -0.17216766
0001f0 4c 8c 14 3d f4 77 7c be d0 d5 bc be ee 9c 54 3e
       0.03626661 -0.24655133 -0.36881876 0.20762989

fc3.weight f4 [64, 128]
000000 bd 6f 8b 3d c8 e3 ef bc 09 9b 91 bd 26 f4 1c 3b
       0.06808422 -0.02928342 -0.07109649 0.0023949235
000010 c2 c5 4a 3d 60 bf 81 3b 12 b2 72 3d bf 91 34 bd
       0.049505003 0.0039595813 0.059251852 -0.044084307
000020 66 77 75 bd ec 0a 8f 3c 1f 17 1a be 76 ac 8d bd
       -0.05992832 0.017461263 -0.15047882 -0.0691766
000030 40 36 e4 3b 00 b2 df bd 94 84 e0 bc 04 e3 e9 3c
       0.006964475 -0.10922623 -0.027406968 0.028550632
000040 ab 82 3a bd 2a e1 34 3d d0 13 23 bc b6 a8 aa bc
       -0.04553477 0.044160046 -0.009953454 -0.0208324
000050 10 d6 b9 bd 3b da 9c bd 6d d5 79 bd 20 89 f6 bc
       -0.09074032 -0.07658812 -0.060994554 -0.030094683
000060 2b b0 8d bd 1b 6f 17 bd d6 b8 3a 3d 93 cd 4f bd
       -0.06918367 -0.036971193 0.04558643 -0.05073316
000070 07 98 87 bd 00 fe 68 ba df 86 90 3d b8 4b 2b 3c
       -0.06620794 -0.00088879466 0.070569746 0.0104550645
000080 74 eb 07 3d 10 39 0a be 8a 1e 11 bd fe 61 49 3d
       0.03318353 -0.1349833 -0.035429515 0.04916572
000090 d5 aa 2f bd f9 f7 88 3d dd af ad 3d 20 b7 4c bc
       -0.042887527 0.06687922 0.08480809 -0.012494832
0000a0 e0 4f b5 bc b8 9b 72 bd a5 66 99 be 7a ad 58 bd
       -0.022132814 -0.059230536 -0.29961124 -0.052899815
0000b0 cb 54 91 bd 44 87 a1 bd 98 ca 3b bc 90 a0 08 bc
       -0.07096251 -0.07887128 -0.011461876 -0.008339062
0000c0 2d 96 ab bd 80 ff c6 bb 9e 42 9b bd 2b 98 1a bd
       -0.08378253 -0.0060729384 -0.075810656 -0.037742775
0000d0 20 65 48 3b 42 20 cf bd 32 0e 65 3b 0c f6 80 bd
       0.0030577853 -0.101135746 0.0034951088 -0.0629693
0000e0 c2 d7 de bc 70 f3 ba 3b 5a 1c cb bd 7c 48 25 bd
       -0.02720249 0.0057052895 -0.09917517 -0.04035233
0000f0 ea c3 44 3d 26 64 ad bd 18 e0 0e bd 01 f0 c9 bd
       0.0480384 -0.084663674 -0.03488168 -0.0986023
000100 06 ad b2 bd 6c 30 2b bd 59 f2 94 3d e5 f9 01 be
       -0.08724408 -0.041794226 0.07272787 -0.12692983
000110 14 01 b6 bc 00 39 71 ba a6 bb 52 bd 00 d6 80 ba
       -0.022217311 -0.0009201914 -0.051448487 -0.0009829402
000120 0c a5 1b bd c6 10 1d be 4e 23 b8 bb b6 b9 a6 bd
       -0.037999198 -0.1533843 -0.005619443 -0.0814089
000130 65 72 1e be a1 c6 9a bd f2 85 0f 3d 4c cd 07 be
       -0.15473326 -0.07557417 0.03503985 -0.13261908
000140 9f e0 82 bd f5 30 4b be 38 0c a0 bd 1a 2c 24 be
       -0.06390499 -0.19842894 -0.078148305 -0.16032448
000150 36 f0 02 be a4 80 96 bc cf e7 8b 3d 2c 51 05 be
       -0.12786946 -0.018371888 0.06831323 -0.13019246
000160 e9 86 9f 3d 99 0b 93 bd c0 12 ba 3c 9c 13 9f bc
       0.07789404 -0.071799465 0.022714019 -0.01941853
000170 2e fb 0c 3d 58 4e 0d be 39 1e 0a bd 0d 8c 89 3d
       0.03441923 -0.13799417 -0.03372023 0.06716166
000180 58 5e 45 bc af e9 a3 bd c1 df 99 bd 30 f1 0a 3c
       -0.012046419 -0.08003556 -0.07513381 0.008480355
000190 b0 f8 74 bc 9f 32 d0 bc b0 ac b1 bc d0 8f bb bc
       -0.01495187 -0.025414763 -0.02168879 -0.022895724
0001a0 d6 ae 39 be 74 68 26 bd 24 f7 a3 3c 35 0c 0f be
       -0.18133101 -0.040626958 0.020015307 -0.139695
0001b0 9e cd f8 bc 1d 7a 36 bd 80 e8 b3 3c 80 98 f7 bc
       -0.030371483 -0.04455005 0.02196145 -0.030224085
0001c0 9d 22 a7 3d 40 97 90 3a c8 c0 19 3b ee c8 f6 bd
       0.08160899 0.0011031404 0.0023460854 -0.12050043
0001d0 90 a3 b1 bd d0 59 be bb b9 a5 85 3d 14 ac 11 3d
       -0.08673775 -0.0058090463 0.0652575 0.035564497
0001e0 e0 2e 90 bd 12 09 49 3d b8 9c 10 3d b3 ae 90 bd
       -0.07040191 0.049080916 0.03530571 -0.07064571
0001f0 0b 9e 99 bd 36 f3 1d 3d 6b bb bb bc 98 d3 4d be
       -0.075008474 0.038562022 -0.022916516 -0.20100248
000200 6a 1d 79 bd 36 49 97 bd 4e c8 6a bb 5b 3f 74 be
       -0.060819067 -0.07387011 -0.0035824957 -0.23852293
000210 e8 aa 59 bd 50 52 1c be 83 79 0f bd 74 75 b2 3c
       -0.053141505 -0.15265775 -0.035027992 0.021784522
000220 bb 11 0b be 19 1b d5 3c b4 57 c3 bd 79 7a 20 be
       -0.13580982 0.026013898 -0.095382124 -0.1567172
000230 c6 b6 cc bd 01 4d 71 be d0 98 8d bd 92 b3 16 bd
       -0.09995799 -0.23564531 -0.06913912 -0.036792345
000240 e1 19 89 3b 1d 8f d0 3c ce c3 09 3d 88 51 d8 bd
       0.004183993 0.025458867 0.033634 -0.10562426
000250 6c 9f 0d be 34 b9 ae bd 98 bf 8b bd a3 49 38 be
       -0.13830346 -0.085314184 -0.06823653 -0.1799684
000260 0c 41 7b bd cf 21 75 be c5 50 29 39 70 a4 67 bd
       -0.06134133 -0.23938678 0.00016147185 -0.056553304
000270 3f ae f1 bd 85 b5 30 be b2 6f aa bc 92 b0 63 be
       -0.11800813 -0.17256744 -0.020805214 -0.22235325
000280 d0 60 75 bc 3b 57 34 be 0a a5 29 bd 73 2f fe bd
       -0.014976695 -0.17611401 -0.04141716 -0.12411394
000290 a1 fe 8f be 88 5e 7f bd 40 15 bd ba 8b 08 76 3c
       -0.28123954 -0.06234601 -0.0014425889 0.015016685
0002a0 50 09 c7 3c f4 94 05 be dc ca e0 bd cd 6e 68 bd
       0.024296433 -0.13045102 -0.10976192 -0.056746293
0002b0 89 92 db bc e2 5e 6b bd e4 8e a7 bc 94 fd cf 3c
       -0.026803272 -0.057463534 -0.020453878 0.02538947
0002c0 24 12 0a be ce 97 1d 3d d1 ca 16 be 47 69 c8 3c
       -0.13483483 0.03847485 -0.14725806 0.024464263
0002d0 96 39 d0 bd 70 25 cb bd a0 43 f5 bd 47 bb d5 bd
       -0.10167234 -0.0991925 -0.11975789 -0.10436111
0002e0 6c 60 07 be 41 2f bc bd 0e 42 d0 bd 95 b5 0d be
       -0.13220376 -0.091887005 -0.10168849 -0.138388
0002f0 9a 47 07 be 53 b0 c4 bc 6b 9f 07 bd 97 c5 f9 bd
       -0.13210908 -0.02400986 -0.033111017 -0.121958904
000300 c3 44 b3 bd 44 1f cc 3c 80 3f 10 3e 62 89 b7 bd
       -0.0875335 0.024917252 0.14086723 -0.089617506
000310 a0 26 00 3b ce 34 00 be f2 a2 4e bd 4a dc 64 bd
       0.0019554272 -0.12520143 -0.050448366 -0.055874147
000320 c6 02 2e 3d 7f 45 26 3b c8 04 1b be 78 9c 7c bd
       0.042483114 0.0025371013 -0.15138543 -0.061672658
000330 70 13 bc bd a2 61 54 be ef 87 fa bd 91 81 5a 3c
       -0.09183395 -0.20740369 -0.122329585 0.013336555
000340 14 27 29 be f7 a4 35 be e2 25 05 be cf a1 63 be
       -0.16518813 -0.1773871 -0.13002732 -0.22229694
000350 e6 15 94 bd f3 8d d6 bd 96 23 30 3d c7 9b c3 bd
       -0.07230739 -0.104762934 0.043002687 -0.095511965
000360 48 76 de bc b0 cb a0 bb 33 45 a9 bd 57 87 af 3c
       -0.02715601 -0.004907094 -0.08265152 0.02142684
000370 38 0b 6e bd d5 b3 89 be a8 34 c7 3c ed bc 93 3d
       -0.058116168 -0.26895013 0.0243171 0.07213769
000380 a2 10 9a 3d 06 c6 05 be 14 4e fb bc e5 df 1a bd
       0.07522704 -0.13063821 -0.030676879 -0.03781118
000390 4f f3 bb bd aa 25 bb 3c df 95 31 bd 85 d9 53 bb
       -0.09177267 0.022845108 -0.04335582 -0.0032325697
0003a0 00 48 42 be 1a 46 9f bd ae cf 10 be 5f 03 2a bd
       -0.18972778 -0.07777043 -0.14141724 -0.04150712
0003b0 4e 20 db bd 4d d7 0b be 47 0f 0d be ac 81 47 bd
       -0.10699521 -0.1365635 -0.13775359 -0.04870765
0003c0 0e 8c 43 be f1 e2 5a bd f1 87 af bd f4 73 ba bc
       -0.19096395 -0.053439084 -0.08570851 -0.022760369
0003d0 93 87 55 be 18 50 db 3c c1 fe d8 bc d8 63 19 3c
       -0.20852499 0.02677159 -0.026488664 0.0093621835
0003e0 cc c7 01 bd da d0 ba bd a7 a5 5e be 10 34 a9 bd
       -0.03168468 -0.091218665 -0.21742879 -0.08261883
0003f0 92 81 06 be af 0e a2 3c 64 e5 17 be a3 30 f9 bd
       -0.13135365 0.019782392 -0.148336 -0.1216748

fc3.bias f4 [64]
000000 93 9f a1 be b1 c6 11 be 30 32 4b be ee 68 1d 3e
       -0.31567058 -0.14235951 -0.19843364 0.15372059
000010 08 ba 1a 3f 21 1b ef 3e 4b d4 f6 3e 43 e0 83 bd
       0.6044011 0.46700385 0.48208842 -0.06439259
000020 5e c6 1f be 6c b9 49 bf a4 92 82 be 27 02 0a be
       -0.15603015 -0.78798556 -0.25502503 -0.13477384
000030 28 de 12 be 35 0c 3e 3f e6 ce fc bd 4d 5f 97 3d
       -0.14342558 0.74237376 -0.1234415 0.07391224
000040 c1 ec 1f be 71 bb 74 3e b2 89 fb bd e3 d3 83 be
       -0.15617658 0.23899628 -0.12282123 -0.25747594
000050 87 8c 92 bd 7c be 39 bc 33 a0 00 be da af 3a 3f
       -0.0715571 -0.011336919 -0.12561111 0.7292458
000060 e5 6e a4 3e 4d 78 60 3e 07 e9 8e bd 08 0a 82 be
       0.32115856 0.21920891 -0.0697804 -0.25398278
000070 e9 0c b0 3e 0d ef 68 3e 70 4f 7c 3e 9b 1d a3 be
       0.3438485 0.2274744 0.24639678 -0.31858525
000080 e8 11 51 3d e3 2a ef 3e 54 ac 74 3e 60 40 e8 bd
       0.051042467 0.46712407 0.23893863 -0.113404036
000090 42 c9 39 3d 5b 24 34 be 17 13 c0 3e 3e 6f 3b be
       0.04535795 -0.17591994 0.37514564 -0.18304154
0000a0 22 89 42 3f 1f a9 40 3f fc db de bd 5c b7 06 3f
       0.759905 0.7525806 -0.108818024 0.52623534
0000b0 92 c5 b7 bc d3 82 00 3f e2 2f ae 3e 46 58 b2 3e
       -0.022433076 0.5019962 0.34020907 0.34832972
0000c0 cd 90 0a 3f 7a 90 1d be d0 ec b8 3e d3 5c 03 bf
       0.541272 -0.15387145 0.36118174 -0.51313514
0000d0 18 b6 c2 be ba 40 8b be c0 a1 3b bc c9 f9 52 bd
       -0.38029552 -0.2719782 -0.011452138 -0.051507745
0000e0 f0 17 28 3d d2 e7 74 be a7 be 9c bd 51 7a 86 be
       0.041038454 -0.23916557 -0.076535515 -0.26265195
0000f0 b4 59 78 3e 81 88 e0 3e 29 dc 26 3f e1 34 92 bd
       0.24252969 0.43854144 0.6517969 -0.07138992

fc4.weight f4 [10, 64]
000000 24 b1 90 be 3a 92 a1 bd 10 09 8b bb 71 2d 24 3d
       -0.28260148 -0.07889219 -0.0042430237 0.0400824
000010 5d 75 6a 3d fa 9c e9 3d 1c ec 98 bc fc b9 a8 3c
       0.057240833 0.11406894 -0.018667273 0.020596497
000020 b2 c0 85 be ce cc 93 be 0a 66 eb bb a0 d7 6f bd
       -0.26123577 -0.2886719 -0.007183795 -0.058555245
000030 76 ad 92 bd 04 cc af be 8b b9 b8 3d 5c 3a 91 be
       -0.07161991 -0.3433534 0.090197645 -0.28364837
000040 22 c0 0b 3d 64 3e 24 be d6 9b 23 be 05 91 02 be
       0.03411878 -0.16039425 -0.15977415 -0.12750633
000050 b7 a0 1a be 43 60 77 3c 64 8c b0 3d fd 23 43 be
       -0.1510037 0.015098634 0.086205274 -0.19056697
000060 4a 4d 9d 3d ac 78 b6 3a d6 04 1b 3d d6 e5 a7 bd
       0.07680757 0.0013921461 0.03784641 -0.081981346
000070 58 51 1c 3d 97 83 91 be 53 c3 83 3d 46 ae 81 bf
       0.038163513 -0.28420708 0.064337395 -1.0131309
000080 73 e2 fe bd d7 a3 1b 3e b0 d7 78 be eb 02 68 bd
       -0.124455355 0.15199219 -0.24301028 -0.056643408
000090 89 12 8e be 1f 79 53 bd ac c2 c9 bd 8f 6c 9e be
       -0.27748516 -0.051629182 -0.09851584 -0.309422
0000a0 ca f6 19 bf af 72 6e 3e 7e 33 96 bc bc ae 43 3d
       -0.60142195 0.23285936 -0.0183351 0.04777406
0000b0 b8 b0 75 bd 2a 3f fb 3d a5 b5 5d bd 9c e1 91 be
       -0.059982985 0.12267907 -0.054128308 -0.2849244
0000c0 a6 05 6a 3e 99 ee d0 bd 42 83 fe bb 5c 96 8e bd
       0.22853717 -0.10201759 -0.007767112 -0.069622725
0000d0 ab 21 f0 bd 46 77 db 3c c4 9c 3d 3d 14 21 36 3d
       -0.11725172 0.026790272 0.04629208 0.04446514
0000e0 76 85 a1 3d d9 26 c7 be df 60 67 bb cb f3 19 be
       0.07886784 -0.38896826 -0.0035305542 -0.15034406
0000f0 4a 4d a5 3d 04 51 88 3a 58 23 a8 be b4 a2 09 3d
       0.08071382 0.0010400121 -0.32839465 0.03360243
000100 9e f3 00 be ad ab e7 3c d0 ff b4 3d a5 1e 70 3e
       -0.12592933 0.028280104 0.08837855 0.2344919
000110 bc b4 72 be be 9e 32 3d a8 03 6c be b6 ec 75 be
       -0.23701757 0.04360842 -0.2304827 -0.2401608
000120 46 db 78 3d 3b 4d 32 bf 8b b2 82 bc 52 23 61 be
       0.06075599 -0.69649094 -0.015954277 -0.2198613
000130 65 1f 12 bf b4 68 1d bd 6e 78 48 3c ef 8d 3d bf
       -0.57079154 -0.03842993 0.012235744 -0.740447
000140 c2 9f ee 3c 60 2c ff be 4b 4e 0a bf 15 2b 2c 3e
       0.029128913 -0.49838543 -0.54025716 0.1681331
000150 c1 09 ad bd 9d 47 45 3c 5f 0a 28 3b ea 90 11 bf
       -0.08449126 0.012041 0.0025640947 -0.56861746
000160 cc 4f a9 be 03 aa b0 3d 6d a3 ef bd 7f a1 06 bd
       -0.33068693 0.08626177 -0.11701093 -0.03286886
000170 5c 14 88 3a 19 93 a7 bd c8 ef 2c bf b8 7a 3b bf
       0.0010382044 -0.081823535 -0.6755338 -0.7323413
000180 fb ee 3d bf d3 63 2b bf 58 20 9a be 59 6a 23 be
       -0.7419278 -0.66949195 -0.301028 -0.15958537
000190 b3 f5 1f 3e db e8 fc bd 7c 8c 48 3d ad 69 bf bd
       0.1562107 -0.12349101 0.0489621 -0.09346328
0001a0 57 a6 42 bf 85 1f 89 be a5 31 56 be 53 8c 04 3e
       -0.76035064 -0.2678186 -0.20917375 0.12944154
0001b0 0f cc 62 be 8f 58 b3 bc b4 0c 5c be 5c 71 70 bd
       -0.22148155 -0.021892814 -0.21489221 -0.058701858
0001c0 39 78 94 be a0 24 3c be ba 6d 02 be 6d 07 47 3d
       -0.28997973 -0.18373346 -0.1273717 0.048591066
0001d0 6b 8b 9d be cd 94 98 3d c9 4b 5e be 8e 18 9c bd
       -0.3077043 0.074502565 -0.21708597 -0.07621871
0001e0 ce 4a 6e 3b b1 13 39 be 92 6a 6d 3d 19 7d 19 bd
       0.0036360505 -0.18073918 0.05796296 -0.037472818
0001f0 92 96 e2 be ec 54 02 bf a7 6c fd be 8b 37 1c 3e
       -0.442555 -0.5091083 -0.49496958 0.15255563
000200 9d cf 97 be fb 25 f7 bd 23 0e 1d be 20 6d 9d be
       -0.29650584 -0.12067791 -0.15337424 -0.30747318
000210 33 6f 01 bd ee f4 c9 be 2b 77 8f be 24 1e b1 be
       -0.03160019 -0.3944468 -0.28020605 -0.34593308
000220 8b f7 23 bd 07 5e 0f bf 31 5a ae bd dc d5 93 bd
       -0.040030997 -0.5600285 -0.085132964 -0.07218525
000230 4d 02 97 bd fa 4a ea be cd 2a 4c 3d 50 b7 ee be
       -0.07373486 -0.45760328 0.049845506 -0.4662423
000240 00 12 af 3d 47 79 53 3e ea 74 a0 be a0 88 7d bd
       0.08548355 0.20651732 -0.31339198 -0.061897874
000250 ac 19 d9 bd 02 21 ae 3d ef ca 9d bb bb e4 57 bf
       -0.106006 0.085023895 -0.0048154513 -0.8433339
000260 7c 3a 21 bd 02 65 71 3d df 2e 21 bd 6d 3e 16 3e
       -0.039362416 0.05893422 -0.03935134 0.14672251
000270 ce 80 46 be 76 37 91 be 4e ae 6c 3d 92 22 84 bf
       -0.19385073 -0.28362626 0.057783417 -1.032305
000280 a4 ff cd 3c dc 26 81 3d 2e fb 2e 3d 39 cd be bc
       0.025146313 0.0630624 0.042720012 -0.023291217
000290 81 d7 cb 3c bb e2 a1 3d c2 02 f9 3d 2c ed c6 be
       0.024883034 0.079045735 0.12158729 -0.38852823
0002a0 c2 42 03 bf 35 12 0d 3e 3a 9a 21 be ea 31 49 be
       -0.5127374 0.13776477 -0.15781489 -0.19647947
0002b0 18 b4 f0 3c 58 ef 59 bd 9b 60 ce 3d 96 86 6f 3d
       0.02938275 -0.05320677 0.1007702 0.05847796
0002c0 23 25 b0 be 5d 99 3b be 7f da db bd de 77 27 be
       -0.34403333 -0.18320222 -0.10735034 -0.1635432
0002d0 55 f1 1c 3d c1 81 6a bd 90 0b e9 3d 19 86 a3 3c
       0.03831609 -0.05725265 0.113791585 0.019961404
0002e0 04 6a d3 3d f1 51 37 bd e4 af 9a bd 38 00 dc bd
       0.10322955 -0.04475588 -0.0755308 -0.10742229
0002f0 d9 5b 8f bd d9 0c 32 3e 78 f3 70 be a2 63 91 bc
       -0.069999404 0.17387713 -0.23530376 -0.017747704
000300 e5 de 46 be 8b a1 ac 3c 79 48 e9 be 03 87 1e 3d
       -0.19420965 0.021073123 -0.45563105 0.038702976
000310 6b 7c e2 be cc 7f 38 be d4 54 04 be b6 05 84 be
       -0.44235548 -0.180175 -0.12922984 -0.25785607
000320 20 d2 18 bd 9e 3d 81 be 11 99 f8 3d 51 33 78 bd
       -0.037309766 -0.25242323 0.1213857 -0.060595814
000330 94 65 8c be 73 ff 1a bf ec b9 04 be ec b5 cd be
       -0.27421248 -0.60546035 -0.12961549 -0.40177858
000340 b7 e3 9a bc 48 93 f2 be a2 1e 04 bc 9d 4c 82 be
       -0.018907411 -0.47377992 -0.008063944 -0.25449076
000350 ea d9 15 be c8 61 31 be 69 18 4f bd 15 8c 3b bf
       -0.14633909 -0.17322457 -0.05056039 -0.73260623
000360 1f c0 89 3d 6c 8f a7 3d 01 09 59 3d a7 b6 3b bb
       0.06726097 0.081816524 0.052987102 -0.0028642805
000370 f3 28 b5 3c 8b 13 be 3d e0 60 62 bd 20 35 83 bf
       0.022114253 0.09281071 -0.05526817 -1.0250587
000380 43 a5 2c bf ad 36 47 be 29 76 c0 bd 8c 0d 34 3d
       -0.6743967 -0.19454451 -0.09397537 0.04395823
000390 e8 63 61 be 8b 7d 7d 3c 65 f2 40 be 7b 67 53 be
       -0.22010767 0.015471826 -0.18842466 -0.20644943
0003a0 13 d9 c8 be 6e 0b d8 3d 1a 28 fd bc a1 31 7c 3d
       -0.39228114 0.10549055 -0.030902911 0.061570767
0003b0 af 66 59 bc 03 75 6d 3e be ad 01 bf a7 45 37 3d
       -0.013269111 0.23189168 -0.50655735 0.04474416
0003c0 e0 46 48 be 3c 2b 92 be c9 bb 3f 3e f6 7c 16 be
       -0.19558287 -0.2854861 0.18723978 -0.14696106
0003d0 dd 5a ac 3d 97 33 2e 3d 7d 53 13 be 8c c7 b3 bd
       0.08415768 0.04252967 -0.14387317 -0.08778295
0003e0 d2 3d 8a be 56 4c 6f be bf 43 0a 3e b4 c4 49 be
       -0.2700029 -0.23368964 0.13502406 -0.19703943
0003f0 a2 d3 93 bc 0a a1 ce 3c 69 96 08 bf 88 03 64 3b
       -0.01804525 0.025223274 -0.5335451 0.0034792144

fc4.bias f4 [10]
000000 24 ad 06 3d 5f 0c 25 bf f8 9b 90 3e 0b 54 d4 3e
       0.032879964 -0.64472 0.28243995 0.4147037
000010 f3 cb 9a be ab 7c 0a 3f 14 03 82 3e 77 35 17 3e
       -0.30233726 0.5409648 0.25392973 0.14766489
000020 03 3d 25 bd da f3 46 bf
       -0.04034139 -0.7771584
