runs/Mar02_16-01-38_cssd901383-Run(lr=0.001, batch_size=256, patience=1)-valid/checkpoint.pt (torch_old, 972387 bytes, 8 tensors)

fc1.weight f4 [256, 784]
00000000: e445 9ebb 66cb e13c baeb b23c a6f5 223d
00000010: 90af 15bd f754 65bc 6dc7 2c3c f9be bd3c
00000020: 1516 8dbc 38ce adbb b086 febc 2280 9bbc
00000030: f340 ee3c edca b3bc ad5d d73b 9d8e 643c
00000040: c10d c8bc 3f5a 7dbb 79fb da3c 69d9 e73c
00000050: f9d3 ce3b a68e bebc 2d36 b8ba 3c03 9f3c
00000060: b680 a83c dc3f 32bc d0d4 ab3b ee46 10bc
00000070: 6e6a 47bc c433 0a3c 34d4 943c 43b8 0c3c
00000080: a85c ee3c 85a9 c83c 28d4 de3c 5651 8bbc
00000090: 7a9d 013d 5140 98bc 672a 2db9 b1fd 76bc
000000a0: 5bf6 cabb f15d e6bb e3e3 6eba ff76 bf3c
000000b0: 130b a4bb 0984 96bc 33f8 4cbc ef77 7d3c
000000c0: 93d4 0bbc 96db 5b3c b4c3 c9bb b26a 02bd
000000d0: 8ca5 a73c 7284 51bc aaba 993c 2623 3fbc
000000e0: 00ac 3cb8 d8bf 34bc 0696 e03c c980 c73c
000000f0: e030 0a3d fe2a d6bc a0c3 263c bbe9 ca3b
00000100: 469d deba a193 a8bc 7c49 af3c 796e 773c
00000110: af0e 413d ab5f 0c3d cac0 6cbc af44 4e3d
00000120: 93a2 c1bc 7bbe c23c 3046 0e3b a5af ef3c
00000130: 99be 9d3c 5ec4 95bc 832a 583b d888 d93c
00000140: 44eb 97bc 77d7 3f3c 27e8 5ebc 9696 e13c
00000150: 75c5 0e3d e0fa 01bd 893e 9ebc 0a15 06bd
00000160: 93e0 b53c ea25 153d 4776 993c 93b9 91bc
00000170: 571d ce3b cfeb 8fbc 15bb 913c 5685 e8bb
00000180: ca62 c4bc fb6c 4dbc 530f 933c 0e52 ba3a
00000190: 4d7f f4ba 2530 19bc 2b97 2a3a 84c2 043d
000001a0: e6a1 bc3c af22 31bb 17c0 f33b b409 c4bc
000001b0: f5ba b1bc 6bd1 213d a010 2a3c 9e33 f43c
000001c0: b3fb a5bc 3add c2bc 5fb2 ffba feea 4a3c
000001d0: 13ab f13b 4335 b2bc a668 31bc 8a5a bebc
000001e0: 76ff 3fbc 2e79 61bc 3cc7 80bb bba9 f93a
000001f0: 659f 13bd 57e6 db3c d05f f73c b9db a2bb
00000200: b8ab 373c 3ce2 f8bb b3a4 0abd 0fbd 2fbd
00000210: 840e 183c 608e d73b c99c 903c 88ae 98ba
00000220: 16fc 633c 2b80 d73c a486 0dbc 9f21 4d3c
00000230: 73e4 f6bc ca5a 803c bdcb 6fbc 3590 fcbb
00000240: 5bd9 babb f930 8d3c a18b 903b 2fe7 2e3d
00000250: 4c21 843c 7044 fc3b 5522 3cbc a5aa a63c
00000260: 86d3 b3bc 66ed 81bc dcf4 b9bc 0a90 cfbb
00000270: 5941 5cbc 443a 4f3c 7588 29bc 6949 20bd
00000280: 3a6c 0dbd c399 8fbb 4bca 82bc 2259 d4bc
00000290: 02b7 d6bc 66f4 883b c369 943c d110 2b3d
000002a0: a1a6 1abc 5209 013c e437 d33c 49e7 12bc
000002b0: 673f e73b 29b4 933c 9a6f 47bc ca44 6f3c
000002c0: 7744 c83b 9987 0bbd 2f2e 95bc 2cb9 f5bc
000002d0: 2c23 6d3c 2d97 583c b59d c7ba f1aa 05bd
000002e0: 6888 e73c 1eac c73a ebaf 1abd 6e62 0cbd
000002f0: 1fae e2bb d034 ca3c 8045 0fbd aec8 9fbc
00000300: 0161 f23b e4e4 abbc df43 3bbb a4f5 e6bc
00000310: b5fb 373c 5c28 513b 5037 34bc 5a5f f1bb
00000320: 02ac 95bc 0a94 82bc 641a 363c 38e7 a73c
00000330: 8486 31bd adcd e3bb 9948 7a39 3732 943c
00000340: c54f c0bc d5a0 b13c 7a8b afbc e72b 38bd
00000350: 8287 8dbc d277 91bc 35cf 413c 6e26 303c
00000360: fbda 133c 407d 9d3b 89c9 a239 b0bb b5bc
00000370: b18e 3a3b 616b ccbc fb3d d4bc e9ed 25bd
00000380: 395b 993c 450c 013c b6e7 d63c 065d d43c
00000390: 0c6d 273c 4a3d 0cbd 4052 c33c 21fa 533b
000003a0: 6f19 2cbd 0104 c93a 5a30 113c fc48 7fbc
000003b0: 1b8d 373b c97e 263d d1e0 d0bc 7dea 43bb
000003c0: b54a b03a d7cf 003c 24da 08bc 8fb8 8b3c
000003d0: 2e5e 7ebb 330a 013c f34a 003d 7345 cdbc
000003e0: 9092 10bd c521 0bbd 7352 463c d2c7 01bd
000003f0: 4683 0abc c742 a2bc ccaa c6bc c753 a43c
-0.004830109 0.027562808 0.021840919 0.03978505 -0.036544383 -0.013997308 0.010545594 0.023162352
-0.017222444 -0.005304124 -0.031070083 -0.018981997 0.029083705 -0.021947348 0.0065724463 0.013950017
-0.02442062 -0.0038658527 0.02673124 0.028301911 0.00631189 -0.02326138 -0.0014054232 0.019410722
0.020569187 -0.010879483 0.005243875 -0.008805973 -0.012171371 0.008435193 0.018167593 0.008588853
0.029096916 0.024494896 0.027200773 -0.017006557 0.031644322 -0.018585356 -0.00016514362 -0.015075133
-0.0061939186 -0.0070302417 -0.0009112937 0.023372171 -0.005006203 -0.018373506 -0.012510347 0.015470489
-0.008534568 0.013419053 -0.006157363 -0.031840034 0.020464681 -0.012787925 0.018765766 -0.011666095
-4.498288e-05 -0.011032067 0.027415287 0.024353402 0.033738017 -0.026143547 0.010178477 0.0061924136
-0.0016984127 -0.020578207 0.021397345 0.015102022 0.047133144 0.034270924 -0.014450261 0.05035847
-0.023637092 0.023772469 0.0021709315 0.029258559 0.019255923 -0.018282112 0.0032984323 0.02655451
-0.0185448 0.011709086 -0.013605154 0.027537625 0.03485628 -0.031733394 -0.019316928 -0.03273491
0.022201812 0.03641311 0.018733157 -0.017788684 0.0062901187 -0.017568497 0.017789403 -0.007095973
-0.023972888 -0.01253819 0.017951643 0.0014215128 -0.0018653661 -0.009349857 0.0006507511 0.032412067
0.023026418 -0.002702873 0.0074386704 -0.023930408 -0.021695593 0.039506357 0.01037994 0.02980977
-0.020261621 -0.02378713 -0.0019508115 0.012385128 0.00737513 -0.021753913 -0.010828173 -0.023236532
-0.0117186215 -0.013761802 -0.0039300006 0.0019047776 -0.036040682 0.026843233 0.030197054 -0.0049700406
0.0112103745 -0.0075953286 -0.033848476 -0.04290491 0.009280805 0.0065782517 0.017652886 -0.0011648694
0.013915082 0.026306232 -0.008638058 0.012520223 -0.03013823 0.015668292 -0.014635977 -0.0077076205
-0.0057021803 0.017235266 0.0044111763 0.042700943 0.016129158 0.007698588 -0.011482795 0.020345042
-0.021951448 -0.01586027 -0.022699766 -0.0063343095 -0.0134433145 0.012648169 -0.010347475 -0.03913251
-0.03452704 -0.0043823435 -0.015965601 -0.025921408 -0.026210312 0.004179525 0.018116837 0.041764084
-0.0094391415 0.007875757 0.025783487 -0.0089662755 0.0070571187 0.018030243 -0.012172604 0.014603803
0.0061116773 -0.034064863 -0.018210499 -0.029995523 0.014473718 0.013219637 -0.0015229495 -0.032633726
0.028263286 0.001523379 -0.037765425 -0.034273557 -0.0069177295 0.024683386 -0.03497839 -0.019504871
0.0073968177 -0.020983167 -0.002857439 -0.028193302 0.011229445 0.0031914925 -0.010999516 -0.007366103
-0.018270496 -0.015939731 0.01111469 0.020495996 -0.043341175 -0.0069520087 0.00023868903 0.01809035
-0.023475537 0.021683136 -0.021428812 -0.044963744 -0.01727653 -0.01775733 0.011829187 0.01075135
0.009024377 0.0048061907 0.00031049203 -0.022184223 0.0028466398 -0.024953546 -0.02590846 -0.040510092
0.018720256 0.00787646 0.026233535 0.025923263 0.01021887 -0.034238137 0.02384293 0.0032345133
-0.042016443 0.0015336276 0.008861626 -0.015581366 0.002800769 0.040648255 -0.025497826 -0.0029894405
0.0013449999 0.007862053 -0.00835279 0.017055778 -0.003881346 0.007875967 0.031321477 -0.02505753
-0.035296023 -0.033967752 0.012104618 -0.031684704 -0.00845415 -0.019807233 -0.024251364 0.02005948

fc1.bias f4 [256]
00000000: 7c5e 913c 5db1 3dbc 3580 823d c3db c23d
00000010: 9adf 803c 8ad7 37bd 7461 113b 63d1 9e3c
00000020: 9eca d33c dbb3 47bb 5f19 833d 7da7 4fbc
00000030: de81 ae3d b2de 9a3c f415 293d d5f4 c7bc
00000040: fec2 113d 0437 cebd d741 55bb daa1 6abc
00000050: 23e2 023d f166 a03d 042c 2a3c a91a 7abc
00000060: d184 a13d 4299 84bd b175 573d 2550 c33d
00000070: f4a9 4b3d 847b 8fbd 1ab2 02bc 869b 53bd
00000080: ec1c 02bc 7d25 40bd 8f75 21bd 1537 773d
00000090: 0783 37bc d940 493d 7765 85bc 4ab4 a53d
000000a0: 05b6 333d 58c8 ca3d 1c18 2fbd 709d 183d
000000b0: 8b07 913d fae5 4fbd 7db7 a13d cd28 b43d
000000c0: 4307 99bc 040f 92bb 9b15 bb3c d76b 573d
000000d0: 53a8 793d 3c92 2d3d cbaa 833d 09e5 943d
000000e0: 5e5a 023e bd76 c0bc d91c 5e3d 53a9 0fbc
000000f0: ccec 273e 4429 f73d efbe 3e3d 3d28 3b3d
00000100: c358 cd3d 111a 083e 27eb c2b9 16e7 553d
00000110: d145 76bc 8ee1 253d 5082 a63d 053e e93c
00000120: 9482 203c 69f9 163d 6870 ddbc 1fda 893d
00000130: 4410 163d 9e48 2dbc 7d4f 8c3d a9a6 3ebd
00000140: 0e5b b7bb a53e be3d c36e 9e3d a8c4 0d3d
00000150: b5c1 883d 8f98 323d 2f46 ba3c 5531 1cbb
00000160: a24d b3bc baaa aa3b 3875 4d3c f97e 06bd
00000170: d845 493c b7c3 91bc ade2 753d a835 cb3c
00000180: 97bb 8a3b 19c7 55bd 6014 e9bc a1d9 c13b
00000190: a91e 433d b3d2 453c 05c1 863d de40 44bd
000001a0: cb1c bcbd 073e 99bd ffc6 e53b 9e4b 4f3d
000001b0: 2793 e0bc 82fe f03c d6df 9d3d 0b69 ecbc
000001c0: 042d 143e 8aa7 13bb 1ef6 433d 90e4 c23d
000001d0: 4604 e5bc 3152 edbc 9b83 fb3d 3426 a03c
000001e0: 15d0 e83b 7b70 39bd a6dc 983d 5fcd 0f3d
000001f0: f464 da3d e83c 603d 1873 36bc f2cf c53d
00000200: 907a a3bb eb3f 0ebd a17e a1bc 8cfb 6bbd
00000210: e132 a23b 2451 71bc 38cb 183b d475 03bd
00000220: a2f4 113e 8ed1 713d ab45 79bc 7ead 913d
00000230: 8d79 bd3b 27e0 7f3d ce98 0c3d 248e a03d
00000240: f52b aabc ae53 d43d 17b0 28bd af46 a33d
00000250: eb47 6d3d 6ffa 0fbc c5a0 193d ee55 00bd
00000260: 7f41 10bb 665f f03c bdb9 1a3d 00d9 b53c
00000270: 74d5 7e3d 6c4a 6c3d dbc6 133c d1f4 5e3b
00000280: 5a6b 9dba b784 1e3c 1655 853c 967b 06bd
00000290: 5a51 a6bc e15e 93bd d891 013e 35ff a9bd
000002a0: 7468 aa3d 8923 7b3c 057a dc3d 8aff 753d
000002b0: e060 77bd 7511 9a3c 4aa7 eabc fd8d 25bd
000002c0: a21c a3bc a6d7 babd 3e9e 0f3d 12b1 ad3d
000002d0: fa48 453c 6325 56bd 50ad e3bc de2a a33d
000002e0: 619b 8239 4819 0e3c cbe6 ecbc ab61 92bb
000002f0: 02b8 1a3c eb8a 5fbc ebc4 893c 8bc5 343d
00000300: 2047 073d d79e 83bd 8041 abbd 7069 52bd
00000310: 96c7 a43d cba4 b43c a619 06bd c3f6 5c3d
00000320: 5faf b13d 429a 773d c5c8 b1bb bf04 293d
00000330: 076e fabc 7c97 973d 332a 12bd cfc2 2fbb
00000340: 38f5 be3d 26dd 9e3d cc94 393c 893a 9cbc
00000350: 65e5 bd3d 2399 0fbd 5af9 9fbd d728 093d
00000360: ddc6 cb3c e0db 6fbd aa12 833d 3965 763c
00000370: 3c5e 843c 8f6e 413d de83 803d 7039 33bd
00000380: 8f23 23bc 4917 0d3d 951c bb3d f267 6d3c
00000390: afad a63d 93be b43d 8ff0 773b 57fc f93c
000003a0: ce3f 4c3d e893 a03d f827 a83d 1639 f2bc
000003b0: 9aae 28bd 81d8 7a3d 26e8 493a 238d ce3b
000003c0: c99a ba3c 222c ff3c a73b bd39 e5c9 073d
000003d0: 31f2 093d 9545 4d3d fd00 a03d f4c8 9ebc
000003e0: f801 ad3d b2e5 05bd e847 9abc 81f8 58bd
000003f0: 5011 8cbb 79a9 9c3d 8e8d 4c3d 9ad5 313d
0.017745249 -0.011577931 0.0637211 0.095145725 0.015731622 -0.04488329 0.002218333 0.019386953
0.025853451 -0.0030472192 0.064013235 -0.01267421 0.08520864 0.018905018 0.0412807 -0.024408737
0.03558635 -0.10069087 -0.0032540464 -0.014320815 0.031953942 0.078321345 0.010386471 -0.015265145
0.07886661 -0.06474544 0.052602474 0.09536771 0.049722627 -0.070059806 -0.007977033 -0.05166199
-0.007941466 -0.04691075 -0.039418753 0.060355265 -0.011200673 0.04913411 -0.016283734 0.08091028
0.04387476 0.09901494 -0.042747602 0.03725952 0.07081517 -0.050756432 0.07896326 0.08796845
-0.01868022 -0.0044573564 0.02283745 0.05259308 0.060951542 0.042375788 0.064290605 0.072702475
0.12729785 -0.023494119 0.05422673 -0.008768397 0.16398925 0.12068418 0.046568807 0.04569267
0.100266956 0.13291194 -0.00037177766 0.052222334 -0.015031294 0.04049831 0.08130324 0.028471956
0.009796757 0.03685895 -0.027031139 0.067310564 0.036636606 -0.010576395 0.06851099 -0.04654566
-0.0055955714 0.09289292 0.0773597 0.034611374 0.06677572 0.043602522 0.022738544 -0.0023833115
-0.021887604 0.0052083405 0.012540154 -0.032835934 0.012284718 -0.01779352 0.060030628 0.024805859
0.0042337882 -0.052191827 -0.028452098 0.005915836 0.04763666 0.01207416 0.06579784 -0.047913425
-0.09185179 -0.07482534 0.0070122476 0.050609224 -0.027413918 0.029418234 0.07708709 -0.028858682
0.14470297 -0.002253028 0.047842138 0.09516251 -0.02795614 -0.028969856 0.12280961 0.019549467
0.0071048834 -0.045273285 0.0746396 0.035107967 0.106637865 0.054745585 -0.011135839 0.09658803
-0.004988976 -0.034728926 -0.019713702 -0.05761294 0.004949913 -0.014728818 0.0023314487 -0.03209479
0.14253476 0.059037738 -0.015214364 0.07113169 0.0057823122 0.062469628 0.034325413 0.07839611
-0.020772913 0.10367523 -0.041183557 0.07972466 0.057929914 -0.008787735 0.037506837 -0.03133195
-0.0022011695 0.029342365 0.03777479 0.0221982 0.062215284 0.05768816 0.009019579 0.0034020434
-0.0012010143 0.009675196 0.016275924 -0.032832704 -0.020302463 -0.07195831 0.12653291 -0.0830063
0.08320704 0.015328296 0.10765461 0.060058154 -0.06039512 0.018807152 -0.028644223 -0.040418614
-0.019911114 -0.09123163 0.03506302 0.08481039 0.012041325 -0.05228175 -0.027792603 0.07967161
0.00024911299 0.00867302 -0.028918644 -0.0044672093 0.009443285 -0.0136439605 0.01681753 0.044133704
0.033026814 -0.06426781 -0.083621025 -0.051370084 0.080458805 0.022051236 -0.032739304 0.053946268
0.086760275 0.060449846 -0.005425545 0.04126429 -0.030570043 0.0740194 -0.035684776 -0.0026818996
0.093241155 0.077570245 0.01132698 -0.01907088 0.09272269 -0.035058152 -0.07811232 0.033486214
0.024875099 -0.0585593 0.06400044 0.015038782 0.016158216 0.047224578 0.06275152 -0.04375595
-0.009957208 0.034446035 0.09136311 0.0144901145 0.08138596 0.08825412 0.0037832593 0.030515833
0.049865536 0.07840711 0.082107484 -0.029568236 -0.041182138 0.06124163 0.00077021343 0.006303446
0.022778885 0.031148974 0.00036093334 0.033151526 0.033678237 0.050115187 0.078126885 -0.019382931
0.08447641 -0.032689758 -0.018833116 -0.052971367 -0.0042745247 0.07649512 0.049939685 0.043416597

fc2.weight f4 [128, 256]
00000000: e34a 45bc 8f2a a63c ea76 a53d e14d f03b
00000010: 6ccd 723c cf71 d6bc 1936 a93c 29d9 623d
00000020: 0225 e6bb 9391 64bd 206b 083d 2430 adbc
00000030: 764e a73d 2849 28bc d458 aa3b fda4 67bd
00000040: 4fee b0bd c855 9abb 5173 593d 95e8 b6bc
00000050: 32e4 4f3c c296 2c3c cc2d 8b3d ced8 513d
00000060: 9692 1e3d 5953 c13d 4162 a1bd 2819 3c3d
00000070: 3a33 04bc 470a d13c be11 11bd f453 f7bc
00000080: 72cb b33c f0a1 f9bc b4c9 8a3d aa5b 80bc
00000090: 5a61 dd3b 2999 a43d c255 6f3c b06d 533d
000000a0: 0227 80ba 839b 683d b97f 5cbd 0a22 c53c
000000b0: 0ebc 96ba 888b af3d c7bd 4ebb fe5c bcbc
000000c0: 9a22 72bc ba9e 553d bec5 23bc b275 d3ba
000000d0: e540 04bd eeb8 553d 1a11 bd3d 501b 7dbc
000000e0: d0a6 7d3d a28c ddb9 144b dbbc c174 9e3d
000000f0: 685c 813d c479 5e3d 538f 36bd bb9b 343d
00000100: d3fd 843d 3b14 2e3c f205 323b a508 91bb
00000110: d458 183d 1e94 033b 5629 c53d d4c9 a23d
00000120: 7322 0fbd 130b b1bc bcc2 163d 6515 0f3c
00000130: 81df a8bc bd5e e33b ac3d 6abd 4a7b 10bd
00000140: b1d7 613d ae97 493c c5eb afbc f72d 703d
00000150: 7bc2 643d c5bf 1bbc 76e2 46bd 39d4 67bc
00000160: 5d2d 693c f4b6 87bd 4095 a0bc afe5 62bd
00000170: 5617 a1bd f679 7a3d d4e1 0a3d 628c 5abc
00000180: dfdb 513d 58d3 7fbb f81d 29bd 17fd 84bd
00000190: b174 173d 0c17 bf3b a40a 0bbd 6dc3 83bd
000001a0: b358 503d bae2 873c afac 203d 76d9 aebd
000001b0: 6095 b43c af6b dbbc 6677 80bd 7785 843d
000001c0: db8d 013e 3eaa 65bd 2e23 5c3d e2ff f73d
000001d0: adf3 543d ceb6 86bd 8354 ae3d 91d1 093d
000001e0: 7b60 29bd 9aaf 08bc 3be3 123d 5e8c e03b
000001f0: 0b39 2dbd 7a8d 1b3d 7e5d 573d 8ebd b2bb
00000200: 2de4 a63d 6069 ef3c e0c4 7f3d 98cd f7bc
00000210: a552 47bc 6c0a b2bd 301f b23c bb02 7f3b
00000220: a757 26bc 5a6a 343d f6db 61bd 2f57 45bd
00000230: 7e25 7d3d eee9 b23d 64cc 10bd 8c3b 3a3d
00000240: bf55 9fbc a111 26bd f6e9 a53b abca d63c
00000250: 75f8 93bd 6797 a73d 5ea6 32bd 2bf1 453d
00000260: 9833 f7bc cee3 32bc 9abb 683d 9b28 6cbd
00000270: 505e 11bc df00 483a 52bf dbbc 28c4 b43c
00000280: b261 933d 9657 25bc d52d a8bd 41b8 7a3d
00000290: 603d 723d 8372 38bd bd11 ef3c b255 18bd
000002a0: 7a37 6d3d 39dd b33c 9222 873c 9a2f 423d
000002b0: cfe8 8c3d 8d5a 46bc f8d6 c43c 1167 813d
000002c0: 2aa0 56bd 6f2f 373c 3e6b 8c3c 0b9e 823c
000002d0: cc4c 893d 1e46 25bd c4be edbc 5105 28bd
000002e0: 109d a03d b196 74bb ab67 26bd 2cf0 22bd
000002f0: 8fae 433d 0bdf 58bd a180 15bd 03c8 0fbd
00000300: c6a5 1c3d 6d59 2abd f041 dabc 0c93 8e3d
00000310: 50ca a43d 6729 743d 58ad 463c dfe5 bfbc
00000320: bb15 1abc 7873 3e3d e1f0 5dba 947d 213d
00000330: 0768 313d 5079 28bd 2f81 8a3d 498d d33c
00000340: f51d 433d 9206 5bbd 1daa 9c3d 4494 3dbc
00000350: 0638 f03d d4a9 0e3d 53ab c9bc 62da 33bd
00000360: 151a 823d f33a aa3b 9ea3 e63c a230 dabb
00000370: 72cc 44bd 350f 443d 76ac 3ebd 055c e83c
00000380: 2b8a 843d e5ed fc3c 8ea0 02bd cef1 513d
00000390: f0c2 ef3d 5065 973d 7a3a 9cbd d45e 92bc
000003a0: a58d 693c 80a3 5b3c 3337 6ebc 3c84 fdbc
000003b0: a4e9 a8bb 9eff 883d 15fb abbd 56e7 6fbd
000003c0: cd00 5e3d ae46 963d 7c88 633c ec01 f7bc
000003d0: f772 30bd 54fd 14bd 6f8f a0bd 5868 ba39
000003e0: 6e08 7ebd 1265 f53b d86b 02bc 2874 4bbd
000003f0: 9e47 863d 6628 f43b e33a 963d 4584 443c
-0.01204178 0.020283965 0.08079322 0.0073335026 0.014819484 -0.026177315 0.020655679 0.05538288
-0.0070234546 -0.055802893 0.033305287 -0.02114112 0.08169262 -0.010271348 0.0051985774 -0.05655383
-0.08639204 -0.004709933 0.05308849 -0.0223277 0.012688683 0.01053399 0.067958444 0.05123215
0.038714014 0.094397254 -0.078800686 0.04592243 -0.008068854 0.025517596 -0.03541731 -0.0301914
0.021947596 -0.030472726 0.06776753 -0.015668709 0.00675599 0.080370255 0.014607849 0.051618278
-0.000977725 0.056788933 -0.053832743 0.024064083 -0.0011500136 0.08571535 -0.0031546222 -0.02299356
-0.0147787575 0.052153327 -0.009995876 -0.0016133098 -0.03228845 0.052178316 0.092317775 -0.015448406
0.061926663 -0.00042257184 -0.026769198 0.07737113 0.06316453 0.054315343 -0.04457028 0.04409383
0.06493726 0.0106249405 0.0027164188 -0.0044260793 0.037194088 0.0020077298 0.09627025 0.07948652
-0.034944963 -0.021611726 0.036806807 0.008733128 -0.020614387 0.006938784 -0.05718772 -0.035273828
0.05513734 0.01230423 -0.021474728 0.058637585 0.055849534 -0.009506171 -0.048555814 -0.014149719
0.014232007 -0.066266924 -0.019602418 -0.055394825 -0.07865779 0.061151467 0.033906773 -0.013339134
0.051235076 -0.0039035883 -0.041288346 -0.064935856 0.03697652 0.005831605 -0.033945695 -0.06433759
0.05086584 0.016587604 0.039227184 -0.08537571 0.022043884 -0.026784746 -0.062727734 0.06470769
0.1265177 -0.05607056 0.053744487 0.12109353 0.0519902 -0.06577836 0.08512213 0.033647124
-0.041351777 -0.008342648 0.035861235 0.0068526706 -0.04229073 0.03797672 0.052579395 -0.0054547256
0.0814899 0.029225051 0.062443614 -0.030249402 -0.0121657 -0.08693394 0.021743387 0.003891154
-0.010152734 0.044046737 -0.05514141 -0.048178848 0.061803333 0.08736025 -0.035351172 0.045466945
-0.019450067 -0.040544156 0.0050632907 0.026219686 -0.07225124 0.081831746 -0.04361569 0.0483257
-0.030175969 -0.010918571 0.056819536 -0.057655912 -0.0088725835 0.00076295243 -0.026824627 0.02206619
0.07196368 -0.010091683 -0.08211867 0.061210874 0.059140563 -0.045031082 0.029183263 -0.0371911
0.057914235 0.021956073 0.016495977 0.047408678 0.06880342 -0.01210655 0.024028286 0.063184865
-0.052398838 0.011180743 0.01714098 0.015944501 0.06704101 -0.040350072 -0.029021628 -0.041020695
0.07842457 -0.0037321264 -0.04062621 -0.039779827 0.047773894 -0.052947085 -0.036499623 -0.035102855
0.03824403 -0.04158919 -0.02664277 0.06961641 0.080464005 0.059609797 0.012126289 -0.02342504
-0.009404595 0.04649684 -0.0008466375 0.0394264 0.0433121 -0.041131318 0.06762921 0.025824206
0.04763599 -0.053473063 0.07649634 -0.011570994 0.117294356 0.03482993 -0.024617827 -0.043909438
0.06352631 0.0051950156 0.02815419 -0.0066586295 -0.048046537 0.047866065 -0.04655119 0.02836419
0.06471666 0.030875156 -0.031891398 0.051255994 0.11707103 0.07392371 -0.07628341 -0.017867483
0.014254962 0.013405681 -0.014539528 -0.030946843 -0.0051548053 0.0668938 -0.083974995 -0.05857023
0.054199982 0.073377 0.013887521 -0.030152284 -0.04307839 -0.036374405 -0.07839858 0.00035554427
-0.062019758 0.007488855 -0.007960282 -0.049671322 0.06556629 0.007451105 0.073354505 0.011994426

fc2.bias f4 [128]
00000000: d152 8c3d d72a 623d 0241 d13d 762d 0d3d
00000010: d62c a93d 31ed a9bd bed4 bc3c 9bea 9ebc
00000020: c0b1 883c 0778 85bd 2917 b6bc 3376 273d
00000030: a696 19bd 1a82 543d 206d f33d 49ee 433c
00000040: eeca 423d 146c 74bd 7c54 f23c 652f e0bc
00000050: a38f e2bb 210a 833d 1775 7f3c eb78 b03d
00000060: 785a 90bb b548 19bc f8e2 5dbd 7a76 74bd
00000070: 2fc0 9a3b f1ee 983d fb1b 32bd 51f5 9a3d
00000080: d9e2 463d befa 99bd 175a 743d a0a2 2d3d
00000090: 6ad0 193c 932a e9bc 4633 81bd 51f6 b03d
000000a0: 9bc5 a3bc 9de3 d73d 9670 cd3d 6338 1a3c
000000b0: ba65 2a3c 2416 b13d c912 c33d 344b 06bd
000000c0: a5dd 35bd c40a 3bbd 97c1 f13a a5a2 393d
000000d0: 74ed 183c 32d1 c0ba 383e f43d 8138 733d
000000e0: 60b3 bfbb 2571 643c d3d1 d73d d1a4 01bc
000000f0: 290e 843b c017 d3bc f97d b53c 4b61 553d
00000100: 406a a33d a546 563c faad 853d 7407 f7ba
00000110: c68c 1ebd 6b36 c2bd 31e2 803d 7b25 c23d
00000120: b5ce b8bc cf8c fabb 7f35 4abd b0b7 273d
00000130: 808e f33d 42ac a9bc 2870 4bbd 6405 4e3d
00000140: b43a d7bc f1a6 8bbd bdd0 8dbc b647 343d
00000150: 4fb6 3e3d 4013 673d 28aa 3bbd 8cb5 873c
00000160: ef52 b53c faba 343d 2b10 4bbd 0f95 a1bc
00000170: 3d22 d03d f994 22ba 28e7 66bd 1601 ac3d
00000180: 28c5 4b3d 67ab 79bd 5db5 b83d 9e14 d0bc
00000190: 9839 8abd d0ff 84bc 27c2 983d f422 033d
000001a0: 84e4 993c f952 d7bd 6f2b 053e 1d8d f4bc
000001b0: 1f47 49bd 06a3 c73c 9513 c53d 1cec b2bd
000001c0: 4b28 bb3c 7653 b1bc d330 f83b e213 7fbb
000001d0: 7ffc 333d 966d 9ebc 7b48 803d c958 123c
000001e0: 422f 1b3d db50 ea3d d8ba d93d 8077 3abd
000001f0: 36e0 0bbd f01d 2d3d d012 153d 7f2d e93d
0.068517335 0.055216637 0.102174774 0.034467183 0.08260505 -0.08297194 0.023050662 -0.019398978
0.01668632 -0.06517034 -0.02222784 0.040884208 -0.037497185 0.051881887 0.11886048 0.011958667
0.04755681 -0.059673384 0.0295813 -0.02736635 -0.0069140955 0.06398416 0.015591881 0.08616813
-0.004405316 -0.009355714 -0.054171532 -0.0596833 0.004722617 0.074674495 -0.043483716 0.07566322
0.048556183 -0.075185284 0.05965623 0.04239142 0.009388069 -0.028462684 -0.06308608 0.08640731
-0.019991687 0.10541461 0.1003124 0.009412858 0.01040023 0.08646801 0.09525067 -0.032786563
-0.04440083 -0.045664564 0.0018444535 0.045321126 0.009333957 -0.0014710783 0.1192593 0.05938006
-0.0058502406 0.013942991 0.10538068 -0.00791283 0.0040300083 -0.02576816 0.022154795 0.05209474
0.0797925 0.013078366 0.06527324 -0.0018846826 -0.03870847 -0.09483036 0.062931426 0.09479805
-0.022559503 -0.00764618 -0.049367424 0.040946662 0.11892414 -0.020712022 -0.049667507 0.05029811
-0.026273109 -0.06818951 -0.017311448 0.0440137 0.04656058 0.056414843 -0.04581657 0.01656606
0.022134272 0.044123627 -0.049575966 -0.019724397 0.101627804 -0.0006202008 -0.05637279 0.083986446
0.04974857 -0.060954478 0.09018967 -0.025400456 -0.067492664 -0.016235262 0.074589066 0.032015756
0.018785723 -0.10513873 0.1300485 -0.029852444 -0.049140092 0.024369728 0.096228756 -0.087364405
0.022846362 -0.021646243 0.0075741797 -0.0038921763 0.04394197 -0.019339364 0.062638246 0.008932301
0.037886865 0.11441203 0.10631341 -0.04552412 -0.03414937 0.04226488 0.036394894 0.11385631

fc3.weight f4 [64, 128]
00000000: cb66 6c3d 6815 a3bd 76bc 803d 960b 973c
00000010: 10f5 a4bd 7676 a4bc cfb9 8ebd 75d3 2b3d
00000020: 9f9c 6dba e805 17bc 1e7d 27bc b651 a93d
00000030: 82d4 313d fc22 803d 43db 873d 4e9f 473d
00000040: 36a3 c73c b802 adbd 5e50 cdbd c7d8 3abd
00000050: 7bbd 6bbd 7b23 8abd 1b4d 4abd de45 1c3d
00000060: fc1d 5bbc e44b d2bc 5535 26bc f9c7 3cbd
00000070: 227e 89bd 3c7f 73bc 0bd5 88bd 8315 d53d
00000080: 63ca 68bd 4589 ccbd 7008 6ebb 1065 933d
00000090: be9f 84bd 0ba8 d839 f17f 983d 71d2 843c
000000a0: 3224 ab3d 13a6 693d ebf2 50bd 9c2e cc3d
000000b0: 8e70 503b 65d9 1a3d 32c3 4c3d 0362 a23d
000000c0: 35ce a13d bc4e 9c3c d4ec a73c 41d6 943d
000000d0: 7cba acbc dba4 863d c488 adbc ec77 be3d
000000e0: 9e4e 913c 1a7e 463d b6c0 b63b a2e4 133d
000000f0: b7b4 123c af4d 193e 1a01 25bd 7205 cebc
00000100: 1e39 12bc f045 85bc e539 70bc e5dc acbd
00000110: 0653 64bd d3f4 273c 7431 83bd aeb4 b33d
00000120: c3ed 6abd 3e0b bebd bf22 1f3d 69e8 6b3d
00000130: f091 c43d 279d 7fbd f831 87bd 2f2c fc3c
00000140: 1192 76bd aa34 9dbd 7796 d3bd 3970 b43c
00000150: 401e ad3b ae72 803d 97f7 8ebd 8814 c53c
00000160: 97c2 73bd ca8f 363c d117 e8bd 6481 f2bc
00000170: 9ebb b13d 57ad 12bd 8fb1 c73c ce0d 26bc
00000180: bfc3 a4bc c6e5 f2bc c335 50bb 4a7f 7f3d
00000190: feb2 a0bd 7006 6a3c 4022 0a3d d86e debc
000001a0: 4d0f e7bd 4156 adbd a431 a838 f013 b0bc
000001b0: b9a1 67bd 0c32 b2bd 05c3 a53d cf50 55bd
000001c0: 4cd9 47bc ea47 89bb b488 b33d ee87 033d
000001d0: 106a 96bd 1c73 2cbc 558e 843d fe2d 4bbc
000001e0: 5c40 babd 1d7d ca3d 69ad 923c a48e d63c
000001f0: dcab 383d 7ea4 a83c 87f5 af3d 1e7e ffbc
00000200: 8b8f efbd 2f3c 57bd 3a2f 1abc 8807 a73d
00000210: 1c50 0ebc c63a c8bc adb9 493d 37be 7bbd
00000220: ff93 293d 2d3f 0dbd e859 59bd fa0c eb3c
00000230: ccc4 acbc 5dac c3bb da37 5abd 5ef9 5c3c
00000240: a63a 453d 7641 8f3c 0a3f bf3d d77f 85bd
00000250: 7f46 d3bc d75c cfbc 50af 2a3e e8d1 883d
00000260: bc22 413d 74fe 51bd 0cb4 cc3d 002d 5abc
00000270: a27e 81bd 5770 88bd d0f9 383d b8c0 ffbc
00000280: 11f2 b8bd 7fa2 883c 6697 41bd 5a73 413b
00000290: 7ed8 8bbc da92 8f3d 13b1 08bd 796e 34bd
000002a0: 7c6f cc3d f4c1 dbbd abf0 bfbd ae0a cfbd
000002b0: dc8d 933d 1c37 70bd 0807 1ebc dbfa 94bd
000002c0: 5ddd c73d 82d4 9dbd 36a6 87bd 3b77 87bd
000002d0: 8293 873d 6bb7 d73c c11b 943d dc7d 8d3c
000002e0: 123b d23d dbc9 c23d 0d8f a6bc b042 9ebd
000002f0: f3cc 73bd de4f cb3d ff9e 3b3d 7c88 f9bc
00000300: 1d74 59bd c247 b8bc 8c4f 703d 4b9f 043d
00000310: 62cd 81bc ce09 a8bc 40cc a73d bcda 83bd
00000320: f342 263d dee8 393c 75e5 cd3d 2d21 503d
00000330: 3764 da3c 49ae 813d 0bdc 353d 0064 9cbd
00000340: dd9c 543d caf5 033e be84 843c ef4f debd
00000350: feb9 61bc 61ab 92bd 1f84 ed3c 404a 873d
00000360: 06d9 98bd d5d4 893d 2dcb c03d 5a08 933c
00000370: 4499 263b 1008 c23d 9276 5e3d 0acd 54bd
00000380: 0ce9 3d3d 6898 3a3d 8c75 f0bc 0651 0a3d
00000390: 511c 923d 7ff0 183d 22cc 86bd 7730 6cbd
000003a0: 484d ab3c fd63 a43d a2f2 8dbd a97d cf3c
000003b0: 5902 e1bc 6a9f 693d 1f1d ddbd 1ccc e23d
000003c0: c654 023b d9c8 db3d daf1 bbbc 62e8 63bc
000003d0: 449a d7bd 4c3d 08bd fbb4 c6bc 1dd3 80bd
000003e0: 15e4 67bd f54e c8bc 6703 9bbd d6bf bbbd
000003f0: f496 943d 73b6 cf3d 1bde 4abd c2b2 cfbd
0.05771522 -0.07963067 0.06285946 0.018438142 -0.080545545 -0.020076018 -0.06969034 0.041949708
-0.0009064171 -0.009217717 -0.010222701 0.08267538 0.043415554 0.06256673 0.06633618 0.04873591
0.024369817 -0.08447784 -0.100250944 -0.04561689 -0.05755375 -0.067450486 -0.04938994 0.038152568
-0.013373848 -0.025670953 -0.010144551 -0.046089146 -0.06713511 -0.014861878 -0.0668126 0.10404494
-0.056833636 -0.099871196 -0.0036320947 0.071970105 -0.06475781 0.00041323932 0.07446278 0.016213628
0.08356513 0.057043146 -0.051012915 0.099698275 0.003180537 0.03780498 0.04999084 0.079288505
0.07900659 0.019080512 0.02049867 0.07267428 -0.021085016 0.065744124 -0.021183379 0.09300217
0.017737683 0.048460104 0.005577172 0.036106713 0.008954219 0.1497104 -0.040284254 -0.02514908
-0.008924751 -0.0162687 -0.014662241 -0.0844057 -0.05574324 0.010251242 -0.06405917 0.08774696
-0.057355653 -0.09279488 0.038851496 0.05759469 0.09598148 -0.06240573 -0.06601328 0.030782787
-0.060197894 -0.076760605 -0.10331433 0.022026168 0.005283147 0.062718734 -0.06980818 0.024057642
-0.059511747 0.01114268 -0.113326676 -0.029602714 0.08678363 -0.03580984 0.024376659 -0.010135127
-0.02011287 -0.02965058 -0.0031770326 0.06237725 -0.0784664 0.014283761 0.03372407 -0.027152464
-0.11282215 -0.08463717 8.0201105e-05 -0.021493882 -0.056550715 -0.08700952 0.08093838 -0.05207902
-0.012197804 -0.004189481 0.087663084 0.032112055 -0.073444486 -0.010525491 0.0647246 -0.012401102
-0.09094307 0.09887145 0.017904954 0.026191063 0.045085773 0.020586248 0.085917525 -0.031188067
-0.116973005 -0.05254763 -0.009410674 0.08155733 -0.008686092 -0.024442088 0.04924934 -0.0614607
0.041400906 -0.034484077 -0.053064257 0.028692711 -0.021089934 -0.005971475 -0.05327592 0.013487188
0.048151635 0.017487269 0.093381956 -0.06518524 -0.025790451 -0.025312824 0.16668439 0.066806614
0.047152266 -0.051268056 0.09995279 -0.013316393 -0.063229814 -0.06662052 0.045160115 -0.031219825
-0.090305455 0.016679047 -0.047263525 0.0029518218 -0.017071005 0.070104316 -0.033371996 -0.044050667
0.099822015 -0.10730353 -0.09372076 -0.10109459 0.07204792 -0.058646306 -0.009645231 -0.072744094
0.097590186 -0.07706548 -0.06623499 -0.06614538 0.06619932 0.026332578 0.07231856 0.017271928
0.10265173 0.09511157 -0.020331884 -0.077275634 -0.059521627 0.09927343 0.045805927 -0.030460589
-0.05308925 -0.022495154 0.05866961 0.032378476 -0.015845004 -0.020512488 0.081932545 -0.06438205
0.04059119 0.011347024 0.10053531 0.05081289 0.026659114 0.063320704 0.044399302 -0.07636261
0.05190741 0.1288673 0.016176578 -0.1085509 -0.013777254 -0.07161594 0.028993664 0.06605959
-0.07463269 0.067300476 0.09413753 0.017948318 0.0025420943 0.09474194 0.054312296 -0.051953353
0.04636483 0.045555502 -0.029352926 0.033768676 0.07134307 0.03733873 -0.06581904 -0.057663407
0.020910874 0.08026884 -0.06931044 0.025328474 -0.02746694 0.057036795 -0.1079657 0.11074087
0.0019886955 0.10731668 -0.022942472 -0.013910385 -0.10527471 -0.033261582 -0.02425622 -0.06290267
-0.056614 -0.024451712 -0.07569008 -0.09167449 0.072553545 0.10142221 -0.049528223 -0.10141517

fc3.bias f4 [64]
00000000: 231b 3f3d c6f5 c7bc 3fa0 f53d 3086 853d
00000010: 4185 c1bd 40ca b03d 4e0b e53d 1ae8 903c
00000020: 30f7 eabc 30b7 aebb d957 26bd b8c6 163e
00000030: 2c48 9abb 7a7b e9bc faa5 803c 25b3 63bc
00000040: 3e5a f93d 21ab 023d cb91 85bd 317a 19be
00000050: 3c3b ab3d 9e80 e6bd 3d7f 82bd 3a8c d53b
00000060: b3f5 cf3c e28f 2fbb 5407 a4bd 4a09 7fbd
00000070: f87c e33d 1af2 f13d 0f0d 96bd 95ac f8bc
00000080: 2384 523d 70ea b3bd 22bc 8fbd 54db 0f3d
00000090: 7657 bbbc 2608 bebd ddf0 853d 4a51 8bbd
000000a0: 9419 1d3d a370 b73d a71c 953d ab64 64bc
000000b0: dab5 393c 3b99 a33d 797f 2e3d 9001 a8bd
000000c0: 94b1 e3bc 2380 ac39 03b5 cd3c 00c0 803d
000000d0: 0221 f43d 447a 983c 5887 8a3b d77b 973c
000000e0: 87ae 393d 6a68 f0bb 3957 603d 847d a73d
000000f0: 278c 55bc f84e 673d 154b 2a3d 50d5 2c3d
0.04665674 -0.024409186 0.11993455 0.06519735 -0.09449244 0.08632326 0.11183797 0.0176888
-0.028682321 -0.0053318962 -0.04061112 0.14724243 -0.0047083106 -0.028501261 0.015704144 -0.013897692
0.121754155 0.031901482 -0.065219484 -0.14988019 0.083609074 -0.112550005 -0.06371925 0.0065169604
0.025385713 -0.0026788642 -0.0800921 -0.062264718 0.1110782 0.11813755 -0.073267095 -0.030355731
0.051395547 -0.0878495 -0.07018305 0.035121277 -0.022868853 -0.09278898 0.06540082 -0.06802614
0.03835447 0.089570306 0.072808556 -0.013940017 0.011334861 0.07988211 0.042602036 -0.08203423
-0.027794637 0.00032901866 0.025110727 0.06286621 0.11920358 0.018612988 0.00422756 0.018491669
0.045332458 -0.007336666 0.054770682 0.08178237 -0.013033903 0.056471795 0.04157551 0.04219562

fc4.weight f4 [10, 64]
00000000: 6100 17be bcd8 17be 3c3e 20bd a41a 03be
00000010: aaff c83d b1ad 1abd 1d1c df3d 51d2 b03c
00000020: 2c42 3d3d 8770 333d 15a7 b13d 1ce5 5fbd
00000030: fc00 d4bd 7247 093e 13af 2a3c c803 9c3d
00000040: 3212 9a3d 1ea4 4dba 2879 f6bd e70e 1d3c
00000050: 7e8d c03c 3bb7 cdbd 8e6e 0c3e ecab eabd
00000060: 2c02 dbbd 5f42 ed3d 3d4b 07bd 9042 e0bb
00000070: aeba 70bc f953 8e3d 43aa 9a3d 3f83 44bd
00000080: 1c99 d93d 2f85 e43d a6c9 0dbd f824 09be
00000090: ad93 11be e739 90bd 5bf6 94bc 8889 643c
000000a0: 38e5 643d 75d5 a4bd 7be0 e13d bcbf e93c
000000b0: 045f 62bd a534 f43d 37fc 00be 5d46 723a
000000c0: adad 29bd 9ef2 093c 3865 02be 1317 59bc
000000d0: 937e e9bd b056 463b 0caf 96bd be12 dcbd
000000e0: 3092 fabc 734f 6b3d 3226 bd3c db54 f73d
000000f0: 5074 be3d ec0e 99bd ad39 a33c 62b7 b0bd
00000100: b821 a6bd ee93 56bd abb3 aebd 9c79 17be
00000110: f495 e5bd ee5d 193e 8dbe ffbd 4a93 fc3d
00000120: e084 0e3d a696 12be 13dc 78bc b1dc 11bd
00000130: f02f 8a3c 1fde 783b dde0 1ebe eba5 e8bd
00000140: 081c d3bc 0b7f 143d 8aee b3bd 42f0 f63b
00000150: 4136 72bc 1f7b da3c d332 efbd 1ff6 b5bc
00000160: 0f28 0a3e 91a4 83bd ee08 a63d 8671 d23c
00000170: 00f8 183e 6140 aabd a232 51bd 6f3d d53d
00000180: 305a e93d 7080 2a3d ad46 fdbd d170 f8bd
00000190: 11e4 6a3c b507 aebd 6468 173e 1c33 2dbd
000001a0: f4d5 ec3d c304 e6bd df3a 963c bc2e 233e
000001b0: c38e 513d 88e1 a6bc a8f5 18bd dc79 8cbc
000001c0: a045 d23d a813 96bd 7ce4 0d3d b8d4 6ebc
000001d0: 46d7 c8bd 4c08 1cbe 7765 843c 533d 30bd
000001e0: ac7c 01be 0875 053d 4791 053d 5062 8f3d
000001f0: 011e febd bfe3 153e f35c 913c 26eb 463d
00000200: 7fab 99bd 1b6e bbbd 62b3 e43d 1d69 bfbc
00000210: adc5 f0bd 25d8 e9bd 8b90 ca3c 48cf 82bd
00000220: 14ac 91bd a6d5 6c3d eabe 0b3d 47be 863d
00000230: 3aa4 e1bd 067b b7bd 4dcc 993c 52f4 253d
00000240: 0636 c6bd aba8 4c3b 066a 9d3d a12e d43c
00000250: f717 663c bda6 903d 1395 2c3d c5b3 073d
00000260: 9087 d63d 1a44 b63c 4085 febd 3403 7e3d
00000270: 475d 36be a323 a7bd a8b6 883d d4e3 8b3d
00000280: eff5 7bbc 8d39 e5bc 9978 af3d 07e2 223d
00000290: 3db2 293b ddf5 ffbd 629b c5bd a8e6 913c
000002a0: 31a8 e73d 6700 eabd e89f cbbd fac9 9fbd
000002b0: 9034 b63d 339b 003e ac1c 00be db08 f23c
000002c0: 81b2 80bd 9a03 ff3b 5e36 08be c0a7 1fbe
000002d0: 88b7 eabc 1583 d8bd f445 753d 70cf 9c3d
000002e0: dbf4 3b3d e38e 54be 413c 39bd bb96 e83d
000002f0: 3527 193d 5f43 0a3e 9cd6 acbd f2ab 663c
00000300: 0a2f 18be 7e41 adbd 1178 46bb a451 8abc
00000310: f308 15bd b565 b53c 8431 d3bd 0908 11bb
00000320: 106c 513d 51bd c4bd 4911 b13d bf6d 83bd
00000330: 763c a0bd 0153 b4bc 3859 e63c df4f 92bd
00000340: db93 f73d 97ea 893d 0816 abbd fc74 f3bd
00000350: 52ee 2d3e 1990 f6bb 679f d83d fcce 5abd
00000360: bf1a 2abe f1ff ee3d 69c8 abbd 2d77 4fbd
00000370: e82d a2bd df5d 8dbc ffa7 36bc 2ad8 4ebd
00000380: ba1d 7abb 35e9 15be 18f8 5b3d cd5f 84bc
00000390: 3f4c 013c c283 74bd c2b1 bfbd 6fc9 dd3d
000003a0: dcdf 883c 5c1d 5e3d 65f8 35bc 87b0 64bb
000003b0: f935 0e3d 517b 113e 4175 99bd bada 1ebe
000003c0: 790e 303d b5d8 133d 0a12 513d 6123 0d3e
000003d0: 0719 6fbd 751a f6bd bb17 8abd 13b2 ed3d
000003e0: ca8e 60bd 944e 503c b1c6 58bd dd4c 81bc
000003f0: 7539 25be 0fe6 3ebd 7b72 f7bd 9a13 babd
-0.14746238 -0.14828771 -0.03912185 -0.12803131 0.09814389 -0.0377633 0.10894034 0.021584662
0.046205685 0.043808486 0.086744465 -0.054661855 -0.1035175 0.1340616 0.0104177175 0.07617909
0.07523002 -0.0007844585 -0.120348275 0.0095860725 0.023504969 -0.10044714 0.13714048 -0.11458573
-0.106937736 0.11584925 -0.033030737 -0.0068438724 -0.014692945 0.0694961 0.07552006 -0.04797673
0.106249064 0.11158215 -0.034616135 -0.13393009 -0.1421649 -0.07042294 -0.018183878 0.013948806
0.055882663 -0.08048526 0.110291444 0.028533809 -0.055266395 0.11924104 -0.12596212 0.00092420523
-0.041425396 0.008419661 -0.12733924 -0.01325013 -0.11401095 0.0030264072 -0.07357606 -0.10745762
-0.030587286 0.057448816 0.023089502 0.12076732 0.092995286 -0.07473549 0.019924963 -0.086287275
-0.081119 -0.05238717 -0.08530363 -0.14792484 -0.11210242 0.14977238 -0.124875166 0.12332781
0.03479469 -0.1431528 -0.0151891885 -0.03561086 0.016868562 0.0037974191 -0.15515466 -0.11359771
-0.025770202 0.03625397 -0.08785732 0.007535965 -0.014783443 0.026670037 -0.11679616 -0.022212086
0.13491844 -0.06427873 0.08107172 0.025688898 0.14938354 -0.083130606 -0.051073678 0.10412108
0.11394155 0.041626394 -0.12366996 -0.12130893 0.014336602 -0.08497564 0.14785916 -0.04228507
0.11564246 -0.11231377 0.018338619 0.15935796 0.05116154 -0.020371214 -0.03734365 -0.01714795
0.10267186 -0.07327968 0.034641728 -0.014577083 -0.09806685 -0.1523754 0.016161663 -0.043027233
-0.12645215 0.032582313 0.03260925 0.070011735 -0.124080665 0.1463766 0.017744517 0.0485641
-0.075034134 -0.0915186 0.11167027 -0.023365552 -0.11756454 -0.114181794 0.024727127 -0.06387192
-0.071128994 0.05782094 0.034117617 0.06579261 -0.11017652 -0.08959012 0.018774176 0.040516205
-0.09678273 0.0031228464 0.07686238 0.02590114 0.0140438 0.07063053 0.042134356 0.033130426
0.10475075 0.02224927 -0.12427759 0.062014773 -0.1780902 -0.08161094 0.06675464 0.06830564
-0.015378459 -0.027981544 0.08567924 0.039766338 0.0025893592 -0.124980666 -0.096487775 0.01781018
0.11311377 -0.11425858 -0.09942609 -0.07802196 0.08896744 0.12559204 -0.12510937 0.029545238
-0.06284047 0.0077824118 -0.1330199 -0.15591335 -0.028651968 -0.10571877 0.059881166 0.07656753
0.04588781 -0.20757632 -0.04522348 0.113568746 0.037390906 0.13502263 -0.08439371 0.014079081
-0.14861694 -0.08459757 -0.0030283967 -0.016884632 -0.036385488 0.022143224 -0.10312179 -0.0022130033
0.051128447 -0.09606422 0.08645875 -0.06417417 -0.07824032 -0.022012236 0.028118715 -0.071441405
0.12088748 0.067341976 -0.083538115 -0.118875474 0.16985443 -0.007524502 0.105772786 -0.053420052
-0.16611765 0.11669911 -0.083878346 -0.050650764 -0.07918912 -0.017256675 -0.011148452 -0.05049912
-0.003816469 -0.14639743 0.053703398 -0.016158963 0.007891714 -0.059695967 -0.093600765 0.10829436
0.016708307 0.054227218 -0.011106585 -0.0034895258 0.03471944 0.14207198 -0.074930675 -0.15513125
0.042982552 0.03609534 0.051042594 0.13783027 -0.058373477 -0.12016765 -0.067428075 0.116062306
-0.054823674 0.012714047 -0.052923862 -0.015783722 -0.161352 -0.04660612 -0.12082382 -0.0908577

fc4.bias f4 [10]
00000000: 7cc8 b9bc 0d78 ca3b 86cf a3bd 4114 d63d
00000010: 0078 a9b9 cdcc 2c3e 33f8 a53d 84f9 9abd
00000020: ae47 543d 8af0 35bd
-0.022678606 0.006178862 -0.07998566 0.10453082 -0.000323236 0.16875 0.08103981 -0.075671226
0.05182617 -0.04441885
