runs/Mar02_15-49-49_cssd901383-Run(lr=0.001, batch_size=256, patience=1)-valid/checkpoint.pt (torch_old, 972387 bytes, 8 tensors)

fc1.weight f4 [256, 784]
0	0x3b4874a2	0.0030587097
1	0xbcee7622	-0.029109064
2	0x3b83daa2	0.004023866
3	0xbc00afa2	-0.007854374
4	0xbd7c50bb	-0.061600428
5	0xbcd0176c	-0.025401793
6	0xbd71c2e3	-0.05902375
7	0xbd87160d	-0.06596003
8	0xbd3c6956	-0.045998894
9	0xbc72e1d7	-0.014824352
10	0x3d9d73d0	0.07688105
11	0x3d5146fb	0.051093083
12	0x3cb08a65	0.021550367
13	0xbd1dfee8	-0.038573176
14	0xba041860	-0.00050390325
15	0x3c2fd036	0.010730794
16	0x3d6a8c5a	0.057262756
17	0x3d8c5fd9	0.06854219
18	0x3d186145	0.03720214
19	0x3caccfb6	0.021095138
20	0xbcb80129	-0.02246149
21	0xbd87286f	-0.06599509
22	0xbd79c39c	-0.060977563
23	0xbd455235	-0.0481741
24	0xbcfd64b1	-0.030931802
25	0x3b494d92	0.0030716402
26	0x3c8ca4e3	0.017168468
27	0xbc191fd2	-0.009345965
28	0xbbfbdc4d	-0.007686174
29	0x3d35b3ff	0.04436111
30	0xbcd50b0a	-0.02600624
31	0xbc41275c	-0.011789169
32	0xbd405458	-0.046955436
33	0xbd7fa481	-0.062412743
34	0xbc887c03	-0.016660696
35	0x3c5db973	0.013532984
36	0x3d83e840	0.064407825
37	0x3da8a57f	0.08234691
38	0x3d2738af	0.040825542
39	0x3d731203	0.05934335
40	0x3be0bf23	0.006858723
41	0x3cc54db0	0.024084896
42	0x3cc9edd4	0.024649538
43	0x3d1fad2e	0.038983516
44	0x3cf06d1d	0.029348904
45	0x3d97a506	0.074045226
46	0x3d26d516	0.04073056
47	0x3c6b609c	0.014366295
48	0x3d1d6927	0.03843036
49	0xbc9fa503	-0.019487863
50	0xbd9cf015	-0.076629795
51	0xbd4a372b	-0.04936902
52	0xba9846de	-0.00116178
53	0x3c970e56	0.018439453
54	0xbc4722bb	-0.0121542765
55	0x3d605101	0.05476475
56	0xbd11ca0d	-0.03559308
57	0xbcaca036	-0.021072488
58	0xbd824682	-0.063611045
59	0x3bdda4cb	0.0067640296
60	0xbbcd62ea	-0.006267895
61	0xbc3c4dff	-0.011493205
62	0x3c82d9bf	0.01597297
63	0x3d38efdc	0.045150623
64	0x3d7f620c	0.062349364
65	0x3d0dafe4	0.03459157
66	0xbc898e2f	-0.016791431
67	0x3cc151e9	0.023598628
68	0x3ca1b083	0.019737488
69	0x3d6159e9	0.055017386
70	0x3b843ce0	0.004035577
71	0x3cc970b8	0.024589881
72	0x3d21fa9c	0.03954564
73	0xbb5fcdcc	-0.0034149764
74	0x3d1dc481	0.03851748
75	0x3d749fd1	0.059722725
76	0x3b9a9e42	0.004718573
77	0x3c1110b8	0.008854084
78	0x3c4dcdd2	0.012561278
79	0xbd558213	-0.052126
80	0x3c887959	0.016659426
81	0x3d208a87	0.03919461
82	0xbc50347b	-0.012707825
83	0xbcaa826e	-0.020814147
84	0x3c21787a	0.009855384
85	0xbcf0ffbc	-0.029418819
86	0x3a725690	0.0009244466
87	0xbd4ba729	-0.049719963
88	0x3c205932	0.009786891
89	0x3d7c957f	0.061666008
90	0x3cc00559	0.02344005
91	0xbd28d2b1	-0.041216556
92	0xbc931841	-0.017955901
93	0x3d389bd0	0.04507047
94	0x3c473dca	0.012160728
95	0x3c5ffcde	0.013671128
96	0xbc822796	-0.015888017
97	0x3c84ab5d	0.016194994
98	0xbb3cbc97	-0.0028798932
99	0x3c2343f2	0.00996493
100	0x3c5293ce	0.012852622
101	0x3c840138	0.016113862
102	0xbc8c7e1f	-0.017149983
103	0xbd0761f3	-0.033052396
104	0xbd20a0e2	-0.03921593
105	0x3cd18955	0.02557818
106	0xbc2bbe83	-0.010482433
107	0x3ca24ee5	0.01981301
108	0x3c49110a	0.012272129
109	0x39db2295	0.000417967
110	0x3ccb896c	0.024845801
111	0x3ce00e9d	0.027350718
112	0xbc1ec2eb	-0.009690027
113	0xbd1a0b03	-0.037608158
114	0x3b58197f	0.0032974181
115	0x3d051e79	0.032499764
116	0x3cf832fb	0.030297747
117	0x3d71ede9	0.05906478
118	0xbcb8a14a	-0.022537846
119	0xbcac0132	-0.020996664
120	0x3c1d2323	0.009590897
121	0x3ca741f1	0.020417186
122	0x3c3def1e	0.0115926545
123	0xbc9e917e	-0.019356485
124	0x3ae781e4	0.0017662612
125	0xbb90e89a	-0.0044222595
126	0x3cf7490b	0.030186197
127	0x3d07ad9f	0.033124562
128	0xbc0c4a14	-0.0085625835
129	0xbc325c43	-0.010886255
130	0x3d3d9bf5	0.04629131
131	0xbcd7558d	-0.026285911
132	0xbcd2edd3	-0.025748169
133	0xbcf3c25d	-0.029755766
134	0xbc32b28e	-0.010906829
135	0x3d0c835d	0.034304965
136	0x3ce04552	0.027376805
137	0xbb7e96dd	-0.0038847246
138	0xbbd41fe1	-0.006473527
139	0x3d5ac922	0.05341447
140	0xbc5889dc	-0.013216462
141	0xbc78acea	-0.015177945
142	0xbcaf69c6	-0.021412741
143	0xbbd0d051	-0.0063724895
144	0x3db30b0d	0.08742342
145	0x3d5acd77	0.053418603
146	0xbceb2c87	-0.028707756
147	0xbcd275ba	-0.025690902
148	0x3c3f15e3	0.011662933
149	0x3d4ba192	0.049714632
150	0x3d24268b	0.04007582
151	0x3c9d1691	0.0191758
152	0x3d23c634	0.039983943
153	0x3d45e381	0.048312668
154	0xba870baa	-0.0010303159
155	0x3c965902	0.01835299
156	0x3c69c71d	0.014268664
157	0x3d4453ce	0.047931485
158	0xbc8510af	-0.016243307
159	0x3d18fa11	0.037347857
160	0xbd10dcf9	-0.035366986
161	0xbcf61cbf	-0.030043004
162	0xbc4bf229	-0.012447872
163	0x3ce66093	0.028122222
164	0xbbbda44d	-0.0057874084
165	0xbc5c5b59	-0.013449513
166	0x3a83e9ca	0.0010064181
167	0x3c52cb4c	0.012865853
168	0x3cc3494a	0.023838658
169	0xbd178d8e	-0.03700023
170	0x3cbd1c61	0.023084821
171	0x3ca76e03	0.0204382
172	0x3d34af69	0.044112597
173	0x3d03851b	0.03210936
174	0xbbefb2bc	-0.007315008
175	0x3d393d87	0.045224693
176	0x3d6bc6e3	0.05756272
177	0x3d02cd60	0.031934142
178	0xba9b50e8	-0.0011849673
179	0x3ce4d3c6	0.027933013
180	0x3b7b157d	0.0038312369
181	0x3c193888	0.009351857
182	0x3d295fea	0.041351236
183	0x3d46dd48	0.048550874
184	0x3b6b691c	0.0035920804
185	0x3cfd32d1	0.03090802
186	0x3c2c66d2	0.010522561
187	0x39c35f71	0.00037264408
188	0x3cfb1a44	0.030652173
189	0x3cb3864f	0.02191463
190	0xbce3ff79	-0.02783178
191	0x3d17dacc	0.037073895
192	0x3cfd4d4d	0.030920649
193	0x3c59ca32	0.013292836
194	0x3c8289e8	0.0159349
195	0x3d19c5b7	0.03754207
196	0x3d0cd5aa	0.034383453
197	0x3d08c977	0.033395257
198	0xbc4925ce	-0.01227708
199	0x3ceade0c	0.028670333
200	0x3d982404	0.074287444
201	0x3d320238	0.043459147
202	0x3ca8bbf1	0.02059743
203	0x3b997878	0.0046835504
204	0x3d845226	0.06460981
205	0x3d6b91b5	0.057512004
206	0x3ceddd63	0.02903623
207	0x3c5f39d1	0.013624624
208	0x3cf16765	0.029468248
209	0x3d37de6c	0.044889852
210	0x3ce4a980	0.027912855
211	0x3cb4022d	0.021973694
212	0x3d486472	0.048923917
213	0x3cd8d341	0.026467921
214	0x3cd77f25	0.026305744
215	0x3c2c0d47	0.010501212
216	0xbcaf349f	-0.021387396
217	0x3cdd4caf	0.027014105
218	0x3c0ec930	0.008714959
219	0xbca9aab2	-0.020711277
220	0xbbffab7c	-0.007802425
221	0x3d91193b	0.070848905
222	0x3d149a32	0.036279865
223	0x3d128ef4	0.035780862
224	0x3d2c8226	0.042116307
225	0x3cdbeceb	0.02684637
226	0x3d465373	0.048419427
227	0x3d9c92b9	0.076451726
228	0x3d78b551	0.06071979
229	0x3d238366	0.039920233
230	0x3cd1702b	0.025566181
231	0xbb1f6a0a	-0.0024324679
232	0x3cdccac8	0.026952162
233	0x3d60724e	0.05479651
234	0x3d20d0e0	0.0392617
235	0x3d57f788	0.0527263
236	0xbc625603	-0.013814452
237	0x3bdcbd14	0.006736407
238	0xbc3bbefa	-0.011459107
239	0x3ce1df1d	0.027572209
240	0x3bad6305	0.005291345
241	0x3bcfd7cd	0.006342864
242	0x3d053528	0.032521397
243	0x3bfbf864	0.0076895226
244	0x3d17127e	0.03688287
245	0xbb523b93	-0.0032078966
246	0x3d2cba7e	0.04217004
247	0x3d098d69	0.033582125
248	0x3c8c04a7	0.017092062
249	0x3d0ec23f	0.034853216
250	0xbc962669	-0.018328862
251	0xbd84edc0	-0.0649066
252	0xbbf93402	-0.007605077
253	0x3c93e2b8	0.018052444
254	0x3bfa809f	0.0076447274
255	0x3cfb04d4	0.03064195

fc1.bias f4 [256]
0	0xbd98c2d6	-0.07459037
1	0x3d2f14e9	0.04274455
2	0x3df6b2cd	0.12045822
3	0x3d1e5136	0.038651668
4	0x3d4a2934	0.0493557
5	0xbd20618c	-0.039155528
6	0x3d7cac86	0.06168797
7	0x3e113043	0.14178567
8	0xbdb89cf0	-0.090143085
9	0x3db6f6c3	0.08933785
10	0x3cc74ca0	0.02432853
11	0x3cec126f	0.028817384
12	0x3d679a5a	0.056543685
13	0x3da82fe2	0.08212258
14	0xbc02e963	-0.007990214
15	0x3d4444e9	0.04791728
16	0xbca92a0b	-0.02064993
17	0x3cdbfa38	0.026852712
18	0x3cb5cd56	0.022192638
19	0xbd6b9ba0	-0.057521462
20	0xbb12e55c	-0.002241454
21	0x3c89f7f1	0.01684186
22	0x3c15ba7c	0.0091387
23	0xbb3ca328	-0.0028783772
24	0x3de51900	0.11186409
25	0x3cb41176	0.021980982
26	0x3d8fbcaa	0.07018407
27	0x3d02262c	0.031774685
28	0x3c88d690	0.016703874
29	0xbcc6efae	-0.02428421
30	0x3c057fe0	0.008148164
31	0x3d792710	0.06082827
32	0x3ca26acb	0.019826313
33	0x3c7502de	0.014954297
34	0x3de050bc	0.10952899
35	0xbd242b76	-0.04008051
36	0xbd78eea7	-0.06077447
37	0xbd30d384	-0.043170467
38	0xbabf4878	-0.0014593741
39	0x3b3d5bf8	0.002889393
40	0xbbe3a6db	-0.006947381
41	0x3b51eddc	0.0032032644
42	0x3d21f38f	0.039538916
43	0x3de1b9f8	0.11021799
44	0x39866509	0.0002563375
45	0x3d60fdbd	0.054929484
46	0x3d6c02bd	0.0576198
47	0xbbd45709	-0.006480102
48	0x3df9b42c	0.12192568
49	0x3dc4d94b	0.09611758
50	0x3d99ee07	0.07516103
51	0xbd31cc64	-0.043407813
52	0x3c5e6284	0.013573293
53	0xbda0412c	-0.078249305
54	0xbd73ab1b	-0.05948935
55	0x3cc337a0	0.023830235
56	0xbb6bb2be	-0.0035964693
57	0x3e1a635b	0.15076964
58	0x3d225964	0.03963603
59	0xbd9348f6	-0.071916506
60	0x3d5db9ba	0.0541322
61	0x3db78cde	0.08962415
62	0x3d987fdd	0.07446263
63	0xbd2614a8	-0.040547043
64	0xbd3705e4	-0.044683352
65	0x3da46e81	0.080288894
66	0x3d98a7c4	0.07453874
67	0x3d19f9bf	0.037591692
68	0x3e179617	0.14803348
69	0x3d61b1e8	0.055101305
70	0x3d3248f8	0.04352662
71	0xbd01dac9	-0.03170279
72	0xbc8705e3	-0.0164823
73	0x3b4490ec	0.0029993607
74	0xbc0c548b	-0.0085650785
75	0xbc4d4fbe	-0.012531219
76	0x3dccd325	0.1000121
77	0x3cc60754	0.024173416
78	0x3da76ef0	0.081754565
79	0xbd5802eb	-0.052737158
80	0x3d1c07dd	0.038093437
81	0x3dc4b8d0	0.09605563
82	0xbd9e49de	-0.07728933
83	0xb945d5a7	-0.00018866976
84	0x3d80ded7	0.06292503
85	0x3c0b5066	0.008503055
86	0x3d0b8cc3	0.034069788
87	0xbcef2b76	-0.029195528
88	0x3d0222c0	0.03177142
89	0x3c27cd31	0.010241793
90	0x3d9672d1	0.07346118
91	0x3c9e6664	0.019335933
92	0x3d45870b	0.04822449
93	0x3d8020a3	0.06256225
94	0x3bffcdd5	0.0078065195
95	0x3db147a9	0.08656246
96	0x3d0bcc45	0.034130353
97	0x3dbede29	0.093197174
98	0xbd10bef6	-0.035338365
99	0xbda9035a	-0.082525924
100	0x3dbd304b	0.09237727
101	0xbc20b8a5	-0.009809648
102	0x3d1ff2ae	0.039049797
103	0xbd2cc1fc	-0.042177185
104	0x3d9ee8f9	0.0775928
105	0x3da57da8	0.08080608
106	0x3c2214a3	0.0098926155
107	0xbd6446e6	-0.055731677
108	0x3d8eabcf	0.06966364
109	0xbd5e99de	-0.054345958
110	0x3d60ccd3	0.054882836
111	0x3d22915d	0.03968941
112	0x3c5cd5c1	0.013478697
113	0xbd8910b9	-0.06692643
114	0x3daf16f5	0.085493006
115	0x3d02c274	0.031923726
116	0xbd37e332	-0.044894405
117	0xbd3fa51a	-0.046788312
118	0xbdb85d19	-0.09002132
119	0x3d8f38a3	0.069932245
120	0xbd18c738	-0.037299365
121	0xbcf4a734	-0.029864885
122	0x3cdaad05	0.02669383
123	0xbd30b156	-0.04313787
124	0x3d353af9	0.044245694
125	0x3da03f2f	0.07824551
126	0x3d1c175f	0.038108226
127	0xbc5245e5	-0.012834047
128	0xbd107ff5	-0.03527828
129	0x3dc4d836	0.096115515
130	0x3d2fda66	0.04293289
131	0x3d08b0db	0.033371788
132	0x3d72c7c3	0.05927254
133	0x3d4bd74a	0.049765863
134	0x3e0263bc	0.12733358
135	0xbd5b7b64	-0.05358447
136	0x3b36e506	0.0027907505
137	0x3cd50b6f	0.026006429
138	0xbc1319a7	-0.008978284
139	0x3c7115fd	0.014714715
140	0x3d467259	0.048448894
141	0xbd02ef34	-0.031966403
142	0xba3e38ee	-0.0007256408
143	0x3d9eed65	0.07760123
144	0x3ca26d61	0.019827547
145	0xbd907025	-0.0705264
146	0x3c212114	0.009834547
147	0x3c813f05	0.01577712
148	0x3db59461	0.08866192
149	0x3c748eff	0.014926671
150	0x3d074605	0.03302576
151	0x3da6ab2b	0.081381164
152	0x3b62a217	0.0034581476
153	0x3dbe5c0d	0.09294901
154	0x3bf10d8e	0.007356352
155	0x3ca76a97	0.020436568
156	0xbc9dfabe	-0.019284602
157	0xbd3adfbe	-0.045623533
158	0x3dc1eb12	0.09468664
159	0xbda891bd	-0.08230922
160	0x3d637d03	0.055539142
161	0x3d684492	0.05670602
162	0x3d421fbb	0.04739354
163	0xbc28d097	-0.010303638
164	0xbd1fe232	-0.039034076
165	0xbd3bc7f9	-0.045845006
166	0xbd24a8ae	-0.040199928
167	0xbcc41b97	-0.023938937
168	0x3dfcd12b	0.12344583
169	0x3acede32	0.0015782772
170	0xbd1a31f1	-0.037645284
171	0x3d7c52b5	0.061602313
172	0x3baf7c2a	0.0053553777
173	0x3da4a32b	0.08038934
174	0xbc8adc94	-0.016950883
175	0xbcabebe1	-0.0209865
176	0xbcc45e53	-0.023970759
177	0xbc988be6	-0.018621396
178	0xbc400a1f	-0.011721163
179	0x3d42a935	0.04752465
180	0x3d45ad36	0.04826089
181	0x3d84065a	0.06446524
182	0x3d637178	0.055528134
183	0x3d8f9817	0.07011431
184	0x3ce862e0	0.02836746
185	0x3caa7b61	0.020810785
186	0x3e03dea2	0.12877896
187	0x3cf935ce	0.030421164
188	0x3d291448	0.041279107
189	0x3cac3cfb	0.021025172
190	0x3cca358c	0.024683736
191	0x3cc43af1	0.023953887
192	0x3d0ce5c6	0.034398817
193	0xbc1dbe38	-0.009627871
194	0x3d41a548	0.047276765
195	0x3d788da0	0.06068194
196	0x3c0b07f2	0.008485781
197	0x3d41b3f1	0.047290746
198	0xbd216bed	-0.039409567
199	0x3d73b9d0	0.059503376
200	0x3daee74f	0.08540212
201	0x3dbb0679	0.09132094
202	0x3deedace	0.116628274
203	0x3d2d0fe1	0.04225147
204	0x3d1d9ba0	0.038478494
205	0x3dd8c8bb	0.10585161
206	0x3c155815	0.009115239
207	0x3c3b3ea3	0.011428508
208	0xbc085ad0	-0.008322433
209	0xbcd55201	-0.02604008
210	0xbd0452b1	-0.032305423
211	0x3dd37174	0.10324374
212	0x3da37e04	0.0798302
213	0x3cddfea1	0.027098956
214	0x3d947ec8	0.07250744
215	0x3d96a23b	0.07355162
216	0x3d97fca4	0.07421234
217	0x3b968aa3	0.0045941635
218	0x3d55ab62	0.052165397
219	0x3d4b87ff	0.049690243
220	0x3c73a800	0.014871597
221	0xbd207219	-0.039171312
222	0x3c6ec08d	0.014572275
223	0xba96e4ba	-0.0011512258
224	0xbb19d47a	-0.0023472593
225	0xbc58735e	-0.013211099
226	0xbd1bdb9a	-0.038051225
227	0x3d58c86a	0.052925505
228	0x3d6850b0	0.056717575
229	0x3de098dc	0.109666556
230	0x3dae7436	0.08518259
231	0xbc3de2b6	-0.011589697
232	0x3d989990	0.07451165
233	0xbc67d440	-0.014149725
234	0xbbdfd334	-0.0068305973
235	0x3b7b8691	0.0038379768
236	0x3c96a418	0.018388793
237	0xbd002f7c	-0.031295285
238	0x3c5c7f30	0.013458058
239	0xbbde2f4a	-0.0067805396
240	0xbdab1ae7	-0.083547406
241	0xbcef9278	-0.029244646
242	0x3d25d564	0.04048671
243	0x3d755ffe	0.059906
244	0x3d32c019	0.04364023
245	0x3d988258	0.07446736
246	0xbd4706ba	-0.0485904
247	0xb7e83e50	-2.7685572e-05
248	0x3c8a71bd	0.016899938
249	0xbce34ee2	-0.027747575
250	0xbb95e500	-0.004574418
251	0xbd751577	-0.059834924
252	0x3d648c4e	0.055797867
253	0x3cde548e	0.027139928
254	0xbcca13bd	-0.024667615
255	0x3b9559e6	0.004557836

fc2.weight f4 [128, 256]
0	0x3d676221	0.056490067
1	0x3c1b86a4	0.00949255
2	0x3de32c00	0.11092377
3	0xbc65a076	-0.014015308
4	0x3db45f49	0.08807237
5	0x3d066d41	0.032819036
6	0x3c885fc7	0.016647233
7	0xbd846c19	-0.064659305
8	0xbcd27a22	-0.025693003
9	0x3cddcb86	0.027074587
10	0x3d592fce	0.053024106
11	0xbcfc8468	-0.030824855
12	0xbc6edfcd	-0.014579725
13	0x3cb7fa5a	0.022458244
14	0x3d89dd67	0.06731682
15	0x3d72dba5	0.0592915
16	0x3d3d7647	0.046255376
17	0xbc5e18aa	-0.013555685
18	0x3b9cdc76	0.004787023
19	0xbcadc51a	-0.02121215
20	0x3cdc6cb7	0.026907308
21	0x3d6cf2d2	0.05784876
22	0x3d6eb3ec	0.058277056
23	0xba316b4f	-0.00067680044
24	0x3c1a6441	0.009423316
25	0xbcdc3f19	-0.026885556
26	0x3d3a9181	0.04554892
27	0x3d82fd98	0.063960254
28	0x3da890f0	0.0823077
29	0x3c379084	0.011203889
30	0x3d7d7f57	0.06188902
31	0xbaef136b	-0.001824004
32	0x3c56cdfe	0.013110636
33	0xbd798a5f	-0.060922977
34	0xbd6c9714	-0.057761267
35	0xbbf7f070	-0.007566504
36	0x3cbf756c	0.02337142
37	0x3d1a4a5b	0.037668567
38	0xbb82906b	-0.003984501
39	0x3d2e5724	0.042563573
40	0x3d8a8ad6	0.06764762
41	0x3ca3c5d0	0.019991785
42	0xbcded02c	-0.027198873
43	0xbd10f57b	-0.03539036
44	0xbc2a982c	-0.010412257
45	0xbc3447c0	-0.011003435
46	0xbd64fd18	-0.05590543
47	0x3b9e196e	0.004824809
48	0x3db4169a	0.087933734
49	0x3da93dca	0.082637385
50	0x3c7c15b3	0.015386033
51	0x3c48779b	0.012235547
52	0xbd00c491	-0.03143746
53	0x3bdf98da	0.0068236412
54	0xbd524044	-0.05133082
55	0x3dcd7f7c	0.10034081
56	0x3d859f4f	0.06524526
57	0x3c32881b	0.010896708
58	0x3ce43433	0.027856922
59	0x3a3deeec	0.000724538
60	0xbc19e0c8	-0.009391971
61	0x3da4b757	0.08042782
62	0x3ce92dbf	0.028464196
63	0x3da5bb00	0.08092308
64	0xbd4b9092	-0.04969842
65	0x3daef68d	0.085431196
66	0x3d044590	0.032292902
67	0x3dae84a1	0.08521391
68	0x3d59b5ad	0.053151775
69	0xbbe3ad61	-0.0069481586
70	0x3d0bc646	0.034124635
71	0x3ca85a1b	0.020550778
72	0x3a8558e2	0.0010173584
73	0xbc9e6e02	-0.019339565
74	0x3d1042bd	0.035219897
75	0xbd06b090	-0.032883227
76	0x3bc0cd67	0.005883861
77	0x3c68ffbb	0.014221127
78	0xba3032be	-0.00067214284
79	0xbcdda60d	-0.027056718
80	0x3d01a2c8	0.03164938
81	0x3d1fcdc8	0.039014608
82	0x3cd9b7b1	0.026576849
83	0xbd82b132	-0.063814536
84	0x3cf62ffa	0.030052174
85	0x3be48697	0.006974052
86	0xbd8e5528	-0.06949836
87	0xbd604866	-0.054756545
88	0xbbeda242	-0.0072520087
89	0x3b9f5921	0.00486292
90	0xbcd62ab3	-0.026143407
91	0xbd4a24c0	-0.049351454
92	0x3a78fc2e	0.0009498027
93	0xbd0873c0	-0.033313513
94	0xbd150d38	-0.03638956
95	0x3d143c97	0.036190595
96	0xbd2bf0fc	-0.041977867
97	0xbd6e0aa8	-0.05811563
98	0x3d476759	0.048682544
99	0x3d2dd643	0.042440664
100	0x3dac1faf	0.08404481
101	0xbc8a1f68	-0.016860679
102	0x3d023664	0.031790152
103	0x3cb1614a	0.021652836
104	0x3da15934	0.07878342
105	0xbc2d1409	-0.010563859
106	0xbc0e16ff	-0.008672475
107	0x3ccb4d5d	0.024817163
108	0xbb7bcd70	-0.003842201
109	0x3d0dbacb	0.034601968
110	0x3c9fdd7c	0.019514792
111	0x3d288fe7	0.04115286
112	0xbd807838	-0.0627293
113	0x3c475a0a	0.012167463
114	0x3c7824f3	0.015145528
115	0xbd47e784	-0.048804775
116	0xbbacc1b1	-0.0052721133
117	0xbdaf5a17	-0.08562105
118	0x3c3c0049	0.011474677
119	0xbd5dd49a	-0.05415783
120	0xbdbc60fd	-0.091981865
121	0xbd699ab3	-0.0570323
122	0x3ce51ef8	0.027968869
123	0x3cdd5470	0.027017802
124	0x3d3f9f2d	0.04678266
125	0xbd897998	-0.06712645
126	0x3d5bd2a7	0.05366769
127	0xbd9b9a70	-0.07597816
128	0xbdb8db62	-0.09026219
129	0xbb66169d	-0.0035108693
130	0xbd088527	-0.03333011
131	0xbd279390	-0.04091221
132	0x3b54b711	0.003245775
133	0x3d732c17	0.05936822
134	0x3ceec352	0.02914587
135	0xbd6ce16b	-0.057832163
136	0x3d903169	0.07040674
137	0x3c8a8c79	0.016912686
138	0x3da3836a	0.079840496
139	0x3bb686f8	0.0055702887
140	0x3c8ff0f9	0.01757096
141	0x3d67a37c	0.056552395
142	0xbcb575d5	-0.022150913
143	0x3d9c8ecc	0.07644424
144	0x3bfc4d0d	0.007699615
145	0x3d66cdad	0.05634849
146	0xbd40e594	-0.047093943
147	0xbce05c00	-0.027387619
148	0xbd9b80b6	-0.07592909
149	0x3bcbc1fe	0.006218194
150	0xbbf331a5	-0.0074216896
151	0xbcde90cd	-0.027168656
152	0x3d2b4727	0.041815903
153	0x3d684b87	0.056712653
154	0xbd74a56d	-0.059728075
155	0x3d0bb4ba	0.0341079
156	0x3d2db49b	0.042408567
157	0x3bff3204	0.0077879447
158	0xbc890fed	-0.016731227
159	0xbda855cc	-0.082194895
160	0xbd721c56	-0.059109055
161	0x3d5668be	0.052345984
162	0xbce63151	-0.028099688
163	0x3b608c6b	0.0034263383
164	0xbd82bdab	-0.063838325
165	0x3d2cc005	0.04217531
166	0xbcda0f22	-0.026618544
167	0xbcab12b9	-0.020882951
168	0x3d53a2ca	0.05166892
169	0x3c2dcb57	0.010607562
170	0xbc170fbd	-0.009220061
171	0x3db15aff	0.08659934
172	0xbcf2c1c5	-0.029633412
173	0xbd15a24a	-0.036531724
174	0xbd8b3943	-0.06798031
175	0xbce52525	-0.027971813
176	0x3990f89a	0.00027651043
177	0x3d845801	0.06462098
178	0x3d7cda45	0.061731596
179	0x3d68fcff	0.0568819
180	0xbd299558	-0.04140219
181	0xbd157ef3	-0.03649802
182	0x3dba5f4c	0.09100208
183	0x3d9db5df	0.07700705
184	0x3cd1af55	0.0255963
185	0xbd63fe31	-0.055662338
186	0x3d653bbc	0.05596517
187	0x3d53eccb	0.051739495
188	0x3c4e549c	0.012593415
189	0x3bb690d9	0.0055714664
190	0xbd64a489	-0.055820975
191	0x3c82d970	0.015972823
192	0x3d755f97	0.059905615
193	0xbcda69eb	-0.026661834
194	0x3d2209e9	0.039560232
195	0xbd353819	-0.044242952
196	0xbd9c555b	-0.07633468
197	0x3d333dd4	0.043760136
198	0xbdbae657	-0.09125965
199	0x3d7f9449	0.062397275
200	0x3ced5643	0.028971797
201	0x3d9a5bca	0.075370386
202	0x3c952bbd	0.018209333
203	0x3c9b22da	0.018937517
204	0x3c7568a6	0.014978563
205	0xbd69a395	-0.05704077
206	0xbc078369	-0.008271077
207	0xbb9cc57b	-0.0047842837
208	0x3da9f451	0.08298553
209	0x3d088248	0.03332737
210	0xbd0dea6c	-0.03464739
211	0xbd03515b	-0.03206001
212	0xbce369cf	-0.027760414
213	0x3dc9b6d6	0.09849326
214	0x3da54d1d	0.08071349
215	0xbd6feb4f	-0.058574017
216	0x3bf6f17f	0.007536113
217	0xbc7f77da	-0.01559254
218	0x3dbef547	0.09324127
219	0x3d504ce6	0.050854586
220	0x3d0e72ad	0.034777332
221	0x3d3d8cea	0.046276964
222	0x3cf7a674	0.030230738
223	0x3d464530	0.048405826
224	0x3ca96acc	0.020680808
225	0x3d8c93c1	0.06864119
226	0x3ccb63e8	0.024827912
227	0xbd156f4b	-0.03648309
228	0x3cfe7585	0.031061897
229	0x3deca84e	0.11555539
230	0x3d7207b0	0.059089363
231	0xbab3a56f	-0.0013705919
232	0x3d742da4	0.05961384
233	0xbd04fde7	-0.032468703
234	0xbbf105f0	-0.007355444
235	0x3c634649	0.013871738
236	0xbc19b6fa	-0.009382004
237	0x3d9af4ba	0.07566209
238	0x3d86260d	0.06550226
239	0xbc27913e	-0.0102274995
240	0xbda01165	-0.07815818
241	0xbc187a09	-0.009306439
242	0xbcbfd0d8	-0.023415014
243	0x3d67cb87	0.056590583
244	0x3da9ef6a	0.08297618
245	0xbd34c74e	-0.044135384
246	0x3d919ca9	0.07109959
247	0xbcc17395	-0.023614684
248	0xbccdfa76	-0.025143843
249	0x3d0ef320	0.03489983
250	0x3c9d3441	0.019189956
251	0xbb396b2c	-0.002829264
252	0xbd07c584	-0.03314735
253	0x3d34a1d6	0.04409965
254	0x3d5fff70	0.054686964
255	0xbd06c565	-0.032903094

fc2.bias f4 [128]
0	0x3d9d543f	0.07682084
1	0x3cee7e97	0.029113097
2	0xbb6f4423	-0.0036509119
3	0x3bc6689e	0.006054952
4	0x3cb19612	0.021678004
5	0xbc0ab46a	-0.008465866
6	0xbcd42403	-0.025896078
7	0x3e234bbe	0.15946862
8	0x3d15295b	0.036416393
9	0x3b14a71b	0.002268261
10	0xbc414d48	-0.01179821
11	0x3b05bc06	0.002040626
12	0x3d4594df	0.048237678
13	0x3c2a9dfa	0.010413641
14	0xbd5e59ca	-0.05428485
15	0xbc7dbf4d	-0.015487504
16	0xbd6b8898	-0.057503313
17	0xbcefcf82	-0.029273752
18	0x3d6ae396	0.05734595
19	0x3ddfa8a0	0.109208345
20	0x3d83ef29	0.064421006
21	0xbd411475	-0.04713865
22	0xbd221505	-0.039570827
23	0xbdd79ea4	-0.10528305
24	0x3d82d492	0.06388201
25	0xbd6d35fe	-0.05791282
26	0xbca4f5c0	-0.020136714
27	0x3d17a0c6	0.03701856
28	0x3b2cb6a8	0.0026353989
29	0x3d34f64f	0.04418021
30	0xbdbe05d9	-0.09278459
31	0x3d66530d	0.056231547
32	0xbd79010a	-0.060792007
33	0xbdbb99b9	-0.0916018
34	0xbdeddec4	-0.11614755
35	0xbbe6c3f2	-0.0070424015
36	0xbcd934c2	-0.026514415
37	0x3dea711e	0.11447357
38	0xbce0a414	-0.027421989
39	0x3d8e42ae	0.06946312
40	0x3d9dd86d	0.077072956
41	0x3c056f0d	0.008144152
42	0x3d35cba6	0.044383667
43	0x3def12b3	0.116734885
44	0xbbfcf9ba	-0.0077201994
45	0x3d690cbb	0.056896906
46	0x3da1459f	0.07874607
47	0x3d7905ee	0.06079667
48	0xbc325bd4	-0.010886151
49	0x3d349915	0.044091303
50	0x3df7546e	0.120766506
51	0xbd68e714	-0.056861
52	0xbaa9f563	-0.0012966808
53	0x3c35b5a1	0.011090667
54	0x3dee63a5	0.116400994
55	0xbd750c52	-0.059826203
56	0xbce0f368	-0.027459815
57	0x3c9c157c	0.019053213
58	0xbcf0327a	-0.029320944
59	0x3d8c30dc	0.06845257
60	0x3da726e6	0.08161716
61	0x3d07534e	0.03303843
62	0xbdc649bf	-0.09682035
63	0xbd4f1001	-0.050552372
64	0x3ccc0d58	0.024908707
65	0x3aa2e4b7	0.0012427781
66	0x3c9a981f	0.018871365
67	0x3d354118	0.04425153
68	0xbd5a2fbe	-0.053268187
69	0xbb8457e2	-0.0040387968
70	0xbd8bff05	-0.068357505
71	0x3e0e4341	0.13892843
72	0xbdb82fb9	-0.089934774
73	0x3c94f277	0.018182022
74	0x3d4a1f55	0.049346287
75	0x3ca09823	0.019603794
76	0x3ce18f35	0.027534107
77	0x3d9e6d2f	0.07735669
78	0x3dfef30a	0.124487
79	0xbd5ead8f	-0.054364737
80	0x3d24cdfa	0.040235497
81	0xbd867bb9	-0.06566567
82	0x3cb3979c	0.021922879
83	0x3c9cef3f	0.01915705
84	0xbb87bbc9	-0.004142259
85	0x3cb97c77	0.022642357
86	0x3de295da	0.11063738
87	0x3d6cc82d	0.05780809
88	0x3ce7314d	0.02822175
89	0x3d44613e	0.0479443
90	0xbbbd478a	-0.0057763504
91	0xbca72518	-0.02040343
92	0x3d875b8f	0.0660926
93	0x3d6c3f41	0.05767751
94	0x3e01aafa	0.12662879
95	0xbbe6a570	-0.0070387647
96	0x3d8131a3	0.063082956
97	0xbcfcdcd9	-0.030867027
98	0xbd59784e	-0.053093247
99	0xbd36e382	-0.044650562
100	0x3da3fd6a	0.08007319
101	0x3cdeb0d6	0.027183931
102	0x3ac77ab3	0.0015219062
103	0x3d48fce7	0.04906931
104	0xba52368d	-0.0008018993
105	0x3d999f38	0.07501072
106	0x3ce6e326	0.028184485
107	0x3de863a6	0.113471314
108	0xbd4d4b1b	-0.050120454
109	0x3b2a0c38	0.0025947224
110	0x3d9ecc03	0.07753756
111	0xbc421989	-0.011846908
112	0xbd8cc0e2	-0.06872727
113	0xbd8c59dc	-0.06853077
114	0x3dfc5206	0.12320332
115	0x3d1edf90	0.038787425
116	0x3c6c6e1d	0.01443055
117	0xbd0c0355	-0.034182865
118	0xbc5e8860	-0.013582319
119	0x3c8cc1f9	0.017182337
120	0x3b50350f	0.0031769907
121	0x3df14548	0.117807925
122	0x3c96e701	0.018420698
123	0x3d3e9db8	0.04653713
124	0x3a94e8eb	0.0011360919
125	0xbb88f97b	-0.004180131
126	0x3c4d0162	0.012512537
127	0x3dbe22f8	0.092840135

fc3.weight f4 [64, 128]
0	0x3db057d4	0.08610502
1	0xbd2a4656	-0.041570984
2	0x3d278900	0.040902138
3	0xbcf17bbf	-0.029477952
4	0x3ce5d8ab	0.028057417
5	0x3cf6fd1c	0.030149989
6	0x3da7197a	0.08159156
7	0x3c6e1b58	0.014532886
8	0x3db05afa	0.086111024
9	0x3ccfc126	0.025360655
10	0xbd2f8b4d	-0.042857457
11	0xbd81f1fe	-0.063449845
12	0xbc2b08f9	-0.010439151
13	0x3ccc4566	0.024935436
14	0x3cb60580	0.02221942
15	0x3db0479d	0.08607409
16	0xbd5fe20e	-0.054658942
17	0x3d1bd5be	0.038045637
18	0xbdbdfbe8	-0.09276563
19	0x3c59ce5d	0.01329383
20	0xbcbfe91a	-0.023426581
21	0x3d99ac17	0.07503527
22	0x3b888ca5	0.0041671568
23	0xbd97887a	-0.07399078
24	0xbcaeeae7	-0.021352245
25	0xbda31334	-0.07962647
26	0x3d677efa	0.05651758
27	0xbd241e3d	-0.0400679
28	0xba78f9f9	-0.0009497698
29	0x3c3453aa	0.011006275
30	0x3a842b52	0.0010083711
31	0x3b3c36d1	0.0028719197
32	0xbcf3f7a6	-0.029781174
33	0x3d89d1b5	0.067294516
34	0x3d8eddb7	0.069758825
35	0xbd6c691c	-0.057717428
36	0x3d0b8236	0.034059726
37	0x3d33024c	0.043703362
38	0xbd4e9e85	-0.050444145
39	0x3d3d9170	0.046281278
40	0xbd12e7ae	-0.03586548
41	0x3d584026	0.05279555
42	0x3d671b0e	0.056422286
43	0x3cf041cb	0.029328248
44	0x3d801449	0.06253869
45	0xbc985ef2	-0.018599961
46	0x3d15067e	0.036383145
47	0x3cd5cbbf	0.02609813
48	0xbd986056	-0.074402496
49	0xbdbbd930	-0.091722846
50	0x3e01f535	0.12691195
51	0xbd3320a5	-0.043732304
52	0x3dbb1f34	0.09136811
53	0x3d99fce2	0.07518937
54	0x3d42de4d	0.047575284
55	0xbd4f88cc	-0.05066757
56	0x3da827b1	0.082106955
57	0x3d33ef9a	0.043929674
58	0xbd7fd7ef	-0.06246179
59	0xbd63636a	-0.05551473
60	0x3d7802b7	0.060549464
61	0xbc3ad8c6	-0.011404222
62	0x3b9a0eb8	0.0047014616
63	0xbd5e9825	-0.054344315
64	0xbb8380cf	-0.004013158
65	0x3dc71ad4	0.09721914
66	0x3c70c664	0.0146957375
67	0x3cbb6c04	0.022878654
68	0x3b8d1e25	0.004306572
69	0xbcbbc93a	-0.0229231
70	0x3c866fab	0.01641067
71	0x3dc6ab37	0.097006254
72	0xbd1a7a72	-0.03771443
73	0xbd1bd04f	-0.038040455
74	0x3d863393	0.06552806
75	0xbd4cb75e	-0.04997956
76	0xbcf9ce4f	-0.030493883
77	0xbdc615cc	-0.09672126
78	0x3d1cc394	0.038272455
79	0xbd2da8ea	-0.042397417
80	0x3c80d33f	0.01572573
81	0xbd612f85	-0.05497696
82	0xbd4aad94	-0.049481943
83	0xbdd1b869	-0.102402516
84	0xbd271c34	-0.04079838
85	0x3d443b39	0.04790804
86	0x3df8af96	0.12142865
87	0xbcf413c1	-0.029794576
88	0xbd117b38	-0.0355179
89	0x3ce2ddbd	0.027693624
90	0xbd948496	-0.07251851
91	0xbd928114	-0.07153526
92	0xbcde5f8f	-0.027145175
93	0xbd43ce3f	-0.047804113
94	0x3ddb728a	0.10715206
95	0x3d84d071	0.064850695
96	0xbbb1ff36	-0.005432035
97	0x3bb6459d	0.005562498
98	0x3db03518	0.08603877
99	0x3bdba0c4	0.0067025144
100	0x3da1b73a	0.07896276
101	0xbce0cfcf	-0.02744284
102	0x3cc79899	0.024364756
103	0xbb9b6fcd	-0.0047435523
104	0xbd6b083e	-0.057380907
105	0x3de79783	0.113081954
106	0x3cf7d6ef	0.030253856
107	0x3d4bc822	0.04975141
108	0x3d7b1535	0.06129952
109	0xbd85c9bf	-0.06532621
110	0x3dee2a0a	0.11629112
111	0xbda7078b	-0.081557356
112	0x3caa32fe	0.020776268
113	0xbd0ba6ac	-0.034094498
114	0x3cccb26d	0.024987424
115	0xbd2cfc4f	-0.042232808
116	0x3dc937d6	0.09825103
117	0x3d52d088	0.051468402
118	0x3d42269d	0.047400106
119	0xbd8efaa5	-0.069814004
120	0x3c8ad835	0.016948799
121	0x3d21a98e	0.03946834
122	0x3d3b36e0	0.04570663
123	0xbd90e86b	-0.0707558
124	0x3d9a2033	0.07525673
125	0x3bddb237	0.0067656296
126	0x3d9883e7	0.074470334
127	0x3d72e789	0.05930284
128	0xbd5cb06b	-0.053879183
129	0x3d0451f7	0.03230473
130	0x3d137c26	0.03600707
131	0xbcad1b50	-0.021131188
132	0x3d3f56f3	0.04671378
133	0xbda1a9bf	-0.078937046
134	0x3d07373f	0.03301167
135	0x3e151c28	0.14561522
136	0x3db4b76e	0.08824049
137	0xbd1ac76a	-0.037787832
138	0x3cf75550	0.030192047
139	0xbb3669ab	-0.002783398
140	0x3dda10b9	0.10647721
141	0xbc9d6733	-0.019214248
142	0x3d0ead14	0.03483303
143	0x3c707ccf	0.014678194
144	0xbccbbde0	-0.024870813
145	0x3d971abb	0.07378145
146	0xbd2f24e1	-0.04275978
147	0xbda791e8	-0.08182126
148	0x3dab6717	0.08369272
149	0xbca65f25	-0.02030904
150	0x3de34221	0.110965975
151	0xbdff0123	-0.12451389
152	0x3cec0ad7	0.028813763
153	0x3c6de6f8	0.014520399
154	0x3d337bd0	0.04381925
155	0x3d7aa133	0.061188888
156	0xbd9a0a8e	-0.075215444
157	0x3cf2b9b0	0.029629558
158	0x3d855803	0.065109275
159	0x3ded2810	0.11579907
160	0xbccbf370	-0.024896353
161	0xbd9c5fab	-0.07635435
162	0x3cf5906e	0.029976096
163	0x3d9c4243	0.07629826
164	0x3ccc4af2	0.02493808
165	0xbe029db8	-0.12755477
166	0xbd6f48c0	-0.05841899
167	0xbdcc7123	-0.099825166
168	0xbd3ccd63	-0.04609431
169	0xbbb02b54	-0.005376259
170	0x3d41c171	0.04730362
171	0x3d639859	0.055565212
172	0xbd5a378c	-0.05327563
173	0xbd891a14	-0.06694427
174	0xbd35392b	-0.044243973
175	0xbc7102d4	-0.014710147
176	0x3d9806c7	0.07423168
177	0x3d0f2d72	0.03495545
178	0x3d653784	0.055961147
179	0x3d93e27f	0.07220935
180	0xbbb9c566	-0.0056692837
181	0xbd330cc8	-0.04371336
182	0x3dc67078	0.096894205
183	0x3d30c5c5	0.043157358
184	0x3d93e66b	0.07221683
185	0xbd8895c5	-0.06669191
186	0xbd5da8cd	-0.05411606
187	0xbd78f0d1	-0.060776535
188	0xbdb24922	-0.08705355
189	0x3d79d51e	0.06099426
190	0xbcd63530	-0.026148409
191	0x3d88e2ea	0.066839054
192	0x3db5da9c	0.08879587
193	0xbd25705e	-0.040390365
194	0xbd64e024	-0.05587782
195	0xb8c42a97	-9.353941e-05
196	0x3d2131cc	0.03935413
197	0xbd9ff9df	-0.07811331
198	0x3c8d1053	0.017219698
199	0xbd77152c	-0.060322925
200	0x3c558dd5	0.013034304
201	0x3d907826	0.070541665
202	0x3daeab09	0.08528716
203	0x3d88d13b	0.066805325
204	0x3dab208e	0.08355819
205	0x3c53a7f0	0.012918457
206	0xbb917d7c	-0.0044400077
207	0xbd9eec3e	-0.07759903
208	0xbd32ab61	-0.04362047
209	0x3db7928e	0.089635
210	0x3c9aac5c	0.018881015
211	0x3d1c6c4e	0.038189225
212	0xbdc5dc8a	-0.09661205
213	0x3d817454	0.06321016
214	0xbd87c0d0	-0.06628573
215	0xbd89721e	-0.06711219
216	0x3db7644e	0.089546785
217	0x3d44d4a5	0.048054356
218	0xbcbbab99	-0.022908973
219	0x3c6d6a14	0.014490623
220	0x3c68a9d6	0.014200648
221	0xbd9a37d5	-0.0753018
222	0x3c91836d	0.017762864
223	0xbdf7bc10	-0.12096417
224	0x3ddc737c	0.107642144
225	0xbc0eb968	-0.0087111965
226	0xbbf09b46	-0.007342729
227	0xbd06bbd8	-0.032893986
228	0x3cf73b95	0.030179778
229	0x3d9f6e31	0.07784689
230	0x3d83b71b	0.06431409
231	0xbd985e41	-0.074398525
232	0x3b25a4a4	0.0025275135
233	0xbdb1628a	-0.08661373
234	0x3d9ad7eb	0.07560714
235	0xbb8c2601	-0.0042769914
236	0x3c55d22b	0.013050596
237	0xbd489b6e	-0.048976354
238	0xbd80779c	-0.06272814
239	0x3d7365e6	0.05942335
240	0x3d8e9c45	0.069634
241	0xbc98f1f3	-0.018670058
242	0x3d2ffab2	0.04296369
243	0x3bb61a90	0.0055573657
244	0x3bd1aa58	0.0063984804
245	0xbd481b5c	-0.048854217
246	0xbd1f9b91	-0.03896672
247	0x3d486a79	0.048929665
248	0x3dcac7da	0.099014
249	0x3dd08af0	0.1018275
250	0x3d30dac2	0.043177374
251	0x3d8bb226	0.068210885
252	0xbd3d845f	-0.046268817
253	0x3dbcbc0f	0.09215557
254	0x3dc8f30f	0.09811985
255	0xbd276dbf	-0.040876146

fc3.bias f4 [64]
0	0x3e1ce72e	0.15322563
1	0xbc0dcdb0	-0.008654997
2	0x3d5c0456	0.053715073
3	0x3e019c81	0.12657358
4	0xbc4e7e11	-0.012603299
5	0xbc566eaf	-0.013087912
6	0x3df9b639	0.12192959
7	0xbc565eee	-0.013084156
8	0x3d861369	0.06546671
9	0x3d922c85	0.07137398
10	0x3c394c2b	0.011309664
11	0x3ccd10c7	0.025032414
12	0xbd208464	-0.039188758
13	0x3c48edfc	0.012263771
14	0x3cf3a50f	0.029741792
15	0x3dcb15f5	0.09916297
16	0xbcf92292	-0.030411992
17	0xbd0f1330	-0.034930408
18	0xbc84cd25	-0.016211102
19	0xbd6317a7	-0.05544248
20	0x3e1289a7	0.14310323
21	0x3e097299	0.13422622
22	0xbb5ac42e	-0.0033381092
23	0xbd927550	-0.07151282
24	0xbd8ae80e	-0.06782542
25	0x3d7836b1	0.060599033
26	0x3c56a131	0.013099954
27	0xbda89b96	-0.08232801
28	0xbd5e0f7b	-0.054213982
29	0x3e0d2cdb	0.13786642
30	0xbdb06b15	-0.08614174
31	0xbd1b3e79	-0.037901375
32	0x3d163df5	0.03668018
33	0x3d13c762	0.03607882
34	0xbd003343	-0.031298887
35	0x3cbb40d5	0.022858063
36	0x3deb0deb	0.11477264
37	0x3d894abf	0.0670371
38	0x3dc7e9b4	0.09761372
39	0x3cafc21f	0.021454869
40	0x3d691bba	0.056911208
41	0xbd1cfec8	-0.038328916
42	0x3bbc8674	0.0057533327
43	0xbdf740a2	-0.120728746
44	0x3d275841	0.04085565
45	0x3de74ad5	0.1129357
46	0xbdfba51e	-0.12287353
47	0x3ce51dc2	0.027968291
48	0x3daaa703	0.08332636
49	0x3d0a3feb	0.033752363
50	0x3b5d2965	0.0033746597
51	0x3c28a9c9	0.010294386
52	0x3ceef665	0.029170224
53	0x3c5b90eb	0.01340125
54	0x3da575f2	0.08079137
55	0xbc7bb229	-0.015362301
56	0x39cadafe	0.00038691604
57	0x3da30a44	0.079609424
58	0x3d088c20	0.03333676
59	0x3d41b822	0.047294743
60	0xbd90eac2	-0.070760265
61	0x3d3dd3a3	0.04634441
62	0x3ac9d100	0.001539737
63	0xbda0c0e3	-0.0784929

fc4.weight f4 [10, 64]
0	0xbdbba938	-0.09163135
1	0x3dae8864	0.08522108
2	0xbc39e6dd	-0.011346546
3	0x3c027092	0.007961409
4	0x3d45e197	0.048310842
5	0xbc17249a	-0.009225035
6	0x3c4dcf19	0.012561583
7	0x3dcabc5f	0.0989921
8	0xbe26a880	-0.16275215
9	0xbd6866a9	-0.05673853
10	0x3b2b7c2c	0.0026166542
11	0xbca8873e	-0.020572301
12	0x3d894738	0.06703037
13	0x3d248423	0.040165078
14	0xbd02e2da	-0.031954624
15	0xbdfed910	-0.12443745
16	0x3d343d5a	0.044003822
17	0x3e0b7203	0.13617711
18	0x3babdd54	0.00524489
19	0xbda6fd48	-0.08153778
20	0xbdcc7fba	-0.099852994
21	0xbdbf0ce9	-0.09328634
22	0x3df47dd4	0.11938062
23	0xbdbb3d2a	-0.091425255
24	0x3d075dbc	0.033048376
25	0x3cdd9697	0.027049346
26	0x3dcf5291	0.1012317
27	0xbd5f01bc	-0.054445013
28	0x3d98add4	0.0745503
29	0xbe0b3f98	-0.13598478
30	0x3ca01338	0.019540414
31	0x3df889b1	0.121356376
32	0xbc38833f	-0.01126176
33	0x3e06e213	0.13172178
34	0xbd930249	-0.0717817
35	0xbc2bc057	-0.010482869
36	0xbd617ead	-0.055052448
37	0xbe029402	-0.12751773
38	0xbd736347	-0.05942085
39	0xbddc71f5	-0.10763923
40	0xbca85c5f	-0.020551858
41	0xbdb5e244	-0.08881047
42	0xbdda5db2	-0.10662402
43	0xbd97deb2	-0.07415523
44	0xbde395b1	-0.11112536
45	0x3d29b2d5	0.041430313
46	0xbd86d666	-0.06583862
47	0x3c834661	0.01602477
48	0xbd8b5cc9	-0.06804807
49	0xbdad493b	-0.08461233
50	0xbe1f10f8	-0.15533817
51	0xbd367cc4	-0.04455258
52	0xbcf183a5	-0.029481718
53	0xbd8315ee	-0.06400667
54	0x3da87a0c	0.082264036
55	0xbd9d3b46	-0.07677321
56	0x3d8b7ab3	0.068105124
57	0x3d9d5cbf	0.076837055
58	0xbd4c6528	-0.049901158
59	0x3dd8822d	0.10571704
60	0x3df48161	0.119387396
61	0xbc60b841	-0.013715805
62	0x3daca1c6	0.08429293
63	0xbdf6a1cd	-0.1204258
64	0x3c5f994a	0.013647387
65	0xbd5cdba8	-0.053920418
66	0xbd8213db	-0.063514434
67	0xbe01309d	-0.12616201
68	0xbdcef6b4	-0.10105649
69	0xbd0f61ba	-0.03500531
70	0xbcc2989f	-0.023754416
71	0x3cdcb676	0.026942473
72	0x3cda5bcf	0.026655106
73	0xbb893353	-0.0041870265
74	0x3d68f29d	0.056872
75	0xbce70625	-0.028201172
76	0x3e07ddab	0.13268153
77	0xbd91c707	-0.071180396
78	0xbdb67d5a	-0.08910628
79	0x3d2021ab	0.03909461
80	0xbd127eb0	-0.03576535
81	0x3c3e8905	0.011629348
82	0x3e0b6a7a	0.13614836
83	0x3c823128	0.01589258
84	0xbcb99d0b	-0.022657892
85	0x3d42f3fe	0.04759597
86	0x3d9f3cd3	0.07775273
87	0x3d32581d	0.043541063
88	0xbcd92198	-0.026505277
89	0xbd30827f	-0.0430932
90	0x3df413a4	0.11917809
91	0x3d9c46c4	0.07630685
92	0xbe0498ef	-0.12948965
93	0x3c1cc29c	0.009567883
94	0x3b3350d2	0.0027361405
95	0xbd8afc4e	-0.067864046
96	0xbe06018f	-0.13086532
97	0xbe077c63	-0.13231044
98	0x3dbefff1	0.09326161
99	0x3da9e18a	0.08294971
100	0xbcd03a69	-0.025418477
101	0x3bb63622	0.0055606524
102	0xbe05103f	-0.12994479
103	0xbe05702b	-0.1303107
104	0xbddb85f5	-0.1071891
105	0x3d5ff906	0.054680847
106	0xbdf6ddbc	-0.12054011
107	0xbcf64524	-0.030062266
108	0x3d76844f	0.060184773
109	0x3d1bcd13	0.03803737
110	0xbdc0e688	-0.0941897
111	0x3bc7904a	0.0060901986
112	0xbc8f6215	-0.017502824
113	0xbd506b62	-0.05088366
114	0x3c880b63	0.016606992
115	0xbb2e6096	-0.0026607863
116	0xbd2ed8cf	-0.042687234
117	0x3d5f5d05	0.05453207
118	0x3de1a222	0.110172525
119	0x3e159774	0.14608556
120	0xbcb2c10c	-0.021820568
121	0xbd7b1bcc	-0.061305806
122	0xbd4e6c1c	-0.05039607
123	0x3dd4cf0d	0.10391054
124	0xbdbb8524	-0.09156254
125	0xbdca4954	-0.098772675
126	0xbd844898	-0.06459159
127	0xbd8b5b24	-0.06804493
128	0xbd59f4ed	-0.053212095
129	0xbd44af01	-0.04801846
130	0x3d53f0ea	0.051743425
131	0x3e11bfce	0.14233324
132	0xbbf31a2d	-0.007418892
133	0x3d5f20ac	0.054474518
134	0xbda74fb6	-0.081695005
135	0x3dcd402c	0.100220054
136	0x3e05a62f	0.13051675
137	0xbdcea9e5	-0.100909986
138	0xbc8ff591	-0.01757315
139	0xbc8d8be9	-0.017278628
140	0xbe07f570	-0.1327722
141	0xbdaecd26	-0.08535223
142	0xbd874610	-0.0660516
143	0xbd9f4dd8	-0.077785194
144	0x3d8f00d3	0.06982579
145	0xbd5bd864	-0.053673163
146	0xbd94e4c7	-0.07270198
147	0x3dc32763	0.09528997
148	0xbd5a07f3	-0.053230237
149	0x3cab9157	0.020943327
150	0x3b66f9c1	0.003524408
151	0xbdf4d8cc	-0.11955413
152	0x3dbff5a4	0.09373024
153	0xbc492822	-0.012277635
154	0x3de1ee1f	0.11031746
155	0xbd071c37	-0.032985892
156	0xbd18bc0e	-0.037288718
157	0xbbddf2d4	-0.006773332
158	0x3ddc43b6	0.10755102
159	0x3da958a8	0.08268863
160	0xbddaa3d0	-0.10675776
161	0x3dcb4b26	0.09926443
162	0xbd94e3c3	-0.072700046
163	0x3e0fdf37	0.14049993
164	0xbd15e226	-0.036592625
165	0xbbed83c6	-0.0072483746
166	0x3d812acf	0.06306993
167	0x3d8008f9	0.062517114
168	0xbdfa8fb0	-0.122344375
169	0x3de1dd0a	0.11028488
170	0xbd468409	-0.048465762
171	0xbda1d450	-0.079018235
172	0xbd9751c8	-0.073886454
173	0xbd71b0cf	-0.05900651
174	0x3c0264ee	0.007958634
175	0xbdf6f219	-0.12057895
176	0xbda4b7c6	-0.080428645
177	0x3d36d1a1	0.04463351
178	0x3cb1a199	0.021683501
179	0xbd653411	-0.055957858
180	0x3d282494	0.04105051
181	0x3d96545b	0.07340308
182	0xbc8707cf	-0.016483216
183	0x3b6a646e	0.0035765427
184	0xbd9024c9	-0.07038266
185	0xbdad9a43	-0.08476689
186	0x3c0d6530	0.008630082
187	0x3ceebdad	0.029143179
188	0xbda4f85f	-0.080551855
189	0xbe2b1533	-0.16707306
190	0xbde9ebc4	-0.11421922
191	0xbdf2f949	-0.118639536
192	0x3c9fba20	0.019497931
193	0xbde52e27	-0.111904435
194	0xbdda5308	-0.10660368
195	0x3ddeeaf7	0.1088466
196	0xbd1957d6	-0.037437283
197	0xbc9ab3cd	-0.018884564
198	0x3c18baa7	0.009321845
199	0x3da251b4	0.0792574
200	0x3db66c3d	0.089073636
201	0x3d92f917	0.07176416
202	0x3cdcc62f	0.02694997
203	0xbdbff814	-0.09373489
204	0x3d8638fb	0.06553837
205	0x3a0c8c20	0.00053614564
206	0xbe124b8f	-0.14286636
207	0xbdd028e0	-0.10164046
208	0x3cb6e7c3	0.02232731
209	0x3de36abb	0.111043416
210	0xbcc4b447	-0.024011744
211	0x3b8cb656	0.004294197
212	0x3d144a93	0.036203932
213	0x3da542ce	0.080693826
214	0x3d8738a9	0.06602604
215	0x3daaa793	0.083327435
216	0x3cb8a400	0.022539139
217	0x3d3c9cae	0.04604786
218	0x3d94dcdb	0.07268687
219	0xbbfb5dcd	-0.007671094
220	0x3db7b21b	0.08969518
221	0x3d5488f5	0.051888425
222	0xbd548f55	-0.051894505
223	0x3dee1123	0.11624362
224	0x3d1d3c15	0.038387377
225	0x3c32a6e1	0.010904045
226	0x3dc77e91	0.097409375
227	0xbd8cbfb3	-0.06872501
228	0xbe2e2a36	-0.1700829
229	0x3cd57779	0.026057946
230	0xbc4a589d	-0.012350229
231	0x3d02481d	0.031807054
232	0x3e0a6024	0.13513237
233	0xbe1e4765	-0.15456922
234	0x3d7d77ae	0.061881714
235	0xbe218149	-0.15771975
236	0x3dd9bfa4	0.10632256
237	0xbdcb88a0	-0.099381685
238	0xbd2db54e	-0.042409234
239	0x3dde6aac	0.1086019
240	0xbe1bac51	-0.15202452
241	0x3ddc6b01	0.10762597
242	0xbd1c8e65	-0.038221736
243	0x3dec577f	0.11540126
244	0x3de29532	0.11063613
245	0xbdcf6f99	-0.101287074
246	0xbdf4e84d	-0.1195837
247	0xbe141750	-0.14462018
248	0xbc85f2d3	-0.01635114
249	0xbda630c8	-0.08114773
250	0x3e039ebb	0.1285352
251	0x3e0558a2	0.13022092
252	0xbde14c4d	-0.11000881
253	0xbdd68e56	-0.10476367
254	0x3d0e3758	0.03472075
255	0x3ced99a9	0.029003935

fc4.bias f4 [10]
0	0x3d1f215d	0.038850177
1	0xbd818c0e	-0.063255414
2	0x3ca1a166	0.019730281
3	0xbde52ba2	-0.11189963
4	0xbda16c58	-0.07881993
5	0x3de010f8	0.109407365
6	0xbd568534	-0.052373126
7	0x3d3542c3	0.044253122
8	0x3d2a9b3e	0.041651957
9	0xbd8c2e67	-0.06844788
