runs/Mar02_17-31-36_cssd901383-Run(lr=0.001, batch_size=256, patience=1)-valid/checkpoint.pt (torch_old, 972387 bytes, 8 tensors)

fc1.weight f4 [256, 784]
00000000: de57 ae3c f629 84bb e236 0ebe 4931 5dbd
00000010: 413c f6bc 80ae 0bbc ad20 123d 1ef8 71be
00000020: 701f f5bd 32e9 c7bd 7f41 35bd 607e 97bd
00000030: 3ca9 d1bd e69c f63d 5d65 b83d c3c8 f43d
00000040: 8566 b0bd a691 84bd 7826 b6bd 213e 09be
00000050: 4e4a 6cbd 4177 da3d a938 a03e 2c5c 1e3f
00000060: b55d 263f 9a5f b43e 4336 7d3e 367c ecbc
00000070: d660 e03c 27b5 69bc 1391 df3b f410 f8bd
00000080: 404e a6bd 204f 4abd 94b5 52be 0da2 eebd
00000090: 20e4 04be 0852 ffbd fe47 f2bd 8de1 1abd
000000a0: b585 98bc e536 dd3d 8c83 053e 03dc ef3d
000000b0: 60dd b5bd 2cea 57bd 8402 be3c b46f 93bd
000000c0: 353b ea3c 6d40 d63e 0b57 1b3f 2d87 233e
000000d0: 34bd 1e3e 8ddd 5d3e d8da 3f3e f069 babc
000000e0: 6a91 823a 4e63 44bc 238a 993b 25ec 00be
000000f0: 18f6 6bbd 5545 6fbe 0f74 31be d183 e3bd
00000100: 3380 46be 25b6 4dbe 9346 41be b713 03be
00000110: ce14 08be 7ea2 efbd 0020 1dbe 7cbb 92be
00000120: 9504 89be 4ffa 66be 7f34 74be 121d 2cbe
00000130: 2a31 bcbd d36d 9fbb c62e 163e b128 3dbd
00000140: ef52 3cbe 40ec 24be 99bb 653e c3bb 09be
00000150: a837 913c 675f 08bd cca6 c83c a4f0 e3bc
00000160: b348 6dbe 50f8 3dbe eb3d d4bd a434 29be
00000170: a3f5 83be 8e73 8ebd aa86 1abe 8554 d7bb
00000180: 4be5 b5bd a984 2bbe 7187 4ebe 88f6 72be
00000190: 67ca 84be 1bc4 3abe 7e89 32be c5bf 1cbe
000001a0: 461a f7bd 844d 8ebc 6b76 b53d 2c7b 853e
000001b0: b824 873b b40c 66be b283 0c3e ff00 443e
000001c0: 3ec1 6b3c a774 953d 52fc d43c 3b5b e8bd
000001d0: cde6 1fbe 8858 76be 586d 0abe 8ab5 48be
000001e0: 2042 65be 0313 09be a6b7 0bbe 188a d4bd
000001f0: 6558 37be 2918 2ebe b200 52be 4c45 3fbe
00000200: 43c4 23be fa74 e5bd b093 47bd 439a cbbd
00000210: bfec e0bd c0b5 13bc 1923 93ba a4f4 233e
00000220: 0850 a63d bd3a 813d 8c8b 473e 9626 d33d
00000230: 8acf 79bd da81 4fbd ba67 45bd 0180 20be
00000240: 7c8b 35be 84c7 79be 8699 53be d549 1bbe
00000250: 13a7 57be 4143 4bbe 35fc d9bd 13d7 a0bd
00000260: e5f3 71be 954b e5bd aac1 2fbe 0d18 d3bd
00000270: 7e0d 4bbe b62e 50be 898c f9bd 21fd ffbd
00000280: 7f5a 34be c102 a7bd 89b9 a0bd f95b 0bbd
00000290: 7d7f 6e3d fbc6 9d3d 813a cb3c faf6 2d3e
000002a0: ac5b 153d fac3 123c 53fe a2bd e8ad 1abe
000002b0: 0fb1 f6bd a5e6 27be dd23 45be 0360 5abe
000002c0: 2bcc 5dbe 5efb e2bb 1100 7abe 8b40 2bbe
000002d0: 3f15 93be 5349 16be c26b 35be 7112 72be
000002e0: 4ffa 9bbe 4c78 84be 404a f6bd 9331 c1bd
000002f0: f7f7 31be 33c2 4abe 3175 fabd a260 77bd
00000300: d0b3 19bd 6ae6 4c3c d9bc a83d 3c06 453e
00000310: 7208 483d f814 953b b607 c3bd e182 d6bd
00000320: 1b08 12be bbfd 49be 1f20 55be 52dd 70be
00000330: 734b 84be 84cc 90be acc1 b9be d975 e5bc
00000340: 6273 3dbe 5d58 36be 52ae 5fbe 242d a0be
00000350: 5537 cabe 88a6 52be e905 c0bd 9044 98bd
00000360: 5fa5 21be 61f3 33be 963e 27be 5af9 b0bd
00000370: de9d b1bd 7f20 90bc a1f4 e4bc 0387 8d3e
00000380: f02d 40bb 2cc9 1ebd 5172 f2bd 2e95 0dbe
00000390: 62d6 60be cbab 59be 4009 32be d772 41be
000003a0: 6def 31be 240a 30be f196 64be 30f7 e0bd
000003b0: 65b6 0ebe 9a4a 54be 2eba 67be 5664 97be
000003c0: 402d c0be 8601 d3bd ef47 11bd 9df9 743c
000003d0: fbef 08be ee21 02be afa9 c0bd c269 1cbe
000003e0: 23e6 2abe 077a 143e 4bf8 a43d 5f84 903e
000003f0: ab1f 73bd 8554 a8bd 2835 18be f72d 70be
0.021282133 -0.0040333224 -0.13888124 -0.05400208 -0.030058028 -0.008525491 0.035675693 -0.23629805
-0.11968887 -0.09761275 -0.044251915 -0.07397151 -0.10237357 0.12041645 0.090037085 0.11952355
-0.08613304 -0.06473093 -0.08894056 -0.13402607 -0.05768805 0.10667277 0.31293228 0.61859393
0.64986736 0.35229188 0.2472773 -0.028867822 0.027389925 -0.0142643815 0.006822714 -0.121126086
-0.08120394 -0.049391866 -0.20577079 -0.116520025 -0.12977648 -0.12466818 -0.11830138 -0.03781276
-0.018618444 0.10801486 0.13038462 0.11711886 -0.088801146 -0.052713558 0.023194559 -0.0719904
0.028592685 0.41846028 0.6067969 0.15969534 0.15501863 0.21666546 0.18735826 -0.022755593
0.000996155 -0.011986567 0.0046856566 -0.12590082 -0.05760774 -0.23366292 -0.17329429 -0.11109126
-0.19384842 -0.20089014 -0.18874578 -0.1280049 -0.13289186 -0.11700915 -0.15344238 -0.28658664
-0.26761308 -0.22556423 -0.2384815 -0.16807964 -0.09189065 -0.004865387 0.1466628 -0.046181384
-0.18391012 -0.16105747 0.22434844 -0.13450532 0.017726734 -0.033294108 0.024493597 -0.027824707
-0.23172264 -0.18551755 -0.103633724 -0.16523987 -0.25773343 -0.06955634 -0.15090433 -0.006571355
-0.08881625 -0.16749825 -0.20168854 -0.23726857 -0.2593567 -0.18238871 -0.17435262 -0.1530753
-0.12065558 -0.017370947 0.08860477 0.26070535 0.0041242503 -0.22465783 0.13722113 0.19141005
0.014389334 0.0729764 0.025999222 -0.11345526 -0.15615387 -0.2405721 -0.13518274 -0.19600502
-0.22388506 -0.13386159 -0.13644275 -0.10377902 -0.17904814 -0.17001404 -0.20508078 -0.18678778
-0.15992837 -0.11203952 -0.04872483 -0.099415325 -0.10982656 -0.009015501 -0.001122567 0.16011292
0.081207335 0.063100316 0.19486827 0.10310094 -0.06098894 -0.050660945 -0.048194624 -0.1567383
-0.1772899 -0.24392515 -0.20664033 -0.15164883 -0.21059828 -0.19849874 -0.10643808 -0.07853522
-0.23628195 -0.11196057 -0.1716372 -0.10307322 -0.19829366 -0.20330319 -0.12185008 -0.124994524
-0.17612647 -0.08154822 -0.07847888 -0.03402326 0.05822705 0.07703968 0.02480817 0.16988745
0.03646438 0.008957857 -0.07958665 -0.15105402 -0.1204549 -0.16396578 -0.19251962 -0.21325688
-0.21659915 -0.006926938 -0.24414088 -0.1672384 -0.28727147 -0.14676408 -0.17716888 -0.23639847
-0.30464408 -0.2587303 -0.12025881 -0.09433284 -0.17379747 -0.19800644 -0.12229384 -0.06039489
-0.037525 0.012506107 0.08239145 0.1924066 0.04883618 0.004549619 -0.09522955 -0.10474182
-0.14260904 -0.19725697 -0.20813034 -0.23521927 -0.25838813 -0.28281033 -0.36280572 -0.028010296
-0.18501046 -0.17807145 -0.21843842 -0.3128444 -0.3949534 -0.20571339 -0.09376127 -0.07434952
-0.1578574 -0.1757331 -0.16332468 -0.0864131 -0.08672689 -0.01759362 -0.02794868 0.27642068
-0.0029324256 -0.03876607 -0.118382104 -0.13826439 -0.2195678 -0.2125694 -0.17386341 -0.18891464
-0.1737649 -0.17191368 -0.22323205 -0.10984647 -0.13936765 -0.20731583 -0.22629616 -0.29568738
-0.37534523 -0.10303025 -0.03546899 0.014952091 -0.13372795 -0.12708256 -0.094073646 -0.15274718
-0.16689353 0.14499675 0.080551706 0.2822599 -0.059356373 -0.08219246 -0.14864028 -0.23455034

fc1.bias f4 [256]
00000000: ef98 2d3e a5c4 abbc 1a8c 10be 17e9 20be
00000010: ce87 a0bd 9059 12be 64f2 843e c8f8 00bd
00000020: f33d babc 1987 d0bd afe0 84bd d0ad 87bd
00000030: 4412 363d 11a5 16be e0cb 1bbd ecc2 87bd
00000040: 2b5d a0bd ac70 00bd 45bb c3bd b48a 85bd
00000050: 5489 65bd 3553 74bd 4197 2bbf 27bf a7bd
00000060: cd19 30bd f5bc 263e d7d5 6dbd b72a 75bd
00000070: 4455 18bf 2617 b1be 3529 30bd 91f0 edbd
00000080: 4f64 c7bd 7072 f63e b744 c0bd 5486 8abd
00000090: 010a abbd 6341 503d 7436 e8bd 36aa 0bbe
000000a0: ede4 f03e 4922 5cbe 699f 7bbd a0b9 01be
000000b0: 75fb 1abc 6005 813f 0a5a babc ef77 0ebd
000000c0: 1fae 6f3d 8214 69bf 6984 843d 97e3 3b3c
000000d0: d7fb 7cbd 0ce4 09bf bceb 03bd 818c 7abd
000000e0: 12af 2dbe 2209 993e d4e8 28bd 898b 59bd
000000f0: b7df ffbd df80 163f 4ee1 c43e c5a1 b7bd
00000100: 32e9 21bd aea1 51be 0bfc a1bd a1db 95bd
00000110: edcc f4bd e4c9 f43e 5632 19bd 06d3 71be
00000120: 1257 9c3d 5648 813e 3e4f 1ebd 4db2 9ebd
00000130: 8b10 b4bd 8be8 19bd b03a 233f 13bd aabd
00000140: 84ca ba3e eedf bbbd 128d 8fbd 8474 45bd
00000150: 391a b2be 49c6 873c f8c0 16bd 66c5 35be
00000160: 586a 9dbf 072f 3ebd dd4d 323e 4568 463f
00000170: fa71 86bd cb55 cfbf ac8d 8dbd 84b8 863f
00000180: a3bc 2e3f 6efe b5bd c3fd 7fbd 5038 9abc
00000190: 340f 38bd 1f31 8abc 96c0 39bc 4bcc 813e
000001a0: a4d0 3a3e 34ff 543f 77ba 083d 56d4 5cbd
000001b0: 59f3 9fbd 758b ab3c d1b9 f63e 9d86 afbd
000001c0: e77e dabd 1295 8ebe d8ed f8bd b23f 8dbd
000001d0: dcb3 38be 4f2e c9be 846b 6bbd c84d f4bd
000001e0: 09e0 57bd a5d1 183d 9db7 8dbf 0a4f 8c3f
000001f0: 3b30 5dbe 7121 95bd 3bd8 dabd 12c2 b03e
00000200: e840 bfbd d0a2 8fbd fd88 c7be e2ec 0a3f
00000210: c374 f0bc 6f9c cfbe f912 ccbd 33b5 8abd
00000220: 59f2 c6bd 9856 dcbc f967 8dbf 6f2d 4fbf
00000230: c450 ac3d a606 3fbe db7b b3bd 2e20 1f3f
00000240: aef9 4e3e e66b 1bbe 50fa debd f5b9 9dbd
00000250: ae25 90bd 86ce a7bd 9552 b6bd dd0f 03bd
00000260: 31ca 8dbd b4d2 26bf 3e14 273e 0a8b 13be
00000270: 6865 e53e c7a5 16bd bde5 ecbe b0cd 7c3e
00000280: a447 44be 608a a2bd 7a5d 243f 889d a7bd
00000290: dea3 813e f687 1abd 5066 17bc fb6a 103f
000002a0: 85da babd 57c2 0d3e 79c9 38bf 6886 a43f
000002b0: b9e7 d1be a789 9fbd 3cf5 343f 5fd0 abbd
000002c0: da45 0abd c90a 053f 0629 2cbf 9155 d1bd
000002d0: 8294 5c3c 38f9 943e ed98 d63e 31a9 043f
000002e0: 19ea a8be b6eb ff3e a8f5 79bd 09ab a2bf
000002f0: ed1b f63e 2743 74be 1e88 b33e 45d1 61be
00000300: 5a93 c4bd 8ce7 b13e a9a2 54be 7b3d 693f
00000310: ad04 b5bd cf48 6bbe a96c c6bd 28be 933e
00000320: 813c debd 1c4e 9fbd 1884 323e 7bba 86bc
00000330: 3d84 18be c2ac a6be 4180 c0bd 77e0 cdbd
00000340: 80ec 2ebe 1e07 92bc 310a d23e 07b4 b3bd
00000350: ebac 093f 49d8 fd3d fd5b 3f3f 5331 babd
00000360: 39cc 113d 0dda 98bd cc1b afbd fc0c 243f
00000370: bbaa 2cbd 3455 d9bc dba9 97bd 2e01 86be
00000380: 3d69 9ebd 9547 c0bd 9124 7dbd ab51 443e
00000390: 7850 bdbd 6d99 19bc 21da ffbd e2d9 31bd
000003a0: e7e7 36bc 1948 ac3e bcab 4ebf 5f69 ce3e
000003b0: 9cd3 67bd d17b 26bd 2c0e 03bd 61e2 0dbd
000003c0: 0ecb 60be 6a5c 173f 62a2 5c3f baf7 9a3d
000003d0: b572 b8bd 3adc a23e 1584 393f b95f b03e
000003e0: c17e 323e 1025 cc3f 95de 64bd 01bb 68bd
000003f0: dc9e 6e3f 226d 68bd 912c 8dbf 04f5 81bd
0.16952871 -0.02096779 -0.14115945 -0.15713917 -0.07838403 -0.14291978 0.2596618 -0.031487256
-0.022734618 -0.10182018 -0.064881675 -0.06624949 0.044451013 -0.14711405 -0.038036227 -0.06628975
-0.078302704 -0.031357452 -0.09557203 -0.06520596 -0.05603917 -0.059649665 -0.6702767 -0.08190756
-0.042993356 0.16283019 -0.05806526 -0.05985519 -0.59505105 -0.34587973 -0.043008048 -0.1161815
-0.09735929 0.48134184 -0.09388106 -0.06763902 -0.083515175 0.050843608 -0.11338511 -0.13639149
0.47049657 -0.21497454 -0.061431322 -0.12668467 -0.009459366 1.0079765 -0.022748012 -0.034782346
0.058515664 -0.9104692 0.06470568 0.011467836 -0.06176361 -0.53863597 -0.032207236 -0.06116915
-0.16961315 0.2988978 -0.041237667 -0.053111587 -0.12493842 0.5879039 0.38453144 -0.08966402
-0.039529033 -0.20471832 -0.079094015 -0.073172815 -0.11953149 0.4781028 -0.03740152 -0.23615655
0.07633795 0.252505 -0.03864979 -0.07748852 -0.08792218 -0.037575286 0.63761425 -0.08336844
0.36482632 -0.091735706 -0.07009329 -0.04820682 -0.3478563 0.016574042 -0.036805123 -0.17751083
-1.2298079 -0.046431568 0.17412515 0.7750285 -0.06564708 -1.6198057 -0.069117874 1.052506
0.68256587 -0.08886419 -0.062497865 -0.01882568 -0.044936374 -0.016869126 -0.01133742 0.25351176
0.18243653 0.8320191 0.03338095 -0.053913437 -0.07810087 0.020940522 0.48188642 -0.08570597
-0.10668736 -0.27848107 -0.1215474 -0.068969145 -0.18037361 -0.39293143 -0.05747558 -0.11928898
-0.05270389 0.037309308 -1.1071659 1.0961621 -0.2160043 -0.07281769 -0.10685774 0.34523064
-0.09338552 -0.07013476 -0.389717 0.54267704 -0.029352551 -0.40549037 -0.09964556 -0.06772842
-0.09714193 -0.02689676 -1.1047355 -0.809287 0.08413842 -0.1865488 -0.08763858 0.6215848
0.20212433 -0.15177879 -0.10887587 -0.07701484 -0.07038437 -0.08193688 -0.0890247 -0.03199755
-0.069233306 -0.6516526 0.16316316 -0.14408508 0.4480393 -0.03677919 -0.46269026 0.24687839
-0.19167954 -0.07936549 0.64205134 -0.081843436 0.25320333 -0.03772732 -0.009240702 0.5641324
-0.091237105 0.13843666 -0.7218242 1.2853518 -0.40997103 -0.07789927 0.706867 -0.08389353
-0.033758022 0.5196958 -0.67250097 -0.102213986 0.013463141 0.2909639 0.41913548 0.51820666
-0.32991102 0.4998452 -0.06102529 -1.2708446 0.4806818 -0.23853742 0.35064787 -0.22052486
-0.095984176 0.3474697 -0.20765175 0.91109437 -0.088387825 -0.22976993 -0.09688694 0.28856015
-0.10851384 -0.0777857 0.17433202 -0.016446343 -0.14894195 -0.3255368 -0.093994625 -0.10052579
-0.17082405 -0.01782566 0.410234 -0.08774572 0.53779477 0.12394769 0.7474974 -0.09091439
0.035595153 -0.07463465 -0.08550224 0.6408231 -0.04215501 -0.026529886 -0.07405444 -0.26172775
-0.07734916 -0.09388653 -0.06180245 0.19171779 -0.09243864 -0.009374958 -0.12492777 -0.04342068
-0.011163688 0.33648756 -0.80730796 0.40314767 -0.05659829 -0.040645424 -0.031995937 -0.03463972
-0.21952459 0.5912539 0.86185277 0.07566781 -0.09006254 0.31808645 0.72467166 0.3444803
0.17431165 1.594881 -0.055876333 -0.056818966 0.9321115 -0.056744702 -1.1029226 -0.06345561

fc2.weight f4 [128, 256]
00000000: b6dc 8f3d 4ce8 443d fb6c 253d 6313 f63d
00000010: c652 2e3d dc05 5d3e 6e69 5fbb a58d 2ebd
00000020: e212 c5bc 0074 12bc 22ef dabd 1f13 07bd
00000030: 01bd c5bb 7011 033d 5a2e a9bc 5f87 fbba
00000040: b82c b13d c375 d33c ad6d 043b 35c3 bebe
00000050: fe00 c8bd b630 edbc 54ef cc3b 7cf4 f03c
00000060: f1a4 353c b923 253e 677d bd3c d223 fc3c
00000070: a953 46be 6ec0 ba3e 4de3 883b 15b2 34be
00000080: 163c 8f3d 4119 babd 4842 063d b68a 0bbd
00000090: 330e 85bd 11b3 ab3d 74d1 713d b0bd b03c
000000a0: 690b 933e 3aee 743b 0d64 eb3d ec43 ca3c
000000b0: 26a4 513e f1a1 af3d f606 3dbd 0a10 eb3d
000000c0: 8630 453d 3b5f 2abe 3638 de3e 34dd 51bd
000000d0: 46e4 b8bc b965 8bbd c060 4f3c a6cf 0a3e
000000e0: 1998 0dbd 8930 87be 6f15 ab3c bc91 97bc
000000f0: 9113 213e d57b bc3b d54d 813e a363 433d
00000100: bd6c ae3d add4 7a3d b0d4 e2bc cbba b3bb
00000110: 7bf0 df3d 91ad 9bbd 6f64 a13c 9d9f 373c
00000120: 7501 4c3d e26a 95be ba7f 513c c1dc a43d
00000130: 589d 35bd 6e12 47bd 270c 0bbf 9de2 03bc
00000140: 6da6 f4bd 3673 ae3d bd86 08be cc79 923d
00000150: f4b8 2b3d e827 a73d 3d12 183d 36ec 63bd
00000160: 58a3 07bf e926 593d 1f24 3d3d c3fd 9e3e
00000170: 8536 323d 6ee9 ca3d 4813 acbc c292 5fbe
00000180: ebbb b63e 7876 2b3d 330d 08be 6883 563c
00000190: 41b5 193d ea9e cb3d 9a4e f1bd 8010 423d
000001a0: 6e97 113e 69a3 d8be e5c8 3b3a 2300 d13d
000001b0: d8c5 63bc 835b 8abd 68e8 ae3e 58f6 d43d
000001c0: 6ac0 7b3d 61a2 82bc 23e4 df3c 0b8c a5bd
000001d0: bf68 76bd 01ec fb3d 6203 d93c 5d77 933c
000001e0: 88fe c3bd 8199 353e 043c b0be 1818 b9bd
000001f0: 2a8c 9d3d 5fca eabc 6090 c13d 7aba 51be
00000200: 467e ac3d 80f0 c8bc d68b 89be b6ec 493e
00000210: a0b6 333d e6a5 bebd bd3b 2dbb a778 bf3b
00000220: 3a3b ddbd 9597 c13c c22b 59be c33a 60bd
00000230: 58f3 10bb 74cd 32bd ad17 a13b 1e44 de3d
00000240: 4825 003f da7b 6dbc e8b4 91be 4450 9ebc
00000250: 1889 11bf cfc1 003d aa09 8b3d d53e 953d
00000260: 1752 7ebd 04a8 d53d 6fd0 6bbe 6600 bfbc
00000270: 463c c0be f450 9ebd 4709 a5bd da11 f1be
00000280: d069 f93d 06a8 d73c 5213 ae3e 607f 7e3d
00000290: 0d55 a83e c836 803b 2910 cc3e 55aa 393c
000002a0: cf12 8abd e56e e8bc 9fc3 d43c b20b bd3e
000002b0: 9c04 6c3e b32e 943d 6ace a23e 1ecd 0ebd
000002c0: 56c6 cc3c 44b3 6e3c ff7b cabd edf7 b93d
000002d0: 4b92 dabd 6691 9a3d 6fa7 413d 35cb 18bd
000002e0: 3f5a d2bc 599f c4be 2c60 d1bb a203 bebe
000002f0: 7ef0 bf3e 9b7c d83c d136 023f aa82 a5bd
00000300: de7d 923c 7fad fc3c a785 a6bd efe4 00bf
00000310: 1797 543d c762 89bd eaad 513d 3779 a3bd
00000320: 9636 8b3d fc92 bdbd c445 66be 401d 5ebd
00000330: de6f 403e 79ec 1f3d c274 5a3d a2cc 51bb
00000340: 4c03 01bd d475 543e 0a3d a8bd 661e 963d
00000350: c2ad 193f 4d74 35be 0a91 23bf 36d8 993c
00000360: 7d43 b93c fb8a 583c dc21 50bc 38ac c5bd
00000370: d590 8cbd a119 643d 8e2e a53c 2c72 d0bd
00000380: 71ad 06be 629d 823b 403e a53d ee9e 263d
00000390: 293b 693d 4ded 903c fc4f 453d 9461 f13c
000003a0: b3c8 90bc 0200 b43c 69b8 05be 7402 98be
000003b0: 00eb 0cbd 0055 33bd dbca 413b 1d62 82bd
000003c0: 2d49 5d3d 7d4e d33d 5215 ee3e e8a3 f63d
000003d0: 069b e83c 6d53 d1bd d110 823e f07b 1a3f
000003e0: 88ea d33d 729e 093d 5472 1b3d 31cd 023d
000003f0: 7c39 70be 95a7 aebc 6f0f a8bd b17c 0a3d
0.07024519 0.048073098 0.040387135 0.120154165 0.042559408 0.21584266 -0.003408994 -0.04261555
-0.024056856 -0.008938789 -0.10690142 -0.03297722 -0.006034494 0.03199905 -0.020651985 -0.0019190124
0.086511075 0.02581299 0.0020206973 -0.37258306 -0.09765814 -0.028953891 0.006254116 0.029413454
0.011086688 0.16126908 0.023131086 0.0307788 -0.19367851 0.36474937 0.004177487 -0.17646058
0.06993882 -0.09086848 0.032778054 -0.034067832 -0.06496849 0.083837636 0.05903764 0.021574825
0.28719643 0.003737344 0.114936925 0.02469059 0.20472774 0.0857581 -0.046149217 0.114776686
0.04814198 -0.1663789 0.4340226 -0.051236346 -0.022569787 -0.068065114 0.012657344 0.13555774
-0.03456888 -0.26404217 0.020884244 -0.018502109 0.1573012 0.0057520666 0.25254694 0.047702443
0.08516834 0.06123798 -0.027689308 -0.005484914 0.1093454 -0.076014645 0.01970121 0.011207488
0.049806077 -0.29183108 0.0127868 0.08049918 -0.044339508 -0.04860156 -0.5431542 -0.008049634
-0.11945806 0.085180685 -0.13332649 0.07152137 0.041924432 0.081619084 0.03712677 -0.05564519
-0.5298362 0.053015623 0.046177026 0.3105298 0.043509025 0.099078044 -0.021005288 -0.21833327
0.35690245 0.041861027 -0.13286285 0.013092853 0.037526373 0.0994242 -0.1178257 0.047379017
0.14217922 -0.42312172 0.00071634195 0.10205104 -0.01390215 -0.06755736 0.34161687 0.10398549
0.061462797 -0.015946569 0.027330464 -0.08083352 -0.060158487 0.123008735 0.02649087 0.018001253
-0.09570032 0.17734338 -0.34420788 -0.09037799 0.0769275 -0.028660951 0.094513655 -0.20481291
0.08422522 -0.024528742 -0.268645 0.19719204 0.043875337 -0.09308986 -0.0026433312 0.0058432403
-0.10802312 0.02363185 -0.21208099 -0.05474354 -0.00221177 -0.043652967 0.0049161525 0.10852836
0.50056887 -0.014494861 -0.28458333 -0.019325383 -0.56849813 0.03143483 0.06788953 0.07287375
-0.062090006 0.10432437 -0.2302873 -0.02331562 -0.37545985 -0.07730284 -0.0805841 -0.47083932
0.12178385 0.026325237 0.33999115 0.062133193 0.3287739 0.0039127804 0.3985608 0.011332114
-0.06741869 -0.028373191 0.025972186 0.36922985 0.23048633 0.0723547 0.31798106 -0.034863584
0.024996918 0.014569107 -0.09886932 0.09080491 -0.106724344 0.07547264 0.047278818 -0.03730317
-0.025677798 -0.38402823 -0.0063896384 -0.37112147 0.37488168 0.026426604 0.50864893 -0.08081563
0.017882284 0.030844448 -0.08130961 -0.50349325 0.051901903 -0.067082934 0.051191248 -0.07982104
0.06797521 -0.09256551 -0.22487551 -0.054227114 0.18792674 0.039043877 0.053334005 -0.003201284
-0.031497285 0.20748073 -0.08214767 0.07330017 0.6003076 -0.17720146 -0.6389319 0.018779855
0.022615189 0.013216729 -0.012703385 -0.09651989 -0.06863562 0.055688504 0.0201638 -0.101780266
-0.131521 0.0039860466 0.08068514 0.04067891 0.056941185 0.017691279 0.048171982 0.029465474
-0.017673826 0.02197266 -0.13058628 -0.29689372 -0.0344038 -0.043782234 0.0029570374 -0.0636637
0.054024864 0.10317705 0.4650064 0.120429814 0.028394233 -0.1022099 0.25403455 0.60345364
0.10347468 0.03359837 0.03795083 0.031933967 -0.23459429 -0.021320144 -0.08206069 0.03381032

fc2.bias f4 [128]
00000000: 4008 773d 60aa c6be c779 833e 03b3 7cbe
00000010: 32e5 623f 034d f6bd df50 4bbe 9293 c7bd
00000020: 448e c7bd 8037 3ebd 460e 8ebe 4a10 c1be
00000030: e5ba 7d3f a071 4d3f 7ea4 4abe 5cec 923f
00000040: b762 9b3f 7360 bbbd 7772 473f 951f 2ebf
00000050: c191 61be ff04 073f 3bb5 d83d 66b7 543f
00000060: 0006 573f eba8 af3e 512a a0be 92f7 b2be
00000070: cdd7 30bf cab4 9b3c ef37 2fbe ba74 a4bc
00000080: ae29 79be 70b8 b63f 5ccf c2bd 8c63 653f
00000090: 8641 063f 73ac a13d ed89 d63e a6fa bc3c
000000a0: ef5a 233e d662 30bf 5b3a 553e e198 723f
000000b0: daa1 6b3e 9646 3abe bb4e 36bf 2674 09be
000000c0: f93c 05bf f55b 46be 641e d5be 303c 1bbe
000000d0: 2d94 3dbd 005c 49bf 0d80 0abf 024f 1dbe
000000e0: 2aee 1bba b2c8 eabe e47d 47bf fcbd c8be
000000f0: b2b8 2d3f 0002 f43e d2d6 463f ddbc 093f
00000100: 0465 b8be 2d1e 143f 117c 4cbe 8cc8 dfbe
00000110: 8065 abbd 245f da3e be03 943e f99c b8be
00000120: 2652 ecbe 49d1 663f fcd9 5e3f 51a5 233e
00000130: 47e1 283f c0cb 5ebf e6c9 07be 6317 b13f
00000140: 46f6 bd3d 9fee 333f 5158 803e 4a95 3ebe
00000150: 7cc0 d03f 00b3 b4be 7011 19bf 5306 eebe
00000160: 4990 8dbe 0147 d1be 8b3a b4be 34eb dcbe
00000170: ccea 14bf c7ea 993e 0575 753d 03ac 32be
00000180: e796 91be 935c 133d 92ce 39bf b7c2 0f3f
00000190: 88dc 89be 18dc 34be 3c25 b1bd 56e6 f4bb
000001a0: dea5 dbbd 2cc8 0dbf 2b31 223e ffa1 2fbf
000001b0: 75b2 87be 4fae d3bd 2cc4 07bf e8b3 9dbe
000001c0: ef61 0d3f fcd0 ba3e b0fb 2c3f 7b78 53bb
000001d0: ef0b 14bf 14aa 81be acd1 cb3d 0569 34bf
000001e0: 6ede 73bf 8455 fabe 9c18 4ebf 20c2 41be
000001f0: f996 413e c4d6 ac3e f75a 3abf 70c8 ccbd
0.060310602 -0.3880186 0.25678846 -0.24677663 0.88630974 -0.120264076 -0.19855069 -0.09744944
-0.09743932 -0.046439648 -0.27745265 -0.3770774 0.99113303 0.80251503 -0.19789311 1.1478381
1.21395 -0.091492556 0.77909034 -0.6801694 -0.22028257 0.52742 0.10581442 0.83092344
0.8399353 0.34308562 -0.31282285 -0.34954506 -0.69079286 0.019007105 -0.1711118 -0.02007519
-0.24332306 1.4275036 -0.09512207 0.8960502 0.5244373 0.0789422 0.41902104 0.023068737
0.15952657 -0.6890081 0.20823042 0.94764525 0.2301096 -0.18190989 -0.71213883 -0.13423213
-0.5204616 -0.19371016 -0.4162475 -0.15159678 -0.04628389 -0.78656006 -0.5410164 -0.1536217
-0.000594827 -0.45856243 -0.7792647 -0.39207447 0.6785995 0.47657776 0.7767154 0.5380381
-0.3601457 0.57858545 -0.19969203 -0.43707693 -0.08368969 0.42650712 0.28909105 -0.3605726
-0.46156424 0.90163094 0.8705137 0.15981032 0.65968746 -0.8702965 -0.13260612 1.3835262
0.092754886 0.7028598 0.2506738 -0.18611637 1.6308742 -0.35292816 -0.5979223 -0.464892
-0.27649143 -0.40874484 -0.35200915 -0.43148196 -0.5817077 0.30061933 0.05992605 -0.1744843
-0.28435442 0.035976958 -0.72580826 0.56156486 -0.26926064 -0.17662084 -0.0864968 -0.0074737472
-0.10724996 -0.55383563 0.15839069 -0.6860656 -0.2650334 -0.10335981 -0.5303371 -0.3080132
0.5522756 0.36487567 0.67571545 -0.0032267857 -0.5783071 -0.25325072 0.09952101 -0.7047275
-0.95261276 -0.48893368 -0.805063 -0.18921709 0.18905248 0.33757603 -0.7279505 -0.09999168

fc3.weight f4 [64, 128]
00000000: f792 0b3f ff25 913d 6631 43be 2840 5a3e
00000010: e008 26be 6be0 29be afd2 08be e1ea 003c
00000020: 4ec9 693f 4f53 013f db04 b83e f1c5 95be
00000030: 1aea dc3e 44ee c2be 87d9 f43d 707d 1abe
00000040: 46d1 55bd 5a26 313d 9a38 2dbd b1fe 953e
00000050: 5fc9 273d 32a2 af3d c39b 443e 0d02 09bd
00000060: ddfa a0be f39e b5bc e7f9 abbb 39a2 473e
00000070: a62a 663d e70c 313e 6bb6 86bd 38c7 db3d
00000080: 42b5 d13d 3ca8 ccbe 533b 6a3e 80b5 5d3e
00000090: 23ef 5a3e 75d6 b7be 8a1d 5ebd 5ab2 debd
000000a0: 507f 4cbe e7f2 0abd 5995 b6be 1d2c 61be
000000b0: 1d8a 76be 958d dabc 70c6 d0bc 4057 59bc
000000c0: 67bb d6bc 250b b2be ff4c f9bc ecc0 45bd
000000d0: 4e69 663c fab4 393e cfcb 80bd 2078 183e
000000e0: 0ff4 cc3d 2640 10be 5d8b 1e3f d926 aabd
000000f0: a5ff 36be 848a 00be 312f 203e 439e 0f3e
00000100: e01e 7e3b 59c6 08be 9e40 08be 6dce 8ebd
00000110: 5ed6 08be 547e fdbd 650c 853e 69d7 0cbe
00000120: 63a4 c53e 4350 e5bc a8b2 b53d 26cd 8bbb
00000130: b9e1 023e 9041 ef3e f4ff 1d3c 50c5 d8bd
00000140: 8b87 63be c68c 2ebe 5e2a bd3d 1191 a8bc
00000150: 7cfe b53d 22a9 43bd 76a6 9f3e 49cc 653e
00000160: 30ac eb3d 77cd 3c3c 653a 1b3e c91b fabd
00000170: 2690 debd 0f87 54be 1b6b 7a3e b94e 4e3d
00000180: e909 45be aea2 cb3d 5731 143e c98a a4bd
00000190: 63da debe 0f6a b4be 5d6e b4bb a6a4 78bd
000001a0: ec45 55be 4f8c 7a3e 1aa9 fbbe 47ec f7bd
000001b0: f6c9 0d3e 3c91 30bd 180f 643e 3dda 31be
000001c0: 0f43 79bc 5eb0 87be 5b47 483d 0c42 ee3d
000001d0: 4086 653d e921 aa3d 01b9 013e 8bc2 db3d
000001e0: 6455 2bbe 6df5 c73e 873f 963e 34db cabc
000001f0: 5b4a 01bf ec1c a03b 026b 163f e851 1e3d
00000200: 25eb 1b3c 2de3 ccbd ed33 513d ab30 463d
00000210: 44fb bd3b 726a 52be 878c 7e3d b607 173d
00000220: 0e35 8f3d ba39 a53e 52d6 213d 19ae a13e
00000230: 1459 8ebd 0d4f 29be 3dcb d6bc c5d0 20be
00000240: ff0c 31be e94f f63d 650d 56be b770 723d
00000250: 80ec bf3a d8d3 1d3d 20c8 1d3d 0efc a7bd
00000260: b894 eebd 4acc 12be 1e3d 8b3d dad4 88bc
00000270: 2a5a 073c 91f8 d33c 1931 08be e055 0bbe
00000280: 66da d53c c529 67bd 95d8 353c 8fe2 033d
00000290: 109d 9dbd b05f fe3d 651a 45bd 266c a1bd
000002a0: 5583 1dbe bc8a da3c 5d4e 5dbe 640b 5d3d
000002b0: f483 36bd 00a8 a93a b392 843d 7caf 8b3e
000002c0: 816d ebbd 0865 c1bc 9376 ad3d f301 acbc
000002d0: 5950 d33d 0d6b b73e bd0e f3bd 4e18 53bd
000002e0: 55a3 b83d cb79 bfbd 912b 683e 64a0 4e3e
000002f0: 1cf7 9ebe 12ee bbbe 4af9 843d 8061 73be
00000300: eec8 093d 7daf 7c3e b490 a23c 4f3d a93d
00000310: e7f0 503d 2ec2 b3bd bb04 d73b 5e20 8bbd
00000320: dbea 433e d9a5 dcbc ff7d 3ebe 45a7 97bd
00000330: d3f3 2bbe 4fe5 7a3e 025e 2dbb d372 82be
00000340: b983 c6be 2620 90be 0156 e1bd dc81 3e3d
00000350: 5093 85bd 4f6c 47be c2aa bcbd e2a7 2ebc
00000360: 8a2b f03c 32be 2f3c aac8 543d c4fa b5bd
00000370: b7e6 383d 2147 06be 3735 0abd dd7a 233c
00000380: e21c 893e 6ce5 a8bd 1da8 813d 7f58 853e
00000390: b7d4 4fbd 191e efbd be05 f93d 0ec2 a6bc
000003a0: 42d9 733c 9e1c b1bd 5034 fdbc 9e57 c4be
000003b0: a19a 353e 5e12 0e3e 26ea bebe a45e 56bd
000003c0: 6c9b fcbd 5bcd 3abe 71a4 08be 0fd3 943d
000003d0: 5d05 53be 4b10 fe3d 5818 9b3d 61ea 0d3e
000003e0: c5a1 43bd 5f31 04bd 108a 6d3c 17c7 183e
000003f0: fc26 12bc 743e f93d d6e4 833e bda2 b1bd
0.54521126 0.07087325 -0.19061813 0.21313536 -0.16214323 -0.16589515 -0.1336162 0.0078684995
0.9132279 0.50517744 0.35941204 -0.2925258 0.43147355 -0.38072407 0.119555525 -0.15086913
-0.05220153 0.043249466 -0.042290308 0.29295877 0.040963527 0.08575858 0.19200043 -0.03344922
-0.31441393 -0.02217052 -0.0052482965 0.19495477 0.056193016 0.17290078 -0.06577762 0.10731357
0.1023965 -0.39972103 0.22874193 0.21651268 0.21380286 -0.35905805 -0.05422739 -0.108738616
-0.19970441 -0.033923056 -0.35660818 -0.21989484 -0.24076124 -0.02667884 -0.025485247 -0.013265431
-0.026212407 -0.34774128 -0.030432222 -0.048279688 0.0140631925 0.18135443 -0.062888734 0.14889574
0.10007488 -0.1408697 0.619314 -0.08308191 -0.17870958 -0.1255284 0.15643002 0.14025216
0.0038775727 -0.13356914 -0.133059 -0.06972966 -0.13363025 -0.12377611 0.2598602 -0.13754047
0.3860198 -0.027992373 0.088719666 -0.004266399 0.12781419 0.46729708 0.0096435435 -0.105845094
-0.22219674 -0.17045888 0.092365965 -0.020576986 0.0888643 -0.04776872 0.31181687 0.2244121
0.115074515 0.011523596 0.15158994 -0.12212331 -0.10867338 -0.20754646 0.2445492 0.050368045
-0.19242062 0.09943138 0.14471947 -0.08034284 -0.4352599 -0.35237166 -0.0055063204 -0.060703896
-0.20827454 0.24467586 -0.49152452 -0.12105613 0.13846573 -0.043107256 0.22271383 -0.17368408
-0.015213742 -0.26501745 0.048896175 0.11633691 0.056036234 0.08307249 0.1266823 0.107304655
-0.16731793 0.39054433 0.29345343 -0.024762727 -0.5050408 0.0048862603 0.5875703 0.03865233
0.009516512 -0.10004268 0.05107491 0.048386257 0.0057977755 -0.20548418 0.062145736 0.036872588
0.06992541 0.32270604 0.039511032 0.31578138 -0.06950584 -0.16534062 -0.026219958 -0.1570464
-0.17290114 0.120269604 -0.20903547 0.059189525 0.0014642626 0.038532108 0.038520932 -0.082023725
-0.116494596 -0.14335743 0.067987666 -0.016703058 0.008261243 0.025875362 -0.1329998 -0.13606977
0.026105117 -0.05643632 0.011099 0.032198485 -0.07695973 0.12420595 -0.048120875 -0.07881956
-0.1538213 0.026677482 -0.21611924 0.05396594 -0.044559434 0.0012943745 0.06473293 0.2728232
-0.114954956 -0.023607746 0.08469882 -0.020997023 0.103180595 0.3582386 -0.118680455 -0.05153685
0.09015528 -0.09349402 0.2267287 0.20178372 -0.31047904 -0.3670507 0.064928606 -0.23767662
0.033638887 0.24676318 0.01984439 0.08263647 0.051010992 -0.08777271 0.006561843 -0.06793283
0.19132559 -0.026934551 -0.18602751 -0.07404951 -0.1679223 0.24501537 -0.0026453738 -0.2547823
-0.3877237 -0.28149527 -0.11002732 0.046510562 -0.06522238 -0.1947491 -0.09212257 -0.010660144
0.029317636 0.010726498 0.05194918 -0.0888572 0.0451419 -0.13113071 -0.033742156 0.009978023
0.26779848 -0.08246884 0.06330893 0.2604408 -0.05073997 -0.116756625 0.12159298 -0.020356204
0.014883341 -0.086480364 -0.030908734 -0.38348097 0.17734767 0.13874194 -0.37288016 -0.05233635
-0.12334332 -0.182424 -0.1334398 0.07266819 -0.20607515 0.124054514 0.075730026 0.1385894
-0.047761697 -0.032273646 0.014498249 0.14919697 -0.008920427 0.12170115 0.25760525 -0.08673618

fc3.bias f4 [64]
00000000: 0070 083f 73cd 9ebe 5a93 8a3f 44de 91be
00000010: 229f 53be aca3 23bf 0677 e33e 684c 02bf
00000020: 4dba f1be 065d 553f 5b41 37bd 3669 02be
00000030: 96f3 13bf fbd0 213f 3be3 aa3e f710 753f
00000040: a4c8 75bf eba7 d43d 38e6 a83e 22ac bfbe
00000050: 6fc0 9a3d dd34 253e 3793 a63f c325 603f
00000060: f320 8e3f 8af4 cebe 27f7 1a3f 5fd3 11be
00000070: dd2b b2be c007 13bf 2350 6ebe 8b5e 233f
00000080: 073d fe3e 8631 b83e b7c0 913f 264a 383f
00000090: 58fd 39be ac8a 703e e2a5 4f3f 6930 b3be
000000a0: 7f45 7b3f 2bcc 993f 3cd7 1bbf a617 da3d
000000b0: 472b 9fbe 6a1b 22bf eea6 50be 4326 a43f
000000c0: e531 a03e 10d5 5dbe 9568 24bf 1064 b33e
000000d0: 8edb 9abd 89fd 9b3f d578 f0be 5934 80be
000000e0: 0917 09bf e8e5 ad3c 9d26 e4be eeb6 583f
000000f0: 1e2d 9abe 95c5 86be 69f0 4dbd 9a79 f33e
0.532959 -0.3101612 1.0826218 -0.28489888 -0.20666173 -0.6392162 0.44426745 -0.50897837
-0.4721245 0.8334507 -0.044740062 -0.12735447 -0.5779356 0.63209504 0.33376488 0.9572901
-0.9600928 0.1038359 0.32988143 -0.37436014 0.07556235 0.16133447 1.3013676 0.8755762
1.1103805 -0.40420943 0.60533375 -0.14240788 -0.3479909 -0.574337 -0.23272757 0.63816136
0.49655935 0.35975283 1.1386937 0.7198814 -0.18163049 0.23490399 0.8111249 -0.34997872
0.9815292 1.2015432 -0.60875297 0.10649042 -0.31087705 -0.6332308 -0.20376179 1.2824177
0.31288067 -0.21663308 -0.6422208 0.3503728 -0.07561408 1.2186748 -0.46967188 -0.25039938
-0.53550774 0.021227792 -0.4456071 0.8465413 -0.30112547 -0.26322618 -0.0502781 0.47553712

fc4.weight f4 [10, 64]
00000000: 8199 b2be 6fff 10be 99bf 2f3e d6ed a0be
00000010: 04d9 b83c 0ea3 1abf b469 a5bf fac9 2bbf
00000020: fe04 1ebe 553a 59bd 56af 3b3b 3d16 bfbe
00000030: f952 0cbf d0dc 07be 2d3d 64bd 2520 8abc
00000040: a19d 583e 9206 52bc e0e4 84bf 2a79 21be
00000050: afb8 613e d360 4dbf 8ecb 30bf 09f9 bdbe
00000060: 2100 013e 8b78 04bf 0ea1 62be 82bf 7cbf
00000070: 405e 98bd 3173 b8be 1242 25be b1af 5c3d
00000080: 79a8 6c3e 6c67 b0be ced5 643e aca3 173e
00000090: 77b2 71bb 763f 50bf 3405 83be 4ae7 68be
000000a0: f46c b13d c6ad dd3d 976d 2ebd 01a6 35bd
000000b0: 5ae7 06bf 7bea 40bf 2b29 22be 131e 0b3d
000000c0: bd00 063e 7151 72be 6597 abbe 5b85 0ebf
000000d0: 64a6 39be 24cd 02bf 20dc aebd f244 8f3d
000000e0: cbd8 963e 93f9 67be 1226 8aba 870e 28be
000000f0: dc03 88bd 91b2 fdbe e9a2 d7be 716a b3be
00000100: a546 aebe 11fe a5bf db87 adbe 10c9 0abc
00000110: 289f e7bd 2f34 44bf 8be5 10bf 461a b5bf
00000120: 9de5 a0be 1e51 3ebf 8fa5 dc3c cab6 08be
00000130: e1b1 89bf 4ea8 0bbf 3db0 aabe bf33 cc3c
00000140: 9977 c3be 11ee f0be f25d 6abf 05ac 9dbd
00000150: 6b81 05bf 018c 4dbf 089d 60bf 8acc 25bf
00000160: 9aa3 d63d 5a4c 69bf 6d3b 02bf d3fa 78bf
00000170: 2e99 d9bf bb10 733e 803b 123e c2d2 193d
00000180: 6ebd a9be d9ff 663e 9690 37be 093f 8d3d
00000190: 961c 38be c571 ddbe 9497 23bf 25fb 793d
000001a0: fb77 dbbe 8d55 2e3e 871e e1be 3a25 35be
000001b0: 510b 99be e53e 36bf 8531 a7be 356a 563e
000001c0: 843e 89be 038e 79be 1ad6 8abf 719d 19bf
000001d0: cd73 14be 0240 a9be e381 04bf f549 0dbe
000001e0: 43d0 43be 3245 08bf 73b5 bfbe b5d9 8f3d
000001f0: 8909 36bf db62 2bbf 8f74 263e 14e3 f2be
00000200: 8a29 a0be d78b 523d 800f 283e 14ae ebbe
00000210: e5eb e6bd 57f7 1dbf 964b 1bbf 4353 acbc
00000220: 6065 ef3d 0a05 7c3d 09de 06be 807e 183e
00000230: 937b 9cbf d604 4dbf ce33 c0be 13ae 76bd
00000240: 8901 b5bd b056 60bd 900c 36bf ecdb f7bc
00000250: 786d 153e cd51 2fbe 0d3f 22bf 3c80 87be
00000260: 2e71 1cbe 1d3a abbe 496e 573e b78e 583d
00000270: 3d9a 0cbe 408d 8fbd d027 27be 0d06 fa3d
00000280: 4201 72bd 15d7 29be 4ea3 513e 37d7 50be
00000290: 5f85 7fbe 6ff5 edbe e46f 3f3d 8115 d4bd
000002a0: e277 4bbe 823c 19bf 0e42 83bd b38d f33b
000002b0: 5348 813d fa49 0bbf 41f7 31be 4b19 343e
000002c0: 6e1e 24be f9b1 ddbd 1400 77be b739 58bf
000002d0: dcc5 15be 20e0 18bf f615 3cbd 943d cebc
000002e0: 00bf 33bf 345c 2bbf 3ded acbe 9e31 1a3c
000002f0: 045c 20bf e6e0 02bf 9fdd 33be 31ba 273e
00000300: e700 9cbd 1e45 36bf 43fe 3f3e 23ab 1dbe
00000310: 3320 ee3d 3996 80bf dc50 07bf 14ad acbe
00000320: 53b4 a8be 0641 46bd 16ba 62bd 0dc7 cabe
00000330: 2c2b dcbd e2f4 62be 2dc5 0ebe 7b9f 263e
00000340: f887 8dbe 32bf 7ebd 5587 90bf 929d 0dbc
00000350: f3bf aabe 90fe 26bf 0f73 0cbf 24ba 46be
00000360: ce78 453e e1ef 2fbf e6f1 d5be 2695 2fbf
00000370: 5217 e5bd beaa 193e 6d59 483d db0f 04bf
00000380: df00 663d ef9c 35be be1a 97be 36ec 31be
00000390: 6958 393e 1362 2fbf d9e6 cdbd 1542 823c
000003a0: b5e0 10be ec70 903d ae0e b9bd 867f ac3c
000003b0: 09ea 13bf a4f3 61bf 03a9 76bd 00b9 533d
000003c0: 1f52 423e aeef 6e3d 00f9 11bf d687 59bf
000003d0: a1e6 5d3c 055a 2dbe 61a8 bdbe 798d 69bd
000003e0: e791 7ebe d882 783d 54d8 cbbe b12d 423e
000003f0: d546 eebe 310f 40bf a31d d83c d073 253e
-0.3488274 -0.1415994 0.17162932 -0.31431454 0.022564419 -0.6040505 -1.2922883 -0.67105067
-0.15431592 -0.053034145 0.0028638444 -0.37321654 -0.54814106 -0.13267827 -0.055722404 -0.01686103
0.2115388 -0.012818949 -1.0382347 -0.15768877 0.22043107 -0.8022587 -0.690606 -0.3710406
0.12597705 -0.51746434 -0.2213175 -0.9872972 -0.07439852 -0.36025384 -0.16138485 0.05387849
0.23111142 -0.34453905 0.22347185 0.1480853 -0.0036880055 -0.81346834 -0.25589907 -0.2274448
0.08663359 0.1082416 -0.04258498 -0.044347767 -0.52696764 -0.7535779 -0.15836017 0.033964228
0.13086219 -0.2366388 -0.33513942 -0.55672234 -0.18129879 -0.5109427 -0.08538079 0.06995572
0.29462275 -0.22653799 -0.001053991 -0.16411792 -0.06641361 -0.49550298 -0.42116478 -0.35042146
-0.34038273 -1.296816 -0.33892712 -0.008470789 -0.113096535 -0.76642126 -0.56600255 -1.4148643
-0.3142518 -0.74342525 0.026934413 -0.13350978 -1.0757409 -0.5455369 -0.33337584 0.024927018
-0.38177183 -0.4705663 -0.915496 -0.07698826 -0.521506 -0.80291754 -0.8773961 -0.64765227
0.10480423 -0.9113213 -0.50871927 -0.9725773 -1.6999872 0.23736851 0.1428051 0.03755451
-0.33152336 0.22558536 -0.17926249 0.068967886 -0.17979655 -0.43250862 -0.63903165 0.061030526
-0.42864975 0.17024823 -0.43968603 -0.17689982 -0.29891446 -0.7118972 -0.32654968 0.20938952
-0.26805508 -0.2437058 -1.0846589 -0.6000586 -0.144973 -0.33056647 -0.5176069 -0.13797744
-0.19122414 -0.53230584 -0.37443122 0.07023946 -0.711083 -0.66947716 0.16255401 -0.47438872
-0.31281692 0.051402893 0.16412163 -0.4603125 -0.11275462 -0.61705536 -0.6066221 -0.021035796
0.116892576 0.061528243 -0.13170637 0.14892006 -1.2225212 -0.80085504 -0.37539524 -0.060224604
-0.088381834 -0.05477017 -0.7111292 -0.030256234 0.1459254 -0.17121048 -0.6337746 -0.26465023
-0.1527755 -0.33442774 0.21038164 0.05287048 -0.13730712 -0.07009363 -0.16323781 0.12208185
-0.05908323 -0.16585954 0.20472452 -0.20394598 -0.24953221 -0.46476313 0.046737567 -0.10355664
-0.1986995 -0.5985795 -0.06409083 0.0074326633 0.06312623 -0.54409754 -0.17379476 0.17587774
-0.16027233 -0.10824961 -0.24121124 -0.84463066 -0.14626259 -0.5971699 -0.04591938 -0.025175847
-0.7021332 -0.66937566 -0.33774748 0.009411244 -0.62640405 -0.5112442 -0.1756501 0.1637962
-0.076173596 -0.71199214 0.18749337 -0.15397315 0.11627235 -1.0045844 -0.52857757 -0.33725798
-0.32950076 -0.048401855 -0.055353247 -0.3960499 -0.10750422 -0.22163728 -0.13942404 0.16271774
-0.27642798 -0.062194057 -1.12913 -0.008643525 -0.3334957 -0.6523218 -0.54863065 -0.19406945
0.19284365 -0.687254 -0.41786116 -0.6858696 -0.111860886 0.15006539 0.048913408 -0.51586694
0.056153174 -0.17735647 -0.2951259 -0.17375264 0.18100132 -0.68509024 -0.10053796 0.015900651
-0.14148219 0.07052788 -0.09036003 0.021056902 -0.57778984 -0.8826239 -0.060219776 0.0516901
0.18976639 0.058334045 -0.5702057 -0.84972894 0.013543756 -0.16928871 -0.37042525 -0.057019684
-0.24860345 0.060671657 -0.39813483 0.18962742 -0.46538416 -0.7502318 0.02638132 0.1615746

fc4.bias f4 [10]
00000000: 31f9 e2bc f1a8 3dbf b06e 5e3e 3bdd fe3e
00000010: 5520 a2be 0f1e 223f 0474 9a3e 7e3d 923e
00000020: 38b8 83bd 9e98 24bf
-0.027706714 -0.7408591 0.21721911 0.4977816 -0.31665292 0.63327116 0.30166638 0.2856254
-0.06431621 -0.64295375
