runs/Mar02_15-48-45_cssd901383-Run(lr=0.001, batch_size=128, patience=1)-valid/checkpoint.pt (torch_old, 972387 bytes, 8 tensors)

fc1.weight f4 [256, 784]
0	0xbd5c0e06	-0.05372431
1	0x3d23a052	0.039947815
2	0x3d2558da	0.04036794
3	0x3cf719c6	0.030163657
4	0xbb39a55a	-0.0028327317
5	0xba9b4c6a	-0.0011848335
6	0xbbc80f47	-0.006105337
7	0xbd6a2667	-0.05716553
8	0xbd8373d7	-0.06418579
9	0xbc9a5783	-0.018840557
10	0x3d52a8cb	0.051430505
11	0x3d43584f	0.04769164
12	0xbd0f46cf	-0.034979638
13	0xbdab6cdf	-0.08370375
14	0xbd92ecc3	-0.07174065
15	0xbd12e60c	-0.03586392
16	0x3cd17936	0.025570493
17	0x3dc6773f	0.09690713
18	0xbd0fbcd8	-0.035092205
19	0xbd3d79c4	-0.046258703
20	0xbc98802d	-0.018615806
21	0x3d061325	0.0327331
22	0x3d010ebc	0.031508192
23	0x3d21685c	0.039406165
24	0x3d1f588c	0.038902804
25	0x3d945b7b	0.07244011
26	0xb8a2eee5	-7.7692595e-05
27	0xbcbc16b0	-0.022960037
28	0x3cb7fab8	0.02245842
29	0x3cd03428	0.025415495
30	0x3d25e67c	0.04050301
31	0xbb49a07b	-0.003076582
32	0xbbb98613	-0.005661735
33	0x3a44b3f9	0.00075036247
34	0xbd397307	-0.045275714
35	0xbda08edc	-0.07839748
36	0x3cb0ecec	0.021597348
37	0x3da297b1	0.07939089
38	0x3ce3dcbf	0.02781522
39	0xbc437ca2	-0.01193157
40	0x3c506768	0.0127199665
41	0x3a3afedd	0.00071333145
42	0xbbf50915	-0.0074778893
43	0x3b154b89	0.0022780618
44	0xbd2d8577	-0.04236361
45	0x3d010ca9	0.031506214
46	0x3d5f8d1e	0.05457794
47	0x3ca3223d	0.019913787
48	0xbd3d1ea4	-0.0461718
49	0x3be818ef	0.0070830504
50	0xbc386c5b	-0.011256303
51	0x3c4fa27f	0.012673019
52	0x3da53271	0.080662616
53	0x3d698a16	0.057016455
54	0x3d908c7b	0.070580445
55	0xbb87fe58	-0.004150193
56	0x3c4e64d0	0.012597278
57	0x3ae37dc9	0.0017356212
58	0x3c5095cf	0.01273103
59	0x3c8b5ec8	0.017012969
60	0xbc214965	-0.009844159
61	0xbcbe628f	-0.023240356
62	0xbd65c69a	-0.056097604
63	0xbce40980	-0.027836561
64	0x3d845fe6	0.06463604
65	0x3bede39a	0.0072597982
66	0xba6fa896	-0.0009142248
67	0xbd41b67d	-0.047293175
68	0xbd812fcc	-0.06307945
69	0xbd7e7bc0	-0.062129736
70	0xbc77837f	-0.015107035
71	0xbd6a4019	-0.057190035
72	0xba4103ef	-0.0007362952
73	0xbc4d5907	-0.012533433
74	0x3c835b4c	0.016034745
75	0x3d483159	0.048875187
76	0x3ce09097	0.027412696
77	0x3ce68bad	0.028142774
78	0xbc7d9a71	-0.015478716
79	0x3cd8826f	0.026429383
80	0x3c805434	0.015665151
81	0x3d2fa877	0.04288527
82	0x3d14a160	0.03628671
83	0x3ca7df18	0.020492122
84	0x3d4ee8fa	0.050515153
85	0xbc1d113b	-0.009586628
86	0x3d180be8	0.03712073
87	0xbcc80dee	-0.024420705
88	0x3c08bb25	0.0083454
89	0x3c7fab9e	0.015604882
90	0xbac56bcf	-0.0015062037
91	0xbcd254ef	-0.025675265
92	0xbcc9f40f	-0.024652509
93	0xb9e1b99b	-0.0004305363
94	0xbcc5728d	-0.024102474
95	0xbc3258ff	-0.010885476
96	0xbcb714ae	-0.022348728
97	0xbd40a58e	-0.047032885
98	0xbd354c58	-0.04426226
99	0xbd823b35	-0.06358949
100	0xbcd56e19	-0.026053475
101	0xbc42280a	-0.011850366
102	0x3c8f766a	0.017512519
103	0xbcb795b8	-0.022410259
104	0x3cb90bd7	0.022588653
105	0x3d2c21e9	0.042024527
106	0x3d3c7b29	0.046015892
107	0x3d32cf64	0.043654814
108	0x3cea489d	0.028599078
109	0x3cfe00eb	0.031006297
110	0x3d898477	0.06714719
111	0x3d741b3e	0.059596293
112	0x3d04dcc6	0.03243711
113	0x3c72981a	0.014806772
114	0x3a36bd6e	0.0006970976
115	0xbc40937c	-0.011753913
116	0xbb009406	-0.001961948
117	0xbcd01586	-0.025400888
118	0xbd13c312	-0.036074705
119	0xbc47164e	-0.012151314
120	0xbd1492b7	-0.03627273
121	0xbd403a2b	-0.046930473
122	0xbbad78f9	-0.005293962
123	0xbcdd6335	-0.027024845
124	0xbd76f337	-0.06029054
125	0xbc7f68e5	-0.015588974
126	0xbbe36e10	-0.0069406107
127	0xbd356871	-0.044289056
128	0xbca245fd	-0.019808764
129	0xbc5e85a5	-0.013581668
130	0x3cab6631	0.020922752
131	0xbc832ba1	-0.016012015
132	0x3cf5a9c2	0.029988173
133	0x3c3fb61b	0.011701132
134	0x3ceec5fd	0.029147143
135	0x3c3fe1b6	0.0117115285
136	0x3d8cb03f	0.06869554
137	0x3cc2121b	0.023690274
138	0x3da57320	0.08078599
139	0x3d9f6765	0.07783393
140	0x3d136565	0.03598537
141	0xbbd65fa0	-0.006542161
142	0xbd0abaac	-0.03386943
143	0xbd12defc	-0.035857186
144	0x3d179815	0.03701027
145	0xbbd3540d	-0.0064492286
146	0x3c8b42c0	0.016999602
147	0x3d03e3d7	0.032199707
148	0xbc10da3e	-0.0088410955
149	0xbcad5b7c	-0.021161787
150	0x3c7a2c87	0.015269405
151	0xbd1c6e37	-0.038191047
152	0xbd498bca	-0.04920558
153	0x3b2b8edc	0.002617768
154	0xbc527dd7	-0.012847385
155	0xbc14909e	-0.009067683
156	0x3caaaf05	0.020835409
157	0xbcd08707	-0.025455011
158	0xbd182972	-0.0371489
159	0x3c02db6c	0.007986885
160	0xbc2b168a	-0.010442385
161	0x3d0ee40e	0.03488546
162	0x3d177e05	0.036985416
163	0x3cfc30c2	0.030784968
164	0x3d58ebe7	0.05295935
165	0x3da6ebd5	0.0815045
166	0x3d5450d7	0.051834907
167	0x3d712a0d	0.058877993
168	0x3cb3cb58	0.021947548
169	0xbc9bb467	-0.019006921
170	0x3c982ee4	0.018577047
171	0xbd1a6baa	-0.037700333
172	0x3d039634	0.032125667
173	0xbce84133	-0.028351402
174	0x3c8a7d64	0.016905494
175	0xbd2ec242	-0.042665727
176	0xbd360b5b	-0.044444423
177	0xbc25c78f	-0.010118379
178	0xbc597eac	-0.01327483
179	0xbc0bc5f0	-0.008531079
180	0xbd04322f	-0.03227442
181	0xba899bd2	-0.0010498709
182	0xbd066bf5	-0.0328178
183	0x3c98f1ff	0.01867008
184	0xbc2910b1	-0.010318921
185	0x3cc0f10c	0.02355244
186	0xbcc2470c	-0.023715518
187	0xbbe1ad51	-0.006887116
188	0x3c89c6df	0.016818462
189	0x3d1f264a	0.038854875
190	0x3d22cc15	0.03974541
191	0x3c6e2517	0.01453521
192	0x3cf3d217	0.029763265
193	0x3d379f5c	0.04482971
194	0x3d61696b	0.055032175
195	0x3d0ddace	0.034632497
196	0x3d25eba7	0.04050794
197	0x3cccdb8c	0.025007032
198	0x3c4db397	0.012555025
199	0xbc5b80c4	-0.013397399
200	0x3c292a4a	0.010325024
201	0x3b3fea94	0.0029284107
202	0x3c0e0d0e	0.008670105
203	0xbd30160d	-0.04298978
204	0xbccff3d3	-0.02538482
205	0xbd672e31	-0.056440536
206	0xbd86e593	-0.065867566
207	0xbd426dd6	-0.04746803
208	0xbc46c417	-0.012131712
209	0xbd31b313	-0.04338367
210	0xbd0e0aee	-0.034678392
211	0x3cfde993	0.030995166
212	0xbbfdb0e2	-0.0077420333
213	0x3b4679ae	0.003028493
214	0xbd3dee97	-0.046370115
215	0xbc9afa9b	-0.018918326
216	0x3cbd19ea	0.023083646
217	0x3c35f43e	0.011105595
218	0x3d6bfbec	0.0576133
219	0x3d60a86f	0.05484813
220	0x3be8cead	0.007104716
221	0x3d23ac38	0.039959162
222	0x3c2148c8	0.009844013
223	0xbb3ad652	-0.0028509093
224	0xbaef2ec2	-0.0018248188
225	0xbbd74e1d	-0.006570591
226	0xbc70fdf1	-0.014708982
227	0x3c09f9e2	0.008421393
228	0x3bc250f2	0.0059300596
229	0x3c4f1c13	0.012640971
230	0xbd341d46	-0.04397323
231	0xbd762bba	-0.060100295
232	0xbd50e17b	-0.050996285
233	0xbd617393	-0.05504186
234	0xbd5a05ba	-0.053228118
235	0xbd013210	-0.031541884
236	0xbd3a1b19	-0.045436
237	0xbd40c18a	-0.047059573
238	0xbd0cdfca	-0.03439311
239	0xbbbd71ee	-0.0057814037
240	0x3d356b56	0.044291817
241	0xbc92cc07	-0.017919553
242	0xbd79aad3	-0.060953926
243	0xbd2abb2c	-0.041682407
244	0xbd067ea3	-0.032835614
245	0x3cb4a5ad	0.022051657
246	0x3d544ea2	0.051832803
247	0x3c4c3099	0.012462758
248	0x3d11fd84	0.035642162
249	0x3c6df119	0.014522814
250	0x3d04c448	0.03241375
251	0x3cbfc38c	0.023408674
252	0x3cd785fc	0.026309006
253	0xbd820e3b	-0.063503705
254	0xbc6683f5	-0.014069547
255	0xbb24a210	-0.002512101

fc1.bias f4 [256]
0	0x3dc3d4a6	0.09562044
1	0xbd3905c7	-0.045171525
2	0x3d47fa96	0.04882296
3	0x3de32b3e	0.11092232
4	0xbb04c770	-0.0020260476
5	0x3d8604ba	0.0654387
6	0x3dbbb05c	0.09164497
7	0x3dca3409	0.09873206
8	0x3d20b7f0	0.039237916
9	0x3cff86c3	0.03119219
10	0xbb61a4d6	-0.0034430525
11	0xbc064d79	-0.008197182
12	0x3de63b53	0.11241784
13	0x3cf63628	0.03005512
14	0x3e138e1e	0.14409682
15	0xbce113ec	-0.02747532
16	0x3e1404aa	0.14454904
17	0x3e32ce59	0.17461528
18	0x3b806714	0.003918538
19	0x3bb88a53	0.005631724
20	0xbbdf23cd	-0.0068096877
21	0x3e4d17f2	0.20028666
22	0x3daa78e2	0.08323838
23	0xbd03a506	-0.0321398
24	0x3d0832ee	0.033251695
25	0x3d99df98	0.0751335
26	0x3e14f7af	0.14547609
27	0xbc803be7	-0.015653564
28	0xbc9e8f32	-0.01935539
29	0x3ded70df	0.11593794
30	0x3e0919f6	0.1338881
31	0xbd504935	-0.050851066
32	0x3e2662df	0.16248654
33	0x3d993535	0.074808516
34	0xbd21f7de	-0.039543025
35	0xbd0c054f	-0.03418475
36	0x3db5dc85	0.088799514
37	0xbc71b68c	-0.014752995
38	0xbde127e3	-0.10993936
39	0xbd89d1c0	-0.0672946
40	0xbcda1c41	-0.0266248
41	0x3caf3c3a	0.021391023
42	0x3e148d5d	0.14507051
43	0x3dde16ee	0.10844217
44	0xbd622a83	-0.055216324
45	0xbcb69e57	-0.0222923
46	0x3e1018ee	0.1407201
47	0xbd3e7436	-0.046497546
48	0x3d8db5cb	0.0691944
49	0x3d07d104	0.033158317
50	0x3d8feb9d	0.070273615
51	0x3d629d69	0.0553259
52	0x3d11e927	0.035622742
53	0x3d780ece	0.060560994
54	0x3adb5e8c	0.0016736551
55	0xbd6545fd	-0.05597495
56	0x3d8fd302	0.070226684
57	0x3e126325	0.14295633
58	0x3b12e996	0.002241706
59	0xbb692c82	-0.0035579507
60	0x3d4d7b11	0.050166193
61	0xbd8c3cb6	-0.06847517
62	0x3ceab02c	0.028648458
63	0x3e2a2cf2	0.16618708
64	0xbd765890	-0.060143054
65	0x3d36e6a4	0.04465355
66	0x3d2275df	0.039663192
67	0xbdbb9e81	-0.091610916
68	0x3d4cd3c3	0.05000664
69	0xbbf61c62	-0.0075107077
70	0x3c840104	0.016113766
71	0x3daf4894	0.08558765
72	0x3cf28f3c	0.029609315
73	0x3a398967	0.00070776645
74	0x3d0accef	0.033886846
75	0x3d5a4bf2	0.053295083
76	0x3d908e88	0.07058436
77	0x3e1f4983	0.15555386
78	0xbd9c553f	-0.07633447
79	0x3dc13739	0.09434361
80	0xbc75c2b0	-0.01500003
81	0x3c8775fc	0.016535752
82	0x3d826cdb	0.06368419
83	0x3ca6f654	0.02038113
84	0x3d273b18	0.04082784
85	0x3d7c3451	0.06157333
86	0x3d5b04b8	0.053471297
87	0x3daa375a	0.08311339
88	0x3dab3c80	0.08361149
89	0x3d3f3ad8	0.046686977
90	0xbd3fad1e	-0.046795957
91	0x3c74efba	0.014949733
92	0x3df7395f	0.120714895
93	0x3c0b6be6	0.008509612
94	0xbbdb3903	-0.006690146
95	0xbd0a67fd	-0.033790577
96	0x3d13dd1d	0.036099542
97	0x3d2d483e	0.042305224
98	0x3d8400eb	0.064454876
99	0x3bfb545a	0.0076699676
100	0x3e007cc8	0.125476
101	0x3db2269d	0.08698771
102	0xbd2dea7f	-0.04245996
103	0xbc3c6612	-0.011498945
104	0x3d546557	0.051854458
105	0xbc94130d	-0.01807549
106	0x3b545d1b	0.0032404128
107	0xbc0dbac4	-0.008650485
108	0x3d1dd97d	0.03853749
109	0x3cac3b8c	0.021024488
110	0xbb04b5b6	-0.002024991
111	0xbbc92d73	-0.006139451
112	0x3cae3cb0	0.021269172
113	0xbb0dde46	-0.0021647378
114	0x3e194cf3	0.1497076
115	0x3d93f0fb	0.07223698
116	0xbc4f0169	-0.012634614
117	0xba39b4ee	-0.00070841506
118	0x3c4836ec	0.012220126
119	0x3d0f0e53	0.03492577
120	0xbced2b7c	-0.028951399
121	0x3d87806b	0.06616291
122	0xbd6da82c	-0.05802171
123	0x3da1bde4	0.07897547
124	0x3d007bf9	0.03136823
125	0x3dac5716	0.08415048
126	0x3e019fdc	0.12658638
127	0x3d5e9c1f	0.054348107
128	0x3b75a633	0.0037483096
129	0xbd5ac7c9	-0.053413186
130	0x3d7e65d3	0.062108826
131	0x3d367462	0.044544585
132	0x3cb688e9	0.02228208
133	0x3ce2a433	0.027666187
134	0xbac9450b	-0.0015355659
135	0x3d188129	0.03723255
136	0x3d1f3d4d	0.03887682
137	0x3da58031	0.08081091
138	0x3d0f720a	0.035020865
139	0x3c9a1caa	0.018812496
140	0x3d91de9b	0.07122537
141	0x3d9944bc	0.07483813
142	0x3d7d443c	0.06183265
143	0x3e1143c4	0.14186007
144	0x3c059e8a	0.008155474
145	0xbd4dff60	-0.050292373
146	0x3d7223f6	0.059116326
147	0x3ce7bfb9	0.028289663
148	0xbb641b79	-0.0034806414
149	0xbcc43b2e	-0.023954
150	0xbbb2fe6b	-0.005462458
151	0x3d51d650	0.051229775
152	0xbdc7cbe8	-0.09755689
153	0xbcbdc5f0	-0.023165673
154	0x3c889183	0.016670948
155	0x3e283e97	0.16430126
156	0x3dd660db	0.104676925
157	0x3c0482ee	0.008087857
158	0xbd8a56ae	-0.06754814
159	0x3c8ed720	0.017436564
160	0x3cc36df4	0.02385614
161	0x3dbfc8fd	0.09364507
162	0xbd3bd332	-0.04585571
163	0xbd59ab1f	-0.05314171
164	0x3d96e3be	0.07367657
165	0x3cd75db9	0.026289808
166	0x3d5c4d6d	0.053784776
167	0x3c62c219	0.013840222
168	0x3e00293d	0.12515731
169	0x3cbd5a1b	0.023114255
170	0x3d084e13	0.033277582
171	0x3d3725c9	0.04471377
172	0xbd872c43	-0.06600239
173	0x3d53c0e1	0.051697616
174	0x3dab9ab8	0.0837912
175	0xbc15341c	-0.009106662
176	0xbbafea1f	-0.0053684856
177	0xbd9edfcf	-0.07757532
178	0x3bca7a9b	0.0061791665
179	0x3e47c8f6	0.19510254
180	0xbbbf783f	-0.005843192
181	0x3da4556b	0.08024105
182	0x3d51f731	0.05126113
183	0x39a7c0a5	0.00031996254
184	0xbc175507	-0.009236581
185	0xbcdf369f	-0.027247725
186	0xbd989e82	-0.07452108
187	0x3cda2fa6	0.026634049
188	0x3d88266f	0.066479556
189	0x3cc59a5a	0.024121452
190	0x3d94c6ac	0.07264456
191	0xbcda6284	-0.026658304
192	0x3b77f836	0.0037837154
193	0xbc78031e	-0.015137462
194	0x3d44ce8e	0.04804855
195	0xbd163029	-0.036667023
196	0xbdd29811	-0.102829106
197	0xbd0fc162	-0.035096534
198	0x3d891211	0.06692899
199	0xb9b6c6d0	-0.00034861872
200	0x3d5a9b78	0.053370923
201	0x3df64b75	0.12026111
202	0x3d07223d	0.032991637
203	0x3db90a38	0.09035152
204	0xbd2baeae	-0.041914634
205	0x3dbcd1af	0.092196815
206	0x3bf89363	0.0075859292
207	0x3d2cdf8e	0.042205386
208	0x3d9ef966	0.07762413
209	0x3d060c55	0.032726604
210	0x3c9841dd	0.018586094
211	0xbcee0ecc	-0.02905979
212	0xbd921668	-0.0713318
213	0x3e0a9192	0.13532093
214	0xbd3fdf9b	-0.046844106
215	0x3e394f5e	0.18096682
216	0x3d060b84	0.032725826
217	0x3c127f72	0.008941518
218	0x3e4b7763	0.19869761
219	0xbd953219	-0.07284946
220	0x3dd9a539	0.10627217
221	0x3c806efe	0.015677925
222	0x3d662cd3	0.05619509
223	0x3d9cf828	0.076645195
224	0x3d15e1ce	0.036592297
225	0x3d4034d7	0.046925392
226	0x3e078637	0.13234793
227	0x3d1255ed	0.035726476
228	0x3c878a25	0.016545365
229	0xbda9685c	-0.08271858
230	0x3dac2caf	0.0840696
231	0xbda4df6c	-0.08050427
232	0x3d8b6514	0.068063885
233	0x3dd71197	0.10501402
234	0xbc991970	-0.018688887
235	0x3dc66f91	0.09689248
236	0x3cab17aa	0.020885307
237	0x3d3473ba	0.044055678
238	0xbd2af752	-0.04173977
239	0x3d8136d3	0.06309285
240	0x3da8444a	0.0821615
241	0x3d356245	0.04428317
242	0x3d647e80	0.055784702
243	0x3c8769d0	0.016529948
244	0x3bfafd60	0.007659599
245	0xbd0b661b	-0.034032922
246	0xbcd388a1	-0.025821986
247	0xbda853e5	-0.082191266
248	0x3e03bb39	0.12864389
249	0xbd2f7134	-0.04283257
250	0xbc9a71ca	-0.018853087
251	0xbbab7ddb	-0.005233509
252	0xbd9ecd3c	-0.07753989
253	0x3daa0b03	0.083028816
254	0x3cedb968	0.029019073
255	0xbd41e3a9	-0.047336254

fc2.weight f4 [128, 256]
0	0x3cc81923	0.024426049
1	0xbca64185	-0.020294914
2	0x3bf4e0d2	0.0074730897
3	0x3bfe1bd1	0.007754781
4	0xbcfd666f	-0.030932633
5	0x3dc28c06	0.094993636
6	0x3ce9f2d4	0.028558172
7	0x3c747cab	0.014922301
8	0x3da9c0d4	0.08288732
9	0xbd461c35	-0.048366744
10	0xbc30a3b3	-0.010781216
11	0x3cda996d	0.026684487
12	0x3db2d5f4	0.087322146
13	0x3d38dbf7	0.04513165
14	0x3e0743dc	0.1320948
15	0xbd6a78aa	-0.05724398
16	0x3dbdc300	0.09265709
17	0x3d48aa53	0.04899056
18	0x3afe90ef	0.0019421856
19	0x3c18eae9	0.009333351
20	0x3d80a598	0.062815845
21	0x3dfa380a	0.1221772
22	0x3d9b0351	0.07568992
23	0x3d75e507	0.06003287
24	0x3d069160	0.032853484
25	0xbd8ccc1b	-0.068748675
26	0x3d48cfea	0.049026407
27	0xbd314993	-0.043283056
28	0xbbbf727b	-0.0058425046
29	0xbd48cb85	-0.049022216
30	0x3cb1a8ab	0.021686872
31	0x3cc95fda	0.024581838
32	0x3d4f1e17	0.050565805
33	0x3dd19b33	0.1023468
34	0xbd035e59	-0.0320724
35	0x3d38eafe	0.04514598
36	0x3d1af833	0.037834357
37	0x3c43ba47	0.011946267
38	0x3d650981	0.055917267
39	0xbd279957	-0.04091772
40	0xbd62f58f	-0.055409964
41	0xbd12ccde	-0.035839908
42	0x3e514b55	0.20438893
43	0x3d369361	0.044574145
44	0xbcce3269	-0.025170522
45	0x3c1c4977	0.009539
46	0x3e11c42f	0.14234994
47	0xbb8419a1	-0.0040313755
48	0x3d7456ac	0.05965297
49	0x3cd0edc0	0.025503993
50	0xbbc9ad09	-0.0061546606
51	0x3bb5ffb3	0.0055541634
52	0x3d3dd90f	0.04634958
53	0xbb8ab52b	-0.0042330227
54	0x3cca432a	0.02469023
55	0x3d175dd8	0.03695473
56	0x3d3796f1	0.044821683
57	0x3e560141	0.20898916
58	0xbd743d67	-0.05962887
59	0xbb700e9c	-0.0036629802
60	0x3cc3831c	0.023866229
61	0xbd599a36	-0.053125583
62	0xbd1101bc	-0.035402045
63	0x3d7b0502	0.061284073
64	0xbd99b736	-0.07505648
65	0x3d8e77c9	0.06956441
66	0xbd6b99b1	-0.05751962
67	0x3d7de350	0.06198436
68	0xbd7055c1	-0.05867553
69	0x3d8cc4b0	0.06873453
70	0x3d50daa1	0.05098975
71	0x3d67cee9	0.05659381
72	0xbd808d18	-0.062769115
73	0xbd973159	-0.07382459
74	0xbcdd43da	-0.027009893
75	0x3c8d25db	0.017229965
76	0x3bbbad07	0.0057274136
77	0x3d8c98ba	0.06865068
78	0xbd67df47	-0.05660942
79	0x3d074e2e	0.033033542
80	0x3c8933a1	0.016748251
81	0x3d07de66	0.03317108
82	0x3b9a93a0	0.0047173053
83	0x3d0cc135	0.034363944
84	0x3d73e5ed	0.059545446
85	0x3cd2f30f	0.025750665
86	0xbd2550ff	-0.040360447
87	0x3d36e226	0.044649266
88	0x3d36bef2	0.044615693
89	0x3d03ac12	0.03214652
90	0x3cd58bc8	0.02606763
91	0xbc47b0e0	-0.012188166
92	0x3d75087d	0.05982255
93	0xbb1a6cc2	-0.002356336
94	0x3d29028a	0.041262187
95	0xbd753631	-0.059866134
96	0x3d5331ff	0.051561352
97	0xbd9e9a48	-0.077442706
98	0x3cbc361d	0.022975022
99	0x3b2e5043	0.0026598133
100	0xbbeff24b	-0.0073225847
101	0x3d3c4dde	0.045972697
102	0xbc9c7943	-0.01910079
103	0xbda7ec8b	-0.08199414
104	0x3d5e10a9	0.054215107
105	0x3d3c6e0a	0.04600338
106	0xbd669bc0	-0.05630088
107	0xbd76933a	-0.060199
108	0x3d5596ec	0.052145883
109	0x3d825ccb	0.06365355
110	0x3d97e223	0.07416179
111	0x3d847884	0.06468299
112	0x3d86bfe7	0.06579571
113	0x3c079494	0.00827517
114	0x3dfd70ef	0.12375056
115	0xbc38006e	-0.011230571
116	0x3ce6aa87	0.028157486
117	0xbabb319b	-0.0014281751
118	0x3d20e43a	0.039280154
119	0x3d9bb809	0.07603461
120	0x3d766679	0.06015632
121	0xbc91d32d	-0.017800892
122	0xbd933f11	-0.07189763
123	0x3d3a7634	0.045522884
124	0x3d6a0110	0.05712992
125	0x3ca09662	0.019602958
126	0x3dd88838	0.10572857
127	0xbd171d9c	-0.036893472
128	0xbd18cafe	-0.037302963
129	0x3c596be9	0.013270357
130	0x3d1705a3	0.03687061
131	0xbae83369	-0.0017715517
132	0xbc571e4b	-0.013129781
133	0xbcbd16d2	-0.02308217
134	0xbac3b488	-0.0014931122
135	0x3d308cb5	0.04310294
136	0x3d5c22a0	0.05374396
137	0x3d3bf5ba	0.04588864
138	0xbdb396d7	-0.08769005
139	0xbd2d6d58	-0.042340606
140	0x3d2385e2	0.039922602
141	0xbcf621f8	-0.030045494
142	0x3d8d895a	0.06910963
143	0x3e04b74b	0.12960546
144	0xbcb677c7	-0.022273911
145	0x3b84e461	0.004055545
146	0xbd929180	-0.07156658
147	0xbbe2635d	-0.0069088177
148	0xbd97ce50	-0.07412398
149	0xbd20b49b	-0.03923474
150	0xbd58a104	-0.05288793
151	0xbcf24ad7	-0.029576702
152	0xbd881053	-0.066437386
153	0xbd867057	-0.06564396
154	0x3d6742bc	0.056460127
155	0x3d0eaf43	0.03483511
156	0x3e017cdc	0.12645286
157	0x3d1691e2	0.03676022
158	0x3cd2a9d2	0.025715742
159	0x3c035c12	0.008017557
160	0xbc90a954	-0.017658867
161	0x3ccb8d9a	0.024847794
162	0x3c5fe261	0.013664813
163	0xbd0b65b8	-0.034032553
164	0x3c914436	0.01773272
165	0x3d2f73e8	0.042835146
166	0x3ce4657f	0.027880428
167	0x3d5c24ce	0.053746037
168	0x3d12a8a9	0.035805378
169	0xbc29f568	-0.010373451
170	0x3cd26c02	0.025686268
171	0xbc1b379d	-0.009473708
172	0xbb8e5d41	-0.004344613
173	0x3cd54552	0.026034031
174	0x3d63eaad	0.055643726
175	0x3d5b90f2	0.053605027
176	0x3c965e15	0.018355409
177	0x3c9a6bc0	0.018850207
178	0xbd89808d	-0.06713972
179	0x3e174168	0.14771044
180	0x3d3e12cd	0.04640465
181	0x3d8b96f1	0.06815899
182	0x3d17a0ee	0.03701871
183	0x3d415b01	0.04720593
184	0x3d8cde4f	0.068783395
185	0x3b668a95	0.0035177816
186	0x3c27f3d2	0.010251002
187	0x3d6a4bca	0.057201184
188	0x3d6c5fdd	0.05770861
189	0x3d81b425	0.06333188
190	0xbc9caf99	-0.0191267
191	0x3cd063d9	0.025438236
192	0xbd9882ba	-0.07446809
193	0xbd680cd7	-0.05665287
194	0x3dbc3482	0.091897026
195	0xbbd2a4a0	-0.0064283162
196	0x3d88ea8c	0.06685361
197	0x3c013878	0.007886998
198	0x3d0e77de	0.034782283
199	0xbce3c0bf	-0.02780187
200	0x3d917963	0.07103231
201	0xbbd5b269	-0.0065215123
202	0x3dcd0880	0.10011387
203	0x3c3f0e88	0.011661179
204	0xbd60f593	-0.054921698
205	0xbd421dee	-0.047391824
206	0xbd837541	-0.06418849
207	0xbc4e8451	-0.012604789
208	0x3d35edea	0.044416346
209	0x3d4815af	0.048848804
210	0xbc806a03	-0.01567555
211	0xbd6d53f0	-0.057941377
212	0x3d3c9b38	0.046046466
213	0x3c468bab	0.01211826
214	0x3d21b2e2	0.039477237
215	0x3dac057d	0.08399484
216	0x3dbc2181	0.09186078
217	0xbd2e984c	-0.04262571
218	0x3dba8395	0.091071285
219	0xbc5520ac	-0.013008278
220	0xbd2b0f7d	-0.041762818
221	0x3d33a112	0.04385478
222	0xbd6aff78	-0.05737254
223	0xbd17feef	-0.037108358
224	0xbcfb7af5	-0.030698279
225	0xbd4e5a50	-0.050379097
226	0x3d07f770	0.03319496
227	0x3d871ea7	0.06597643
228	0x3d0bd5b0	0.034139335
229	0x3b227767	0.0024790408
230	0xbd4b3c78	-0.049618214
231	0x3d0bbfc9	0.034118447
232	0xbcd54ce2	-0.026037637
233	0x3dcf0832	0.10108985
234	0x3d775872	0.060387082
235	0x3ceb6a59	0.028737234
236	0x3da4fa4d	0.080555536
237	0x3da966c5	0.08271555
238	0xbd6d1e39	-0.05789015
239	0x3d2dfed3	0.042479347
240	0x3ce6597d	0.028118843
241	0xbd8130b4	-0.063081175
242	0x3af57f46	0.0018729947
243	0x3dc50203	0.09619524
244	0x3a8cc760	0.0010740571
245	0xbd8a0861	-0.067398794
246	0x3d953588	0.07285601
247	0x3cba5157	0.022743864
248	0x3d9cb0d0	0.07650912
249	0xbceed394	-0.029153623
250	0x3aacc7fd	0.001318216
251	0xbd89d621	-0.06730295
252	0xbd6cf51c	-0.057850942
253	0xbd6dcd6a	-0.058057226
254	0x3cf7a20b	0.030228635
255	0xbcb51c56	-0.022108238

fc2.bias f4 [128]
0	0x3d8a6623	0.06757762
1	0xbcbe646b	-0.023241242
2	0xbd3331ad	-0.043748546
3	0xbd73d1b4	-0.05952616
4	0x3e11a00d	0.14221211
5	0xbd77fa20	-0.060541272
6	0xbcd7d1bc	-0.026345126
7	0x3e01a981	0.12662317
8	0xbd08a3e9	-0.033359442
9	0x3d76aefc	0.06022547
10	0x3b8a4110	0.004219182
11	0xbd143da9	-0.036191616
12	0x3defa440	0.1170125
13	0xbd314d78	-0.04328677
14	0xbcb3d572	-0.021952365
15	0x3dd8edbe	0.10592221
16	0x3d7f617a	0.06234882
17	0xbc7c7d57	-0.015410743
18	0xb94e4956	-0.0001967301
19	0x3cff01b3	0.03112874
20	0xbcf859e1	-0.030316295
21	0x3db98c40	0.09059954
22	0x3df560ac	0.11981329
23	0xbd3416a4	-0.043966904
24	0x3e28e02a	0.16491762
25	0x3d40e442	0.047092684
26	0xbd90c67b	-0.07069107
27	0x3d98adea	0.074550465
28	0x3cf6b99c	0.030117802
29	0x3d966ee9	0.07345373
30	0x3d3bad68	0.04581967
31	0x3de4bf06	0.11169247
32	0x3d890173	0.066897295
33	0xbd194381	-0.037417892
34	0xbd32786c	-0.043571874
35	0x3dcbefb3	0.099578284
36	0xbd929882	-0.07157995
37	0x3d9a6e50	0.07540572
38	0xbc287d54	-0.010283787
39	0xbcd47f0a	-0.025939483
40	0xbcb4915c	-0.022041969
41	0xbc6fd26a	-0.014637569
42	0x3dc4a8ec	0.09602532
43	0xbca76fec	-0.02043911
44	0xbd386309	-0.045016322
45	0xbd93fbb9	-0.07225747
46	0xbc8f9cba	-0.017530788
47	0xbd2fdd84	-0.042935863
48	0xbc915d7f	-0.017744778
49	0x3c73592a	0.014852801
50	0x3ca41d3c	0.020033471
51	0x3e1c7404	0.15278631
52	0xbd3cc70b	-0.04608826
53	0xbbafeefc	-0.0053690653
54	0x3be0b13a	0.0068570646
55	0x3e1e55a0	0.15462351
56	0x3e255428	0.16145384
57	0x3ddd6372	0.10809983
58	0x3d8fac76	0.07015316
59	0x3c12fd55	0.008971532
60	0x3da030bb	0.078217946
61	0xbde16c17	-0.110069446
62	0xbd453974	-0.048150495
63	0x3dfdb3c0	0.123878
64	0xbd1968a6	-0.037453316
65	0x3dab0ab0	0.08351648
66	0xbdf8b4e4	-0.12143877
67	0xbb84b494	-0.004049847
68	0xbd27b569	-0.04094449
69	0x3c9cf6a2	0.019160572
70	0x3c1e5346	0.009663409
71	0xbbf56871	-0.007489257
72	0xbdfce96f	-0.123492114
73	0x3c90408b	0.017608901
74	0xbd77a1e4	-0.060457125
75	0xbd5f4b0f	-0.05451494
76	0xbd8bc2f1	-0.068242915
77	0xbdaaee00	-0.08346176
78	0x3ce58b28	0.028020456
79	0x3cd45ed2	0.02592412
80	0x3d121e5c	0.035673484
81	0x3db8677b	0.09004112
82	0x3d820f00	0.06350517
83	0xbc83d7be	-0.016094085
84	0xbcc446e9	-0.023959594
85	0x3c163dff	0.009170054
86	0x3dc5f67d	0.096661545
87	0xbc3f9c3d	-0.011694965
88	0x3d6d5a8b	0.057947677
89	0x3d38ea62	0.0451454
90	0xbda9f6b1	-0.08299006
91	0x3c8b88b6	0.017032962
92	0x3ddc7f0c	0.1076642
93	0x3d1256a5	0.035727162
94	0xbdcfa578	-0.101389825
95	0x3c595717	0.013265393
96	0x3e3edb1a	0.18638268
97	0x3e1eceed	0.15508623
98	0xbd929d88	-0.07158953
99	0xbd876608	-0.06611258
100	0xbbdc0730	-0.006714724
101	0xbd62ea11	-0.055399004
102	0x3d46646e	0.04843562
103	0xbd7d8f17	-0.06190404
104	0x3d9b4dad	0.07583175
105	0x3d837005	0.064178504
106	0x3c68e9aa	0.014215866
107	0x3c743851	0.014906005
108	0xbcc2ad97	-0.023764415
109	0xbbcad9ef	-0.0061905305
110	0x3e296cd9	0.16545428
111	0xbd5767ec	-0.052589342
112	0x3cc0676a	0.023486812
113	0x3dc05321	0.093908556
114	0x3dadc687	0.08485132
115	0x3d601c9e	0.05471479
116	0x3c99b4ab	0.018762907
117	0xbd9c67f7	-0.07637017
118	0xbd9050e8	-0.07046682
119	0xbd8a9b9c	-0.067679614
120	0x3c9c8d78	0.019110426
121	0x3d88d0ca	0.06680448
122	0xbc44d5bd	-0.01201385
123	0x3dc267e3	0.09492471
124	0xbd16b05b	-0.03678928
125	0x3d4d5313	0.050128054
126	0x3dd8f14c	0.10592899
127	0x3e1485de	0.14504191

fc3.weight f4 [64, 128]
0	0x3d8ac388	0.06775576
1	0xbc2db076	-0.010601154
2	0x3c6da4da	0.014504636
3	0xbdac477e	-0.084120736
4	0x3dbbaf1e	0.0916426
5	0x3d06d108	0.03291419
6	0x3d7c0d82	0.06153632
7	0x3c4abc5a	0.012374008
8	0x3cec89b0	0.028874248
9	0x3e12171f	0.14266632
10	0x3ba4c140	0.00502792
11	0xbcdbd8e8	-0.026836827
12	0xbd2b47d8	-0.041816562
13	0xbdcf5d9a	-0.10125275
14	0xbcc8ea00	-0.024525642
15	0x3d5577f9	0.052116368
16	0x3cd83dad	0.026396597
17	0x3c146efe	0.009059666
18	0x3d876e4b	0.066128336
19	0x3dc22cd4	0.094812065
20	0x3d84365f	0.06455683
21	0xbc84f6e8	-0.016231015
22	0xbcd42845	-0.025898108
23	0x3cb89149	0.022530215
24	0xbd61a4f0	-0.055088937
25	0x3db1ef19	0.086881824
26	0x3deab6a2	0.11460616
27	0x3d406e04	0.04697992
28	0x3dafec37	0.08589976
29	0x3d75a815	0.05997475
30	0xbda0b80c	-0.07847604
31	0x3d0285b2	0.031865783
32	0x3d30c61c	0.04315768
33	0x3d0c1fdc	0.03421007
34	0xbd9f409d	-0.07775996
35	0x3d529500	0.05141163
36	0xbd3be75d	-0.045874942
37	0x3cbae910	0.022816211
38	0xbd1ffba1	-0.03905833
39	0xbcb31437	-0.021860225
40	0x39046000	0.00012624264
41	0xbde538aa	-0.111924484
42	0x3d625e64	0.0552658
43	0xbd83f3c2	-0.064429775
44	0x3cf8b8c9	0.03036155
45	0xbd531436	-0.051532947
46	0x3d58ae43	0.052900564
47	0x3dc4b60e	0.09605037
48	0xbd87f304	-0.066381484
49	0x3d16d11a	0.03682051
50	0xbd527bbc	-0.051387534
51	0xbbf5a25e	-0.0074961623
52	0x3c559796	0.013036629
53	0x3da9710c	0.08273515
54	0xbd0117e8	-0.03151694
55	0x3ccb3816	0.024807017
56	0xbd75bb2d	-0.059992958
57	0x3d682ed4	0.056685284
58	0x3d390ce5	0.045178313
59	0x3d55a43a	0.05215857
60	0x3c25df99	0.010124111
61	0xbd93f9d1	-0.07225383
62	0xbceb1037	-0.028694255
63	0xbdb2dfb4	-0.08734074
64	0xbd1cd4b0	-0.038288772
65	0xbdbebdf4	-0.093135744
66	0xbd68ae27	-0.05680671
67	0xbd3279e4	-0.043573275
68	0xbd9f47c8	-0.07777363
69	0xbd985bcb	-0.07439383
70	0xbc6ca4c4	-0.01444358
71	0xbcd168a5	-0.025562594
72	0xba56a80c	-0.0008188493
73	0x3d401369	0.04689351
74	0xbb48f845	-0.0030665558
75	0x3d826cf4	0.063684374
76	0x3cfa49fc	0.030552857
77	0x3c332bd6	0.010935744
78	0xbd010f68	-0.031508833
79	0xbd562b28	-0.05228725
80	0xbd97382d	-0.073837616
81	0x3c82f966	0.015988063
82	0xbcf4d12f	-0.029884903
83	0xbdb8c8bb	-0.09022661
84	0x3ccfe038	0.02537547
85	0x3d8d60b9	0.06903214
86	0xbc1b4076	-0.009475818
87	0xbc0137fd	-0.007886884
88	0xbd7bf59a	-0.06151352
89	0x3dc9a9cf	0.098468415
90	0x3da2597d	0.07927225
91	0x3db9d6c5	0.09074167
92	0x3d90a812	0.07063307
93	0xbc76caa5	-0.015062963
94	0xbc1c818f	-0.009552374
95	0x3cb82d93	0.022482669
96	0x3df8217f	0.12115764
97	0xbd301e4c	-0.042997643
98	0x3cee46e3	0.029086536
99	0x3d0c6bcb	0.034282487
100	0x3c65eb7b	0.014033194
101	0x3dc47ec9	0.09594495
102	0xbd230c4d	-0.039806653
103	0xbda700f0	-0.08154476
104	0xbd0bc1dd	-0.03412043
105	0x3c198f4e	0.009372545
106	0x3dc18766	0.09449653
107	0xbb0955c7	-0.0020955668
108	0x3d9c1c2a	0.07622559
109	0xbcb9129e	-0.022591885
110	0xbd8047e5	-0.06263713
111	0xbd5caec4	-0.053877607
112	0x3c9171f3	0.01775453
113	0x3d4df9d6	0.05028709
114	0x3c63827f	0.013886093
115	0x3db25109	0.087068625
116	0x3dc8882b	0.09791597
117	0xbd4760b1	-0.048676196
118	0x3d948eb2	0.072537795
119	0xbd559ccf	-0.052151497
120	0xbb1f5b5a	-0.0024315924
121	0x3cbe970b	0.023265382
122	0x3ce033d2	0.02736846
123	0x3d544e67	0.051832583
124	0x3d2fdf37	0.042937484
125	0xbdbffd00	-0.09374428
126	0xbd278f83	-0.040908348
127	0xbcf9e9ab	-0.03050693
128	0x3d2c6476	0.042087995
129	0xbcc57e88	-0.024108186
130	0xbd3255ab	-0.04353873
131	0xbca67dda	-0.020323683
132	0x3d264775	0.04059549
133	0xbd8fed8c	-0.0702773
134	0x3dedf85a	0.11619635
135	0x3d61b80b	0.055107158
136	0xbd5be58b	-0.053685706
137	0x3d44fd7a	0.048093297
138	0xbdb02855	-0.08601443
139	0xbd608c91	-0.054821555
140	0xbd0c0519	-0.03418455
141	0xbc6381f7	-0.0138859665
142	0x3d865505	0.06559185
143	0xbd95ae5a	-0.073086455
144	0xbd36449f	-0.044499036
145	0x3daff7f5	0.08592216
146	0x3dace4d9	0.08442087
147	0xbd97cbe7	-0.07411938
148	0x3d25af11	0.04045016
149	0x3c75894c	0.014986347
150	0x3dae8aaf	0.085225455
151	0xbdee7a1b	-0.116443835
152	0xbc6b692c	-0.014368337
153	0xbd557b30	-0.052119434
154	0x3c6a677f	0.014306902
155	0x3dc055d7	0.09391373
156	0x3dc1727b	0.094456635
157	0xbd79f321	-0.06102288
158	0x3d3e9ee0	0.046538234
159	0xbd7f2fb4	-0.062301353
160	0x3c8cb074	0.017173983
161	0x3cc0c4b9	0.023531305
162	0x3d23cbd9	0.039989326
163	0x3cc8a006	0.024490368
164	0x3d73454f	0.05939227
165	0xbd886dba	-0.06661554
166	0x3d89178d	0.06693945
167	0xbd0a0f57	-0.033706035
168	0x3b5d5560	0.0033772811
169	0xbcb3a7a9	-0.021930533
170	0x3d1fbb16	0.03899678
171	0xbc9fd60c	-0.019511245
172	0x3dbc29d6	0.09187667
173	0xbd1b3746	-0.03789451
174	0xbd306937	-0.04306909
175	0xbc6b0632	-0.014344739
176	0xbd5d2237	-0.053987708
177	0x3d098cb1	0.03358144
178	0x3d932309	0.07184417
179	0xbc96d9fa	-0.018414486
180	0x3ce2bbe1	0.027677478
181	0x3bd26bea	0.0064215558
182	0xbcc7987d	-0.024364704
183	0x3c118583	0.008881929
184	0x3dab9353	0.08377709
185	0xbd05c7fb	-0.03266142
186	0x3cf18166	0.029480647
187	0x3da7be73	0.08190622
188	0x3d637960	0.055535674
189	0xbdad69c6	-0.0846744
190	0x3d6eff26	0.058348797
191	0x3d9d99b1	0.0769533
192	0xbc794042	-0.015213074
193	0x3d6e086e	0.058113508
194	0x3d7f2060	0.062286735
195	0xbc1a95d0	-0.009435132
196	0x3db1d71e	0.086836085
197	0xbc0b7893	-0.008512634
198	0x3d8b30b5	0.067963995
199	0x3c412717	0.011789105
200	0x3dab9b78	0.08379263
201	0x3d93fd93	0.072261
202	0xbd4da0ba	-0.05020211
203	0x3d6ae180	0.05734396
204	0x3bafed3e	0.0053688576
205	0x3c4afa35	0.012388756
206	0xbdb17ef3	-0.08666792
207	0xbd341eb5	-0.043974597
208	0xbd5deac8	-0.054178983
209	0x3d9261f9	0.07147593
210	0xbb505e3a	-0.0031794445
211	0x3cea46f0	0.028598279
212	0x3dacdb78	0.08440298
213	0x3bdaba8e	0.006675071
214	0xbdaffd54	-0.085932404
215	0x3dafbd85	0.0858107
216	0x3dc326cb	0.095288835
217	0x3cfcb547	0.030848159
218	0xbd987599	-0.07444305
219	0x3d9e8a07	0.077411704
220	0xbc6b7c2d	-0.0143728675
221	0xbdcba49c	-0.09943506
222	0xbc546cf6	-0.012965431
223	0xbdd9f58c	-0.106425375
224	0x3d8c1e2a	0.06841691
225	0xbb017593	-0.0019753918
226	0x3d6269b0	0.055276573
227	0x3d6996b7	0.0570285
228	0x3d86cb8e	0.06581794
229	0x3dac10c7	0.084016375
230	0x3dd9651c	0.10614988
231	0xbc001ec8	-0.007819839
232	0xbcca4b18	-0.02469401
233	0xbddb4abe	-0.10707615
234	0xbd54b9b8	-0.051934928
235	0xbcbe85fb	-0.023257246
236	0x3d404f52	0.046950646
237	0x3db2408b	0.08703717
238	0xbcdc48d9	-0.026890205
239	0x3d144bbd	0.036205042
240	0x3d58cfb3	0.052932452
241	0x3e0081dd	0.12549539
242	0xbd2c3d1d	-0.04205047
243	0xbd65ab52	-0.056071587
244	0xbc5a84b1	-0.0133373
245	0xbba8db41	-0.00515309
246	0x3d033ed9	0.032042358
247	0x3c873efa	0.016509522
248	0xbd9e07c2	-0.077163234
249	0x3da68412	0.08130659
250	0xbd433c2e	-0.047664814
251	0xbd6fd560	-0.0585531
252	0xbb79b060	-0.0038099512
253	0xbdcba7cc	-0.09944114
254	0x3cd01294	0.025399484
255	0x3d0ab7e7	0.03386679

fc3.bias f4 [64]
0	0x3c3e96f8	0.011632673
1	0xbd0fbbc5	-0.03509118
2	0x3da2ad5a	0.079432204
3	0x3d0c87b1	0.034309093
4	0x3cf6cdb5	0.030127386
5	0x3da624c8	0.08112484
6	0x3e01f2ac	0.12690228
7	0xbc2b2cea	-0.01044772
8	0xbc8efe3e	-0.017455216
9	0x3da5ae3b	0.080898724
10	0x3c83c615	0.016085664
11	0xbc5606dd	-0.01306316
12	0xbd0a83d1	-0.033817116
13	0x3dc6af7a	0.09701438
14	0x3b17cc20	0.002316244
15	0xbd864864	-0.06556776
16	0xbc1028e0	-0.008798808
17	0x3d8b5150	0.068026185
18	0x3c688957	0.014192901
19	0x3c6826f2	0.014169442
20	0xbd896bc1	-0.067100056
21	0xbc88f487	-0.016718162
22	0x3e04fbd1	0.12986685
23	0x3e001d31	0.12511136
24	0x3dfbcea3	0.12295272
25	0xbdbadd70	-0.09124267
26	0x3e09efdf	0.1347041
27	0xbdb2a2d5	-0.08722464
28	0xbce45895	-0.02787427
29	0x3dac41e8	0.08411008
30	0xbda4d30b	-0.08048066
31	0x3dcb92b3	0.0994009
32	0x3cb23de0	0.02175802
33	0x3dd55b60	0.10417819
34	0xbd9b5784	-0.07585052
35	0x3d9e4abe	0.077291
36	0xbd67cc70	-0.05659145
37	0x3bf079b8	0.0073387288
38	0xbca9d30e	-0.020730522
39	0x3d9262af	0.07147729
40	0xbd97f77a	-0.07420249
41	0x3caa2376	0.020768862
42	0x3d9140d7	0.07092445
43	0x3d98978d	0.07450781
44	0x3c0140fd	0.00788903
45	0x3d01f8ca	0.031731404
46	0x3cbf6ae7	0.023366405
47	0x3ca77b58	0.020444557
48	0xbdab180a	-0.083541945
49	0x3dc8eead	0.09811149
50	0xbd6aeabe	-0.057352774
51	0xbdb1c172	-0.08679475
52	0xbd6509b2	-0.05591745
53	0xbd8903d1	-0.06690181
54	0x3de87719	0.11350841
55	0x3b170ee6	0.0023049652
56	0xbd8ad3f6	-0.067787096
57	0x3e22d522	0.15901616
58	0xbd8deecf	-0.06930315
59	0x3d6e837d	0.058230866
60	0xbdc1c160	-0.094607115
61	0x3db8a11c	0.09015104
62	0x3c4d7cb0	0.012541935
63	0xbd59cb81	-0.053172592

fc4.weight f4 [10, 64]
0	0xbd949e2e	-0.07256733
1	0xbdee965d	-0.11649773
2	0xbdeced1f	-0.11568665
3	0x3d9aacd2	0.07552494
4	0xbde38df6	-0.11111061
5	0xbe003e32	-0.12523726
6	0xbc36af5c	-0.011150207
7	0xbd3c8979	-0.04602954
8	0xbde6ef3d	-0.112761
9	0xbc43801b	-0.011932398
10	0xbd267b53	-0.040644955
11	0xbc6d3f3b	-0.014480407
12	0x3ce3f560	0.027826965
13	0x3dfeac2c	0.12435183
14	0x3d3e6120	0.046479344
15	0xbd1115aa	-0.03542105
16	0xbdfd4181	-0.123660095
17	0x3d25fc0f	0.040523585
18	0xbdccaeab	-0.09994253
19	0xbc3a5150	-0.0113719255
20	0xbd152b97	-0.036418524
21	0xbe003d5b	-0.12523405
22	0x3db28391	0.087165006
23	0xbd1179b9	-0.035516474
24	0xbc2e8707	-0.01065231
25	0xbd9b3cb0	-0.075799346
26	0x3da8be41	0.08239413
27	0xbdcc762e	-0.099834785
28	0x3d89b8d4	0.06724706
29	0x3da4dfef	0.080505244
30	0xbddc2abb	-0.10750338
31	0x3dd4efea	0.103973225
32	0x3db98af4	0.09059706
33	0x3dbe5a38	0.092945516
34	0x3c22f5c6	0.009946292
35	0xbda62144	-0.08111814
36	0xbda889d5	-0.082294144
37	0x3e10aef8	0.14129245
38	0x3d239a2d	0.039941955
39	0xbd16b8c8	-0.036797315
40	0xbded1576	-0.11576359
41	0x3decc54c	0.11561069
42	0xbd785a48	-0.060632974
43	0x3d216e9d	0.03941213
44	0x3d94eaf7	0.072713785
45	0xbbc73fae	-0.0060805893
46	0xbcc25a0d	-0.02372458
47	0xbd7e20bb	-0.062042933
48	0x3dbcd4da	0.09220286
49	0x3c641914	0.013921995
50	0xbe06689d	-0.13125844
51	0xbd6873e1	-0.056751136
52	0xbb2793d7	-0.0025570297
53	0xbde4b660	-0.11167598
54	0x3dc0d46b	0.094155155
55	0x3d0d711b	0.034531694
56	0xbc9fac17	-0.019491239
57	0x3db43a6e	0.08800207
58	0xbe20fbd7	-0.1572107
59	0x3dde6cec	0.10860619
60	0x3d8702de	0.06592344
61	0x3dd0c85e	0.10194467
62	0x3e105a6d	0.14096995
63	0xbda9d1ea	-0.08291991
64	0xbdd6df31	-0.10491789
65	0xbd9684fb	-0.07349583
66	0xbdb08101	-0.086183555
67	0x3d940d4c	0.07229099
68	0x3d44a6b2	0.048010536
69	0x3d86f3bc	0.065894574
70	0xbddccef0	-0.10781658
71	0x3d90d05a	0.0707099
72	0x3e2a46fc	0.16628641
73	0x3d1571fb	0.036485653
74	0xbdbd3dc7	-0.09240299
75	0xbc96d98c	-0.018414281
76	0xbdacd225	-0.084385194
77	0xbd13dab5	-0.036097247
78	0xbdad78c2	-0.08470298
79	0xbd981051	-0.07424987
80	0x3daf2b1a	0.08553143
81	0x3abec29a	0.0014553845
82	0xbde2e108	-0.110780776
83	0x3e001a6b	0.12510078
84	0xbd70d3e3	-0.05879582
85	0x3d1ce89a	0.038307764
86	0x3e250291	0.1611426
87	0xbdff6ab9	-0.124715276
88	0x3e1e2d0e	0.15446874
89	0x3e17a3a3	0.14808516
90	0xbe240d6c	-0.16020745
91	0xbc71cd03	-0.014758351
92	0xbcaf114b	-0.02137055
93	0x3dd8760b	0.1056939
94	0xbd876b8e	-0.06612311
95	0xbe1001e3	-0.1406322
96	0x3e16f1f0	0.1474073
97	0x3dd2f38b	0.103003584
98	0x3d5c71bd	0.053819407
99	0x3dd8e2d8	0.10590142
100	0xbe095a48	-0.13413346
101	0xbdc22083	-0.09478857
102	0xbe22ff75	-0.15917762
103	0xbe321daf	-0.17394136
104	0xbdbd0a39	-0.092304654
105	0xbde5dbed	-0.11223588
106	0x3de4dc2c	0.11174807
107	0x3ddbc9e8	0.1073187
108	0xbd9a3125	-0.07528905
109	0xbd30969b	-0.04311238
110	0xbd93ba66	-0.07213287
111	0xbddacde3	-0.10683801
112	0x3ccd197d	0.025036568
113	0x3dc0baf2	0.09410657
114	0xbd22e4fd	-0.03976916
115	0xbdc25e35	-0.09490625
116	0xbd085c0a	-0.0332909
117	0xbd87047c	-0.06592652
118	0x3e00885a	0.12552014
119	0x3dcceb8e	0.10005866
120	0x3e0df810	0.1386416
121	0xbdb4e973	-0.088335894
122	0x3dcdb9c7	0.100452
123	0x3d472359	0.048617695
124	0x3dd3e74f	0.10346853
125	0xbe274133	-0.16333465
126	0xbe092345	-0.1339236
127	0xbd615c8a	-0.055019893
128	0xbc56204d	-0.013069225
129	0xbdf9b08f	-0.12191879
130	0xbdbeaa71	-0.09309853
131	0x3d2e2ef5	0.04252525
132	0x3b8e4bc2	0.004342527
133	0x3d3c9bc1	0.046046976
134	0xbd892522	-0.06696536
135	0xbe1a934b	-0.1509525
136	0x3ce3220b	0.027726194
137	0x3d263657	0.040579166
138	0x3d06b191	0.032884184
139	0xbdeb0b41	-0.11476756
140	0x3ddfc2d1	0.1092583
141	0x3e0ecb8d	0.13944836
142	0xbdca416e	-0.09875761
143	0xbc558cb1	-0.013034032
144	0xbcac4cf6	-0.021032792
145	0x3e0d1d34	0.13780671
146	0x3d92bd68	0.071650326
147	0x3da3a302	0.07990076
148	0xbc0000ee	-0.007812722
149	0x3de129e0	0.10994315
150	0xbe16ecf3	-0.14738826
151	0xbdb8f69a	-0.090314105
152	0xbcd9556a	-0.026529986
153	0x3d2f6d94	0.04282911
154	0xbe1a66f2	-0.15078333
155	0x3d1ca32a	0.038241543
156	0x3d0bef99	0.034164045
157	0xbdeb8e9d	-0.11501811
158	0x3d37f24b	0.044908803
159	0x3e06bffe	0.13159177
160	0xbe44d7c8	-0.19222939
161	0xbd4f5ea9	-0.050627384
162	0x3d48fc17	0.049068537
163	0x3d5c3e54	0.05377038
164	0x3d9fbed1	0.07800067
165	0x3c658d0f	0.014010682
166	0x3d82eb09	0.06392486
167	0x3cb6fe48	0.022338048
168	0xbccee435	-0.025255302
169	0xbd43eff1	-0.047836248
170	0xbdb2ad45	-0.08724455
171	0xbd2a12ba	-0.041521765
172	0x3dad6cf7	0.08468049
173	0x3c65f084	0.014034394
174	0xbd98f854	-0.0746924
175	0x3def36c8	0.116803706
176	0xbdbfca94	-0.093648106
177	0x3d87bf40	0.06628275
178	0x3d21f438	0.039539546
179	0xbd72674e	-0.05918055
180	0xbd8ea5b5	-0.069652
181	0xbdcb2624	-0.09919384
182	0x3d9d20e5	0.0767229
183	0xbc21d7f4	-0.009878147
184	0x3c06a884	0.008218888
185	0xbc545fab	-0.012962262
186	0xbded0111	-0.11572469
187	0x3cc89b78	0.024488196
188	0xbd3cd21f	-0.046098825
189	0xbe0c62d4	-0.13709575
190	0x3de694c9	0.11258847
191	0xbd956d43	-0.07296231
192	0x3d63feb1	0.055662815
193	0x3d391332	0.04518432
194	0x3d034a7e	0.032053463
195	0xbcf87a03	-0.030331617
196	0xbdaae183	-0.08343794
197	0x3d64c745	0.0558541
198	0xbe3baaf9	-0.1832694
199	0xbd126b1a	-0.03574667
200	0xbde7a811	-0.11311353
201	0xbda350cf	-0.079743974
202	0x3c21ca85	0.009874945
203	0x3cad7001	0.021171572
204	0xbd9010cf	-0.07034456
205	0xbe0c3ae6	-0.13694343
206	0xbd705324	-0.05867304
207	0xbcbc290b	-0.02296879
208	0xbd78a9c0	-0.06070876
209	0x3c6a4494	0.014298577
210	0xbe02944f	-0.12751888
211	0xbccadcb6	-0.024763446
212	0x3d9f50ba	0.07779069
213	0xbc304cb9	-0.01076048
214	0xbd9dd5c7	-0.077067904
215	0xbe4752d5	-0.19465192
216	0xbce45a8d	-0.02787521
217	0xbe4af0fb	-0.19818489
218	0xbd1534d6	-0.03642734
219	0x3d8ae85c	0.067826
220	0x3c5adc88	0.013358243
221	0x3d5dc706	0.05414488
222	0xbd940cbc	-0.072289914
223	0x3e087aaa	0.13328043
224	0x3db3bfb7	0.08776801
225	0x3e0dedfe	0.13860318
226	0x3e04d266	0.12970886
227	0x3dc43495	0.09580342
228	0x3d0d5003	0.034500133
229	0x3dd567ad	0.10420165
230	0x3c8f6859	0.017505812
231	0x3e02251e	0.12709472
232	0xbda1a572	-0.07892884
233	0xbb182f71	-0.0023221637
234	0xbdf2342f	-0.118263595
235	0x3d1826e3	0.03714646
236	0x3d97c97f	0.07411479
237	0xbe078631	-0.13234784
238	0xbdbbaa46	-0.091633365
239	0xbd528e2b	-0.051405113
240	0x3c96f742	0.018428449
241	0x3d819db8	0.063289106
242	0x3df8ac0f	0.121421926
243	0xbdeb30bc	-0.11483905
244	0xbd1652f4	-0.036700204
245	0x3d8fabc2	0.07015182
246	0x3da2428e	0.079228505
247	0x3d460081	0.048340324
248	0xbca2fdb5	-0.019896368
249	0xbe21782f	-0.15768503
250	0x3e04c064	0.12964016
251	0x3defb710	0.11704838
252	0x3d63d207	0.05562022
253	0x3d05d2dc	0.032671794
254	0x3cd0d203	0.025490766
255	0x3daac1d4	0.08337751

fc4.bias f4 [10]
0	0xbcd6f1e6	-0.026238393
1	0x3d37f41f	0.044910546
2	0xbc5e16b8	-0.013555221
3	0x3d93f56e	0.072245464
4	0x3d3cd27e	0.04609918
5	0x3d8c6d14	0.068567425
6	0x3d5822c4	0.05276753
7	0xbc04a9c7	-0.008097119
8	0xbce1e2cf	-0.027573971
9	0xbbf8c877	-0.0075922566
