runs/Mar02_16-19-11_cssd901383-Run(lr=0.01, batch_size=128, patience=1)-valid/checkpoint.pt (torch_old, 972387 bytes, 8 tensors)

fc1.weight f4 [256, 784]
0	0xbe8257c5	-0.25457588
1	0xbe2149d5	-0.15750821
2	0xbda913dd	-0.08255742
3	0xbe0f39fc	-0.13986963
4	0x3ddd8f9c	0.10818407
5	0x3e9d82e5	0.30763927
6	0x3eb041dd	0.3442525
7	0x3c6622a5	0.014046346
8	0xbe77c326	-0.24195537
9	0x3dc16a2a	0.09444077
10	0x3f241d9e	0.6410769
11	0x3f4092bc	0.752239
12	0x3d3d0784	0.046149746
13	0xbd512cc9	-0.0510681
14	0xbe046c55	-0.1293195
15	0xbd162b42	-0.036662348
16	0x3f147356	0.5798849
17	0x3f501513	0.81282157
18	0x3b9ffa9e	0.004882171
19	0xbefc55a3	-0.49284086
20	0xbeb2f041	-0.34948924
21	0x3d74c27f	0.0597558
22	0xbe56028f	-0.20899414
23	0xbe6928b8	-0.22769439
24	0xbec00d26	-0.3751003
25	0xbe252c83	-0.16130261
26	0xbd7b5d28	-0.061368138
27	0x3c612c72	0.013743507
28	0xbea3c2a5	-0.3198444
29	0xbe0e7676	-0.13912377
30	0xbe23ddec	-0.16002625
31	0x3d84b9ab	0.06480726
32	0x3df16ed8	0.1178872
33	0xbe69ae3e	-0.22820374
34	0xbefde78d	-0.49590722
35	0xbf0aaa7e	-0.541664
36	0xbcacb192	-0.021080766
37	0x3f12e69d	0.5738314
38	0x3f2fc049	0.6865278
39	0x3eab89cc	0.33503568
40	0x3a428970	0.00074209925
41	0x3d765e7a	0.060148694
42	0x3e1dcdf6	0.15410599
43	0xbd871d1d	-0.0659735
44	0x3db24789	0.087050505
45	0x3f11f7fa	0.5701901
46	0x3f1c8e46	0.6115459
47	0x3e2c3e31	0.16820599
48	0xbf031c9a	-0.5121552
49	0xbf0ac109	-0.542008
50	0xbe858ce8	-0.26084065
51	0xbe010c52	-0.12602356
52	0xbddb7069	-0.107148
53	0xbe0580dd	-0.13037439
54	0xbe240f42	-0.16021445
55	0xbc99a211	-0.018754037
56	0xbe43e59f	-0.19130562
57	0x3ba7cf52	0.00512115
58	0x3bbcb489	0.005758826
59	0x3e33940d	0.17536946
60	0x3cff149a	0.031137753
61	0xbede1721	-0.4337702
62	0xbed06870	-0.4070468
63	0xbe1f936f	-0.15583585
64	0xbcc64556	-0.024202984
65	0x3d96039c	0.07324907
66	0xbca264bc	-0.019823425
67	0xbd7612f8	-0.060076684
68	0xbdc51b70	-0.09624374
69	0xbdc8920f	-0.097934835
70	0xbe29c8c0	-0.16580486
71	0xbe31027f	-0.17286108
72	0xbd13d57d	-0.03609227
73	0xbd3f43ef	-0.046695646
74	0xbbac142a	-0.005251427
75	0x3cfd6089	0.03092982
76	0xbdd191fe	-0.10232924
77	0xbed17b66	-0.40914458
78	0xbec2fabd	-0.38081923
79	0xbe11c845	-0.14236553
80	0xbdf14675	-0.11781017
81	0xbe0aed01	-0.13566972
82	0xbe0148c4	-0.12625414
83	0xbd8cb320	-0.06870103
84	0x3e112c46	0.14177045
85	0x3d02f261	0.03196943
86	0x3dee6f79	0.116423555
87	0x3dce9d11	0.10088552
88	0xbe861d22	-0.26194102
89	0xbe1e96bf	-0.15487193
90	0xbec199b2	-0.37812573
91	0xbf06c46d	-0.5264347
92	0xbeb0f2dc	-0.34560287
93	0xbdb4d66e	-0.08829962
94	0x3d6a684d	0.057228375
95	0x3d9d3078	0.0767526
96	0x3aad4431	0.0013219175
97	0xbc9023d3	-0.017595207
98	0xbd218500	-0.03943348
99	0xbcc43e75	-0.023955563
100	0x3db4d895	0.08830372
101	0x3d9b7a1e	0.075916514
102	0xbe06c9a0	-0.13162851
103	0xbeb23fcb	-0.34814295
104	0xbf1cf6d4	-0.6131413
105	0xbf04045d	-0.5156916
106	0xbe90dc2e	-0.28292984
107	0xbe86a468	-0.26297307
108	0xbe90a2d6	-0.28249234
109	0xbec332df	-0.3812475
110	0xbe198867	-0.1499344
111	0xbda0a9cd	-0.07844887
112	0x3de76841	0.11299182
113	0x3e1cf9bc	0.15329641
114	0x3df925b9	0.12165398
115	0x3bb43da9	0.0055005145
116	0xbdb74268	-0.08948213
117	0xbe2cf09c	-0.1688866
118	0xbef3cd5c	-0.47617614
119	0xbe8b2d45	-0.27182975
120	0xbcd8e30a	-0.026475448
121	0x3d697c56	0.05700334
122	0x3e187345	0.14887722
123	0x3e14c668	0.14528811
124	0xbb9d7484	-0.0048051495
125	0xbc830a1f	-0.015996037
126	0x3ca393cf	0.019967942
127	0xbd5fa27e	-0.054598324
128	0xbbe06d51	-0.006848969
129	0x3d2fd4ab	0.042927425
130	0xbd35f3e5	-0.04442205
131	0xbd9bc218	-0.0760538
132	0xbe8a4e73	-0.27012977
133	0xbf20bccc	-0.6278808
134	0xbed9cd2d	-0.4253935
135	0xbd5a829c	-0.053347215
136	0x3d7951bf	0.060868975
137	0xbd6ea1db	-0.058259826
138	0x3e0052b3	0.12531547
139	0x3e2e5f28	0.17028487
140	0x3e8b2067	0.2717316
141	0x3e50cc33	0.20390396
142	0x3e4596e5	0.19295843
143	0x3dc054c6	0.09391169
144	0xbd400f8a	-0.04688982
145	0xbe06b42c	-0.13154668
146	0xbe755c16	-0.23960909
147	0xbda6119c	-0.081088275
148	0x3c7928e1	0.0152075
149	0x3dec4f54	0.11538568
150	0x3ddd8a35	0.108173765
151	0x3dde26b6	0.10847227
152	0x3e11e474	0.14247304
153	0x3da66a5e	0.08125757
154	0x3d4bf17d	0.049790848
155	0x3ceed0cc	0.029152296
156	0x3da1bf85	0.078978576
157	0x3d266ee3	0.040633094
158	0xbcccc87e	-0.024997946
159	0xbd4848ba	-0.048897482
160	0xbd8d8128	-0.069094
161	0xbeaceb3b	-0.33773217
162	0xbec12b39	-0.3772829
163	0xbdd19fe6	-0.10235576
164	0x3d434c5f	0.047680255
165	0x3d6c0992	0.057626314
166	0x3e017585	0.12642486
167	0x3ddc6aa7	0.1076253
168	0x3e9f7e2b	0.31150946
169	0x3eaa5f87	0.33276007
170	0x3eaf1b3c	0.34200466
171	0x3e12aff3	0.14324932
172	0x3d819d91	0.063288815
173	0xbdbdff6f	-0.09277236
174	0xbdeedcc3	-0.11663201
175	0xbba4613f	-0.0050164755
176	0xbcd60fad	-0.026130522
177	0x3e2ffa06	0.1718522
178	0x3e28f35f	0.16499089
179	0x3dcb2f2c	0.09921107
180	0x3e1a0521	0.15041019
181	0x3db0e57b	0.0863752
182	0x3d87dac2	0.066335216
183	0x3dbd2826	0.09236173
184	0x3e05acd8	0.13054216
185	0x3d1e63ed	0.038669515
186	0xbc40261c	-0.011727836
187	0xbcc0994f	-0.023510603
188	0xbdbcb026	-0.09213285
189	0xbe0448ff	-0.12918471
190	0xbe419726	-0.18905315
191	0xbd51f78c	-0.05126147
192	0xbd13f997	-0.0361267
193	0xbb0697cd	-0.0020537258
194	0x3e1d335e	0.15351626
195	0x3e752b84	0.23942381
196	0x3e0c22bd	0.13685127
197	0x3e41cb77	0.18925272
198	0x3e38a251	0.18030669
199	0x3dc0ac12	0.0940782
200	0x3d34d830	0.044151485
201	0xbd7fa82b	-0.062416237
202	0x3cb86573	0.022509312
203	0xbdf019e5	-0.11723689
204	0xbe048a40	-0.12943363
205	0x3e343dca	0.17601696
206	0x3db6c667	0.08924561
207	0x3e1595da	0.14607945
208	0x3df36d0d	0.11886034
209	0x3db6e058	0.08929509
210	0x3c95d529	0.01829012
211	0x3d359cbd	0.04433893
212	0x3c757137	0.014980606
213	0xbd97877c	-0.073988885
214	0xbda74d24	-0.0816901
215	0xbd26a782	-0.04068709
216	0xbdfb6bae	-0.12276398
217	0xbd05c02b	-0.03265397
218	0xbd8eb0d9	-0.06967325
219	0xbe3da8ec	-0.1852147
220	0xbe1036f0	-0.14083457
221	0xbc2df3b7	-0.010617188
222	0x3c955161	0.018227281
223	0x3e714726	0.23562297
224	0x3df8e1af	0.12152421
225	0x3e5357aa	0.2063891
226	0x3e2d853e	0.16945359
227	0x3cbb5974	0.022869803
228	0x3df6b09c	0.12045404
229	0x3c4fd3c0	0.0126847625
230	0x3dfea50d	0.12433825
231	0xbd9eaa48	-0.07747322
232	0xbe1c53c0	-0.15266323
233	0x3dc1eab0	0.09468591
234	0x3d973487	0.07383066
235	0x3d85ae36	0.06527369
236	0x3db26e24	0.08712414
237	0xbc050341	-0.008118452
238	0xbcc4b6cf	-0.024012951
239	0x3c9076df	0.017634807
240	0xbcfa33e0	-0.030542314
241	0xbdcd4517	-0.100229435
242	0xbe4ad2c4	-0.19806963
243	0xbe123ae0	-0.14280272
244	0xbe2825ce	-0.16420671
245	0xbdb1fd71	-0.08690918
246	0xbd6f927a	-0.0584893
247	0xbe17c899	-0.14822616
248	0xbe170417	-0.14747654
249	0xbe1e186f	-0.15439008
250	0x3da55ecc	0.08074722
251	0x3e7ca9de	0.24674174
252	0x3e6aee7b	0.22942536
253	0x3e8871de	0.26649374
254	0x3e09c673	0.13454609
255	0x3e031948	0.12802613

fc1.bias f4 [256]
0	0xbbcd9a82	-0.0062745223
1	0xbd7feb2e	-0.062480144
2	0xbcee8a18	-0.029118583
3	0x3dc05c8b	0.09392651
4	0xbd802c84	-0.06258491
5	0xbd937cbb	-0.07201525
6	0xbd614e53	-0.055006336
7	0xbd58eec9	-0.0529621
8	0x3e13bd80	0.14427757
9	0xbd92d03e	-0.07168625
10	0xbd76e612	-0.060278006
11	0x3e38a033	0.18029861
12	0x3d3bd80a	0.045860328
13	0x3dac81eb	0.084232174
14	0xbd1deda5	-0.038556714
15	0xbd3dce24	-0.04633917
16	0x3d374c64	0.044750586
17	0xbd7f434c	-0.06232004
18	0xbd6b7579	-0.057485078
19	0x3e472e96	0.19451365
20	0xbaaca94c	-0.0013173013
21	0xbd989a53	-0.0745131
22	0x3d8d21f6	0.06891243
23	0xbdb79406	-0.0896378
24	0xbf186fa3	-0.59545344
25	0x3cfce4b8	0.03087078
26	0x3c47335c	0.012158241
27	0xbcbc4082	-0.022979978
28	0xbd53e936	-0.05173608
29	0xbd2f186c	-0.0427479
30	0x3e56d68f	0.20980285
31	0xbd0c4e12	-0.03425414
32	0xbdb5e32c	-0.0888122
33	0xbe19c18d	-0.1501524
34	0x3e88c22c	0.2671064
35	0xbc4d72c8	-0.012539573
36	0xbe3ad5d6	-0.18245634
37	0xbd08856e	-0.033330373
38	0x3e74dba6	0.23911914
39	0x3e1c1186	0.1524106
40	0x3c8556bd	0.016276712
41	0x3d3e50ab	0.04646365
42	0xbdb66744	-0.08906415
43	0xbda60e95	-0.0810825
44	0xbdb90b64	-0.09035376
45	0xbc9ff3e4	-0.019525476
46	0xbefd18b5	-0.49432912
47	0x3ec9c7a3	0.39410123
48	0x3e980f23	0.29699048
49	0xbd7bf886	-0.061516307
50	0xbd39428d	-0.045229483
51	0x3ed8157f	0.422039
52	0xbd9714c6	-0.07377009
53	0xbd4c808a	-0.049927272
54	0xbd863269	-0.06552584
55	0x3e13fa27	0.14450894
56	0x3e0a36e6	0.13497505
57	0xbd646c69	-0.05576745
58	0xbe1b620f	-0.15174125
59	0xbd4671e3	-0.048448455
60	0x3f2e7b74	0.68157125
61	0xbd6d387b	-0.057915192
62	0x3db20496	0.08692281
63	0xbd9c3e37	-0.07629054
64	0x3d58dbe2	0.05294407
65	0xbda2a309	-0.07941253
66	0xbe844834	-0.25836337
67	0xbd8659c2	-0.06560089
68	0xbd60c2e9	-0.05487338
69	0xbd1e394e	-0.03862887
70	0xbe480523	-0.1953321
71	0x3d058aeb	0.032603186
72	0x3e05c6bb	0.13064091
73	0xbd389dbd	-0.045072306
74	0xbc79744c	-0.015225481
75	0xbd9a6c02	-0.07540132
76	0xbe462d0f	-0.19353126
77	0x3eb63b6c	0.3559221
78	0xbcc942c5	-0.024567971
79	0x3e29b3d3	0.16572504
80	0xbbd32f3f	-0.006444841
81	0xbd5247d2	-0.051338024
82	0xbd52d1a8	-0.051469475
83	0xbd4763e5	-0.04867925
84	0xbc932342	-0.017961148
85	0xbd34d7a8	-0.04415098
86	0xbdcf7123	-0.10129001
87	0xbc80159c	-0.015635304
88	0x3e5e4650	0.2170651
89	0xbf15c5b6	-0.5850481
90	0x3e013ef6	0.12621674
91	0xbe2528a3	-0.16128783
92	0xbcc4d482	-0.024027113
93	0xbd4d14eb	-0.050068777
94	0xbefc6bf5	-0.49301115
95	0xbd695f05	-0.056975383
96	0x3e4c9d33	0.19981842
97	0x3eb7e22a	0.35914737
98	0xbdb39b25	-0.08769826
99	0x3cb98571	0.022646638
100	0x3e1e0543	0.15431695
101	0x3e79cebe	0.24395272
102	0xbd41fb95	-0.047359068
103	0x3dc7d98d	0.097582914
104	0xbf0d907a	-0.5529858
105	0xbd1c24b3	-0.038120937
106	0xbdb6668e	-0.089062795
107	0xbdbeb772	-0.09312333
108	0xbeb51059	-0.35364035
109	0xbd242138	-0.040070742
110	0xbd47462a	-0.048650898
111	0xbedb89c2	-0.42878538
112	0x3da53950	0.08067572
113	0xbdab2fe3	-0.08358743
114	0xbdf3a4a0	-0.11896634
115	0x3e35ce45	0.17754467
116	0xbdaeb869	-0.08531267
117	0xbda272b3	-0.079320334
118	0xbe9b8e32	-0.30381924
119	0x3e1d09be	0.15335748
120	0x3e93e834	0.28888094
121	0xbd076ab6	-0.03306075
122	0xbd1d4902	-0.038399704
123	0xbdc34ea1	-0.09536482
124	0x3e0ccbeb	0.13749664
125	0x3e7b95a5	0.24568804
126	0xbd99eeac	-0.07516226
127	0x3e8da983	0.2766839
128	0xbe6431c2	-0.22284606
129	0xbe53881f	-0.20657395
130	0x3d94213e	0.07232903
131	0x3d263d16	0.0405856
132	0xbe72edc2	-0.2372351
133	0xbdab8b3e	-0.08376168
134	0x3f09bd28	0.53804255
135	0xb95a4317	-0.00020815093
136	0xbd4b08a6	-0.049568795
137	0x3e9a9786	0.30193728
138	0xbd5443c0	-0.051822424
139	0x3e1aea97	0.15128551
140	0xbdbd7786	-0.09251313
141	0xbd3efe9a	-0.046629526
142	0xbeedd791	-0.46453527
143	0xbd3a2931	-0.04544944
144	0xbd919c9e	-0.071099505
145	0xbea5ff33	-0.32421264
146	0x3d86dfb2	0.06585635
147	0xbd9e4d77	-0.07729619
148	0xbd8c1a5a	-0.06840964
149	0xbe0b0d9d	-0.13579412
150	0xbe041a86	-0.12900743
151	0xbda2170c	-0.07914552
152	0x3e2c2adc	0.16813225
153	0xbd4b0c56	-0.04957231
154	0x3e1a68d7	0.15079056
155	0xbdb685e4	-0.08912256
156	0xbe6953cf	-0.22785877
157	0x3d34b89f	0.04412138
158	0xbd564e79	-0.05232093
159	0xbd280cfe	-0.041028015
160	0xbda98760	-0.08277774
161	0xbdb7b68f	-0.08970367
162	0x3e53822c	0.20655125
163	0xbd27d4be	-0.04097437
164	0x3ece2b06	0.402672
165	0xbdc11fc1	-0.09429885
166	0xbd91bcc3	-0.071160816
167	0xbe8c4ef9	-0.27404
168	0xbd0581c8	-0.032594472
169	0xbcf7779a	-0.030208398
170	0x3ea05451	0.31314328
171	0x3dc28de3	0.09499719
172	0xbd487884	-0.048943058
173	0xbd59d110	-0.053177893
174	0x3cdf8fdd	0.027290279
175	0x3e23afac	0.15984982
176	0xbd3acb22	-0.04560388
177	0x3e95eaae	0.2928061
178	0xbd9b58ca	-0.075852945
179	0xbd6606b3	-0.056158733
180	0xbd23f760	-0.040030837
181	0xbd879280	-0.066197395
182	0x3d282dc9	0.04105929
183	0x3e5b0f75	0.21392615
184	0x3e3c2a73	0.18375568
185	0x3d448a3d	0.047983397
186	0xbd3505a4	-0.044194832
187	0xbd89b546	-0.06724028
188	0xbdb897d8	-0.09013337
189	0xbe24388f	-0.160372
190	0xbd8d28c5	-0.06892542
191	0xbe0f0545	-0.13966854
192	0x3d5064db	0.050877433
193	0x3da0ef57	0.078581505
194	0xbc88d564	-0.016703315
195	0x3f0fd4b5	0.5618394
196	0xbedc17c4	-0.42986882
197	0x3e126ec2	0.14300063
198	0xbe1a51c5	-0.15070255
199	0xbd722a90	-0.059122622
200	0xbd9bc491	-0.076058514
201	0x3d852c12	0.06502546
202	0x3db5ca01	0.0887642
203	0xbd313283	-0.043261062
204	0x3e734dc2	0.23760131
205	0xbc67c5bf	-0.014146267
206	0xbdb95fe5	-0.090514936
207	0xbd7ce7c7	-0.061744478
208	0x3e4664b9	0.1937436
209	0xbdf90909	-0.121599264
210	0x3f174a2e	0.59097564
211	0xbf15d785	-0.5853198
212	0xbd884ddc	-0.066554755
213	0xbd589e4a	-0.05288533
214	0xbd5f7610	-0.054555953
215	0xbcd0ccd9	-0.025488304
216	0x3e1f23ab	0.1554095
217	0x3e3b2944	0.1827746
218	0x3e11efbb	0.14251606
219	0xbe2c4d95	-0.1682647
220	0x3dfd3c82	0.123650566
221	0xbd9dd2eb	-0.07706245
222	0xbdd51d7f	-0.104060166
223	0xbdec5872	-0.11540307
224	0xbdaa7bb7	-0.08324378
225	0xbd48464f	-0.048895177
226	0x3e4afd44	0.19823176
227	0xbe599d4e	-0.21251413
228	0xbe350e0a	-0.17681137
229	0x3eb9fcd4	0.36325705
230	0xbd4c1c00	-0.04983139
231	0xbc6b9840	-0.014379561
232	0xbd713a6a	-0.0588936
233	0xbd2e2832	-0.042518802
234	0x3f41de3a	0.75729716
235	0x3ebc88aa	0.36823016
236	0xbcc75a96	-0.024335187
237	0xbd2878db	-0.04113088
238	0x3d276988	0.040872127
239	0x3e510ca0	0.20414972
240	0xbcd12fcc	-0.025535487
241	0x3eb02e85	0.34410492
242	0x3e5c1552	0.21492508
243	0x3e57d42d	0.21077032
244	0x3d85bc91	0.06530107
245	0xbd63b38b	-0.055591147
246	0xbd71991c	-0.058983907
247	0xbe6cd79e	-0.23129126
248	0xbd93fa53	-0.0722548
249	0xbd113f85	-0.035460968
250	0x3eba1fb0	0.363523
251	0x3e287f7e	0.16454884
252	0x3e038d47	0.12846862
253	0x3d1d77f8	0.03844449
254	0xbd38fda3	-0.04516376
255	0xbd780912	-0.060555525

fc2.weight f4 [128, 256]
0	0xbd10f7ee	-0.035392694
1	0xbd4e4d5b	-0.05036674
2	0x3c7f591a	0.015585208
3	0xbd6b1393	-0.057391714
4	0xbcfd0b42	-0.030889157
5	0xbd2a8d93	-0.041638922
6	0x3daedb08	0.08537871
7	0xbcbb3c6d	-0.022855962
8	0xbd3fae27	-0.046796944
9	0x3ccf719a	0.025322724
10	0xbd5576a8	-0.052115113
11	0xbc3c440f	-0.011490836
12	0x3d290f4d	0.041274358
13	0xbd5562b3	-0.05209608
14	0xbddeacca	-0.10872801
15	0xbd48cb1c	-0.049021825
16	0xbe04662f	-0.12929605
17	0xbdc5f2f1	-0.09665478
18	0xba35f51c	-0.0006941126
19	0xbc5c3868	-0.013441183
20	0xbe084644	-0.13308054
21	0x3d40b3c3	0.047046434
22	0xbdbe6183	-0.09295943
23	0xbb908b3f	-0.0044111307
24	0xbd36d94e	-0.04464083
25	0xbc7dfabc	-0.015501674
26	0xbd78caac	-0.060740158
27	0xbdc93800	-0.09825134
28	0xbd81d367	-0.0633915
29	0xbdab36ab	-0.083600365
30	0xbcbabb0e	-0.022794273
31	0xbd71e770	-0.059058607
32	0xbdb80cb3	-0.08986797
33	0xbbbc921f	-0.0057547237
34	0xbd8102d9	-0.06299371
35	0x3b46b487	0.0030320005
36	0xbc460c03	-0.012087825
37	0xbdabdbe5	-0.08391551
38	0xbcdf6969	-0.027271943
39	0xbd20b4e0	-0.039234996
40	0xbd3bb4f0	-0.045826852
41	0xbe0470f8	-0.12933719
42	0xbd2a4086	-0.04156544
43	0xbdf12db4	-0.11776295
44	0xbd810e07	-0.06301504
45	0xbd12eb00	-0.035868645
46	0x3ba1bc17	0.004935752
47	0xbdc5a2ca	-0.0965019
48	0xbda712e3	-0.08157899
49	0xbd3f6247	-0.046724584
50	0xbcf26e41	-0.029593589
51	0xbbe36ac6	-0.0069402186
52	0x3d2a29d0	0.04154378
53	0xbd9e486d	-0.07728658
54	0xbad20f65	-0.0016026316
55	0x3cfe9afd	0.031079764
56	0xbdc658b5	-0.09684888
57	0x3c8cbd8d	0.017180229
58	0xbd8395bf	-0.06425046
59	0x3d6874b2	0.056751914
60	0x3d97b2fe	0.07407187
61	0xbd160d10	-0.03663355
62	0xbcf3450f	-0.029696016
63	0xbd88f36e	-0.066870555
64	0xbc8675a6	-0.016413521
65	0x3d72f435	0.059314925
66	0xbdd4fb3a	-0.1039948
67	0xbdacf3ed	-0.08444963
68	0xbd9cded4	-0.076596886
69	0xbd286734	-0.041114047
70	0xbd6fe0e1	-0.05856407
71	0xbdeb7ec6	-0.114987895
72	0xbdd49112	-0.103792325
73	0xbd952977	-0.072832994
74	0xbde1eda6	-0.11031656
75	0xbdb344e4	-0.08753374
76	0xbccd6462	-0.02507228
77	0x3ca40c1f	0.020025311
78	0xbda2bdc2	-0.0794635
79	0x3bbcea24	0.0057652164
80	0xbd2238ac	-0.039604828
81	0xbdac0c00	-0.08400726
82	0xbbf58260	-0.0074923486
83	0x3d90b43b	0.07065626
84	0xbc594e2b	-0.013263266
85	0x3dc29854	0.095017105
86	0x3d80a5d0	0.06281626
87	0xbdd6f165	-0.10495261
88	0xbdd5d34a	-0.10440691
89	0xbbd2b1d2	-0.0064298892
90	0xbd1309b9	-0.035897944
91	0xbdf46382	-0.11933042
92	0xbd8e9b65	-0.06963233
93	0xbd8c7ce9	-0.06859762
94	0xbddcad24	-0.107752115
95	0x39a1659f	0.00030784027
96	0xbcc1ce59	-0.023657965
97	0xbd3e0c05	-0.04639818
98	0x3d604f04	0.054762855
99	0xbd96f067	-0.07370072
100	0xbd896751	-0.06709159
101	0xbd0db310	-0.034594595
102	0xbd464f7b	-0.048415642
103	0xbdbee1b2	-0.09320392
104	0xbd8a9c25	-0.067680635
105	0xbd7b7d7e	-0.061398976
106	0xbd9715a8	-0.073771775
107	0xbd8ffdb2	-0.070308104
108	0xbe043e78	-0.12914455
109	0xbdcf57c6	-0.10124163
110	0xbc7f991f	-0.015600472
111	0xbdd8607d	-0.10565279
112	0xbd7b19ea	-0.06130401
113	0x3de187be	0.11012219
114	0xbcdf1833	-0.027233219
115	0xbd7a6e38	-0.06114027
116	0xbd6ac1bc	-0.057313666
117	0xbd6abe6c	-0.057310507
118	0xbce57b05	-0.028012762
119	0xbd13d304	-0.036089912
120	0xbd3bd1d6	-0.045854412
121	0xbd6448e9	-0.055733595
122	0xbe07baa0	-0.13254786
123	0x3d1377c0	0.036002874
124	0xbd31390d	-0.0432673
125	0xb99cbfd6	-0.00029897568
126	0xbca8bed0	-0.020598799
127	0xbc89ea8b	-0.016835472
128	0xbdecf0e0	-0.11569381
129	0xbd1e71d8	-0.03868279
130	0xbd8f8a3a	-0.070087865
131	0xbdf9c582	-0.12195875
132	0xbcc929b8	-0.024556026
133	0xbd423b94	-0.0474201
134	0x3dd6bd2e	0.10485302
135	0x3c8ff0fd	0.017570967
136	0x3ca764b5	0.020433763
137	0xbd643b73	-0.055720758
138	0xb9cd9fc9	-0.00039219696
139	0xbd370806	-0.044685386
140	0xbcd81214	-0.026375808
141	0xbd4e75af	-0.0504052
142	0xbd1e820a	-0.038698234
143	0x3d85c97a	0.06532569
144	0x3d2c5eb4	0.042082503
145	0xbd48c24f	-0.049013432
146	0xbd1977ed	-0.037467886
147	0xbdc3b917	-0.095567875
148	0xbd8c778f	-0.068587415
149	0xbd1de032	-0.038543887
150	0xbdcf7e87	-0.10131555
151	0xbb6cc84c	-0.0036130128
152	0xbd47cd74	-0.04877992
153	0xbdb03249	-0.08603341
154	0xbd92b2de	-0.071630225
155	0x3c429216	0.01187565
156	0xbdd43753	-0.10362115
157	0xbb33d9a5	-0.0027442959
158	0xbdece091	-0.1156627
159	0xbda99852	-0.08281006
160	0xbdc75240	-0.09732485
161	0xbd287725	-0.04112925
162	0x3c1e7af0	0.009672865
163	0xbde839b6	-0.113391325
164	0xbbbf347f	-0.0058351154
165	0xbdf22ecb	-0.11825331
166	0xbd02f69d	-0.03197347
167	0xbe0553b7	-0.13020216
168	0xbd5aff0e	-0.053465895
169	0xbd02dc1a	-0.031948186
170	0x3ccd0b18	0.025029704
171	0xbd337ea6	-0.043821953
172	0xbd1c9a26	-0.038232945
173	0x3d0eb428	0.03483978
174	0x395762bc	0.00020540779
175	0xbd0e05f3	-0.034673642
176	0xbd1d416c	-0.03839247
177	0xbc08be24	-0.008346114
178	0xbbe07deb	-0.006850948
179	0x3db651a8	0.089022934
180	0xbc9f748c	-0.019464754
181	0x3db954f2	0.09049405
182	0x3c3712a2	0.011173876
183	0x3c6a38cc	0.014295768
184	0xbd0eb930	-0.034844577
185	0x3c767ff2	0.015045153
186	0xbd99aeef	-0.07504069
187	0xbdb0adfd	-0.08626936
188	0x3d3652f2	0.044512697
189	0xbcf4d965	-0.029888818
190	0xbdbe5e68	-0.0929535
191	0xbde734ed	-0.11289392
192	0xbd5c074c	-0.053717896
193	0xbcd3ff16	-0.02587847
194	0xbccf305d	-0.025291616
195	0xbb887c51	-0.0041652103
196	0xbd07532b	-0.0330383
197	0xbc9d3e35	-0.019194702
198	0xbdea4ed3	-0.11440816
199	0x3b6dbcd5	0.0036275883
200	0xbbaa3dee	-0.005195371
201	0x3c619167	0.013767577
202	0xbd1c162c	-0.038107082
203	0x3ca58991	0.020207198
204	0x3df43bcc	0.11925468
205	0xbd62eec8	-0.0554035
206	0xbdddb106	-0.1082478
207	0xbcbc208e	-0.022964742
208	0xbd77c0d7	-0.06048664
209	0xbd3825a1	-0.04495776
210	0xbd03b94e	-0.032159142
211	0xbcd71533	-0.026255226
212	0xbd7ab268	-0.061205298
213	0x3cbf5cf7	0.023359759
214	0xbdc6292c	-0.09675822
215	0xbd462661	-0.048376445
216	0xbca2c918	-0.01987128
217	0xbd6d1f3f	-0.057891127
218	0xbcf6768e	-0.030085828
219	0xb9ac9081	-0.0003291406
220	0xbdeb48d2	-0.11488499
221	0xbcdc6d6e	-0.026907649
222	0xbdba92d8	-0.091100395
223	0x3c24941f	0.01004508
224	0xbaa1d45e	-0.0012346616
225	0xbd816f43	-0.063200496
226	0xbd9bac0b	-0.07601174
227	0xbdc181e6	-0.09448604
228	0xbc99a3e7	-0.018754913
229	0xbd8a49b1	-0.06752337
230	0xbdca8129	-0.098879166
231	0x3ca82092	0.020523343
232	0xbbaf135a	-0.005342883
233	0xbd7a3eb5	-0.06109496
234	0x3d708ba6	0.05872693
235	0xbca4dc13	-0.02012447
236	0xbda5182e	-0.080612525
237	0x3cec601f	0.028854428
238	0xbd34c78f	-0.044135626
239	0xbd204de3	-0.03913678
240	0x3c9401ad	0.018067205
241	0xbd92f728	-0.071760476
242	0xbbbaf69d	-0.005705668
243	0xbd5ff8d5	-0.054680664
244	0xbc061b7c	-0.008185264
245	0xbd14383a	-0.036186434
246	0xbda1d29d	-0.079014994
247	0x3ba4dded	0.0050313384
248	0x3d6d6423	0.057956826
249	0xbdbf7ab7	-0.09349578
250	0xbd8c93c4	-0.068641216
251	0x3dbaaefe	0.09115408
252	0xbd6a6228	-0.057222515
253	0xbde7fd6f	-0.113276355
254	0xbdf4144e	-0.11917935
255	0x3c1856b5	0.009298016

fc2.bias f4 [128]
0	0xbe044bae	-0.12919495
1	0x3ea977db	0.33099255
2	0xbd9f4a91	-0.07777894
3	0xbe42c73a	-0.19021311
4	0x3ef43146	0.47693843
5	0x3ee8ee12	0.45494133
6	0x3de2b1f8	0.11069101
7	0xbea50d5e	-0.3223676
8	0xbdab18b9	-0.08354325
9	0x3ee4bf44	0.44677174
10	0xbe4932a7	-0.19648229
11	0xbd3cd981	-0.046105865
12	0xbd4f2bbe	-0.050578825
13	0xbe857c0d	-0.26071206
14	0x3f49a620	0.7876911
15	0xbe6abec7	-0.22924338
16	0x3da87361	0.08225132
17	0xbe1d0013	-0.1533206
18	0x3e47a2f2	0.19495752
19	0xbd91b89d	-0.0711529
20	0xbe8284a7	-0.2549183
21	0xbd943533	-0.072367094
22	0xbd948e33	-0.07253685
23	0xbd96ef70	-0.07369888
24	0xbd412d61	-0.047162417
25	0xbe977185	-0.29578796
26	0xbdfd5787	-0.1237021
27	0x3cef1f2b	0.029189667
28	0xbe69c6a9	-0.22829689
29	0x3ed6ae3a	0.419298
30	0x3e018f29	0.12652268
31	0xbd5160a3	-0.05111755
32	0xbd0c8e22	-0.034315236
33	0xbe9541e9	-0.29151848
34	0x3e837056	0.25671643
35	0xbbf25c04	-0.007396223
36	0xbdd6896b	-0.10475429
37	0xbd6a8410	-0.05725485
38	0xbe24b1d8	-0.16083467
39	0xbea63ac4	-0.3246671
40	0xbec5633e	-0.38552278
41	0xbd3a1d49	-0.045438085
42	0x3d8ec45a	0.06971045
43	0xbdea4660	-0.11439204
44	0xbcc20289	-0.02368285
45	0x3e4ac317	0.19800983
46	0xbd99a31f	-0.07501816
47	0x3e047a1f	0.1293721
48	0xbe36d9fe	-0.17856595
49	0x3ead1893	0.3380781
50	0xbe8dadfe	-0.27671808
51	0x3e52e440	0.20594883
52	0xbd4d172a	-0.05007092
53	0xbe29be71	-0.16576554
54	0xbdf2a906	-0.11848645
55	0x3e9f9717	0.3116996
56	0xbcbacb26	-0.022801947
57	0x3d46a945	0.04850127
58	0xbedf3767	-0.43596956
59	0xbc6e76ff	-0.014554738
60	0x3ec17a83	0.37788782
61	0x3e3f506f	0.18683027
62	0xbe437c0a	-0.19090286
63	0xbd816e62	-0.06319882
64	0xbc81b54a	-0.015833516
65	0x3d8f66c3	0.07002022
66	0xbe5c63da	-0.21522465
67	0x3e42b27c	0.19013399
68	0xbdde85d0	-0.108653665
69	0xbc227a78	-0.009916894
70	0xbdb9d769	-0.09074289
71	0x3eba738b	0.36416277
72	0xbd020d4e	-0.03175097
73	0x3eb98aa3	0.36238584
74	0xbe0adf83	-0.13561825
75	0xbc86aa31	-0.016438575
76	0xbd50c4da	-0.050968982
77	0x3defe6b4	0.11713925
78	0x3ea1b66a	0.31584483
79	0xbdf92074	-0.12164393
80	0x3cf8c031	0.030365082
81	0x3e9c7e0f	0.30564925
82	0xbddfa8e6	-0.10920887
83	0xbe911b5f	-0.28341195
84	0x3d50054e	0.05078631
85	0xbd73c2ec	-0.059512064
86	0xbb82f39b	-0.003996325
87	0x3edef6da	0.43547708
88	0xbd9c5381	-0.076331146
89	0x3ea3230b	0.31862673
90	0x3df7ac48	0.12093407
91	0xbe00f008	-0.12591565
92	0xbe3aebcb	-0.1825401
93	0xbccb24e1	-0.024797859
94	0xbe365450	-0.178056
95	0xbcf2ab78	-0.029622778
96	0xbcb35bf9	-0.021894442
97	0xb92b117b	-0.00016314343
98	0xbd70661e	-0.058691137
99	0xbdebdba1	-0.115165
100	0x3d8eccc9	0.069726534
101	0xbe81a3a7	-0.2532017
102	0x3e3fcbc1	0.1873007
103	0xbdc1801e	-0.094482645
104	0xbe067910	-0.13132119
105	0x3e3bd460	0.18342733
106	0x3d4cc44d	0.049991895
107	0xbd8aabd2	-0.067710534
108	0x3e235168	0.15949023
109	0x3da6600e	0.0812379
110	0x3ec00f2a	0.3751157
111	0xbe92ad0d	-0.28647652
112	0x3e55fdab	0.20897548
113	0xbecbe675	-0.39824262
114	0xbdc874b1	-0.09787882
115	0xbe317cbd	-0.1733274
116	0xbdacdd2e	-0.08440624
117	0xbd921a50	-0.07133925
118	0x3f0d38b1	0.5516463
119	0xbe6de64e	-0.23232386
120	0xbe1e7c15	-0.15477021
121	0xbdb381c2	-0.08764984
122	0xbc5792b3	-0.013157534
123	0x3e84a133	0.25904235
124	0xbecfa60d	-0.40556374
125	0x3c30a072	0.010780441
126	0xbd14058e	-0.03613811
127	0xbe2ac0f1	-0.16675164

fc3.weight f4 [64, 128]
0	0x3d24dee7	0.04025164
1	0xbd8324f5	-0.06403533
2	0x3cc8b021	0.024498047
3	0x3c01e0d9	0.007927143
4	0xbd566ebf	-0.05235171
5	0xbd33db83	-0.043910515
6	0x3d6794a5	0.056538243
7	0x3e1866d7	0.1488298
8	0xbd854ce6	-0.06508808
9	0xbdb33f31	-0.08752287
10	0xbe1c50e3	-0.15265231
11	0xbe03311b	-0.12811701
12	0xbe01c29d	-0.12671895
13	0x3e0dd0ed	0.1384923
14	0xbb58e0cf	-0.003309298
15	0x3d69cde2	0.05708111
16	0x3d9fe57b	0.07807442
17	0x3e0b88ff	0.13626479
18	0x3d0f2480	0.03494692
19	0x3cc53014	0.024070777
20	0xbe18dc74	-0.14927846
21	0x3d1826a8	0.03714624
22	0xbd934ae5	-0.071920194
23	0xbd5f643c	-0.05453895
24	0x3df29e68	0.1184662
25	0x3beae60d	0.0071685375
26	0xbbee109b	-0.007265163
27	0x3dcca816	0.09992997
28	0x3cee4194	0.029084004
29	0xbc32b486	-0.010907298
30	0xbd742177	-0.059602227
31	0x3bd305c9	0.0064398986
32	0xbddc37ad	-0.10752807
33	0xbe80513c	-0.25061977
34	0x3baefa2b	0.005339881
35	0x3cb69152	0.022286091
36	0xbcb313aa	-0.021859962
37	0xbc895957	-0.016766233
38	0x3cc48b03	0.023992067
39	0xbd2a74e2	-0.041615374
40	0x3dd020de	0.10162519
41	0xbe0467c0	-0.12930202
42	0xbd188b95	-0.03724249
43	0xbd09eacd	-0.03367119
44	0xbd1003c8	-0.035159856
45	0x3d0ca119	0.034333322
46	0xbc00e6ec	-0.007867556
47	0x3d0abafb	0.033869725
48	0xbcd540a8	-0.026031807
49	0xbd82b2a9	-0.06381733
50	0x3e05817a	0.13037673
51	0x3d3d70f7	0.04625031
52	0x3d6745c8	0.056463033
53	0x3c644629	0.013932743
54	0x3d957b6d	0.07298932
55	0xbe184728	-0.14870894
56	0xbc7f4f02	-0.015582802
57	0x3d6e1f5e	0.058135383
58	0x3e1cc7f5	0.15310653
59	0x3cdfe7b9	0.027332174
60	0xbe28b9c5	-0.16477115
61	0x3d35573e	0.044272654
62	0x3d180e00	0.037122726
63	0x3ca182c0	0.019715667
64	0x3ced6747	0.02897991
65	0xbe206fc6	-0.15667638
66	0xbe0b01dc	-0.13574928
67	0xbbe9dcf8	-0.007136937
68	0xbad2070d	-0.001602383
69	0x3c854a79	0.016270863
70	0x3c05c9fe	0.0081658345
71	0xbd8baf00	-0.06820488
72	0xbad3b255	-0.001615117
73	0x3cae0331	0.021241756
74	0xbb1cab95	-0.0023905982
75	0xbd2cfaaa	-0.04223124
76	0xbd013e98	-0.031553835
77	0xbe3d9260	-0.18512869
78	0xbb8fb352	-0.0043853903
79	0xbdfc87e3	-0.12330606
80	0xbcc8c713	-0.024508988
81	0x3d330351	0.043704335
82	0xbdb43569	-0.0879925
83	0x3db12370	0.08649337
84	0xbdb08565	-0.08619193
85	0xb9e004d3	-0.00042728204
86	0x3b9377ec	0.00450038
87	0xbe05b120	-0.13055849
88	0x3cba1a74	0.022717692
89	0x3cf98afa	0.030461777
90	0xbc1dc4e1	-0.009629459
91	0x3e0023f9	0.12513722
92	0xbe1f18c2	-0.15536788
93	0xbe0ce30c	-0.13758487
94	0x3d9944dc	0.07483837
95	0x3d1264c3	0.035740625
96	0xbd5c4cda	-0.05378423
97	0xbd552ef7	-0.052046742
98	0xbcde3b92	-0.027128015
99	0xbc004a5f	-0.007830231
100	0x3bf187ff	0.0073709483
101	0x3d9a490e	0.07533465
102	0x3c0c79c2	0.008573951
103	0x3d8ae0f1	0.067811854
104	0x3cf9fee3	0.030517047
105	0xbd741b64	-0.059596434
106	0x3c9714c6	0.018442523
107	0xbdd19425	-0.102333345
108	0xbdf9d9e3	-0.12199762
109	0xbd411ed7	-0.04714855
110	0xbdbd4eab	-0.0924352
111	0x3d35378e	0.044242434
112	0x3bdd5c39	0.0067553786
113	0x3dab7c4e	0.083733186
114	0x3bdf1ed5	0.0068090954
115	0x3c5a8799	0.013337993
116	0xbd39031d	-0.045168985
117	0x3d8f37fd	0.06993101
118	0xbdd30ab8	-0.10304779
119	0xbc98ff24	-0.018676348
120	0x3c57fee6	0.013183331
121	0xbd30e104	-0.04318334
122	0x3d841f2b	0.06451257
123	0x3ceaf90f	0.028683214
124	0x3de4d3c6	0.11173205
125	0xbde9081d	-0.113785006
126	0xbe55ef9f	-0.2089219
127	0xbdfb9981	-0.12285138
128	0xbcc7cb57	-0.024388952
129	0xbd893329	-0.06699211
130	0x3d91e923	0.071245454
131	0xbe17e517	-0.14833485
132	0x3d356887	0.04428914
133	0xbc467127	-0.012111939
134	0xbddbb729	-0.107282944
135	0x3e03bf6e	0.12865993
136	0xbd9efec7	-0.07763439
137	0x3d93bbd0	0.07213557
138	0xbd675fe9	-0.05648795
139	0xbc43b915	-0.011945982
140	0xb9bbc1f8	-0.00035811937
141	0xbd51fffc	-0.051269516
142	0xbdfd7bb3	-0.123771094
143	0xbc92dd4d	-0.01792779
144	0xbdd3ab02	-0.103353515
145	0x3dbfd5f5	0.09366981
146	0x3d41950e	0.04726129
147	0x3e07727a	0.13227263
148	0x3e1c384b	0.15255849
149	0xbca64c65	-0.0203001
150	0xbdade48e	-0.08490859
151	0xbd76f208	-0.060289413
152	0xbd2998f2	-0.041405626
153	0xbdcc03f9	-0.09961695
154	0xbd882ca0	-0.066491365
155	0xbc0e0888	-0.008669026
156	0x3bbe7033	0.005811715
157	0x3ddf1d41	0.108942516
158	0xbd8eb08e	-0.06967269
159	0x3d13dbb0	0.036098182
160	0xbe001ebc	-0.12511724
161	0x3dc671ca	0.09689672
162	0xbc9734e6	-0.018457841
163	0xbc87b0c1	-0.016563775
164	0x3bedd46d	0.007257989
165	0x3c60a8d2	0.013712125
166	0x3e0ace52	0.13555267
167	0xbdc5f7c8	-0.09666401
168	0xbd51d7cd	-0.051231194
169	0x3d260272	0.040529676
170	0xbd9c5912	-0.07634176
171	0xbdee98fb	-0.116502725
172	0xbda4bb7b	-0.080435716
173	0x3cf662c8	0.0300764
174	0x3cedfeb0	0.029052109
175	0x3d19f008	0.037582427
176	0x3d47b4e8	0.04875651
177	0xbcd14298	-0.02554445
178	0x3dc7f8c1	0.09764243
179	0x3dd08a23	0.101825975
180	0xbe238b44	-0.15971094
181	0x3cc7a72a	0.024371702
182	0x3ddaadd9	0.1067769
183	0x3c5403ad	0.0129403295
184	0x3d460cba	0.04835198
185	0x3ca11cbc	0.019667022
186	0xba0fd366	-0.0005486518
187	0x3da99bf7	0.08281701
188	0xbe034077	-0.1281756
189	0x3de02d60	0.109461546
190	0x3d927a4c	0.071522325
191	0x3d9207c6	0.07130389
192	0xbc834ae1	-0.016026916
193	0xbd07659e	-0.033055894
194	0x3e9afb67	0.3026993
195	0xbe47b382	-0.1950207
196	0xbdd26c10	-0.102745175
197	0xbdefd75d	-0.11710999
198	0xbd90877c	-0.070570916
199	0xbbe01634	-0.0068385843
200	0xbb9a92a0	-0.004717186
201	0x3b9cba0a	0.00478292
202	0x3e8d8e51	0.2764764
203	0x3d0b2eeb	0.03398029
204	0xbd0d43f7	-0.034488644
205	0xbdd4d012	-0.10391249
206	0x3caf9882	0.021435026
207	0xbe39bec7	-0.18139182
208	0xbdf234ee	-0.11826502
209	0x3c21c553	0.009873706
210	0xbd43316b	-0.04765455
211	0x3d487753	0.04894192
212	0xbc1bb6c1	-0.009504021
213	0xbdca9367	-0.09891396
214	0xbc9f9206	-0.01947881
215	0x3db609a7	0.0888856
216	0xbca30d98	-0.019903943
217	0xbd24d00d	-0.040237475
218	0xbd8063c6	-0.0626903
219	0x3e0072a9	0.1254374
220	0xbdea6d23	-0.114465974
221	0xbb147ac4	-0.0022656182
222	0x3d82821a	0.06372471
223	0xbdcfd9ff	-0.10149001
224	0x3b801992	0.003909298
225	0xbdf00c2f	-0.11721074
226	0x3d7c9398	0.061664194
227	0xbe393479	-0.18086423
228	0xbdcdc6c3	-0.100476764
229	0x3dc47ca6	0.09594087
230	0xbcbb0fdd	-0.022834713
231	0x3d637e11	0.05554015
232	0x3b9d64c6	0.004803273
233	0x3d79382d	0.06084459
234	0xbca71f66	-0.020400714
235	0xbd83d4dd	-0.06437085
236	0xbe0ef435	-0.13960345
237	0x3d2aef11	0.041731898
238	0x3de92bc2	0.11385299
239	0xbcd9fadb	-0.026608875
240	0xbd0b6067	-0.034027483
241	0xbd151ca4	-0.036404267
242	0xbd62dce3	-0.055386435
243	0x3d22fb38	0.039790362
244	0x3d1319b6	0.03591319
245	0xbdcf44b1	-0.10120524
246	0xbdccd013	-0.100006245
247	0xbd86fb10	-0.06590855
248	0x3c675014	0.014118213
249	0xbdadb24a	-0.084812716
250	0xbc909566	-0.017649364
251	0xbc684a59	-0.014177882
252	0x3d732ee4	0.05937089
253	0xbdb3f58b	-0.08787068
254	0x3d5111a2	0.051042207
255	0x3df41b8f	0.11919319

fc3.bias f4 [64]
0	0xbed428b1	-0.41437295
1	0xbdce062d	-0.10059772
2	0xbe5aa84a	-0.2135326
3	0xbdac592d	-0.084154464
4	0xbe0074b5	-0.1254452
5	0xbe1b5b8a	-0.15171638
6	0x3e12cfa8	0.14337027
7	0x3edc6ccb	0.43051752
8	0x3d36de92	0.044645853
9	0x3e6df00a	0.23236099
10	0xbeb0b530	-0.34513235
11	0xbc6d69c5	-0.014490549
12	0xbb950d5d	-0.004548712
13	0xbdfbb86a	-0.122910336
14	0x3e8354c1	0.256506
15	0xbd2cf580	-0.042226315
16	0xbdf8b72e	-0.12144314
17	0xbd0b4090	-0.03399712
18	0xbd3ad635	-0.04561444
19	0xbe09fd1d	-0.13475461
20	0x3c76266b	0.015023808
21	0xbdb7b9fb	-0.0897102
22	0x3f169c56	0.588323
23	0xbcf086ca	-0.029361147
24	0x3e750044	0.23925883
25	0xbe20849e	-0.1567559
26	0x3e953f58	0.2914989
27	0x3ecfb3c8	0.4056685
28	0x3eb3cb36	0.35115975
29	0xbd87406c	-0.06604084
30	0x3e2bf594	0.167929
31	0xbd13dca3	-0.036099087
32	0x3f05342f	0.5203275
33	0xbe8951de	-0.26820272
34	0x3e6bad8a	0.23015419
35	0x3de637e7	0.11241131
36	0xbde5576f	-0.11198317
37	0x3ee27c34	0.44235384
38	0x3ef2dd00	0.47434235
39	0x3e90a1eb	0.28248534
40	0xbd5cd118	-0.053910345
41	0x3eb3bdfc	0.35105884
42	0xbbed29b4	-0.0072376374
43	0xbddfaf4d	-0.10922108
44	0xbe066eb0	-0.13128161
45	0xbe02a840	-0.12759495
46	0x3ecf5eeb	0.40502104
47	0xbca81546	-0.020517956
48	0xbdb74b79	-0.08949942
49	0x3ddd85e8	0.10816556
50	0xbd6693b3	-0.0562932
51	0xbd54c0b6	-0.051941596
52	0xbe0b5b9a	-0.13609162
53	0xbec53939	-0.3852022
54	0x3ebe0010	0.37109423
55	0x3d59ede7	0.053205397
56	0x3e85c9b4	0.2613045
57	0xbd999cd1	-0.075006135
58	0x3bc4cee9	0.006006111
59	0xbde55052	-0.111969605
60	0x3f0ed95d	0.5580042
61	0xbe0a8800	-0.13528442
62	0xbd452fb2	-0.04814119
63	0xbd3f5922	-0.046715863

fc4.weight f4 [10, 64]
0	0xbe028a5c	-0.12748092
1	0xbce7f87f	-0.028316734
2	0x3d9eecf4	0.07760039
3	0xbcb8f8b7	-0.022579534
4	0xbc0a6839	-0.0084477
5	0xbd2013f1	-0.039081518
6	0xbdf5a147	-0.11993652
7	0x3d0d11ff	0.03444099
8	0xbd2805ec	-0.041021273
9	0x3e58afe1	0.21160842
10	0xbddb4bf9	-0.1070785
11	0xbd4e45a2	-0.050359376
12	0x3e191579	0.14949597
13	0x3dcf2061	0.10113598
14	0xbe0c937c	-0.13728136
15	0xbd6aaecd	-0.05729561
16	0xbdde3a12	-0.1085092
17	0x3d77ad61	0.06046808
18	0x3c89b9a5	0.016812155
19	0xbd1fbf8b	-0.03900103
20	0xbe73c592	-0.23805836
21	0xbda44e1a	-0.08022709
22	0x3dafcd48	0.08584076
23	0xbe36424e	-0.1779873
24	0xbd8a7cc0	-0.067620754
25	0xbd1b8725	-0.03797068
26	0x3de2e89c	0.11079523
27	0xbd77f629	-0.06053749
28	0xbdf8a028	-0.121399224
29	0xbd2ef16b	-0.042710703
30	0x3d93a501	0.07209206
31	0xbe2f2953	-0.17105608
32	0xbe3beb67	-0.18351518
33	0x3dfabc03	0.12242892
34	0xbeb3656b	-0.35038313
35	0x3dd326d1	0.10310138
36	0xbed58e8c	-0.41710317
37	0xbe4552b6	-0.19269833
38	0x3e52fda3	0.20604567
39	0x3db84bf0	0.08998859
40	0xbe05f4ce	-0.13081667
41	0x3d50bc84	0.050961033
42	0x3d9aead6	0.07564323
43	0x3d5099e1	0.050928
44	0x3d5bd7cf	0.053672608
45	0x3c1f9fa1	0.009742648
46	0x3e019568	0.1265465
47	0x3df0a5e9	0.11750395
48	0x3d8bcf0c	0.068266004
49	0x3ceec19c	0.029145055
50	0xbcf17531	-0.029474827
51	0xbdb0407c	-0.086060494
52	0xbd08d2d5	-0.03340419
53	0x3c537c86	0.012908107
54	0xba937e17	-0.0011252788
55	0x3c79e13b	0.015251453
56	0xbcc081b9	-0.023499357
57	0x3d580cec	0.0527467
58	0x3d75dca2	0.060024865
59	0xbd421d92	-0.04739148
60	0xbeae946a	-0.34097606
61	0x3d5fb19f	0.054612752
62	0x3d1a3776	0.037650548
63	0xbe0bedb4	-0.13664895
64	0xbd8ed04a	-0.06973322
65	0xbe1f8f11	-0.15581919
66	0xbd7f64e7	-0.062352087
67	0x3bcf8196	0.0063325865
68	0x3dfa22f7	0.122137
69	0xbdeea5b5	-0.116527
70	0xbb93a46d	-0.004505685
71	0xbe6ee7c8	-0.23330605
72	0xbe77b17b	-0.24188797
73	0xbc574671	-0.013139353
74	0xbe71b294	-0.23603278
75	0x3c7740fc	0.015091177
76	0xbe067a10	-0.131325
77	0x3e1bf1a1	0.15228893
78	0xbddedf14	-0.108823925
79	0x3c931a84	0.01795698
80	0xbdffa632	-0.12482871
81	0xbd86cb13	-0.06581702
82	0xbc44a422	-0.012002023
83	0x3c212fc1	0.009838046
84	0x3e0a7f40	0.13525105
85	0x3c7bb181	0.015362144
86	0x3d742a4d	0.059610654
87	0xbe47abee	-0.1949918
88	0xbe15fabf	-0.14646433
89	0x3d0830cc	0.03324966
90	0x3e1425e8	0.14467585
91	0x3dc027c9	0.093825884
92	0xbbf26e55	-0.0073984065
93	0xbe00d531	-0.12581326
94	0xbe069216	-0.13141665
95	0xbde0bc91	-0.10973466
96	0xbde2d5bb	-0.11075922
97	0xbd7595ee	-0.059957437
98	0xbe4f70d9	-0.20257892
99	0x3cd68e46	0.026190888
100	0xbe9e66b9	-0.30937746
101	0xbed214af	-0.41031405
102	0xbdf3f8ee	-0.11912714
103	0x3bcb743a	0.0062089236
104	0x3c97c267	0.018525315
105	0x3e0e2505	0.1388131
106	0xbd46b7c7	-0.048515107
107	0x3d8a089d	0.06739924
108	0x3d27c364	0.040957823
109	0xbd9335bb	-0.07187983
110	0x3d4b5dab	0.049649876
111	0xbceb57a6	-0.028728317
112	0xbceac038	-0.02865611
113	0xbeb4a66c	-0.3528322
114	0xbe26c30f	-0.16285346
115	0xbd71906d	-0.058975626
116	0x3e5a6382	0.21327022
117	0x3d1e4c31	0.03864688
118	0xbf0ce15f	-0.5503139
119	0x3da497dd	0.08036778
120	0xbebabb31	-0.3647094
121	0xbe1615d9	-0.14656772
122	0xbdf8db22	-0.12151171
123	0xbd9cdaa2	-0.076588884
124	0xbf349be7	-0.7055039
125	0x3dac8c9f	0.08425259
126	0x3d421cd0	0.04739076
127	0xbd8c0ff1	-0.06838978
128	0xbdf3ebed	-0.11910234
129	0x3d37918f	0.04481655
130	0xbe157c63	-0.14598231
131	0xbe1ee17c	-0.15515703
132	0xbcf74b70	-0.030187339
133	0xbdc8d3ba	-0.09806009
134	0xbba761cf	-0.0051080952
135	0x3dd9b127	0.10629492
136	0x3e0d7c4e	0.1381695
137	0xbdcf3800	-0.10118103
138	0xbe1636e9	-0.14669384
139	0xbd4eeb11	-0.050517146
140	0x3db01952	0.085985795
141	0x3e2473dc	0.16059822
142	0xbd15395d	-0.03643166
143	0x3d3c31a4	0.04594578
144	0x3cac33dc	0.021020822
145	0xbda58f25	-0.08083943
146	0xbe530072	-0.20605639
147	0xbda9065e	-0.082531676
148	0x3dcbc659	0.09949941
149	0x3e1c8697	0.15285717
150	0xbd33df7c	-0.043914303
151	0x39385bf1	0.00017581858
152	0xbe586b41	-0.21134664
153	0x3d98d235	0.07461969
154	0xbe6a00c1	-0.2285185
155	0xbe408973	-0.18802433
156	0x3cb8460f	0.022494344
157	0x3d627c0d	0.055294085
158	0xbd72736f	-0.059192117
159	0x3d77d766	0.060508154
160	0xbea90ecd	-0.33019105
161	0xbdd022b4	-0.10162869
162	0xbd8c831d	-0.068609454
163	0x3e0ee8ab	0.13955943
164	0xbe80aa5b	-0.2512997
165	0xbf08ff09	-0.5351415
166	0x3dfde44e	0.12397061
167	0xbbb62077	-0.0055580693
168	0xbd1d37db	-0.038383346
169	0x3e340f6f	0.17584012
170	0xbd374b83	-0.044749748
171	0x3da4d822	0.080490366
172	0xbd93db5c	-0.07219574
173	0xbd18ccdd	-0.037304748
174	0xbde79d09	-0.11309249
175	0xbe274a24	-0.16336876
176	0xbd8d299a	-0.068927005
177	0x3db72a79	0.08943648
178	0x3d8b0418	0.0678789
179	0xbdc2be56	-0.0950896
180	0xbd96a33c	-0.07355353
181	0x3cfa3a48	0.030545369
182	0xbe5990cc	-0.21246642
183	0xbdcb5913	-0.09929099
184	0xbd34667b	-0.044043045
185	0xbc2fa89c	-0.010721352
186	0x3d07a7b3	0.033118915
187	0xbd94d263	-0.072666906
188	0xbef6705a	-0.48132592
189	0xbc9346a8	-0.017978027
190	0xbdcef7a4	-0.101058275
191	0x3d04524d	0.03230505
192	0xbdfdc895	-0.123917736
193	0x3d74dba5	0.05977978
194	0xbe843a02	-0.25825506
195	0x3cc4d152	0.024025593
196	0xbd6d1162	-0.057877906
197	0xbda721a1	-0.08160711
198	0x3e4c2b8e	0.1993849
199	0xbe7cb8f9	-0.24679936
200	0x3d230ce9	0.039807234
201	0x3cd511bd	0.026009435
202	0xbddbdda7	-0.10735636
203	0xbdf75bec	-0.120780796
204	0x3d4a485d	0.049385417
205	0x3de16e4c	0.110073656
206	0xbd661838	-0.05617544
207	0x3d036a00	0.03208351
208	0xbc6d7c2e	-0.014494939
209	0xbd83bce0	-0.064325094
210	0x3cb0ffe9	0.021606402
211	0xbdbd8f68	-0.09255868
212	0xbdbb0b20	-0.09132981
213	0x3d3578a6	0.044304512
214	0xbe0efe09	-0.13964094
215	0x3d991397	0.074744396
216	0xbe55d718	-0.20882833
217	0xbd90e72d	-0.07075343
218	0x3dd6a3f8	0.10480493
219	0x3e0a3720	0.13497591
220	0xbe1d568d	-0.15365048
221	0xbd2c41cb	-0.042054933
222	0xbe939e81	-0.28831866
223	0xbde7093c	-0.11281058
224	0xbe0def75	-0.13860877
225	0x3c81b000	0.015830994
226	0xbe27479a	-0.16335908
227	0x3e0a8bfd	0.13529964
228	0xbee18e21	-0.44053748
229	0xbe4a8869	-0.19778599
230	0xbd5e93a6	-0.054340027
231	0xbe141f5f	-0.14465092
232	0xbcacbae1	-0.021085205
233	0x3b8d2bf9	0.0043082205
234	0x3d143bc1	0.0361898
235	0xbcd7408e	-0.0262759
236	0x3cdcdb3b	0.026960006
237	0x3d905407	0.07047277
238	0x3e164db7	0.14678083
239	0x3d061a9b	0.032740217
240	0xbdd82208	-0.10553366
241	0xbd93f643	-0.07224705
242	0xbb8e7d7a	-0.004348454
243	0xbe4e473b	-0.2014436
244	0x3ca89f68	0.020583823
245	0xbe0ca3c2	-0.13734344
246	0xbcc94fc3	-0.024574166
247	0x3d213538	0.039357394
248	0xbdc78f4a	-0.09744127
249	0xbd194557	-0.037419643
250	0xbbe77093	-0.0070629804
251	0xbd48426d	-0.048891474
252	0xbf2611d9	-0.64870983
253	0xbd18f706	-0.037344955
254	0x3d146829	0.036232147
255	0x3ceed329	0.029153423

fc4.bias f4 [10]
0	0x3d6a80dd	0.0572518
1	0xbe7b545e	-0.24543902
2	0x3dd22dbd	0.1026263
3	0x3e7acd92	0.24492481
4	0xbeab6473	-0.33475074
5	0x3f19a842	0.60022366
6	0x3ef102e4	0.47072518
7	0xba3ae941	-0.00071300945
8	0xbe390575	-0.18068488
9	0xbec71c9e	-0.3888902
