runs/Mar02_15-47-06_cssd901383-Run(lr=0.01, batch_size=128, patience=1)-valid/checkpoint.pt (torch_old, 972387 bytes, 8 tensors)

fc1.weight f4 [256, 784]
00000000: 00c0 17bc 705e a03b e958 633c 39dd 5b3d
00000010: 1a68 89bd bf28 b13d a577 74bd dc1a c8bc
00000020: 5639 8dbd 0251 64bd 84c6 3bbd 6284 58bd
00000030: ffee 8bbd 4369 c2bd 6eee 7bbd 4eb9 83bd
00000040: 2766 07bd 2949 89bd b4c5 90bd 8aad aebd
00000050: 6aa7 04bd 4779 66bd 751b 21bd 1d64 0cbd
00000060: dc62 adbd 6b9e 82bd 34b8 403c 4fc5 033d
00000070: f0f0 94bc 61bf 083d 8589 98bc e1f5 3bbd
00000080: 86a8 a3bd c09b 92bd fd64 9fbd a2c8 b3bd
00000090: 6ddf acbd c514 9dbd f89c 91bd dea6 83bd
000000a0: 2e8f 53bd 29e0 80bd 5912 83bd 6fba 52bd
000000b0: 899b 10bd 0a23 1ebd 7ca9 e4bc 97dc edbc
000000c0: 0f4a 6cbd 30f5 99bd a5f0 88bd 8426 09bd
000000d0: 0939 66bd 459a 81bd 6d1f e6bc da30 2cbd
000000e0: 9931 9d3d e986 953d 5937 fcbc f284 bebc
000000f0: ec83 64bd 4d5b 953d 990f 68bd b5c4 40bd
00000100: 3703 19bd 6251 a9bd ae41 23bd 7c55 2bbd
00000110: deb2 29bd 191f 2bbd a366 86bd c404 5ebd
00000120: 84a4 08bd 80aa bcbd eca0 47bd 7fc3 babd
00000130: 8464 85bd b56e adbd 8ee6 23bd 2027 ccbc
00000140: 2138 5ebd a30f a1bd 3ad7 9abd 6023 99ba
00000150: 218f 483d dfaa 083d 4016 a33d 81a1 df3c
00000160: ab19 ad3d 8c09 963d c524 71bd ca8a 00bd
00000170: 0cc8 afbd c4cd 15bd 4714 4ebd 1423 adbd
00000180: c341 89bd 7f99 30bd c163 d1bc 78ea afbd
00000190: 762d 8fbd e3c8 93bd cd84 7dbd aeb7 23bd
000001a0: ed50 9dbd aa69 a1bd 3132 bebd 2bca 69bd
000001b0: fb82 a2bd a61c 89bd 8593 b2bd 8c3a 5e3d
000001c0: 00ef 9e3d e325 913d 1027 ef3c 722f a13d
000001d0: e451 ad3d b910 aebd 6262 b5bd c49f 8cbd
000001e0: 2736 40bd 947b b2bd ab88 86bd e6b0 b7bd
000001f0: c981 a7bd dda0 e1bc 0b30 a6bd c3b6 8ebd
00000200: 0e76 17bd 076e 62bd e855 4dbd 3fa3 35bd
00000210: 0905 66bd 929f 8bbd 1186 0abd 2996 8dbd
00000220: 89fc 08bd 9206 b8bd 1870 a9bd 7de8 9bbd
00000230: e3b2 263d 9450 9b3d 93f9 b53d 50c7 1b3d
00000240: 7eb2 b93d 7b47 fcbc aadd 33bd 6d38 b8bd
00000250: 5ba1 22bd c2d7 2abd 3802 fbbc 7b4c 77bd
00000260: c592 b4bd 64d8 85bd feb1 b7bd 89f5 bfbd
00000270: 681d a5bd 2d34 54bd beaa b4bd 2f81 7fbd
00000280: 7861 0abd d9e9 40bd f960 48bd aded bebd
00000290: c733 fcbc 55ad 8ebd cbf5 f13c f8db 97bd
000002a0: 0e87 7f3d f1fe b63d 5d4a a43d 1fba 253d
000002b0: 3ad4 a33d ae23 b3bd ddbb 91bd 8df4 2abd
000002c0: f5c6 5fbd 643a 8bbd 2440 8fbd 493b 00bd
000002d0: 3154 fdbc 8c85 79bd 7169 a7bd 1ad9 55bd
000002e0: f686 ecbc a6a1 6fbd 7d2f 83bd 85ad d7bc
000002f0: 2d8a 61bd 0aeb b7bd 8dd6 52bd 0b0a 58bd
00000300: d78e 3abd 55f1 ac3d ec66 583d e866 553d
00000310: 8892 303d ccf3 b73d 6392 d63c 17fc 7b3d
00000320: 9816 463d 95b3 a1bd 834d 76bd df01 c1bd
00000330: 3d53 aabd 9400 62bd 37aa 71bd c5ce a2bd
00000340: b7d2 52bd c656 a6bd 934b 83bd 3ccf 79bd
00000350: a87b bebd d7be b2bd 70c8 bbbd 7f29 81bd
00000360: 14b0 3ebd 98bf 54bd e785 21bd 37fd 48bd
00000370: db80 2cbd 3f39 f8bc ee9b 29bd e049 bd3d
00000380: f115 003d 0333 ae3d f63c e13c b0c2 0d3d
00000390: ee85 a23d 5918 b7bd 168e 45bd 0609 0dbd
000003a0: 8fc6 92bd f2fb 75bd 6527 72bd 000b afbd
000003b0: 20cb 2dbd de0d 77bd 311f c3bd 4616 39bd
000003c0: 966c aebd 4ae3 a8bd 0774 50bd 626d c2bd
000003d0: 5016 55bd 1af9 95bd 66cc b1bd bac9 29bd
000003e0: ee7a 88bd 6f0d 4e3d be8f b53d e1b3 2b3d
000003f0: e10c af3d 5c9b f33c 84d4 1d3d 00d7 b23d
-0.009262085 0.0048940703 0.013876178 0.05367777 -0.06709309 0.0865035 -0.059684414 -0.02442687
-0.068957016 -0.055741318 -0.045843616 -0.052860625 -0.06832694 -0.09492733 -0.06150668 -0.064318284
-0.033056404 -0.06703407 -0.07068959 -0.08529194 -0.03238622 -0.056268003 -0.039332826 -0.034275163
-0.084661216 -0.06377872 0.011762667 0.03217059 -0.018181294 0.03338564 -0.018620262 -0.045888785
-0.07991128 -0.07158613 -0.07782934 -0.08778502 -0.084410526 -0.07669977 -0.071100175 -0.06428312
-0.05165022 -0.06292755 -0.06399984 -0.05144733 -0.03530458 -0.038607635 -0.027912848 -0.02903585
-0.057687815 -0.07517469 -0.06686524 -0.033483997 -0.056206737 -0.06328253 -0.028091157 -0.042038776
0.076754756 0.07301123 -0.03078811 -0.023256753 -0.055789873 0.07292805 -0.0566555 -0.047062594
-0.03735658 -0.08267476 -0.03985756 -0.04182957 -0.041430347 -0.041777704 -0.06562545 -0.054203764
-0.03336002 -0.09212208 -0.04873745 -0.09119319 -0.065133125 -0.08468381 -0.040014796 -0.024921
-0.054252747 -0.078643106 -0.075605825 -0.0011683516 0.048964623 0.03336608 0.07963228 0.02729869
0.084521614 0.0732604 -0.058872957 -0.03138236 -0.08583078 -0.036573187 -0.050312307 -0.08453956
-0.06701996 -0.043115135 -0.025560262 -0.08589643 -0.06991093 -0.072160505 -0.061894227 -0.039970092
-0.07681451 -0.07881482 -0.09286917 -0.057077568 -0.07935139 -0.066949174 -0.08719543 0.054255053
0.077604294 0.070873044 0.029193431 0.078703776 0.08462885 -0.08499283 -0.08856656 -0.068664104
-0.046926644 -0.08714977 -0.06569036 -0.089692876 -0.081790514 -0.027542526 -0.08114632 -0.06968453
-0.03697782 -0.05528071 -0.050130755 -0.044345137 -0.056157146 -0.06817545 -0.033819262 -0.069134064
-0.03344396 -0.08985628 -0.08273333 -0.07612703 0.040697943 0.075837284 0.08885493 0.038031876
0.09067248 -0.030795803 -0.043912567 -0.08995137 -0.03970466 -0.04170967 -0.030640706 -0.06037567
-0.088170566 -0.06535414 -0.08969496 -0.09373004 -0.080622494 -0.05180757 -0.08821629 -0.06237906
-0.03378436 -0.047098015 -0.048920605 -0.09322677 -0.030786408 -0.06966654 0.029536149 -0.074150026
0.062384658 0.08935345 0.08021996 0.040460702 0.079994634 -0.0874704 -0.0711591 -0.041737128
-0.0546331 -0.067982465 -0.06994656 -0.03130654 -0.030923935 -0.060918376 -0.08174408 -0.052208997
-0.028872948 -0.05850377 -0.06405542 -0.026327858 -0.055063415 -0.08980377 -0.051474143 -0.052743953
-0.04554638 0.08444468 0.05283253 0.052100092 0.043108493 0.089820474 0.02619285 0.06151971
0.04836139 -0.07895581 -0.060132515 -0.09424185 -0.08316658 -0.055176333 -0.05900022 -0.079495944
-0.051470485 -0.081220195 -0.06410899 -0.06098865 -0.09300929 -0.08727806 -0.0916909 -0.06306743
-0.04655464 -0.05194053 -0.03943434 -0.04906961 -0.042115074 -0.030300735 -0.04140847 0.09242606
0.031270925 0.085058235 0.027494889 0.034609497 0.07935701 -0.08940191 -0.048231207 -0.034432434
-0.07166778 -0.060054727 -0.0591196 -0.0854702 -0.042430043 -0.06031596 -0.09527434 -0.045187257
-0.08516805 -0.08246477 -0.050891902 -0.09493519 -0.052023232 -0.07322903 -0.08681564 -0.041452147
-0.06664072 0.05030578 0.08865307 0.041919593 0.08547378 0.029737167 0.03853275 0.08732414

fc1.bias f4 [256]
00000000: d374 13bd 3181 77bd 8014 44bd 3a6f b3bd
00000010: aca0 18be cf63 77bb 1214 953e d772 d4bb
00000020: 5423 abbd d516 d6bd ecb4 cebd 65d5 b6bd
00000030: efc6 6c3d 29a9 f33d dfb8 9abd ce35 94bd
00000040: 63d0 b8bd b97e b9bd 753d d53c 9b15 2c3e
00000050: 02f8 c5bd 53ee 20bd b020 34be 47de 2cbe
00000060: bf6b 4dbd c442 bcbd 75b6 e1bc 086f 7ebd
00000070: beca d5bc d569 79bd acb4 98bd 4dd8 aa3e
00000080: 55cb 823e a6e8 e7bb cedc 97be 0baa 173c
00000090: ddae 88bd ef26 57bd 3bd7 cabe 48a5 8dbd
000000a0: ec9f 0dbd 4f98 90be c695 39bd df35 873e
000000b0: caa6 edbe eeb9 c83e d205 1c3e 770c 68bc
000000c0: f977 0b3d fc7c 1d3e f7ae 3bbd fd7c dcbc
000000d0: 73f3 70bd fe48 873d 816c 9d3e 1b72 35be
000000e0: 9a70 81bd 367b 8fbd 6098 ba3d 8873 40bd
000000f0: 503c 9fbb a91f 9dbd 23e9 0ebd a965 89bd
00000100: 433d b6bd 8cfc b5bd 0441 b4bd 8a3e e3bc
00000110: 24bd b1bc bccb 33bd 04bc 09be 8078 81bd
00000120: c1f1 b3bd b542 b8bd d73c 5abd 89c7 0fbd
00000130: 5a11 683b fbcb 8e3c af56 bdbd 5448 f2bd
00000140: 6b31 e8be 728d 94bd 86e9 3ebd e68e 92bc
00000150: c2af 553e fa42 acbd 9eba f63d f0d0 27be
00000160: 88e3 c43e 9c9b a2bd 7c4f 0dbf 95ae b83e
00000170: f8ce c63d 1e78 ebbc 8649 0b3b 24ed 47bd
00000180: 5cbb 273e a2d2 01bd edb8 063f ad34 06be
00000190: 7305 24bc e594 a9bd 8bcc 6ebd ce15 403f
000001a0: c2f9 c3bd b416 4f3e 6f70 fdbb bfba adbd
000001b0: e0b1 b03e f3e4 c83e 98f4 5c3e c1b5 a5bd
000001c0: 8371 0abd a52a 9ebd 78d7 c33b 4648 e5be
000001d0: 7d17 89bd ab36 4b3e 96bf 40bd d403 b5bd
000001e0: cf09 3b3d 40da 96bd 497a 40bd 6423 48bc
000001f0: 8f07 acbd ff5c 8abd 9769 33bd 2cae 82bd
00000200: c342 4d3e 3af3 f7bc 7e55 d0bc 4329 3fbd
00000210: aff0 20be ed7b 9bbd beaa 55bd 3627 b0bd
00000220: d736 a9bd 807b 67bd c419 aebd 21bb 723e
00000230: 8d0e 363e 551f 1dbc 0553 61bd ab93 493d
00000240: 95c3 bcbd 99ba 0dbe 0ea9 19be d233 44bc
00000250: 7b2c 7f3e 2954 b2bd 3bb4 ae3e 4f44 4ebd
00000260: 644c d5bc d364 303f c8b6 86bd 64e7 58bc
00000270: d332 de3b 5813 e7bc 7eb9 0fbe 2eab 0d3f
00000280: f61d a2bd 9013 a3bd 89de bebd ac28 1abd
00000290: 20d5 a13b eea7 35bd 0cb8 9dbd 1945 d8bd
000002a0: 2031 68bd 4ba0 89bb 74a8 8fbc 66fa b0bb
000002b0: 7bf2 c2bc 9ec1 663d 8113 9bbd 0538 9dbd
000002c0: 92a7 33be 1d50 81bd d29a 6cbd 1e86 55bd
000002d0: 42d3 bb3e 311d bbbd d6b3 1d3f 0423 6dbd
000002e0: ca37 56bd 7c16 17be 36a5 c3bd c293 87bd
000002f0: fdd7 9ebd 1e8e 22bd 289d 8cbd b7f0 a2bd
00000300: ff9a 40bd b282 1638 7552 01be ea8c b5bd
00000310: e1f3 a03e da4f efbc dadd 93bd ab0b a13e
00000320: 390e b3bd d163 69bd b074 81bd cca8 bdbc
00000330: ff32 9e3e 2a9a a0bd 6b6c 95bd 31f8 6bbe
00000340: 8bb3 6dbd 9c14 67bc c2d5 92bd bbd2 dfbc
00000350: 7e65 58be 5889 96bd 220f e3bc e7a1 d13a
00000360: d85d b8bd fe01 5ebe 5e60 0cbe fa66 f33e
00000370: 824a 553d d83e 803e 4051 f83d 12e2 14bd
00000380: 6d31 bdbd f245 abbd 7845 953d b742 253e
00000390: ced5 32bd a044 37bd 7908 46bc 2e8f d7bc
000003a0: 96d6 c2be aed9 91bd 312c 9a3e adc6 83bd
000003b0: 78ec 42bd 2240 01bd 1615 03bd 411d b1bd
000003c0: 0265 76bd 634c 013f b4b5 c3bd b8c3 bdbd
000003d0: 9182 4cbc f850 c7bd f450 77bd 5703 013e
000003e0: 614a 37bd 6a12 2dbd 4419 26bd 5b58 1ebd
000003f0: ee11 15bd ffa1 59bd 61ec 313e b0d8 bd3c
-0.036000084 -0.06042594 -0.047871113 -0.08761449 -0.14905041 -0.00377487 0.29116875 -0.0064834165
-0.08356348 -0.104535736 -0.10093102 -0.089274205 0.057806905 0.11897499 -0.075547926 -0.07236825
-0.090241216 -0.090573736 0.026030282 0.16805117 -0.09666444 -0.039289784 -0.17590594 -0.16881667
-0.050151583 -0.09192422 -0.027552823 -0.062117606 -0.026097652 -0.060891945 -0.074563354 0.3336815
0.25545755 -0.0070772944 -0.29660648 0.00925685 -0.066739775 -0.052527364 -0.39617333 -0.069162905
-0.03457634 -0.28241202 -0.04530885 0.26408288 -0.46416312 0.39204353 0.15236595 -0.014163128
0.03404996 0.15379709 -0.045821156 -0.026915068 -0.05882592 0.06605719 0.30746844 -0.17719309
-0.06320305 -0.070059225 0.091110945 -0.04698518 -0.0048594847 -0.07672054 -0.034890305 -0.06708843
-0.088984035 -0.0888606 -0.08801463 -0.027739782 -0.021696635 -0.043895468 -0.13450629 -0.06321812
-0.08786345 -0.08997098 -0.053280678 -0.0351024 0.0035410733 0.01743125 -0.09245049 -0.11830202
-0.45350203 -0.07253541 -0.046609424 -0.017890405 0.20867828 -0.08411212 0.12047313 -0.16388297
0.38454843 -0.079398364 -0.5519941 0.36070696 0.09707445 -0.0287438 0.002125354 -0.04881014
0.16380066 -0.031695016 0.52625924 -0.13106032 -0.010011065 -0.082803525 -0.058300536 0.7503327
-0.09569122 0.20223504 -0.0077343504 -0.084828846 0.34510708 0.39237174 0.2157768 -0.080913074
-0.03379966 -0.077229775 0.0059766136 -0.44781703 -0.06693933 0.19845073 -0.04705771 -0.08838621
0.04566365 -0.07365847 -0.04699162 -0.012215469 -0.08399879 -0.06756019 -0.04380187 -0.06380877
0.20044999 -0.030267347 -0.02543139 -0.04667021 -0.15716814 -0.07591996 -0.052164786 -0.08601229
-0.08262413 -0.056514263 -0.08501008 0.23704197 0.17778988 -0.00958999 -0.055010814 0.049213093
-0.09216992 -0.13840713 -0.15005895 -0.011975246 0.24919312 -0.087074585 0.3412188 -0.050358113
-0.026037402 0.68903846 -0.065778315 -0.013238762 0.006780961 -0.028207466 -0.14035603 0.55339324
-0.07915871 -0.079627156 -0.09319789 -0.037636444 0.0049387366 -0.044349603 -0.0770112 -0.10560054
-0.056687474 -0.0042000166 -0.01753638 -0.0054009436 -0.023797264 0.05633699 -0.075720794 -0.076767005
-0.17544392 -0.063141085 -0.057764836 -0.052129857 0.36684614 -0.09136427 0.6160253 -0.05789472
-0.0522993 -0.14754671 -0.09552996 -0.066199794 -0.0775604 -0.039686315 -0.06865913 -0.07956069
-0.047022816 3.5884506e-05 -0.12629111 -0.08864768 0.31436065 -0.02921288 -0.07220049 0.31454214
-0.08742947 -0.056979958 -0.063210845 -0.023151778 0.30898282 -0.078419045 -0.0729607 -0.23043896
-0.058032554 -0.014104035 -0.07169677 -0.027322164 -0.21132466 -0.07350415 -0.027717177 0.0015993685
-0.09002274 -0.21680447 -0.13708636 0.47539502 0.05207301 0.25047946 0.12124872 -0.03634841
-0.09237943 -0.083629504 0.07288641 0.16138731 -0.04366093 -0.04474318 -0.012086981 -0.02631339
-0.3805434 -0.07121597 0.3011184 -0.06434379 -0.047588795 -0.031555302 -0.03200253 -0.08648158
-0.060154922 0.5050718 -0.095561415 -0.09265846 -0.012482301 -0.097322404 -0.060379937 0.1259893
-0.044748668 -0.04225389 -0.04055144 -0.03865848 -0.036394052 -0.053133007 0.17375328 0.023174614

fc2.weight f4 [128, 256]
00000000: 5851 50bc 7a39 393e b4bb 203d d09e be3b
00000010: dc2a 68bd cda3 87bc 05d7 56be ef05 603d
00000020: 7802 4cbd 00fd bc3a 8034 bd3b 6880 9dbc
00000030: 0e35 79bd 46e9 f7bd c832 07bc 626b 73bd
00000040: 1b71 53be f670 68bd 56b7 96bd 60f6 5d3b
00000050: d41f f13c c2a4 093d e4fa e7bc 4a33 c9be
00000060: 2842 6cbc f033 25bc eec6 75bd e0b1 4e3b
00000070: e24c 7ebd 0058 c3b9 8827 73bd f2b9 b33d
00000080: 1d0a 67bc 1fc7 d0bd b10f a53c fd4a cf3d
00000090: 7bf7 c43c f827 f1bc 5297 17be 1132 04bd
000000a0: 82c1 43bd 779e 13be ec78 0ebe 3287 05be
000000b0: 2859 95be a323 92be 5644 72bb 1de7 18be
000000c0: 226c 48be 1ddf 1fbd 9fca e6bd 708e c23d
000000d0: 36a8 80bb 6c87 68bc 2109 013e 046a 09be
000000e0: 1a61 1b3d 8f54 a03d baaa a63c 28d4 013d
000000f0: 4913 89bc 9ad7 38bd ece9 29bd 601e 8bbc
00000100: 0080 37bb da9c 57bd 106d ae3c c8e3 c2bc
00000110: 558f bd3d b078 8dbc 1579 e6bd 6082 4e3d
00000120: e2c3 933d f091 5a3b 2778 fb3b fc0b a53c
00000130: c6da 8b3c 5947 873c 1057 5fbc 49a7 41bc
00000140: fba4 183e 0260 34bd 4f1c b6bc 6677 d43d
00000150: 6492 2d3d 342f 323d a9ad b43c 4a45 87bc
00000160: fdbb 323e b0f7 6bbc a067 ecbd a18e 86be
00000170: 7c66 3f3c 16e1 8dbc 1d68 2abc f0dc 5a3c
00000180: 3bed 9a3d 063b 763d f55b 19bd 7560 ac3c
00000190: 5f54 2bbb da4d 153d 88f2 c63d 6fee 43be
000001a0: 4594 5f3b 2d1d 33be 3461 1c3e 0039 7abb
000001b0: 279f 1bbe e149 f83d 8859 0f3d baa5 2f3d
000001c0: b676 4fbd cba0 e9bc b87f 543d 753b 15be
000001d0: d0a9 e43b e17e d53d 36f6 c73d 5076 d83c
000001e0: 68e1 0bbe 4951 9c3c 11f1 48be 8835 bc3c
000001f0: 36f8 7fbd 45db 8ebd 7688 9abb 2e3d 1bbd
00000200: 251e b7bd 72f7 26bd f038 cd3c dada 223d
00000210: 8381 13be 2841 edbc b79e e43d 04a8 653d
00000220: 1002 3b3c ddc3 813d 80d0 d0bd 6aa2 46bd
00000230: d294 dabb 7417 453d 90de 663d 74ce 28be
00000240: b665 29bd 60c2 3a3c 26aa 63be ed1b 27be
00000250: 9ba6 a8bc 70f8 113c bbce c63d 2037 44bb
00000260: 0414 063e c8d9 703d dc77 8bbc 5ea4 043d
00000270: 2cfc 13be 948f 5cbd acb4 943c c801 04bd
00000280: 4009 01bd 4ca1 69bd dc03 b8bc a3a7 433b
00000290: e434 603b b344 38bd 20e3 e63c 1a22 0a3e
000002a0: 5836 cdbc 8121 5bbd e4b9 3a3d b0ee 4ebd
000002b0: 5e23 a53d 9926 3bbe cc63 30bd 41c9 ddbd
000002c0: 91b3 82be f800 ef3c e473 253d 90ec f23c
000002d0: d719 563e 50cb 6d3d 2efa d9be 8818 493d
000002e0: 415e 933d 7f36 b9bc dc53 5d3d 3c62 dc3c
000002f0: f686 0e3d 6059 15bd 5fbf 353e 7c52 8cbc
00000300: 7c35 eabc 466a f4bc 3a2e 0fbe 2cc5 77bd
00000310: 166b a4bc c01e 84bc e04d 573c fe4e c1bc
00000320: b0ce 523c 83d6 393e cc03 acbc 60df bd3b
00000330: f036 83be 2463 343d dc1d 343d 5a7b 3c3d
00000340: 68ea 1f3c 5b8f e73d b25a 5bbd 08d2 673d
00000350: 54f6 1fbd 1d7c 90bd 38a1 3abc eeca ddbc
00000360: 547c fabc 8f45 e3bd a678 27bc 02bb 523d
00000370: 84a6 aabc 4632 96be 560e 09be c835 a2bc
00000380: 6067 873c 846d 103d 50cb 02bd bf70 2b3d
00000390: 4ea7 d03d eafb b5bd 76ed 153c 0071 f93b
000003a0: d088 c4bd 00cb 91bc 4752 303d f1d8 4ebd
000003b0: 336e 18bc 0710 c1bd 6096 0bbb 90cb 3fbc
000003c0: c0c1 95bb 687b 2a3d 5868 e0bc 8478 cdbc
000003d0: f793 e83c ee04 33bd 14c1 c3bc 8d34 7fbd
000003e0: cba1 7d3d 7a74 40bd dca8 1dbd b0c4 083c
000003f0: f59f 973d d878 0b3d 862d a2bd fe6a 083e
-0.012714706 0.18088332 0.039241508 0.005817272 -0.0566815 -0.016557598 -0.20980461 0.05469316
-0.049807042 0.0014418662 0.0057740808 -0.019226268 -0.060841613 -0.1210504 -0.008251853 -0.05942858
-0.20648615 -0.056748353 -0.07359187 0.0033868775 0.029434122 0.03360439 -0.028317876 -0.39296943
-0.01442007 -0.010083184 -0.060004167 0.0031539127 -0.06208504 -0.00037258863 -0.05936387 0.08775701
-0.014101532 -0.10194229 0.020149084 0.10121725 0.02404379 -0.029438004 -0.14803818 -0.03227431
-0.047791965 -0.14415918 -0.13913316 -0.13039854 -0.29169583 -0.28542814 -0.0036967 -0.14931913
-0.195725 -0.039031137 -0.11269116 0.09499824 -0.0039263023 -0.014192443 0.12601139 -0.13419348
0.0379344 0.07828628 0.02034508 0.03169647 -0.016732829 -0.04512749 -0.04148285 -0.016982257
-0.0027999878 -0.05263982 0.02129224 -0.023790255 0.09255854 -0.017269462 -0.11253563 0.050417304
0.07215096 0.0033351146 0.0076742354 0.020147316 0.017072093 0.016513513 -0.013631597 -0.011819669
0.14906685 -0.044036873 -0.022230295 0.10374336 0.042375937 0.043502048 0.022055464 -0.016512532
0.17454524 -0.014402315 -0.115432024 -0.26280692 0.011682149 -0.017319243 -0.010400799 0.01335834
0.07564779 0.060114883 -0.037441213 0.021042088 -0.0026142818 0.0364512 0.09714228 -0.19133924
0.0034115475 -0.17491598 0.15271455 -0.0038180947 -0.1519743 0.12123466 0.034997493 0.04288266
-0.05065032 -0.028519055 0.051879615 -0.14573462 0.006978251 0.10424591 0.09763758 0.026423603
-0.13660204 0.019081729 -0.1962321 0.022974744 -0.06249257 -0.06975416 -0.0047159744 -0.037900142
-0.089412965 -0.040763326 0.025051564 0.039759494 -0.14404874 -0.028961733 0.11163085 0.056068435
0.011414066 0.06336186 -0.10196018 -0.048494734 -0.006670573 0.04811807 0.056364596 -0.16485006
-0.041356765 0.011398882 -0.22232875 -0.16319247 -0.020587256 0.00890933 0.097073995 -0.0029940084
0.13093573 0.058801442 -0.017024927 0.032383315 -0.14451665 -0.053847864 0.018152557 -0.03222826
-0.031502962 -0.05703859 -0.022462778 0.0029854558 0.0034211213 -0.04498739 0.028184474 0.13489571
-0.025050327 -0.05349875 0.045587435 -0.0505206 0.080633864 -0.18276443 -0.043063924 -0.10829402
-0.25527623 0.029175267 0.040393725 0.029653817 0.20908295 0.058055222 -0.42573684 0.04909566
0.07195712 -0.022608994 0.054035053 0.02690231 0.034796678 -0.036462188 0.17748784 -0.017129175
-0.028589956 -0.029835831 -0.13982478 -0.060490772 -0.020070594 -0.016127944 0.013141125 -0.023597237
0.012866661 0.18148236 -0.020997904 0.0057944506 -0.2562785 0.04403986 0.04397379 0.046016075
0.009760477 0.1130664 -0.05355329 0.056596786 -0.039053276 -0.07054923 -0.011390977 -0.027074303
-0.030576862 -0.110972516 -0.010221636 0.051447876 -0.020831354 -0.2933523 -0.13384375 -0.019801036
0.016528785 0.035260692 -0.031932175 0.04185557 0.10188161 -0.088859394 0.009150853 0.0076123476
-0.095964074 -0.017796993 0.043047216 -0.05049986 -0.009303617 -0.09426885 -0.0021299347 -0.011706248
-0.004570216 0.041621596 -0.027393505 -0.02508188 0.028390868 -0.043705873 -0.023895778 -0.062305976
0.061921876 -0.04698608 -0.038491115 0.008347675 0.07403556 0.034050792 -0.07918839 0.13322064

fc2.bias f4 [128]
00000000: b966 da3d ccd4 0bbe a7ed b4be 0364 9ebb
00000010: d138 2bbe dccd 6a3d 4a69 4abe ef42 a43d
00000020: 86ff 003c d142 23bc 0f52 a3be 80df ec3e
00000030: 0ad5 473e f2b9 ac3e 064a 61be 1abd c1bd
00000040: 3e0f e53d c865 cbbc 84ee 2bbe 091c ccbd
00000050: 3148 013b bfe3 3b3e b208 de3d fc9e ddbd
00000060: 2781 903d ec27 493e 2f77 4bbd 8e68 0f3f
00000070: a9df c1be 6018 ee3e eab2 e63e cbcb a0bc
00000080: 27bf 70bd 48d6 993d e6ec 583c 2f6d babd
00000090: 1808 e53e a21a 53be 5543 afbc b1ce 773e
000000a0: f7f4 0abe c391 91be 5b34 1dbe 2fa5 783c
000000b0: d392 5fbd 451b c5bc f4dd 22bd d283 dbbe
000000c0: de96 8e3c 8c2e 2ebd cbf0 49be f41a 0a3d
000000d0: 1684 42be 870a 00be f0ca c4bd 9567 5bbd
000000e0: c599 26be 64d2 abbd c0f2 0f3e 5dbd 2b3f
000000f0: 1110 89bd 9d7a 52be 3a15 03bd 8094 3bbe
00000100: 8fb1 44ba b6ea a23e 65a1 8c3e 0f70 82bd
00000110: b9cc 3e3e 9a51 5fbd 9fb0 e33e ef61 a93e
00000120: 06c2 e8bd 1767 08be 2ab8 923c 983a 403e
00000130: a205 f3bd 013a 14be 4ac9 c2bd c6e8 b6bc
00000140: 55ee 4a3d 003c 41be 472a 913e 3a34 0dbf
00000150: 11c3 9d3e cf2a 89bc f7a0 d53d bccf 123e
00000160: d09b 45bd 3bc8 2d3f 9c64 b5bd e0ee d7bd
00000170: 3779 8b3e 7197 f93b e8a6 c03c 8552 15be
00000180: ebd2 4abd 0067 903e 6610 47bd cd2d b6bd
00000190: a5f3 0f3f f216 89bc 6571 bbbd 7136 8bbe
000001a0: a6de c8ba 8f41 1cbe 668a 80bd e7d3 a8bc
000001b0: 3df9 133e 6705 35be a608 9abd 0726 dcbc
000001c0: ad3b ec3c ba16 83bc bef0 1fbe 4ce7 aabd
000001d0: a935 ddbd ca01 7b3e a478 4ebd bf79 90bd
000001e0: 7379 863e a925 c1bd e1a0 a33d 6dec 8b3e
000001f0: e74a 8ebe 02ee e13d b3dd 7dbd a014 18bd
0.10664124 -0.13655394 -0.35337564 -0.0048336997 -0.16720892 0.05732523 -0.19766727 0.08020579
0.007873422 -0.009964661 -0.31898543 0.46264267 0.19514862 0.33735615 -0.22000894 -0.094598964
0.11184548 -0.024828807 -0.16790205 -0.09966285 0.0019726867 0.18348597 0.10841502 -0.108213395
0.07055884 0.19644135 -0.04967421 0.5601891 -0.37865952 0.46502972 0.45058376 -0.019628426
-0.058776047 0.07511574 0.013240075 -0.09102856 0.44732738 -0.20615628 -0.021394411 0.2419994
-0.13570009 -0.2843152 -0.15352003 0.015176102 -0.05458338 -0.024060855 -0.039762452 -0.42874008
0.017405923 -0.04252486 -0.19720761 0.03371711 -0.189957 -0.12504016 -0.0960902 -0.05356558
-0.16269596 -0.08389738 0.14057446 0.6708582 -0.066925175 -0.20554586 -0.032002665 -0.18318367
-0.0007503265 0.31819695 0.27466884 -0.0636903 0.18632783 -0.05452118 0.4447069 0.3308253
-0.11365132 -0.13320576 0.017910082 0.18772352 -0.11866309 -0.14475252 -0.09511049 -0.022327792
0.049543697 -0.18870544 0.28352568 -0.55157816 0.30812886 -0.016744046 0.10431092 0.14337057
-0.048244298 0.6788365 -0.0885708 -0.10543609 0.27240917 0.00761693 0.023517087 -0.1458226
-0.049517553 0.28203583 -0.048599623 -0.088954546 0.5623115 -0.016734574 -0.09152488 -0.27189973
-0.0015325143 -0.15259384 -0.062763974 -0.020608855 0.14450546 -0.17677842 -0.07521181 -0.026873602
0.02883705 -0.016002048 -0.1561918 -0.08344898 -0.108012505 0.24512401 -0.05040802 -0.07054471
0.26264533 -0.09431011 0.079896696 0.27328816 -0.2779152 0.110317245 -0.061979007 -0.037129045

fc3.weight f4 [64, 128]
00000000: f114 fcbd 7ea3 f7bd fbaf bf3d 9ff0 f4bd
00000010: c9e5 dbbc 9abc c5bc f8d2 f9bc f01a 663d
00000020: 5b7c 983d 1dc1 f63d b2ee fcbd 88b4 fdbc
00000030: 9a44 743c 8d40 b63d 0327 8ebb 68c0 08bd
00000040: f2f7 1fbc 819f 133d ad35 243c d255 40bd
00000050: f4fa 76bd c178 59bd ceee 463d 7bb6 53bd
00000060: c6eb cdbc 9016 62bc 93cb ecbd acaf 03be
00000070: 89be 943c 9641 763d be71 18be e011 ec3d
00000080: 86b7 9c3d abbc fc3d 1fa2 ea3d c374 ab3d
00000090: c1fc c3bd 4755 93bd 30c6 553d 31d9 cebd
000000a0: 3235 babc d960 f4bc a866 d73c 3d46 813d
000000b0: 516e a2bb ab2a 923d bc6e 243d c00c 33bd
000000c0: 1606 083d 250d cdbb 7285 8fbd fd80 4fbc
000000d0: 1efe f83c 4faf fbbd fed3 273d 814e 9bbd
000000e0: a93b 2bbd c3e8 b4bb 7a1f 72bd 5419 a13b
000000f0: 6c80 0fbe 4eb9 9e3d 0d49 973c 3acf 8c3c
00000100: d3eb 7e3d 28d8 f1bc bb4f 0abd b06b 9f3c
00000110: c7d4 fdbd 0d20 023d 0b22 d03c d4a7 73bc
00000120: 075d 1a3c 530c 62bc 6913 543c a7a2 903c
00000130: 5462 c4bb 9ed2 d33d 560b 84bc a8f8 4abc
00000140: ca6f 093c 0a23 f6bc 33bf 66bd 2e77 b9bd
00000150: 53d5 f03c 3085 c03d bb0a 3c3d 7b04 993c
00000160: 61b6 543d 1486 0dbe eb1b c73d a3d6 9e3c
00000170: 6478 8bbb 4bad fe3d c257 4f3d 7f8d 5ebd
00000180: b905 d3bc d462 b8bd 8d57 343d 7026 bc3d
00000190: 1af9 94bd b585 a1bd 340b 8fbd 714d 923d
000001a0: 62fa 96bd 441d a3bc 3e32 873d bea0 ad3c
000001b0: 1f3b 203b 1893 323d 3e08 41bd 5b41 f638
000001c0: 6365 1f3d de8d 093d 02ff bd3d d19e 763d
000001d0: 2a50 88bb ce8f b43c b0e0 183c 35e3 823d
000001e0: a674 ce3d c18f b33d 7fec fbbc a5c7 a9bd
000001f0: 3222 4f3d 7d2c f23c 0ade 863d 3c7c 573d
00000200: 42c7 653d 3cba 83bd 6f5f 63bc c9d6 393c
00000210: bc63 d3bd 1b97 c5bc 7bf7 073d 501d 80bd
00000220: 924b 8dbc f35e a33d c845 99bb 1181 b8bc
00000230: 81c1 2ebb 5794 b33c ae37 b03d df6a 7cbc
00000240: 2261 bb3b 0b3a 223e 30ce 513c ccfc 813c
00000250: 256d cdbd 9fcc 15bd 0af9 15bd 2cfa f4bd
00000260: f819 0fbe cef1 0dbe 829b e2bd 846e 04be
00000270: 367b 6cbc 5200 a73d d054 93bd ce21 62bd
00000280: 4929 f9bd 47f0 12be 2446 753b 4518 c33d
00000290: ba11 70bd 7d60 b33b c4b8 b6bd 39dc 26bd
000002a0: 087d 3dbd 1b43 4ebd 7cb3 8cbd 221e c1bc
000002b0: 2a6c 5f3d c1e8 d9bc 87cb bbbd 4ae0 5a3d
000002c0: d5e4 8ebb b7ce afbb d897 96bc f2ff 80bd
000002d0: ebb9 fa3c cc7f d8bd 2c63 55bd 6a6a af3c
000002e0: b139 3fbd a2b4 f3bd 60c4 1cbb 7a6e d4bc
000002f0: 7e42 a93c 9f13 363d 778b 4cbd 4e81 8dbc
00000300: 7fd1 24be 6716 1bbc 72b6 bebd 6e39 24be
00000310: f095 f1bd 276d 20b8 94f4 30be 218f 1dbe
00000320: cd51 14be 1131 b8bc d6b7 0bbe d3eb 693d
00000330: dc15 bdbd 7fef a5bd 77e0 e03c 1c12 b53c
00000340: f4f7 e3bc d3b6 3fbd 2044 5b3c ef57 b03d
00000350: f6f9 29be 9815 acbd db7a a0bd b181 e8bd
00000360: 4b53 0fbe 6e7d 04bd 19b9 163c 8d48 d43c
00000370: 7d51 e93d 440f 01be c50e 853c b956 00be
00000380: f619 6f3d 081e d23c a868 b7bb 839e 26be
00000390: bc34 f63c a1a1 b6bd 5cce 1abe e1e7 f6bc
000003a0: 1181 853c 8f11 da3c e6c1 153e 5b67 0fbe
000003b0: 683d 6abd 4a37 733d 1ac2 dabb 5893 9fbd
000003c0: a5d6 e2bd 512e fbbb d17d 0f3d 6ef4 a93c
000003d0: e7b9 a9bc 7b0e 6abd 6d0b 9e3c 244f ae3c
000003e0: 1e79 e73d a3ed 9bbd d501 a6bc 5b3a 45bd
000003f0: 5ee7 e2bc 2908 cb3c b836 543d 2e7e 653c
-0.12308682 -0.120917305 0.093597375 -0.11959957 -0.026842969 -0.024137784 -0.030496106 0.056178033
0.07445594 0.12048552 -0.12350215 -0.030969873 0.014908934 0.08899031 -0.0043381467 -0.033386618
-0.009763705 0.036040787 0.010022563 -0.046956845 -0.06029792 -0.053093676 0.048567586 -0.0516877
-0.02513684 -0.013799325 -0.11562266 -0.12859982 0.01815726 0.06012114 -0.14887139 0.11526847
0.07652192 0.12340673 0.114567034 0.0837188 -0.09569693 -0.07194 0.05219096 -0.1010002
-0.022730444 -0.029831337 0.026294068 0.06312225 -0.0049569984 0.071370445 0.040144667 -0.04371333
0.03320893 -0.0062576705 -0.070078745 -0.012665031 0.03039461 -0.12289297 0.040973656 -0.07583333
-0.041804943 -0.0055209114 -0.05911205 0.0049163494 -0.14013833 0.07750188 0.01846745 0.017188657
0.06223662 -0.029522017 -0.033767443 0.01946053 -0.123941 0.031768847 0.025406858 -0.014871556
0.0094215935 -0.013796884 0.012944081 0.017655684 -0.005993167 0.103429064 -0.016118687 -0.012388386
0.008388469 -0.030046005 -0.056334686 -0.09055935 0.029398596 0.094004035 0.04590867 0.018678894
0.051931743 -0.13820678 0.09722122 0.019389456 -0.004256295 0.12435397 0.0506208 -0.05433416
-0.025759565 -0.09003225 0.044028807 0.09187019 -0.07274075 -0.07886831 -0.06984559 0.07143677
-0.073719755 -0.019911416 0.0660138 0.021194812 0.0024449301 0.04359731 -0.047127 0.000117423675
0.03891505 0.03358256 0.092771545 0.060210053 -0.004159947 0.022041228 0.009330913 0.063909926
0.10080843 0.08767653 -0.030752419 -0.08290032 0.05056972 0.02956223 0.06585319 0.052608714
0.05609823 -0.06432006 -0.013877734 0.011342713 -0.10321757 -0.024119904 0.033195 -0.06255591
-0.017247949 0.079770945 -0.004677508 -0.022522481 -0.002666563 0.02192132 0.0860437 -0.015406339
0.0057183662 0.15842454 0.012805507 0.015867613 -0.10030583 -0.036572095 -0.036614455 -0.11961779
-0.1397475 -0.13861772 -0.11064817 -0.12932783 -0.014433673 0.08154358 -0.07193911 -0.05520802
-0.12166078 -0.14349471 0.003742584 0.095261134 -0.058610655 0.005474149 -0.0892196 -0.040737364
-0.046261817 -0.050356966 -0.068701714 -0.023573939 0.054546513 -0.026600244 -0.09169679 0.053436555
-0.004360775 -0.0053652185 -0.018382952 -0.06298818 0.03060623 -0.1057125 -0.05209653 0.021413047
-0.04668588 -0.11899687 -0.002392076 -0.025931586 0.020661589 0.044452306 -0.04993769 -0.017273571
-0.16095541 -0.00946579 -0.093121424 -0.16037533 -0.117961764 -3.824863e-05 -0.17280799 -0.1538663
-0.1448433 -0.022484334 -0.13644347 0.057109665 -0.09232685 -0.08102321 0.027450783 0.022103362
-0.027828194 -0.046805214 0.0133829415 0.08610522 -0.16599259 -0.08402556 -0.07835933 -0.11352862
-0.13996617 -0.03234618 0.009199404 0.025913501 0.11392496 -0.1260348 0.016242394 -0.12533082
0.058374368 0.025649086 -0.005597193 -0.16271405 0.030054443 -0.08917547 -0.15117782 -0.030139865
0.016296895 0.0266197 0.14624748 -0.1400427 -0.057187468 0.0593789 -0.0066759707 -0.077917755
-0.110760964 -0.0076654335 0.035032097 0.020746436 -0.020718528 -0.057142716 0.019292558 0.021277972
0.11302398 -0.07613685 -0.020264545 -0.048151355 -0.027698215 0.024784165 0.051809996 0.014007134

fc3.bias f4 [64]
00000000: a692 1bbd 141d 15bd 4da2 d93c 1948 ccbd
00000010: 6ac7 823e 31b9 06bd 7022 16bc 7938 fb3e
00000020: 43cf 11be 386f 7ebc 4591 07be bd58 f33e
00000030: 0372 753d 004c 22be 025b ae3b 8b3f dfbd
00000040: cd4e b43b f84f 3fbe ca5a c03c 870e bc3e
00000050: abf9 de3e def7 4cbd 3ee2 fabd 68ac ed3d
00000060: 43e8 b93d e01b e63e 3b7d 7ebd 4455 f7bd
00000070: d9c4 d2bd 4040 ec3e ee57 fc3b f823 f8bd
00000080: 09d4 273e 7d6f af3e 3e0f 8fbd b4d6 5dbe
00000090: d377 71be fcfe c53c 1e9b dcbd ee7b 13bd
000000a0: 6dfa 303c b316 55bd 39ef 16be b009 b73e
000000b0: b036 a03b 4f58 1cbe 8eb8 8dbd 116a 05be
000000c0: 6084 573e fbee 06be 368a b43c b630 1bbe
000000d0: 3906 0abe 167e 703e 8b4e 5e3d e45a 42bd
000000e0: 88e1 87bd cb5c 443e 17f9 ee3d a55f 02bd
000000f0: 5127 8cbe 0c6d 0bbe e4b1 85bc befb d1bd
-0.03798165 -0.036404684 0.026566649 -0.09974689 0.25542766 -0.032891456 -0.009163484 0.49066523
-0.1423922 -0.015529446 -0.1323901 0.4752864 0.059923183 -0.15849304 0.0053209076 -0.10900792
0.005502558 -0.1868285 0.023480792 0.36729833 0.43549857 -0.050041072 -0.122501835 0.116051495
0.090775035 0.44943142 -0.062131148 -0.1207681 -0.10291452 0.4614277 0.0077009117 -0.121162355
0.16389479 0.34264746 -0.06985329 -0.21663934 -0.23580866 0.024169438 -0.10771774 -0.03600686
0.010801894 -0.0520236 -0.14739694 0.35749578 0.0048893318 -0.15268062 -0.06919967 -0.13028742
0.21046591 -0.13177101 0.02203856 -0.151553 -0.13478936 0.23485598 0.054274123 -0.04744996
-0.066348135 0.19176023 0.11668604 -0.031829495 -0.27373746 -0.13615817 -0.016320176 -0.10253094

fc4.weight f4 [10, 64]
00000000: 4822 20bd e731 65bd 6a6d d23b f90a 13be
00000010: 637b a2be 4d00 473c fff1 8fbd 880c 47be
00000020: 3b33 abbc 67ee 1e3d aa26 303d 7745 ffbd
00000030: cce4 6bbd c13c c83d 7072 173d 1a65 353d
00000040: c222 643a 8a18 a4bc 4720 643d ed4b 393e
00000050: bda7 df3d 16c8 123e e16e a93d 443c a23d
00000060: 72ee 52be 1467 87be 3f69 453d f089 23be
00000070: 6f38 82bc ce26 4bbd de41 98bd 296e 9abc
00000080: 9794 47be cd5a f1bb ab0c 29be 0cbf 9cbd
00000090: 8049 813d ff67 b5bd adfd 1bbe 4b5f f0bc
000000a0: 45bc 0abe fe15 afbc 926f 95bd d0bc 4a3e
000000b0: ff22 7fbc 1cac 083e 8dc3 13be 6517 26be
000000c0: 6390 a3bb f712 803c 2e9b 60bd aad6 173d
000000d0: 4cb3 383d f46b 253e 2a72 2ebd 7496 8b3c
000000e0: 59f3 72be d0d8 183e 5700 d6bd a613 a53c
000000f0: f646 52be 2ace d5bd 6565 913c bea0 b93d
00000100: e8e0 92bd 37f7 bfbc 1f65 2b3e 57fa 383d
00000110: a6a3 d5be 608e 443d bec6 d73d acd0 48be
00000120: febf 05be c027 5d3d b071 383d e1f9 a8be
00000130: 3b61 b73d 0756 1c3e 317d 2b3d c436 b73d
00000140: 2d79 f0bd e017 d5bd 8e5d dd3c a66a e1bd
00000150: 25f6 92be 7bba 2e3b 03d8 a2bc 24b9 1abe
00000160: 9b84 9cbd 44ee 18bf a4ba 92be 7f99 5e3c
00000170: 44fe 7b3e b3be 843d 1f94 763c 6022 6abe
00000180: 6c43 63be b20a 96bb 1bba 9bbd 7aef 603e
00000190: 845d ee3d 7b2a 913d 7b03 19be c3ef 9f3d
000001a0: 9f04 28be 8759 cabd 9ce8 06bc f43e 34bc
000001b0: b0df 453c 773a 90bd 9027 b1bc c91c e8bc
000001c0: 36dd b93d 5c37 81bd 8a7f 07bd 785b 833d
000001d0: 833b e2bd 9c51 3c3e 3632 4e3e 252f 85bd
000001e0: b83c 52be 4b6f d03d 2671 5ebd 17e2 94bb
000001f0: 3853 dd3d bbf2 1dbd ac4b 75be 5873 7a3c
00000200: 02cf 8fbd 3a05 8ebd 33e2 18be ee41 9cbd
00000210: 5d26 473d 14ac 3abe b25d 4d3d fae0 b6be
00000220: 7390 183d fabd a63d ea95 fe3d 9022 a2be
00000230: 3362 843d f5fe 843d 304d a83d 6bf2 753d
00000240: 79b9 fb3d cad1 7dbe deb8 23be f114 e7bd
00000250: 89a1 1f3e ae3e 92bd 2cc6 c33c 84ca 413d
00000260: 4583 eb3d 495d b3be a547 f4bd da61 12bc
00000270: a8bd 8d3c f24a c4bc 3bac 7f3d bcaf b4bd
00000280: 7806 803d 097f a53d 6951 96bd ecd3 66bd
00000290: e9e3 58bd 7579 8d3d a2fd 85bd cba4 38be
000002a0: 6431 6d3d 614a 193d ec8b 4fbe 7f5f 83bd
000002b0: 4c2b c83c 7fc7 e8bc 875a 6cbd 661a b83d
000002c0: 5300 183e c3eb 0c3d 307d 483d 2299 0d3d
000002d0: 5e25 e43d 37de fcbd ba2d 093e f75f 00bd
000002e0: d05a 9fbd 6754 1f3e ffa4 653d be04 e93c
000002f0: e90c e6bd d944 b7bd 931e 25be 4490 243d
00000300: 5067 77bc 4a64 c73c b622 0c3e c85b 39be
00000310: e248 cebd 9c14 6e3d c40c 8a3d 5cb9 43be
00000320: ce45 033d e40c 70bd ee16 1f3e 9c93 e7bd
00000330: 7661 253e a2ff 503d 509d cfbc 36a2 aebc
00000340: cc17 e43c c561 47be 59bc 43bd 1eac 413e
00000350: cb46 5ebe 77fb 88bd a038 993d 27fc ff3d
00000360: d33f f3be 486d 0dbf 30c7 38be 51ca 733d
00000370: b22d 203d e031 013d 5744 45bd 6ff2 49be
00000380: 6d25 b13d e12d 2dbb 6e29 d03b e201 36bd
00000390: e5e7 c73d f480 353e 0bc6 22be 08bc 67bd
000003a0: 4e02 04bd c0ae 243b d2a3 5b3c 0757 5c3d
000003b0: 3769 603c b525 68bb b978 7bbd 625b f739
000003c0: b713 4d3d e00e 9d3c f3b8 aa3d 2a23 69bd
000003d0: ac7b cabd 3b90 223e 8bab 84bc 96fd 48bd
000003e0: 6aec 42be 17dd af3d 07ab 89bd d577 95bc
000003f0: 2a05 1fbd 22b8 013d 421b cdbd 487a a73d
-0.039095193 -0.055955794 0.0064217346 -0.14359654 -0.31734762 0.012146068 -0.07028579 -0.19438374
-0.020898452 0.038801577 0.043005623 -0.12464421 -0.057591245 0.09777213 0.03697437 0.04428587
0.0008702689 -0.020031232 0.055694845 0.1809537 0.109206654 0.14334139 0.082731016 0.07921651
-0.20598772 -0.2644583 0.048196074 -0.15970588 -0.01589605 -0.049597554 -0.07434438 -0.018851357
-0.19490276 -0.0073655606 -0.16508739 -0.07653627 0.06312847 -0.08857726 -0.15233488 -0.029342314
-0.13548382 -0.021372791 -0.07296671 0.19798589 -0.015572309 0.13346905 -0.14430065 -0.16219862
-0.0049915775 0.015634043 -0.05483549 0.037069954 0.045092866 0.16154462 -0.042589344 0.017039515
-0.23725642 0.14926457 -0.104492836 0.02015097 -0.20534882 -0.10439713 0.017748544 0.09063862
-0.07171804 -0.02343331 0.16737793 0.045160618 -0.41726416 0.047987342 0.10535954 -0.19610852
-0.1306152 0.053992987 0.045030296 -0.33003142 0.08954092 0.15267192 0.04186744 0.089459926
-0.117418624 -0.104049444 0.02702215 -0.1100667 -0.28703418 0.0026661444 -0.019878393 -0.15109688
-0.0764248 -0.59738564 -0.2865802 0.013586401 0.24608713 0.064816855 0.015049963 -0.22864676
-0.22193688 -0.0045789117 -0.07603856 0.21966353 0.116389304 0.07088181 -0.14942734 0.07809403
-0.16408013 -0.09880357 -0.008234169 -0.011001337 0.012077257 -0.07042401 -0.02162531 -0.028334038
0.09075396 -0.06309387 -0.033080615 0.06413931 -0.11046507 0.18390507 0.20136341 -0.06503133
-0.20530975 0.101774774 -0.054307126 -0.0045435536 0.10806888 -0.038561564 -0.23954648 0.015286289
-0.070219055 -0.06934591 -0.14930038 -0.076297626 0.04862057 -0.18229705 0.050138183 -0.35718518
0.037247133 0.08141704 0.124309376 -0.31666994 0.064640425 0.06493942 0.08217847 0.06004564
0.122912355 -0.2478706 -0.1598849 -0.11283291 0.15588965 -0.071408615 0.023898207 0.047312275
0.11499647 -0.35032108 -0.119277276 -0.008934462 0.01730235 -0.023961518 0.06242011 -0.08822581
0.06251234 0.08080871 -0.073397465 -0.05635445 -0.052951727 0.06907932 -0.06542517 -0.18031614
0.05790843 0.03742445 -0.2026822 -0.06414699 0.024434708 -0.02841544 -0.05770352 0.0898941
0.14843874 0.034404527 0.048947513 0.034569867 0.1113994 -0.123470716 0.1339635 -0.03134152
-0.07780993 0.1555954 0.056065556 0.028444644 -0.11232931 -0.089486785 -0.16124944 0.040176645
-0.015100315 0.024339814 0.13685116 -0.18101418 -0.10072495 0.058125123 0.06740716 -0.19113678
0.032048993 -0.058606043 0.1553609 -0.11307451 0.1615046 0.05102504 -0.025343567 -0.021317583
0.027843378 -0.1947089 -0.047787044 0.18913314 -0.21706693 -0.06688588 0.074815035 0.12499266
-0.47509632 -0.55244875 -0.18044734 0.059519116 0.03910608 0.031541705 -0.048160877 -0.19721387
0.086497165 -0.002642505 0.006352595 -0.04443539 0.09761027 0.17724973 -0.1589586 -0.056575805
-0.03222876 0.0025128573 0.013405757 0.053793933 0.01369696 -0.0035422866 -0.061394427 0.00047179597
0.05006763 0.019172132 0.083360575 -0.0569183 -0.0988687 0.15875332 -0.01619508 -0.049069963
-0.19035497 0.085870914 -0.06722074 -0.018245617 -0.038823284 0.031669743 -0.10014965 0.0817762

fc4.bias f4 [10]
00000000: 7b3a 4c3c 4138 adbe b5ec 503d fa47 2f3e
00000010: 27f5 9cbe e37c 293f 5ade 943e 14c4 4fbe
00000020: ef0d 5b3c b93c 19bf
0.012465115 -0.3383198 0.05100699 0.171173 -0.30655786 0.66206187 0.2907589 -0.20289642
0.013370021 -0.5985828
