runs/Mar02_16-20-04_cssd901383-Run(lr=0.001, batch_size=128, patience=1)-valid/checkpoint.pt (torch_old, 972387 bytes, 8 tensors)

fc1.weight f4 [256, 784]
-0.94948524 -0.34220502 0.12370999 -0.55550086 -0.16931114 0.47154415 1.3489823 0.38625693
-0.4504566 0.14154755 0.3411686 0.48616686 0.053837106 0.4435896 0.2373727 0.041980073
0.85732555 1.1467162 -0.058249842 -0.8222712 -0.34740323 0.6618346 0.05550829 -0.58658594
-1.4926821 -0.48564506 -0.35277265 -0.33127978 -0.12429792 0.64128315 0.008334208 -0.51135427
-0.277059 -0.3608581 -0.8500337 -1.1459415 -0.19447233 1.3376789 1.1856846 0.6898249
-0.13005193 0.24737696 0.4658896 -0.01596409 0.3488405 1.4584266 1.5436277 0.3956523
-0.9284908 -0.7831159 -0.41311458 -0.2303646 -0.94814813 -0.27329415 -0.25374767 -0.2908441
-0.050656457 0.4377792 -0.18359998 0.056990415 0.27985016 -0.8957503 -0.8756088 -0.66379505
-0.64756405 0.08869065 -0.24469186 -0.1273394 -0.2574466 -0.1034684 -0.102864124 -0.28442392
-0.1660926 -0.21305151 0.04596788 -0.19625644 -0.3976292 -0.62115586 -0.7020862 -0.076431654
-0.27923018 -0.3896945 -0.34671882 -0.4070091 0.42467058 0.4616384 0.22532158 0.07388037
0.13600144 0.140459 -0.78767896 -1.1259942 -0.92015296 -0.20568764 0.14546353 0.14091262
0.09444822 0.029418962 -0.07192523 -0.041516766 0.10916051 0.13466407 -0.15345821 -0.81615806
-1.0010363 -0.7944456 -0.40280277 0.0032546087 -0.40484783 -0.67935115 -0.38130623 0.031913254
0.5613872 0.14462245 -0.00014072447 0.26908767 0.48884657 0.05445999 -0.8769766 -0.71080625
-0.27952167 0.003622238 0.3711469 0.25332922 -0.11228979 -0.0766343 -0.1356942 -0.21004945
0.06238391 0.22232701 -0.07644266 -0.33400565 -0.6016941 -0.9618109 -0.50932163 0.31467444
0.33458138 -0.032012343 0.21075444 0.5023463 0.45937863 0.2092618 0.0025459132 0.33933532
0.36652073 -0.0047005448 -0.4328008 -0.2863037 -0.033675574 0.19409229 0.24562241 0.16583663
0.11175098 0.10152998 0.09946517 0.058178708 0.03853455 0.17215541 -0.013929572 -0.16143441
-0.21508913 -0.52626026 -0.37136975 -0.4335799 0.13112332 0.051367827 0.4800016 0.53101754
0.23423427 0.38885322 0.23262562 0.28188327 0.29176918 -0.044460464 -0.1145124 -0.031561334
-0.1262594 0.3548313 0.22435398 0.117449164 0.13431428 0.055192456 -0.032512516 0.056675766
0.13707983 0.01681977 0.0546441 -0.011378894 -0.11992738 -0.22906908 -0.07819229 -0.41992396
-0.21042052 0.06956197 0.37798783 0.83268404 -0.07669973 -0.09928029 -0.081972554 0.088038415
0.10385993 -0.058897037 0.12936132 -0.28205252 -0.21156563 0.43099734 0.10429767 0.23772806
0.22212172 0.027295858 -0.06594202 0.03399249 -0.033871498 -0.29449987 -0.117292635 0.017419398
-0.19330926 -0.037539445 0.17484435 -0.36494458 -0.24532428 0.1740905 -0.35012472 0.6638449
-0.25828162 -0.45576012 -0.048742976 -0.35629138 0.31753415 0.10639137 0.2972026 -0.19692275
-0.25528815 0.239864 0.07739386 0.03857243 0.098651916 -0.100527674 -0.08931317 -0.026434515
-0.13277556 -0.31885633 -0.23616776 -0.14934315 -0.36370614 -0.15073639 0.15952402 -0.03505804
-0.3637293 -0.31479362 -0.35089383 -0.152615 -0.21916178 -0.3304934 -0.0958763 -0.038321942
00000000: 7711 73bf 7f35 afbe aa5b fd3d 4e35 0ebf
00000010: e65f 2dbe 3c6e f13e 74ab ac3f 78c3 c53e
00000020: 3fa2 e6be d7f1 103e a7ad ae3e ddea f83e
00000030: 4c84 5c3d 2d1e e33e d411 733e 4cf3 2b3d
00000040: b079 5b3f 99c7 923f 6397 6ebd 5e80 52bf
00000050: d6de b1be fe6d 293f a95c 633d 7f2a 16bf
00000060: 3510 bfbf 78a6 f8be 9e9e b4be 819d a9be
00000070: e88f febd 222b 243f 348c 083c 1de8 02bf
00000080: adda 8dbe 65c2 b8be cf9b 59bf 36ae 92bf
00000090: c123 47be 1039 ab3f 83c4 973f 5d98 303f
000000a0: 552c 05be 6350 7d3e 1589 ee3e 20c7 82bc
000000b0: 399b b23e b9ad ba3f 9895 c53f f092 ca3e
000000c0: 93b1 6dbf 497a 48bf c183 d3be b3e4 6bbe
000000d0: d6b9 72bf 36ed 8bbe 37eb 81be 85e9 94be
000000e0: 257d 4fbd 9824 e03e a201 3cbe c86e 693d
000000f0: 8548 8f3e e44f 65bf e627 60bf 79ee 29bf
00000100: c2c6 25bf 72a3 b53d 8190 7abe 4265 02be
00000110: 0ad0 83be 3ee7 d3bd 6daa d2bd 03a0 91be
00000120: 2e14 2abe 2d2a 5abe d148 3c3d 73f7 48be
00000130: 0e96 cbbe 1204 1fbf ecbb 33bf 3388 9cbd
00000140: 42f7 8ebe 0a86 c7be 2185 b1be 7f63 d0be
00000150: 6c6e d93e de5b ec3e b3ba 663e 974e 973d
00000160: f643 0b3e 7cd4 0f3e 54a5 49bf 9420 90bf
00000170: 258f 6bbf c89f 52be 64f4 143e 664b 103e
00000180: 126e c13d 0900 f13c 894d 93bd 7c0d 2abd
00000190: 8c8f df3d 61e5 093e 2624 1dbe bcef 50bf
000001a0: f521 80bf c960 4bbf 2a3c cebe 464b 553b
000001b0: 3748 cfbe f5e9 2dbf 923a c3be 79b7 023d
000001c0: 12b7 0f3f e817 143e 708f 13b9 dcc5 893e
000001d0: 194a fa3e 7011 5f3d 8a81 60bf 66f7 35bf
000001e0: 771d 8fbe 1263 6d3b f706 be3e 5eb4 813e
000001f0: 30f8 e5bd 72f2 9cbd 6cf3 0abe 3417 57be
00000200: 4586 7f3d b1a9 633e f88d 9cbd ca02 abbe
00000210: a008 1abf 3d39 76bf e762 02bf 021d a13e
00000220: 404e ab3e 601f 03bd 03d0 573e c499 003f
00000230: ad33 eb3e ba48 563e 56d9 263b 5cbd ad3e
00000240: 9ba8 bb3e 0707 9abb 1198 ddbe 6696 92be
00000250: 66ef 09bd 21c0 463e 7184 7b3e 14d1 293e
00000260: b3dd e43d f3ee cf3d 65b4 cb3d cc4c 6e3d
00000270: 68d6 1d3d 8249 303e dc38 64bc 104f 25be
00000280: 5340 5cbe feb8 06bf 2d24 bebe 2ffe ddbe
00000290: 3145 063e 1267 523d c5c2 f53e c4f0 073f
000002a0: 1cdb 6f3e c517 c73e 6935 6e3e 0153 903e
000002b0: c562 953e 2d1c 36bd 7a85 eabd 7546 01bd
000002c0: 254a 01be 73ac b53e 0dbd 653e 3089 f03d
000002d0: af89 093e 7c11 623d d82b 05bd d924 683d
000002e0: a85e 0c3e 9dc9 893c 7ed2 5f3d 8a6e 3abc
000002f0: 7c9c f5bd 1691 6abe 4823 a0bd 4600 d7be
00000300: 7a78 57be 8276 8e3d 9f87 c13e c82a 553f
00000310: bf14 9dbd 7753 cbbd 3ae1 a7bd 7c4d b43d
00000320: 84b4 d43d 053e 71bd 4b77 043e 3069 90be
00000330: a9a4 58be afab dc3e 049a d53d fc6e 733e
00000340: e073 633e 909b df3c 9c0c 87bd b63b 0b3d
00000350: d7bc 0abd b0c8 96be 1f37 f0bd 20b3 8e3c
00000360: ddf2 45be f6c2 19bd 660a 333e 04da babe
00000370: 4a36 7bbe c844 323e 8c43 b3be bdf1 293f
00000380: 7d3d 84be 6459 e9be b7a6 47bd d36b b6be
00000390: d693 a23e b8e3 d93d f02a 983e 1ea6 49be
000003a0: 21b5 82be e99e 753e ac80 9e3d 20fe 1d3d
000003b0: 040a ca3d 74e1 cdbd d3e9 b6bd 328d d8bc
000003c0: 51f6 07be 2341 a3be f6d5 71be 69ed 18be
000003d0: b137 babe a45a 1abe 445a 233e 0599 0fbd
000003e0: ba3a babe a12c a1be 5ba8 b3be 1b47 1cbe
000003f0: f26b 60be 6e36 a9be cb5a c4bd 78f7 1cbd

fc1.bias f4 [256]
0.020487407 -0.062480144 0.45482138 -0.028707327 -0.06258491 -0.06603649 -0.055006336 -0.0529621
0.3754252 -0.07168625 -0.060278006 0.11256557 0.08900623 0.051066708 0.047896482 -0.049065564
0.06301536 -0.06232004 -0.057485078 0.1562428 0.060043704 -0.0745131 0.054027915 -0.0896378
-1.1163447 -0.17349425 0.31558138 -0.022979978 -0.05173608 -0.042743415 0.6050921 -0.03425414
-0.0888122 -0.4402281 0.057041626 -0.012539573 -0.18245634 -0.033330373 0.057551384 0.48425528
0.19159853 0.018863855 -0.077729724 -0.0810825 -0.09035376 -0.019525476 -1.027213 0.54427934
0.46236703 -0.11114705 0.019443747 0.42183468 0.1677717 -0.049927272 -0.06552584 0.23905316
-0.16487242 -0.05576745 -0.15174125 -0.11900332 1.1033645 -0.057915192 0.2935188 -0.07629054
0.14410913 -0.07941253 -0.607885 -0.047757067 -0.044441007 -0.088670574 -0.5646913 -0.076477855
0.324967 -0.045072306 -0.098755695 -0.07540132 -0.43532804 0.74998516 -0.055947565 0.055252627
-0.006444841 -0.051338024 -0.051469475 -0.04867925 -0.19423865 -0.04415098 -0.10129001 -0.11657814
0.4027592 -1.2226013 0.1523918 -0.2922064 -0.024027113 -0.031512447 -0.88492 -0.056975383
0.23558 0.41653767 -0.08769826 0.022646638 0.35650095 0.13975449 -0.047359068 0.32941517
-1.0256888 -0.038861398 -0.089062795 -0.09312333 -0.5177468 -0.04007109 -0.048650898 -0.5465066
0.08339366 -0.08358743 -0.08759517 0.10383242 -0.08531267 -0.079320334 -0.5742176 0.1953291
0.39914364 -0.03306075 -0.038399704 -0.09536482 0.04562691 0.16286495 -0.07516226 0.29327983
-0.22284617 -0.13164337 0.32266277 -0.0362612 -0.16056082 -0.014745114 0.8043887 -0.00020815093
-0.049568795 0.7432141 -0.051822424 0.258822 -0.09251313 -0.046629526 -0.39151233 -0.04544944
-0.071099505 -0.80621725 0.4865788 -0.13363364 -0.06840964 -0.310587 -0.19117384 -0.12146157
0.19181576 -0.04957231 0.13217409 -0.10564181 -0.35969546 0.21561109 -0.05232093 -0.057484325
0.44580474 -0.08970367 0.22018255 -0.04097437 0.32472056 -0.09429885 -0.105222985 -0.090000756
-0.0444292 -0.030208398 0.7004382 0.096626595 -0.048943058 -0.053177893 0.007241917 0.13319081
-0.04560388 0.9211726 -0.075852945 -0.056158733 -0.040030837 -0.066197395 0.030935252 0.1841216
0.2556969 0.086683124 -0.044192832 -0.067238055 -0.09013337 0.28160986 -0.06892542 -0.2956409
0.21876372 0.15176217 -0.077296555 1.1680641 -0.7254496 0.62640226 -0.15070255 -0.100587025
-0.076058514 0.12635505 0.02135021 -0.043261062 0.6641142 -0.014146267 -0.041601967 -0.061744478
0.4785489 -0.121599264 0.8301303 -0.98345083 -0.066554755 -0.060287457 -0.054580837 -0.048158504
0.45919874 0.15457673 0.296574 -0.25629348 0.23410237 -0.07706245 -0.104060166 -0.60519326
-0.08324378 -0.048895177 0.20827027 -0.33938414 -0.41017136 0.4524223 -0.04983139 0.09251035
-0.0588936 -0.042518802 1.1316127 0.19741341 0.56590956 -0.04113088 0.07955902 0.13959871
-0.1190806 0.644422 0.42997852 0.16335574 0.02034997 -0.055591147 -0.058983907 -0.58235794
-0.049515177 -0.035460968 0.62716824 0.16454884 0.05132144 0.44550654 0.042565465 0.14535896
00000000: 35d5 a73c 2eeb 7fbd 59de e83e a12b ebbc
00000010: 842c 80bd 243e 87bd 534e 61bd c9ee 58bd
00000020: bb37 c03e 3ed0 92bd 12e6 76bd c788 e63d
00000030: e648 b63d 532b 513d 1a2f 443d f9f8 48bd
00000040: 320e 813d 4c43 7fbd 7975 6bbd 1dfe 1f3e
00000050: 63f0 753d 539a 98bd 604c 5d3d 0694 b7bd
00000060: 62e4 8ebf 7aa8 31be e293 a13e 8240 bcbc
00000070: 36e9 53bd b813 2fbd 51e7 1a3f 124e 0cbd
00000080: 2ce3 b5bd 9465 e1be 7ba4 693d c872 4dbc
00000090: d6d5 3abe 6e85 08bd 00bb 6b3d 4ff0 f73e
000000a0: 6832 443e 5f88 9a3c c330 9fbd 950e a6bd
000000b0: 640b b9bd e4f3 9fbc b77b 83bf e455 0b3f
000000c0: 5fbb ec3e 11a1 e3bd 7e48 9f3c b7fa d73e
000000d0: 58cc 2b3e 8a80 4cbd 6932 86bd 5aca 743e
000000e0: 51d4 28be 696c 64bd 0f62 1bbe 03b8 f3bd
000000f0: 0c3b 8d3f 7b38 6dbd 1948 963e 373e 9cbd
00000100: 5891 133e 09a3 a2bd 5a9e 1bbf ea9c 43bd
00000110: c607 36bd eb98 b5bd 9c8f 10bf 6ca0 9cbd
00000120: 1362 a63e bd9d 38bd 6d40 cabd 026c 9abd
00000130: 51e3 debe 07ff 3f3f 4629 65bd 9450 623d
00000140: 3f2f d3bb d247 52bd a8d1 52bd e563 47bd
00000150: 7fe6 46be a8d7 34bd 2371 cfbd 85c0 eebd
00000160: 7436 ce3e 337e 9cbf 990c 1c3e 149c 95be
00000170: 82d4 c4bc 3213 01bd 1e8a 62bf 055f 69bd
00000180: e23b 713e 6d44 d53e 259b b3bd 7185 b93c
00000190: 4b87 b63e cd1b 0f3e 95fb 41bd 1ba9 a83e
000001a0: c549 83bf 212d 1fbd 8e66 b6bd 72b7 bebd
000001b0: 0e8b 04bf 9521 24bd 2a46 47bd dbe7 0bbf
000001c0: 4cca aa3d e32f abbd 1965 b3bd 18a6 d43d
000001d0: 69b8 aebd b372 a2bd edff 12bf 5a04 483e
000001e0: 8e5c cc3e b66a 07bd 0249 1dbd a14e c3bd
000001f0: 48e3 3a3d 12c6 263e acee 99bd c628 963e
00000200: c931 64be 85cd 06be 0e34 a53e a086 14bd
00000210: 0e6a 24be 7e95 71bc 6bec 4d3f 1743 5ab9
00000220: a608 4bbd 4743 3e3f c043 54bd 5184 843e
00000230: 8677 bdbd 9afe 3ebd 4e74 c8be 3129 3abd
00000240: 9e9c 91bd 4164 4ebf db20 f93e 42d7 08be
00000250: 5a1a 8cbd 4205 9fbe 13c3 43be d8c0 f8bd
00000260: 5a6b 443e 560c 4bbd a558 073e bc5a d8bd
00000270: 012a b8be 27c9 5c3e 794e 56bd af74 6bbd
00000280: 8540 e43e 8fb6 b7bd 8977 613e bed4 27bd
00000290: c641 a63e c11f c1bd 267f d7bd 5152 b8bd
000002a0: 65fb 35bd 9a77 f7bc eb4f 333f 2ae4 c53d
000002b0: 8478 48bd 10d1 59bd 9a4d ed3b 2c63 083e
000002c0: 22cb 3abd f8d1 6b3f ca58 9bbd b306 66bd
000002d0: 60f7 23bd 8092 87bd ed6b fd3c 5f8a 3c3e
000002e0: b4ea 823e ec86 b13d 8b03 35bd 1bb4 89bd
000002f0: d897 b8bd 2b2f 903e c528 8dbd 3e5e 97be
00000300: 9903 603e 8b67 1b3e a84d 9ebd 2083 953f
00000310: 11b7 39bf e65b 203f c551 1abe 9200 cebd
00000320: 91c4 9bbd 3863 013e a3e6 ae3c 8332 31bd
00000330: 6303 2a3f bfc5 67bc d366 2abd c7e7 7cbd
00000340: 5d04 f53e 0909 f9bd 6b83 543f 6fc3 7bbf
00000350: dc4d 88bd fbef 76bd 2890 5fbd da41 45bd
00000360: 191c eb3e 5d49 1e3e 8cd8 973e e638 83be
00000370: 88b8 6f3e ebd2 9dbd 7f1d d5bd f2ed 1abf
00000380: b77b aabd 4f46 48bd cd44 553e c2c3 adbe
00000390: fb01 d2be e5a3 e73e 001c 4cbd 1176 bd3d
000003a0: 6a3a 71bd 3228 2ebd afd8 903f be26 4a3e
000003b0: 73df 103f db78 28bd d7ef a23d f7f2 0e3e
000003c0: 88e0 f3bd d7f8 243f 2526 dc3e ba46 273e
000003d0: fbb4 a63c 8bb3 63bd 1c99 71bd 6915 15bf
000003e0: 6dd0 4abd 853f 11bd 198e 203f 7e7f 283e
000003f0: 6e36 523d 6f19 e43e 2059 2e3d fbd8 143e

fc2.weight f4 [128, 256]
-0.08245723 -0.05036674 0.3921176 -0.057391714 -0.030889157 -0.041638922 0.08537871 -0.022855962
0.22056286 0.025322724 -0.052115113 0.08351688 0.041274358 -0.018843709 0.058215164 -0.049021825
-0.28208563 -0.09665478 -0.0006941126 -0.48441836 -0.13308054 0.047046434 0.4059662 -0.0044111307
-0.18232568 -0.05091333 -0.00551145 -0.09825134 -0.0633915 -0.08360115 0.08609989 -0.059058607
-0.08986797 0.2157325 -0.054328464 0.0030320005 -0.012087825 -0.08391551 -0.027271943 0.16137509
-0.04293248 0.19468227 -0.03278555 -0.11776295 -0.06301504 -0.035868645 -0.20196119 0.025771046
-0.21136516 -0.046724584 -0.029593589 0.032154582 -0.11741069 -0.07728658 -0.0016026316 -0.052647512
-0.12425246 0.017180229 -0.06425046 0.0044036233 -0.39884192 -0.03663355 -0.013459777 -0.066870555
0.29272217 0.059314925 -0.34447625 -0.08444655 0.15727693 -0.041096684 -0.058590762 -0.19191815
-0.34383994 -0.072832994 -0.1103165 -0.08753374 -0.1144825 -0.28166503 0.14312267 0.0057652164
-0.039604828 -0.08400726 -0.0074923486 0.07065626 0.0017627956 0.095017105 0.06281626 0.03355422
0.048469663 0.07820337 0.6208009 -0.11933042 -0.06963233 -0.056086306 -0.346363 0.00030784027
0.4142792 -0.09047252 0.054762855 -0.07370072 0.1466162 -0.033269975 -0.048415642 -0.277898
-0.107760176 -0.061398976 -0.073771775 -0.070308104 -0.16310196 -0.10124163 -0.015600472 -0.32077405
0.20462747 0.11012219 0.05128246 0.14025229 -0.057313666 -0.057310507 -0.10592347 -0.009088772
0.08722457 -0.055733595 -0.13254786 0.036002874 -0.3688134 -0.07778479 -0.020598799 0.038841788
-0.11569381 -0.03868279 0.06726361 -0.121966206 0.038217332 0.080234736 0.09937014 0.017570967
0.020433763 -0.21942607 -0.00039219696 -0.12955232 -0.026375808 -0.0504052 -0.102383524 0.06532569
0.042082503 -0.14068344 -0.06415191 -0.095567875 -0.068587415 0.1946875 -0.10131555 -0.07550529
0.34876353 -0.08603341 0.15286432 0.054181673 -0.10362919 0.059047367 -0.1156627 -0.035968337
-0.12680508 -0.04112925 0.009672865 -0.113391325 -0.06963838 -0.11825331 -0.03197347 -0.18463573
-0.053465895 -0.031948186 0.020844903 -0.025296045 -0.038232945 0.03483978 0.00020540779 0.12214074
-0.03839247 -0.012828915 -0.006850948 0.089022934 -0.019464754 0.09049405 0.011173876 0.014295768
0.36175296 0.015045153 -0.07504069 -0.08626936 0.044512697 -0.04264639 -0.0929535 0.12181271
0.023716241 -0.028168792 -0.08162076 -0.09392391 -0.0067182695 -0.055784043 -0.11440816 0.003627623
-0.005195371 0.0094393855 -0.038107082 0.020207198 0.0885927 -0.0554035 -0.09796351 -0.022964742
-0.062417224 -0.04495776 -0.10098253 0.05501801 -0.061205298 0.023359759 -0.09675822 -0.048376445
0.05530944 0.09815798 -0.40243733 -0.0003291406 0.015955545 -0.026907649 -0.091100395 0.12497954
-0.0012346616 -0.063200496 0.058240768 0.0039955257 -0.1313199 0.12382919 -0.098879166 0.059257295
-0.005342883 -0.06109496 0.053315982 -0.012975073 0.058839943 0.028854428 0.13537748 0.09283822
0.018067205 -0.03669705 -0.08163556 -0.054915752 0.09297538 -0.036186434 -0.079014994 0.2974364
0.057956826 -0.09349578 -0.2806577 0.09115408 -0.046455853 -0.057501324 -0.11013138 -0.07119845
00000000: 56df a8bd 5b4d 4ebd a3c3 c83e 9313 6bbd
00000010: 420b fdbc 938d 2abd 08db ae3d 6d3c bbbc
00000020: 3bdb 613e 9a71 cf3c a876 55bd e60a ab3d
00000030: 4d0f 293d 1f5e 9abc 0673 6e3d 1ccb 48bd
00000040: 876d 90be f1f2 c5bd 1cf5 35ba af05 f8be
00000050: 4446 08be c3b3 403d cdda cf3e 3f8b 90bb
00000060: 95b3 3abe 7f8a 50bd 6599 b4bb 0038 c9bd
00000070: 67d3 81bd 1437 abbd 2455 b03d 70e7 71bd
00000080: b30c b8bd fbe8 5c3e 8687 5ebd 87b4 463b
00000090: 030c 46bc e5db abbd 6969 dfbc 833f 253e
000000a0: f8d9 2fbd ca5a 473e 244a 06bd b42d f1bd
000000b0: 070e 81bd 00eb 12bd eace 4ebe cd1d d33c
000000c0: 1c70 58be 4762 3fbd 416e f2bc 86b4 033d
000000d0: 0475 f0bd 6d48 9ebd 650f d2ba eba4 57bd
000000e0: 1378 febd 8dbd 8c3c bf95 83bd 454c 903b
000000f0: 0235 ccbe 100d 16bd 6686 5cbc 6ef3 88bd
00000100: aedf 953e 35f4 723d 315f b0be 50f2 acbd
00000110: 340d 213e ff54 28bd defc 6fbd 3186 44be
00000120: ca0b b0be 7729 95bd 9eed e1bd e444 b3bd
00000130: cd75 eabd 6636 90be c08e 123e 24ea bc3b
00000140: ac38 22bd 000c acbd 6082 f5bb 3bb4 903d
00000150: 9b0d e73a 5498 c23d d0a5 803d 2670 093d
00000160: 2088 463d 1729 a03d cfec 1e3f 8263 f4bd
00000170: 659b 8ebd c1ba 65bd 7e56 b1be 9f65 a139
00000180: 671c d43e a849 b9bd 044f 603d 67f0 96bd
00000190: 8f22 163e 1946 08bd 7b4f 46bd a648 8ebe
000001a0: 5eb1 dcbd 7e7d 7bbd a815 97bd b2fd 8fbd
000001b0: 3304 27be c657 cfbd 1f99 7fbc 7f3c a4be
000001c0: dd89 513e be87 e13d 8f0d 523d 4c9e 0f3e
000001d0: bcc1 6abd 6cbe 6abd 67ee d8bd 13e9 14bc
000001e0: cca2 b23d e948 64bd a0ba 07be c077 133d
000001f0: 1cd5 bcbe a24d 9fbd d0be a8bc 9118 1f3d
00000200: e0f0 ecbd d871 1ebd 81c1 893d 6bc9 f9bd
00000210: c789 1c3d 1c52 a43d 9282 cb3d fdf0 8f3c
00000220: b564 a73c 3ab1 60be c99f cdb9 5da9 04be
00000230: 1412 d8bc af75 4ebd 74ae d1bd 7ac9 853d
00000240: b45e 2c3d 520f 10be 1462 83bd 17b9 c3bd
00000250: 8f77 8cbd 295c 473e 877e cfbd 84a2 9abd
00000260: 2291 b23e 4932 b0bd 7788 1c3e 9aed 5d3d
00000270: 8a3b d4bd a7db 713d 91e0 ecbd 8953 13bd
00000280: 31d9 01be 2577 28bd f07a 1e3c b639 e8bd
00000290: 919e 8ebd cb2e f2bd 9df6 02bd 2611 3dbe
000002a0: 0eff 5abd 1adc 02bd eec2 aa3c a739 cfbc
000002b0: 269a 1cbd 28b4 0e3d bc62 5739 ed24 fa3d
000002c0: 6c41 1dbd 5f30 52bc eb7d e0bb a851 b63d
000002d0: 8c74 9fbc f254 b93d a212 373c cc38 6a3c
000002e0: af37 b93e f27f 763c efae 99bd fdad b0bd
000002f0: f252 363d fbad 2ebd 685e bebd f178 f93d
00000300: 9048 c23c 3dc2 e6bc c928 a7bd 2e5b c0bd
00000310: ee24 dcbb cf7d 64bd d34e eabd 6abd 6d3b
00000320: ee3d aabb a7a7 1a3c 2c16 1cbd 9189 a53c
00000330: 1770 b53d c8ee 62bd 18a1 c8bd 8e20 bcbc
00000340: 34a9 7fbd a125 38bd eecf cebd 915a 613d
00000350: 68b2 7abd f75c bf3c 2c29 c6bd 6126 46bd
00000360: 278c 623d 0d07 c93d 440c cebe 8190 acb9
00000370: 34b5 823c 6e6d dcbc d892 babd 46f5 ff3d
00000380: 5ed4 a1ba 436f 81bd df8d 6e3d e6ec 823b
00000390: b978 06be 299a fd3d 2981 cabd c7b7 723d
000003a0: 5a13 afbb b53e 7abd dc61 5a3d 6795 54bc
000003b0: 2702 713d 1f60 ec3c 65a0 0a3e f721 be3d
000003c0: ad01 943c a54f 16bd 8b30 a7bd 57ef 60bd
000003d0: e069 be3d 3a38 14bd 9dd2 a1bd 9549 983e
000003e0: 2364 6d3d b77a bfbd 5eb2 8fbe feae ba3d
000003f0: 7e48 3ebd 8286 6bbd 908c e1bd 7ed0 91bd

fc2.bias f4 [128]
-0.012767465 1.0342212 -0.46438405 -0.19678001 0.9558404 0.9822455 0.6084845 -0.57943386
-0.18965527 1.0322036 -0.5366824 -0.046105865 -0.05055434 -0.48598665 1.287382 -0.47054997
0.34735057 -0.7021074 -0.020442637 -0.31244037 -0.31534535 -0.08958613 -0.43071747 -0.073575534
0.028224066 -0.45652932 -0.51583916 -0.07363387 -0.4531506 0.7171537 0.3350919 0.3348179
-0.034315236 -0.79987556 0.20040837 -0.03312899 -0.49970895 -0.65259075 -0.21613272 -0.49670562
-0.02253734 -0.04569454 0.24686787 -0.12126454 -0.2536237 0.20461053 -0.21224396 0.14868134
-0.1790327 0.91643393 -0.63955766 0.0051205973 0.14105174 -0.2561216 -0.11848645 0.23649305
-0.2757547 0.033601947 -0.7213497 -0.014554738 0.8901587 -0.10718173 -0.33181044 -0.030020935
-0.25915214 0.5326326 -0.08991656 0.35470888 -0.11643929 -0.009916894 -0.66358066 0.30475456
-0.35080457 0.41174686 -0.4225435 -0.06116831 -0.06339036 0.28449216 0.13568462 -0.121798754
0.016251437 0.27095348 -0.17613816 -0.3318823 0.28310096 -0.042551253 -0.04600974 0.67881966
-0.11966772 0.38610777 0.55147153 -0.18810153 -0.6599021 -0.104786985 -0.23426624 -0.108780324
-0.03473449 -0.07068406 -0.3492338 -0.33024493 0.24776043 -0.27146205 0.6545641 -0.22916235
-0.21096689 0.4054125 -0.048920486 -0.07802716 0.23347153 0.25971422 1.1659373 -0.48330927
0.20433813 -0.35725966 -0.35361758 -0.3934975 -0.24271715 -0.13065319 0.5134274 -0.36542308
-0.16290887 -0.08764984 -0.34502065 0.66803485 -0.58711135 0.003646895 -0.6451863 -0.4262505
00000000: a12e 51bc 5c61 843f bfc3 edbe b380 49be
00000010: f5b1 743f 7174 7b3f a4c5 1b3f c755 14bf
00000020: fe34 42be 3f1f 843f 0564 09bf 81d9 3cbd
00000030: 1112 4fbd 3ed3 f8be efc8 a43f edeb f0be
00000040: efd7 b13e 50bd 33bf 5177 a7bc 2ff8 9fbe
00000050: f274 a1be ef78 b7bd 0087 dcbe c5ae 96bd
00000060: 2836 e73c 36be e9be 090e 04bf 5bcd 96bd
00000070: 5b03 e8be 6397 373f 2a91 ab3e 406d ab3e
00000080: 228e 0cbd a5c4 4cbf da37 4d3e 44b2 07bd
00000090: dad9 ffbe 3010 27bf e551 5dbe 3350 febe
000000a0: 3aa0 b8bc 332a 3bbd eeca 7c3e 8b59 f8bd
000000b0: f7da 81be 6c85 513e 7b56 59be ec3f 183e
000000c0: 5954 37be 6a9b 6a3f 0dba 23bf afca a73b
000000d0: de6f 103e 5f22 83be 06a9 f2bd 3c2b 723e
000000e0: b82f 8dbe 32a2 093d 60aa 38bf ff76 6ebc
000000f0: 71e1 633f 1882 dbbd 0fe3 a9be 77ee f5bc
00000100: 97af 84be 9c5a 083f 2c26 b8bd 679c b53e
00000110: b977 eebd 787a 22bc 6ce0 29bf ca08 9c3e
00000120: a89c b3be 7cd0 d23e 9f57 d8be 9f8b 7abd
00000130: ced2 81bd f5a8 913e e9f0 0a3e a071 f9bd
00000140: bc21 853c 6aba 8a3e 905d 34be 7aec a9be
00000150: 9cf2 903e 394a 2ebd b674 3cbd 20c7 2d3f
00000160: 5914 f5bd ebaf c53e 3d2d 0d3f b09d 40be
00000170: 58ef 28bf 8f9a d6bd 7de3 6fbe 38c8 debd
00000180: c145 0ebd cec2 90bd c6ce b2be dd15 a9be
00000190: e9b4 7d3e 13fd 8abe 8391 273f 89a9 6abe
000001a0: b407 58be 3a92 cf3e d960 48bd b4cc 9fbd
000001b0: 2913 6f3e 43f9 843e 6f3d 953f 5074 f7be
000001c0: 043e 513e bdea b6be 5d0d b5be 8178 c9be
000001d0: d88a 78be f3c9 05be fa6f 033f bc18 bbbe
000001e0: 95d1 26be c281 b3bd 8ca6 b0be 5504 2b3f
000001f0: ee4c 16bf bf00 6f3b ee2a 25bf 813d dabe

fc3.weight f4 [64, 128]
0.11130074 -0.027437294 0.061175413 0.057978243 -0.20221567 -0.15282346 0.05126869 0.25934434
-0.1269233 -0.11121594 -0.22617616 -0.12811701 -0.12671895 0.13849147 -0.10470041 0.07635458
0.1041644 0.038393725 -0.039003976 0.024070777 -0.15392743 0.03714624 -0.09006987 -0.05453895
0.13981707 0.034391966 -0.25243792 0.0999298 -0.0059936014 -0.20537822 -0.21546236 -0.09530727
-0.10752807 -0.1173187 0.44011176 0.022171598 -0.25063252 -0.13785927 0.12727587 0.1336992
0.0728925 -0.12930202 -0.04432997 -0.03367119 0.006457796 0.0436499 0.12073902 -0.15439267
-0.26049322 -0.21215925 0.15999922 0.009825969 0.013288317 -0.08347563 0.07298932 -0.10365098
0.01627645 0.05649689 0.39305386 0.027332174 -0.32706583 0.09130791 0.006596638 -0.09909934
0.028950967 -0.37036213 -0.2827184 -0.10571373 -0.001602383 0.016270863 -0.37084565 -0.2523883
0.056562655 -0.056552555 0.14595023 -0.08124184 -0.031553835 -0.2597383 -0.18734914 -0.12443796
0.014447866 -0.03734377 -0.0879925 0.08649274 -0.027146874 0.035561126 -0.13106795 -0.3278899
0.022717692 0.11084822 -0.10633595 0.12513722 -0.061500814 -0.13758487 0.045898795 0.03572694
-0.053155787 0.023365563 0.19171435 -0.15079495 -0.11003324 -0.0023491452 -0.29868397 -0.11749249
0.030517047 0.18850502 0.018940145 -0.102333345 -0.1702193 -0.21636756 -0.29238468 -0.017484276
-0.05891278 0.1575989 -0.16289495 0.04836624 -0.22957791 0.095364906 -0.21775237 -0.2841459
0.013183331 -0.04318334 0.37920296 -0.116406135 0.25610805 -0.113785006 -0.4559149 -0.12285208
-0.063661136 -0.1114415 0.34336576 -0.14283048 -0.18863544 -0.047810044 -0.05995234 0.08026336
0.11921709 -0.079168916 0.09011345 -0.011945982 -0.00035811937 -0.04952355 -0.17751841 0.14783892
-0.14301111 0.42101926 0.33513084 0.41306373 0.13139981 -0.084130675 0.010681931 -0.0603126
-0.122120865 -0.29070655 0.1877016 -0.008662847 -0.13981932 -0.22967641 -0.2097958 0.0017111137
-0.12511724 0.32555652 -0.014386622 -0.016594743 -0.00017415805 0.16638708 0.017879505 -0.096596524
-0.032987446 0.040529676 -0.0787503 -0.116502725 0.3463979 -0.140211 0.18319699 -0.03755494
-0.2359641 -0.089421846 -0.02775508 -0.20397724 -0.14863487 -0.006945213 0.10677734 -0.14816372
-0.493986 0.01967734 -0.09028835 0.08281701 -0.28756893 0.004729126 -0.12932014 -0.1075305
-0.04254628 -0.04934627 0.18021461 -0.23480666 -0.102745175 -0.11710999 -0.04031317 -0.08178219
-0.1592775 0.09736812 0.26303175 0.10853502 -0.03448151 -0.162343 0.19898279 -0.18272088
-0.14400917 0.28073013 -0.04765455 0.045599494 -0.05985704 -0.06499303 0.012844791 -0.10155347
-0.019903943 -0.02320174 -0.22074746 0.39652398 -0.20185925 -0.0022659518 0.06285162 -0.042703748
0.0040271725 -0.17410061 0.03685705 -0.40472615 -0.23914418 -0.02026132 -0.18447815 -0.13929525
-0.004925426 -0.041461505 -0.012560001 -0.064397134 -0.21326911 -0.035421684 -0.071569584 -0.06342479
-0.0556802 -0.1549427 -0.107052535 -0.052345295 -0.071822196 -0.11520073 0.14906017 0.09192742
0.014118147 -0.084812716 0.06438003 -0.13111635 -0.05077571 -0.087870106 0.2388612 0.01714337
00000000: a4f1 e33d 2dc4 e0bc 1293 7a3d 987a 6d3d
00000010: a011 4fbe c17d 1cbe 1eff 513d c8c8 843e
00000020: 2ef8 01be 2fc5 e3bd b99a 67be 1b31 03be
00000030: 9dc2 01be b5d0 0d3e 2b6d d6bd ca5f 9c3d
00000040: 2554 d53d bd42 1d3d a2c2 1fbd 1430 c53c
00000050: 279f 1dbe a826 183d 8d76 b8bd 3c64 5fbd
00000060: 352c 0f3e 97de 0c3d 8b3f 81be ffa7 cc3d
00000070: f965 c4bb ab4e 52be 2aa2 5cbe 7530 c3bd
00000080: ad37 dcbd c944 f0bd 5456 e13e 36a1 b53c
00000090: e852 80be fb2a 0dbe 9b54 023e 71e8 083e
000000a0: aa48 953d c067 04be 5893 35bd cdea 09bd
000000b0: eb9b d33b 3dca 323d 0546 f73d 1d19 1ebe
000000c0: 5e5f 85be 4640 59be d6d6 233e 1afd 203c
000000d0: 3eb7 593c 45f5 aabd 6d7b 953d f746 d4bd
000000e0: 3156 853c 4869 673d 5b3e c93e b9e7 df3c
000000f0: 2c75 a7be a4ff ba3d 9c28 d83b 98f4 cabd
00000100: 942a ed3c 1ba0 bdbe 77c0 90be 7180 d8bd
00000110: 0d07 d2ba 794a 853c 7bdf bdbe 0a39 81be
00000120: 3eae 673d a7a3 67bd fa73 153e 1f62 a6bd
00000130: 983e 01bd 6bfc 84be 74d8 3fbe 54d9 febd
00000140: beb6 6c3c c8f5 18bd 6935 b4bd 1b23 b13d
00000150: 1f63 debc 8ba8 113d ad36 06be 2fe1 a7be
00000160: 741a ba3c 6404 e33d aac6 d9bd f923 003e
00000170: 47e8 7bbd 0ce3 0cbe 6000 3c3d 6956 123d
00000180: e2b9 59bd 2369 bf3c c450 443e fe69 1abe
00000190: 1b59 e1bd 1ef4 19bb 1bed 98be e79f f0bd
000001a0: e3fe f93c 7607 413e 5d28 9b3c 2594 d1bd
000001b0: f84d 2ebe 758f 5dbe 72b3 95be 2f3b 8fbc
000001c0: 874e 71bd 9b61 213e efcd 26be ae1b 463d
000001d0: 7916 6bbe ad4e c33d 7afa 5ebe 927b 91be
000001e0: e6fe 573c 04e1 30bd e426 c23e 5766 eebd
000001f0: 9820 833e 1d08 e9bd ae6d e9be df99 fbbd
00000200: c560 82bd 713b e4bd a3cd af3e 2742 12be
00000210: a629 41be 77d4 43bd 9690 75bd 1e61 a43d
00000220: 1728 f43d 5023 a2bd 678d b83d 15b9 43bc
00000230: f8c1 bbb9 35d9 4abd 63c7 35be 1663 173e
00000240: 8171 12be d68f d73e 4596 ab3e 177d d33e
00000250: ac8d 063e b44c acbd 4403 2f3c 580a 77bd
00000260: 811a fabd 7dd7 94be d934 403e 9dee 0dbc
00000270: cc2c 0fbe 4b30 6bbe b6d4 56be 7347 e03a
00000280: bc1e 00be 58af a63e deb5 6bbc b3f1 87bc
00000290: 329e 36b9 6061 2a3e 0a78 923c 66d4 c5bd
000002a0: d81d 07bd 7202 263d d647 a1bd fb98 eebd
000002b0: 115b b13e 7993 0fbe fe97 3b3e 35d3 19bd
000002c0: 93a0 71be cd22 b7bd 9f5e e3bc 69df 50be
000002d0: bd33 18be ab94 e3bb 14ae da3d 3bb8 17be
000002e0: bceb fcbe 5f32 a13c 19e9 b8bd f79b a93d
000002f0: 3c3c 93be c9f6 9a3b 806c 04be f338 dcbd
00000300: 0245 2ebd 501f 4abd 2e8a 383e 2871 70be
00000310: 106c d2bd 5dd7 efbd 6c1f 25bd 6c7d a7bd
00000320: a419 23be f068 c73d 19ac 863e 9c47 de3d
00000330: 7c3c 0dbd 3e3d 26be 25c2 4b3e 2f1b 3bbe
00000340: 2477 13be dcbb 8f3e 6b31 43bd 89c6 3a3d
00000350: a82c 75bd 111b 85bd f572 523c 44fb cfbd
00000360: 980d a3bc 9311 bebc 9f0b 62be 3105 cb3e
00000370: 31b4 4ebe 5d80 14bb 5ab8 803d 20ea 2ebd
00000380: 5ff6 833b 6e47 32be 6bf7 163d 4438 cfbe
00000390: 36e2 74be 11fb a5bc d7e7 3cbe 6aa3 0ebe
000003a0: 7865 a1bb 8ad3 29bd 76c8 4dbc a5e2 83bd
000003b0: 3863 5abe 5416 11bd 1393 92bd dbe4 81bd
000003c0: ec10 64bd 4da9 1ebe 5c3e dbbd 0568 56bd
000003d0: 8417 93bd 5cee ebbd 3ba3 183e 7144 bc3d
000003e0: cd4f 673c 4ab2 adbd add9 833d 5d43 06be
000003f0: 31fa 4fbd 3ef5 b3bd 0898 743e 4170 8c3c

fc3.bias f4 [64]
-0.8196578 -0.24702537 -0.027130073 -0.100353196 -0.13362886 -0.5227347 0.18756005 1.0451542
0.37879622 0.72099066 -0.6744036 -0.18510008 0.007699102 -0.24296995 0.48244703 -0.18482947
-0.15072927 -0.28026208 -0.3520601 -0.14552346 0.0784824 -0.3539175 0.8643962 -0.1339507
0.21717563 -0.28650004 0.8162627 0.6590797 1.0626292 -0.15932554 0.04243124 -0.66401327
1.3119111 -0.4048687 0.94971526 0.5553844 0.20998944 0.74168366 1.1380782 0.18106505
-0.055945475 0.61164606 -0.20243779 -0.122820295 -0.72567 -0.19384687 0.88146937 -0.020517955
-0.26646867 0.60108596 -0.364207 -0.012395306 -0.2409942 -0.92765486 0.81209666 -0.009536991
0.73000085 -0.09214886 -0.33263454 -0.38490376 1.2715431 -0.19083424 -0.27607048 -0.24493751
00000000: 18d5 51bf 38f4 7cbe e33f debc fa85 cdbd
00000010: 01d6 08be f1d1 05bf be0f 403e 9dc7 853f
00000020: 94f1 c13e d892 383f b7a5 2cbf e08a 3dbe
00000030: c048 fc3b 1dcd 78be 4c03 f73e f043 3dbe
00000040: c658 1abe 837e 8fbe 3941 b4be 1a04 15be
00000050: 61bb a03d ad34 b5be 1249 5d3f 5f2a 09be
00000060: 4a63 5e3e 22b0 92be 98f6 503f 72b9 283f
00000070: 3c04 883f 3c26 23be 61cc 2d3d c6fc 29bf
00000080: b4ec a73f f34a cfbe 8a20 733f ac2d 0e3f
00000090: 7907 573e fbde 3d3f 8cac 913f 1e69 393e
000000a0: 1527 65bd d694 1c3f da4b 4fbe 3589 fbbd
000000b0: 82c5 39bf cb7f 46be faa7 613f 4515 a8bc
000000c0: 956e 88be c5e0 193f 5779 babe ae15 4bbc
000000d0: 2fc7 76be ca7a 6dbf 91e5 4f3f 0a41 1cbc
000000e0: 56e1 3a3f 8bb8 bcbd 134f aabe 1b12 c5be
000000f0: edc1 a23f 0d6a 43be 1c59 8dbe e6d0 7abe

fc4.weight f4 [10, 64]
-1.1862875 -0.12786898 0.08774185 0.1327244 -0.008682131 -0.71304137 -0.1461697 0.036245577
-0.18146743 0.25637138 -0.21101105 -0.22026782 -0.015217789 0.18696588 -0.0543984 0.05372491
-0.19918476 -0.014823171 -0.4193805 -0.039001137 -0.21227723 -0.102816075 0.052067883 0.031592693
-0.23483369 -0.107363544 0.08150608 -0.12255713 -0.3119996 -0.9964532 0.10113725 -0.24945945
-0.3465716 0.052361265 -1.0846003 0.10228406 -0.61094713 -0.41218105 0.2197982 -0.85168755
-0.25865048 0.0077397856 -0.17145728 0.03834193 -0.12135819 -0.06069362 0.13464132 0.11750395
-0.26684618 -0.061917115 0.18655802 -0.086348794 -0.003130367 -0.7300537 -0.03650074 0.031994987
0.025417319 -0.6410724 -0.629432 -0.5188793 -0.66192204 0.2034837 -0.12145202 -0.034512345
-1.0338725 -0.044169925 -0.3572817 0.006318368 0.12049479 -0.67009425 0.0067776926 0.044889726
-0.41052106 -0.17281134 -0.33912423 -0.14474148 -0.09718951 -0.023027524 -0.95018756 -0.058310825
-0.29458553 -0.9599922 -0.19390139 0.009838046 0.03158944 0.01038018 0.1841033 -0.5144697
-0.21806051 0.03247656 0.14319633 0.039821893 -0.44453543 -0.59878474 -0.4489675 -0.73874867
-0.31670374 -0.51550996 -0.477246 -0.16231936 -0.6572115 -2.1677477 -0.4696962 -0.32962528
-0.03965979 -0.016627407 0.12156544 0.06123825 -1.0916936 -0.12537168 -0.0343729 -0.028728317
-0.3618616 -1.4315726 -0.039504617 -0.32417518 0.2653671 -1.3540047 -0.50420314 0.06257886
-0.5129205 -0.49615607 -0.2997072 -0.7932057 -1.0943469 0.029329136 -0.24657524 -0.035950664
-1.2533399 0.042901337 -0.38602534 -0.17900047 -0.030306844 -0.62210304 -0.20978531 0.07320598
0.13144907 -0.19846536 -0.4873154 0.120035015 0.03813525 0.05243749 -0.086969525 -0.0060032685
-0.18108886 -0.14799553 -0.4287217 -0.082531676 0.11034833 -0.018169928 0.013639154 -0.39396966
-0.2501952 0.07314802 -0.17400536 -0.15984078 0.016469344 -0.3898211 -0.12870505 -0.2535533
-0.47756118 -0.45593378 -0.60773754 0.110709295 -0.9113136 -0.7217609 0.12204144 -0.61343104
-0.07057061 0.2287543 -0.12458062 -0.003572643 -0.03268406 -0.03900651 0.020060891 -0.16336876
-0.8361684 0.14800376 0.17085949 -0.40525657 -0.154029 -0.6128201 -0.22328243 -0.11647149
-0.10678748 -0.6045523 -1.1974247 -0.37695837 -2.0152614 -0.11087284 0.051920783 -0.5342342
-1.6352819 0.071301594 -0.47100565 0.01921047 -0.0488777 -0.4383485 0.19205926 -0.4295513
0.04952213 0.035212986 -0.5235785 -0.29003453 -0.09004809 -0.12853076 -0.42134032 -0.087348014
-0.18964581 -0.83180076 -0.64565706 -0.09255868 -0.17863639 0.0055259126 -0.16043214 -0.21130629
-0.17935814 -0.085540354 0.17540738 0.17520915 -0.33654922 -0.52006096 -0.5191882 -1.4477226
-0.21616408 -0.20175785 -0.4876589 0.18572311 -0.5381423 -0.7863059 -0.117122926 -0.43961206
0.1485998 -0.019883176 -0.13342749 -0.03289312 -0.724573 0.013650961 0.14693592 0.032740217
0.0905967 -0.22237307 0.12747243 -0.29880375 0.04381322 -1.2219504 -0.18853606 0.019854067
-0.099427566 -0.41729623 -0.46950585 -1.1448735 -0.8433947 -0.05500502 -0.07797675 -0.37764144
00000000: 45d8 97bf 16f0 02be 00b2 b33d e8e8 073e
00000010: 7f3f 0ebc e189 36bf 83ad 15be 3e76 143d
00000020: 99d2 39be 1c43 833e 4813 58be e38d 61be
00000030: 0954 79bc fc73 3f3e dbd0 5ebd a70e 5c3d
00000040: 17f7 4bbe e3dc 72bc 0ab9 d6be a8bf 1fbd
00000050: 345f 59be 3c91 d2bd 2245 553d 5767 013d
00000060: 3e78 70be 6be1 dbbd a9ec a63d 3cff fabd
00000070: 69be 9fbe 8f17 7fbf 0c21 cf3d 4c72 7fbe
00000080: d571 b1be c478 563d 2fd4 8abf 4e7a d13d
00000090: 0867 1cbf 6509 d3be c812 613e 3208 5abf
000000a0: d66d 84be 079e fd3b 7f92 2fbe 6d0c 1d3d
000000b0: a58a f8bd e099 78bd 6adf 093e e9a5 f03d
000000c0: 10a0 88be cd9c 7dbd 1109 3f3e a3d7 b0bd
000000d0: d826 4dbb cde4 3abf cd81 15bd 2d0d 033d
000000e0: fb37 d03c 521d 24bf 7522 21bf 46d5 04bf
000000f0: b973 29bf 085e 503e d6bb f8bd d15c 0dbd
00000100: ef55 84bf 86eb 34bd a1ed b6be 500a cf3b
00000110: f9c5 f63d 4c8b 2bbf 6817 de3b 4ade 373d
00000120: d12f d2be 75f5 30be b1a1 adbe 1c37 14be
00000130: 4b0b c7bd 38a4 bcbc 7e3f 73bf 55d7 6ebd
00000140: ead3 96be 0cc2 75bf 168e 46be c12f 213c
00000150: ee63 013d a111 2a3c 9385 3c3e 49b4 03bf
00000160: 414b 5fbe 2406 053d 0fa2 123e 481c 233d
00000170: 269a e3be f549 19bf 11df e5be a21e 3dbf
00000180: fe26 a2be 76f8 03bf 9659 f4be 0c37 26be
00000190: 033f 28bf 61bc 0ac0 057c f0be a5c4 a8be
000001a0: 4e72 22bd 3336 88bc 4df7 f83d f6d4 7a3d
000001b0: 9ebc 8bbf 6f61 00be 99ca 0cbd a657 ebbc
000001c0: ec45 b9be c53d b7bf 98cf 21bd 4afa a5be
000001d0: 32de 873e 0750 adbf 7513 01bf 5829 803d
000001e0: c24e 03bf 2b08 febe 3973 99be 870f 4bbf
000001f0: 8f13 8cbf a843 f03c 387e 7cbe 0141 13bd
00000200: 716d a0bf 50b9 2f3d 1da5 c5be e64b 37be
00000210: 0f46 f8bc 2542 1fbf f6d1 56be 04ed 953d
00000220: 969a 063e 813a 4bbe 6781 f9be ebd4 f53d
00000230: b533 1c3d b2c8 563d 141d b2bd 11b7 c4bb
00000240: 5c6f 39be 248c 17be 6981 dbbe 5e06 a9bd
00000250: 4efe e13d 1ad9 94bc c276 5f3c 64b6 c9be
00000260: 9619 80be a1ce 953d 762e 32be 4dad 23be
00000270: b8ea 863c a296 c7be 42cb 03be bdd1 81be
00000280: e682 f4be 2770 e9be b094 1bbf 8ebb e23d
00000290: d94b 69bf 53c5 38bf ddf0 f93d d109 1dbf
000002a0: 5387 90bd 913e 6a3e 2024 ffbd 0123 6abb
000002b0: b9df 05bd 4ac5 1fbd bd56 a43c 244a 27be
000002c0: 220f 56bf 4c8e 173e caf5 2e3e ca7d cfbe
000002d0: c7b9 1dbe c7e1 1cbf 26a4 64be 9b88 eebd
000002e0: 65b3 dabd f1c3 1abf 3645 99bf b000 c1be
000002f0: 0bfa 00c0 4d11 e3bd e3aa 543d 93c3 08bf
00000300: eb50 d1bf 9206 923d a727 f1be 475f 9d3c
00000310: fc33 48bd 376f e0be 2fab 443e 26ee dbbe
00000320: b8d7 4a3d 7e3b 103d 3e09 06bf 687f 94be
00000330: 226b b8bd 919d 03be ebb9 d7be 84e3 b2bd
00000340: 8332 42be e5f0 54bf c849 25bf 688f bdbd
00000350: 75ec 36be b712 b53b 5348 24be ad60 58be
00000360: a9a9 37be c82f afbd fe9d 333e 076a 333e
00000370: 2e50 acbe b722 05bf 85e9 04bf f94e b9bf
00000380: 1e5a 5dbe 9c99 4ebe 6dae f9be 332e 3e3e
00000390: b2c3 09bf 584b 49bf 25de efbd d514 e1be
000003a0: 8c2a 183e 0be2 a2bc 37a1 08be f0ba 06bd
000003b0: 9e7d 39bf 48a8 5f3c 5f76 163e 9b1a 063d
000003c0: c38a b93d c4b5 63be 2288 023e cefc 98be
000003d0: 7e75 333d df68 9cbf 990f 41be ffa4 a23c
000003e0: aea0 cbbd daa7 d5be 1263 f0be 378b 92bf
000003f0: b7e8 57bf f24c 61bd 46b2 9fbd 385a c1be

fc4.bias f4 [10]
-0.12003118 -0.64223194 0.24287435 0.34955755 -0.4166533 0.74421054 0.5390862 0.17364717
0.069196336 -0.7893234
00000000: e8d2 f5bd 5069 24bf 0eb4 783e 35f9 b23e
00000010: 9553 d5be 9584 3e3f 8e01 0a3f 90d0 313e
00000020: cfb6 8d3d 1911 4abf
