runs/Mar02_17-09-54_cssd901383-Run(lr=0.001, batch_size=256, patience=1)-valid/checkpoint.pt (torch_old, 972387 bytes, 8 tensors)

fc1.weight f4 [256, 784]
000000 b0 ec 73 3c 73 b3 05 bd 91 a6 f6 bd 74 30 81 be
       0.014887974 -0.03264184 -0.12043489 -0.2523228
000010 e3 ce 95 bd 42 72 9e be 00 58 6a be 0b b0 99 be
       -0.07314851 -0.30946547 -0.22885132 -0.30017123
000020 83 94 d6 be b4 73 ae 3c 6e 5d ee 3e 63 dd 10 3f
       -0.4191018 0.021295406 0.46555656 0.5658781
000030 6f f0 2b 3e 71 f6 89 3e 63 ad ad 3e 26 3e 58 3e
       0.16790937 0.26945832 0.33921346 0.21117458
000040 95 b6 ee 3e 79 1b 09 3f 96 de 3a 3e 30 47 1d be
       0.46623674 0.53557545 0.18248972 -0.15359187
000050 b8 92 d2 be be 4f 3e be e4 6a 0f bc 1c 36 96 be
       -0.41127563 -0.18585107 -0.008753512 -0.29338157
000060 68 8d c7 bd e4 8a 06 bd f9 d8 9e bd 24 54 ad bb
       -0.09743768 -0.0328473 -0.07756228 -0.0052895714
000070 6d 52 98 bc 06 51 5e bd af 71 3e be cc 03 ee be
       -0.018593991 -0.05427649 -0.18598054 -0.46487272
000080 e0 a1 4b be 4d 54 b2 be e0 37 3b bf a5 20 62 bf
       -0.19885969 -0.3482994 -0.73132133 -0.8833106
000090 37 b8 00 bf 04 ff 82 be 8e 61 48 3d 43 ae 97 3e
       -0.5028109 -0.25585186 0.04892116 0.2962514
0000a0 05 72 00 3d 0f 24 6e be 90 20 de bd 93 7a b9 bd
       0.031358737 -0.23255943 -0.108460546 -0.09056582
0000b0 12 bb 35 3e 3b 2d c0 3e f9 a3 af bd c7 5a bf be
       0.17747143 0.37534508 -0.08576197 -0.37373945
0000c0 4a 09 59 bf 3d 30 22 bf dd 95 9c be 94 71 74 be
       -0.847798 -0.63354856 -0.30583087 -0.23871452
0000d0 6b 02 68 be 8a 93 35 be 4f 1e 73 bd 86 b3 7d bc
       -0.22657172 -0.17732063 -0.059355076 -0.015484696
0000e0 e1 74 ba bc a9 ed 2b be 80 3b a0 be be 94 85 be
       -0.02276081 -0.16789879 -0.31295395 -0.26090044
0000f0 28 71 6e be 59 fb 12 bf d4 c0 54 bf 01 8b 2f bf
       -0.23285353 -0.57414776 -0.8310673 -0.6857148
000100 9e 0d ff be dd 0a e1 be 36 fa 48 be 8b 55 f1 3c
       -0.49815077 -0.439536 -0.19626698 0.029459735
000110 10 82 36 bb de d8 6c be a8 04 62 be 5b 48 4e bc
       -0.002784852 -0.23129603 -0.22072089 -0.012590493
000120 a7 c1 1f 3d d9 27 d9 3c 61 0c 41 be c8 e1 d8 be
       0.03900304 0.026508259 -0.18852378 -0.42359757
000130 05 30 2b bf 9d b4 55 bf f6 1a 0e bf e8 7d 9a be
       -0.66870147 -0.8347872 -0.5550989 -0.30174184
000140 7f 54 0c bd d8 2a 57 be 58 20 9e bd f1 4e 72 bd
       -0.03426027 -0.21012437 -0.07721013 -0.059157316
000150 ed d1 08 be 5c 75 54 be 27 42 98 be ca a0 a2 be
       -0.1336133 -0.20747894 -0.2973797 -0.31763297
000160 da e9 ea be 44 df 07 bf 5c e4 53 bf 59 c1 4d bf
       -0.4588154 -0.5307505 -0.82770324 -0.8037315
000170 1b ba 22 bf 51 0c 9a be 30 19 3a be 55 1d b6 3d
       -0.63565224 -0.30087522 -0.18173671 0.088923134
000180 6b 24 00 3d ff 41 e1 bb 6c 41 c4 3d 9c 05 61 3d
       0.03128473 -0.0068743224 0.09582791 0.05493699
000190 f8 10 8d 3c e6 3b 9f 3d 2d 3f 0c be a5 da f3 be
       0.017220005 0.077750966 -0.13695975 -0.4762775
0001a0 bb 41 20 bf 45 a4 52 bf a0 19 35 bf 1a 5a bb be
       -0.62600297 -0.82281905 -0.70742226 -0.3659218
0001b0 2c d8 18 be 39 73 54 be 89 5f d3 bd df 10 d6 bd
       -0.14926213 -0.20747079 -0.10320956 -0.10452437
0001c0 4c ad a8 bd 21 5f 55 be 4b 54 7d be e7 a8 13 be
       -0.08236179 -0.2083707 -0.24739186 -0.144199
0001d0 ad af eb be 2f 9a f3 be 33 b6 65 bf b9 03 00 bf
       -0.46032467 -0.4757857 -0.8973114 -0.5000568
0001e0 d2 21 e6 be c6 9a 05 be 02 dd 2f be 26 4c ac 3d
       -0.44947678 -0.13047323 -0.17174152 0.08412962
0001f0 f1 d6 d3 3d 72 6d 3e 3e dd 13 0e 3e 8c c9 33 3d
       0.10343731 0.18596438 0.13874765 0.043893382
000200 b0 fc 26 3d 4a 04 b6 3d 6a 39 23 bd 83 93 85 be
       0.040768325 0.08887537 -0.039849676 -0.26089105
000210 c5 b8 21 bf 0f e3 36 bf ec a3 1e bf b3 9d f1 be
       -0.6317256 -0.71440214 -0.61968875 -0.47190627
000220 2a 78 66 be 09 e4 09 be 16 ad e5 be cc fa 02 bf
       -0.22506776 -0.13465895 -0.44858617 -0.51163936
000230 70 1a 6e 3d d6 5a 94 bd 47 bb da 3d dd 3f 8f be
       0.05813068 -0.07243888 0.106802516 -0.2797841
000240 b2 f8 9d be c4 4e 23 bf fe b2 2f bf 28 76 ca be
       -0.30853802 -0.6379206 -0.68632495 -0.3954327
000250 27 b6 b9 be 26 7a f7 bd 21 20 24 be 0b 85 21 3d
       -0.36271784 -0.12083845 -0.16027881 0.03943352
000260 04 4b 86 3d 74 8a 58 3e fb 53 5d 3d 4b 92 4b bd
       0.06557277 0.21146566 0.05403517 -0.049700063
000270 02 8a bf 3d a9 ad 09 3e be e1 90 3d 82 05 a7 be
       0.09352495 0.13445152 0.07074307 -0.3262139
000280 40 c2 f0 be d4 f2 28 bf 62 e5 1b bf ed 9b f9 be
       -0.470232 -0.65995526 -0.60896885 -0.48751774
000290 6a 88 d3 be 8e 67 a7 be b9 73 c8 be dc aa a4 bd
       -0.41315013 -0.32696193 -0.3915079 -0.08040401
0002a0 f8 8c b5 bd 1c cd f3 bc ce ee f5 3c 69 c3 c6 be
       -0.08864778 -0.02976089 0.030021098 -0.3882096
0002b0 e3 78 a9 be c0 ea 3d bf d6 8e 19 bf ed 86 da be
       -0.33100042 -0.74186325 -0.59983575 -0.42681065
0002c0 d0 59 e6 be 17 96 ff bd 1c f3 55 be b5 0a 76 3c
       -0.44990396 -0.12479799 -0.2089352 0.015017201
0002d0 f4 9f 7d 3d 68 ca e7 3d e3 7e 89 3d ad 3c 7c 3d
       0.06192012 0.11317903 0.06713655 0.061581302
0002e0 13 d4 42 3c e2 fb 3f 3e bf a3 13 3e 15 cf 65 be
       0.011891383 0.1874843 0.14417933 -0.22442277
0002f0 a8 1b d5 be 6a 7e 0e bf 5b eb 28 bf cc 9f 19 bf
       -0.41622663 -0.5566164 -0.65984124 -0.60009456
000300 2d 6c be be 85 e4 19 bf b4 01 4b bf f3 11 a5 be
       -0.37191907 -0.6011432 -0.79299474 -0.32240257
000310 e5 97 83 3c e8 eb 34 ba 4b 9f 5c be 9a f5 bf be
       0.01606364 -0.0006901608 -0.2154514 -0.37492067
000320 8a 5e e6 be 46 9f 34 bf 6a 5c 00 bf c1 b4 dc be
       -0.44994003 -0.7055553 -0.5014101 -0.43106654
000330 be 36 df be a5 59 5a be ab fc 05 be 10 a2 47 3d
       -0.43596452 -0.21323259 -0.13084666 0.04873854
000340 18 e3 e9 bc f5 fc fd 3d 50 15 f8 3d 26 b4 f8 3d
       -0.02855067 0.12401763 0.1211344 0.121437356
000350 82 43 67 3b 76 92 46 3e c2 3e c3 3d 2e 12 9b be
       0.003528804 0.19391808 0.095334545 -0.30287308
000360 c9 80 06 bf 07 53 d8 be d9 d0 26 bf 53 91 3f bf
       -0.5254026 -0.42250845 -0.65162426 -0.7483112
000370 bb d8 08 bf 1d 49 0e bf d6 f3 3b bf 3d 1f f5 be
       -0.53455704 -0.5558031 -0.7341894 -0.47875395
000380 f5 85 0e bd e6 b7 d3 bd 72 87 2d be 01 a2 dc be
       -0.03479572 -0.1033781 -0.169462 -0.4309235
000390 6a d2 0f bf 7a ab 2d bf 54 71 c1 be b4 c7 b2 be
       -0.5618044 -0.6783978 -0.37781775 -0.34917986
0003a0 d4 25 e6 be 8e be c0 be b3 73 d1 bd 3e 1e 9d 3d
       -0.44950736 -0.37645382 -0.10227146 0.07671784
0003b0 d6 9a e0 bc b5 47 59 3e 55 eb 0f 3d d8 1b 7b 3d
       -0.027417582 0.2121876 0.03513654 0.06130585
0003c0 94 f5 00 be d3 19 c2 3d 3a 04 9e bc e3 2a 99 be
       -0.1259368 0.09477582 -0.019289125 -0.29915532
0003d0 70 5a d9 be 89 3d 90 be 64 6f 2d bf 72 4a 46 bf
       -0.4245181 -0.28171948 -0.67748094 -0.77457345
0003e0 ed 88 e6 be 75 7e cc be b6 11 e9 be 28 40 eb bd
       -0.4502634 -0.3994023 -0.45521325 -0.11486846
0003f0 22 e7 d9 bd 28 b9 a4 be 4c dc d5 be f3 8a e3 be
       -0.10639788 -0.32172513 -0.41769636 -0.44441947

fc1.bias f4 [256]
000000 9b 15 ef 3d 9d 69 d3 bc 9d 56 94 bd d8 c2 b9 3e
       0.11674043 -0.025807196 -0.07243083 0.36281466
000010 1a bb c5 bd 5e 2c 84 3f 22 f3 59 3e 1b ce 0d 3e
       -0.096548274 1.032604 0.21284154 0.13848154
000020 32 05 b9 bc 5d 66 f2 bc 6d 02 1f be 02 7b 10 bf
       -0.022585485 -0.029589826 -0.15528269 -0.56437695
000030 7a b9 a8 bd f7 2e c5 bd ae 2e 86 3e 56 77 1f be
       -0.08238502 -0.096280985 0.2620749 -0.15572867
000040 e3 71 f3 3e 03 e9 06 3f 50 f4 bc bd 5c 93 82 bd
       0.47547826 0.526993 -0.092262864 -0.06375763
000050 be cb 1f bf c5 b4 6b bd 9a bc ad 3d 68 c4 0c 3f
       -0.6242026 -0.057545442 0.084832385 0.5498719
000060 d3 f4 21 3f 1a c9 39 bd 50 40 23 be 2d 38 bd 3d
       0.632642 -0.0453578 -0.15942502 0.0923923
000070 33 7f 8b bf cf 6f 4d bc cc a2 20 3f cd cf 66 bf
       -1.0898193 -0.012538864 0.6274841 -0.9016083
000080 11 e2 c8 3e 96 e2 20 bc c8 a7 43 3f d3 26 aa bd
       0.39234975 -0.009819647 0.7642789 -0.083081864
000090 fd 34 12 bd 61 e9 93 bd d7 3d 41 3f ed 32 6b bd
       -0.035695065 -0.07222248 0.75484985 -0.057421613
0000a0 69 2a 2e bd 26 2e c3 bd d7 d8 87 bd ff 6c eb 3c
       -0.042520914 -0.095302865 -0.06633156 0.028738497
0000b0 65 7c 2c be c1 40 f1 bd 5b 03 43 3f b6 6a c0 bd
       -0.16844328 -0.11779929 0.76176995 -0.093953535
0000c0 27 be 83 bd 45 3d cc 3d 5d 71 99 bd 27 e7 6d bd
       -0.06432753 0.09972624 -0.074923255 -0.058081772
0000d0 ba e8 32 be 13 c0 76 3c 98 52 17 3f 62 3c 5f bf
       -0.1747159 0.0150604425 0.59110403 -0.8720151
0000e0 0b 82 8a bf 90 0d a3 bd 63 b3 cd 3e 18 df 94 3d
       -1.0820936 -0.07961571 0.40175924 0.07269114
0000f0 18 2d 26 be cd 89 06 be 1e 8a 13 3e 86 af 47 3f
       -0.1622814 -0.13138504 0.14408156 0.780022
000100 18 af 05 3f cd c6 23 be ac a0 8e bd d5 94 91 3e
       0.52220297 -0.15993805 -0.069642395 0.28433862
000110 00 aa f3 bb 3a 49 84 bd 49 0b a8 bd 26 10 8b bd
       -0.007436037 -0.06459279 -0.082052775 -0.067901894
000120 34 11 25 3f 7b 91 85 3d b3 e1 1c bd f6 e1 13 3b
       0.64479375 0.06521889 -0.03830118 0.0022565103
000130 dc 24 59 bd d1 1f 11 bd 84 b8 7a 3d 7a 9c 30 3f
       -0.053013667 -0.035430733 0.061211124 0.68988764
000140 fc 7f 67 be ee d8 90 3e 1f 19 31 3c bf 79 96 3d
       -0.22607416 0.28290504 0.010809212 0.0734744
000150 dd d7 d8 bc af ef bc bd f3 22 1e 3f 20 b7 49 3e
       -0.02647012 -0.092254035 0.6177208 0.19698763
000160 4c 95 1b bd de cb b3 bd b1 12 61 3f fe e9 96 bd
       -0.037984177 -0.08779119 0.87919146 -0.07368849
000170 58 5d 87 bd 5d 4a 61 3c e8 fc 06 bf 7c bb ff 3e
       -0.06609601 0.01375064 -0.52729654 0.49947727
000180 1a fb ec be b9 96 c8 bd 5a 14 c2 be 62 98 d7 3c
       -0.46285325 -0.09794373 -0.37906152 0.026317779
000190 7e 58 8f bd 26 a8 09 bc 2c f9 83 bd 37 a8 44 bd
       -0.069993004 -0.008401906 -0.0644401 -0.048011985
0001a0 76 03 a8 bd 53 da 6f be 59 52 7a bd 6c 87 c7 bd
       -0.08203785 -0.23423128 -0.06111369 -0.097426265
0001b0 f8 5f ab be 15 29 14 be 15 54 38 be 60 97 81 3d
       -0.33471656 -0.14468797 -0.18000825 0.063277006
0001c0 15 4d 5e 3d fb 70 b0 3f 38 96 89 bd 8e 66 4e bd
       0.05427273 1.3784479 -0.06718105 -0.050390773
0001d0 a9 54 b1 bd 5f c7 4b bd fa cf c1 bd 58 4e 03 bf
       -0.08658726 -0.049750682 -0.094634965 -0.5129142
0001e0 46 36 b0 3e 78 50 61 bd 5f 12 1e 3e a1 23 23 3f
       0.34416407 -0.05500838 0.15436696 0.6372624
0001f0 c7 ab ef bc bf 30 c0 bd 58 84 3b 3e 3a 55 10 bd
       -0.029256715 -0.093842976 0.18312204 -0.03523753
000200 5e cb 76 3f 4a cd 4d 3b 75 43 63 3f 30 1f ee bd
       0.96404064 0.003140288 0.88774806 -0.11627042
000210 9c d0 f4 bc bf 4c a4 bd f5 4a 4f bc 0d c4 49 be
       -0.029884629 -0.08022451 -0.0126521485 -0.19703694
000220 0f ff 38 3f 09 e7 19 bd fc fa 8a bd 33 8d 87 3d
       0.7226419 -0.037573848 -0.06786153 0.066187285
000230 36 38 8d bd 4b 89 65 3e bd 73 4a 3c cd 72 e9 3e
       -0.06895487 0.22415654 0.012356696 0.455954
000240 02 82 51 be 0c df e9 bd 5e 50 4a 3f 03 fa 88 bd
       -0.2045975 -0.11419496 0.7902888 -0.06688311
000250 df b1 fd 3e d0 e9 9f be e4 b5 ef bd 54 f1 b9 bd
       0.49549767 -0.31233072 -0.11704615 -0.09079233
000260 73 1b 5a bc 4d 00 b6 3d 12 c1 f0 3e a0 94 dc 3d
       -0.0133122085 0.08886776 0.470223 0.107705355
000270 da c3 18 3d 66 37 66 bd 40 c2 33 bf bb 28 38 3f
       0.037296154 -0.056205176 -0.70218277 0.7193715
000280 df 5e 23 bd 06 41 84 3d 82 04 08 bd a2 ab 50 bd
       -0.039885398 0.06457715 -0.033207424 -0.05094493
000290 38 91 42 3d 87 37 b5 bd 0c c2 08 be 90 7a b6 bd
       0.047501773 -0.088484816 -0.13355273 -0.08910096
0002a0 5a b0 51 be f5 fa 19 3f cb 71 28 bf ec 31 34 be
       -0.20477429 0.60148555 -0.65798634 -0.17597169
0002b0 76 ba 84 bd 81 1f 0f be 35 74 aa bd 53 fd 02 bd
       -0.06480877 -0.13976862 -0.08322946 -0.03197987
0002c0 aa f6 b0 bd 0e d7 1c 3e 81 06 4e be 7b 11 3b 3d
       -0.086407974 0.15316412 -0.20119669 0.045670968
0002d0 f1 32 3d bc 7f e1 a0 3d ee b1 25 3e 39 07 2d bd
       -0.01154779 0.0785551 0.16181156 -0.042243216
0002e0 70 fa b1 3e 4e de 86 bd 6b 17 85 bd 7c 55 97 bd
       0.3476138 -0.0658537 -0.06498607 -0.07389352
0002f0 9a f7 6a 3f 5b 9f 0b bf 96 ec bf bd f0 49 97 3e
       0.9178406 -0.5454003 -0.09371297 0.29548597
000300 bc dc b2 bd 38 7d 80 bc eb 8a 96 bd 27 23 8a 3c
       -0.08733508 -0.015684709 -0.07350715 0.016862465
000310 a4 0b a6 bd 6d 00 99 3f c9 f5 82 be 62 7e a3 bd
       -0.08107689 1.1953255 -0.25578144 -0.0798309
000320 27 3e a8 bd 52 44 1d 3f cf 70 47 bd 02 5a 38 bc
       -0.082149796 0.61432374 -0.048691567 -0.011251928
000330 7c dc 6e bc bd 45 03 3e 17 fb 5a 3e c2 d6 a2 bd
       -0.014578935 0.12819572 0.21384846 -0.07951118
000340 7b 2b 9c bd 29 81 22 bd 8d 06 e9 bc e5 15 bb bd
       -0.07625481 -0.039673958 -0.028445506 -0.091350354
000350 dd a5 1d bd 70 8e fd 3e 89 bf 50 bd 8a 2b 02 3e
       -0.038488258 0.49522734 -0.050963912 0.12711921
000360 d1 5a 45 bd b2 e8 4e bd 0d ba 83 3d db ec 84 bd
       -0.048182312 -0.050514884 0.06431971 -0.06490489
000370 2d bf 32 bd d3 1b bc bd 84 0f 6d 3d 5a 96 95 bf
       -0.04363935 -0.091849945 0.057876125 -1.1686509
000380 4a af c3 3e 93 c4 a7 bd d7 9f 7b bd 31 35 2b bd
       0.38219672 -0.081917904 -0.061431732 -0.041798774
000390 27 6f da 3d 05 e6 96 bd 67 66 66 3f cb bf 4a 3e
       0.10665732 -0.073680915 0.90000004 0.19799726
0003a0 c3 98 90 bd 33 78 91 bd 1c c9 07 3e 8c 99 a3 bd
       -0.07060387 -0.07103004 0.13260311 -0.07988271
0003b0 6e 34 d9 3e 6d 7b 2d bd 5a 84 dd be 52 f7 b7 bd
       0.42422813 -0.042354036 -0.4326504 -0.089827195
0003c0 a9 ca 83 bf d5 d7 b7 bd 9e 02 9b bf 4d 48 a7 bd
       -1.0296222 -0.089767136 -1.2110174 -0.08168087
0003d0 96 b1 21 bc fe 5d 46 bd 68 3a 42 3d 26 14 0b 3e
       -0.009869 -0.04842948 0.04741898 0.13581905
0003e0 c8 52 0f be 44 e1 1b 3f 56 bb 1d 3f 3d c9 71 bd
       -0.13996422 0.60890603 0.61613977 -0.059029806
0003f0 74 ab df 3e 96 d0 89 bd 40 7e 2b be 2c 87 a2 bd
       0.43685496 -0.06729238 -0.1674738 -0.07935938

fc2.weight f4 [128, 256]
000000 a3 61 bf bd c0 69 2f bc c7 77 00 3a 72 43 ea bd
       -0.093447946 -0.010706365 0.0004900661 -0.114386454
000010 fc 32 34 3d e1 57 23 bd 9a 78 e2 bd 2a 16 04 bd
       0.043993935 -0.03987873 -0.11058159 -0.0322477
000020 dc 82 c0 bd 4a 6b 36 bd 90 1f 56 bd d3 0e 20 bd
       -0.093999594 -0.044535913 -0.052276194 -0.039076637
000030 f9 e5 bf bd 26 a5 3e bd 72 73 d3 bd 01 8f df bd
       -0.09370036 -0.046544217 -0.10324754 -0.10915948
000040 f0 aa 4e bd f0 bb ca 3c ac 33 18 bc bd d8 6e bb
       -0.050455987 0.024747819 -0.009289663 -0.0036445104
000050 ad c4 a3 bd b7 ea 11 bc 3b 54 04 bb c1 ac f5 bc
       -0.07996497 -0.008906058 -0.0020191807 -0.029989602
000060 fc 1f f8 bc 7c 92 0b 3b 3c 64 fb 3c 11 2b af bd
       -0.030288689 0.0021297028 0.030687444 -0.08553136
000070 36 f7 ad bd 60 c6 3b bc 66 c6 7a bd e2 cc 91 bd
       -0.08494417 -0.0114608705 -0.061224364 -0.071191564
000080 67 b1 b1 bc 5c eb f7 bc b3 b6 c0 bd ce 1e 99 bd
       -0.021691037 -0.030263595 -0.09409847 -0.07476579
000090 f7 6f 5d bd 18 9d 78 bd 98 32 58 bd 0c 9e ea bd
       -0.054061856 -0.06069669 -0.052782625 -0.11455926
0000a0 7b 01 19 bd df 67 8c bd 37 57 ce bd 9c 9f 71 3d
       -0.037354928 -0.06855749 -0.10075229 0.058990106
0000b0 1d 1a e8 bd 3f 9a d3 bd 9d b0 42 bd 5f 9c ab bd
       -0.11333106 -0.103321545 -0.047531713 -0.08379435
0000c0 64 9d b2 bd ea 87 d6 ba f6 2b 01 bd 72 5c ef bd
       -0.08721426 -0.001636741 -0.031536065 -0.116875544
0000d0 32 11 d4 bd f7 d1 71 bd c9 68 f2 bd 14 e8 ad bd
       -0.10354842 -0.05903813 -0.118363924 -0.08491531
0000e0 4f ac fa bd 88 61 3b bc b7 f1 02 bc 28 b5 2b 3c
       -0.122398965 -0.0114368275 -0.0079922 0.010480203
0000f0 c5 94 71 bd a2 b2 4f bd ca 8b 6d bb b8 90 11 be
       -0.05897977 -0.050707467 -0.003624665 -0.14215362
000100 a3 7e a5 bc f4 d0 ad bd d8 76 9a bd 2b ad 56 bd
       -0.020201987 -0.0848712 -0.07542199 -0.05241124
000110 c5 a9 6b bd d8 9c 6d bd 52 3c 81 bd f8 ad 72 bd
       -0.05753495 -0.058010906 -0.06310333 -0.05924794
000120 e7 44 06 bd 29 5d f5 bd 56 e9 37 bd 7c 71 f9 bc
       -0.032780554 -0.119806595 -0.04490026 -0.030449621
000130 e4 59 14 bd 5e 31 6e bc f7 18 05 bc 35 04 a2 bd
       -0.03621854 -0.014538137 -0.008123628 -0.07910959
000140 f8 02 2d 3c 59 b7 e6 bd 19 45 b5 bb b3 84 33 bd
       0.01055979 -0.112654395 -0.0055319187 -0.043827724
000150 4f 9c 3b bd 18 57 92 bc 76 03 0f bd 30 56 89 bd
       -0.045803364 -0.017863795 -0.03491541 -0.06705892
000160 05 8f ce bd 05 99 f9 bd 54 62 fc bd b9 50 25 bd
       -0.100858726 -0.12187389 -0.12323442 -0.040360186
000170 0f c4 45 bd 57 fe 39 bd ed 45 f9 bd e7 fd cf bc
       -0.04828268 -0.045408573 -0.121715404 -0.025389625
000180 2b 00 f8 bd e0 b4 cb bc ed 70 9c bd 6a a5 f4 bd
       -0.12109407 -0.024866521 -0.076387264 -0.11945613
000190 1e 6d 88 bb ef ad ab bc a4 12 6a bd 4e 6e 57 bd
       -0.0041633984 -0.020956961 -0.057146683 -0.05259543
0001a0 d5 24 51 bd a3 5d 2c bd 94 7f e1 bd 20 16 0e 3b
       -0.051060516 -0.042081486 -0.11010662 0.0021680668
0001b0 9f 80 f4 bc fc c2 68 bd c8 27 b0 bc 3e 41 e8 bc
       -0.029846488 -0.056826577 -0.021503344 -0.028351422
0001c0 ea 09 32 bd 9d fa 66 bd 78 be 56 bd 0d c5 51 bd
       -0.043466486 -0.056391347 -0.05242774 -0.051213313
0001d0 6a cb c9 bd cc a2 82 3c 60 d8 39 3c 7d a5 0a bd
       -0.09853251 0.015946768 0.011343092 -0.03384923
0001e0 00 7c d0 bd 68 23 a5 3c e9 95 6d bd 28 82 70 bd
       -0.10179901 0.020158485 -0.058004294 -0.058717877
0001f0 5e 0b 92 bc 91 5d a3 bd 56 79 f0 bd 30 09 76 3d
       -0.017827686 -0.07976831 -0.11741893 0.060067356
000200 62 77 e2 bd 87 62 c1 bd cc 34 87 3c 94 67 6e bc
       -0.11057927 -0.09442621 0.016504668 -0.014551062
000210 dc 61 02 bd 70 58 b8 3b a0 dd de bb 7a e8 c6 bd
       -0.031831607 0.005625777 -0.006801322 -0.0971231
000220 20 67 69 bb 3e 1a 3a bd e6 6d e1 bd 7a cf a8 bd
       -0.0035614446 -0.045435183 -0.110072896 -0.08242698
000230 48 32 18 3b b0 1c eb bd 8e 3f 09 bb 07 cd b8 bd
       0.002322333 -0.11480081 -0.0020942423 -0.09023481
000240 8e 42 ee bd e2 c9 90 bd 92 74 a2 bd 33 10 73 bd
       -0.11633788 -0.07069756 -0.0793239 -0.05934162
000250 0d 60 24 bc dd 62 be bd c4 0e fd 3c a7 a8 21 bd
       -0.010032666 -0.092962004 0.03089083 -0.03946748
000260 00 f8 b4 39 d8 2c 38 bd 58 61 9c bc ba 72 52 bd
       0.0003451705 -0.04496464 -0.019089386 -0.051378943
000270 9c c1 32 bd ce 69 65 bb 40 61 8c bc 6b d6 ef bd
       -0.04364167 -0.0035005691 -0.017136216 -0.11710819
000280 01 f8 93 bd 8b f8 b9 bd 34 b8 6e bc aa 04 f1 bd
       -0.07225037 -0.09080609 -0.014570285 -0.11768468
000290 6c 28 9e bd 13 68 dc bd 2d f2 1c bd 70 21 6f bd
       -0.077225536 -0.10762038 -0.038316894 -0.058381498
0002a0 c4 9a d8 3c b5 d3 9f bd ff 03 d1 bd 02 16 74 bd
       0.026440986 -0.07804052 -0.1020584 -0.0595913
0002b0 b3 7f f7 bc 52 d5 70 bd ce 33 2b bd c0 80 ad ba
       -0.030212259 -0.058797188 -0.04179745 -0.0013237223
0002c0 d0 21 7c 3d d3 a6 c8 bd a5 ac 32 bc 4b 6c ed bc
       0.061555684 -0.09797444 -0.0109054195 -0.028982302
0002d0 3c 36 b0 bc 06 48 c4 bb a8 82 6f bc cc fa ed bd
       -0.021510236 -0.005990031 -0.014618553 -0.11620101
0002e0 07 d7 e0 bd 50 a0 76 bd b6 3c d2 bb 6c b4 f9 bc
       -0.10978513 -0.06021148 -0.0064159287 -0.03048154
0002f0 50 d0 e1 bb 46 29 d5 bd 6b 4b b2 bd 78 15 b2 bc
       -0.006891288 -0.10408263 -0.08705791 -0.021738753
000300 96 1a 35 3d 3a dc c2 bd 60 f8 da 3c cb bb ba bd
       0.044214807 -0.09514661 0.026729763 -0.0911785
000310 60 05 04 bd 92 11 83 bd 13 a9 8b bc 65 91 1e bc
       -0.03223169 -0.06399836 -0.017048394 -0.009678219
000320 d3 5a aa bd 1f ee ed bd 65 09 44 bc d3 2f b5 bd
       -0.083181046 -0.116176836 -0.01196513 -0.08847012
000330 f8 ef 16 bd b5 dd ed bd 87 07 75 bd b6 32 2d bd
       -0.036849946 -0.11614553 -0.05982163 -0.04228469
000340 30 65 43 3c af 86 8e bc 80 0b 93 bd 48 42 ac bc
       0.01192598 -0.017398207 -0.07179928 -0.0210277
000350 50 07 7d 3d 58 31 d0 bc 7c 12 f7 3c c1 20 a7 bc
       0.061774552 -0.025414154 0.030160181 -0.02040136
000360 23 35 e1 bd 7d ee d9 bc a6 e3 0c bc a9 1a f2 bc
       -0.10996463 -0.026602978 -0.0085991975 -0.029553728
000370 36 b3 8e bd 25 69 48 bd e7 bb 9c bd 76 3f a0 bd
       -0.069677755 -0.0489284 -0.07653027 -0.07824604
000380 2b 96 5a bd 64 e2 01 bd e2 e9 36 bd b6 b4 17 3d
       -0.053365868 -0.031710044 -0.04465664 0.037037574
000390 17 2d da bc 92 90 02 bd 5a a0 af bd 80 24 f8 ba
       -0.026632829 -0.031876154 -0.085755065 -0.0018931776
0003a0 c6 8b 5c 3d 62 2a f3 bd 90 c5 92 3b 10 48 4f 3c
       0.053844236 -0.11873318 0.0044791177 0.012651458
0003b0 35 01 c4 bd 71 71 9f bd 90 09 3c bc 24 81 63 bd
       -0.09570543 -0.07785309 -0.011476889 -0.05554308
0003c0 6a 57 03 3b e7 52 db bc 9c b7 bf 3c e4 5e a5 bd
       0.0020041117 -0.02677293 0.023402981 -0.080747396
0003d0 e8 32 c7 bc 94 a9 7e bd ba 50 cc ba 00 fa 9a b9
       -0.024316266 -0.06217344 -0.0015588023 -0.00029559433
0003e0 db 74 51 bd ad 96 4e bc 5b 0f 72 bd a4 1d c4 3c
       -0.051136833 -0.012609166 -0.059096675 0.023939915
0003f0 5c 15 c0 bd 0c 55 97 bd e3 f2 60 bc 0f ca a4 bc
       -0.09379074 -0.07389268 -0.013729784 -0.02011588

fc2.bias f4 [128]
000000 76 ed f3 bd 9a 6b 71 be 98 d0 f9 3e 40 04 4c bf
       -0.119105265 -0.23576203 0.48791957 -0.79693985
000010 65 84 32 bf 26 6a 21 3e 85 da f8 be f5 07 d2 bd
       -0.6973327 0.15763149 -0.48604217 -0.10255424
000020 85 00 51 be 1b 97 b8 3e 54 b8 33 be 1e 68 40 3f
       -0.20410354 0.36052784 -0.17550784 0.7515887
000030 d4 b0 0e bf 2e c7 36 be dc ad dd bd b9 17 21 be
       -0.5573857 -0.17849419 -0.10824177 -0.15731706
000040 fc 2d eb be ae 72 4f 3f 77 ac a3 be 12 72 24 bf
       -0.4593352 0.8103436 -0.31967518 -0.6423656
000050 23 33 18 3f 63 79 82 be 82 3f 82 3f ec 64 19 3d
       0.5945303 -0.25483236 1.0175631 0.037449762
000060 c9 fa b5 be 46 7c 9c bd 24 26 42 bf 33 eb ec bd
       -0.35542896 -0.07640891 -0.7583945 -0.11568298
000070 b5 30 ed 3e 2a 84 fe be aa 87 54 3f d0 99 8f be
       0.46326223 -0.49710208 0.83019507 -0.28047037
000080 40 a5 7d bf 59 a5 87 bf 1f 01 23 3d 86 6c f5 be
       -0.99080276 -1.0597335 0.03979599 -0.4793436
000090 da 13 44 3f 25 42 7e bf 99 03 d1 be 61 40 7a 3f
       0.7659279 -0.9931968 -0.40823057 0.97754484
0000a0 e3 bc 09 bf 6d f3 2e bf 49 1b 2f 3f 7b c7 b3 3e
       -0.53803843 -0.6834019 0.6840101 0.3511313
0000b0 ed 46 a9 bd a8 ac 2a 3e 1f e1 16 be 68 95 52 3f
       -0.08265481 0.16667426 -0.14734314 0.82259226
0000c0 9d dc 83 3f 9b 64 ff bd 80 21 a9 3e 84 0a 1e 3f
       1.0301701 -0.12470361 0.3303337 0.61734796
0000d0 ae 22 17 3f 12 b2 02 be df 80 f2 be cf a4 b4 be
       0.5903729 -0.12763241 -0.47363946 -0.3528199
0000e0 3c 8b 3a bf eb 57 f8 be 40 8f 97 3e 77 7a 47 be
       -0.72868705 -0.48504576 0.2960148 -0.1948031
0000f0 8c aa 0a bd 16 b1 1e 3f e0 8c 92 be f5 66 a5 be
       -0.033854052 0.6198896 -0.28623104 -0.32305112
000100 26 6d fb 3d 74 73 5d 3f a9 8e 97 be ee 9e 7f bf
       0.12276678 0.8650429 -0.2960103 -0.9985188
000110 3e 9f c9 be 84 70 1d bd d3 3b 34 bf 1b a5 f3 be
       -0.39379305 -0.03843738 -0.70403785 -0.47586903
000120 89 63 29 bf 07 66 0e be 92 2d 58 bc f4 30 f8 3d
       -0.66167504 -0.13906108 -0.013194459 0.12118712
000130 83 48 12 be 1d ef 39 be 87 d9 c2 bd 67 c7 54 be
       -0.14285474 -0.1815762 -0.09514146 -0.20779191
000140 be e8 e1 be 08 20 21 bf aa 98 a5 3e 2b 15 3c bf
       -0.4412288 -0.629395 0.32343036 -0.734698
000150 b3 75 f5 be a3 46 38 be 8a 23 29 bf 9d 20 12 be
       -0.4794136 -0.17995696 -0.66069853 -0.14270253
000160 56 fb 49 3e 3e cc 9f bc 26 9f 09 3e ce 6d a6 be
       0.19724783 -0.01950657 0.13439617 -0.3250565
000170 bd f8 13 3f b5 9e d6 3d 77 1e 8c 3f 36 b1 7c bd
       0.5780142 0.1047949 1.0946797 -0.06169244
000180 0a 80 4f 3f d1 a4 57 3f ee e3 0f 3f 95 48 43 bf
       0.8105475 0.84235865 0.5620717 -0.76282626
000190 d3 3e 13 bf d9 36 91 bf d0 6b aa 3d 80 eb 3b 3f
       -0.5751774 -1.1344863 0.08321345 0.7340622
0001a0 ae f0 88 be 28 d2 1e be db e0 a8 be 8c 63 51 be
       -0.26746124 -0.15509856 -0.3298405 -0.2044813
0001b0 21 7a ac 3c 0c e3 47 3f 2f 93 02 3f ff a0 25 bd
       0.02105433 0.7808082 0.51005834 -0.04043674
0001c0 65 81 88 be 5e 50 b7 be c8 01 a3 3f 93 09 ce bd
       -0.2666122 -0.35803503 1.2734919 -0.1006042
0001d0 78 79 f7 bd 3c c8 3c 3f 3d d4 b9 ba f0 92 bb be
       -0.12083715 0.73743033 -0.0014177632 -0.36635542
0001e0 ac cd 96 be 4c 76 b2 3d 43 d6 6a 3f 94 21 ec 3c
       -0.2945379 0.087139696 0.9173319 0.028824605
0001f0 d7 89 6d 3f 70 52 3e 3f 92 bf 0f 3d f2 d3 3c be
       0.9278845 0.7434454 0.035094805 -0.18440226

fc3.weight f4 [64, 128]
000000 5f 51 09 bd 5d c9 03 bd d2 bc 1c be 92 fd f4 3e
       -0.033524867 -0.032174457 -0.15306404 0.4784971
000010 0d 4f d1 bd 6f 9d 86 be 6d b1 90 3d 8b 6b 8d be
       -0.10220156 -0.26291987 0.07065091 -0.2762111
000020 ca 85 e5 3d d6 4d 2b 3e 6e 9f 08 be 2a 89 02 be
       0.11207159 0.16728911 -0.13342068 -0.12747636
000030 bc ff 7f 3d ce ce f8 bc 52 00 53 be dd 32 08 be
       0.062499747 -0.03037205 -0.20605591 -0.13300653
000040 9d 77 82 3e 10 9f a2 3d 2c f3 3f 3e c2 4e 41 be
       0.25481883 0.07940495 0.18745106 -0.188777
000050 3f 70 3d 3e 74 af ce 3c ba 23 1b be 5d b0 12 be
       0.1849985 0.025230147 -0.15150347 -0.1432509
000060 75 68 0b be 55 95 17 be 34 48 72 3d 95 8d 2e 3e
       -0.13614066 -0.1480306 0.05915089 0.17046197
000070 9c aa 3e be 37 0f 92 be 10 d0 c3 bd 96 df c1 bd
       -0.1861977 -0.28527233 -0.09561169 -0.09466474
000080 92 ab 1c 3e 0f 12 4d be 4b 54 b2 bd 26 d2 82 bd
       0.15299824 -0.2002642 -0.08707484 -0.06387739
000090 6f a5 bd bd b8 8c 70 3d c6 49 20 be 59 3f 53 3c
       -0.092600696 0.05872795 -0.15653142 0.012893521
0000a0 fa 71 a1 be ee 79 53 be 07 7d 24 3d 8c 78 36 bd
       -0.3153227 -0.20651981 0.040158298 -0.044548556
0000b0 4b 5a 52 3e 8d d7 c3 3d af 70 5b be 4b d4 c2 bd
       0.20542257 0.095625974 -0.21429704 -0.09513148
0000c0 16 a9 90 bd 90 89 b7 3e 84 8e 2d bd 1d c2 19 be
       -0.070635006 0.3584714 -0.04237224 -0.15015455
0000d0 ae 18 38 bd de e0 9c bd 8f a6 c1 be e4 5c 19 bc
       -0.04494541 -0.076600775 -0.37822387 -0.009360526
0000e0 ab 13 d4 bd 20 da b2 bb fc 39 fa 3c e0 aa 2c be
       -0.10355314 -0.0054581314 0.030545227 -0.16862059
0000f0 45 d2 09 3e 8c 03 4c bd 99 01 9a bc 73 5c 99 be
       0.13459118 -0.04980807 -0.01879959 -0.29953346
000100 a4 d6 fa 3c 1e a8 31 3e d1 f3 71 bb 5d 42 d2 3e
       0.030619927 0.17349288 -0.0036919008 0.41066256
000110 bc 91 d3 bd 80 4f 23 bd e4 7b 2f 3e 9d 82 4e be
       -0.10330531 -0.03987074 0.17137104 -0.20167013
000120 56 0d 8a 3e 38 25 44 be 80 6f 43 bb 4a 61 8e 3e
       0.269633 -0.19154823 -0.0029821098 0.278086
000130 ec 49 a2 bc 89 ab a1 3e 5a df 67 3d a6 4c 97 be
       -0.01981064 0.31576183 0.05660949 -0.29550666
000140 da 9f 48 3f 20 41 f1 be d1 13 00 be 87 43 fc be
       0.78368914 -0.4712 -0.1250756 -0.4927027
000150 f0 e8 12 bf bd 3d 00 be 36 64 04 bd ae fb 60 3d
       -0.57386684 -0.12523551 -0.03232213 0.05492752
000160 33 3e b4 bd 9c 47 e5 3d aa 82 65 be 70 a0 da 3d
       -0.08800926 0.11195299 -0.22413126 0.10675132
000170 95 a8 01 bf f1 63 81 3e c8 ef 08 be a7 2d 1e bd
       -0.5064786 0.25271562 -0.1337272 -0.038617756
000180 e0 ba c0 3d bc a7 02 bf a1 5a 12 be d4 3e 28 be
       0.094106436 -0.5103719 -0.14292385 -0.16430217
000190 39 b7 e3 bd 66 ae 78 be b3 70 6c bd 3c a7 0e 3e
       -0.11118931 -0.24285278 -0.057724666 0.13930982
0001a0 3d 4f 9d 3c fc 3d a0 3c 0e 5f 26 3d 4d 40 27 3c
       0.019202823 0.019560806 0.040617995 0.010208202
0001b0 3f dc 63 3e e6 9a 97 3d ae a2 b5 bd a0 6b 3b bd
       0.22251986 0.074025914 -0.08868919 -0.045756936
0001c0 91 79 63 3d c4 4e ee be 21 76 95 bd 3c e1 c5 be
       0.055535857 -0.46544468 -0.07297922 -0.38648403
0001d0 cf 38 b4 3d 87 13 33 be 49 b0 65 3e 19 f6 0b be
       0.08799898 -0.17487918 0.22430529 -0.13668098
0001e0 c9 b3 8b be 76 97 c0 bd bb 38 46 bd ea 7c ea bd
       -0.27285603 -0.09403889 -0.048393946 -0.11449607
0001f0 91 dd 92 bc 9d f5 a1 bd 09 08 66 3d a4 2e 94 bd
       -0.017927917 -0.07908175 0.056160007 -0.072354585
000200 40 74 78 bb dc a3 ae 3c a7 0c 4f bd 45 12 c3 bd
       -0.0037911087 0.021318369 -0.050549176 -0.09524969
000210 6e 55 30 bd fb cc 24 be 48 02 56 be cd e0 77 be
       -0.043050222 -0.16093819 -0.20899308 -0.24206848
000220 c8 c1 23 bd f6 35 b4 be f3 32 c7 bd 52 59 32 be
       -0.039979726 -0.3519742 -0.09726515 -0.17416885
000230 15 a5 9e bd 89 33 a4 3d 58 64 9e bd d0 e8 3a bc
       -0.07746331 0.08017642 -0.07733983 -0.011408046
000240 94 0d c9 3c 82 6b 94 bd 35 4e 8f 3d ff b1 6d be
       0.024542607 -0.07247068 0.06997339 -0.23212431
000250 9c 79 96 bd 61 ae 87 3d b1 e8 6c bd 55 5c af bd
       -0.07347414 0.06625057 -0.0578391 -0.08562533
000260 82 c1 69 bd 8a 2f 2b be 1c 21 c8 bc 46 48 99 bc
       -0.05706931 -0.16717353 -0.02442985 -0.01871122
000270 ed 8b e9 bd f5 59 0e bd c3 f6 be bd b8 d0 00 bd
       -0.11403642 -0.03475376 -0.0932441 -0.03144905
000280 02 d9 a8 bd 81 8d 35 be 1c 67 b4 bd 05 9d 44 bd
       -0.08244516 -0.1772976 -0.08808729 -0.048001308
000290 fd 97 50 bd 8e 4d 31 3d ff 19 a5 3a f5 b8 4c bd
       -0.050926197 0.043286853 0.0012596248 -0.049981076
0002a0 74 9b 36 3d 22 22 b8 3d 07 f5 d9 bc 22 9c 38 be
       0.044581845 0.08990885 -0.026606096 -0.1802831
0002b0 01 22 6b bd f1 ba 26 3b 88 ec 55 3c c5 cf 03 be
       -0.057405476 0.0025441016 0.013056882 -0.12872227
0002c0 12 bf 53 be d4 9d 8b bd e7 90 db bd 15 0f c0 bd
       -0.20678356 -0.06817213 -0.10720997 -0.09377877
0002d0 b6 61 83 be f2 74 76 3d 53 2f ff bc 04 b6 ab bd
       -0.25660485 0.06017012 -0.031150496 -0.08384326
0002e0 5f fd 89 bc 78 a1 08 bd 18 a3 60 bd 1f 72 06 be
       -0.01684445 -0.033357114 -0.05484304 -0.13129471
0002f0 e0 25 25 3d 6f cb 0b be 2a 2f 6c be 0d 61 9e 3d
       0.040319324 -0.13651823 -0.23064867 0.07733355
000300 24 07 0b ba ce fd 02 be 5e 79 1c 3b f8 67 39 3c
       -0.0005303493 -0.12792131 0.0023876051 0.011316292
000310 fc 97 17 bd 80 10 47 bb a8 9d 8c bd f8 10 8c bd
       -0.037010178 -0.0030374825 -0.06866008 -0.06839174
000320 02 31 67 3d 45 ab 3b bd 24 18 c5 bc ea d1 e9 bd
       0.056443222 -0.045817632 -0.024059363 -0.11416991
000330 ce e8 5f 3d 45 5a 00 bd 5a b2 38 bd c5 b7 86 bd
       0.05466538 -0.031336088 -0.045091964 -0.0657802
000340 87 22 86 3e 36 2d d8 3d 74 6d 90 bd 5b 05 0f bd
       0.26198217 0.10555498 -0.070521265 -0.034917217
000350 a0 e6 9b bd 4b 6a 0d be 46 19 60 bd 1c ee 88 bd
       -0.076123476 -0.13810079 -0.054711603 -0.06686041
000360 b2 b9 0b be e9 cc 18 be 62 ed 11 bd 67 85 83 be
       -0.13645056 -0.14921917 -0.035626777 -0.25687715
000370 b5 97 5f be f0 00 12 be 9e 89 f3 bd 4a ab 00 3d
       -0.21835215 -0.1425817 -0.11891483 0.031413354
000380 02 8b 0e be cf 3d 05 be d3 4f 25 3e b3 4f 79 bd
       -0.13920215 -0.1301186 0.16143732 -0.060867023
000390 2b 2d 9c bd af cf 8b bd e6 a7 72 be 8d 40 9a be
       -0.076258026 -0.06826722 -0.2369686 -0.30127373
0003a0 92 b6 88 bd 05 2c 8a 3d 58 f3 5a bc 6f 86 ac 3d
       -0.066754475 0.06746677 -0.013363682 0.08424079
0003b0 bb 4a 26 bb e8 7f d5 bd 6c 28 fd bd f3 22 a0 3d
       -0.0025374133 -0.10424787 -0.123612255 0.07819166
0003c0 1e 09 17 bd 17 1a fa bd fe 6a ae bc 7e 17 75 bd
       -0.03687393 -0.122120075 -0.021291252 -0.059836857
0003d0 72 4b 37 3d ba 97 c4 bd a8 9a c5 bc 20 24 78 3b
       0.044749685 -0.09599252 -0.024121597 0.003786333
0003e0 2b 7d ba bd e0 10 0f be 0f e0 ca 3c b2 af 84 be
       -0.09105905 -0.13971281 0.024765043 -0.25915295
0003f0 61 26 c8 bc 6b c9 bf bd 69 9b c9 be 75 54 ad 3d
       -0.024432363 -0.09364589 -0.3937638 0.084633745

fc3.bias f4 [64]
000000 bf a2 9f be 35 a2 3f be 33 d4 94 be f6 c1 01 3e
       -0.31178853 -0.18714221 -0.29068145 0.12671646
000010 7a 32 c3 3e 93 93 98 bd a3 58 82 bd c8 d1 39 3c
       0.38124448 -0.074500225 -0.06364562 0.01134152
000020 71 81 50 bf 04 4c 96 be ca c8 01 bf 7b b9 ef bc
       -0.8144751 -0.2935487 -0.50697005 -0.029263249
000030 45 9e b3 3e 8b 2a b7 3e aa 09 7e be f8 96 33 3f
       0.35081688 0.35774645 -0.24808374 0.70152235
000040 8f 60 26 bf bd 40 7f be ee 4c 08 bf 19 3f bb be
       -0.64991087 -0.2492704 -0.53242385 -0.36571577
000050 a0 e8 78 bf c3 e3 5b 3e 04 05 50 be f2 50 98 be
       -0.9722996 0.21473603 -0.20314413 -0.29749256
000060 c2 e5 1f 3f f4 79 90 be d8 e9 4f 3f e1 de 92 3f
       0.6245996 -0.28218043 0.8121619 1.1474267
000070 d5 72 80 3f 27 c2 c2 bd ae a9 cc bd 2d 83 4f 3f
       1.0035044 -0.09509688 -0.09993301 0.81059533
000080 bb 6e 7a be 83 4c 18 3f da f5 b7 3e 31 38 0c 3e
       -0.24456303 0.5949175 0.35929757 0.1369331
000090 35 66 3a 3f cd 1f 91 be 01 ee 0a bf 01 7f 56 3f
       0.72812206 -0.28344575 -0.54269415 0.8378754
0000a0 70 35 42 be 13 3b e6 bd d8 fd a3 3f 10 39 fd bc
       -0.18965697 -0.11241736 1.2811842 -0.030910999
0000b0 bb 2e 87 be 4a f2 b1 be 4e 61 39 3f 9a e7 0b be
       -0.2640284 -0.34755164 0.724141 -0.13662568
0000c0 09 f2 35 3f 4c 3b 6b 3e 54 7d 47 bd 8c ba 61 3f
       0.7107244 0.22971839 -0.048703507 0.8817527
0000d0 e2 1d 2d 3f 90 b8 1d bf 5e 11 ba be 35 82 c5 3f
       0.6762372 -0.61609745 -0.36341375 1.5430361
0000e0 eb 76 80 3f e9 d7 13 be 28 bf f2 3e 61 90 40 3e
       1.0036291 -0.14437832 0.47411466 0.18805076
0000f0 7f b2 67 be 63 6d 0d be f3 7c 3c be ae 6e 6c 3f
       -0.22626685 -0.13811259 -0.1840704 0.92356384

fc4.weight f4 [10, 64]
000000 78 00 ad be 67 1c 55 3c c1 b1 39 be c6 0c dd be
       -0.3378942 0.01300726 -0.18134214 -0.43173808
000010 81 1c 26 3d 47 e8 92 bd 02 bb a6 be 38 67 01 be
       0.040554527 -0.0717321 -0.3256455 -0.12637031
000020 06 7a 80 bf c9 ca 06 be 17 0d 3c bf 4c 63 f9 3c
       -1.0037239 -0.13163294 -0.73457474 0.030442856
000030 8d 98 94 bd 2a 8f 8f be e7 38 23 3d d5 13 b8 3d
       -0.07255659 -0.28038913 0.03984919 0.08988158
000040 a2 2b d7 be 86 64 c7 bd 50 e5 58 bd 4f 3d a6 bb
       -0.42025477 -0.0973597 -0.052953064 -0.0050732265
000050 8e 04 8b be f3 0d 50 be 7a 82 02 be cc 4f 8d be
       -0.27151912 -0.20317821 -0.12745085 -0.27599943
000060 16 1f 10 be 02 d4 35 3e b0 59 46 be a4 27 d6 be
       -0.14074358 0.17756656 -0.1937015 -0.41827118
000070 4e 66 eb bd aa 85 f1 bd df 0f 8c bd d1 9a a5 3d
       -0.114941224 -0.117930725 -0.06838965 0.080861695
000080 83 37 0b bc 93 2e 9a be 01 26 06 bf 92 ce 08 be
       -0.008497122 -0.30113658 -0.5240174 -0.1336005
000090 20 b3 89 3d 7b 70 22 bf a5 ad 44 be 5d 65 09 3e
       0.067236185 -0.6345288 -0.19206865 0.13417573
0000a0 db 3e 99 bc 83 de 86 be 6a cc 8c 3e 97 d4 5b 3d
       -0.01870673 -0.26341638 0.27499706 0.05366954
0000b0 b0 5a 88 bc 70 b5 29 3d 40 1d f5 bb 9d 7b a1 be
       -0.016644806 0.041432798 -0.0074802935 -0.31539622
0000c0 83 3c 59 3d 8b 7d 2a bc 45 0c e8 bd c2 23 2e bf
       0.053036224 -0.010405908 -0.11330465 -0.6802331
0000d0 b1 a9 c0 bd e7 36 a6 be 09 14 d1 be 47 34 7e 3d
       -0.09407366 -0.32463762 -0.40835598 0.062061574
0000e0 c0 db d0 be d9 42 4b be 2d e6 cf 3c a7 2c ea be
       -0.40792656 -0.19849719 0.025378311 -0.45737192
0000f0 19 a8 c6 bd d1 39 a2 3c a5 c6 82 3e c6 6e cd be
       -0.09700031 0.01980296 0.2554218 -0.40123576
000100 14 d0 84 be 29 f5 18 3d cc 36 91 bf 7a 1f fa bc
       -0.2594 0.037343178 -1.1344848 -0.030532587
000110 0c fa 43 3e 44 9c a0 bb 11 a6 f8 be 5f 35 82 bf
       0.19138354 -0.004901441 -0.485642 -1.0172538
000120 1a 2f 0c bf d0 db 27 3d b7 1e 37 bf f4 c6 10 be
       -0.5475937 0.040981114 -0.7153124 -0.14138395
000130 b9 65 25 3e 86 06 8c bf 70 ed d5 bd b0 c6 31 3d
       0.16152085 -1.0939491 -0.10445678 0.043402374
000140 84 7d 2c bf c5 73 14 bd 58 73 5b bd d8 a2 9a be
       -0.6737902 -0.03624322 -0.053576797 -0.30202365
000150 3c fc 22 bf 62 a6 6b bf 49 ae 3a be c5 e7 9b 3e
       -0.6366613 -0.92050755 -0.18230547 0.30450264
000160 23 82 a4 bf 33 15 14 bd e8 76 a7 3d 11 df 31 be
       -1.2852215 -0.03615303 0.081769764 -0.1737025
000170 2f 39 c6 be 51 fa 7b be 8b a9 ec bd b9 2c 8c be
       -0.38715503 -0.24607207 -0.11555775 -0.2737787
000180 e1 d8 85 3e a7 bb e1 bd 69 16 5a bf 73 09 c1 be
       0.26142028 -0.1102212 -0.85190445 -0.37702522
000190 d7 e7 5a 3e 26 12 f1 be dd 0d 0d be a9 09 31 bf
       0.21377502 -0.4708416 -0.1377482 -0.69155365
0001a0 1e 5d 52 3c 3b 2b ce be b8 2d ab be 70 2b 88 3d
       0.012839584 -0.40267357 -0.33433318 0.0664891
0001b0 8e e8 ba bd dd f4 93 bd d5 64 e0 be f2 b0 fc 3b
       -0.091263875 -0.07224438 -0.4382693 0.007711523
0001c0 35 4c c9 bd d5 ec 7d be 4b 4f 14 be 53 c2 9b bf
       -0.098289885 -0.24797376 -0.14483373 -1.2168678
0001d0 b6 05 82 be 7e 82 47 be 75 6a 87 3b b8 fd 99 be
       -0.25394982 -0.19483373 0.0041325637 -0.30076385
0001e0 fe 9d 5a bf 79 d2 1e be f9 05 67 3e 9d b5 14 bf
       -0.85397327 -0.15509976 0.22560872 -0.5808962
0001f0 8d 10 0b be d2 76 0c 3e b0 5e bf be 90 85 0d bf
       -0.13580532 0.13717201 -0.37376928 -0.55281925
000200 09 b4 f6 bd b6 5b be bd 0f 2b 10 bf 68 4e 00 bf
       -0.12046058 -0.09294836 -0.563157 -0.5011964
000210 31 67 c9 3d 3f 71 97 bc 8f b6 17 bf fb 26 b3 be
       0.09834135 -0.018486617 -0.5926294 -0.34990677
000220 c3 42 31 bf 43 c1 30 3e 61 e2 6e bf 78 ca 18 3e
       -0.69242495 0.17261223 -0.93314177 0.14920986
000230 90 74 05 3e 9e 6b 60 3d e1 ae 7c bd a6 cb 97 3c
       0.13032746 0.05479013 -0.061690215 0.018529724
000240 75 18 b3 bc 03 15 f2 bd 83 3a 15 bc ff 86 e6 be
       -0.021862248 -0.11820414 -0.009108189 -0.4502487
000250 9c dd ff bd 3c 31 f7 3d 47 c0 dc bd 17 d5 63 be
       -0.124934405 0.120699376 -0.107788615 -0.22249256
000260 33 cd f6 3d 4a 62 24 bd 0f a2 60 be a6 b6 bb be
       0.120508574 -0.0401328 -0.2193682 -0.36662787
000270 03 ad 87 3e cd 36 e9 be a3 ec 8a bd eb 9e 45 be
       0.26499185 -0.45549622 -0.06783416 -0.19298904
000280 41 88 a1 3d 4e 10 db 3d 6a af 15 bf 3c 0b 86 be
       0.078873165 0.10696469 -0.58470786 -0.26180446
000290 6b 89 df be ae 6c ed be b0 b4 2c bc 65 0f a2 bd
       -0.4365953 -0.4637198 -0.010541126 -0.079130925
0002a0 65 b2 bc bc 44 8b 62 be 13 3d c8 3c b7 d4 c6 bd
       -0.023034284 -0.22123438 0.024443185 -0.09708541
0002b0 61 8f 6e be 9f 36 0f bd 9a 4b ba be 1d 72 1d be
       -0.23296882 -0.0349642 -0.36385804 -0.15375562
0002c0 dc 91 30 3e b5 a9 07 bd 0a 42 98 be e3 30 d4 be
       0.17243141 -0.03312083 -0.29737884 -0.41443548
0002d0 fc bf fc 3d 63 f7 f1 be 03 65 e6 bd ee fb 48 be
       0.123413056 -0.47259054 -0.11249735 -0.19627354
0002e0 a7 d4 46 be cb cf 1a be 45 91 0e be df 5f 95 be
       -0.19417058 -0.15118329 -0.13922603 -0.29174706
0002f0 50 8f 72 be 08 9f 90 3d b4 11 b8 3d 1d 4c 27 bf
       -0.23687482 0.07061583 0.089877516 -0.65350515
000300 a4 7c e7 3d 13 62 4c bd a2 74 a7 be 63 7c 36 bd
       0.1130307 -0.04989822 -0.3270617 -0.04455222
000310 60 d6 9d bd 5d 0a b0 3d 08 48 67 be d5 57 86 be
       -0.077069044 0.08595727 -0.22586071 -0.26238886
000320 ce fe 16 bf 07 9b 55 bd 6f 98 2d 3e 03 f0 4e bd
       -0.5898255 -0.0521498 0.1695268 -0.05052186
000330 86 2c 94 3d 77 d7 1e bf 8f 52 80 bd e9 99 47 bf
       0.07235055 -0.62047523 -0.06265747 -0.77969223
000340 09 c2 02 bf 8d 3c ad bc 73 7d 0c bf af 05 45 be
       -0.51077324 -0.021147037 -0.5487892 -0.1924045
000350 23 fa 93 be a7 cd f4 be fa 8d ab be 42 8e 66 be
       -0.28901777 -0.4781315 -0.33506757 -0.22515205
000360 5e 8f d4 3c 34 19 aa 3e 0d f9 21 3e b2 80 66 be
       0.025947269 0.33222353 0.15817662 -0.22510031
000370 9a 7b a4 be 6a be 3a be 6e 65 a4 3c 33 55 ee 3d
       -0.3212555 -0.182367 0.020067897 0.11637344
000380 91 ff b9 bc 07 70 c6 bc 74 09 8c bf 19 d9 fc be
       -0.022704871 -0.02422334 -1.0940385 -0.49384382
000390 5a d7 ab 3d a2 70 51 bf 26 87 d3 be 29 38 bb be
       0.083906844 -0.8181249 -0.41314048 -0.36566284
0003a0 5e 4a 24 3d 82 39 07 be 78 3d ab bd c2 31 46 3d
       0.040109985 -0.13205531 -0.083613336 0.048387296
0003b0 05 79 86 3b 14 dd 9f 3d 73 61 79 bd 26 92 90 bd
       0.004103782 0.07805839 -0.06088395 -0.070591256
0003c0 73 69 65 3e 0a 76 0e 3e f4 1f ac 3d 3b a6 6a bf
       0.22403507 0.13912216 0.08404532 -0.916599
0003d0 16 ee 48 bf c0 59 cd bd e3 23 8f bd 2d 05 4b 3d
       -0.7848829 -0.10026884 -0.06989267 0.049565483
0003e0 19 56 23 bf a2 14 fa 3d 96 28 13 3e 25 97 cd be
       -0.6380325 0.12210967 0.14370951 -0.40154377
0003f0 0b 70 2d 3d 3f a5 34 bd e7 fc 77 be 73 77 9a bf
       0.04234318 -0.044102903 -0.24217568 -1.2067703

fc4.bias f4 [10]
000000 75 5a 81 be 8c 5e 0a bf ab 01 74 3d 71 d5 9a 3e
       -0.25264326 -0.5405052 0.059571903 0.30240968
000010 04 30 d0 be 9b d9 11 3f 71 78 ec 3d 02 3c d8 3e
       -0.40661633 0.56972665 0.1154641 0.42233282
000020 67 26 84 3e 6f 14 5a bf
       0.2581055 -0.8518743
